Scenes/ImprovedGridWorld2D/results/env-params-test/DroneGrid2D/DroneGrid2D-102686.onnx (onnx, 77147 bytes, 6 tensors)

network_body._body_endoder.seq_layers.0.weight f4 [128, 6]
0	0xbe7a16cc	-0.24422759
1	0x3dbea723	0.093092225
2	0x3e350741	0.17678548
3	0xbe7ff9f5	-0.24997695
4	0xbf6113cf	-0.8792085
5	0x3e37f4fd	0.1796455
6	0x3e4fb1ec	0.20282716
7	0x3d801933	0.06254806
8	0xbf189218	-0.5959792
9	0xbe9e44cf	-0.30911872
10	0xbf14b428	-0.58087397
11	0xbf26eaf0	-0.65202236
12	0x3e7dcfdb	0.24786322
13	0xbf26e440	-0.6519203
14	0xbea4ac90	-0.32162905
15	0xbea350be	-0.3189754
16	0xbed76027	-0.42065546
17	0xbe65cc97	-0.22441326
18	0xbf2ff6ca	-0.68735945
19	0x3e976dfd	0.29576102
20	0x3eb1c3a3	0.3471957
21	0xbe833af1	-0.25630906
22	0xbe335ac0	-0.17515087
23	0x3e379f5b	0.17931883
24	0x3e25aabb	0.1617841
25	0xbe61dc1f	-0.22056626
26	0xbee68c12	-0.4502874
27	0x3d06307d	0.032761086
28	0xbefd4e4e	-0.49473804
29	0xbc5e02f7	-0.013550512
30	0xbed9d32c	-0.42543924
31	0xbede256f	-0.43387935
32	0x3e90ac76	0.28256577
33	0xbf3ee1f1	-0.7456351
34	0x3e185694	0.14876777
35	0xbf35f8ca	-0.71082747
36	0x3e836c65	0.25668636
37	0xbe02c849	-0.12771715
38	0xbe89bb2f	-0.26900622
39	0x3eb32648	0.34990144
40	0x3f35aea9	0.70969635
41	0x3d77d0c3	0.060501825
42	0x3e8ea52e	0.27860397
43	0xbe78069c	-0.24221271
44	0x3ddd7fec	0.10815415
45	0x3f01e2e2	0.5073682
46	0x3f1026d1	0.5630923
47	0x3e00ab40	0.12565327
48	0xbdd0e51e	-0.10199951
49	0x3e45f2f1	0.19330956
50	0xbda8d46f	-0.082436435
51	0xbf0aa252	-0.5415393
52	0x3edf89ca	0.43659812
53	0xbf61e6ea	-0.8824297
54	0x3f085f1e	0.5327014
55	0x3f184a0e	0.59488
56	0x3ee2dc13	0.44308528
57	0x3f16da75	0.5892709
58	0xbeee2b96	-0.46517628
59	0x3f2b08b1	0.6681014
60	0x3eba245b	0.36355862
61	0xbec0c953	-0.37653598
62	0xbda26f47	-0.07931381
63	0xbcada98f	-0.021199016
64	0x3e69ab61	0.22819282
65	0x3d165f28	0.03671184
66	0x3dfa3285	0.12216667
67	0x3c4c4de8	0.012469746
68	0x3ea1e56a	0.31620342
69	0x3ee610b5	0.4493462
70	0xbfb80461	-1.4376336
71	0x3f21b7dc	0.6317117
72	0xbed833fd	-0.42227164
73	0xbdd42bed	-0.10359941
74	0xbebe7a50	-0.37202692
75	0xbe9a3a51	-0.30122617
76	0x3ea69d76	0.32542008
77	0xbf456885	-0.7711261
78	0xbe3a89c6	-0.18216619
79	0x3e594fd4	0.21221858
80	0x3d15edd1	0.036603753
81	0x3e881131	0.26575616
82	0x3eae2198	0.34010005
83	0xbf5db5d3	-0.86605567
84	0x3e47d257	0.19513832
85	0x3f2b3803	0.6688234
86	0xbf0fc6d5	-0.5616277
87	0x3f00b294	0.5027249
88	0x3e77fdf0	0.24217963
89	0x3f04e806	0.5191654
90	0xbe905e5c	-0.2819699
91	0x3f5ae980	0.8551254
92	0x3f1954f2	0.5989524
93	0xbdde100f	-0.10842907
94	0x3e8892a1	0.2667437
95	0xbe33b6ab	-0.17550151
96	0xbce238ef	-0.027615039
97	0xbe6531ec	-0.22382325
98	0xbe434bad	-0.19071837
99	0xbe2174cf	-0.15767215
100	0x3e4c63b6	0.19959912
101	0x3e86c668	0.26323247
102	0xbec6151c	-0.3868798
103	0xbf3f4282	-0.7471086
104	0xbe653983	-0.2238522
105	0x3d93c040	0.07214403
106	0xbe66e380	-0.22547722
107	0xbee2b6b0	-0.44280005
108	0xbec1ce0e	-0.3785252
109	0xbc532116	-0.012886306
110	0x3eb7f927	0.35932276
111	0xbf732dba	-0.9499165
112	0xbddb8715	-0.10719124
113	0x3efe268c	0.49638784
114	0xbf4f498a	-0.80971587
115	0xbf246f4f	-0.64232343
116	0xbe114427	-0.14186154
117	0xbdbcf168	-0.09225732
118	0xbe583e5d	-0.2111754
119	0x3f9449a0	1.1584969
120	0x3e1df972	0.15427187
121	0x3e97b33a	0.29628927
122	0xbed70b39	-0.4200075
123	0xbeb22309	-0.34792355
124	0xbf10bc05	-0.56536895
125	0x3e23e955	0.16006978
126	0xbe527bef	-0.2055509
127	0x3ec34b61	0.38143447
128	0xbe1afec5	-0.1513625
129	0xbdc5e08a	-0.09661968
130	0xbf32ea0a	-0.69888365
131	0x3ea5be56	0.32371777
132	0xbe63a5fd	-0.22231288
133	0xbd462ef9	-0.04838464
134	0xbe9ccfbd	-0.30627242
135	0x3e901f40	0.28148842
136	0x3bc4ea75	0.006009395
137	0x3f814bba	1.0101235
138	0x3eb029a4	0.3440677
139	0xbe488d91	-0.19585253
140	0x3e6a0db4	0.2285679
141	0xbf71313f	-0.9421577
142	0x3f234d79	0.6379009
143	0x3f13544e	0.57550514
144	0x3d423a00	0.047418594
145	0xbea42a3a	-0.32063466
146	0xbe80438f	-0.25051543
147	0xbcb9ec0b	-0.022695562
148	0xbc422f6d	-0.0118521275
149	0x3eefb903	0.4682084
150	0x3f09bdd7	0.538053
151	0x3dd5fc71	0.1044854
152	0xbf13ee81	-0.57785803
153	0x3cc78651	0.02435604
154	0x3dd1dcb5	0.10247175
155	0x3f66ec28	0.90204096
156	0x3e545d74	0.20738775
157	0x3eaae010	0.3337407
158	0xbf559087	-0.83423656
159	0x3e90a415	0.28250185
160	0x3ea3b2ec	0.31972444
161	0x3f1de082	0.61670697
162	0x3f0ed1ff	0.5578918
163	0x3f2eaeff	0.6823577
164	0x3e16baa0	0.1471963
165	0x3dad514c	0.08462772
166	0xbcb2401b	-0.021759083
167	0x3e19739d	0.14985509
168	0x3e92a08d	0.28638116
169	0xbe96f81e	-0.29486173
170	0x3ecf20b7	0.40454647
171	0xbf1a61b9	-0.6030536
172	0xbebd2664	-0.36943352
173	0xbe9d726b	-0.30751356
174	0xbe3fa403	-0.1871491
175	0xbd8778b9	-0.06614823
176	0x3eeb6a71	0.45979646
177	0xbd92cd8d	-0.07168112
178	0x3e779686	0.24178514
179	0x3ee38b90	0.44442415
180	0x3e11e994	0.14249259
181	0x3e317291	0.1732886
182	0x3e4e6d48	0.20158875
183	0xbcc57e40	-0.024108052
184	0xbed69142	-0.41907698
185	0x3ec4fc60	0.38473797
186	0x3ccd13d2	0.025033865
187	0xbdd4d33f	-0.103918545
188	0xbf79178b	-0.9730155
189	0xbbcdba07	-0.0062782797
190	0x3ebfd22b	0.37465033
191	0x3e417c3c	0.18895048
192	0xbc3c998a	-0.011511216
193	0xbe8d1513	-0.2755514
194	0xbe24b615	-0.16085084
195	0x3d9b4d24	0.07583073
196	0xbea071d6	-0.3133685
197	0xbefebca1	-0.49753287
198	0xbecb369b	-0.39690098
199	0x3f021e4f	0.508275
200	0xbf09a3aa	-0.53765357
201	0x3e9ecb32	0.310144
202	0x3eecd75f	0.46258065
203	0x3d6011ab	0.05470435
204	0xbdab0f94	-0.08352581
205	0x3f1e86e5	0.6192458
206	0xbf5d080f	-0.8634042
207	0x3de31f69	0.110899754
208	0xbf30d840	-0.6907997
209	0xbf6fea1f	-0.93716615
210	0xbd30cfa8	-0.043166786
211	0xbed84660	-0.42241192
212	0x3e81f797	0.2538421
213	0x3db966c5	0.09052805
214	0xbcff07f9	-0.031131731
215	0x3f18c482	0.5967485
216	0xbe4f8e1a	-0.20269051
217	0x3e029836	0.12753376
218	0x3ebb1523	0.36539564
219	0xbe40402c	-0.1877448
220	0x3e473082	0.19452098
221	0xbf19b480	-0.60041046
222	0x3e1b64fb	0.1517524
223	0xbe8f0638	-0.27934432
224	0x3ec7a2eb	0.38991484
225	0x3e2f543b	0.17121975
226	0xbe96d0f4	-0.29456294
227	0x3f2bee92	0.67160904
228	0xbdea6f97	-0.11447065
229	0xbdc12561	-0.094309576
230	0xbed89655	-0.42302194
231	0x3e7a2cee	0.24431202
232	0x3da61476	0.08109371
233	0x3e9f623c	0.31129634
234	0xbf72f2fa	-0.94902
235	0xbd8e4807	-0.06947332
236	0x3e96f04a	0.294802
237	0x3d71cd96	0.059033953
238	0xbf0469cb	-0.5172393
239	0xbf4bc920	-0.7960377
240	0x3ebe4e46	0.37169093
241	0x3f13837a	0.5762249
242	0x3e25f8ee	0.1620824
243	0x3c5b77df	0.013395279
244	0x3daa11e8	0.083041966
245	0xbdae917e	-0.08523844
246	0x3eddb20b	0.43299899
247	0xbe597fb3	-0.2124012
248	0x3e053d91	0.13011767
249	0x3ecae5e3	0.39628515
250	0xbf8c58d0	-1.0964603
251	0x3ebe9df0	0.37229872
252	0xbc8bf7fa	-0.017086018
253	0x3e99ddf7	0.30052158
254	0xbf1394b6	-0.5764879
255	0xbf08eed5	-0.5348943

network_body._body_endoder.seq_layers.0.bias f4 [128]
0	0x3bebbc29	0.0071940613
1	0x3bd18db2	0.006395065
2	0x3bf106a1	0.0073555266
3	0x3d2ca167	0.042146113
4	0xbc442956	-0.011972746
5	0x3cceb7f8	0.025234208
6	0x3c346626	0.011010682
7	0x3c05593d	0.008138952
8	0x3d1174e1	0.035511855
9	0xbcc23eff	-0.02371168
10	0xbc873e24	-0.016509123
11	0x3d2fc43b	0.04291175
12	0x3d7a2cdb	0.061077934
13	0x3d473898	0.048637956
14	0x39f00220	0.0004577795
15	0x3cd19e62	0.025588218
16	0x3d1f21d0	0.038850605
17	0xbb0cb343	-0.0021469153
18	0x3ca2e1d0	0.019883066
19	0x3d30a3b2	0.043124862
20	0x3c3b6382	0.011437299
21	0x3bf9f90a	0.0076285647
22	0x3d12b631	0.035818283
23	0x3d8be68d	0.068310834
24	0x3c0bd635	0.008534958
25	0x3be5225c	0.0069926213
26	0x3bc965f1	0.0061461856
27	0x3d254808	0.040351897
28	0x3cbf0197	0.023316188
29	0x3c69396b	0.014234881
30	0xbc898cf0	-0.016790837
31	0x3d09f726	0.033682965
32	0x3c2c4005	0.01051331
33	0x3c8b5ee2	0.017013017
34	0x3c8543b8	0.016267642
35	0xba06d149	-0.000514288
36	0x3cbecfab	0.023292383
37	0xbc1c2c8c	-0.009532105
38	0xbb05efac	-0.0020437045
39	0x3cfc2a0f	0.030781774
40	0x3bcd4b08	0.006265048
41	0x3cd2cf05	0.02573348
42	0x3c182467	0.009286023
43	0x3b9e9409	0.0048394245
44	0x3cb09aea	0.021558244
45	0xbd2aa2b3	-0.04165907
46	0x3be5437e	0.006996571
47	0x3ca56dfd	0.020194048
48	0x3cb22963	0.02174825
49	0x3c87fc37	0.016599758
50	0x3bcba679	0.0062149134
51	0x3c96971e	0.018382605
52	0x3bc03f6c	0.0058669355
53	0x3bd79c78	0.006579932
54	0x3b905ecc	0.004405832
55	0x3c870629	0.01648243
56	0x3d279cbb	0.040920954
57	0x3cbb0c13	0.022832906
58	0x3c304243	0.0107579855
59	0x3cea0534	0.028566934
60	0x3c85bb12	0.016324554
61	0x3c362f74	0.011119712
62	0x3ce8d9a0	0.028424084
63	0xbd00478e	-0.03131824
64	0x3b743bd0	0.0037267096
65	0x3beca645	0.0072219693
66	0x3d08fc3d	0.03344368
67	0x3d4012f8	0.04689309
68	0x3ca3e1f9	0.020005213
69	0xbc68ea76	-0.014216056
70	0x3c291f42	0.010322394
71	0xbbafb4a8	-0.005362112
72	0x3d91cf6f	0.07119643
73	0x3bc8baaa	0.0061257677
74	0x3c791f3b	0.0152052
75	0x3bc8fc88	0.0061336197
76	0xbd2006b1	-0.03906888
77	0x3c141da3	0.009040269
78	0x3c92ec75	0.017935017
79	0x3b1ff9f4	0.0024410458
80	0x3be1d970	0.0068923756
81	0xbcf355c7	-0.029703988
82	0x3c46aa2d	0.012125534
83	0xbc86a4a6	-0.016435932
84	0xbc711efa	-0.014716858
85	0x3d681b6b	0.056666773
86	0x3cb46194	0.022019185
87	0xbb845ac3	-0.00403914
88	0x3ccfde38	0.025374517
89	0x3bbaa59e	0.0056960126
90	0x3cdb93ab	0.026803812
91	0x3c8ddf0c	0.017318271
92	0x3d2016e1	0.03908432
93	0x3c0e1fd2	0.008674579
94	0x3c6dbcad	0.014510316
95	0x3c9a02e8	0.018800214
96	0x3bfc00d7	0.00769053
97	0x3ba94180	0.005165279
98	0x39d35da0	0.00040314812
99	0xbbf3a708	-0.007435683
100	0x3c03935a	0.008030737
101	0x3d3537c3	0.04424263
102	0x3c529674	0.012853254
103	0x3cbead08	0.023275867
104	0x3b8a5198	0.0042211525
105	0x3ba15787	0.004923764
106	0x3cc4779d	0.023982817
107	0x3d67e23a	0.05661223
108	0x3ccfd7db	0.025371483
109	0x3d26c0a3	0.040711056
110	0x3ca8a095	0.020584384
111	0x3cd0e438	0.025499448
112	0x3d50ac9c	0.050945863
113	0xbbdab812	-0.006674775
114	0x3d8b3ecc	0.06799087
115	0x3cba29cc	0.022725008
116	0x3c8d761b	0.017268231
117	0x3c7c2641	0.01538998
118	0x3d14e5c7	0.036351945
119	0x3b621303	0.0034496195
120	0x3d3a0d36	0.045422755
121	0x3c51b3d3	0.012799221
122	0x3aa3687d	0.0012467053
123	0x3ccb0324	0.024781771
124	0x3ca4f579	0.020136582
125	0x3cca1c58	0.024671718
126	0x3ce868a9	0.028370218
127	0x3d4e83d1	0.05041868

network_body._body_endoder.seq_layers.2.weight f4 [128, 128]
0	0xbd2e545f	-0.04256093
1	0xbe40d506	-0.18831262
2	0xbd861178	-0.06546301
3	0x3dcf4ce6	0.10122089
4	0xbe02b7ae	-0.1276538
5	0xbda199dc	-0.078906745
6	0x3df4b89b	0.11949273
7	0xbd5eebe7	-0.054424193
8	0x3bbc627e	0.005749046
9	0xbdc2da87	-0.09514337
10	0xbe0eac03	-0.13932805
11	0xbdeb562f	-0.114910476
12	0xbd8fb64d	-0.07017193
13	0xbc6b7ed7	-0.014373503
14	0x3ddfe5aa	0.10932477
15	0xbcd3b359	-0.025842356
16	0x3e5857b1	0.21127202
17	0xbe44c1c5	-0.19214542
18	0x3dbef660	0.09324336
19	0x3dcb794d	0.09935246
20	0x3d4bb685	0.04973461
21	0xbdb5c681	-0.08875752
22	0x3d442945	0.04789092
23	0x3e11a600	0.1422348
24	0x3dfacd08	0.12246138
25	0xbd63be0d	-0.05560117
26	0x3ddf052b	0.108896576
27	0xbd065225	-0.032793183
28	0xbe1ec0e3	-0.15503268
29	0xbd04f0dd	-0.032456268
30	0xbcd2151d	-0.025644833
31	0xbd172176	-0.036897145
32	0xbe3a4300	-0.18189621
33	0xbe07503e	-0.13214204
34	0xbe273f07	-0.16332637
35	0x3e879267	0.26478884
36	0x3d2ca9ad	0.042154003
37	0x3d0a38aa	0.033745445
38	0x3c7cfc4f	0.015441014
39	0xbe175a1b	-0.14780466
40	0x3c8344bb	0.016023984
41	0xbdcdcfce	-0.10049401
42	0x3c819b26	0.01582105
43	0xbe66effa	-0.22552481
44	0xbd2d4d74	-0.042310193
45	0xbdf3c443	-0.11902668
46	0xbdea06e9	-0.11427099
47	0x3d72b376	0.05925318
48	0xbd1f85f0	-0.038946092
49	0x3d67a1b9	0.056550715
50	0xbc92aa01	-0.01790333
51	0x3e275581	0.16341211
52	0xbe1e51e7	-0.15460931
53	0x3dc4bd88	0.09606463
54	0xbe069c9e	-0.13145682
55	0x3e26b0f0	0.16278434
56	0x3d9589fc	0.07301709
57	0xbd4182e6	-0.047243975
58	0x3db38669	0.08765871
59	0xbe5ad8c7	-0.21371756
60	0x3d99563b	0.0748715
61	0xbda01ac6	-0.07817607
62	0x3d6ab07b	0.05729721
63	0xbb481811	-0.0030531923
64	0xbd37be9a	-0.044859506
65	0x3e4d0618	0.20021856
66	0xbe208d22	-0.15678838
67	0xbd8c7ce3	-0.06859758
68	0x3d029b2c	0.031886265
69	0x3cc35e76	0.023848753
70	0x3df8480f	0.12123119
71	0x3d1b21d7	0.03787407
72	0x3dbfe659	0.09370107
73	0xbdfd36fb	-0.12364002
74	0xbe2b1c5c	-0.16710037
75	0xbe4360e5	-0.19079931
76	0xbd28dd8e	-0.041226916
77	0x3dd94f56	0.10610835
78	0x3d0308d0	0.031990826
79	0xbe047e60	-0.12938833
80	0xbcdb9e17	-0.026808782
81	0xbe8248fb	-0.25446305
82	0x3cc49bda	0.024000097
83	0x3caf9d79	0.021437394
84	0xbd2067de	-0.039161555
85	0xbd5e5f25	-0.054289956
86	0xbd0b7ea2	-0.034056313
87	0xbd5c20b2	-0.05374212
88	0xba05ee1c	-0.00051090284
89	0xbd1df4e1	-0.038563613
90	0x3cee1781	0.029063942
91	0xbdf43b23	-0.11925342
92	0x3893eec9	7.0539834e-05
93	0x3e699187	0.2280942
94	0x3d505ffa	0.05087278
95	0xbded916f	-0.11600005
96	0x3cd39e67	0.025832368
97	0x3e01b875	0.12668021
98	0x3dd95701	0.10612298
99	0xbdf857db	-0.12126132
100	0x3cd34007	0.025787367
101	0x3d7b1a99	0.061304662
102	0x3d22c5c6	0.039739393
103	0xbdf75bb3	-0.12078037
104	0xbc30bf5a	-0.010787809
105	0x3e4bb66f	0.19893812
106	0xbcde193c	-0.027111642
107	0x3e2d0430	0.16896129
108	0x3a019d4b	0.0004944398
109	0xbe003433	-0.12519912
110	0xbeb651e4	-0.35609353
111	0xbddd71e5	-0.10812739
112	0x3d549744	0.05190207
113	0xbe121d9d	-0.14269109
114	0x3d8be1ee	0.06830202
115	0xbe134600	-0.14382172
116	0x3e0147c8	0.12625039
117	0x3e16cb7d	0.14726062
118	0x3e393533	0.180867
119	0xbde1387c	-0.10997102
120	0x3cfdd5d0	0.030985743
121	0x3d947bdf	0.07250189
122	0x3d0765c2	0.03305603
123	0xbe71e64f	-0.23623012
124	0xbe7dc246	-0.2478114
125	0x3dfe8d2b	0.124292694
126	0xbe151ff1	-0.14562966
127	0x3d3d51b1	0.046220485
128	0xbd8e9601	-0.06962205
129	0xbcca5835	-0.024700264
130	0x3d838147	0.06421142
131	0xbde84c85	-0.1134272
132	0xbdebfa22	-0.115223184
133	0x3e82d2cc	0.2555145
134	0x3da93a5c	0.08263084
135	0xbd1cbba1	-0.038264874
136	0x3d3ca7ad	0.046058346
137	0xbcd67efb	-0.026183596
138	0xbcb0e488	-0.021593347
139	0xbdf5cb0a	-0.12001617
140	0x3e18a04a	0.14904895
141	0x3ce99725	0.028514454
142	0x3c57bd50	0.013167694
143	0x3c93f258	0.018059894
144	0xbd0dbda7	-0.034604695
145	0xbd93e33c	-0.07221076
146	0xbc4c33f2	-0.012463557
147	0x3b753725	0.0037416902
148	0xbc1729b0	-0.009226248
149	0xbeb67f98	-0.3564422
150	0xbdee9bd5	-0.11650816
151	0xbdc2e651	-0.095165856
152	0xbe2d0aa4	-0.1689859
153	0xbd24ded1	-0.040251557
154	0xbd26a9d1	-0.040689293
155	0x3dbbe321	0.09174181
156	0xbe1af738	-0.15133369
157	0xbda1ff81	-0.07910062
158	0xbd46de48	-0.048551828
159	0xbd9c9cbe	-0.07647084
160	0xbdba7164	-0.09103659
161	0xbde9f031	-0.11422766
162	0xbc961608	-0.018321052
163	0xbe0eef40	-0.13958454
164	0x3db48de7	0.08816128
165	0xbcc5b32f	-0.024133293
166	0xbe20d49d	-0.15706106
167	0x3e0b8b6d	0.13627405
168	0xbd85c898	-0.06532401
169	0x3d5e8191	0.054322783
170	0x3e0c3519	0.1369213
171	0xbd1f6bc2	-0.038921125
172	0x3e146354	0.14491016
173	0xbc975aec	-0.018475972
174	0xbd21426c	-0.039369985
175	0xbe3f819a	-0.18701783
176	0xbe5050c2	-0.20343307
177	0xbc0c2a11	-0.008554951
178	0xbd7af789	-0.061271224
179	0x3ca10a4f	0.019658236
180	0x3c197c36	0.009367993
181	0xbd18b7e5	-0.03728475
182	0x3c7301fb	0.014832015
183	0xbd819672	-0.06327523
184	0x3db3dd8c	0.08782491
185	0x3d24198c	0.040063426
186	0xbc8b73a7	-0.01702292
187	0x3de9a4f6	0.11408417
188	0xbdf9bd82	-0.12194349
189	0xbdb958d3	-0.09050145
190	0xbc090256	-0.008362373
191	0xbd710293	-0.058840346
192	0x3d98f037	0.07467692
193	0x3d6c9193	0.057756018
194	0x3e3c666f	0.1839845
195	0x3e26c32d	0.16285391
196	0x3dcf7469	0.10129625
197	0xbd72b766	-0.059256934
198	0x3de845ef	0.11341464
199	0x3e182a95	0.14859994
200	0x3dc85e1f	0.09783577
201	0x3db10eb3	0.08645382
202	0x3e3c2f0c	0.18377322
203	0x3d052673	0.03250737
204	0xbe1c0615	-0.15236695
205	0xbd648501	-0.055790905
206	0x3d05a965	0.03263225
207	0x3e7625a9	0.24037804
208	0x3dc9d446	0.09854941
209	0xbde7f106	-0.113252684
210	0xbe7acc3d	-0.24491973
211	0xbddb24e5	-0.107003964
212	0x3dfe2647	0.124096446
213	0x3d8d3bbe	0.068961605
214	0xbe11d57f	-0.14241599
215	0xbe52d2a7	-0.2058817
216	0xbd820c01	-0.06349946
217	0xbbd5c34f	-0.0065235267
218	0x3e203034	0.15643388
219	0x3c723655	0.014783462
220	0x3e424c28	0.18974364
221	0xbd358990	-0.044320643
222	0x3d6ccc83	0.057812225
223	0xbe1b4d69	-0.15166248
224	0xbd1559a8	-0.036462456
225	0xbe080352	-0.13282517
226	0x3d17c029	0.037048493
227	0x3de117be	0.109908566
228	0xbdc6ee34	-0.097134024
229	0x3d1e37ed	0.038627554
230	0xbcb6f994	-0.022335805
231	0x3d019f08	0.031645805
232	0xbc724498	-0.014786862
233	0xbd9a555d	-0.07535813
234	0x3d4d803d	0.050171126
235	0x3df916fe	0.121625885
236	0x3de5af30	0.11215055
237	0x3e15118c	0.14557475
238	0xbc442552	-0.0119717885
239	0x3dcce8c6	0.100053355
240	0x3db6a436	0.089180395
241	0x3d9ca024	0.07647732
242	0x3e1f2739	0.15542306
243	0x3e122753	0.14272813
244	0xbc974883	-0.018467193
245	0x3d84b820	0.064804316
246	0x3c9ad1ec	0.018898927
247	0xbe05c8c2	-0.13064864
248	0x3d450fe3	0.048110854
249	0xbc7ea1f3	-0.015541541
250	0xbe1c3825	-0.15255792
251	0x3d185d92	0.03719861
252	0x3d4ee1b4	0.050508216
253	0x3e3a1d8b	0.18175332
254	0x3e02e35c	0.12782043
255	0x3d63bacb	0.05559806

network_body._body_endoder.seq_layers.2.bias f4 [128]
0	0x3c7dbe50	0.015487269
1	0x3cd35531	0.025797458
2	0x3c476fc6	0.012172645
3	0x3c563de1	0.0130762765
4	0x3c122bf3	0.008921611
5	0x3cc1af47	0.023643149
6	0x3c84f987	0.016232265
7	0x3c95368d	0.018214488
8	0x3c816da2	0.015799347
9	0x3d3567ee	0.04428857
10	0x3d2d8396	0.04236182
11	0x3c9d3763	0.01919145
12	0x3cd9d1a2	0.026589219
13	0x3cb1882b	0.021671375
14	0x3d0de30f	0.034640368
15	0x3cadc6d0	0.021212965
16	0x3c409750	0.011754826
17	0x3c62f3c2	0.013852062
18	0xbd08748d	-0.033314276
19	0x3cd99557	0.026560469
20	0x3d023bd6	0.031795345
21	0x3c3fca37	0.011705927
22	0x3ca1db2f	0.019757835
23	0x3cc59176	0.024117213
24	0x3c48d674	0.012258161
25	0x3cbce5a6	0.023058724
26	0x3cb94be8	0.022619203
27	0xbd124445	-0.03570964
28	0x3b825643	0.0039775684
29	0x3d5c4caf	0.05378407
30	0x3ce59c2d	0.028028572
31	0x3c89f28a	0.016839284
32	0x3cebceda	0.028785158
33	0x3ccaa8da	0.024738718
34	0x3d03bb00	0.03216076
35	0x3c9bc2ec	0.019013844
36	0x3cb624dc	0.022234373
37	0x3c059482	0.008153083
38	0x3bff0d62	0.007783578
39	0x3d08d0fb	0.033402424
40	0x3d092277	0.033480134
41	0x3c65f0d4	0.014034469
42	0x3c36b579	0.011151665
43	0x3c96c31a	0.018403579
44	0x3cfb24e9	0.030657249
45	0x3cc0304f	0.023460535
46	0x3d3e8285	0.046511192
47	0x3c115c21	0.008872063
48	0x3d1ac447	0.03778484
49	0x3d0c04fb	0.034184437
50	0x3cc11830	0.023571104
51	0x3c80a0c3	0.015701657
52	0x3c9ab70a	0.018886108
53	0x3d026e3a	0.0318434
54	0x3c67ccf8	0.014147989
55	0x3c2a38bb	0.010389502
56	0x3cc908b1	0.024540277
57	0x3cd7101e	0.026252802
58	0x3cd1b08b	0.025596878
59	0x3ce5040c	0.027956031
60	0x3c90dffe	0.017684933
61	0x3cb1c93c	0.021702401
62	0x3c9f033f	0.019410728
63	0x3ce5fa23	0.028073376
64	0x3c8a64c6	0.016893756
65	0x3cdcf2b7	0.026971204
66	0xbc6717ea	-0.014104823
67	0x3c869959	0.016430544
68	0xbc9e6491	-0.019335063
69	0x3c8b241b	0.01698499
70	0x3cdac959	0.026707338
71	0x3bb663a1	0.005566076
72	0x3ca9a6d8	0.02070944
73	0x3c33eae1	0.010981292
74	0x3c14cb63	0.009081694
75	0x3c178901	0.009248973
76	0x3c864186	0.016388666
77	0x3d242526	0.04007449
78	0x3cc15133	0.02359829
79	0x3ce880db	0.028381756
80	0x3cd5f3ec	0.026117288
81	0x3cca96f6	0.024730187
82	0x3c72dcaf	0.014823123
83	0x3c496f3e	0.012294589
84	0x3c66a959	0.014078462
85	0x3bec9a46	0.0072205393
86	0x3ba11f54	0.0049170647
87	0x3d29085e	0.041267745
88	0x3c805f06	0.01567031
89	0x3cd85cba	0.026411403
90	0x3c782711	0.015146033
91	0x3cdc6c36	0.026907068
92	0x3c9aae44	0.018881924
93	0x3cd5c3e5	0.026094386
94	0x3c85686d	0.016285146
95	0x3a89a272	0.0010500683
96	0x3bca3880	0.006171286
97	0x3cbcbc16	0.023038905
98	0x3c9944e5	0.01870961
99	0x3cd65989	0.02616574
100	0x3bb382a1	0.0054782187
101	0x3cbaa257	0.022782488
102	0x3c24d7c3	0.010061207
103	0x3ce57b8b	0.028013011
104	0x3c76ced2	0.015063958
105	0x3c55d39c	0.01305094
106	0xbbeaa9a7	-0.0071613374
107	0x3c3fc558	0.011704765
108	0x3cf73687	0.030177368
109	0x3cc2d649	0.02378382
110	0x3d201781	0.039084915
111	0x3cc8cd1d	0.024511868
112	0x3cd04896	0.025425237
113	0x3cc162b9	0.023606645
114	0x3cb51234	0.022103406
115	0x3d158d98	0.036511987
116	0x3cc5a9c2	0.024128798
117	0x3c72d403	0.014821055
118	0x3d03eabf	0.032206293
119	0x3baa0018	0.0051879995
120	0x3b8a5035	0.004220987
121	0x3c706008	0.014671333
122	0x3cc74190	0.024323255
123	0x3d07c018	0.03314218
124	0x3ce8d5e9	0.028422313
125	0x3c84198d	0.016125465
126	0x3cc666cc	0.02421894
127	0x3cb4e422	0.022081438

action_model._discrete_distribution.branches.0.weight f4 [5, 128]
0	0xbac35276	-0.0014901895
1	0x3983ba6d	0.00025125165
2	0x3d2659f8	0.040613145
3	0x3c6e8aaa	0.014559427
4	0xbbbd175f	-0.0057706083
5	0x3c7c4281	0.015396715
6	0xbc4eed69	-0.012629845
7	0x3b2adaa2	0.0026070257
8	0xbba11b9c	-0.0049166214
9	0xbc53264f	-0.012887551
10	0xbb29403f	-0.0025825647
11	0xbb1e93ba	-0.0024196939
12	0xbca7e9ba	-0.020497192
13	0xbb90218a	-0.0043985294
14	0xbcb010ed	-0.021492446
15	0x3c002c53	0.007823068
16	0xbc0a40d1	-0.008438305
17	0x39bdb005	0.00036180034
18	0x3d000ab3	0.031260204
19	0x3b5525e5	0.0032523808
20	0xbc8f686f	-0.017505853
21	0x3c65c4e0	0.014023989
22	0xbbcb3589	-0.0062014502
23	0x39a9bd77	0.00032375354
24	0x3a4cc1b1	0.00078108447
25	0xbc2125d8	-0.009835683
26	0xbc00832c	-0.007843774
27	0x3c925d5b	0.017866781
28	0x3cbf5e88	0.023360506
29	0xbce833ef	-0.028345076
30	0x3bebd792	0.007197329
31	0xbc70868b	-0.014680515
32	0x3b278b85	0.0025565338
33	0xbbab5b67	-0.005229402
34	0xbbb3f175	-0.0054914304
35	0x3c8df1f8	0.017327294
36	0xbba710fd	-0.0050984607
37	0xbaf58648	-0.0018732036
38	0xbbeaa1c0	-0.0071603954
39	0x38bd5886	9.028711e-05
40	0xbc873c73	-0.016508317
41	0xbc6bb428	-0.014386214
42	0x3b8660b7	0.004100885
43	0x3c529908	0.012853868
44	0x3c19e001	0.009391786
45	0xbc179327	-0.009251392
46	0xbc06fb96	-0.008238694
47	0xbb0cb4d0	-0.0021470077
48	0xbc98fce2	-0.018675271
49	0xbc56c6bc	-0.013108905
50	0xbbf6e247	-0.0075342986
51	0x3c3895fc	0.011266228
52	0xbc3e3080	-0.011608243
53	0xbcbb2e84	-0.022849329
54	0xbc052a59	-0.008127772
55	0x3b746025	0.0037288752
56	0xbd00dc45	-0.031460065
57	0xbc6fea37	-0.0146432435
58	0xbc617a75	-0.013762106
59	0xbcaf8440	-0.021425366
60	0xbbe0cd96	-0.0068604453
61	0xbc946467	-0.018114282
62	0x3bf2deb3	0.0074118017
63	0xbb437dc5	-0.0029829603
64	0x3c03f615	0.008054276
65	0xbc634759	-0.013871991
66	0x3c8f72bb	0.017510762
67	0xbcc2631f	-0.023728905
68	0x3cef25d5	0.029192844
69	0xbb56527a	-0.0032702968
70	0xbb779540	-0.003777817
71	0x3c10ff38	0.008849911
72	0xbc289fdf	-0.0102920225
73	0xbbb62d4b	-0.0055595986
74	0xbb180799	-0.0023197888
75	0x3caed94c	0.02134385
76	0xbafbe17c	-0.001921698
77	0x3bd876c3	0.0066059544
78	0x3a25df0c	0.0006327487
79	0xbca6cd45	-0.020361552
80	0xbb270c20	-0.0025489405
81	0xbc1c1674	-0.009526838
82	0xbcc482a6	-0.02398808
83	0xbc3348f3	-0.010942685
84	0xbb9614fa	-0.0045801373
85	0xbaf2e121	-0.0018530228
86	0x3bdaa36a	0.0066723125
87	0xbcc57698	-0.024104401
88	0xbcb02806	-0.02150346
89	0x3883a0f6	6.276548e-05
90	0x3ca9d935	0.020733455
91	0xbc9264ba	-0.017870296
92	0xbb933750	-0.0044926777
93	0xbcb73e66	-0.022368621
94	0xbc591561	-0.013249726
95	0x3b00b41c	0.0019638604
96	0x3b2fc804	0.00268221
97	0xbbebfc9e	-0.007201745
98	0x3c42166c	0.011846166
99	0x3c9ef97e	0.019406077
100	0x3c5b2eb9	0.013377839
101	0xbc84781f	-0.01617056
102	0xbbb840ad	-0.0056229443
103	0x3c13fc9c	0.009032395
104	0x3c09c980	0.008409858
105	0xbc8b1850	-0.016979367
106	0x3c7439ec	0.014906388
107	0x3bebe0e3	0.0071984394
108	0xbcbba852	-0.02290741
109	0x3a3676c5	0.0006960447
110	0xbc4f7b10	-0.012663618
111	0x3b14ef96	0.0022725812
112	0xbb93c010	-0.0045089796
113	0xba9c7fb8	-0.0011939919
114	0xbb240257	-0.0025025809
115	0xbd1e0452	-0.03857834
116	0xbc368860	-0.011140913
117	0x3c66e7cf	0.014093353
118	0xbc915b35	-0.017743686
119	0x3c2b3b76	0.010451188
120	0xbc222b18	-0.00989797
121	0xbd03d659	-0.03218684
122	0xbb146fe1	-0.0022649693
123	0x3bbff35b	0.0058578677
124	0xbb4f3024	-0.0031614387
125	0xbb8918cb	-0.0041838638
126	0x3c653624	0.013989959
127	0x3c402b90	0.011729136
128	0xbd1ca878	-0.0382466
129	0x3d994fb7	0.074859075
130	0x3d926fe7	0.0715025
131	0x3d98e7fd	0.07466123
132	0x3c5f9e96	0.01364865
133	0x3d62b7ef	0.055351194
134	0xbd2fb66a	-0.042898573
135	0xbd976496	-0.07392232
136	0x3d3f2f07	0.04667571
137	0x3d8c6886	0.06855874
138	0x3d901c48	0.07036644
139	0x3ced87f8	0.028995499
140	0x3d897415	0.06711594
141	0xbd447d41	-0.047971014
142	0x3d875d0f	0.066095464
143	0x3d104d29	0.035229836
144	0xbbdc9b5a	-0.0067323865
145	0xbd76ad3a	-0.060223795
146	0xbc85057d	-0.016237969
147	0xbd94c676	-0.07264416
148	0x3d492753	0.049109768
149	0x3d1905ac	0.037358925
150	0x3da07df9	0.078365274
151	0xbb216242	-0.0024625217
152	0x3c308dc8	0.010775991
153	0xbd94d3db	-0.07266971
154	0x3d553d5d	0.052060474
155	0xbc12f68b	-0.008969913
156	0x3d5d6b5c	0.054057464
157	0x3d8206cf	0.06348955
158	0x3db0cf7d	0.08633325
159	0xbd925602	-0.07145311
160	0xbda4fb3f	-0.08055734
161	0xbad842bd	-0.0016499382
162	0x3d94432c	0.072393745
163	0xbb1d30ca	-0.002398538
164	0x3b3aa8c7	0.0028481947
165	0xbd88e0ce	-0.06683503
166	0xbd4b47dd	-0.04962908
167	0x3d751c89	0.059841666
168	0x3d969ce2	0.07354142
169	0x3d2a236e	0.041537695
170	0xbd4b44df	-0.049626227
171	0x3d4740af	0.04864567
172	0x3d8d36b3	0.06895199
173	0xbcb1d31e	-0.021707114
174	0xbbcef9ff	-0.006316423
175	0xbd2e8c39	-0.042614195
176	0xbdbeb7b9	-0.09312386
177	0x3dab3548	0.08359772
178	0x3d76570d	0.06014161
179	0xbc8b041e	-0.016969737
180	0x3d96b2b1	0.073583014
181	0xbdac5686	-0.084149405
182	0xbd6b0625	-0.057378907
183	0x3da43208	0.08017355
184	0xbc83265e	-0.016009506
185	0x3afbfe1e	0.0019225513
186	0x3d65f43d	0.056141127
187	0xbd49068b	-0.049078505
188	0xbd525053	-0.051346134
189	0x3d44ba33	0.048029136
190	0x3d2ca72c	0.042151615
191	0x3d815aba	0.06316133
192	0x3d40ad49	0.047040258
193	0xbd4d9314	-0.050189093
194	0x3ce7df9d	0.02830487
195	0xbcdb2297	-0.026749892
196	0x3d276101	0.040863995
197	0x3da1a9de	0.07893728
198	0x3d749987	0.059716728
199	0x3c746b97	0.01491823
200	0x3d52e3cc	0.051486775
201	0xbd759372	-0.059955068
202	0x3c741da4	0.014899645
203	0x3d313172	0.043260045
204	0x3cd49ceb	0.02595373
205	0x3d84af30	0.06478727
206	0x3cc98923	0.024601525
207	0xbd8fa6aa	-0.070142105
208	0xbd8ce15b	-0.06878921
209	0xbd8755e7	-0.066081814
210	0xbda73a93	-0.08165469
211	0xbd8f74bc	-0.07004687
212	0xbcc3c707	-0.023898615
213	0xbd04bedb	-0.032408576
214	0xbd988f15	-0.07449166
215	0xbda2488d	-0.07923994
216	0xbda623dd	-0.08112309
217	0x3d977235	0.0739483
218	0x3da00852	0.07814087
219	0xbd959d65	-0.07305411
220	0x3d8b86a2	0.068127885
221	0x3d8466eb	0.064649425
222	0xbd8714e5	-0.06595782
223	0xbcf864d1	-0.03032151
224	0xbd852799	-0.06501693
225	0x3d408fff	0.047012325
226	0x3d0e84fe	0.0347948
227	0x3dafae27	0.08578139
228	0x3d87eba0	0.06636739
229	0x3d9066c9	0.07050855
230	0xbd7eb0bd	-0.06218027
231	0x3d5c2715	0.05374821
232	0x3d4a50d8	0.049393505
233	0x3d8fea30	0.070270896
234	0xbd2453e1	-0.040119056
235	0x3d53f5a2	0.051747926
236	0x3d69006c	0.056885168
237	0x3da832f2	0.08212842
238	0x3d5ef2a6	0.054430626
239	0x3da52c32	0.0806507
240	0xbd3565b3	-0.04428644
241	0x3d57b0ac	0.05265872
242	0x3d4719a1	0.048608426
243	0xbd766de2	-0.060163386
244	0x3db98e5a	0.090603545
245	0x3d455dd8	0.0481852
246	0xbda8cc81	-0.08242131
247	0x3d37ec6b	0.0449032
248	0xbdb7e4e3	-0.089792036
249	0xbc9071f7	-0.017632468
250	0x3c401b5f	0.011725276
251	0xbcc9a986	-0.024616968
252	0x3d57c589	0.05267862
253	0x3d3f0cc7	0.046643045
254	0x3d5285b8	0.051397055
255	0x3d319609	0.043355975

action_model._discrete_distribution.branches.0.bias f4 [5]
0	0xbd0659c7	-0.032800462
1	0x3b8e3f87	0.004341069
2	0x3b669898	0.0035186168
3	0x3c9ed874	0.019390322
4	0xbb836561	-0.004009888
