Scenes/ImprovedGridWorld2D/results/env-params-test/DroneGrid2D/DroneGrid2D-105952.onnx (onnx, 77147 bytes, 6 tensors)

network_body._body_endoder.seq_layers.0.weight f4 [128, 6]
0.570287 0.11593257 -0.19204733 0.3979445 0.58043027 0.24231075 -0.08728741 0.19824767
-0.51661193 -0.07482184 0.64674807 -0.31084874 -0.15567575 -0.71721226 0.20628448 0.24520242
0.2461475 -0.5301856 0.08886868 -0.17438403 0.6088898 0.20807661 0.6261128 0.54057944
-0.270269 0.26761898 -1.104499 -0.24596712 0.5488107 -0.3708782 0.3649156 -0.0812439
-0.26355618 -0.6006126 -1.3506359 -0.42983347 0.395844 -0.30756545 0.1240515 0.06410024
-0.37955725 0.04462919 0.3100904 0.6298726 -0.29391396 -0.0032006877 0.97353935 0.28721565
-0.7157873 -0.21577355 0.16219586 0.23479947 0.20019658 -0.48764622 0.2996944 0.63349676
-0.017141284 0.6239148 -0.42972544 0.1272932 -0.14005192 -0.042833734 -0.091789216 -0.16117425
-0.19782388 -0.35394225 0.0058518075 0.5024195 -0.36234513 0.012785794 0.2665717 0.29026115
0.090661265 0.071402155 0.26287314 0.0242288 -0.030871557 -0.4388248 0.87843215 0.3325646
-0.035122953 0.36036137 -0.12842391 -0.60385865 -0.17940848 0.14746541 0.31140944 -0.40645283
-0.7272963 0.10839333 -0.105971195 0.82268006 0.6220225 0.40228862 0.84632635 -0.007850506
0.14525929 -0.26334676 0.26934934 -0.6627151 0.8352092 -0.2874538 -0.23031831 0.20124778
-0.04499327 -0.55735356 -0.12847663 0.58015275 0.14373036 0.52625793 0.5970292 0.1856532
0.3916257 -0.5846687 -0.25118285 -0.26497605 0.026790328 -0.291883 0.64769584 0.47575024
0.041432705 -0.12991646 -0.74285984 -0.15141922 -0.5524279 -0.5101172 0.051723402 -0.13588099
-0.57257193 0.5556313 -0.003003794 0.9840687 0.15435433 -0.88205934 -0.7249115 -0.1476983
0.49375084 0.24124815 0.3124617 0.2459394 0.5328434 -0.122388385 0.4371517 -0.15544306
0.27552933 0.3218106 -0.7809394 -0.12869732 0.18424717 0.05382964 -0.5867936 0.08173846
-0.7765599 0.015954422 0.6084487 -0.7157269 -0.4498847 0.4443446 0.5009113 0.28966892
-0.9536368 -0.50997305 0.32720858 0.2671117 -0.25494546 0.36737376 0.66337734 0.44988534
0.79321784 -0.48538214 0.065926835 0.3087446 0.6950096 -0.30563214 -0.57793695 0.61291486
0.4073415 0.110605165 -0.36106175 -0.4984505 0.10386361 -0.16956903 -0.44829974 -0.09304871
-0.4989321 -0.47101867 0.266132 0.13473982 -0.07154311 0.07821817 -0.21784694 0.67942995
0.47594258 0.14903724 -0.14965901 0.29816628 -0.6169636 -0.14497791 0.47868803 0.20065735
-0.80373055 -0.18831253 0.25818488 -0.7146003 -0.5569695 0.6490829 0.041129574 -0.11453388
-0.33024082 0.5068125 0.29952446 -0.6400246 0.0597051 -0.07299017 0.4519473 0.37149116
0.026193516 0.048129994 -0.1617383 -0.2318859 -0.006778854 -0.56030685 0.32396537 -0.6194421
0.18436438 -0.2626012 0.45180583 -0.19707221 -0.12313692 -0.09677987 0.25637627 0.054642845
-0.71269685 -0.40543485 0.10560474 -0.18217312 0.1597547 0.11391787 0.47792593 0.10868943
-0.49303466 -0.39981142 0.101702146 -0.32888976 -0.2944836 0.40778437 0.4618556 -0.27087626
0.19170354 -0.16222729 0.11264645 -0.69738656 -0.19194011 -0.40845817 -0.546371 -0.46261123
00000000: 54fe 113f 0e6e ed3d 0ea8 44be 62bf cb3e
00000010: 1497 143f 4f20 783e bec3 b2bd 7001 4b3e
00000020: ae40 04bf 313c 99bd 4891 253f 9127 9fbe
00000030: 7769 1fbe 399b 37bf 3d3c 533e 5816 7b3e
00000040: 170e 7c3e 3eba 07bf c800 b63d ba91 32be
00000050: 34e0 1b3f 0912 553e ee48 203f 6a63 0a3f
00000060: b360 8abe 5b05 893e 3960 8dbf cede 7bbe
00000070: dc7e 0c3f bfe3 bdbe 38d6 ba3e 3463 a6bd
00000080: d6f0 86be bfc1 19bf a3e1 acbf 2213 dcbe
00000090: 11ac ca3e 3879 9dbe b60e fe3d fd46 833d
000000a0: 5455 c2be 19cd 363d 2bc4 9e3e 553f 213f
000000b0: e47b 96be a1c2 51bb e039 793f ee0d 933e
000000c0: d63d 37bf bef3 5cbe ac16 263e 466f 703e
000000d0: 5500 4d3e c4ac f9be 8b71 993e d82c 223f
000000e0: e16b 8cbc e1b8 1f3f f904 dcbe 2659 023e
000000f0: c569 0fbe 6d72 2fbd fcfb bbbd dd0a 25be
00000100: 5892 4abe eb37 b5be 85c0 bf3b 909e 003f
00000110: 4d85 b9be 827b 513c 167c 883e 1c9d 943e
00000120: 9dac b93d 4b3b 923d 4f97 863e 7a7b c63c
00000130: 59e6 fcbc a5ad e0be eee0 603f e845 aa3e
00000140: 16dd 0fbd 4981 b83e 8f81 03be 7b96 1abf
00000150: dbb6 37be 2c01 173e 0f71 9f3e 961a d0be
00000160: 1730 3abf 52fd dd3d 6d07 d9bd 299b 523f
00000170: de3c 1f3f c6f8 cd3e d8a8 583f 699f 00bc
00000180: dabe 143e 63d5 86be 28e8 893e b2a7 29bf
00000190: 45d0 553f 252d 93be 90d8 6bbe e613 4e3e
000001a0: dd4a 38bd b9ae 0ebf 618f 03be e484 143f
000001b0: 0d2e 133e d7b8 063f e8d6 183f df1b 3e3e
000001c0: 2a83 c83e d9ac 15bf 0a9b 80be f1aa 87be
000001d0: 6477 db3c b071 95be 65cf 253f 8995 f33e
000001e0: 57b5 293d d208 05be 102c 3ebf a40d 1bbe
000001f0: ea6b 0dbf 0a97 02bf ebdb 533d 6324 0bbe
00000200: 1394 12bf da3d 0e3f 4ddb 44bb edeb 7b3f
00000210: 100f 1e3e a4ce 61bf cd93 39bf 393e 17be
00000220: e9cc fc3e c109 773e fbfa 9f3e 8ad7 7b3e
00000230: 6d68 083f c3a6 fabd 59d2 df3e 772c 1fbe
00000240: 2e12 8d3e 5cc4 a43e a5eb 47bf 3bc9 03be
00000250: 4aab 3c3e 787c 5c3d 1b38 16bf 7e66 a73d
00000260: a1cc 46bf d9b2 823c 4bc3 1b3f e139 37bf
00000270: 4a57 e6be 2381 e33e b93b 003f 7c4f 943e
00000280: 8b21 74bf 988d 02bf e287 a73e ddc2 883e
00000290: 3688 82be 6a18 bc3e 19d3 293f 5f57 e63e
000002a0: 5310 4b3f 0284 f8be a604 873d c613 9e3e
000002b0: 26ec 313f d17b 9cbe adf3 13bf fde7 1c3f
000002c0: 118f d03e f684 e23d 16dd b8be e734 ffbe
000002d0: 72b6 d43d 81a3 2dbe 8b87 e5be 5290 bebd
000002e0: 0774 ffbe 5c29 f1be 7442 883e 3cf9 093e
000002f0: 3285 92bd d930 a03d 4513 5fbe 1fef 2d3f
00000300: bfae f33e 389d 183e 3640 19be 40a9 983e
00000310: 54f1 1dbf 1775 14be 9916 f53e 1f79 4d3e
00000320: 49c1 4dbf 00d5 40be cf30 843e 0cf0 36bf
00000330: 8e95 0ebf 4c2a 263f 7c77 283d bd90 eabd
00000340: 5315 a9be 77be 013f 455b 993e a7d8 23bf
00000350: 568d 743d df7b 95bd a365 e73e 1734 be3e
00000360: c993 d63c f523 453d ba9e 25be 7f73 6dbe
00000370: 2621 debb 4570 0fbf cade a53e c293 1ebf
00000380: 04ca 3c3e aa73 86be 1853 e73e 4ccd 49be
00000390: 362f fcbd 8634 c6bd c043 833e 2dd1 5f3d
000003a0: 4d73 36bf 2895 cfbe 4c47 d83d 978b 3abe
000003b0: bc96 233e c64d e93d b5b2 f43e 9098 de3d
000003c0: 0a6f fcbe 15b4 ccbe 3749 d03d 3d64 a8be
000003d0: 8ec6 96be 1dc9 d03e 5678 ec3e 4bb0 8abe
000003e0: ef4d 443e e91e 26be 2fb3 e63d ed87 32bf
000003f0: f38b 44be 6e21 d1be f8de 0bbf 61db ecbe

network_body._body_endoder.seq_layers.0.bias f4 [128]
0.017606923 0.079593025 0.021304397 0.06784879 0.07082111 0.08361425 0.029172778 0.07588087
0.04186746 0.09133578 -0.029729482 0.053165328 0.08396845 0.09578956 0.084352195 0.09695912
0.07465058 0.06824492 0.07246079 0.046986 0.071575426 0.053670775 0.04149375 0.08565883
-0.063545264 0.07746259 0.08533649 0.06431373 0.08222948 0.083697796 0.04214005 0.0832201
0.07754642 0.092084385 0.05030386 0.04754805 0.08121199 -0.00987403 0.04918519 0.06955646
0.03907862 0.06277398 0.008038717 0.08771082 0.060884558 -0.012261481 0.031512834 -0.034506198
0.089455426 0.053562663 0.10739883 0.04821863 0.07209776 0.08326086 0.062538184 0.0815792
-0.017126003 0.077139124 -0.029738573 -0.058108848 0.07047945 0.04776975 -0.043053877 0.08394014
-0.10424056 0.06107748 0.07810432 0.08766662 0.086348586 0.08075675 0.09715052 0.106567636
0.021859786 0.024411231 0.057574164 0.071401365 -0.08266983 0.018742038 0.08779831 -0.025830392
0.021390405 -0.10087989 0.056287043 0.039313287 0.07715255 0.05654907 0.08691944 0.005092589
0.06552152 0.068447016 0.023701938 0.0028447981 0.07443729 0.08249019 0.06640913 0.016814804
0.093479924 0.01826534 0.035788167 0.10315267 -0.03799949 0.09493377 0.09323798 0.09579851
0.087335065 0.0074955914 0.06672432 0.08318167 -0.013105983 0.11067658 -0.08728387 0.047699872
0.012211537 0.07635421 0.046110477 0.010793664 -0.058946043 -0.06801947 -0.035827726 0.01771709
0.08533903 0.040290434 0.083679944 0.053533413 0.033240635 0.09164985 0.08461058 0.068833806
00000000: 653c 903c ab01 a33d 8f86 ae3c 4ef4 8a3d
00000010: a80a 913d f33d ab3d c0fb ee3c 6e67 9b3d
00000020: 377d 2b3d 410e bb3d 3e8b f3bc e3c3 593d
00000030: a7f7 ab3d 512d c43d d8c0 ac3d 8192 c63d
00000040: 67e2 983d fec3 8b3d 5366 943d 6474 403d
00000050: 2396 923d e3d5 5b3d 5af5 293d e66d af3d
00000060: 0524 82bd b5a4 9e3d e6c4 ae3d ebb6 833d
00000070: ee67 a83d c069 ab3d 0c9b 2c3d 4d6f aa3d
00000080: a8d0 9e3d bd96 bc3d 6c0b 4e3d bec1 423d
00000090: 7952 a63d afc6 21bc 6976 493d 9e73 8e3d
000000a0: e710 203d a58f 803d d3b4 033c bba1 b33d
000000b0: 1662 793d 61e4 48bc 9a13 013d 5f56 0dbd
000000c0: 6834 b73d 8664 5b3d ebf3 db3d e680 453d
000000d0: fea7 933d ab84 aa3d 0514 803d ff12 a73d
000000e0: d54b 8cbc 1efb 9d3d 4f9e f3bc 8b03 6ebd
000000f0: 8857 903d 37aa 433d 4359 30bd cfe8 ab3d
00000100: 137c d5bd 612c 7a3d 28f5 9f3d 8f8a b33d
00000110: 87d7 b03d cc63 a53d daf6 c63d 2240 da3d
00000120: 4b13 b33c 10fa c73c e3d2 6b3d e13a 923d
00000130: cd4e a9bd e788 993c 9acf b33d 429a d3bc
00000140: ee3a af3c 1e9a cebd 3e8d 663d f806 213d
00000150: 2802 9e3d ff9f 673d d202 b23d bcdf a63b
00000160: 2630 863d f32d 8c3d 912a c23c cb6f 3a3b
00000170: 9472 983d 9ef0 a83d 8301 883d 33bf 893c
00000180: 6772 bf3d 32a1 953c 9d96 123d b541 d33d
00000190: 5aa5 1bbd a36c c23d 8ef3 be3d 0232 c43d
000001a0: badc b23d 949d f53b c3a6 883d 275b aa3d
000001b0: 7aba 56bc 67aa e23d e3c1 b2bd f160 433d
000001c0: e612 483c 995f 9c3d 57de 3c3d e8d7 303c
000001d0: 6871 71bd cb4d 8bbd 18c0 12bd 6e23 913c
000001e0: 3bc6 ae3d 9507 253d 6460 ab3d da45 5b3d
000001f0: 5527 083d ebb2 bb3d 5048 ad3d bdf8 8c3d

network_body._body_endoder.seq_layers.2.weight f4 [128, 128]
0.019241933 0.20472053 0.12490375 0.010853749 -0.03730602 -0.14460525 0.0016227581 0.0005457685
0.1890434 -0.08245026 0.09893606 -0.033456143 0.13749376 -0.0034298208 -0.16418317 0.05583752
0.18711622 -0.089621596 -0.10201463 -0.18414487 0.0051792166 0.048715822 -0.062270485 0.209468
-0.07064779 0.19346844 0.0062787323 -0.15495256 0.060313873 0.11482671 0.07641254 -0.101683594
-0.021166947 0.08667412 -0.12421524 0.031040007 0.30330056 0.21179524 0.055471096 -0.112276
0.04768536 0.10070242 -0.12601297 0.023226352 0.21771029 0.078791276 0.05819695 0.027975671
-0.050306786 -0.10424497 -0.18943 0.09174197 -0.22106843 -0.054364163 -0.012944621 0.10040765
0.08045341 -0.0411105 -0.023151351 -0.0057695205 0.03590926 0.01922694 -0.006065833 -0.111662365
-0.06202013 -0.15921873 0.00015248902 -0.28780785 0.08189625 -0.012942795 0.076348096 -0.21754551
-0.029213944 -0.21056265 0.032160223 -0.061865393 0.045589082 -0.09864143 -0.014877573 0.1229568
-0.09629627 0.0012291401 0.030286487 0.01682147 -0.07857655 0.13908161 -0.07909039 -0.049863026
-0.095599726 0.08868692 0.2558352 -0.0011540968 0.17144969 0.18014368 0.05375927 -0.10399415
-0.21060027 -0.08209763 -0.015877506 0.007363545 0.04725606 -0.085546084 0.0019082768 -0.07964254
-0.16003476 -0.25642684 0.08482773 -0.22256601 0.11851917 -0.001439518 -0.0028953014 0.042231634
0.0068099773 0.028366782 -0.1103956 -0.019894805 -0.122396134 -0.04176528 -0.13491705 0.12830389
-0.03851633 -0.019350601 -0.020542517 0.26476124 -0.026795411 -0.06954408 0.03793743 -0.051943537
-0.09722421 -0.09022566 0.04953722 0.027835658 0.06467091 0.021920495 -0.002444378 -0.07782137
0.17419094 0.12736501 0.17582072 -0.016810348 0.018034771 0.06766373 0.22732596 -0.0049127857
-0.02791633 -0.07763185 0.122928046 0.14112207 0.10679719 -0.18572508 -0.25073346 0.011238835
-0.086121894 0.088880025 0.056814082 -0.40335512 -0.045678165 0.118875414 0.21925384 -0.08947312
0.07137481 0.13477562 -0.22369173 -0.0304223 0.159438 -0.0049365493 0.29580492 -0.045946274
0.07475603 0.27653113 -0.039282154 -0.12564732 -0.020946706 0.030401705 -0.15659621 0.0023108444
0.26951432 0.024234135 -0.115781546 -0.006149672 0.01733618 0.23147492 -0.22804789 0.01744803
0.046650495 0.15955098 -0.010000046 0.060724635 -0.053615313 0.013895784 -0.23001397 -0.05200793
0.07844635 0.004069522 0.15981902 -0.102548905 0.05764048 0.06916866 0.20313896 -0.11856728
-0.19482197 -0.053565558 -0.028761199 0.033331864 0.024418356 -0.14717557 -0.04166963 -0.22996244
-0.029048301 -0.062786564 0.059101287 0.34139198 0.115478165 0.18441783 -0.20257115 0.022170385
0.14394684 -0.04871606 0.025393264 1.8445282e-06 -0.007966747 0.15558806 0.027685747 -0.19979593
-0.069615446 -0.1382099 -0.24270244 0.13018622 0.1114428 -0.068449445 -0.07119391 -0.042984307
0.14389086 -0.16954495 0.032253228 0.029364916 -0.080449335 -0.006806455 0.026323166 -0.032233015
-0.02932077 -0.14020944 -0.20027702 0.07299774 -0.15255886 -0.25231132 0.09689474 0.12170239
-0.06272244 0.038908355 -0.00016354112 0.112076595 -0.26740214 -0.029442124 0.18264721 0.1288766
00000000: 42a1 9d3c 42a2 513e 8acd ff3d ecd3 313c
00000010: 32ce 18bd 6613 14be bab2 d43a e711 0f3a
00000020: 9894 413e afdb a8bd fd9e ca3d 4f09 09bd
00000030: 2acb 0c3e d8c6 60bb a21f 28be e2b5 643d
00000040: 659b 3f3e 878b b7bd 0ced d0bd 7990 3cbe
00000050: 6bb6 a93b 3e8a 473d 560f 7fbd c87e 563e
00000060: caaf 90bd 971c 463e d3bd cd3b e2ab 1ebe
00000070: ae0b 773d 442a eb3d 2e7e 9c3d 7d3f d0bd
00000080: 4e66 adbc 3382 b13d 8f64 febd 9d47 fe3c
00000090: 364a 9b3e dae0 583e a935 633d f6f0 e5bd
000000a0: b951 433d 123d ce3d 8b09 01be 3145 be3c
000000b0: 72ef 5e3e 525d a13d ed5f 6e3d 3c2d e53c
000000c0: 7d0e 4ebd 637e d5bd f0f9 41be 37e3 bb3d
000000d0: c35f 62be f5ac 5ebd ad15 54bc 87a2 cd3d
000000e0: c2c4 a43d 7c63 28bd e7a7 bdbc 3f0e bdbb
000000f0: 9715 133d d181 9d3c e5c3 c6bb 3daf e4bd
00000100: d208 7ebd 3c0a 23be 76e5 1f39 8d5b 93be
00000110: 39b9 a73d 040e 54bc 645c 9c3d 40c4 5ebe
00000120: 1552 efbc bc9d 57be 70ba 033d 9166 7dbd
00000130: 9ebb 3a3d 8504 cabd 10c1 73bc c6d0 fb3d
00000140: fb36 c5bd 191b a13a 5e1b f83c 2ecd 893c
00000150: beec a0bd 696b 0e3e 24fa a1bd 2c3d 4cbd
00000160: cac9 c3bd 7da1 b53d d5fc 823e 1045 97ba
00000170: 8290 2f3e 9677 383e ae32 5c3d e3fa d4bd
00000180: 99a7 57be cd22 a8bd 8b11 82bc e449 f13b
00000190: 928f 413d c932 afbd 251f fa3a a11b a3bd
000001a0: 27e0 23be 614a 83be 29ba ad3d 58e8 63be
000001b0: 2eba f23d 35ae bcba 19bf 3dbb 14fb 2c3d
000001c0: 3b26 df3b 7461 e83c 1717 e2bd 6efa a2bc
000001d0: d3aa fabd 1212 2bbd b227 0abe 1862 033e
000001e0: 4dc3 1dbd 2785 9ebc c848 a8bc c98e 873e
000001f0: 0d82 dbbc 206d 8ebd 4764 1b3d bfc2 54bd
00000200: 7d1d c7bd 3bc8 b8bd 8ae7 4a3d 9b07 e43c
00000210: 2f72 843d 9c92 b33c dc31 20bb cf60 9fbd
00000220: 1c5f 323e f96b 023e 590a 343e dbb5 89bc
00000230: a8bd 933c 4893 8a3d 23c8 683e 6ffb a0bb
00000240: cab0 e4bc 73fd 9ebd b3c1 fb3d 4e82 103e
00000250: 7cb8 da3d b72e 3ebe 2360 80be 1723 383c
00000260: ad60 b0bd bb06 b63d e2b5 683d 9084 cebe
00000270: 0719 3bbd f474 f33d 1484 603e af3d b7bd
00000280: f52c 923d 9f02 0a3e 720f 65be 3038 f9bc
00000290: b743 233e c7c2 a1bb be73 973e 2932 3cbd
000002a0: b119 993d 7d95 8d3e 53e6 20bd b1a9 00be
000002b0: 6d98 abbc ff0c f93c c25a 20be 8971 173b
000002c0: c8fd 893e aa86 c63c e01e edbd 3083 c9bb
000002d0: 9b04 8e3c c307 6d3e 6385 69be 2cef 8e3c
000002e0: 9714 3f3d 5561 233e 3cd7 23bc 65ba 783d
000002f0: bb9b 5bbd 24ab 633c c888 6bbe 4406 55bd
00000300: 7ba8 a03d a059 853b 99a7 233e 2905 d2bd
00000310: 6d18 6c3d 4ca8 8d3d a903 503e 67d3 f2bd
00000320: 697f 47be 8f67 5bbd 9b9c ebbc fe86 083d
00000330: 0109 c83c 31b5 16be c6ad 2abd 467b 6bbe
00000340: b4f6 edbc 3e96 80bd 3114 723d eeca ae3e
00000350: d17f ec3d 07d8 3c3e d06e 4fbe ab9e b53c
00000360: cd66 133e 7e8a 47bd 8905 d03c 8291 f735
00000370: f586 02bc 7a52 1f3e 38cd e23c 4e97 4cbe
00000380: 8b92 8ebd e586 0dbe fd86 78be 894f 053e
00000390: 1f3c e43d 392f 8cbd 1dce 91bd 5010 30bd
000003a0: 2058 133e 319d 2dbe f61b 043d b18e f03c
000003b0: 9fc2 a4bd af08 dfbb aea3 d73c c406 04bd
000003c0: 1d32 f0bc 1093 0fbe 6b15 4dbe d77f 953d
000003d0: 6438 1cbe f32e 81be c070 c63d 1a3f f93d
000003e0: 9f74 80bd 5e5e 1f3d 3c7c 2bb9 6a88 e53d
000003f0: efe8 88be 9c30 f1bc df07 3b3e 3af8 033e

network_body._body_endoder.seq_layers.2.bias f4 [128]
0.07098904 0.08010208 0.07015473 0.08598357 0.057075992 0.077943616 0.07641929 0.073493965
0.046588816 0.073962115 0.07812343 0.07868209 0.08819772 0.069838315 0.078849815 0.055099297
0.08143136 0.06680418 -0.00058808865 0.08009369 0.040741432 0.06787555 0.080240875 0.06752275
0.076931424 0.078574136 0.043126926 0.08173513 0.08344853 0.059661984 0.09273536 0.07827465
0.034473874 0.08313609 0.075267196 0.08111748 0.07397159 0.05589374 0.072658375 0.05591159
0.054373067 0.07541963 0.07372855 0.085414894 0.08222148 0.089724794 0.089387685 0.054430433
0.06214202 0.009218919 0.0654152 0.07789027 0.081041686 0.073953375 0.08162501 0.07533916
0.067389205 0.0756956 0.040336896 0.076411255 0.05237347 0.08375926 0.074640244 0.07154115
0.061711267 0.073706776 0.08507585 0.08514725 0.07858699 0.075801045 0.0801763 0.083508454
0.08160615 0.026480332 0.040141262 0.06082293 0.027776 0.07596506 0.07642585 0.09082892
0.08303358 0.07895671 0.066767186 0.077867255 0.06802526 0.047035187 0.0861341 0.078937665
0.08569544 0.061852746 0.07161744 0.07740916 0.08406597 0.075111724 0.07853371 0.014906649
0.07351608 0.061514754 0.076234385 0.0661501 0.08269306 0.07307563 0.024308482 0.00074993627
0.0691752 0.0786755 0.062531136 0.06919223 0.0924427 0.0812486 0.015535401 0.077754274
0.007138189 0.053123016 0.04701279 0.09038794 0.07318571 0.085539 0.05983581 0.07356148
0.078813985 0.08062452 0.07719938 0.07824489 0.053934213 0.076252095 0.071648754 0.09135674
00000000: b462 913d 8f0c a43d 48ad 8f3d 2718 b03d
00000010: 84c8 693d e7a0 9f3d b781 9c3d 0184 963d
00000020: ead3 3e3d 7379 973d 2dff 9f3d 1324 a13d
00000030: 02a1 b43d 6407 8f3d 037c a13d cdaf 613d
00000040: 7cc5 a63d a1d0 883d f629 1aba 2908 a43d
00000050: 7de0 263d 5602 8b3d 5455 a43d 5e49 8a3d
00000060: 398e 9d3d 7aeb a03d dca5 303d bf64 a73d
00000070: 10e7 aa3d 2060 743d 09ec bd3d 764e a03d
00000080: 7a34 0d3d 4143 aa3d b025 9a3d ec20 a63d
00000090: 6b7e 973d d6f0 643d eacd 943d 8d03 653d
000000a0: 4bb6 5e3d 9b75 9a3d fefe 963d 01ee ae3d
000000b0: bc63 a83d a2c1 b73d e410 b73d 72f2 5e3d
000000c0: a188 7e3d f30a 173c 68f8 853d ef84 9f3d
000000d0: 2ff9 a53d de74 973d 032b a73d 6b4b 9a3d
000000e0: 5a03 8a3d 4b06 9b3d 4d38 253d 817d 9c3d
000000f0: 9085 563d fa89 ab3d fcdc 983d 2b84 923d
00000100: f4c4 7c3d 94f3 963d 3f3c ae3d ae61 ae3d
00000110: 37f2 a03d 943d 9b3d 7933 a43d 7b06 ab3d
00000120: 2021 a73d 48ed d83c 2a6b 243d 7721 793d
00000130: 7e8a e33c 9293 9b3d 2885 9c3d 8304 ba3d
00000140: 820d aa3d 0eb4 a13d 3cbd 883d de78 9f3d
00000150: d450 8b3d f8a7 403d 1367 b03d 12aa a13d
00000160: 1781 af3d 4e59 7d3d 2aac 923d b288 9e3d
00000170: c72a ac3d 2dd4 993d 48d6 a03d 043b 743c
00000180: 998f 963d e5f6 7b3d c620 9c3d b479 873d
00000190: fb5a a93d ada8 953d 9522 c73c 5f97 443a
000001a0: baab 8d3d 9f20 a13d 5310 803d a8b4 8d3d
000001b0: 9952 bd3d aa65 a63d 3288 7e3c a23d 9f3d
000001c0: 78e7 e93b 8597 593d 7c90 403d 501d b93d
000001d0: 64e2 953d 122f af3d 6516 753d 67a7 963d
000001e0: 3a69 a13d 781e a53d b51a 9e3d db3e a03d
000001f0: 1fea 5c3d 0f2a 9c3d 95bc 923d 3e19 bb3d

action_model._discrete_distribution.branches.0.weight f4 [5, 128]
0.012416188 -0.013070918 -0.019029858 -0.04818536 -0.035031855 -0.05884836 -0.034846887 -0.04546937
0.0031629652 -0.03136923 -0.059879348 -0.036028937 -0.03187864 -0.00400648 -0.04155202 -0.013835161
-0.04055665 -0.019073082 0.047595426 -0.040137347 0.005356776 -0.01412549 -0.02360307 -0.018101133
-0.040365558 -0.036615215 0.0076091345 -0.046643198 -0.048985187 -0.02088879 -0.05568169 -0.034129698
-0.008273669 -0.050759178 -0.018676938 -0.031150661 -0.041538488 0.016920133 0.0015665154 0.015610806
-0.016747039 -0.052902732 -0.034132797 -0.030006735 -0.057849098 -0.03189852 -0.025159154 -0.00031425164
0.002733905 0.01805441 -0.022325607 -0.036861584 -0.03696943 -0.018999845 -0.006651075 -0.036227394
-0.0382229 -0.03730808 0.009830815 -0.019003881 0.0071485694 -0.035580914 -0.036987036 0.0002536934
-0.009524567 -0.05791568 -0.05848369 -0.037260897 -0.023765702 0.0070991856 -0.021692976 -0.044003148
-0.0021925864 0.024525361 0.022468766 -0.0024907556 0.03181024 -0.004065727 -0.045528404 -0.034356695
-0.03546534 -0.015867855 -0.0009161724 -0.029336229 -0.033891432 0.006027923 -0.02599848 -0.048197772
-0.06125104 -0.015371173 -0.026573846 -0.026439726 -0.0381882 -0.023160955 -0.033935703 0.034537505
-0.04178829 -0.007393095 -0.027188586 -0.041046992 -0.044799604 0.0031674232 0.043371454 0.032010823
-0.0310741 -0.04323097 -0.021613251 -0.040485255 -0.049391516 -0.03792062 0.023915369 -0.036534514
0.03392291 0.014870102 0.008783242 -0.042389996 -0.027779104 -0.03763266 -0.021326648 -0.023532785
-0.04717837 -0.037390433 -0.02663533 -0.037873976 0.015513522 -0.029349452 -0.030232916 -0.05470938
0.10470625 0.1054819 -0.09147398 -0.09167286 0.08913653 -0.03902272 0.024154555 0.048793696
-0.08041602 -0.08047456 0.060911026 0.0739465 -0.017075501 -0.080829464 0.08130505 0.08820996
-0.0076091294 0.080941156 -0.072931595 -0.080646165 -0.085057616 -0.040538687 -0.09265249 0.045948673
0.04752867 0.074309126 -0.010175361 0.03912133 -0.092133075 -0.050421838 -0.09478343 0.10037373
0.059392475 0.06262825 -0.033545487 -0.03002247 0.027757782 0.098367244 0.07535598 0.09891789
0.062412906 0.084106565 -0.032282263 -0.08557144 0.07205347 -0.084096394 0.08397939 0.09158
-0.08862066 0.020715326 -0.08787311 0.04107259 0.052440103 -0.030764183 0.089475356 -0.009415075
0.03662438 0.05416317 0.07316778 -0.088161804 -0.07639872 0.02066294 -0.09381164 0.03721909
0.06816663 0.091949575 0.060686745 -0.06738718 0.09646141 0.07907809 -0.08656511 -0.048974395
0.053103026 -0.07229981 0.0649611 -0.091890976 0.092992224 0.07594194 0.06940412 -0.08695277
-0.04412888 -0.07574047 -0.08510768 -0.07967306 0.049350463 -0.078267284 0.06639789 -0.089888506
0.07854852 0.048274577 0.085208915 -0.06489323 0.07335595 -0.07031968 -0.038725555 0.090887494
0.08865684 0.08009412 -0.09280489 0.04304605 -0.077599004 -0.07736761 -0.062266808 0.018816192
-0.1031295 -0.100555606 0.080203734 0.009036337 -0.061283525 -0.014096748 0.06830153 0.0705391
0.08844067 0.003734756 0.08579454 -0.014933536 -0.008447897 -0.10432257 0.071420394 0.081981495
0.08391533 -0.10121217 0.043598454 0.06944046 -0.07205148 -0.08440472 -0.09318027 -0.03422062
00000000: 446d 4b3c 6727 56bc 81e4 9bbc 035e 45bd
00000010: 907d 0fbd fa0a 71bd 9cbb 0ebd 173e 3abd
00000020: c049 4f3b 067d 00bd 0c44 75bd 1493 13bd
00000030: 2d93 02bd ca48 83bb 7332 2abd dfac 62bc
00000040: bb1e 26bd 273f 9cbc 6cf3 423d 0f67 24bd
00000050: e587 af3b 996e 67bc 3a5b c1bc d448 94bc
00000060: 5b56 25bd d6f9 15bd 0c56 f93b f00c 3fbd
00000070: b1a4 48bd f81e abbc 7c12 64bd 95cb 0bbd
00000080: 488e 07bc dbe8 4fbd 6100 99bc ac2f ffbc
00000090: 4324 2abd 179c 8a3c 8953 cd3a 77c4 7f3c
000000a0: 1631 89bc 89b0 58bd d5ce 0bbd afd0 f5bc
000000b0: 2df3 6cbd 06a8 02bd 921a cebc 24c2 a4b9
000000c0: 512b 333b d8e6 933c 31e4 b6bc 2cfc 16bd
000000d0: 426d 17bd 90a5 9bbc 43f1 d9bb 2d63 14bd
000000e0: 9e8f 1cbd 5bd0 18bd 6d11 213c 07ae 9bbc
000000f0: 8c3e ea3b 4bbd 11bd b87f 17bd 2702 8539
00000100: ee0c 1cbc fe38 6dbd 988c 6fbd e29e 18bd
00000110: 4ab0 c2bc 49a0 e83b 78b5 b1bc a53c 34bd
00000120: 7fb1 0fbb 69e9 c83c 6b10 b83c f23b 23bb
00000130: 744b 023d ca39 85bb fe7b 3abd 9bb9 0cbd
00000140: 1b44 11bd 4efd 81bc 4a2b 70ba 8852 f0bc
00000150: bed1 0abd e285 c53b c4fa d4bc 076b 45bd
00000160: 5fe2 7abd 5fd7 7bbc 65b1 d9bc 2098 d8bc
00000170: 3b6b 1cbd 0bbc bdbc 2a00 0bbd 3377 0d3d
00000180: 332a 2bbd c741 f2bb 99ba debc e420 28bd
00000190: ca7f 37bd 8b94 4f3b 44a6 313d c81d 033d
000001a0: 1c8f febc f512 31bd 460e b1bc ded3 25bd
000001b0: c24e 4abd a752 1bbd 2aea c33c 37a5 15bd
000001c0: c0f2 0a3d baa1 733c 96e7 0f3c 22a1 2dbd
000001d0: 0191 e3bc b424 1abd 39b5 aebc d4c7 c0bc
000001e0: 1b3e 41bd b626 19bd 5632 dabc be21 1bbd
000001f0: 6d2c 7e3c 436e f0bc 05ab f7bc f116 60bd
00000200: 3b70 d63d e506 d83d b656 bbbd fbbe bbbd
00000210: 378d b63d 4ad6 1fbd c6df c53c e6db 473d
00000220: 27b1 a4bd d9cf a4bd d77d 793d 4371 973d
00000230: ece1 8bbc eb89 a5bd 4383 a63d 6ca7 b43d
00000240: 0156 f9bb 7ac4 a53d 295d 95bd d129 a5bd
00000250: b032 aebd e50b 26bd 97c0 bdbd ad34 3c3d
00000260: 6cad 423d 622f 983d 8fb6 26bc b03d 203d
00000270: 44b0 bcbd 2187 4ebd d11d c2bd be90 cd3d
00000280: 8645 733d 3d43 803d fe66 09bd aff1 f5bc
00000290: 4a64 e33c c474 c93d 3c54 9a3d 7695 ca3d
000002a0: ada4 7f3d 1040 ac3d 683a 04bd 1440 afbd
000002b0: c590 933d bb3a acbd 63fd ab3d 4c8e bb3d
000002c0: c07e b5bd 30b3 a93c d1f6 b3bd bb3b 283d
000002d0: 6fcb 563d 2b05 fcbc db3e b73d b041 1abc
000002e0: 7203 163d 33da 5d3d fdd8 953d 2d8e b4bd
000002f0: ef76 9cbd 5345 a93c 5120 c0bd 0b73 183d
00000300: f29a 8b3d 0f50 bc3d aa92 783d 4a02 8abd
00000310: 8f8d c53d b2f3 a13d 0c49 b1bd 6099 48bd
00000320: 8f82 593d ec11 94bd 530a 853d 5631 bcbd
00000330: b572 be3d 7387 9b3d bf23 8e3d 4b14 b2bd
00000340: 7cc0 34bd d21d 9bbd ef4c aebd a12b a3bd
00000350: b623 4a3d 994a a0bd 9efb 873d 7717 b8bd
00000360: 0cde a03d 90bb 453d 0382 ae3d bee6 84bd
00000370: a53b 963d c403 90bd b09e 1ebd 3923 ba3d
00000380: b891 b53d 6308 a43d 7d10 bebd 0e51 303d
00000390: 3aec 9ebd e972 9ebd 7b0b 7fbd 6a24 9a3c
000003a0: 8f35 d3bd 19f0 cdbd db41 a43d 250d 143c
000003b0: 6f04 7bbd 0cf6 66bc ace1 8b3d ce76 903d
000003c0: 6220 b53d cfc2 743b 0cb5 af3d caab 74bc
000003d0: 0c69 0abc 12a7 d5bd db44 923d eae5 a73d
000003e0: cddb ab3d 5448 cfbd 4b94 323d cd36 8e3d
000003f0: ba8f 93bd 62dc acbd 4cd5 bebd ec2a 0cbd

action_model._discrete_distribution.branches.0.bias f4 [5]
-0.06277421 0.025541293 0.024326587 0.029173676 0.017145365
00000000: c48f 80bd f93b d13c 8d48 c73c a2fd ee3c
00000010: 7074 8c3c
