Scenes/ImprovedGridWorld2D/results/env-params-test/DroneGrid2D/DroneGrid2D-86997.pt (torch, 446624 bytes, 33 tensors)

network_body._body_endoder.seq_layers.0.weight f4 [128, 6]
00000000: 8c6c ffbb 2e1a 90be a90d 383e c4e7 2c3f
00000010: 8f90 13bf 5346 9cbd 542a 3abf 4860 9cbe
00000020: 0495 823e 6654 19be b63e 1bbf b959 ae3e
00000030: c8e9 953e a2cd c7be 205a e73e 96d5 183f
00000040: 4cf1 a6bd 6784 2f3e 0da8 ba3e 8dd8 bb3e
00000050: 5816 623f b9c8 c7bd 79f8 37be e784 a03e
00000060: e897 f2bd 3243 e3bd f4d4 a4be 7e15 9cbd
00000070: f3e1 583d dc77 bd3e f8a0 25be b085 3cbe
00000080: 81e0 653e 8523 a4be 126c ef3a 6735 f6be
00000090: 7349 6bbd 226d 0abe 13d3 cdbe e010 95be
000000a0: dcac 06bf cc10 55be 78b1 d03e d85f 1d3c
000000b0: 0be8 a03e 9401 ef3e 63b6 25bf 7fbe 2fbf
000000c0: 34de 933d 37fe 0b3f ab3e 0f3e 1613 1b3e
000000d0: 9ff5 223f 05af 713e c4fc 26be 7343 af3e
000000e0: 7d47 b73e 33b7 2c3e 43bb 78be cc14 23bf
000000f0: 4842 243e d529 8f3e a389 673e cb4e aa3e
00000100: 4dc1 e53e 2a42 093d 19cf 2fbe d830 393f
00000110: c486 eb3e 4679 cebe fec2 54bc b9db 13be
00000120: 4b24 8e3e 254e 323c c72c 0cbe 32b9 2a3f
00000130: 42d9 0cbd 9754 33bf b3da b13d 80bc ba3e
00000140: 0995 cf3e a16b 3fbe a4d7 6cbd 8f9f 9e3e
00000150: 92fd f3be 9963 6c3e 83a8 d1bd 1ae2 f13e
00000160: 274c 013f 89e7 6cbf 8360 b53e a28b c83e
00000170: d8ba 99bd a845 ae3e 77dd 273f 0c1d 0fbd
00000180: c50d 7bbe cadb 48bf 8d3c 333e 0206 af3e
00000190: cdd4 9c3e fb7d c23e df51 a3bc 836f 923f
000001a0: 3570 a2bc d2e8 b03e d1e2 01bf f4eb b63e
000001b0: 6cad 883c 838e 96bd d0b5 dfbd beba 36bd
000001c0: 942a cf3d a35c 9b3e b215 753e 7bb3 1bbd
000001d0: 3f81 2f3f 931d 8b3e 68c1 c23d a442 bebe
000001e0: 6e53 0dbe 47cd adbe 2e49 1bbf a424 cf3b
000001f0: 057d f73c 01d7 38be c577 f33d 0fb3 a53c
00000200: 0747 c8be d08a 243f 830c f6be 74b2 b6bd
00000210: adf2 76bf c495 5ebe ee62 113e 9446 e4bd
00000220: 0203 92be 7c6a 893e 9b93 d13e 8803 bf39
00000230: 071e d2bc 2a26 9ebd acda b8be f9e9 f43e
00000240: 117c 00be ebba 153f 6b1e 30bf e28d 3a3f
00000250: 3638 a4be afc9 b23e 1ed9 5cbe 50a8 983d
00000260: 1ac7 813e 09a6 133e 567d 0e3c 5552 1c3f
00000270: b0e4 b43e 5d7e 69be f2c7 e63e 3085 043f
00000280: 9772 673e 0f11 c83e 67dd c8be ef98 81be
00000290: 3a3d 5dbf 2966 e5be f7cc 99be 1e77 703f
000002a0: a9d8 233f 7d96 88be 4a50 cdbe d997 583d
000002b0: e996 f7be 7bc9 883e 270b 073f 1655 7b3e
000002c0: f147 c23e 78cf 9a3e 0001 cebe b204 66be
000002d0: 43dd 133d 9af5 013e b096 20be 48a2 933d
000002e0: 15d9 b4be 9aca 7fbe 29cf bd3d 9c7c eb3e
000002f0: f045 c1bc 53d5 e83e a329 333f 65ef 56bf
00000300: 9bb6 b3be a896 81bf ef3d 093f 95b6 31bf
00000310: 24f8 4ebf 2aec 29bf ed02 613c 032d de3e
00000320: 8f4d 49bf b021 d6bd 9eaf cdbe b162 3f3f
00000330: 9541 38be e451 a6be 9093 abbe 7717 443f
00000340: c96a 24be 6803 ed3e a8cd 033f ffa4 e5be
00000350: d927 8ebe 2aad 2fbe 336d da3d 070b 78be
00000360: 5225 883e 0cf9 bebe 0369 dc3e 3d6c 31be
00000370: b591 42bf df08 27bf f4cb b73e e860 c3be
00000380: 46cc acbe 708e f33e 836a 2cbe 4d9d 2c3f
00000390: 7291 21bf 841f df3e f66d b8be 1d40 81be
000003a0: 37b6 933d 7a6a abbe 78b4 29bd a4c0 07bf
000003b0: 7ba9 d93e d252 afbe b1a8 81bf eee4 87be
000003c0: b306 34be fd13 763f 2c24 ecbe 64d7 673e
000003d0: 6f91 1cbc 2a1f a63e 7024 b93e 675c 0c3f
000003e0: 2985 4c3e 19e2 d83e 5b0f ab3f 8aeb 283f
000003f0: df96 9cbe adb2 c93d fa38 aa3d aa8f 02bf
-0.007794922 -0.28144974 0.17973961 0.67541146 -0.57642454 -0.07630601 -0.7272084 -0.30542207
0.25504315 -0.14973602 -0.60642564 0.34052828 0.29279923 -0.39024073 0.45185947 0.59700906
-0.081514925 0.17140351 0.36456338 0.36688653 0.88315344 -0.09755082 -0.17965879 0.31351396
-0.1184538 -0.11096801 -0.3219372 -0.07621287 0.052949857 0.37005508 -0.16174686 -0.18410373
0.22448923 -0.3205835 0.001826646 -0.48087618 -0.057443094 -0.13518193 -0.402001 -0.29114437
-0.5260751 -0.20807189 0.40760398 0.00960537 0.31427035 0.46680892 -0.64731425 -0.6865005
0.07220116 0.54684776 0.1398875 0.15144 0.6365604 0.23601921 -0.1630736 0.34231147
0.3579673 0.1686676 -0.24290185 -0.6370361 0.1604091 0.27961603 0.22611098 0.3326324
0.4487404 0.033510365 -0.17168845 0.72340155 0.46001256 -0.403269 -0.012985943 -0.14439286
0.27762064 0.010882889 -0.13688956 0.66688836 -0.03438688 -0.7005095 0.08684292 0.3647194
0.40543392 -0.18693401 -0.05782284 0.3098111 -0.47654396 0.23084868 -0.10237219 0.47242814
0.50506824 -0.92540795 0.35425195 0.3916903 -0.07506341 0.34037519 0.65572304 -0.03493981
-0.24516971 -0.7846037 0.17503567 0.3418427 0.30631104 0.3798674 -0.0199365 1.1440281
-0.019828895 0.34552628 -0.5073672 0.35726893 0.016684256 -0.07351401 -0.1092335 -0.044611685
0.10115543 0.30344114 0.23934057 -0.038012963 0.6855659 0.27171 0.095095456 -0.37160218
-0.13801357 -0.33945677 -0.6065854 0.0063215066 0.030210981 -0.18050767 0.118880786 0.020226983
-0.3911669 0.6427431 -0.4805642 -0.08920756 -0.96464044 -0.21736819 0.14197895 -0.11146274
-0.2851792 0.26839054 0.40932927 0.0003643299 -0.025649084 -0.07722123 -0.36104333 0.47834757
-0.12547328 0.5848834 -0.68796414 0.72872746 -0.32074136 0.34919497 -0.21567199 0.07453978
0.25347215 0.14418806 0.008696875 0.6106313 0.35330725 -0.2280211 0.4507442 0.5176573
0.22602306 0.39075515 -0.39231417 -0.25311992 -0.8642155 -0.44804505 -0.30039188 0.9393176
0.6400247 -0.26677313 -0.40100318 0.05287919 -0.48357323 0.26716217 0.5275139 0.24544176
0.37945512 0.3023641 -0.40235138 -0.22462729 0.036099683 0.12691346 -0.15682483 0.07208687
-0.3532187 -0.2497963 0.09268028 0.45993507 -0.02359292 0.45475253 0.6998541 -0.8395904
-0.35100254 -1.0124102 0.5361013 -0.69419223 -0.8084738 -0.6637598 0.013733608 0.43393716
-0.7863397 -0.10455644 -0.40173048 0.74759966 -0.17993768 -0.32484353 -0.3351102 0.76598305
-0.1605636 0.4629166 0.5148568 -0.44852445 -0.27764776 -0.171559 0.10665359 -0.24222957
0.26590973 -0.37299383 0.43048868 -0.17326446 -0.7600358 -0.6524791 0.3589779 -0.3815987
-0.33749598 0.4756961 -0.16837506 0.6742752 -0.63112557 0.43578732 -0.36021394 -0.25244227
0.07212489 -0.33479673 -0.041431874 -0.5302832 0.42512116 -0.34242874 -1.0129606 -0.26541847
-0.1758068 0.9612425 -0.46121347 0.22640759 -0.009556158 0.3244565 0.36160612 0.54828495
0.19972672 0.4236 1.3364061 0.65984404 -0.30583856 0.09848533 0.08311649 -0.51000464

network_body._body_endoder.seq_layers.0.bias f4 [128]
00000000: 5ad1 0cbd 06ca ef3b c724 423d bfb1 2f3c
00000010: 1e42 d73c 5ad7 9e3c b1af d93c 6cc3 333d
00000020: 6d7a 223d 0687 7abc c289 db3c c1c9 66bb
00000030: 7a7a bc3c bc6c 7e3d d5ad 7a3c f18c c13c
00000040: 0167 9fbc cf89 843d f8b4 193d 9592 5d3c
00000050: 2cce 18bc e574 e63c c244 86bb 7d00 bc3c
00000060: a71a 073d 4076 b33c bd90 533d e89f cd3c
00000070: 6c38 373c 3edc a43c 9ac5 e9bc 17ef c73c
00000080: 5a35 0c3d 3e6a 273c 5c10 fc3a feea 66bc
00000090: bc01 b9bb b137 173c 2835 933c ff71 373d
000000a0: 26f4 5d3d 51a3 6c3d 28ca c73c 0e40 863c
000000b0: 6841 10bd 307f 073d 934e cc3c b0fa 8f3c
000000c0: a4df 6dbb 4be2 563d 2146 d63c e54c 933c
000000d0: e4e3 c73b a682 8b3c cd67 6b3b 9dd2 d33c
000000e0: 160f 6ebc d7db 473d c822 01bd 9072 273d
000000f0: 41fa 16bd f13e 0dbb 4340 1c3d 139a 983c
00000100: b13c 163d 888e 1cbd 4ec3 4a3d bd25 e63c
00000110: db17 813c 75eb 813d 765e bd3b 22d1 2cbc
00000120: 597e bb3c bcd5 0dbd e698 c6bb 82d0 823c
00000130: 9296 b8bc adfc 153d 0063 0a3d ce16 313d
00000140: 9bac a53b 67f8 ae3c f9d5 f13b 6203 193d
00000150: 2b0e 563c 071e b83c 9cba 093d 1949 363d
00000160: ddd0 073d cad5 1b3d dfe4 1d3c 2f80 083c
00000170: acbc f13c 3ce7 303d ea55 ec3a 02c6 153d
00000180: 1215 4f3b 8e97 f73c e397 283c fab6 c73c
00000190: a65f 04bd 21ac 893c 5c71 c43c 3033 f63c
000001a0: 3c74 253c 60d4 323d 84c3 3f3b 9014 023c
000001b0: 3668 5f3d c731 2a3d 74ea a23b 8aea ff3c
000001c0: 37e5 733c 1fad c23c df54 4d3c 9598 ee3c
000001d0: 4156 ed3a ab4c d43c df6f 283c 3dfa 143d
000001e0: d47d 0d3d 656f fc3c 5e4c ba3a b108 b33c
000001f0: e154 25bc 2f9c 6e3c 2c2b 893b 3544 a73c
-0.03437934 0.0073177842 0.047398355 0.01072353 0.026276644 0.019389797 0.026573034 0.04388754
0.039667536 -0.015290981 0.026799086 -0.003521547 0.02300762 0.062115416 0.015300234 0.023626776
-0.019458296 0.064715974 0.0375261 0.013523717 -0.009326499 0.028131912 -0.004097552 0.022949452
0.032984402 0.021906972 0.051651705 0.025100663 0.011182886 0.02012455 -0.028536607 0.024406
0.034230568 0.010218201 0.001923095 -0.014094112 -0.0056459587 0.009229586 0.017969683 0.04478645
0.054187916 0.05777294 0.024388388 0.016387966 -0.035218626 0.03308028 0.02493981 0.017575592
-0.003629663 0.052461904 0.026156487 0.017981002 0.0061001647 0.017030071 0.0035920024 0.025857264
-0.014529964 0.04879364 -0.03152731 0.04088074 -0.036859754 -0.0021552409 0.038147222 0.018628156
0.036678974 -0.038221866 0.049502663 0.028094167 0.015758445 0.06343738 0.005779083 -0.010547908
0.022887396 -0.03462766 -0.0060607074 0.015968565 -0.022532735 0.036617924 0.03378582 0.04323464
0.0050559766 0.021358682 0.007380244 0.03735674 0.013064901 0.022475256 0.03362523 0.044503305
0.033158172 0.038045682 0.009637087 0.008331343 0.029508911 0.043189272 0.0018030975 0.036565788
0.0031598252 0.030223634 0.010290119 0.024379242 -0.03231778 0.01680571 0.023979835 0.030053705
0.010098513 0.043659568 0.0029260824 0.007939473 0.054542743 0.041551378 0.0049717966 0.031239767
0.014886192 0.023764191 0.012532442 0.029125491 0.0018107371 0.025915464 0.010280578 0.03637146
0.034543827 0.030814836 0.0014213433 0.02185473 -0.0100910375 0.014563604 0.0041860547 0.020418266

network_body._body_endoder.seq_layers.2.weight f4 [128, 128]
00000000: c195 c1bd 33fc 13bc 5ced 5bbb 9503 b03d
00000010: b821 133b ead3 afbd a1db 6ebd 3607 74be
00000020: e8d0 8b3d fc8a 35be 9234 283d 2d62 533d
00000030: e0f3 7abd 919a 173d 2c74 22be db5a febc
00000040: 11b0 f63d f9a3 8e3d 8ff4 463e 69d7 48bd
00000050: 9df8 87bd 6bf4 57bc fe95 8a3c 8da5 163e
00000060: 7683 123d e00c 643e 2d9d be3d d374 7b3d
00000070: bdb3 8f3d 3226 02be 7e61 b1bd bfa7 6ebd
00000080: fc29 a03c 26d3 20bd f58e 23be 3410 05be
00000090: 2285 3abe 5ce8 483d 0911 8dbd 216d 5abd
000000a0: dc9f b73d d8ce fd3d 8a58 b7bc 2875 c73d
000000b0: 7c8c 253d d537 bfbd 3123 2cbe 09f0 863c
000000c0: c53f cd3d da88 cb3d bc09 2a3e b4e7 4bbd
000000d0: 3d9c cc3c c287 1cbd d77a 8cbd 6690 343d
000000e0: d267 073e bfd2 a23d df53 ccbc 03cb d7bd
000000f0: f0a2 5dbd d524 b23d eba3 1f3e 1983 65bd
00000100: 317e 2a3e a6e6 c43c 9e2e b93d 90a0 8dbd
00000110: 4184 89bd 4e0d 9abc 1f4a 64bd 2c8e 813d
00000120: dfbc 9fbc 40af 83be 89fe 61be 0746 253e
00000130: db40 cd3c f909 5c3d c127 cb3d b44c 223d
00000140: 1c0c 64bd 4e76 273e 744c edbd 0d25 bb3d
00000150: ab52 a43c 42df 0d3e 2ceb d6bc e070 31bd
00000160: 00c6 283d accc 293c 2a93 98be 965e c03c
00000170: e6c4 86bd b7c5 2fbe 7303 84bd 05cf 84bd
00000180: 318c abbd c09d 29be 087e 82bc ddc4 d03d
00000190: 45ed e8bc b4c2 10be 588b 61bc 6b51 633d
000001a0: c5e8 423d 3803 cf3d 520e febd 2b79 ccbd
000001b0: 99cd d6bd c41d 1d3e 6bca 073d e0aa 12bd
000001c0: 2bcc cfbd bff8 a03d 3036 bc3c 683d 3a3d
000001d0: 5324 793d 1b15 0abe c14d fd3d 30a8 2a3d
000001e0: 5369 ec3c f06b babd 939e 1e3d f683 933d
000001f0: 333c 753d 9b5a 2ebb 5d9b 0fbe 0b32 7f3d
00000200: 0d23 a8bc e336 9c3d 3a73 f43d 907c bebb
00000210: 9d7c 5d3d fe95 41bc 23ed 32bd da39 84bd
00000220: 6a3a a03d d7df d8bd 2528 d4bb 6c27 67bd
00000230: 4d28 cdbd 7fac 4e3e 3cc6 f63c 2f93 1f3c
00000240: edcb 26bd b3c1 0f3d 9c64 e93d 3718 60bd
00000250: c19f a83d 9a3e 1bbd e7df b13d e179 523e
00000260: de63 4c3c efc1 943c 437f c6bc 5e67 5cba
00000270: 94be 0c3e f895 163e a76d 8ebd a1ce f43c
00000280: 4c18 27bd bbcb b8bd bcbd 543c 44ab 033d
00000290: b7b9 efbd d743 d9bd 27ff 45bd d64a 56be
000002a0: c14d 61bc 7706 1a3d 7a9b 2d3d 8271 943d
000002b0: 2ab1 b2bd 55ae fdbd 6fae 343c 0db9 3b3e
000002c0: eada ca3d d1e5 dc3d bc35 363e cc63 80bd
000002d0: d6f9 1f3e b25c 4b3e 2482 b63c 30b5 0bbd
000002e0: f922 00bd 13ea 63bd 879a 0a3e 8c36 72bd
000002f0: 3bc5 17bd 2f2d 40bd c231 04bd 60d8 15be
00000300: 93d6 fe3a 8cbf 013e 2f92 b7bc 79a6 7c3d
00000310: 0ab3 c43b 214c 13be 290e 573d 9102 ce3c
00000320: ff05 0e3e 1729 99bd 6ca4 e3bd 155a cf3c
00000330: b25f 803d be1c ebbd a611 043e 5376 4abb
00000340: d762 353d e0f7 b63d ac32 97bc 2f73 da3d
00000350: d5ef fb3d 2ba7 7abd bc5e d63d 1376 ea3d
00000360: 957d 9f3d 90d9 a03d fdf0 5dbb ba7b 543d
00000370: 431b 12bd d6cd 7bbd b005 9cbd ff59 e4bd
00000380: 437b 9abc e7c8 b8bb 156a 4c3d 86fe 163e
00000390: 5f44 fbbd dd4d 9bbd 7088 c73d 8e52 1a3e
000003a0: 4238 633d 24ba bbbc a811 103e 1551 e93d
000003b0: 2975 d3bd 2931 b23d c675 a0bc 0bcf 533d
000003c0: 0e2b 853c 0d18 a5bd c747 3fbe 63f3 82bd
000003d0: f578 adbc 0d7f bc3a ddd3 813d 9764 c83d
000003e0: 79b1 c7bd b207 e1bc c9f6 b3bd 5288 a23c
000003f0: 1b03 a2bc 42a9 723d 09e1 18bd 3c7a 163e
-0.094523914 -0.009032297 -0.0033558225 0.08594433 0.0022450518 -0.08585341 -0.058314923 -0.23830876
0.06826955 -0.177288 0.04106576 0.0516073 -0.061267734 0.03701264 -0.15864629 -0.031049183
0.12045301 0.06964869 0.19429229 -0.049033556 -0.06639216 -0.013180832 0.016917225 0.1471159
0.035769902 0.22270536 0.09307323 0.06139071 0.07016704 -0.12709883 -0.08661173 -0.058265444
0.01955127 -0.039263867 -0.15972503 -0.12994462 -0.18214849 0.04904972 -0.06888015 -0.05332673
0.08966038 0.12392968 -0.022381086 0.09739143 0.04041718 -0.09336821 -0.168103 0.01647188
0.10021929 0.09938212 0.16605276 -0.049781516 0.024976844 -0.038215406 -0.06859367 0.04408302
0.13223198 0.07950353 -0.024942337 -0.10536768 -0.054110467 0.086984314 0.15589873 -0.056033228
0.166497 0.024035763 0.09042095 -0.069153905 -0.067146786 -0.018805172 -0.05573475 0.06325945
-0.01949924 -0.25719643 -0.22069754 0.16139995 0.02505534 0.05372045 0.09919692 0.03962393
-0.05567561 0.16353723 -0.11586848 0.09137926 0.02005895 0.13854697 -0.026235186 -0.043320537
0.041204453 0.010363739 -0.29799777 0.023482602 -0.06580524 -0.17165266 -0.064459704 -0.06484798
-0.08376349 -0.16564083 -0.015929237 0.10193799 -0.028433451 -0.14136773 -0.013766132 0.055497568
0.047585268 0.10108036 -0.12405075 -0.099840485 -0.104884334 0.15343386 0.033152025 -0.03580749
-0.10146364 0.078599446 0.022975057 0.045468718 0.060825657 -0.13484614 0.12368346 0.041664302
0.028858816 -0.09102619 0.038725447 0.07202904 0.059871864 -0.0026604298 -0.1402411 0.062303584
-0.020524526 0.07627656 0.1193604 -0.005813189 0.05407392 -0.011815546 -0.043683182 -0.06456347
0.078236416 -0.10589569 -0.006474512 -0.05643408 -0.100174524 0.2018299 0.030123822 0.009739681
-0.040721823 0.035096835 0.11396143 -0.054710593 0.08233596 -0.0379015 0.08685284 0.20554306
0.012474982 0.018158881 -0.024230605 -0.0008407737 0.13744575 0.14705646 -0.06954508 0.029883685
-0.040794656 -0.090232335 0.012984689 0.032145754 -0.11705344 -0.106086425 -0.048339035 -0.20926985
-0.013751448 0.03760382 0.042384602 0.072482124 -0.087251976 -0.12386767 0.011027916 0.1833231
0.09905036 0.107860215 0.17793936 -0.06269035 0.15622649 0.19859579 0.022278853 -0.03410834
-0.031283353 -0.055643152 0.1353551 -0.05913405 -0.037053328 -0.04691809 -0.032274015 -0.14633322
0.001944261 0.12670726 -0.022408573 0.0616822 0.0060027884 -0.1438451 0.05250374 0.025147708
0.13869475 -0.074785404 -0.11115345 0.02531151 0.062682524 -0.114800915 0.12897357 -0.003089328
0.044283714 0.08933997 -0.01845678 0.10666501 0.12301604 -0.06119458 0.10467288 0.11448302
0.07787625 0.07853997 -0.0033865564 0.051875807 -0.03567053 -0.061475597 -0.07618272 -0.11149978
-0.018857604 -0.005639184 0.049905855 0.1474553 -0.122689 -0.075832106 0.0974282 0.15070555
0.055473574 -0.022915907 0.14069235 0.11392418 -0.10325081 0.08700783 -0.019587409 0.051711123
0.016255882 -0.08061228 -0.18679725 -0.063940786 -0.02117584 0.0014381126 0.06339238 0.09784811
-0.09750647 -0.02746949 -0.08787305 0.019840393 -0.019776871 0.059243448 -0.037323985 0.14695066

network_body._body_endoder.seq_layers.2.bias f4 [128]
00000000: 221c 873c c65a 383d 1395 cd3c 57df 063d
00000010: e43d e83c 3a31 013d 4ecc 203d fd09 033d
00000020: 2ecc 313d a708 de3c 3892 e23c a8c0 0c3d
00000030: 1a82 143d b3be cd3c f148 99bb 7d29 30bd
00000040: 5958 e53c b87d 7b3b 3c4a 163b 2b5a a03c
00000050: 7496 d83c 7708 f03c 97e6 953c 4bfe 5c3d
00000060: 05d1 1b3d 4df9 583c 1c22 903b 3087 9f3c
00000070: 07cc c83c 8377 093d aca0 913c 50a9 eb3c
00000080: 64b3 c83c 1fa5 1b3d 7108 1d3d 07dc 9e3c
00000090: 4802 4c3d b6cf a73b 6e88 0f3d d242 e53c
000000a0: fc7a 233d 8389 063d a497 5e3c e8b3 e4bb
000000b0: 0e00 d73c afab 5d3c ba45 e53c e24e fe3c
000000c0: 511b c33c 6cfb da3c a930 1d3d 1cf8 8c3c
000000d0: 9279 1e3d 4825 b33c 2fdc a63c bdc6 483d
000000e0: e2fc 233d f791 273d 8d99 ba3c 2f15 f23b
000000f0: 1fcd 4a3d 17f4 fa3c 9270 8f3c b1da 753c
00000100: 6814 5e3c 0379 0f3d 2773 463c 4c9f c53c
00000110: 49f0 083d 4a53 813c d964 663c 68ba af3c
00000120: 0514 3d3d 77d5 083d 6eda 29ba b3d6 d23c
00000130: 58a5 cd3c ade1 103d 163f 093d 48b3 793a
00000140: 6360 4c3c 926d 363d ae85 fe3c d233 8d3c
00000150: ac95 533c c807 a73c d19f 043d 0f97 763c
00000160: 60fe 243d 8fa4 943c d9bd 673c be37 233d
00000170: e0a3 d33c fc16 283d bdeb bd3c b504 3a3d
00000180: 15b6 c83c bdc1 0d3d 8821 4b3c 6197 ab3c
00000190: 453d 0a3d 9af3 d43c ae18 eb3c 6010 033d
000001a0: 2008 163d e79c 913b 8c51 053d 912e c23c
000001b0: 465a a73c ca9d 8e3a 218b c03c 8226 1f3c
000001c0: be94 313c 1874 663c 830c b43c 6131 8c3c
000001d0: 43ec dc3b 48e3 c43c 8b0c db3c aee5 623c
000001e0: 8000 913c 37c6 6f3b eb71 793c 6b17 133d
000001f0: 57c6 a13c d067 2f3c 36cf 993c 3440 0f3d
0.016492907 0.045008443 0.025095498 0.032927837 0.028349824 0.031541087 0.03925734 0.031991947
0.04340761 0.027103735 0.027657613 0.03436342 0.036256887 0.025115347 -0.0046778847 -0.043008316
0.027996229 0.0038374495 0.002293243 0.019574245 0.02643893 0.029300911 0.01829843 0.05395345
0.038041133 0.013243032 0.0043985974 0.019473642 0.02451135 0.03356124 0.01777681 0.028767258
0.024499603 0.03799927 0.03833813 0.019392027 0.049806863 0.0051211966 0.03504222 0.027985964
0.03991221 0.032845985 0.013585959 -0.0069794543 0.026245143 0.013529702 0.02798735 0.031043474
0.023816736 0.026731215 0.038376484 0.017208152 0.038690157 0.021868363 0.020368664 0.049017657
0.04003609 0.040910687 0.022778297 0.007387779 0.049512025 0.03063397 0.017509732 0.015005753
0.01355467 0.035027515 0.012112415 0.02412381 0.03343228 0.015786786 0.01406213 0.02145119
0.04616167 0.0334067 -0.0006479387 0.025737142 0.025103256 0.03537147 0.03350743 0.0009525311
0.012474152 0.04453809 0.031069603 0.017236624 0.0129141025 0.020389453 0.032378975 0.015050664
0.040281653 0.018144874 0.014144384 0.03984808 0.025834978 0.041037545 0.023183698 0.045414645
0.024500886 0.03460859 0.012398131 0.020946207 0.033749837 0.025995065 0.028698292 0.03199804
0.036628842 0.004443753 0.032548472 0.023703845 0.020428788 0.0010880765 0.023503842 0.009713771
0.010838686 0.014065765 0.021978622 0.01711339 0.006742032 0.024034157 0.02673938 0.013848705
0.017700434 0.003658665 0.015224914 0.035911005 0.019747896 0.010705903 0.018775564 0.03497334

action_model._discrete_distribution.branches.0.weight f4 [5, 128]
00000000: 6b0c b73b 7131 80bc b0b9 aabc 487c 7fbc
00000010: f6c0 66bc 5d6c abbc 7667 65bc febf afbc
00000020: 0e12 bfbc 65c3 42bc 66f0 75bc 4175 163c
00000030: 6d73 11bd 3568 eebc c116 913c 1fb6 0c3d
00000040: aca4 c9bb 436e 06ba a4ed b43c e0ff 15bc
00000050: f68b aabc 9250 0f3c 1aa2 95bb a200 ebbc
00000060: e6be d9bc 63d5 abba 0702 ca3c a5b9 5f3b
00000070: 52ef 6f3b 437a 87bc 28e6 c23b b62e 8dbc
00000080: 632b 95bc be8f 73bc 2c4b f7bc 40a6 23bc
00000090: 8f7c 0ebc 1cdd f03c 543e 7bbc 7059 13bb
000000a0: 1a0b 32bc 89f8 12bc a0d8 26bc a37f cd3c
000000b0: 981d 3bbc 36eb 243a a64f 893a f7a9 cebc
000000c0: dc88 31bc 4eb9 adbc a3f3 ecbc 2891 e73b
000000d0: a078 55bb c6f3 eebb c312 36bc 1979 4ebd
000000e0: 6d87 01bc bdc7 cebc 6458 aebc 6232 40bc
000000f0: 9fae dbbc 798e c9bb 064e c8b9 b2a6 13bb
00000100: d766 3eba 9cbd c7bb a1a7 c83c 22cd a1bc
00000110: 239a a6bc 3e73 a9bb 8435 8d3b 4c9a afbc
00000120: 0d13 01bc 397e cfbc c100 493c 416b a6bb
00000130: fec0 33bc 9668 d5bb 5f71 07bd 2d27 08bc
00000140: a5f0 b93b 441a 4bbc 4a39 a2bc 0dab 9f3b
00000150: b995 363c 293a 81bc e39c 9bbc 4724 463c
00000160: 5af4 9cbb 12f5 3ebc 1477 f1ba eb82 b4bc
00000170: 01a8 83bc 40b2 e9bc 93e5 323b 4cb8 19bd
00000180: 765e 0c3c 7d13 3abc d089 0f3c 6d0b fb3b
00000190: 10a0 57bc e7e6 e4ba aefe 90bc 5703 2dbc
000001a0: 6ea2 72bc 9787 c13c 60ae 73bc 1f4f 66bc
000001b0: 66ea 9cbc 9d8f e1bb aeff 0e3c 9394 ca3c
000001c0: 24d3 e83b 988c d2bb fca6 0c38 d9dc 4dbc
000001d0: b692 6d3c 40d7 b2bc 8c3c 18bd c645 3fbc
000001e0: 0a53 09bc 645d 653c 8e2a 173a cdd7 47bc
000001f0: bbad 99bc 7bd3 3138 6ca8 dfba 93cf fabb
00000200: f3d3 90bd 08b9 8abc 0c43 113d 1e4a 843d
00000210: 02f0 98bd 5b68 d5ba a210 993d 8128 423d
00000220: 4468 11bd 27eb 8b3c 7184 233d e5b3 51bd
00000230: 131e 233d 8496 8b3d 9d5e 773d 0c4b 1b3d
00000240: c71f 8cbd 0c36 213d 6e87 35bd e867 82bd
00000250: 1411 89bc ab5c 9c3d d0df 8abd c079 01bd
00000260: be24 6abd eab7 843d a8c3 afbc 05e3 d43c
00000270: 613e 2b3d 3e1d ca3b 148b 88bd 7c9d 8c3d
00000280: 2f19 7f3d 71d3 a03d a85c 97b9 4357 6a3d
00000290: cb00 08bb 9d47 4abd d89d 933d 961a 78bd
000002a0: 598f 1a3d f091 613d 6401 86bd fdf3 82bd
000002b0: 2ab6 753d 8340 5fbd ccda 53bd 0842 8d3d
000002c0: 8c57 78bb 7ec0 813d bd00 8cbd 34ea 263d
000002d0: 1fc9 58bd fca0 9b3d 249f 9e3d 0c5c 35bd
000002e0: e3ac 8e3d b427 59bd 6635 c3bd 96fe 103d
000002f0: 6ce7 71bc 790b 943c be8c a33d e1d8 b5bd
00000300: 0243 553d f6de 4cbd dd87 51bd 5ec6 99bd
00000310: d668 123c b87e 9fbd 1fc7 83bd eb5d 7b3d
00000320: 489f 5fbd bc1d 6d3d 0f56 38bd 75ca 8a3d
00000330: c72c 7d3d abb2 61bd 9898 693d 96eb 243d
00000340: 597c 97bd 8ba7 6bbd 8780 5f3d 1dbd 893d
00000350: 45c2 8a3d 4429 943d 61cd 963d 1b4d 3dbd
00000360: 61e6 843d 02a8 8d3d 74b6 a0bd 3a38 273d
00000370: 1133 973c 89ed 233d fa44 17bd 5354 203d
00000380: c63c a23c e610 883d b333 9e3d a7c0 5abd
00000390: 956a 19bc 6e7f bcbc d4af 81bd 5670 10bd
000003a0: de26 9abd 3298 223d 5eee 593d 092d 473d
000003b0: 05d0 483d 8be2 683d 582f 66bd 48e8 4abd
000003c0: 3744 94bd 4f19 813d ab32 38bd 0139 35bc
000003d0: abec 79bd c429 8d3d 2b38 76bd 4a2c 4dbd
000003e0: 31b6 a1bd dd2f 75bd d9c2 963d 8840 99bd
000003f0: 3bd3 3dbd 7a5a 963a 36e9 2ebd 2b85 82bd
0.005586197 -0.015648575 -0.020840496 -0.015593596 -0.014084091 -0.020925695 -0.014001718 -0.021453854
-0.023324039 -0.011887406 -0.015010929 0.009183229 -0.03551047 -0.029102424 0.017711045 0.03435337
-0.0061536636 -0.00051281246 0.022085972 -0.009155244 -0.020818692 0.008747237 -0.004566443 -0.028686825
-0.026580285 -0.0013109859 0.02465917 0.0034137752 0.0036611152 -0.016537791 0.005947847 -0.017234188
-0.018209165 -0.014865814 -0.030187212 -0.009988368 -0.008696689 0.029402308 -0.015334684 -0.0022483729
-0.010866905 -0.008970388 -0.010183483 0.025085276 -0.01142063 0.00062911527 0.0010476008 -0.02522753
-0.0108358525 -0.021206524 -0.028924769 0.0070668645 -0.0032573119 -0.0072922437 -0.011112872 -0.050408456
-0.007905823 -0.025241727 -0.021282382 -0.011730762 -0.026816664 -0.0061510173 -0.00038205105 -0.0022529778
-0.0007263249 -0.0060956012 0.024493994 -0.019751135 -0.02033717 -0.0051712086 0.004309358 -0.02143588
-0.007878077 -0.025328742 0.012268246 -0.0050787036 -0.010971306 -0.0065127118 -0.033067103 -0.0083101215
0.005674439 -0.012396399 -0.019802708 0.0048726858 0.011144095 -0.015774803 -0.018995708 0.01209361
-0.004789871 -0.011655109 -0.0018422329 -0.022035083 -0.016071321 -0.028527379 0.0027297481 -0.037529275
0.008567443 -0.011357185 0.008760884 0.007661274 -0.0131607205 -0.0017463834 -0.017699566 -0.010559878
-0.014809234 0.023624225 -0.014873117 -0.01405695 -0.019154739 -0.006883575 0.008727951 0.024729049
0.007105248 -0.0064254515 3.3534117e-05 -0.012564861 0.014500311 -0.021831155 -0.037167117 -0.01167435
-0.008381614 0.013999317 0.0005766534 -0.012197447 -0.018759599 4.2397045e-05 -0.0017063743 -0.0076541393
-0.07071676 -0.016933933 0.03546433 0.06459449 -0.07467653 -0.0016281711 0.074738756 0.04740191
-0.035499826 0.017079903 0.039921228 -0.05119695 0.039823603 0.06815818 0.060392965 0.037913367
-0.068419985 0.039358184 -0.04431861 -0.06367475 -0.016731776 0.076348625 -0.0678097 -0.03161025
-0.057163946 0.06480391 -0.0214556 0.025987158 0.041807536 0.0061680367 -0.06667152 0.06865975
0.062279876 0.07852829 -0.0002887 0.057212126 -0.0020752426 -0.049384702 0.07207841 -0.06057223
0.037734363 0.055070817 -0.06543234 -0.06394193 0.05998818 -0.054504883 -0.051722333 0.0689736
-0.003789398 0.06335543 -0.06836078 0.040750697 -0.05292618 0.07599065 0.077451974 -0.044277236
0.06966569 -0.05301638 -0.09531669 0.035399042 -0.014764648 0.018071877 0.07985829 -0.08879257
0.052065857 -0.05001732 -0.05115496 -0.07508539 0.008936128 -0.077878416 -0.06434464 0.061368864
-0.05459526 0.057889685 -0.045003947 0.06776897 0.06181028 -0.05510203 0.05703029 0.040263735
-0.07396764 -0.05753283 0.054565933 0.067255236 0.06775335 0.07234433 0.07363392 -0.04621611
0.06489254 0.069168106 -0.078473 0.040825106 0.018456968 0.040021453 -0.036931016 0.039142918
0.01980437 0.06643848 0.077247046 -0.053406384 -0.00936379 -0.023009982 -0.06332365 -0.035263382
-0.075269446 0.039695926 0.05320584 0.048626933 0.049026508 0.056856673 -0.056197494 -0.049537927
-0.072395734 0.06303655 -0.044970196 -0.011060954 -0.06101672 0.06892732 -0.06011216 -0.050091065
-0.078960784 -0.0598601 0.07361383 -0.074830115 -0.046344023 0.0011471056 -0.042702876 -0.06373056

action_model._discrete_distribution.branches.0.bias f4 [5]
00000000: 85cb 26bd c0bd 3a3c bcd3 14bb bc3b 4e3c
00000010: 4d8d 863c
-0.040721435 0.011397779 -0.0022709211 0.012587484 0.0164248

exp_avg f4 [128, 6]
00000000: f2f1 4db7 6731 a736 ef64 81b7 121b 0537
00000010: 0b4c 9539 e30c c338 c4f6 0ab7 746e a036
00000020: 084a 3fb8 281c 0834 6a2d c639 fd9f 85b8
00000030: adaa 01b4 3020 3136 8b2c 82b7 f909 a9b6
00000040: 22e3 0f38 44df 07b8 3313 3e38 a162 18b7
00000050: fc49 d5b7 323b 2ab6 98e1 ae38 fe47 17b9
00000060: 5c37 aa38 c5a1 2f34 1801 e6b7 114c 71b6
00000070: e211 62b8 32ee a3b9 6fb3 b0b8 21d2 5ab6
00000080: fec4 8f37 659a 91b7 1a7d de37 42aa bd39
00000090: 95d8 50b8 03d9 06b7 ba47 ceb7 19e2 9cb6
000000a0: 8c3c 203a 4030 1f39 3942 a7b8 63fd 85b7
000000b0: 7fb6 30b8 d12e e4b7 81b4 c039 6801 9039
000000c0: 6000 5338 7473 8eb7 1329 5838 52dc 0db7
000000d0: c8fb e1b9 739b bab8 6877 7bb8 120c 00b6
000000e0: e866 a636 113f 35b7 ecee 0c39 e394 9139
000000f0: e4fd ad37 f201 f6b6 6c11 5538 5f29 3ab7
00000100: 7a1a dcb9 06d8 52b8 b6bc d0b7 d239 cfb6
00000110: 6840 b637 0c6f d5b4 ba44 3537 007e cf38
00000120: 0b5e edb8 d8a0 0db7 17f8 34b7 0777 a4b7
00000130: 586b c738 ec0d c139 4b17 7038 c79f c5b7
00000140: 973d d0b7 d4af 9bb6 39f0 9838 b586 45b9
00000150: 7d04 38b8 9ddf 8935 d65a 5a37 d009 b1b7
00000160: 088e f7b8 b1e1 a039 1878 ee37 3e7f 79b6
00000170: 1308 4338 e31c 78b7 dd6d efb9 146b 2ab8
00000180: d230 3538 0ddc 8b36 8e37 8837 0449 7237
00000190: 73fe 83b9 641d 47b9 01f3 4c37 f82d 07b8
000001a0: 4e57 49b8 f121 a5b7 f73d b539 82ed bfb8
000001b0: 14d8 ab38 8270 21b6 1924 92b7 5e90 43b6
000001c0: 2062 e1b8 f2a2 98b9 683f 8ab8 afac 68b7
000001d0: 959f 0b38 6260 86b7 56b4 2ab9 856c 7239
000001e0: 7a63 0eb8 8588 3fb6 2bfc 0237 9240 b2b5
000001f0: 2f83 5eb8 ff43 2739 dcfc b2b7 b994 65b7
00000200: edc7 9cb7 c466 48b7 0188 d339 2468 b238
00000210: 3b82 a435 b368 65b4 9d84 6cb8 2144 0737
00000220: d729 8539 7bce 2ab9 bbd8 9c38 ecee 00b7
00000230: c548 0ab8 89a8 57b6 fee6 0939 9fa9 85b9
00000240: de0e b737 b48c 32b7 7c11 85b7 7943 82b6
00000250: 8280 2f39 0fc8 10b9 86ba a238 6008 7136
00000260: bf8c 61b8 e10c 6635 6335 4bb8 7956 c8b9
00000270: 7a3a ca38 1a6f a3b6 3e4e 7435 0f07 92b7
00000280: 1d0e 6bb9 4569 59b9 ae57 1838 bb11 f7b5
00000290: 517c 0db8 2bd9 4db6 c947 3b39 4b37 b7b9
000002a0: 0780 3337 8898 adb6 d592 90b7 8a3d 7eb5
000002b0: cc94 c939 f458 94b8 aca8 98b8 50ff 41b7
000002c0: 320c e0b7 facb 03b7 3d64 8f39 7ec5 2e39
000002d0: 9ad0 3cb8 ba82 0e37 11c8 b2b7 6e8c 20b6
000002e0: 5a98 c939 3412 3339 2313 e3b8 6b27 49b7
000002f0: e8b0 6438 8086 a3b7 25ad eeb9 3329 9539
00000300: 1786 3eb8 48f2 a1b6 7947 10b8 255f 80b7
00000310: 3de5 013a 9631 9139 3208 3438 2db8 5737
00000320: 8c4a feb7 d738 9d36 62cb c839 dcb6 bcb9
00000330: 2480 df37 a51c 0a37 9a57 cfb7 c7a2 fa36
00000340: 8b9e a837 26ac 83b9 a400 87b8 9c21 42b6
00000350: c118 3c37 90d3 8936 268d beb8 8804 3b39
00000360: b515 a7b8 c6ca cb35 9f3f 01b8 73fd ac35
00000370: 6d58 013a 948b 8e39 e139 be38 d8e1 4536
00000380: b1fb d2b7 0f85 a436 f902 1638 33d2 a9b9
00000390: 5cf2 d4b7 cb20 9db7 8754 5c37 a964 5ab7
000003a0: 36a2 f0b5 2a89 7839 9cf3 58b8 2185 36b7
000003b0: edd4 90b8 c912 31b7 4634 363a fdbb 0b39
000003c0: 14f5 4b38 1d1b ddb7 3578 f2b7 e65f 56b7
000003d0: ccd5 0e39 6410 81b9 82c0 bb38 b107 c0b7
000003e0: 4d09 8538 4703 b2b7 2f15 03ba c148 4ab9
000003f0: 695b 8ab8 3d81 ecb6 2f0e 3337 3f14 57b7
-1.22752845e-05 4.982739e-06 -1.5425e-05 7.933721e-06 0.0002847615 9.300725e-05 -8.282896e-06 4.78123e-06
-4.5606896e-05 1.267623e-07 0.0003779934 -6.371734e-05 -1.2076153e-07 2.639379e-06 -1.551795e-05 -5.0377535e-06
3.430539e-05 -3.239444e-05 4.531741e-05 -9.08287e-06 -2.542603e-05 -2.536643e-06 8.338987e-05 -0.00014427301
8.116543e-05 1.6356996e-07 -2.7418646e-05 -3.5956075e-06 -5.3899254e-05 -0.00031267252 -8.425756e-05 -3.2606843e-06
1.713866e-05 -1.7357243e-05 2.6522717e-05 0.0003617574 -4.9792772e-05 -8.037549e-06 -2.4590514e-05 -4.6754835e-06
0.0006112538 0.00015181396 -7.9755155e-05 -1.5972828e-05 -4.2131633e-05 -2.7201519e-05 0.0003675558 0.00027466868
5.030667e-05 -1.6981481e-05 5.1536666e-05 -8.455552e-06 -0.00043102936 -8.898126e-05 -5.995427e-05 -1.9080512e-06
4.9591654e-06 -1.08031245e-05 0.00013440446 0.00027767484 2.0741434e-05 -7.3315978e-06 5.0799383e-05 -1.1096096e-05
-0.00041981396 -5.026909e-05 -2.4883408e-05 -6.175812e-06 2.1726082e-05 -3.975514e-07 1.0804442e-05 9.8939985e-05
-0.000113185575 -8.441704e-06 -1.0786599e-05 -1.960575e-05 9.509054e-05 0.000368222 5.7242152e-05 -2.3558632e-05
-2.4824212e-05 -4.639829e-06 7.29267e-05 -0.00018837566 -4.38732e-05 1.0272375e-06 1.3014962e-05 -2.1104614e-05
-0.00011804333 0.0003068573 2.8427734e-05 -3.7177956e-06 4.6499143e-05 -1.4788678e-05 -0.00045667487 -4.0630883e-05
4.319923e-05 4.16814e-06 1.6238333e-05 1.4441324e-05 -0.00025175847 -0.00018989068 1.2215926e-05 -3.222932e-05
-4.8003443e-05 -1.9685338e-05 0.00034569178 -9.151829e-05 8.194163e-05 -2.4056358e-06 -1.7421366e-05 -2.9141297e-06
-0.00010747113 -0.00029113103 -6.592163e-05 -1.3868484e-05 3.3288805e-05 -1.6018927e-05 -0.00016279644 0.00023119345
-3.3948083e-05 -2.8540683e-06 7.807316e-06 -1.3280826e-06 -5.30511e-05 0.00015951692 -2.1337e-05 -1.3684091e-05
-1.8689747e-05 -1.1944856e-05 0.00040346387 8.507099e-05 1.2256854e-06 -2.1365376e-07 -5.639029e-05 8.0624895e-06
0.0002539891 -0.00016289383 7.479029e-05 -7.685023e-06 -3.2969536e-05 -3.2135597e-06 0.0001315139 -0.00025494114
2.1822223e-05 -1.0642387e-05 -1.5862977e-05 -3.8821568e-06 0.00016737173 -0.00013807438 7.759505e-05 3.5916673e-06
-5.377526e-05 8.570042e-07 -4.844869e-05 -0.000382114 9.643003e-05 -4.8707125e-06 9.101094e-07 -1.7407843e-05
-0.00022416604 -0.00020733949 3.6321282e-05 -1.8408094e-06 -3.37328e-05 -3.0673789e-06 0.00017860452 -0.00034945676
1.069904e-05 -5.1735587e-06 -1.7234512e-05 -9.4711925e-07 0.0003844857 -7.073759e-05 -7.2793424e-05 -1.1563141e-05
-2.670856e-05 -7.8557005e-06 0.0002734977 0.00016667505 -4.501697e-05 8.494297e-06 -2.1312417e-05 -2.3923599e-06
0.00038451218 0.00017077551 -0.00010827768 -1.1989711e-05 5.4524193e-05 -1.9493746e-05 -0.000455239 0.0002845019
-4.542441e-05 -4.826379e-06 -3.439884e-05 -1.5303094e-05 0.00049551186 0.000276935 4.2922977e-05 1.285788e-05
-3.0313873e-05 4.6855816e-06 0.00038298505 -0.00035994395 2.6643342e-05 8.23211e-06 -2.4717116e-05 7.4695304e-06
2.0100988e-05 -0.00025114528 -6.437421e-05 -2.8927816e-06 1.1211437e-05 4.1075473e-06 -9.086197e-05 0.00017835398
-7.967224e-05 1.5183693e-06 -3.081525e-05 1.2888762e-06 0.0004934136 0.00027188344 9.070687e-05 2.9486746e-06
-2.5151154e-05 4.903071e-06 3.5765555e-05 -0.00032390803 -2.5385227e-05 -1.8731129e-05 1.3132702e-05 -1.3017249e-05
-1.7928603e-06 0.0002370222 -5.1725292e-05 -1.0879042e-05 -6.9061156e-05 -1.0554396e-05 0.00069505384 0.00013326104
4.862722e-05 -2.6357879e-05 -2.8904624e-05 -1.2777722e-05 0.00013621821 -0.0002461701 8.952712e-05 -2.2891765e-05
6.3436666e-05 -2.122078e-05 -0.000500041 -0.00019291324 -6.597379e-05 -7.0483934e-06 1.0672534e-05 -1.28197125e-05

exp_avg_sq f4 [128, 6]
00000000: 880f 4b31 dbf0 d030 7302 b930 6ad4 2331
00000010: 5ea9 3532 3d81 2c31 ee92 5230 04fb 1c31
00000020: cb02 3a31 455c a330 2fd8 9f32 0cbf 1031
00000030: d6c7 b42e 51ae f82d 237e ce2e f093 ca2e
00000040: da08 f82e 82c2 132f 76fb a230 ea72 8e30
00000050: 5f39 3531 3e64 4930 3fcf a730 cc7a 6231
00000060: 9d13 3631 e97a 2431 5c99 4d31 4f30 a431
00000070: fd69 a731 d733 a332 6818 4831 50f4 7b31
00000080: 96ab 5432 a2ac 9931 98e8 e831 c44d 0233
00000090: c864 3c32 7365 3e32 4065 c330 7192 4131
000000a0: 3019 6433 923a 3032 fe7e 1232 ee2c 0932
000000b0: 6f5c 1732 e0d4 5132 aa4f ab32 7c8a 9f32
000000c0: 7dfd 2c32 656b c232 681b 9731 9e3d 4c31
000000d0: d5b2 2033 646b b731 dc42 dc30 2cf6 a731
000000e0: 3ab8 dc31 8cc6 ca31 0bf1 aa31 07b8 6b32
000000f0: 9106 3732 15cd 7b32 356c 7531 c3e4 7231
00000100: d234 1333 40a7 8631 d834 d02f e795 c630
00000110: 0308 0331 bc02 d22f 00a2 5930 b856 7031
00000120: 2bda d231 1beb f031 6238 c431 0414 d432
00000130: 98e2 1232 e673 0533 cd43 8e30 9c4b 0231
00000140: 9781 4531 e9c3 8b30 112c f030 0c70 b631
00000150: f0cf 7030 e97b d731 8fce a631 61cf 5832
00000160: 5c66 e631 5b27 b132 0d33 9132 1128 b632
00000170: aee6 3f31 385f 9731 88f3 3433 51a2 9c31
00000180: aa01 d430 728c 952f db2b 5331 47a1 a331
00000190: e203 2032 4523 1232 5810 6e31 25ab 7532
000001a0: 3937 0031 9ea8 0b31 f51c 8f32 f593 3631
000001b0: c494 4131 f0a5 3d31 1610 6c31 9ce5 9431
000001c0: 8b2b b231 02fb 8032 b2a9 ae31 2174 5631
000001d0: d343 3832 3c7e bf31 67db 2332 d269 4932
000001e0: 7bbf 6830 f28a a92f fddd a42f c64f c330
000001f0: a5e4 c230 4b06 9b31 59d6 c331 a514 d731
00000200: 4b13 3b30 536a 9831 1b36 c232 4e48 7731
00000210: f01c f12e 23a8 2b31 4406 8731 18d1 0e31
00000220: c976 5032 5c4d c831 3f3f 9431 9c3c 0d31
00000230: 73dc 8631 dee3 6831 7613 9331 4d75 4b32
00000240: 43d5 cd30 ad7d 7d31 4634 a82f 8854 8831
00000250: bf58 a531 b43a a731 2847 5531 60f4 9a31
00000260: 935c 5432 81da 2032 87f5 e131 43f8 e432
00000270: 27e6 0032 6916 4631 08c3 bf31 7f8c 1232
00000280: ce09 7c32 ceb8 3e32 600b 5731 5333 1e31
00000290: 7707 4b30 ed3e 1b31 5c7a 4232 ce9b ce32
000002a0: a030 2932 aa64 2831 d52a 3a30 73b7 e430
000002b0: be1b a432 0a7d 1331 0735 d231 02c4 bd31
000002c0: ac11 a631 15dd 9931 920f 3f32 50a0 1632
000002d0: cd14 a631 56c9 1532 564e 0331 7c07 7931
000002e0: a448 b432 937c f731 b366 9232 e553 0133
000002f0: 691f 2432 7e63 a532 d57a 5533 acd2 e532
00000300: aa2d a131 b4fa ce2f 86d8 2332 76d4 aa30
00000310: 245c 1533 4bde 9932 a6c8 5332 07dc 8632
00000320: 8fab a030 6801 f931 4e68 0133 8323 dc32
00000330: 85d1 2431 86c7 5030 d067 0131 ee4b 6932
00000340: 2b53 8031 ea41 8932 4956 8931 ef2d cc2f
00000350: 92af 9c30 def9 9130 1088 3731 e8e1 c231
00000360: fa51 8032 fd92 9231 336f 1232 94b5 b331
00000370: 833e 1a33 5c66 9432 d285 cd31 e84f 9230
00000380: a1bf 5731 d8c5 4432 67b7 ac31 b40c b832
00000390: 700c c92f d1ae 8d31 ced7 da30 f9db 1031
000003a0: fec9 6731 452e 6632 413e 8632 792b 9431
000003b0: 7fb9 1b32 dbf4 4f31 2f42 8633 37a9 3d32
000003c0: 2f4a 2231 0688 dc31 c24b e330 9c53 de31
000003d0: 71f0 b531 5501 7032 b6a9 eb32 1771 3533
000003e0: 23e8 3832 c8a7 4932 d315 9933 45c6 8f32
000003f0: e486 bf30 55a7 7131 dc41 d031 ed0e df30
2.9549216e-09 1.5202447e-09 1.3461218e-09 2.3840365e-09 1.0574096e-08 2.5102758e-09 7.6606355e-10 2.2843674e-09
2.706815e-09 1.1886035e-09 1.8608345e-08 2.1063356e-09 8.22095e-11 2.8271748e-11 9.390202e-11 9.2121755e-11
1.1279307e-10 1.3438675e-10 1.1858521e-09 1.036452e-09 2.6371578e-09 7.3265827e-10 1.2209752e-09 3.295713e-09
2.6495635e-09 2.3935007e-09 2.99186e-09 4.7785202e-09 4.872389e-09 1.8999271e-08 2.9117704e-09 3.6664183e-09
1.2379038e-08 4.472512e-09 6.7785315e-09 3.033871e-08 1.0965955e-08 1.10825225e-08 1.4216894e-09 2.8168439e-09
5.3108295e-08 1.0257866e-08 8.527193e-09 7.984665e-09 8.810374e-09 1.2213803e-08 1.9943247e-08 1.8573012e-08
1.0069354e-08 2.263341e-08 4.397794e-09 2.9720932e-09 3.741555e-08 5.33821e-09 1.6026109e-09 4.888326e-09
6.423787e-09 5.901546e-09 4.9750546e-09 1.3720643e-08 1.0653495e-08 1.4656753e-08 3.57137e-09 3.534567e-09
3.4274144e-08 3.9189274e-09 3.7872527e-10 1.4449001e-09 1.9067563e-09 3.820072e-10 7.9174356e-10 3.497389e-09
6.1366072e-09 7.0116477e-09 5.7107608e-09 2.468915e-08 8.54984e-09 3.1071885e-08 1.035113e-09 1.8960469e-09
2.8740936e-09 1.0169262e-09 1.7474823e-09 5.3096354e-09 8.760699e-10 6.2714105e-09 4.854719e-09 1.2620007e-08
6.705518e-09 2.0623409e-08 1.6903437e-08 2.1205809e-08 2.7925284e-09 4.4055035e-09 4.2131006e-08 4.558651e-09
1.5425503e-09 2.7202735e-10 3.072947e-09 4.7622595e-09 9.314109e-09 8.506338e-09 3.4642849e-09 1.4299791e-08
1.8657842e-09 2.032301e-09 1.666056e-08 2.656859e-09 2.816976e-09 2.7597444e-09 3.4351664e-09 4.3334705e-09
5.185432e-09 1.5015306e-08 5.0833586e-09 3.120711e-09 1.0725631e-08 5.573183e-09 9.537735e-09 1.1723801e-08
8.467322e-10 3.0839648e-10 2.9989158e-10 1.421079e-09 1.4180342e-09 4.511809e-09 5.6996154e-09 6.2596706e-09
6.805762e-10 4.43587e-09 2.2609177e-08 3.598433e-09 1.09645515e-10 2.497935e-09 3.9297294e-09 2.0782576e-09
1.2134202e-08 5.829561e-09 4.314557e-09 2.0552653e-09 3.9249755e-09 3.388997e-09 4.2804755e-09 1.1842826e-08
1.4976326e-09 3.6887784e-09 3.0596164e-10 3.967731e-09 4.8122213e-09 4.8670135e-09 3.1036027e-09 4.509772e-09
1.2361073e-08 9.362908e-09 6.576275e-09 2.665559e-08 7.502911e-09 2.882553e-09 5.581004e-09 8.530264e-09
1.467056e-08 1.1101475e-08 3.1293084e-09 2.30212e-09 7.386158e-10 2.2591238e-09 1.13201075e-08 2.4052408e-08
9.848151e-09 2.4504438e-09 6.7727274e-10 1.6641323e-09 1.9104728e-08 2.1462392e-09 6.117833e-09 5.5229075e-09
4.833245e-09 4.47802e-09 1.11212035e-08 8.7676e-09 4.8336006e-09 8.71872e-09 1.9107538e-09 3.6238523e-09
2.0987791e-08 7.2028086e-09 1.704334e-08 3.0111455e-08 9.553198e-09 1.9253772e-08 4.9704642e-08 2.6754911e-08
4.690908e-09 3.7649317e-10 9.5370805e-09 1.2429513e-09 3.4775567e-08 1.7912631e-08 1.2327439e-08 1.569971e-08
1.1690292e-09 7.2470137e-09 3.0130018e-08 2.562752e-08 2.398424e-09 7.59535e-10 1.8830981e-09 1.3579649e-08
3.7347454e-09 1.5978873e-08 3.9970343e-09 3.7140022e-10 1.1400394e-09 1.0621155e-09 2.6707347e-09 5.6718257e-09
1.493844e-08 4.26587e-09 8.523602e-09 5.2302287e-09 3.5912773e-08 1.7276015e-08 5.981499e-09 1.0645609e-09
3.1395546e-09 1.1453686e-08 5.0267093e-09 2.1426196e-08 3.6570524e-10 4.1235144e-09 1.5922923e-09 2.1079798e-09
3.3729743e-09 1.33982825e-08 1.5627963e-08 4.312309e-09 9.064364e-09 3.0261649e-09 6.2519e-08 1.1039723e-08
2.3616271e-09 6.4183068e-09 1.6537955e-09 6.4705556e-09 5.2951283e-09 1.39701415e-08 2.7434776e-08 4.22452e-08
1.0762991e-08 1.1737889e-08 7.1285875e-08 1.6737554e-08 1.3935417e-09 3.5165233e-09 6.061084e-09 1.6229628e-09

exp_avg f4 [128]
00000000: 0d31 9638 5911 cc38 7d01 28b9 d7b1 95b7
00000010: d77f 7ab7 6cef 27ba 9c3b bfb9 8cbc 6fba
00000020: a6bc adb9 7503 81b9 275a 9ab9 bb41 cc36
00000030: ab57 32ba a93b 2eb9 5ded 03ba 9949 cdb9
00000040: 56d8 a639 bfc7 1aba 861d 3637 5550 f2b9
00000050: 5026 b9b8 3273 abb9 f541 4639 f878 c9b6
00000060: 0234 c1b8 f711 1235 b067 97b9 0041 dfb7
00000070: 4ede 98b8 25ce fdb9 4988 a7b8 94a7 4aba
00000080: 4756 20ba 9a21 6039 fbe8 1139 c330 1ab9
00000090: 69c4 b4b9 12c7 5c39 3908 c9b9 5bed 4aba
000000a0: ea5b e3b9 af13 64ba 99ae 16ba efe6 2cb9
000000b0: 934e 68b7 839d c1b9 f74b 0aba 9079 eeb8
000000c0: 3897 c639 d6f5 9fb9 3835 b4b8 81d7 27ba
000000d0: aee2 3239 9585 29ba fbfb 6339 a570 0cba
000000e0: 85c1 53b9 dc7c 93b9 a129 fd38 ad8b 2dba
000000f0: 8031 8a39 146f b2b9 934f a5b9 3f85 d438
00000100: 2a97 e3b9 15e5 5539 4371 95b9 f5f6 0dba
00000110: e23a ad38 7143 4fba 8c35 8937 8e5c 7738
00000120: aef9 3fba 737c 8b39 3545 b3b9 7d45 2db9
00000130: 51af 0d39 9899 beb9 03fd 86b9 8f0b 6bb7
00000140: 7e05 afb9 bac0 f6b9 d498 b8b9 2bcf 37b8
00000150: 9725 f4b9 c4ab f4b8 86e7 5cb9 5c72 30ba
00000160: 449c 22b9 011c 58b9 9e7b 1236 b8d3 0db9
00000170: 02a8 58ba 55a4 35ba 5af6 c6b9 cc00 2eba
00000180: 8bbb a7b9 7e16 05ba f5e4 d1b9 2ec6 0438
00000190: 7af0 60b9 8058 08ba 4ed8 3ab8 75e4 84b9
000001a0: 7207 1139 35ca 58b9 c0df 82b9 8965 3eb9
000001b0: 9334 58ba 7fc0 70b9 0c7a 1038 68af c6b9
000001c0: 4c17 8938 0c3a ef37 9ee1 c8b9 6d17 beb9
000001d0: d4c3 97b5 0371 13ba 4905 0e39 73f0 81b9
000001e0: bb3c 86b9 6a9b 8638 4ab3 9b39 48c5 67b8
000001f0: e0c7 3039 b74a 7d38 59eb 16b9 9266 ebb9
7.161694e-05 9.730709e-05 -0.00016022283 -1.7844997e-05 -1.4930926e-05 -0.0006406221 -0.0003647477 -0.0009145222
-0.00033137685 -0.00024607373 -0.00029440338 6.087326e-06 -0.00068032247 -0.00016616158 -0.00050326233 -0.00039155481
0.0003182317 -0.0005904398 1.0854919e-05 -0.0004621769 -8.828624e-05 -0.0003270149 0.00018907322 -6.0043494e-06
-9.212644e-05 5.441538e-07 -0.00028878218 -2.661394e-05 -7.289332e-05 -0.0004840951 -7.9885656e-05 -0.00077306596
-0.0006116372 0.00021374822 0.0001391507 -0.0001470475 -0.00034478612 0.00021054994 -0.00038343834 -0.0007741057
-0.00043365295 -0.0008700443 -0.0005748063 -0.00016489228 -1.3846572e-05 -0.00036929184 -0.0005275602 -0.00011371367
0.0003787817 -0.00030510005 -8.5929816e-05 -0.0006402657 0.00017059848 -0.00064667437 0.00021742277 -0.00053573615
-0.0002019462 -0.00028131052 0.00012071734 -0.00066202396 0.00026358292 -0.00034033565 -0.0003153054 0.00010133767
-0.0004340944 0.00020398603 -0.0002850388 -0.00054155226 8.2602506e-05 -0.0007906473 1.6356607e-05 5.8975587e-05
-0.0007323277 0.00026604868 -0.00034193104 -0.00016524452 0.00013512118 -0.0003635406 -0.0002574698 -1.4009783e-05
-0.00033382693 -0.0004706437 -0.0003520908 -4.382354e-05 -0.00046567313 -0.000116668205 -0.00021067084 -0.0006730908
-0.00015507737 -0.00020609798 2.182765e-06 -0.00013525679 -0.0008264781 -0.00069290894 -0.0003794905 -0.0006637692
-0.00031992453 -0.0005076899 -0.00040034173 3.165582e-05 -0.00021451889 -0.0005201176 -4.4547305e-05 -0.00025347216
0.00013831051 -0.00020674693 -0.0002496224 -0.00018157637 -0.000824758 -0.00022959894 3.444594e-05 -0.0003789619
6.5370084e-05 2.851805e-05 -0.0003831507 -0.00036257078 -1.130737e-06 -0.0005624445 0.00013544144 -0.00024783946
-0.0002560372 6.418566e-05 0.00029697485 -5.5258424e-05 0.00016859127 6.0389484e-05 -0.00014392789 -0.00044899114

exp_avg_sq f4 [128]
00000000: 1f16 a833 36ed 1c34 4aed a531 c738 4133
00000010: 4347 6634 f4c3 a834 658f b234 0f6e 8a34
00000020: 98b9 9834 5ae6 1934 418e 8634 dd68 1333
00000030: 2b41 ae34 ac1c a733 47fe 9234 02e4 ac34
00000040: 8e33 e033 2ca3 3934 b837 3134 96ac 5134
00000050: 8f90 7433 5d13 2234 f046 2d34 a358 2734
00000060: ee98 cf33 e8ca 9a34 aa9f 3f34 0a30 cb34
00000070: 087f 2134 0e8a f233 703f 2b34 3efb 3935
00000080: e7f2 9134 0cb0 0f35 b4e2 2b34 63ff a933
00000090: 3e19 8d34 d9b4 7934 6f9d 1834 a49f de34
000000a0: 6182 7734 cf72 3a35 e0fe 5834 d8a2 2534
000000b0: 8f61 8d32 544e ca34 c647 a734 95b4 6e34
000000c0: e87b 6e34 265c b534 10ce ba34 5683 ea34
000000d0: 67b2 8034 4435 cc34 365a ca34 4c77 c134
000000e0: c9b8 1234 708f 9933 332b 6733 9ff2 8a34
000000f0: 4a1d fd32 e7af 8a34 2834 0234 c0d2 ff33
00000100: c7fc 0e35 8f41 0833 d8e7 5f34 7c1b 3034
00000110: 71b2 7434 cc18 6e34 cf59 6b34 73d5 0a34
00000120: 2d9f c734 2ef7 8533 4288 1f34 6e8f b434
00000130: be20 cd33 d3f1 9034 5dce 0534 df7e 2934
00000140: ce85 8934 bd28 bb34 b6f0 8834 ef3d 3934
00000150: 0547 b334 42ee 3734 0869 3634 10ed 4734
00000160: 05de 5c34 2d9f d032 21a3 5a34 da21 9733
00000170: 710b e134 c6d5 5b34 39e4 5b34 e69d 9834
00000180: de50 8234 bf5e 1f34 5ead 2334 b02e bf33
00000190: b5ba a133 3459 5a34 8cb9 d334 0ed8 8433
000001a0: 7152 a534 01d2 2634 54d5 a134 45f6 7834
000001b0: f998 df34 7b57 0a34 22f4 fc33 8feb ac33
000001c0: ea7d c533 57dd b233 a75e b134 74cd 8a34
000001d0: bec7 2c32 fef6 3634 ed09 9333 2b1f af32
000001e0: 7686 8c34 e424 4034 3994 be34 25d5 0b33
000001f0: bc9e 3633 c411 0834 067a 9634 5aba 3534
7.8271334e-08 1.4614929e-07 4.8291087e-09 4.4987953e-08 2.1446344e-07 3.1435013e-07 3.3259417e-07 2.578458e-07
2.8447243e-07 1.4333037e-07 2.5062948e-07 3.4321477e-08 3.2457442e-07 7.781759e-08 2.737963e-07 3.2203394e-07
1.04401906e-07 1.7288829e-07 1.650468e-07 1.9527428e-07 5.6942152e-08 1.509447e-07 1.6137687e-07 1.5585333e-07
9.6670064e-08 2.883237e-07 1.7846347e-07 3.784665e-07 1.5040507e-07 1.1294115e-07 1.5948694e-07 6.9283476e-07
2.718509e-07 5.3527833e-07 1.600809e-07 7.91613e-08 2.6281663e-07 2.3255724e-07 1.4213377e-07 4.1466876e-07
2.3051099e-07 6.945747e-07 2.020929e-07 1.5426065e-07 1.6458925e-08 3.7682423e-07 3.1158396e-07 2.2231173e-07
2.2210554e-07 3.3780924e-07 3.479513e-07 4.3681456e-07 2.3971663e-07 3.8036717e-07 3.769107e-07 3.603585e-07
1.3664534e-07 7.150709e-08 5.3823168e-08 2.5881033e-07 2.9466396e-08 2.583249e-07 1.2126168e-07 1.1912698e-07
5.326696e-07 3.1724593e-08 2.0852838e-07 1.6401276e-07 2.2789187e-07 2.2174498e-07 2.1918753e-07 1.2929904e-07
3.7182454e-07 6.238257e-08 1.4857599e-07 3.3631972e-07 9.552012e-08 2.699804e-07 1.2461665e-07 1.5785507e-07
2.5615594e-07 3.4861105e-07 2.5507114e-07 1.7251999e-07 3.3393022e-07 1.7129881e-07 1.6988281e-07 1.8619562e-07
2.0569867e-07 2.4286772e-08 2.0362178e-07 7.037643e-08 4.191784e-07 2.0473735e-07 2.0478991e-07 2.8427093e-07
2.4273226e-07 1.4842497e-07 1.5243629e-07 8.902623e-08 7.5311085e-08 2.0335284e-07 3.9436816e-07 6.186029e-08
3.079363e-07 1.5536354e-07 3.0143804e-07 2.3186392e-07 4.164829e-07 1.2884077e-07 1.1779072e-07 8.052222e-08
9.196431e-08 8.3290324e-08 3.3037688e-07 2.585399e-07 1.0057134e-08 1.7039926e-07 6.8470264e-08 2.0386855e-08
2.6174865e-07 1.7894814e-07 3.5498104e-07 3.2557313e-08 4.2519545e-08 1.267245e-07 2.802846e-07 1.6924733e-07
