Scenes/ImprovedGridWorld2D/results/ppo-memory-8-curriculum/DroneGrid2D/DroneGrid2D-99763.onnx (onnx, 114477 bytes, 9 tensors)

network_body._body_endoder.seq_layers.0.weight f4 [128, 6]
0	0x3ed9787a	0.4247473
1	0xbed447de	-0.4146108
2	0x3dbc40ff	0.091920845
3	0x3ee58136	0.44825143
4	0xbefa4c40	-0.488863
5	0xbeb99094	-0.36243117
6	0x3f10ea08	0.56607103
7	0xbd34975d	-0.044089664
8	0x3da5cec2	0.080960765
9	0x3cb0e261	0.02159232
10	0x3e3a9c83	0.18223767
11	0xbe018c3a	-0.12651148
12	0xbd6534b9	-0.055958483
13	0x3eb460ab	0.35230002
14	0xbedc6639	-0.4304674
15	0x3b336790	0.002737496
16	0x3edc5d44	0.43039906
17	0xbe4ac1b3	-0.19800453
18	0x3daf2cc1	0.08553458
19	0x3d266fbb	0.0406339
20	0x3e21e5d5	0.1581033
21	0xbf8f648c	-1.120256
22	0x3e98498f	0.2974362
23	0x3f338632	0.7012664
24	0xbf399245	-0.72488815
25	0x3f2a926a	0.6662966
26	0x3f36e847	0.7144818
27	0xbe7b1ce1	-0.24522735
28	0xbd8c987a	-0.0686502
29	0xbe196d25	-0.14983042
30	0x3ef98a29	0.4873822
31	0xbe2492b5	-0.1607159
32	0xbe9ae356	-0.3025157
33	0x3d986b51	0.07442344
34	0xbf492efd	-0.78587323
35	0xbe2ef833	-0.17086868
36	0x3e0cdf96	0.13757166
37	0x3e8179df	0.25288293
38	0x3ec0c084	0.37646878
39	0x3ede49bf	0.4341564
40	0x3eb55d42	0.35422713
41	0xbf7b5b1a	-0.98185885
42	0x3dd81492	0.105507985
43	0x3ee0284d	0.43780747
44	0x3f2d00c1	0.67579275
45	0x3f409d53	0.7524006
46	0xbedea55a	-0.43485528
47	0x3f0d0631	0.5508757
48	0x3e93d8f1	0.2887645
49	0x3ed50550	0.41605616
50	0x3f16f3a1	0.589655
51	0xbeff9856	-0.4992091
52	0xbed95c62	-0.42453295
53	0x3de36f99	0.1110527
54	0x3ee7d8d9	0.4528263
55	0xbf493a4c	-0.7860458
56	0x3f352092	0.70752823
57	0x3f6159a2	0.88027394
58	0xbf251748	-0.6448865
59	0xbe9c5c48	-0.30539155
60	0x3ca497d4	0.020091929
61	0xbdb00f5e	-0.08596681
62	0x3ea19cee	0.3156504
63	0xbd19b46b	-0.037525576
64	0x3e36eee2	0.17864564
65	0xbefca44a	-0.49344093
66	0x3caa6d0c	0.02080395
67	0xbebbc8ad	-0.3667654
68	0x3cb97238	0.022637472
69	0xbe20ec5d	-0.15715165
70	0x3f22d70d	0.6360939
71	0x3e7a2492	0.24428013
72	0x3d3e7aa6	0.046503685
73	0xbf0d8376	-0.5527872
74	0x3ea9fe07	0.3320162
75	0x3f4038b0	0.750865
76	0x3e6bd969	0.23032154
77	0xbc58e621	-0.013238461
78	0xbe5ee911	-0.21768595
79	0x3f19bf7b	0.600578
80	0x3dbec73c	0.09315345
81	0x3e6d4265	0.23169859
82	0xbe6a6eb9	-0.228938
83	0x3ea6973e	0.32537264
84	0x3f0adb70	0.54241085
85	0xbf3c0b0e	-0.7345437
86	0x3f20c421	0.6279927
87	0xbd2851e9	-0.04109374
88	0xbe53da66	-0.20688781
89	0xbef92fdd	-0.4866933
90	0xbe34d329	-0.17658676
91	0x3e7eef72	0.24896029
92	0x3e9fc2ee	0.31203407
93	0xbd295ffd	-0.041351307
94	0x3f5a786a	0.8533999
95	0xbebe97b4	-0.37225115
96	0x3ea03535	0.31290594
97	0x3d9b59a7	0.07585459
98	0xbd679bf3	-0.05654521
99	0x3ef81899	0.48456267
100	0x3eb20447	0.34768888
101	0x3e9e31bb	0.30897316
102	0x3c805229	0.015664177
103	0x3dd3c339	0.1033997
104	0x3f731e87	0.94968456
105	0x3f1fe44f	0.62457746
106	0xbd94c685	-0.07264427
107	0x3edb7ab6	0.4286706
108	0x3e920f1f	0.2852716
109	0xbdb09ca0	-0.08623624
110	0x3e22a8c8	0.15884697
111	0x3ead1088	0.33801675
112	0x3f1bcc98	0.6085906
113	0x3f6eda18	0.93301535
114	0xbee18f23	-0.44054517
115	0xbeae184d	-0.34002915
116	0xbea78b95	-0.3272368
117	0x3f261400	0.6487427
118	0xbe23148e	-0.1592581
119	0xbea51ba4	-0.3224765
120	0x3ede7abc	0.43453014
121	0x3cef9d58	0.029249832
122	0x3f30baf8	0.6903529
123	0xbe95e30f	-0.29274794
124	0x3f074a73	0.52847975
125	0x3d8cd5c3	0.06876709
126	0x3d88c368	0.06677896
127	0x3f3443cf	0.7041597
128	0xbde080dc	-0.10962078
129	0xbf03f6d7	-0.5154852
130	0x3e6eda6d	0.2332551
131	0xbd2bbadb	-0.041926246
132	0x3f682995	0.9068845
133	0xbe8015a7	-0.2501652
134	0x3e912b8f	0.28353545
135	0x3e4c314f	0.19940685
136	0x3e0c66ac	0.13711041
137	0xbb7756f5	-0.003774104
138	0xbd33ac22	-0.04386533
139	0xbdb29e8d	-0.087216474
140	0xbea08dfc	-0.31358325
141	0xbe6478d0	-0.22311711
142	0xbe119443	-0.14216714
143	0xbec1ec7d	-0.3787574
144	0x3e7fe72a	0.24990526
145	0xbeba3378	-0.36367393
146	0xbe86ad21	-0.26303962
147	0xbea55add	-0.32295886
148	0xbeaffd0d	-0.3437275
149	0x3e09add0	0.1344521
150	0x3f23edba	0.64034617
151	0x3ec482b3	0.38380966
152	0x3f18ecd1	0.59736353
153	0xbf0908c1	-0.5352898
154	0x3f24bebd	0.64353544
155	0x3f0f0564	0.558676
156	0xbec216e7	-0.37908098
157	0xbe81c127	-0.25342676
158	0x3dd6042d	0.10450015
159	0xbea31888	-0.31854653
160	0xbebcecc9	-0.36899403
161	0xbe50463e	-0.20339295
162	0xbe9562a6	-0.29176825
163	0x3f07adb8	0.5299945
164	0xbf2d6338	-0.6772952
165	0xbd803100	-0.06259346
166	0xbf64df88	-0.8940358
167	0x3e3d0e01	0.18462373
168	0x3c98fcb6	0.01867519
169	0xbf12b258	-0.5730338
170	0xbeac1553	-0.3361002
171	0x3f0f374f	0.5594377
172	0xbe4118b0	-0.18857074
173	0x3f0e0bbf	0.55486673
174	0xbf4b70fa	-0.79469264
175	0x3db6e107	0.08929639
176	0xbf450553	-0.7696125
177	0x3d824a78	0.0636186
178	0x3f01c9f2	0.5069877
179	0xbe063db3	-0.13109474
180	0xbdaf3ee0	-0.08556914
181	0xbf254f57	-0.6457419
182	0x3dd1fb6b	0.10253032
183	0xbeb00227	-0.34376642
184	0xbe301808	-0.17196667
185	0xbd03d7c4	-0.032188192
186	0xbe299edf	-0.16564511
187	0xbaab6b07	-0.0013078161
188	0x3ecd37ec	0.40081728
189	0x3e6c2a29	0.23062958
190	0x3eefa526	0.46805686
191	0x3eeecd82	0.46641165
192	0x3f026853	0.50940436
193	0xbeabbc23	-0.33541974
194	0xbf716b88	-0.94304705
195	0xbe640d29	-0.22270645
196	0xbe84ccf1	-0.25937608
197	0xbce67594	-0.028132237
198	0x3d79c27c	0.06097649
199	0xbe4318d0	-0.19052434
200	0x3f212f69	0.6296297
201	0x3cf5489b	0.029941848
202	0xbd3cfc71	-0.046139184
203	0x3e3aae9e	0.18230674
204	0x3e4acb1e	0.19804046
205	0x3e14c373	0.14527683
206	0x3e955c71	0.2917209
207	0x3f039301	0.51396185
208	0xbf3279ad	-0.6971691
209	0xbef3d246	-0.47621363
210	0xbe28aa81	-0.16471292
211	0xbec18af0	-0.37801313
212	0xbe6165ab	-0.2201144
213	0xbe4091d3	-0.18805628
214	0xbe5b9f48	-0.2144748
215	0xbf5e59a4	-0.8685553
216	0xbd46b5c5	-0.048513193
217	0xbf623088	-0.883553
218	0xbed94791	-0.42437413
219	0x3f21fcc4	0.63276315
220	0xbeb6e67d	-0.35722724
221	0x3d2a5524	0.041585103
222	0xbeac125b	-0.33607754
223	0xbee468ff	-0.44611356
224	0xbf766f29	-0.96263367
225	0x3df6c5cf	0.12049448
226	0xbee626ac	-0.4495138
227	0xbde168e0	-0.110063314
228	0x3eeaf31e	0.4588861
229	0x3ebcdb92	0.3688627
230	0x3e991217	0.29896614
231	0xbeb081a4	-0.34473908
232	0x3f8707c8	1.054925
233	0xbf933cb5	-1.1502901
234	0x3e9bb334	0.3041016
235	0x3f57eed1	0.8434878
236	0xbe8f441b	-0.27981648
237	0xbe41aeae	-0.18914291
238	0xbe58e073	-0.2117937
239	0x3f211676	0.629249
240	0x3edeb8e5	0.43500438
241	0xbed3c111	-0.41358235
242	0x3e306990	0.17227769
243	0x3eb1a17d	0.34693518
244	0xbe7532b1	-0.23945118
245	0xbf5d1d5f	-0.8637294
246	0x3bfa7b0a	0.007644062
247	0xbb4a6b05	-0.0030886543
248	0x3ee9f99d	0.45698252
249	0x3f242382	0.6411668
250	0x3f07b690	0.53012943
251	0xbd20b624	-0.039236203
252	0xbe129ed5	-0.14318402
253	0xbe00172c	-0.1250884
254	0xbd8f7f9b	-0.07006761
255	0xbe43366e	-0.19063732

network_body._body_endoder.seq_layers.0.bias f4 [128]
0	0x3cfd6e3d	0.030936355
1	0xbd55bc05	-0.052181263
2	0x3ce5230c	0.027970813
3	0x3c1357a5	0.008993064
4	0xbd04fa83	-0.03246547
5	0x3ccef1ca	0.025261778
6	0xbcc0bb2b	-0.023526749
7	0x3a4818e8	0.0007633106
8	0x3d1b9872	0.03798718
9	0x3d927a1d	0.071521975
10	0xbab7c072	-0.0014019145
11	0x3ccdef50	0.025138527
12	0x3cee511c	0.02909141
13	0x3cafd94e	0.021465924
14	0x3ced5671	0.028971883
15	0x3d8304e9	0.06397421
16	0x3d277dca	0.040891446
17	0x3d0f146b	0.03493158
18	0x3cb7b98b	0.022427341
19	0xbcd2c3d9	-0.025728153
20	0x3ce5226b	0.027970513
21	0xbd2f67f5	-0.04282375
22	0x3c566199	0.0130847925
23	0x3d767062	0.06016577
24	0xbd2ce7e4	-0.042213336
25	0x3d0bce0b	0.034132045
26	0xbd0a95ed	-0.033834387
27	0x3ca1f3a4	0.019769497
28	0x3d37c9ae	0.04487007
29	0x3ce03852	0.027370606
30	0xbd0d0853	-0.034431767
31	0xbcd124fc	-0.02553033
32	0xbcd58106	-0.0260625
33	0x3cc0b703	0.023524767
34	0x3d714e6f	0.05891269
35	0x3d0fb712	0.0350867
36	0x3d093e4e	0.033506684
37	0xbd40e0e0	-0.047089458
38	0x3d6cc29b	0.057802778
39	0xbcdfe13a	-0.027329076
40	0x3d16012e	0.03662222
41	0x3ccffa25	0.025387833
42	0xbc1493b3	-0.009068417
43	0xbd1d1987	-0.038354423
44	0xbc07a0be	-0.00827807
45	0x3b34d594	0.0027593123
46	0x3d7416b7	0.059591975
47	0xbc0f7df2	-0.008758055
48	0xbd112a74	-0.035440877
49	0x3cf0f3b0	0.029413074
50	0x3c87be26	0.016570162
51	0x3d23de11	0.0400067
52	0x3c903678	0.017604098
53	0xbd228b15	-0.03968342
54	0x3c6daa5a	0.014505947
55	0x3d25fd36	0.040524684
56	0x39869160	0.00025666784
57	0x3a56c8b6	0.00081933604
58	0xbc9e95a0	-0.019358456
59	0x3cfee17a	0.031113375
60	0x3c0ad498	0.008473538
61	0x3c137cbf	0.00900191
62	0x3d4763a8	0.048679024
63	0x3cd93727	0.026515556
64	0x3c24d7bc	0.010061201
65	0xbbc938d8	-0.0061408095
66	0x3b569ddd	0.0032747902
67	0x3d0f34c5	0.034962434
68	0x3c335192	0.010944741
69	0xbc4e9649	-0.012609073
70	0xbd206744	-0.03916098
71	0xbd4181a8	-0.04724279
72	0x3d6b0cb3	0.057385158
73	0x3d82d15a	0.06387587
74	0x3c5b6f48	0.013393231
75	0x3c9db7fa	0.019252766
76	0x3ceca822	0.028888766
77	0x3d53391d	0.05156814
78	0x3d841b61	0.064505346
79	0xbc593285	-0.013256674
80	0x3cf7091c	0.03015571
81	0x3d3c2d8f	0.045941886
82	0x3b8ba7ec	0.004261961
83	0xbc00be78	-0.007857911
84	0x3c38ec39	0.011286789
85	0x3b301c6f	0.0026872416
86	0x3b66b12d	0.003520082
87	0x3c93cf42	0.018043164
88	0x3b7113b6	0.003678543
89	0xbd80c8ab	-0.062882744
90	0xbcbffe42	-0.02343667
91	0x3d108642	0.03528429
92	0xbac806c4	-0.0015260805
93	0x3d371bb6	0.04470416
94	0x3c9eef25	0.019401142
95	0x3d2a484f	0.041572865
96	0xbccc006b	-0.024902543
97	0xbcba73e1	-0.022760333
98	0x3cf62ee2	0.030051652
99	0x3d338337	0.043826308
100	0x3d12f8c5	0.035881776
101	0x3b737536	0.003714872
102	0x3d1d1ac2	0.038355596
103	0x3d281c70	0.041042745
104	0x3cebd319	0.028787183
105	0x3c1d73c0	0.0096101165
106	0x3ccb3815	0.024807015
107	0x3d5bff3c	0.053710207
108	0x3c458620	0.012055904
109	0xbb1d05bc	-0.0023959717
110	0x3cc9f8f5	0.024654845
111	0x3b803463	0.003912495
112	0x3ba00833	0.00488379
113	0xbd474db5	-0.04865809
114	0xbbd88c4d	-0.006608522
115	0xbbe27ad3	-0.0069116144
116	0x3ce4cf5f	0.027930913
117	0xbc245a5d	-0.01003131
118	0xbd1d3105	-0.038376827
119	0xbb8d9be5	-0.0043215626
120	0xbc64d830	-0.013967559
121	0x3cfc6836	0.03081141
122	0x3d252056	0.04031404
123	0x3d42cabe	0.04755663
124	0x3d37df53	0.044890713
125	0xbd45a642	-0.04825426
126	0x3b02d941	0.001996592
127	0x3d1e3d8a	0.038632907

network_body._body_endoder.seq_layers.2.weight f4 [128, 128]
0	0xbaa87e97	-0.001285511
1	0xbd02fca9	-0.031979237
2	0xbc36d6f3	-0.011159646
3	0x3dbd39ad	0.092395164
4	0x3e08f84d	0.13375969
5	0xbe9f4c0f	-0.31112716
6	0x3d8d5e10	0.069027066
7	0xbbe7a8dd	-0.0070696906
8	0xbdf7e49d	-0.121041514
9	0xbdee8a6a	-0.11647494
10	0xbd1dae3a	-0.038496234
11	0xbc2847a8	-0.01027099
12	0xbd39debf	-0.045378443
13	0x3c46a9f1	0.012125478
14	0x3e2900f3	0.16504268
15	0xbcc8ee98	-0.024527833
16	0xbd8a29b6	-0.06746237
17	0x3e2a11f6	0.16608414
18	0xbdccae08	-0.09994131
19	0xbd395ebb	-0.045256358
20	0x3bd667fc	0.0065431576
21	0x3d54f385	0.05199005
22	0xbdde9a93	-0.108693264
23	0x3d916619	0.07099552
24	0x3d201e4a	0.039091386
25	0xbe132670	-0.14370131
26	0xbda366b0	-0.079785705
27	0xbd1b544c	-0.03792219
28	0x3db11c35	0.08647958
29	0xbca1beff	-0.019744394
30	0x3c2cc57b	0.01054513
31	0x3cbfc474	0.023409106
32	0xbd02936d	-0.031878877
33	0x3d1ac4ed	0.03778546
34	0x3c6b95a9	0.0143789435
35	0x3dd57fb3	0.10424747
36	0x3c3ae44b	0.011406968
37	0xbc901235	-0.017586807
38	0x3c8a65b0	0.016894192
39	0xbc2d9daf	-0.010596677
40	0x3ce4d7fd	0.027935022
41	0x3d9526e8	0.072828114
42	0xbd541054	-0.051773384
43	0xbd8878d4	-0.06663671
44	0xbdcc7d8e	-0.09984885
45	0x3cc38f43	0.023872023
46	0xbd19e5cc	-0.037572667
47	0x3c8d6270	0.017258853
48	0x3db1459e	0.086558565
49	0xbcc7319d	-0.02431565
50	0xbe4d58ef	-0.20053457
51	0xbe10f2bf	-0.141551
52	0x3ca75ea4	0.02043087
53	0x3c98f8c6	0.018673312
54	0x3daab55f	0.08335375
55	0x3dcf83d0	0.10132563
56	0x3d1b3a09	0.037897144
57	0x3bd6442e	0.0065388894
58	0x3d883997	0.066516094
59	0xbd810456	-0.06299655
60	0xbe4099f5	-0.1880873
61	0xbd09b57e	-0.03362035
62	0x3cfe3d2b	0.031035027
63	0xbd353e08	-0.04424861
64	0x3d5f7c13	0.054561686
65	0x3dc43a0f	0.09581386
66	0xbd88a0fc	-0.0667133
67	0x3c8aeaac	0.016957603
68	0x3cd5aef4	0.0260844
69	0xbcdd5019	-0.027015733
70	0x3defa115	0.11700646
71	0x3e5931e2	0.21210435
72	0xbdf0e51e	-0.11762451
73	0x3d49d0a8	0.049271256
74	0xbe4fc76c	-0.20290917
75	0xbd95dba1	-0.073172815
76	0x3a199002	0.00058579457
77	0x3e2588f9	0.16165532
78	0x3e021062	0.12701562
79	0x3d8521d3	0.06500592
80	0xbe0b51bf	-0.13605402
81	0x3d02e2ae	0.03195446
82	0x3e029737	0.12752996
83	0x3c49086a	0.0122700725
84	0x3dbf516f	0.09341704
85	0x3e33d051	0.17559935
86	0x3c929b1d	0.01789623
87	0xbe1d5abf	-0.15366648
88	0xbdd00d04	-0.101587325
89	0xbde4eb7e	-0.11177729
90	0x3c7f7096	0.015590807
91	0xbe8ddf98	-0.2770965
92	0xbbe0ab51	-0.00685636
93	0xbbcc252b	-0.0062300167
94	0xbd9d023a	-0.0766644
95	0xbb7d91c0	-0.003869161
96	0x3dbafcf5	0.09130279
97	0xbd985e0e	-0.074398145
98	0x3e0d2b44	0.13786036
99	0xbdb5ee8f	-0.08883392
100	0x3b634026	0.0034675687
101	0x3d5bdb8a	0.053676166
102	0x3d6607b5	0.056159694
103	0x3cb70e2c	0.022345625
104	0xbd900bf9	-0.070335336
105	0x3d136a61	0.035990123
106	0xbd6ba2c8	-0.057528287
107	0x3d18b585	0.037282486
108	0x3d68201b	0.056671243
109	0xbdb4ea1b	-0.088337146
110	0x3ddf34f5	0.108987726
111	0xbdb63732	-0.088972464
112	0xbdbee35f	-0.09320711
113	0xbd4a5262	-0.049394973
114	0xbbc8a8e9	-0.0061236513
115	0xbd658cd7	-0.05604252
116	0xbc70d4ae	-0.014699144
117	0x3b8e038b	0.0043339184
118	0xbc0b56e9	-0.008504608
119	0x3e0b1190	0.13580918
120	0x3de2e204	0.11078265
121	0xbbaefc7b	-0.0053401566
122	0x3ceadee1	0.02867073
123	0xbdf80881	-0.12110997
124	0x3aa6cd5e	0.0012725999
125	0xbb47a011	-0.0030460397
126	0x3d482a32	0.048868366
127	0x3cc1a943	0.02364028
128	0x3e2a60ab	0.16638438
129	0x3d6df569	0.05809537
130	0xbcc24cb9	-0.023718225
131	0x3d9f315e	0.07773088
132	0xbcc0fb6e	-0.023557391
133	0x3bef73ee	0.007307521
134	0xbdc2e97f	-0.09517192
135	0x3d9874eb	0.07444175
136	0x3c58aab1	0.01322429
137	0xbd9a9390	-0.075476766
138	0xbd9ada80	-0.07561207
139	0x3d4e236f	0.05032676
140	0xbd037e8b	-0.032103103
141	0x3e0fd853	0.14047365
142	0x3d81c7e8	0.06336957
143	0xbcf12cc7	-0.029440297
144	0x3d8f1d85	0.06988052
145	0x3d811279	0.063023515
146	0xbd421861	-0.04738653
147	0x3e3c256a	0.18373647
148	0x3a347449	0.0006883783
149	0xbd10f0f8	-0.035386056
150	0xbdb137fc	-0.08653256
151	0xbaf11b98	-0.0018395064
152	0xbd8d3d5f	-0.06896471
153	0xbdf798b3	-0.12089672
154	0xbce37e21	-0.027770104
155	0x3cb7a108	0.022415653
156	0x3d46d2fa	0.048541047
157	0xbd67e3a3	-0.056613576
158	0xbe1952c5	-0.1497298
159	0x3e2069d3	0.15665369
160	0xbcac7012	-0.021049533
161	0x3df8c573	0.121470354
162	0xbd495876	-0.04915663
163	0x3c1c7291	0.009548799
164	0x3e13f841	0.1445017
165	0x3d9a08cb	0.075212084
166	0xbda01b9b	-0.07817765
167	0xba44b787	-0.00075041543
168	0x3cdee4e3	0.027208751
169	0x3e2c8e4a	0.16851154
170	0xbdd3df01	-0.10345269
171	0xbd131cf0	-0.03591627
172	0x3cb59a0a	0.022168178
173	0x3de21a00	0.11040115
174	0xbd18656d	-0.037206102
175	0xbd3f62e8	-0.046725184
176	0xbdf54188	-0.1197539
177	0xbdfa9710	-0.12235844
178	0x3d48857a	0.04895542
179	0x3dd3f1a7	0.10348826
180	0xbd7e4d72	-0.062085576
181	0xbd7f93f0	-0.062396944
182	0x3d881392	0.06644358
183	0x3de06189	0.10956103
184	0xbd413ba5	-0.047176022
185	0x3dc89ea6	0.09795885
186	0xbe4d1d05	-0.20030601
187	0x3d7da279	0.061922524
188	0xbdb8f399	-0.090308376
189	0x3dd56e06	0.10421376
190	0xbd50c946	-0.0509732
191	0x3dc65388	0.09683901
192	0x3d668f35	0.056288917
193	0xbe2fa122	-0.17151311
194	0xbc38dc0e	-0.011282934
195	0xbdcf7c76	-0.10131161
196	0xbe34270f	-0.17593025
197	0xbd387fa5	-0.045043606
198	0xbd43caf6	-0.04780098
199	0xbdbb9099	-0.09158439
200	0x3cbd86f6	0.023135643
201	0xbe120ee2	-0.1426349
202	0x3d4b4b02	0.04963208
203	0x3d9722f8	0.07379717
204	0x3cffaa50	0.031209141
205	0x3dc87f29	0.09789879
206	0xbd8e2eba	-0.06942506
207	0xbd058bb7	-0.032603946
208	0x3c96d1d1	0.018410595
209	0x3dc386b0	0.09547174
210	0xbe0e80b3	-0.13916282
211	0xbd2f1943	-0.0427487
212	0xbdc15558	-0.09440106
213	0x3dd6f272	0.104954615
214	0xbdf709a9	-0.120623894
215	0xbd906b6e	-0.070517406
216	0xbc7bb90f	-0.015363946
217	0xbdf6048a	-0.120125845
218	0xbd756d96	-0.059918962
219	0x3db2df26	0.087339684
220	0x3db11a06	0.08647542
221	0xbe219ab6	-0.15781674
222	0x3d7a01f3	0.061037015
223	0x3d738e1e	0.059461705
224	0xbd4d2a8f	-0.050089415
225	0x3d92e65a	0.07172842
226	0x3e010751	0.12600447
227	0x3d6c1e48	0.057646066
228	0x3e082bd8	0.13297975
229	0xbcb8dad1	-0.022565277
230	0x3d8fb395	0.070166744
231	0x3e704366	0.2346321
232	0x3dbac3c7	0.09119373
233	0x3cf68483	0.030092483
234	0xbc1d6107	-0.009605653
235	0x3e17756d	0.14790888
236	0x3d5a5008	0.05329898
237	0xbd4b0ff9	-0.04957578
238	0x3d2dcfc8	0.042434484
239	0xbd255089	-0.040360007
240	0xbd49a0c2	-0.049225576
241	0xbe388edd	-0.18023248
242	0xbd44ae3c	-0.048017725
243	0x3d56c759	0.052436206
244	0x3dc686ff	0.09693717
245	0x3e28f22d	0.16498633
246	0x3d079c21	0.03310788
247	0x3da6a9d8	0.08137864
248	0xbdbd368b	-0.09238919
249	0x3e3fa478	0.18715084
250	0x3e01e585	0.12685211
251	0xbd0bd9c4	-0.034143224
252	0x3d807534	0.06272355
253	0x3b6c2b85	0.0036036682
254	0xbd0c56d9	-0.034262512
255	0xbdc5ee48	-0.09664589

network_body._body_endoder.seq_layers.2.bias f4 [128]
0	0xbd02b459	-0.031910274
1	0x3d4e8637	0.050420966
2	0x3d88e69a	0.06684609
3	0x3cb478b1	0.022030206
4	0xbc9994bc	-0.01874768
5	0x3bee5613	0.0072734444
6	0x3d2f761f	0.04283726
7	0xbcbba81c	-0.02290731
8	0xbc0826ac	-0.008310001
9	0x3cb69f8d	0.022292877
10	0x3c954525	0.018221447
11	0xbcb603ca	-0.022218604
12	0x3cdaf642	0.026728753
13	0xbd473b53	-0.04864056
14	0x3c3fec3c	0.0117140375
15	0x3cb7a9e7	0.022419883
16	0x3d01b40a	0.03166584
17	0x3ced7e3d	0.02899086
18	0xbc022c5d	-0.007945147
19	0x3ccda050	0.025100857
20	0x3d7c6470	0.061619222
21	0x3d01854d	0.031621266
22	0x3c216489	0.00985063
23	0x3c347579	0.011014336
24	0xbc47ec7c	-0.012202378
25	0xbb72d3a2	-0.0037052413
26	0x3ce64183	0.02810741
27	0x3d0ef9a7	0.034906056
28	0x3bf572da	0.007490498
29	0x3b9fab25	0.004872697
30	0x3d056b9e	0.032573335
31	0x3ae8afdb	0.0017752604
32	0x3d0e30b8	0.03471443
33	0x3d15cdfe	0.036573403
34	0x3cb5d729	0.022197323
35	0x3d689643	0.056783926
36	0x3c456846	0.0120487865
37	0x3d1849f3	0.0371799
38	0x3b90b6d3	0.0044163256
39	0xbcbb3248	-0.022851124
40	0x3cf5de14	0.030013122
41	0x3d108578	0.035283536
42	0xbaa40387	-0.0012513258
43	0x3cc4c86a	0.024021346
44	0x3c838b9f	0.016057787
45	0xbcde2b35	-0.027120212
46	0xbcb7fb48	-0.022458687
47	0xbcd2b7f9	-0.02572249
48	0x3cc9ba82	0.024625067
49	0x3d2af001	0.04173279
50	0xbd083409	-0.03325275
51	0x3a8609c7	0.0010226303
52	0x3d2a5576	0.04158541
53	0x3d74311b	0.059617143
54	0x3cfeb700	0.03109312
55	0x3d851bc2	0.06499435
56	0x3d376290	0.04477173
57	0x3ce83974	0.028347708
58	0x3c9aa370	0.018876761
59	0x3d85489c	0.0650799
60	0x3d19eaa1	0.037577275
61	0x3c5892a6	0.013218557
62	0xbbe330cd	-0.0069333077
63	0xbcf7aa32	-0.030232523
64	0x3b241c40	0.0025041252
65	0xbcf22805	-0.029560098
66	0xbca452c3	-0.020058995
67	0x3d17d278	0.037065953
68	0x3b7a2343	0.003816799
69	0x3c0868d8	0.008325778
70	0x3d064187	0.032777335
71	0xbc3393a7	-0.010960496
72	0xbc8fac5f	-0.017538248
73	0x3d12cff7	0.035842862
74	0x3c61f939	0.0137923295
75	0x3c4e3b8f	0.012587442
76	0x3d0d63d5	0.034519035
77	0x3d283586	0.04106667
78	0xbcfad649	-0.030619757
79	0x3c80155b	0.015635183
80	0x3d5358b3	0.051598262
81	0x3ba8efb1	0.0051555266
82	0x3d11b3d9	0.035571907
83	0x3c8dd2f4	0.017312504
84	0x3cb8a20c	0.022538207
85	0xbc824aa1	-0.015904726
86	0xbd3abf6e	-0.045592718
87	0x3cacea20	0.021107733
88	0x3c8aa7e4	0.01692576
89	0xba768d0b	-0.00094051723
90	0x3bc72c81	0.0060783033
91	0xbd633c50	-0.05547744
92	0x3d04b6ca	0.032400884
93	0xbca74ab7	-0.020421369
94	0x3cbeef39	0.02330743
95	0x3c5e528b	0.013569484
96	0x3cc28062	0.023742858
97	0x3d0b805a	0.034057952
98	0x3d74161e	0.059591405
99	0x3ca55f07	0.020186914
100	0x3ce6a935	0.028156856
101	0x3cdeb98f	0.02718809
102	0x3c757ce0	0.014983386
103	0xbc8ff4c6	-0.017572772
104	0x3c8bf071	0.017082425
105	0x3b84d821	0.004054085
106	0x3bb930f9	0.00565159
107	0x3ca9dac3	0.020734197
108	0xbcf42836	-0.02980433
109	0x3c009733	0.007848549
110	0x3d6935a5	0.056935925
111	0x3cd35be6	0.025800657
112	0x3d35e8e6	0.044411562
113	0x3d031ef6	0.03201195
114	0x3d7445ae	0.059636764
115	0xbd392427	-0.045200493
116	0xbcded979	-0.027203308
117	0x3ca82acd	0.020528222
118	0x3d8e4ca6	0.06948213
119	0x3d60ee44	0.054914728
120	0x3d78eb92	0.060771532
121	0x3d1dcdf7	0.0385265
122	0xbd19af66	-0.03752079
123	0x3c1d99c7	0.009619183
124	0x3d29fa1a	0.04149828
125	0x3d7687e1	0.060188178
126	0x3d23a96d	0.0399565
127	0x3cede8b6	0.02904163

action_model._discrete_distribution.branches.0.weight f4 [5, 16]
0	0x3c149f43	0.009071174
1	0xbcb55e55	-0.022139708
2	0xbd0e48f6	-0.03473755
3	0xbc441f87	-0.011970407
4	0x3bb3d29b	0.0054877526
5	0xbb2d944d	-0.00264861
6	0xbd2badfb	-0.041913968
7	0x3cb592b4	0.02216468
8	0xba91d958	-0.0011127396
9	0xbd0496e6	-0.03237047
10	0x3b849774	0.004046375
11	0x3d54ae6b	0.05192415
12	0xbca8b9ab	-0.020596346
13	0x3d64655f	0.055760738
14	0x3c12dd0b	0.008963834
15	0x3b5d5f4a	0.003377872
16	0x3a690d95	0.00088902685
17	0xbce01ee6	-0.027358484
18	0xbd7d293d	-0.061806906
19	0x3df985c9	0.121837206
20	0xbc4ac2a8	-0.012375511
21	0x3bb7227e	0.0055888286
22	0x3d6bbaf9	0.057551358
23	0xbcf5d931	-0.030010791
24	0xbd4a64b0	-0.04941243
25	0xbda5299a	-0.080645755
26	0x3dc62634	0.096752554
27	0x3cbafb52	0.022824917
28	0x3d315d10	0.043301642
29	0xbbe5563d	-0.006998806
30	0x3d3de10d	0.046357203
31	0x3dac13b7	0.08402198
32	0x3c46eb1c	0.012141015
33	0xbd177893	-0.036980223
34	0x3d128b9f	0.035777684
35	0xbd8a6512	-0.06757559
36	0x3db269db	0.087115966
37	0xbc65a6d0	-0.014016822
38	0xbd3a928c	-0.045549914
39	0x3cc31b5f	0.023816762
40	0x3dad9880	0.08476353
41	0x3c5a8950	0.013338402
42	0xbdb4b4ed	-0.08823571
43	0xbc58f93c	-0.013243016
44	0xbd198283	-0.03747798
45	0x3d8a2563	0.06745412
46	0xbd86faa7	-0.06590777
47	0xbdc905a4	-0.09815529
48	0x3cdd594f	0.027020125
49	0x3d5e686b	0.0542988
50	0xb9f90121	-0.00047493822
51	0xbd8a0511	-0.067392476
52	0xbcecb2de	-0.028893884
53	0x38426983	4.635147e-05
54	0x3c1e0063	0.009643647
55	0x3d47db15	0.048792917
56	0xbcb943ab	-0.022615274
57	0xbcf63f7a	-0.030059565
58	0x3cca5679	0.024699437
59	0xbd6dd196	-0.058061205
60	0x3d3feabf	0.04685473
61	0x3dc9378a	0.09825046
62	0x3d0367f6	0.032081567
63	0xbb1a3c52	-0.002353449
64	0xbd9185d1	-0.071056016
65	0xbdadcdd9	-0.08486528
66	0xbd08c04d	-0.033386517
67	0x3d98523a	0.074375585
68	0xba682be0	-0.00088566355
69	0xbd1072e3	-0.035265815
70	0xbda70ec7	-0.081571154
71	0xbdbe5e23	-0.09295299
72	0x3d0dd588	0.034627467
73	0xbd37fa39	-0.044916365
74	0xbd0778ed	-0.03307431
75	0x3d0b5983	0.034020912
76	0xbd64e04f	-0.05587798
77	0xbd2feda7	-0.042951252
78	0xbd88da77	-0.06682294
79	0xbb1ed7ec	-0.0024237586

action_model._discrete_distribution.branches.0.bias f4 [5]
0	0xbc32f034	-0.010921527
1	0xbb218c57	-0.00246503
2	0x3c99a9e3	0.018757766
3	0x3ac85c05	0.0015286213
4	0xbbf23831	-0.0073919524

onnx::LSTM_98 f4 [1, 64, 128]
0	0x3dd4955e	0.10380052
1	0xbdc84e93	-0.09780612
2	0xbdc74023	-0.0972903
3	0xbc4dca57	-0.012560449
4	0x3df09722	0.11747576
5	0x3de3c8a8	0.111222565
6	0x3c8a767b	0.016902199
7	0xbdcdad0d	-0.100427724
8	0xbe66964c	-0.22518271
9	0x3e277c55	0.16356023
10	0xbe2ed512	-0.17073467
11	0xbd4e7efa	-0.050414063
12	0x3d1af063	0.037826907
13	0xbd41bfb1	-0.04730195
14	0x3e2067e5	0.15664633
15	0xbdac19f9	-0.084033914
16	0x3e05cb9b	0.1306595
17	0xbce4cb2d	-0.027928913
18	0x3d10b5fd	0.035329808
19	0xbd965267	-0.07339936
20	0x3dd845b8	0.10560173
21	0x3de04f0b	0.10952576
22	0x3d94f200	0.0727272
23	0x3dd71937	0.10502856
24	0x3d640475	0.055668313
25	0xbdfd7eea	-0.123777226
26	0x3e1e6744	0.1546908
27	0xbe10b728	-0.14132369
28	0xbdc26bc2	-0.094932094
29	0x3e2b194e	0.16708872
30	0x3d8cfc03	0.06884005
31	0x3ac534f0	0.0015045684
32	0x3e2acfaf	0.16680788
33	0x3d61ae12	0.055097647
34	0x3e041456	0.12898383
35	0x3bbeb5c8	0.00582001
36	0xbd971f54	-0.07379022
37	0xbe2d7451	-0.16938902
38	0x3e39707c	0.18109316
39	0x3dff5de4	0.1246908
40	0xbdedba51	-0.11607803
41	0x3e3c6d4b	0.18401067
42	0xbde2309c	-0.11044428
43	0x3e0888a3	0.13333373
44	0x3de9eac9	0.11421735
45	0xbd50af22	-0.05094827
46	0x3ce93c73	0.028471207
47	0xbe14e338	-0.14539802
48	0xbce3f5ff	-0.027827261
49	0xbe0134c4	-0.12617785
50	0xbd647801	-0.055778507
51	0xbe0c81ad	-0.13721342
52	0x3cf71d06	0.030165207
53	0xbe3352ef	-0.17512105
54	0x3e4cf5d7	0.20015655
55	0x3e38ca6a	0.18045965
56	0xbd2716e8	-0.04079333
57	0x3dff7ffa	0.124755815
58	0x3db201da	0.086917594
59	0xbceb4124	-0.028717585
60	0x3db4bd4a	0.088251665
61	0xbe299610	-0.1656115
62	0x3e4cced3	0.20000772
63	0xbe1aeae3	-0.15128665
64	0xbc19290d	-0.009348166
65	0xbd458a6a	-0.048227705
66	0x3de82d71	0.11336792
67	0x3ca61044	0.020271428
68	0x3da66f48	0.08126694
69	0x3e23c8f6	0.1599463
70	0x3e30980b	0.172455
71	0xbe6561ae	-0.22400543
72	0xbd158115	-0.036500055
73	0xbe247737	-0.16061102
74	0x3d75eecf	0.0600422
75	0x3e28f8f0	0.16501212
76	0xbdd454b7	-0.103677206
77	0xbd8c4cc2	-0.06850578
78	0x3e20aa5a	0.15689984
79	0x3e581272	0.21100786
80	0xbe25351a	-0.16133538
81	0x3e3784be	0.17921731
82	0x3d0abe99	0.033873174
83	0x3e3e108b	0.18560998
84	0x3e0db9cf	0.13840412
85	0x3d88ce34	0.06679955
86	0x3d6b69aa	0.057473816
87	0xbdb41c30	-0.08794439
88	0xbbe8b9ce	-0.007102228
89	0xbe3fef65	-0.18743666
90	0xbde4c773	-0.111708544
91	0x3c9285e4	0.01788611
92	0x3e608ad2	0.21927956
93	0x3da9cc31	0.082908995
94	0xbe3b4db4	-0.1829136
95	0x3c2c076e	0.010499818
96	0xbdf36891	-0.11885179
97	0xbd0aaa45	-0.033853788
98	0x3c8d8268	0.017274097
99	0x3e36aed9	0.17840137
100	0x3d31f924	0.04345049
101	0x3e40f237	0.18842398
102	0x3d7827e7	0.06058493
103	0xbb993f54	-0.0046767388
104	0x3e01ef11	0.12688853
105	0x3e04e22e	0.12976906
106	0x3e1cff4a	0.1533176
107	0x3e38b6b3	0.18038444
108	0xbe02f54d	-0.12788887
109	0x3dbbf927	0.091783814
110	0xbd2f0678	-0.04273078
111	0x3d6c7e47	0.057737615
112	0x3e3a241e	0.1817784
113	0x3cace47a	0.02110504
114	0x3d8db644	0.0691953
115	0xbd9a1910	-0.075243115
116	0xbcf6a971	-0.030110093
117	0xbd221cc4	-0.039578214
118	0xbe02cf57	-0.12774406
119	0x3e6e73a3	0.232863
120	0xbdfebdf3	-0.12438574
121	0x3e1a7a3f	0.15085696
122	0xbe063fde	-0.13110301
123	0xbdc9193a	-0.09819265
124	0xbe0f8688	-0.14016163
125	0x3cca696b	0.02470847
126	0x3e0aa2c8	0.13538659
127	0x3da36179	0.07977576
128	0x3dfee2cd	0.124456026
129	0x3d234806	0.03986361
130	0x3d615b78	0.055018872
131	0x3d94d17d	0.07266519
132	0xbdd8b812	-0.105819836
133	0xbe677175	-0.22601874
134	0xbe31a867	-0.17349397
135	0xbd4944e3	-0.04913796
136	0xbdac5f0c	-0.08416566
137	0xbc4c736b	-0.01247869
138	0x3e3075e5	0.17232473
139	0xbdfd166f	-0.123577945
140	0x3d9cbcec	0.076532215
141	0x3dc2fba5	0.09520654
142	0xbe4b397a	-0.19846144
143	0xbd7715d7	-0.060323562
144	0xbd40872f	-0.04700392
145	0xbe089731	-0.13338925
146	0xbd9a320c	-0.07529077
147	0x3e4ad74c	0.19808692
148	0x3bd383ce	0.0064549213
149	0x3dfb9adb	0.12285396
150	0x3dfb4924	0.1226981
151	0x3adcd778	0.0016848883
152	0xbe18641d	-0.1488194
153	0x3d52d016	0.051467977
154	0x3e3c6d08	0.18400967
155	0xbdfd3523	-0.12363651
156	0xbde169b4	-0.110064894
157	0x3e2e4c92	0.17021397
158	0x3d51feee	0.05126851
159	0xbd795d4b	-0.060879987
160	0xbe3d4bfb	-0.18486015
161	0x3dce8fe6	0.1008604
162	0xbe3c46fd	-0.18386455
163	0xbd480e25	-0.048841614
164	0xbcf3adc8	-0.029745951
165	0xbc73af87	-0.014873392
166	0x3d8be4f1	0.068307765
167	0xbd06e92e	-0.03293722
168	0xbd66a653	-0.056310963
169	0x3d55d276	0.052202664
170	0xbcb62266	-0.0222332
171	0xbe2cc92e	-0.16873619
172	0x3e36f14c	0.17865485
173	0xbe0eca78	-0.13944423
174	0xbdf07920	-0.11741853
175	0xbe043eb3	-0.12914543
176	0x3e1d9a16	0.1539081
177	0xbc47a97b	-0.012186403
178	0x3ca77a2e	0.020444002
179	0x3e33a40f	0.17543052
180	0x3dbdd7dd	0.09269688
181	0x3e487fae	0.19579956
182	0x3e62c53d	0.22145553
183	0x3e53f4f8	0.20698917
184	0x3de8787f	0.11351108
185	0xbd7ad1c0	-0.06123519
186	0x3e44fda1	0.19237377
187	0x3db27787	0.08714204
188	0xbdfe1855	-0.12406985
189	0x3e1c0b75	0.15238746
190	0xbe21e8c1	-0.15811445
191	0xbda483e3	-0.08032968
192	0xbe081c0e	-0.13291952
193	0x3e295063	0.16534571
194	0x3b52a77a	0.003214328
195	0xbe1cb8c1	-0.15304853
196	0x3e62ff14	0.22167617
197	0x3dbeee23	0.09322765
198	0xbd8ac053	-0.06774964
199	0xbe23d971	-0.16000916
200	0xbe0b4374	-0.1359995
201	0x3c8eb868	0.017421916
202	0xbd77cb7c	-0.060496792
203	0x3e41cf98	0.18926847
204	0x3db9e081	0.09076024
205	0x3de8d3d7	0.1136853
206	0xbe159f5b	-0.1461157
207	0xbd60a591	-0.054845396
208	0xbcf77c83	-0.030210739
209	0xbdc930e1	-0.09823776
210	0x3daebeec	0.08532509
211	0x3e30812d	0.17236777
212	0xbdde5bcc	-0.108573526
213	0x3d14d41d	0.0363351
214	0xbd56da25	-0.052454133
215	0x3e2ba035	0.16760333
216	0xbd782d18	-0.06058988
217	0xbe1babdc	-0.15202278
218	0x3d09884f	0.03357726
219	0xbc86f77b	-0.01647543
220	0xbcb815ca	-0.022471327
221	0x3ddb032f	0.106939666
222	0x3dc434fe	0.0958042
223	0xbd1e0f30	-0.038588703
224	0xbe2355ae	-0.15950653
225	0xbdeadf3a	-0.11468358
226	0x3dd1ce70	0.10244453
227	0x3e57b413	0.21064787
228	0x3def2ab4	0.11678067
229	0xbe22bddd	-0.1589274
230	0xbd9cd104	-0.07657054
231	0x3c73ca5d	0.01487979
232	0xbca409b0	-0.02002415
233	0x3d66ef42	0.056380518
234	0xbdfe558d	-0.12418661
235	0x3dbc22a6	0.09186296
236	0x3d97a853	0.07405152
237	0xbe376439	-0.17909326
238	0xbe3ee526	-0.186421
239	0x3dbdb89b	0.09263726
240	0x3d389a9d	0.045069326
241	0x3dfbeae1	0.12300659
242	0x3e437c31	0.19090344
243	0xbdb72364	-0.08942297
244	0xbe3b4bef	-0.18290685
245	0xbe3fbcd1	-0.18724371
246	0xbd96f7c7	-0.073714785
247	0xbdfda2ad	-0.123845436
248	0x3e345495	0.1761039
249	0xbe3d7155	-0.18500264
250	0x3e4b17fb	0.19833367
251	0x3de3da3e	0.11125611
252	0x3e3c27c3	0.18374543
253	0x3df61dbb	0.120173894
254	0x3d802469	0.06256945
255	0x3e54af5f	0.20770024

onnx::LSTM_99 f4 [1, 64, 16]
0	0xbe617802	-0.22018436
1	0x3e889618	0.26677012
2	0xbe8cb621	-0.27482703
3	0x3e9b4bea	0.30331355
4	0x3dab756f	0.08372008
5	0xbecf3337	-0.4046876
6	0xbec75e71	-0.3893924
7	0x3ed099a7	0.40742227
8	0x3e709f28	0.23498213
9	0xbeb74615	-0.35795656
10	0xbd312be3	-0.043254744
11	0x3b91c9fe	0.004449128
12	0x3e147d93	0.14501028
13	0x3eb7669c	0.35820472
14	0x3ecbc65b	0.3979977
15	0xbe5e9a41	-0.2173853
16	0xbeada137	-0.3391206
17	0xbe8b015f	-0.27149484
18	0x3e524622	0.20534566
19	0xbcd6011f	-0.026123581
20	0xbe7bb37a	-0.24580184
21	0x3e953f97	0.29150078
22	0x3c266be3	0.010157558
23	0xbe385eb0	-0.1800487
24	0x3ebcff3b	0.36913475
25	0xbd4a21d5	-0.04934867
26	0xbe21dacb	-0.15806119
27	0x3ddf7c7e	0.10912417
28	0x3e9e69f7	0.3094022
29	0xbe3681f8	-0.17823017
30	0xbd4f374c	-0.050589845
31	0xbd2c7727	-0.04210582
32	0x3eb6f784	0.35735714
33	0xbdb52bd2	-0.08846249
34	0xbe8b93c8	-0.27261186
35	0x3e546f2d	0.20745535
36	0xbe9946c8	-0.29936814
37	0x3eae9463	0.34097585
38	0xbcc0b08a	-0.02352168
39	0x3e2edba7	0.17075978
40	0x3e6de656	0.23232397
41	0xbe90b7b2	-0.28265148
42	0x3e1c806b	0.15283363
43	0xbebe841c	-0.37210166
44	0x3e92aaea	0.28646022
45	0x3ebad82a	0.36493045
46	0x3deda1f4	0.11603156
47	0xbe260833	-0.16214065
48	0x3ea63a53	0.32466373
49	0xbd1ae193	-0.03781278
50	0xbdc86141	-0.09784175
51	0x3d06c0bb	0.032898646
52	0xbc537609	-0.01290656
53	0x3ccf7c6e	0.025327887
54	0x3e62e083	0.22155957
55	0xbebf7306	-0.37392443
56	0xbeb01238	-0.343889
57	0x3edd7d55	0.43259683
58	0x3ed43bc5	0.4145185
59	0x3ea7c712	0.32769066
60	0xbeb6f119	-0.35730818
61	0xbd31b628	-0.04338661
62	0x3eb78961	0.35847
63	0xbec5d0d9	-0.386359
64	0xbdb20940	-0.086931705
65	0x3ec5cb52	0.38631684
66	0x3e81a4f4	0.25321162
67	0x3ec29a64	0.38008416
68	0x3ed81b73	0.42208442
69	0x3e98f021	0.29870704
70	0xbdfef58e	-0.124491796
71	0x3ed28e8d	0.41124383
72	0xbe412151	-0.18860365
73	0xbe0499f0	-0.12949347
74	0x3e7bb8e1	0.24582244
75	0xbe584cf2	-0.21123102
76	0x3ebdbf0b	0.37059817
77	0x3db5394f	0.08848821
78	0xbdec8060	-0.11547923
79	0x3ec5a30b	0.38600954
80	0xbe01c547	-0.12672912
81	0xbea16efb	-0.31529984
82	0xbec64d09	-0.38730648
83	0xbedd181e	-0.43182462
84	0x3dcbc6c5	0.09950022
85	0x3e874c00	0.2642517
86	0xbe65e37d	-0.22450061
87	0xbe673db2	-0.22582129
88	0x3d37ae1e	0.044843785
89	0x3e41eb22	0.18937352
90	0xbebffb0d	-0.37496224
91	0x3e9c155c	0.30485046
92	0xbeb36f4f	-0.3504586
93	0xbdd7cd03	-0.1053715
94	0x3e1e499a	0.15457764
95	0xbed76527	-0.4206936
96	0xbea42c2f	-0.3206496
97	0x3e926057	0.28589126
98	0xbdfeba8e	-0.12437926
99	0xbe925e13	-0.28587398
100	0xbd86e6fe	-0.06587027
101	0x3e4cf7b7	0.2001637
102	0x3d3a74ba	0.045521475
103	0x3e9229dc	0.2854756
104	0x3dbe82b3	0.09302273
105	0x3ea0e728	0.31426358
106	0x3e410cd8	0.18852556
107	0xbe64fe21	-0.22362567
108	0x3d4a3d86	0.04937508
109	0x3e6fcac3	0.23417191
110	0x3ec14543	0.37748155
111	0x3ec45b32	0.38350827
112	0x3eac1d47	0.33616087
113	0x3ea45318	0.32094646
114	0x3ddd4ddf	0.10805868
115	0x3e43445f	0.1906905
116	0xbd590a69	-0.052988444
117	0xbec48d28	-0.38388944
118	0x3e2be0c7	0.16784965
119	0xbe6e1e1a	-0.2325367
120	0xbbcb9de3	-0.00621389
121	0xbdd54511	-0.10413564
122	0xbe806deb	-0.2508386
123	0x3ed04e62	0.406848
124	0x3e0d84eb	0.13820235
125	0x3c6cdd09	0.014456996
126	0xbeaa7127	-0.33289453
127	0xbe86fa09	-0.26362637
128	0x3ec996e8	0.39372945
129	0xbd52260f	-0.051305827
130	0xbe9d64eb	-0.30741057
131	0xbd790a5a	-0.060800888
132	0x3e0b9b69	0.13633503
133	0x3e9132ec	0.28359163
134	0x3ecee1a3	0.40406522
135	0x3d5201ea	0.051271357
136	0x3e9f6626	0.3113262
137	0xbeb2ad2f	-0.34897754
138	0x3e67d3d2	0.22639397
139	0x3ead62d8	0.33864474
140	0xbe946b98	-0.28988338
141	0x3d85d093	0.06533923
142	0x3d7179a3	0.058953892
143	0xbe83c3ae	-0.2573523
144	0x3eab4727	0.33452722
145	0x3e53a447	0.20668136
146	0x3d1d8103	0.038453113
147	0xbe4dcd90	-0.20097947
148	0xbed61f67	-0.41820833
149	0xbeb492eb	-0.3526834
150	0xbe99f74e	-0.3007149
151	0x3de4c8e4	0.11171129
152	0x3e899eaa	0.26878864
153	0x3e1fe5e3	0.15615039
154	0xbec603d4	-0.38674796
155	0xbd5e8a69	-0.054331217
156	0x3e64389c	0.2228722
157	0xbce34908	-0.027744785
158	0xbe4a44b7	-0.19752775
159	0x3e612e5f	0.21990345
160	0xbe204239	-0.15650262
161	0x3ea8548a	0.32876998
162	0xbd9db2a1	-0.077000864
163	0x3ec2f82e	0.3807997
164	0x3e29d45b	0.16584913
165	0xbeb5409d	-0.3540086
166	0xbed9632e	-0.4245848
167	0xbd7186b9	-0.058966372
168	0x3e08d07e	0.13360783
169	0x3ec9aa73	0.39387855
170	0xbe017dad	-0.12645598
171	0xbda5b75b	-0.08091613
172	0xbe8636f1	-0.26213792
173	0x3dc03565	0.09385184
174	0xbe1e0d2c	-0.15434712
175	0x3dea9aa3	0.11455276
176	0x3e64d24a	0.22345844
177	0x3e883524	0.26603043
178	0xbe07bac2	-0.13254836
179	0xbebfd336	-0.3746583
180	0xbebd7651	-0.3700433
181	0xbe045d08	-0.12926114
182	0xbe8312aa	-0.25600177
183	0x3e84d434	0.25943148
184	0xbe44dba5	-0.19224413
185	0xbeb6560a	-0.35612518
186	0x3e8b2a5b	0.27180752
187	0x3dfbba80	0.122914314
188	0x3ed599b3	0.41718826
189	0xbeb9b65e	-0.36271948
190	0xbe595c6c	-0.21226662
191	0x3d2590cf	0.040421303
192	0x3d54884a	0.051887788
193	0x3c18fa57	0.009337029
194	0x3e9e6436	0.3093583
195	0xbe07aae2	-0.1324878
196	0x3e64dd7c	0.22350115
197	0xbecf44b7	-0.40482113
198	0x3d96900a	0.07351692
199	0xbeaa4170	-0.3325305
200	0xbeaef689	-0.34172466
201	0xbeba0091	-0.36328557
202	0x3e676ae7	0.22599374
203	0xbdd1b94f	-0.10240423
204	0xbeab1bd0	-0.33419657
205	0xbec7d956	-0.39033002
206	0xbd8d26ea	-0.06892188
207	0x3dbd84a8	0.09253818
208	0xbeece9e9	-0.4627221
209	0x3ed02380	0.40652084
210	0xbe1ac083	-0.151125
211	0x3ea70737	0.32622692
212	0x3d61ac19	0.055095766
213	0xbe98cc9f	-0.29843614
214	0xbd6cc3ac	-0.057803795
215	0x3e13f40d	0.14448567
216	0x3c376799	0.011194133
217	0xbe2074d3	-0.15669565
218	0xbe3e84e9	-0.18605389
219	0xbe42f575	-0.19038947
220	0xbe024f53	-0.12725572
221	0xbd8d9e1f	-0.06914925
222	0x3e9846b8	0.29741454
223	0x3e3b2cae	0.18278763
224	0xbe70472f	-0.23464654
225	0xbeb1a399	-0.34695128
226	0x3e0ff609	0.14058699
227	0x3e32a041	0.17443945
228	0xbe9eba4e	-0.31001514
229	0xbdcc5644	-0.09977391
230	0x3d1c6390	0.038180888
231	0x3e37612e	0.17908165
232	0xbe429f90	-0.19006181
233	0x3d05a289	0.03262571
234	0xbe089771	-0.1333902
235	0x3e1fffe9	0.15624966
236	0xbec1dbe9	-0.3786309
237	0x3e332834	0.17495805
238	0x3d9222c8	0.0713554
239	0x3e62b0d8	0.22137773
240	0x3d256103	0.04037572
241	0x3d317a4c	0.043329522
242	0xbe68c631	-0.22731854
243	0xbe959c2a	-0.29220706
244	0xbe259775	-0.16171058
245	0xbe277f3b	-0.16357128
246	0x3e646c59	0.22306956
247	0xbe397030	-0.18109202
248	0xbea6bc25	-0.32565418
249	0xbdb5122b	-0.08841356
250	0xbdcda246	-0.10040717
251	0x3da155e3	0.0787771
252	0xbe321b84	-0.17393309
253	0xbd222375	-0.039584596
254	0xbe598a82	-0.21244243
255	0xbeddcc4f	-0.43319938

onnx::LSTM_100 f4 [1, 128]
0	0x3d0dc616	0.034612738
1	0x3d142cd0	0.03617555
2	0x3d533e7f	0.051573273
3	0x3d6f4b02	0.058421142
4	0xbc108e66	-0.008823013
5	0xbaa26c2f	-0.001239186
6	0x3d2839df	0.041070815
7	0x3d349ea7	0.044096615
8	0x3d66be06	0.056333564
9	0x3cd5a9fa	0.026082028
10	0x3d8be7e9	0.06831343
11	0x3d141ebe	0.03616213
12	0x3cf5e2fc	0.030015461
13	0x3d8c37fd	0.068466164
14	0x3d5e018f	0.054200705
15	0x3d9a734b	0.07541522
16	0x3d29a7d4	0.04141982
17	0x3d8156f1	0.06315411
18	0x3d26883d	0.04065727
19	0x3d941ef7	0.072324686
20	0x3c76ede4	0.015071366
21	0xbbbeefce	-0.005826927
22	0x3d429bb4	0.04751177
23	0x3d7ca040	0.061676264
24	0x3d59e47b	0.05319641
25	0x3cffcdbe	0.031226035
26	0x3da3e8af	0.08003365
27	0x3c0e3273	0.00867902
28	0x3d325e93	0.043547224
29	0x3dab772f	0.08372342
30	0x3d931ce2	0.07183243
31	0x3da2abef	0.0794295
32	0x3f814eb4	1.0102143
33	0x3f81832f	1.0118159
34	0x3f8398a0	1.0280952
35	0x3f85257c	1.0402064
36	0x3f7f0f68	0.99632883
37	0x3f8012af	1.0005702
38	0x3f82d410	1.0220966
39	0x3f8096a2	1.004597
40	0x3f836054	1.0263772
41	0x3f821008	1.0161142
42	0x3f8724a2	1.0558054
43	0x3f830ff7	1.0239247
44	0x3f828e7c	1.0199733
45	0x3f87583f	1.0573806
46	0x3f8115df	1.00848
47	0x3f87249a	1.0558045
48	0x3c2b4349	0.010453054
49	0xbcb65f81	-0.022262337
50	0x3c26dbe1	0.010184259
51	0x3bc790bb	0.0060902513
52	0xbb92f24b	-0.00448445
53	0xbcd08ca1	-0.025457682
54	0x3bf4f6aa	0.0074756937
55	0xba6f6d13	-0.000913338
56	0xbb945da6	-0.0045277653
57	0x3d00c1be	0.031434767
58	0x3b8263b7	0.003979172
59	0xbc3d4c47	-0.0115538305
60	0x3cb560ad	0.022140825
61	0xb872208f	-5.772762e-05
62	0xbca1a386	-0.019731294
63	0xbc42656c	-0.011865001
64	0x3d0dc616	0.034612738
65	0x3d142cd0	0.03617555
66	0x3d533e7f	0.051573273
67	0x3d6f4b02	0.058421142
68	0xbc108e66	-0.008823013
69	0xbaa26c2f	-0.001239186
70	0x3d2839df	0.041070815
71	0x3d349ea7	0.044096615
72	0x3d66be06	0.056333564
73	0x3cd5a9fa	0.026082028
74	0x3d8be7e9	0.06831343
75	0x3d141ebe	0.03616213
76	0x3cf5e2fc	0.030015461
77	0x3d8c37fd	0.068466164
78	0x3d5e018f	0.054200705
79	0x3d9a734b	0.07541522
80	0x3d29a7d4	0.04141982
81	0x3d8156f1	0.06315411
82	0x3d26883d	0.04065727
83	0x3d941ef7	0.072324686
84	0x3c76ede4	0.015071366
85	0xbbbeefce	-0.005826927
86	0x3d429bb4	0.04751177
87	0x3d7ca040	0.061676264
88	0x3d59e47b	0.05319641
89	0x3cffcdbe	0.031226035
90	0x3da3e8af	0.08003365
91	0x3c0e3273	0.00867902
92	0x3d325e93	0.043547224
93	0x3dab772f	0.08372342
94	0x3d931ce2	0.07183243
95	0x3da2abef	0.0794295
96	0x3f814eb4	1.0102143
97	0x3f81832f	1.0118159
98	0x3f8398a0	1.0280952
99	0x3f85257c	1.0402064
100	0x3f7f0f68	0.99632883
101	0x3f8012af	1.0005702
102	0x3f82d410	1.0220966
103	0x3f8096a2	1.004597
104	0x3f836054	1.0263772
105	0x3f821008	1.0161142
106	0x3f8724a2	1.0558054
107	0x3f830ff7	1.0239247
108	0x3f828e7c	1.0199733
109	0x3f87583f	1.0573806
110	0x3f8115df	1.00848
111	0x3f87249a	1.0558045
112	0x3c2b4349	0.010453054
113	0xbcb65f81	-0.022262337
114	0x3c26dbe1	0.010184259
115	0x3bc790bb	0.0060902513
116	0xbb92f24b	-0.00448445
117	0xbcd08ca1	-0.025457682
118	0x3bf4f6aa	0.0074756937
119	0xba6f6d13	-0.000913338
120	0xbb945da6	-0.0045277653
121	0x3d00c1be	0.031434767
122	0x3b8263b7	0.003979172
123	0xbc3d4c47	-0.0115538305
124	0x3cb560ad	0.022140825
125	0xb872208f	-5.772762e-05
126	0xbca1a386	-0.019731294
127	0xbc42656c	-0.011865001
