Scenes/ImprovedGridWorld2D/results/ppo-memory-8-curriculum/DroneGrid2D/DroneGrid2D-199899.onnx (onnx, 114477 bytes, 9 tensors)

network_body._body_endoder.seq_layers.0.weight f4 [128, 6]
000000 f3 72 e1 3e 5f 4b cb be 99 f8 c7 3d 6b f7 e6 3e
       0.44033012 -0.3970594 0.09764213 0.4511064
000010 2b 0e 12 bf ab 37 e2 be ee d2 0f 3f f6 43 7c bd
       -0.5705287 -0.44183096 0.5618123 -0.06158825
000020 52 03 1c 3d 8a 25 f8 3a a0 c7 83 3e e2 c4 0c be
       0.038089104 0.0018932086 0.2573824 -0.1374698
000030 0e 8a 31 bd 99 dc bd 3e fe d6 e5 be e1 f8 30 bb
       -0.04334455 0.37082365 -0.4489059 -0.0027003812
000040 47 ab fd 3e 1e 1d 8d be b3 d0 a8 3d 1f 17 3b 3d
       0.49544737 -0.27561277 0.08242931 0.045676347
000050 6b 0a 39 3e e7 a5 8c bf 3b 19 bd 3e 92 01 49 3f
       0.1807038 -1.0988129 0.36933312 0.7851802
000060 24 21 39 bf fd 0f 2c 3f d0 a0 31 3f 26 9a 74 be
       -0.72316194 0.67211896 0.69386005 -0.23886928
000070 fa a1 c3 bd ab d7 68 be 2e dc 01 3f f0 c9 15 be
       -0.09552379 -0.22738521 0.5072659 -0.14627814
000080 78 99 90 be f6 e1 b1 3d 37 30 62 bf 6d d5 61 be
       -0.28242087 0.08685677 -0.8835482 -0.22054072
000090 59 63 1f 3e 59 77 8a 3e 7d 8b b5 3e 5c 71 e0 3e
       0.15565242 0.2704418 0.35457984 0.43836486
0000a0 ee 19 c2 3e fd 1c 8a bf 49 78 d3 3d 41 cc dd 3e
       0.37910408 -1.0790097 0.10325677 0.43319896
0000b0 e5 73 35 3f 18 52 42 3f ba 96 ed be c8 70 24 3f
       0.70879966 0.75906515 -0.46404058 0.6423459
0000c0 6e 55 99 3e a8 63 e3 3e ef e8 23 3f 62 82 f9 be
       0.2994799 0.4441197 0.64027303 -0.48732287
0000d0 91 9e 05 bf 5e d4 e9 3d a4 fe fc 3e 1e 0c 40 bf
       -0.5219508 0.11417459 0.49413025 -0.7501849
0000e0 0b b9 3e 3f 7b d2 64 3f 26 3c 3d bf 95 da b9 be
       0.74501103 0.8938367 -0.73919904 -0.36299577
0000f0 b5 9d 1e 3d 49 97 92 bd 88 06 97 3e 52 5d 12 bd
       0.03872462 -0.071577616 0.2949717 -0.03573353
000100 c8 1a 3d 3e 05 ae 16 bf 25 b4 32 3c 6b 88 ba be
       0.18467247 -0.5885928 0.010907208 -0.36432204
000110 28 34 b0 3c 94 c4 1d be 7c 8f 34 3f fd 3e a2 3e
       0.021509245 -0.1540702 0.7053144 0.3168868
000120 fb 09 89 3d 26 54 04 bf ac dc af 3e 6b 27 42 3f
       0.06691357 -0.516909 0.34348047 0.758414
000130 81 f9 89 3e 7e 31 ca bb c9 d3 60 be 95 46 1b 3f
       0.2694817 -0.0061704507 -0.2195579 0.60654575
000140 fc 47 02 3e 09 dc 74 3e 82 17 86 be be b3 d7 3e
       0.12722772 0.23912062 -0.2618981 0.4212932
000150 00 32 11 3f 07 3a 36 bf 0c dc 1f 3f 0a 5f 33 bd
       0.5671692 -0.7118229 0.6244514 -0.04379181
000160 4a e6 81 be 9b 73 15 bf 81 99 20 be ba af 8d 3e
       -0.2537101 -0.58379525 -0.15683557 0.2767313
000170 cf ff 9b 3e 90 b2 0f bd 50 11 70 3f 32 82 d6 be
       0.30468604 -0.0350824 0.93776417 -0.41896206
000180 89 de a3 3e 16 cb bc 3d 28 ce f4 bc d9 31 fb 3e
       0.32005718 0.09218423 -0.02988346 0.49061468
000190 e3 10 d3 3e f5 bb c7 3e bc 75 02 3d 29 b7 fe 3d
       0.4122382 0.39010587 0.03185056 0.12437279
0001a0 a3 07 7b 3f 5e 1b 22 3f cd ad 81 bd a7 55 04 3f
       0.9805853 0.6332301 -0.06331978 0.51693195
0001b0 15 66 8f 3e da 98 b4 bd 52 5d 3b 3e 9c 4e b2 3e
       0.2800757 -0.088182166 0.18297318 0.348256
0001c0 29 6c 29 3f 8e fd 83 3f 70 7e e0 be ff 7e ac be
       0.66180664 1.0311754 -0.43846464 -0.3369064
0001d0 86 da aa be 63 2d 25 3f d1 2e 55 be 99 a3 c3 be
       -0.33369845 0.6452238 -0.2081864 -0.38210753
0001e0 fc fa e1 3e 84 ed 59 3d 0b ac 2e 3f 95 98 97 be
       0.44136798 0.05320503 0.68231267 -0.29608598
0001f0 e5 af 1c 3f 7d 63 8c 3d 19 b9 6a 3d 82 06 31 3f
       0.61205894 0.068549134 0.05730543 0.69150555
000200 fa eb 1c be 57 be 03 bf f1 3b 9c 3e 89 12 a3 bd
       -0.15324393 -0.5146231 0.30514482 -0.0796252
000210 1a 77 72 3f 00 72 4e be a2 8c a5 3e 13 c2 5a 3e
       0.94712985 -0.20160675 0.32333857 0.21363096
000220 c3 f8 02 3e 1f 22 36 bd fa 9d 39 bc 86 64 60 bd
       0.12790208 -0.044466134 -0.011329168 -0.054783367
000230 5c e8 9e be ce ab 5f be 24 9c 44 be 08 64 f3 be
       -0.3103665 -0.21842882 -0.19200188 -0.47537255
000240 cd 34 74 3e b5 ae c6 be 74 e6 82 be 40 49 a0 be
       0.23848267 -0.38805166 -0.25566447 -0.31305885
000250 8e c4 c6 be 79 1c 32 3e 24 9a 22 3f c9 1f c5 3e
       -0.38821834 0.17393674 0.6351645 0.38500813
000260 5a 49 1f 3f f5 96 08 bf 22 7d 32 3f 54 18 24 3f
       0.622213 -0.5335534 0.6972219 0.6409962
000270 15 65 bf be a1 3d 89 be fd ff cc 3d d5 03 a4 be
       -0.37381807 -0.26804832 0.100097634 -0.32034174
000280 d1 dc dc be 45 a5 7e be fc fd 8d be c9 37 09 3f
       -0.4313722 -0.24867733 -0.27732837 0.53600746
000290 c5 fe 20 bf 5e 76 61 bd 10 7c 7f bf a5 41 5e 3e
       -0.6288875 -0.055044524 -0.9979868 0.21704729
0002a0 fa 22 b9 3c 17 6b 12 bf 99 cb 93 be f4 25 14 3f
       0.022599686 -0.57194656 -0.2886627 0.5787041
0002b0 50 6e 63 be 5f 34 26 3f b4 08 4a bf 15 b4 db 3d
       -0.2221005 0.6492366 -0.7891953 0.10727707
0002c0 02 3a 4a bf c0 e9 80 3d 5c e7 18 3f 29 0b 40 be
       -0.7899476 0.06294584 0.59728026 -0.18754257
0002d0 50 86 b3 bd b3 f6 2d bf b1 63 ad 3d 64 87 b5 be
       -0.087658525 -0.6795456 0.0846628 -0.35454857
0002e0 9f 5c 5d be dc 4b 85 bd 04 2d 37 be f2 82 71 bc
       -0.21617363 -0.0650861 -0.17888266 -0.014740692
0002f0 bd 5a ce 3e 5e 52 6a 3e be ab 05 3f 7f 5b 0b 3f
       0.40303603 0.22882983 0.5221518 0.54436487
000300 51 3e 02 3f 74 4d b3 be 5e f5 73 bf 21 2f 67 be
       0.5087634 -0.3502003 -0.95296276 -0.22576572
000310 4c e6 a8 be a5 b3 46 bd 95 3b 91 3d 99 24 33 be
       -0.32988203 -0.048511166 0.070914425 -0.1749443
000320 4d fc 27 3f f9 81 30 3d d9 aa c1 bc c3 44 88 3e
       0.65619355 0.0430927 -0.023641037 0.2661496
000330 45 d2 67 3e b6 40 2e 3e 43 79 a0 3e d9 f2 06 3f
       0.22638805 0.17016873 0.31342515 0.52714306
000340 c2 d4 49 bf b3 a5 0d bf 21 b7 0c be 45 e9 b7 be
       -0.7884027 -0.5533096 -0.13741733 -0.35920158
000350 43 93 69 be e8 15 3e be dc 31 83 be 29 27 77 bf
       -0.22810082 -0.18563044 -0.25623977 -0.9654413
000360 84 5f ad bc 9b 33 5e bf e5 8b cf be e8 c6 26 3f
       -0.02116371 -0.86797494 -0.4053642 0.65147257
000370 f0 7c e9 be 59 c7 38 3d 88 8f aa be ed 30 f4 be
       -0.45603132 0.045111988 -0.3331263 -0.47693577
000380 6b af 76 bf 0e a2 df 3d 5a 9a f5 be cf 1f 14 be
       -0.96361417 0.10919581 -0.47969323 -0.14465259
000390 0e ab f7 3e a5 04 cc 3e 48 12 95 3e 88 ff aa be
       0.48372692 0.39847293 0.2911551 -0.3339808
0003a0 68 15 8e 3f f9 3a 9e bf 93 14 95 3e 92 71 55 3f
       1.1100283 -1.2361747 0.2911726 0.8337642
0003b0 79 20 86 be 49 94 3f be e8 7c 4d be e7 17 36 3f
       -0.2619665 -0.1870891 -0.20067179 0.7113022
0003c0 29 7f ea 3e 6f aa c8 be e2 74 22 3e 6c 44 b0 3e
       0.4580014 -0.3919253 0.158649 0.34427202
0003d0 f3 ce 8a be d1 8d 76 bf dc 4d 7f 3c 38 f5 27 3c
       -0.27111015 -0.96310145 0.015582528 0.010251336
0003e0 d5 5f e2 3e 44 11 24 3f ff 58 1c 3f 6b dd 6d bd
       0.4421374 0.64088845 0.610733 -0.05807249
0003f0 8a 1c 10 be ac ac 06 be 2a aa c4 bd 87 a0 4a be
       -0.14073387 -0.13151807 -0.09602769 -0.19787799

network_body._body_endoder.seq_layers.0.bias f4 [128]
000000 31 ae c3 3d 15 af 1d be f4 27 c0 3d f6 31 36 3d
       0.09554709 -0.1539882 0.093826205 0.04448124
000010 ee 9d 52 bd 49 16 bd 3d 1e 96 bd 3c d9 0f 34 3d
       -0.051420145 0.09232766 0.02314287 0.043960426
000020 6f dc 0a 3e 35 e4 2d 3e 16 02 fa 3c 3f 11 16 3d
       0.13560651 0.16981585 0.030518573 0.03663754
000030 f9 34 05 3e 87 14 b8 3d 2e 47 d2 3d 9f 51 18 3e
       0.13008489 0.0898829 0.10267483 0.14874886
000040 5f 33 07 3e 3c 0e 0c 3e 0b c0 95 3d b1 39 b8 bd
       0.1320319 0.13677305 0.0731202 -0.08995379
000050 4b 8d ce 3d 36 41 f6 bd 3f 41 07 3e 95 69 19 3e
       0.10085543 -0.12024157 0.13208483 0.14981683
000060 75 60 fb bd c1 60 b6 3d dd 4f f5 bd bd 2b 8c 3d
       -0.12274257 0.08905173 -0.11978123 0.0684428
000070 62 c1 fb 3d 7e b2 be 3d 53 11 11 be 40 d6 8c bd
       0.12292744 0.093113884 -0.14166765 -0.068768024
000080 4c c4 df bd 3e 9e e8 3d 7b 89 1a 3e d2 f0 b7 3d
       -0.109261125 0.11358307 0.15091507 0.0898148
000090 9c 1f f3 3d bd 70 16 be 61 dd 08 3e ee f0 e4 bc
       0.118712634 -0.14691444 0.133657 -0.027946915
0000a0 9d db c0 3d 9d 11 b3 3d 9a 16 82 bd a3 d7 cc bd
       0.09416888 0.08743594 -0.06351967 -0.10002067
0000b0 fd fb e7 3c d5 1b 62 3c 14 9f 21 3e c9 f1 b3 bc
       0.0283184 0.013800581 0.1578334 -0.021965878
0000c0 04 cc b3 bd cc 91 fd 3d 03 04 81 3c 73 2f 0e 3e
       -0.08779147 0.12381324 0.015748983 0.13885288
0000d0 10 20 1a bb b3 80 b1 bd 45 43 5f 3d 69 a2 e8 3d
       -0.0023517646 -0.086671256 0.054507513 0.11359102
0000e0 ce d8 45 3d 41 3b 44 3d 12 5c 90 bd ad ea b4 3d
       0.048302464 0.04790807 -0.07048811 0.08833823
0000f0 6e 11 92 3d d6 69 e3 3c 61 88 1a 3e 4d 15 78 3d
       0.07132231 0.027760427 0.15091087 0.06056719
000100 e0 b7 22 3d 90 38 cf 3c 92 c1 d0 3c 79 d9 c5 3d
       0.039726138 0.025295526 0.025482927 0.0966062
000110 62 5b 8e 3d 58 92 58 bd 2f 5c d3 bd 42 35 19 be
       0.06951024 -0.05287394 -0.10320317 -0.14961722
000120 fb ca 20 3e ed 9c 22 3e f7 8e ad 3d df 06 36 3d
       0.15702431 0.15880175 0.08474534 0.044440147
000130 44 1d d6 3d 2e e2 0a 3e 9f 59 15 3e 82 18 5d bd
       0.10454801 0.13562843 0.14584969 -0.05397845
000140 73 e7 0b 3e 9e 1b d3 3d b5 79 30 3d fb d1 47 bc
       0.1366251 0.10308002 0.04308482 -0.012196059
000150 41 b1 ba 3d 51 5c 96 3c 00 26 07 3d ff 6a f5 3c
       0.0911584 0.018354567 0.032995224 0.029958246
000160 64 74 53 bd ef b8 25 be 72 87 f9 bd 0d 1a fd 3d
       -0.05162467 -0.16183828 -0.12184037 0.123584844
000170 b4 e5 05 bd f7 c1 e9 3d 80 40 96 bc ec 50 01 3e
       -0.032689765 0.11413949 -0.018341303 0.12628525
000180 e6 bf 05 be 2c 53 3b bd f0 cf ad 3d 65 61 0e 3e
       -0.13061485 -0.045733616 0.084869266 0.1390434
000190 45 81 ce 3d f8 b3 13 3d 80 fb 0b 3e 52 a2 d5 3d
       0.1008325 0.036060303 0.13670158 0.10431351
0001a0 ea c6 ad 3d 6f ce 5f 3d df ca 91 3d ff c4 1b 3e
       0.084852055 0.05464023 0.07118773 0.15211867
0001b0 e6 eb 98 3d a7 66 b5 bd d4 c1 c8 3d 59 db 5f bc
       0.07466869 -0.0885747 0.09802595 -0.013663136
0001c0 af 0b ae 3d 5e 12 23 be db 55 7d bd 38 50 8d bc
       0.08498322 -0.15924975 -0.061849456 -0.017250165
0001d0 48 7e c4 3d 94 5d c7 3b 5b 73 d8 bd 76 09 ff bb
       0.09594399 0.0060841534 -0.10568877 -0.0077831103
0001e0 ff b6 ea bc f6 6b 0f 3d df 61 db 3d ca 89 1c 3e
       -0.028651712 0.03501507 0.10712027 0.15286937
0001f0 7c 30 ed 3d 93 e1 2a be d7 a7 fd 3c 14 10 e3 3d
       0.11581513 -0.16687612 0.030963821 0.11087051

network_body._body_endoder.seq_layers.2.weight f4 [128, 128]
000000 b1 d1 9f bc be da 3c 3a 56 27 24 3d 0f 08 bb 3d
       -0.019509168 0.0007204226 0.040076576 0.091323964
000010 78 00 ee 3d d1 0e ad be 92 70 c4 3d d2 98 f4 bc
       0.11621183 -0.33800367 0.095917836 -0.029858027
000020 af 8a 19 be 1e ba 0e be 74 f6 b3 bc c5 a1 d1 3c
       -0.1499431 -0.13938186 -0.021968104 0.025589833
000030 a7 e6 25 bd f2 7f 8a ba 25 f1 1a 3e f6 de 74 3c
       -0.04050317 -0.0010566695 0.15131052 0.014945736
000040 c8 03 31 bd cf 91 17 3e cc 61 b1 bd cb 9d 4d bd
       -0.043216497 0.14801715 -0.086612314 -0.05019931
000050 98 b9 a2 3c bc 68 9a 3d 18 e5 c1 bd e8 74 a2 3d
       0.019863889 0.07539508 -0.09467524 0.07932454
000060 f8 5a 90 3c fa c0 04 be e8 1d e9 bd 4b 03 7d bd
       0.017621502 -0.1296424 -0.11382657 -0.06177072
000070 8c a2 85 3d 4b 2f f1 3c 12 ce 36 bc 87 b0 e4 3c
       0.06525144 0.029441496 -0.011157529 0.027916206
000080 d9 e1 07 bd 09 9e 66 3c 62 5b 85 bb bf 51 dc 3d
       -0.03317437 0.014075764 -0.0040697316 0.10757779
000090 3e d6 18 bc 7f a3 07 bd 49 b8 70 3d 15 33 57 bc
       -0.009328423 -0.033114906 0.058769498 -0.0131347375
0000a0 77 8d ed 3c 02 5f bf 3d 4a 61 49 bd 9e 07 a6 bd
       0.02899812 0.09344293 -0.049165048 -0.081069216
0000b0 56 ac be bd 93 4b 3c ba fa f9 5d bd 70 76 18 bd
       -0.09310214 -0.00071828923 -0.054193474 -0.037222326
0000c0 12 db dd 3d 15 b2 0b bc c5 bf 57 be 43 8d 31 be
       0.108328 -0.008526345 -0.21069248 -0.17339043
0000d0 1a 35 48 3c 36 ad 4a 3d 41 a9 c6 3d b3 65 0c 3e
       0.012219692 0.049481593 0.09700251 0.1371067
0000e0 39 46 12 3d e3 78 4b 3d 5b 85 c7 3d b7 65 53 bd
       0.0357115 0.049675833 0.097422324 -0.051610675
0000f0 08 60 68 be 68 49 99 bd 45 25 55 3d ec 2c 55 3a
       -0.22692883 -0.07484704 0.052037496 0.0008131999
000100 38 62 a4 3d a0 b6 cc 3d 28 39 dc bd 40 e8 be 3c
       0.08026546 0.099957705 -0.10753089 0.023304105
000110 a6 4a 3c bc 1c 5d cf bc d5 21 03 3e b6 a3 43 3e
       -0.011492407 -0.025312953 0.12805875 0.1910542
000120 9b 16 1d be 2b 56 08 3d 36 68 5d be 5e 7f c9 bd
       -0.15340655 0.0332853 -0.21621785 -0.098387465
000130 76 74 0c bd 84 ca 4f 3e f0 1f 15 3e ae ce 91 3d
       -0.034290753 0.20292097 0.14562964 0.07119499
000140 5f d6 f2 bd 91 94 f6 3c b8 27 3e 3e a0 64 51 3d
       -0.11857294 0.030100139 0.18569839 0.051121354
000150 a6 90 c8 3d f4 84 41 3e b9 a2 d1 3c 02 09 2f be
       0.097932145 0.18898374 0.025590288 -0.1709328
000160 e6 5b 81 bd 9b 87 fc bd fa e5 78 bc ce 72 9a be
       -0.06316356 -0.12330552 -0.015191549 -0.30165714
000170 06 1a 87 3c 84 ae 92 3c 3e e8 ad bd 0c c7 34 bc
       0.016491901 0.017905481 -0.08491562 -0.011033785
000180 8c a7 a2 3d 47 4f d0 bd de ff 26 3e 1c 30 a7 bd
       0.07942113 -0.10171371 0.16308543 -0.08163473
000190 8a b2 3f 3c 9e ca 1d 3c e9 65 8c 3d 25 44 18 bc
       0.011700282 0.009630827 0.06855375 -0.009293591
0001a0 17 5f e0 bc 00 b4 5d 3d 5d 1c d9 bd 5a 0f 65 3d
       -0.027389092 0.05412674 -0.10601113 0.055922844
0001b0 36 5b 6f 3d 41 1e ab bd a2 95 17 3e 4b 70 c1 bd
       0.058436595 -0.0835538 0.14803174 -0.09445246
0001c0 33 42 d3 bd c1 68 46 bd 8d de c1 bb 5a c5 8d bd
       -0.10315361 -0.048439745 -0.0059164227 -0.069224074
0001d0 f0 f7 6c bd d5 39 af bc 10 57 32 bb 1e 3f 16 3e
       -0.05785364 -0.021389881 -0.0027212538 0.14672515
0001e0 76 20 bb 3d 38 da b6 bc 97 03 1c ba 01 f9 96 bd
       0.09137051 -0.022320852 -0.00059514627 -0.073717125
0001f0 04 5a ac 3c 6f 4a e1 bc 43 26 55 3d b9 9d 34 3d
       0.021039017 -0.027501313 0.052038442 0.04409573
000200 5c ec 49 3e e3 e3 04 bc ae da 11 bd 0d 6a c2 3d
       0.1971907 -0.008110973 -0.03560894 0.09492884
000210 e5 c4 54 bc f0 11 5b 3d a7 ad 00 be 9e 4e ee 3d
       -0.012986396 0.053483903 -0.12566243 0.11636089
000220 1f 23 8a 3d a7 1d 18 bd e8 a2 e7 bd 0a 24 c9 3c
       0.0674498 -0.037137654 -0.11310369 0.024553318
000230 c2 f3 58 bc aa 18 42 3e 78 7f 90 3d a3 b4 18 bd
       -0.01324171 0.18954721 0.07055563 -0.037281644
000240 e1 70 bc 3d dc 5f de 3d 52 44 db bc 3e 57 33 3e
       0.092012174 0.108581275 -0.026765976 0.17513749
000250 31 31 b2 3a d6 50 89 bd b1 d2 af bd 37 cc 33 3d
       0.0013594982 -0.06704871 -0.08585108 0.043895926
000260 8c d2 be bd 9a b6 e3 bd 2a 38 37 bd 3b 5c ad 3d
       -0.093175024 -0.11118813 -0.044731297 0.08464857
000270 5e 1a d4 3d 48 da 95 bd 71 f2 3a be ee c1 12 3e
       0.10356592 -0.073170245 -0.18256547 0.14331791
000280 26 08 50 bd b3 e4 32 3e c2 5e 68 bb 25 bb 33 3c
       -0.05078902 0.17470054 -0.003545687 0.010969912
000290 af dd 42 3e 0f 5a 61 3d d7 cd d7 bd 0e d0 d3 3c
       0.19029878 0.055017527 -0.10537308 0.025856044
0002a0 12 a1 03 3d 6d 18 33 3e 49 b6 17 be 5c 59 aa bc
       0.03213603 0.17489786 -0.1481563 -0.020794563
0002b0 e0 14 0e 3d 23 63 1a 3e 3f 69 af 3c 51 3e 76 bb
       0.034687877 0.1507688 0.02141249 -0.0037573765
0002c0 fb 32 0b be 79 c3 df bd 97 37 c2 3d aa 27 2b 3e
       -0.13593666 -0.10925955 0.09483259 0.1671435
0002d0 40 81 90 bd c1 2d 02 be bb cd 3b 3d b7 ef d5 3d
       -0.070559025 -0.12712766 0.045850497 0.104461126
0002e0 eb ee f0 bc 89 ff a2 3d 7e b5 82 be 3c 0f b6 3d
       -0.0294108 0.07958896 -0.25529093 0.088896245
0002f0 0e 09 3b bd 52 8a 2f 3e 4e 78 00 bd dd 4b 9f 3d
       -0.045662932 0.17142609 -0.03136473 0.07778142
000300 a1 f8 de 3c 59 92 4b be 30 d8 ff 3c 4b b2 b4 bd
       0.027218165 -0.19880046 0.031231016 -0.08823069
000310 26 58 0f be 10 e6 94 bd de d6 4b bd 31 43 d8 bd
       -0.1399847 -0.072704434 -0.04976546 -0.10559691
000320 0b e7 a9 3d d6 c2 c2 bd dd 04 c2 3d 78 f8 ff 3d
       0.08296021 -0.09509818 0.09473584 0.124985635
000330 6c 9e b2 3d 5b 11 b0 3d 40 66 83 bd ba 7f 97 bd
       0.08721623 0.0859706 -0.06415987 -0.07397409
000340 15 36 1f 3d a9 68 02 3e 24 bd 44 be 2c 89 c9 bd
       0.038869936 0.12735237 -0.19212776 -0.098406166
000350 50 42 92 bd fd 95 99 3d 8d ab 09 be 84 9b eb bc
       -0.07141554 0.07499311 -0.13444348 -0.028760679
000360 e7 39 3a bd 8a 3e 21 be d0 ca 9d bd f2 24 11 3e
       -0.045465376 -0.15746513 -0.07704699 0.1417425
000370 2d a1 88 3d 79 b8 2c be c4 4f 8d 3d 60 bf c5 3d
       0.06671367 -0.16867246 0.0689998 0.096556425
000380 b9 bc a6 bd 71 15 f5 3d b7 91 17 3e 4d 55 ac 3d
       -0.08141465 0.1196698 0.1480168 0.08414707
000390 21 72 1d 3e a0 18 38 3d 65 01 d5 3d 4f 0e 95 3e
       0.15375568 0.04494536 0.104006566 0.2911248
0003a0 b0 ad b0 3d 94 b9 da 3c f5 b1 64 3d 45 27 27 3e
       0.08626878 0.026699819 0.055833776 0.16323574
0003b0 88 25 a0 3d 94 80 7f bd 0c b0 f9 3c 65 b2 45 bd
       0.078196585 -0.06237848 0.030479454 -0.048265833
0003c0 a7 10 93 bc bb d2 6c be 4b a2 44 bd ec 01 bf 3d
       -0.017952276 -0.23127262 -0.048006337 0.093265384
0003d0 c9 4a 29 3e ae ab 4a 3e ed 71 7b bc 97 3d 6c 3d
       0.16532435 0.19792053 -0.015346986 0.057675924
0003e0 36 21 c4 bd 98 2b 61 3e 27 23 46 3e 44 d7 a7 bc
       -0.09576647 0.21989286 0.19349347 -0.020488389
0003f0 1f 4d 8e 3d 66 da 4e bd 9b 04 31 bd 89 e8 c6 bd
       0.069483034 -0.05050125 -0.043217283 -0.09712321

network_body._body_endoder.seq_layers.2.bias f4 [128]
000000 30 c2 01 bd 20 7d db 3d 50 79 16 3e 99 6d 73 3d
       -0.031679332 0.10717225 0.14694715 0.059430692
000010 8b 78 85 bc d1 1f be bc 32 c9 e4 3d 55 ef 98 bc
       -0.01629283 -0.02320853 0.111711875 -0.01866881
000020 18 53 12 bd 47 0f a5 3d c2 e3 96 3d fc fe 83 bd
       -0.035723776 0.080595545 0.0736766 -0.06445119
000030 a1 33 b4 3d 05 06 c5 bd 8f 5f 05 3d ff 85 aa 3d
       0.0879891 -0.09620289 0.032561835 0.08326339
000040 a9 76 9c 3d c9 4e bf 3d 30 05 59 3c 74 86 c6 3d
       0.0763982 0.09341199 0.013245866 0.09693614
000050 9f b2 0e 3e 6f a3 d3 3d 4a dc 5a 3d ed ac c2 3c
       0.13935326 0.10333907 0.05343274 0.023764098
000060 0a 36 84 bc 9d 35 f7 3c 98 d0 93 3d 54 7d c3 3d
       -0.01613905 0.030176932 0.072175205 0.09545389
000070 a5 18 34 3d 39 73 8d bb 5a b7 9f 3d b1 9c cf bc
       0.043968815 -0.004316714 0.077986434 -0.025343271
000080 b5 26 e1 3d 86 4d c6 3d 1f 14 a9 3d ef 82 0f 3e
       0.10993711 0.09682755 0.08255791 0.14014791
000090 83 48 a5 3d c0 c1 d8 3d 26 00 c2 3c 66 b4 59 bd
       0.08070471 0.1058383 0.023681711 -0.053150557
0000a0 41 c6 98 3d 26 26 93 3d e6 1d 3f 3d ac 07 c6 3d
       0.07459689 0.071850106 0.046659373 0.09669432
0000b0 be 86 0c 3d a7 c5 8f bd 78 41 1b bd 51 89 90 bc
       0.034308188 -0.07020121 -0.037904233 -0.017643603
0000c0 b8 b4 9c 3d 41 62 ec 3d b3 9f ba bd a0 81 0e bc
       0.07651657 0.11542178 -0.091124915 -0.008697897
0000d0 64 fc e1 3d 81 3a 10 3e 2b fe 9b 3d 41 fe 04 3e
       0.11034468 0.14084817 0.07616838 0.12987615
0000e0 45 fb d1 3d 5a a4 d8 3d 37 13 8d 3d 72 d4 06 3e
       0.10253004 0.105782226 0.068884306 0.13166979
0000f0 57 3d d4 3d e3 59 25 3d 6c be b3 3c 4f fb 7e bd
       0.10363262 0.040368926 0.021941386 -0.062251385
000100 4d df 1c 3d 51 e8 bd bd b5 3d 95 bd 77 5f 96 3d
       0.038298894 -0.092728265 -0.0728716 0.07342427
000110 45 61 6d 3d 33 77 92 3a c6 b8 b2 3d ef d4 ab bd
       0.05795409 0.001117444 0.08726649 -0.08390223
000120 11 d1 4b bd 09 b3 a5 3d 1d c3 d0 3d e3 48 56 3d
       -0.049759928 0.08090789 0.10193465 0.052315604
000130 05 c7 aa 3d 8b ea c9 3d 27 37 4f bd 3d 4a 31 ba
       0.08338741 0.09859189 -0.050589707 -0.00067630765
000140 48 7f e9 3d 93 db 97 3d c0 48 ab 3d f7 65 53 3d
       0.1140123 0.07414927 0.08363485 0.051610913
000150 f5 d8 af 3d f6 c6 12 bd 64 cb a8 bd 97 7c e7 3d
       0.08586303 -0.035834275 -0.08241919 0.113030605
000160 5d 30 14 3c 69 ca bc 3c 9e 22 2e 3d 04 dc d7 bd
       0.009044734 0.023045735 0.042513482 -0.105400115
000170 2c 20 b3 3d fe d1 08 bd cd 07 8d 3d d3 41 26 3d
       0.08746371 -0.03340339 0.068862535 0.04059012
000180 5a a6 73 3d 9e 08 ce 3d 06 e3 e4 3d 3e c5 aa 3d
       0.059484817 0.10060237 0.11176114 0.08338402
000190 12 38 8a 3d a1 40 c3 3d cd c5 22 3d bc 12 8b 3c
       0.06748976 0.09533811 0.03973942 0.016976707
0001a0 65 eb a5 3d 6f 0e c5 3c 8b eb 25 3d 71 f6 9f 3d
       0.081015386 0.024054734 0.040507834 0.07810677
0001b0 b4 54 7f bd a3 20 32 3d d6 30 fa 3d 20 65 86 3d
       -0.06233664 0.043488156 0.12216346 0.06562257
0001c0 f2 50 ed 3d ec 2a d2 3d c9 a9 03 3e 7c cb c2 bd
       0.11587705 0.10262093 0.12857737 -0.09511468
0001d0 e3 0c c6 bd 39 1f b2 3d 71 29 0a 3e 04 72 01 3e
       -0.09670427 0.086973615 0.13492371 0.1264115
0001e0 3a e2 0a 3e 8f ed df 3d 37 71 bc bd cd 0a b5 3d
       0.13562861 0.109339826 -0.092012815 0.08839951
0001f0 ae 24 04 3e 86 a8 0b 3e df ca 9b 3d 2c 75 9a 3d
       0.12904617 0.13638505 0.07607054 0.0754188

action_model._discrete_distribution.branches.0.weight f4 [5, 16]
000000 be 62 97 ba 05 17 86 bc f7 2e e5 bc a4 1c 97 bc
       -0.0011549813 -0.016368398 -0.027976496 -0.018446274
000010 89 61 92 3d 4f 96 50 3d 44 e0 4a bd f4 8b 59 3c
       0.071475096 0.050924595 -0.049530283 0.013277996
000020 54 df 10 bb c0 a1 5b bd bd 04 a0 bc 31 fa 68 3d
       -0.002210577 -0.053621054 -0.01953351 0.056879226
000030 3d b9 6d bd b1 cb 41 3d 99 d8 f9 3a 4d 59 a2 bb
       -0.058037985 0.047313396 0.0019061744 -0.004954493
000040 fe 59 e5 ba 7e dd b5 bc ac 86 04 be 32 bf 42 3e
       -0.0017498133 -0.022200342 -0.12941998 0.19018248
000050 86 af a7 bd e0 eb d1 3c 3e 10 06 3e 03 bf 85 bd
       -0.08187775 0.02562517 0.13092133 -0.06530573
000060 44 e4 eb bd f7 c8 22 be 46 6d 3a 3e 23 fb 67 3d
       -0.115181476 -0.15896975 0.18205747 0.056635987
000070 c5 68 d0 3d 7a 7e 8a bd 47 99 da 3d a2 b5 25 3e
       0.10176233 -0.06762405 0.106737666 0.16182569
000080 1e 90 e2 3c e3 cf 69 bd af 17 c9 3d 58 10 0d be
       0.027656611 -0.05708302 0.098189704 -0.13775766
000090 be 21 12 3e fb d4 6a bd e3 89 d5 bd b3 5e 79 3d
       0.14270684 -0.05733202 -0.104266904 0.060881328
0000a0 74 83 11 3e 2e 42 bb 3d 5b 19 2d be b1 f7 23 bd
       0.14210302 0.09143482 -0.16904204 -0.04003114
0000b0 2f 7c ad bd 22 25 07 3e 80 84 00 be 29 b4 2f be
       -0.08470952 0.13197759 -0.12550545 -0.1715857
0000c0 55 5e d0 3d e9 b7 05 3e 8d c1 39 3d f7 e6 06 be
       0.101742424 0.13058437 0.0453506 -0.13174044
0000d0 fb e5 5b bd ec 5d 5b 3d ac 7e ad 3d 23 9e ee 3d
       -0.053686123 0.053556368 0.08471426 0.11651256
0000e0 bc 83 88 bd 15 6b 9c 3c 81 27 db 3d 81 f2 06 be
       -0.06665751 0.01909403 0.10700894 -0.13178445
0000f0 43 9d 02 3e bc 58 2b 3e bc 8b dd 3d 45 c1 eb bb
       0.12755303 0.16733068 0.10817668 -0.0071946704
000100 76 84 19 be 94 ea 23 be 29 e9 b0 bd 27 41 19 3e
       -0.14991936 -0.16007453 -0.08638222 0.1496626
000110 82 3d 74 bc ad 5d d9 bd fd f8 27 be ba 84 2a be
       -0.014907243 -0.1061357 -0.16403575 -0.16652194
000120 a5 aa bd 3d b4 ad bd bd ec 1f dc bd f6 e4 dd 3d
       0.092610635 -0.09261647 -0.10748276 0.108346865
000130 c2 0e f7 bd ff 6d ea bd b8 19 07 be 8a 34 f8 bb
       -0.12063362 -0.11446761 -0.13193405 -0.0075746225

action_model._discrete_distribution.branches.0.bias f4 [5]
000000 2c 9d 84 bd 8b 14 3e 3c 9a c4 f9 3c a2 7f ab 3c
       -0.06475291 0.0116015775 0.030489255 0.020934884
000010 f7 d4 95 3b
       0.0045725065

onnx::LSTM_98 f4 [1, 64, 128]
000000 57 ce b7 3d 35 aa e7 bc 6f 16 1e bd a3 33 6b 3c
       0.08974903 -0.028279403 -0.038595613 0.014355573
000010 a7 56 0e 3e 3b 6c a8 3d 46 e2 3f 3d b4 38 a5 bd
       0.13900243 0.08223768 0.04684665 -0.08067456
000020 01 c7 72 be 41 66 6f 3e 33 4f 0a be 4e cb 86 bd
       -0.23708726 0.2337885 -0.13506775 -0.06581746
000030 7f 35 45 3d 49 16 af bd 43 04 48 3e 92 3f f7 bc
       0.04814672 -0.085491724 0.19532876 -0.03018168
000040 d1 58 3f 3e d7 72 04 3d 08 1d 58 3d fb 98 e7 bc
       0.18686225 0.032336082 0.05276206 -0.028271189
000050 46 ff 2d 3e bc 5a 23 3e 7f 97 93 3d ab 3e 11 3e
       0.1699191 0.15952581 0.0720663 0.14184062
000060 44 c0 2a 3d 85 5f dd bd a6 ed 2e 3e 40 c8 a5 bd
       0.041687265 -0.108092345 0.17082843 -0.08094835
000070 68 dd 4a bd 94 57 30 3e 46 ea fb 3d fa 87 1a bd
       -0.049527556 0.17220908 0.123005435 -0.037727334
000080 a0 a4 68 3e bf d5 c3 3d 85 be 4d 3e 5e ac 82 3d
       0.2271905 0.09562253 0.20092209 0.06380533
000090 52 aa 92 bc c0 04 c9 bd 88 77 65 3e ad 99 df 3d
       -0.01790348 -0.09815359 0.22408879 0.10917983
0000a0 8d 22 63 bd cb 64 52 3e 36 2c 79 bd dd 0c 37 3e
       -0.055452872 0.20546262 -0.06083318 0.17876
0000b0 9c 94 32 3e f0 67 ba bd 7f 21 4d 3d 5c 62 2b be
       0.17439502 -0.09101856 0.050080772 -0.1673674
0000c0 a8 b3 02 bd 40 97 8d bd 92 6a ca bd 76 fd 18 be
       -0.031909615 -0.06913614 -0.09883608 -0.14940438
0000d0 84 ed d0 3d fc 86 fe bd ed 83 58 3e f9 e5 64 3e
       0.102015525 -0.1242809 0.21144076 0.22353353
0000e0 9e a5 e8 3b 93 bc 1f 3e 13 19 fb 3d 1c ca 8c 39
       0.007099821 0.15599279 0.12260642 0.00026853464
0000f0 c9 92 18 3e c9 2a 0f be 52 51 52 3e eb 1c 39 be
       0.14899744 -0.13981165 0.20538834 -0.18077438
000100 2b 96 72 3d c4 a9 b9 bd 4f d5 89 3d 31 3a 85 3d
       0.059225243 -0.09065583 0.067301385 0.0650524
000110 3f d8 d6 3d a3 9a 0c 3e 31 03 55 3e c2 4a 92 be
       0.104904644 0.13730864 0.20801999 -0.2857266
000120 ea 46 40 bd fc d0 1a be ab a7 05 3e b1 ab 47 3e
       -0.04694263 -0.15118784 0.13052242 0.19499089
000130 c2 22 aa bd f8 98 05 bd 80 04 10 3e d4 2b 65 3e
       -0.08307411 -0.032616585 0.14064217 0.2238
000140 9a 37 e3 bd bd 35 67 3e 78 61 be 3d 37 5b 52 3e
       -0.110945895 0.22579093 0.092959344 0.20542608
000150 f3 7c 2c 3e a0 ec 62 3d b9 67 f3 3c 59 a1 07 bd
       0.1684454 0.055401444 0.029712545 -0.033112857
000160 f6 84 ec 3c 2b a4 2c be 04 1b 87 bd cb 64 19 bd
       0.028871994 -0.168595 -0.0659695 -0.03744964
000170 2f 2a 72 3e 27 17 9f 3d f2 f3 11 be c1 9f e3 3b
       0.23648904 0.07768088 -0.14253214 0.0069465344
000180 27 0e bb bd ba 7a c0 3a 01 e3 a7 3d 42 f2 63 3e
       -0.09133559 0.0014685013 0.081975944 0.22260383
000190 33 19 d3 3d 8f a6 58 3e f6 b4 9c 3d 84 02 30 3d
       0.10307541 0.21157287 0.07651703 0.04297115
0001a0 b0 5d 1e 3e a1 c6 11 3e c0 78 13 3e b2 8c 5f 3e
       0.15465426 0.14235927 0.14401531 0.21831015
0001b0 79 92 3b be ea 28 24 3e 77 8b c2 3c 18 81 d5 3d
       -0.18317594 0.16031232 0.023748143 0.10425013
0001c0 48 a0 71 3e 94 89 40 3d d5 1a f2 3d aa 0f cd bd
       0.23596299 0.047006205 0.11821524 -0.10012753
0001d0 0d 66 94 bd b2 cd 37 3c f3 ca 74 bd b4 fd 8d 3e
       -0.07246027 0.011218475 -0.05976386 0.27732623
0001e0 44 36 8d bd da 0a 43 3e 3a 64 40 be 44 6a 82 bd
       -0.06895116 0.19047108 -0.18788233 -0.06367925
0001f0 fb c9 ae bd 30 29 a5 3d e7 50 3d 3e c1 0c a7 3d
       -0.085346185 0.080644965 0.18487893 0.081567295
000200 85 67 ae 3d 31 29 08 3e e7 b9 1f 3e 2d 0b 05 3e
       0.085158385 0.13296963 0.1559826 0.12992544
000210 5b 13 d0 bd c3 81 90 be ed 9c 12 be 5c 4f 63 bd
       -0.10159942 -0.28224 -0.14317675 -0.055495605
000220 a4 70 ff bd ba 66 95 3d d7 fc 51 3e 15 b4 24 be
       -0.12472656 0.07294984 0.20506607 -0.16084321
000230 4a f9 06 3e dc 92 87 3c 0c b4 29 be 78 55 1b 3d
       0.13181034 0.01654952 -0.16572589 0.037923306
000240 a7 52 bc 3c 19 8b 80 bd a1 03 84 bd d5 fe 92 3e
       0.02298863 -0.06276531 -0.06446005 0.28710046
000250 1b 47 af 3d ea 82 57 3e 48 dc 17 3e d9 39 5c 3d
       0.08558484 0.21046034 0.14830124 0.053766105
000260 6f 82 3d be c4 53 9f 3d dd cd 6c 3e 68 56 64 bd
       -0.18506788 0.07779649 0.23125406 -0.055746466
000270 71 eb 82 bd 73 3f 17 3e 78 74 ef 3d f8 6c e9 bd
       -0.06392563 0.14770298 0.116921365 -0.11397737
000280 a0 77 d0 bd 50 fe 13 3e b7 2f bd bd 1a c7 38 3d
       -0.10179067 0.14452481 -0.092376165 0.045111753
000290 25 b3 37 3d eb 89 9d 3d 32 ea ec 3d 6a a8 aa bd
       0.04484858 0.076923214 0.11568107 -0.08332904
0002a0 92 bb 94 3a 7d c1 9f 3d b7 a3 2d 3d 7e 99 b9 bd
       0.0011347404 0.07800577 0.04239246 -0.090624794
0002b0 4c 22 7c 3e 83 58 4b be d1 bf b0 bd f8 c6 11 be
       0.24622458 -0.19857983 -0.08630336 -0.14236057
0002c0 08 8d 4f 3e e4 46 79 3d 47 c0 2d bd 1f bc 27 3e
       0.20268643 0.060858622 -0.042419698 0.16380356
0002d0 ff ed 3e 3e 29 55 87 3e 4d 12 7b 3e bc 39 92 3e
       0.18645476 0.2643216 0.245187 0.28559673
0002e0 8f c0 3f 3e 47 f9 81 bc e2 d9 68 3e d6 ea 01 3e
       0.18725799 -0.015865935 0.22739366 0.12687239
0002f0 15 cc 7f bd 20 70 4d 3e 6f a5 08 be 7f 10 03 be
       -0.062450487 0.20062304 -0.13344358 -0.12799262
000300 76 f9 7a bd fb f8 c1 3d f2 b6 50 bd 0c 27 90 bd
       -0.06127306 0.094713174 -0.05095572 -0.070386976
000310 0c 84 82 3e f0 fc a3 3d 43 62 00 bc 88 b6 7d be
       0.2549137 0.080072284 -0.007835927 -0.24776661
000320 d5 25 37 be 9a b3 a1 3c 68 0c 36 3d 78 cf 72 3e
       -0.17885526 0.019738961 0.044445425 0.23711956
000330 df 73 08 3e 36 e6 1f 3e 48 d0 1d be 9e ea 6e bd
       0.13325451 0.15615162 -0.15411484 -0.058329217
000340 f4 9a 10 3d 89 6f ea bc 18 66 1d 3e 0b 18 52 3e
       0.035304025 -0.028617637 0.15370977 0.20516984
000350 72 3b 87 bd 9d 8f 1b 3d 49 f0 d3 bd 95 9c 80 3e
       -0.06603135 0.037978757 -0.10348565 0.25119463
000360 af 1b 45 bd ac 24 00 be 1a ed 93 3d dc 7f e5 bd
       -0.048122104 -0.12513989 0.07222958 -0.11206028
000370 4f 7a 32 3c 39 d0 b1 3d 69 99 0d 3e c3 3f 8e bc
       0.010893418 0.086822934 0.13828053 -0.017364388
000380 c6 a1 e0 bd f1 5f 38 bd 1c a1 34 3e 0d 96 95 3e
       -0.10968356 -0.04501337 0.17639583 0.29216042
000390 dd 1b 3a 3e 3b f8 01 be 54 6a 86 bd 6d 0c a2 3d
       0.18174691 -0.12692349 -0.06563249 0.07912526
0003a0 33 01 d9 3c 1c 32 d1 3d a6 f6 d2 bd 6c 19 10 3e
       0.02648983 0.10214636 -0.10300951 0.14072198
0003b0 22 45 de 3b 3e 84 e6 bd d7 ab ad bd 70 9d 12 3e
       0.0067831436 -0.11255692 -0.084800415 0.1431787
0003c0 7b 41 03 3e c9 01 3f 3e cf df 87 3e 2c 01 17 be
       0.12817948 0.18653025 0.2653794 -0.14746541
0003d0 a6 3f 83 be 8b 69 d0 bd 9e 4a a1 3c 38 99 52 bd
       -0.25634497 -0.10176381 0.0196889 -0.051415652
0003e0 e5 16 83 3e c5 a4 0b be c4 0b f9 3d aa 1d 30 3e
       0.25603405 -0.13637073 0.12160447 0.17198816
0003f0 30 20 8c 3e 7d db 54 3e 07 fa ea 3d 9c cc 5f 3e
       0.27368307 0.20786853 0.1147347 0.21855396

onnx::LSTM_99 f4 [1, 64, 16]
000000 c7 ce 4e be ce 3e 78 3e 63 0f 7c be e4 d6 9b 3e
       -0.20196067 0.24242708 -0.24615245 0.30437386
000010 4c f5 85 3d b7 34 e0 be 3d 82 bf be ac 6d d1 3e
       0.06540927 -0.43790218 -0.3740405 0.40903986
000020 02 c8 94 3e de 86 a4 be d6 d1 93 bd 58 90 83 ba
       0.29058844 -0.32134145 -0.072177574 -0.0010037525
000030 6b 92 03 3e 96 e6 b2 3e 72 a9 bc 3e 3c ad 80 be
       0.12848823 0.34941548 0.36848027 -0.25132167
000040 79 30 9b be 8d ef 8c be 21 7b 60 3e 7b a5 17 bd
       -0.3031042 -0.27526513 0.2192197 -0.03702305
000050 bf 81 9f be d3 c3 5c 3e 40 66 82 3c 14 04 17 be
       -0.31153676 0.21559076 0.015917897 -0.1474765
000060 5a 35 cf 3e 0d ea d5 bb bc b3 29 be 6a 3d dc 3d
       0.40470392 -0.006528145 -0.1657247 0.10753901
000070 b9 30 a8 3e df 28 18 be 1a 36 60 bd af a9 6b bd
       0.32849672 -0.14859341 -0.054739095 -0.05753487
000080 16 a8 9b 3e 8a 92 11 be b4 37 8e be c0 95 68 3e
       0.30401677 -0.14216056 -0.27776873 0.22713375
000090 e3 55 b9 be 14 bc 8e 3e bf 2a 36 bd a0 d5 f7 3d
       -0.3619834 0.27877867 -0.04447436 0.121012926
0000a0 0a 34 91 3e 95 d5 6a be d9 e1 f9 3d f8 c4 a4 be
       0.28360015 -0.22933038 0.1220128 -0.32181525
0000b0 f9 2a 95 3e 00 f3 a9 3e ae de df 3d 8d f6 45 be
       0.29134348 0.33193207 0.10931145 -0.19332333
0000c0 ad c2 97 3e ef ed 94 bd 19 fa ba bd f7 c8 43 3d
       0.29640713 -0.07271945 -0.091297336 0.047799077
0000d0 7c 8f b5 bd 32 16 36 bd b0 1c 52 3e 6f 0d c1 be
       -0.08865258 -0.04445476 0.20518756 -0.37705562
0000e0 92 69 9a be e8 10 f5 3e c1 7a c8 3e 4f ad b3 3e
       -0.3015867 0.4786446 0.39156154 0.3509316
0000f0 99 93 ac be 91 80 df bc 01 0e b8 3e 44 1a d0 be
       -0.33706358 -0.027282985 0.35948184 -0.4064504
000100 62 7d 98 bd 5b 44 ca 3e 50 3a 96 3e 50 8e b6 3e
       -0.0744579 0.39505276 0.29341364 0.3565545
000110 4d c8 c4 3e 80 e6 8c 3e 05 dc ef bd 40 d0 e3 3e
       0.38434067 0.27519608 -0.11711887 0.4449482
000120 60 0f 1f be 61 7d b7 bd e2 a1 70 3e 1c ec 65 be
       -0.15533209 -0.08959461 0.23499253 -0.2245335
000130 7b 1a c2 3e a3 54 e6 3d a2 f4 0b be 2f 6d b4 3e
       0.37910828 0.11246612 -0.13667539 0.3523955
000140 15 a1 e0 bd 8e 4c a7 be 49 f4 cf be d3 8c d8 be
       -0.10968224 -0.32675594 -0.40616062 -0.4229494
000150 cc 0b b5 3d 47 fb 6a 3e f9 0b 7a be 18 ea 5b be
       0.08840141 0.22947417 -0.2441863 -0.21476018
000160 21 6f 23 3d 65 4a 30 3e bd cc c1 be 2c 57 96 3e
       0.039900903 0.1721588 -0.37851515 0.29363382
000170 f0 63 b4 be f5 da d3 bd 6e 3e 13 3e 79 c7 d4 be
       -0.35232496 -0.10344497 0.14379284 -0.41558436
000180 53 c1 b9 be 54 cb 66 3e c6 3b 21 be 78 d9 67 be
       -0.36280307 0.22538501 -0.15745458 -0.22641551
000190 36 75 0d be c6 37 fa 3d 0a dc f6 3c 62 50 68 3e
       -0.13814244 0.12217669 0.03013422 0.22686914
0001a0 e0 c8 07 3e ef 13 b5 3e 71 1f 3a 3e 53 cc 2f be
       0.13260221 0.3536677 0.18176056 -0.17167787
0001b0 33 bc ca 3d d3 99 3c 3e fb 30 c7 3e 29 79 c5 3e
       0.098991774 0.18418054 0.38904557 0.38569
0001c0 78 e9 a6 3e e0 35 96 3e 15 fe 00 3e 37 54 3a 3e
       0.32599998 0.29337978 0.12596925 0.18196188
0001d0 69 d4 cc bd 9a 2c dd be 81 bd 2d 3e c0 fc 77 be
       -0.100014515 -0.4319809 0.16966821 -0.2421751
0001e0 93 05 77 3c 7b 6f 88 bd ba 56 72 be 79 a1 da 3e
       0.015077013 -0.06661888 -0.23665896 0.4270132
0001f0 e5 04 20 3e 0d 05 88 3c 77 d3 a4 be ed a5 87 be
       0.15626867 0.01660397 -0.32192585 -0.2649378
000200 ae 95 b1 3e 65 f0 b7 bd 09 4a a1 be ab 01 b1 bc
       0.3468451 -0.089813985 -0.31501797 -0.02160724
000210 ff da 66 3d 19 d0 56 3e 8a d8 d0 3e a5 6b b0 3c
       0.056361195 0.2097782 0.40790206 0.021535704
000220 c8 be b3 3e 69 e6 a0 be 68 28 81 3e e6 14 c3 3e
       0.35106492 -0.3142579 0.2522614 0.38101882
000230 c3 ee 65 be b0 30 df 3c 37 32 d1 3d c9 14 6c be
       -0.22454362 0.027244896 0.10214656 -0.23054804
000240 11 11 9f 3e de 8f 48 3e 9c 50 5a 3a 19 db 1e be
       0.31067708 0.19586131 0.0008328052 -0.15513267
000250 4f 00 01 bf 33 7a d8 be 82 dd 87 be e1 2b e2 3d
       -0.50391096 -0.4228073 -0.26536185 0.110435255
000260 3e 05 91 3e ef 9d 14 3e 7c 7f ab be 88 7d e5 bc
       0.28324312 0.14513372 -0.334957 -0.02801396
000270 1f ea 8c 3e e0 74 bd bc 5d 78 14 be 7a 4a 85 3e
       0.2752237 -0.02312702 -0.1449904 0.26033384
000280 c2 fa 39 be e2 5a 9d 3e ac 3c 8d bd 32 df cf 3e
       -0.18162063 0.307334 -0.06896338 0.40599972
000290 6f 12 a5 3d 9b e7 dc be e3 32 ca be 73 34 82 bd
       0.080601566 -0.4314545 -0.39491948 -0.0635766
0002a0 1c 1a 3e 3e 6e 28 e5 3e 7e ac d9 bd bf c9 36 bd
       0.18564647 0.44757408 -0.106286034 -0.044625994
0002b0 13 02 45 be 5a 06 a7 3d b7 13 02 be 0b 4f f5 3d
       -0.19239073 0.08155508 -0.12702833 0.11977967
0002c0 ec 56 5e 3e 34 8a 77 3e 15 94 a4 bd 32 7c d4 be
       0.21712846 0.24173814 -0.08036057 -0.41501004
0002d0 d7 2b cc be 20 9f 3b be 06 06 8d be 86 37 92 3e
       -0.39877197 -0.1832242 -0.27543658 0.28557986
0002e0 66 bc 1d be fa 11 99 be 0c 3d 6d 3e 4b 90 17 3e
       -0.154039 -0.29896528 0.23167819 0.14801137
0002f0 04 23 d5 3e 47 42 9f be b0 c5 67 be d8 35 96 3a
       0.41628277 -0.31105253 -0.22634006 0.0011460138
000300 fa c2 93 3d 48 1b e5 3c d1 5c bc 3e 61 2f 3e be
       0.07214923 0.02796711 0.36789563 -0.18572761
000310 fe 24 42 3e 14 24 ed be d9 8a 81 3d 4f 71 90 be
       0.18959424 -0.46316588 0.06325311 -0.28211448
000320 00 c4 8e be c1 d2 97 be 10 22 58 3e 7e 5f de bd
       -0.2788391 -0.2965298 0.21106744 -0.108580574
000330 be da a7 be e4 1f ac be 68 ec fe bd d2 39 14 3d
       -0.32784075 -0.3361808 -0.12447435 0.036187954
000340 09 ac 02 bf 7d a2 ba 3e 57 8c 12 be 3a 2d a5 3e
       -0.51043755 0.36452094 -0.14311348 0.32261068
000350 d6 48 b1 bc 73 03 b8 be aa a9 b1 bd 30 29 df 3d
       -0.021641176 -0.35940132 -0.08674939 0.10896528
000360 23 cb 49 3d 27 8c f2 bd c0 3f 4f be e5 66 10 be
       0.049265992 -0.11843138 -0.20239162 -0.14101751
000370 e9 a9 e2 bd fb d5 a9 bd 53 4e 98 3e 13 19 23 3e
       -0.11067564 -0.08292767 0.29747257 0.15927534
000380 85 fe 72 be 0f cb ad be 11 5b 3e 3e 88 9e 16 3e
       -0.23729904 -0.33943984 0.18589427 0.14708912
000390 0e a3 c3 be ff 16 27 be ff d8 4f 3d b1 b9 55 3e
       -0.38210338 -0.16317366 0.050744053 0.20871617
0003a0 aa 83 0e be 3c 06 d1 3d 1d a6 f6 bd 96 f9 2c 3e
       -0.13917413 0.10206267 -0.12043402 0.16892084
0003b0 2f 48 a4 be a6 eb 55 3e 39 8b e5 3d 57 15 36 3e
       -0.32086322 0.20890674 0.11208195 0.17781578
0003c0 30 d3 f8 b8 a2 a2 e1 3b 13 43 54 be ba cf 89 be
       -0.00011864898 0.0068858424 -0.20728712 -0.26916295
0003d0 66 01 77 be 6b 9b 6d be b2 22 5e 3e 99 3f 3e be
       -0.24121627 -0.23203819 0.21692923 -0.18578948
0003e0 1a f2 92 be 55 a9 13 bd 00 17 90 bd 20 1b ee 3d
       -0.28700334 -0.03605016 -0.07035637 0.116262674
0003f0 49 f6 f1 bd 70 0b 57 bd 79 59 2b be d6 72 d5 be
       -0.11814553 -0.052501142 -0.1673335 -0.41689175

onnx::LSTM_100 f4 [1, 128]
000000 41 94 ac 3d c8 fa de 3d e8 91 de 3d 69 c0 03 3e
       0.08426715 0.108876765 0.10867673 0.12866367
000010 cc 32 f7 3c c3 e9 29 3c 64 96 f3 3d 9e 38 c3 3d
       0.030175589 0.010370675 0.11893919 0.09532283
000020 ec 88 03 3e d2 4c d1 3d ba 8a 13 3e 06 12 b3 3d
       0.128452 0.102197304 0.14408389 0.08743672
000030 74 df c6 3d 81 2d 03 3e eb 26 fa 3d 23 fc 0d 3e
       0.09710589 0.12810327 0.12214454 0.13865714
000040 25 52 d5 3d 09 bb f6 3d 92 00 d6 3d 40 48 e8 3d
       0.104160585 0.12047393 0.104493275 0.113419056
000050 50 c7 8a 3d 17 59 5c 3d e8 a6 f5 3d 51 67 e6 3d
       0.06776297 0.0537959 0.119947255 0.11250175
000060 07 e9 e9 3d 88 c2 d9 3d 5e 9c 11 3e 73 cc 97 3d
       0.114213996 0.10632807 0.14219806 0.074120425
000070 c3 e3 d8 3d ee 8f 10 3e 76 46 02 3e 2e 7e 03 3e
       0.10590317 0.14117405 0.12722191 0.12841102
000080 ec 7c 7a 3f 07 39 79 3f db 9e 79 3f 8a 05 80 3f
       0.97846866 0.9735264 0.9750802 1.000169
000090 fd 84 80 3f 56 c0 81 3f c7 8d 80 3f 0c 22 77 3f
       1.0040585 1.0136821 1.0043267 0.96536326
0000a0 7e 26 81 3f 4f 13 7d 3f 3f 97 82 3f d6 d4 81 3f
       1.0089872 0.9885759 1.0202407 1.0143077
0000b0 21 95 7a 3f 49 9e 83 3f d4 a3 74 3f 22 40 82 3f
       0.978838 1.028268 0.9556248 1.0175822
0000c0 ae 78 95 3c 17 cf 0e bc e8 8d 23 3c a7 00 10 bb
       0.018246021 -0.008716366 0.009982564 -0.0021973045
0000d0 6a e2 f3 bb 23 1e ea bc f8 d7 1b 3b cc 76 28 3b
       -0.007442762 -0.028578823 0.002377985 0.0025705574
0000e0 26 b1 c8 bb bf 7b 62 3c 29 1a 3a bc 27 1e ee bc
       -0.0061246334 0.013823449 -0.011358776 -0.029067112
0000f0 e7 37 f1 3c aa 4f 15 bb 23 49 85 bc 1d 48 4d bb
       0.029445602 -0.002278308 -0.016270226 -0.00313235
000100 41 94 ac 3d c8 fa de 3d e8 91 de 3d 69 c0 03 3e
       0.08426715 0.108876765 0.10867673 0.12866367
000110 cc 32 f7 3c c3 e9 29 3c 64 96 f3 3d 9e 38 c3 3d
       0.030175589 0.010370675 0.11893919 0.09532283
000120 ec 88 03 3e d2 4c d1 3d ba 8a 13 3e 06 12 b3 3d
       0.128452 0.102197304 0.14408389 0.08743672
000130 74 df c6 3d 81 2d 03 3e eb 26 fa 3d 23 fc 0d 3e
       0.09710589 0.12810327 0.12214454 0.13865714
000140 25 52 d5 3d 09 bb f6 3d 92 00 d6 3d 40 48 e8 3d
       0.104160585 0.12047393 0.104493275 0.113419056
000150 50 c7 8a 3d 17 59 5c 3d e8 a6 f5 3d 51 67 e6 3d
       0.06776297 0.0537959 0.119947255 0.11250175
000160 07 e9 e9 3d 88 c2 d9 3d 5e 9c 11 3e 73 cc 97 3d
       0.114213996 0.10632807 0.14219806 0.074120425
000170 c3 e3 d8 3d ee 8f 10 3e 76 46 02 3e 2e 7e 03 3e
       0.10590317 0.14117405 0.12722191 0.12841102
000180 ec 7c 7a 3f 07 39 79 3f db 9e 79 3f 8a 05 80 3f
       0.97846866 0.9735264 0.9750802 1.000169
000190 fd 84 80 3f 56 c0 81 3f c7 8d 80 3f 0c 22 77 3f
       1.0040585 1.0136821 1.0043267 0.96536326
0001a0 7e 26 81 3f 4f 13 7d 3f 3f 97 82 3f d6 d4 81 3f
       1.0089872 0.9885759 1.0202407 1.0143077
0001b0 21 95 7a 3f 49 9e 83 3f d4 a3 74 3f 22 40 82 3f
       0.978838 1.028268 0.9556248 1.0175822
0001c0 ae 78 95 3c 17 cf 0e bc e8 8d 23 3c a7 00 10 bb
       0.018246021 -0.008716366 0.009982564 -0.0021973045
0001d0 6a e2 f3 bb 23 1e ea bc f8 d7 1b 3b cc 76 28 3b
       -0.007442762 -0.028578823 0.002377985 0.0025705574
0001e0 26 b1 c8 bb bf 7b 62 3c 29 1a 3a bc 27 1e ee bc
       -0.0061246334 0.013823449 -0.011358776 -0.029067112
0001f0 e7 37 f1 3c aa 4f 15 bb 23 49 85 bc 1d 48 4d bb
       0.029445602 -0.002278308 -0.016270226 -0.00313235
