Scenes/ImprovedGridWorld2D/results/ppo-memory-8-curriculum/DroneGrid2D/DroneGrid2D-999900.onnx (onnx, 114477 bytes, 9 tensors)

network_body._body_endoder.seq_layers.0.weight f4 [128, 6]
000000 72 2f de 3e 44 3a bd be 6f 6a ba 3d 05 e3 e6 3e
       0.43395573 -0.36958516 0.09102332 0.45095077
000010 a7 f0 19 bf 58 32 ed be 88 7c 11 3f c8 02 84 bd
       -0.6013283 -0.46327472 0.56830645 -0.06445843
000020 4a 06 20 3d ae 17 04 bd 22 46 97 3e da 29 4a be
       0.039068498 -0.032249145 0.29545695 -0.19742528
000030 e2 f4 2d bd 79 9a bd 3e 00 e4 de be 4f 04 8a bb
       -0.042469867 0.37031916 -0.43533325 -0.0042119394
000040 28 e2 11 3f 0d 03 a8 be 0e df c0 3d 47 1b ae 3d
       0.5698571 -0.32814828 0.09417544 0.085012965
000050 e9 5d 3b 3e 3d ca 90 bf 0c f0 ca 3e 88 3e 55 3f
       0.18297543 -1.1311718 0.39636266 0.8329854
000060 fd 46 45 bf 8f 3c 2b 3f 3c 12 36 3f 94 0d 47 be
       -0.77061445 0.6688928 0.71121573 -0.19438773
000070 76 a0 e6 bd 54 af 78 be 7c 59 01 3f 07 ce 0f be
       -0.11261074 -0.24285632 0.5052717 -0.14043437
000080 7b b3 9b be 22 6b b9 3d f1 d6 6c bf 23 9d 66 be
       -0.3041037 0.09053637 -0.92515475 -0.2252088
000090 78 8c 22 3e 6c 41 96 3e 42 0a b9 3e 66 31 e4 3e
       0.15873897 0.29346788 0.3614064 0.44568938
0000a0 37 cd c8 3e 86 f3 91 bf 43 bb e7 3d 2a 60 db 3e
       0.39219067 -1.1402442 0.11315014 0.42846805
0000b0 c6 4d 35 3f e9 09 43 3f f5 74 fc be f5 86 35 3f
       0.708218 0.76186997 -0.4930798 0.70909053
0000c0 32 f2 95 3e 90 43 e2 3e 15 cc 27 3f 24 88 e2 be
       0.29286343 0.4419217 0.6554578 -0.44244492
0000d0 b6 c1 1a bf fb b5 18 3e f0 bc fd 3e 9a c8 34 bf
       -0.6045183 0.1491317 0.4955821 -0.70618594
0000e0 33 7e 40 3f 5b 07 65 3f f6 a9 49 bf 60 bb b5 be
       0.75192565 0.8946435 -0.78774965 -0.35494518
0000f0 05 77 27 3d 8b a6 76 bd 09 48 98 3e 06 ca 0a bd
       0.04088499 -0.06021742 0.29742458 -0.03388407
000100 b9 37 49 3e df 40 29 bf 12 34 7c 3c a9 b3 ba be
       0.19650163 -0.6611461 0.015393274 -0.36465195
000110 ce c1 95 3c 8e b9 11 be 27 7c 40 3f b5 b1 af 3e
       0.01828089 -0.1423094 0.7518944 0.34315267
000120 42 02 b8 3d 02 4e 05 bf 39 ae b0 3e 8a f0 41 3f
       0.08984806 -0.52072155 0.3450792 0.7575766
000130 65 9b 9d 3e 43 0f 70 bb ce 5d 5a be 91 d5 1a 3f
       0.3078262 -0.003663019 -0.21324846 0.60482126
000140 35 9b fc 3d 93 b9 76 3e 11 74 8f be 9c 89 00 3f
       0.12334291 0.24094228 -0.2801824 0.50209975
000150 ed 93 0e 3f 34 64 2e bf 81 f6 1e 3f 22 37 5a bd
       0.55694467 -0.6812165 0.62094885 -0.053275235
000160 be 0c 8d be 41 8d 20 bf 15 4e 0f be 84 99 92 3e
       -0.27548784 -0.62715536 -0.1399463 0.28632748
000170 d7 98 9e 3e 2f 29 1b bd f9 dd 80 3f b0 0a ee be
       0.30975983 -0.037881073 1.0067741 -0.4649253
000180 85 c2 a6 3e 2e 82 ad 3d 4d ce 81 bc 19 cb f9 3e
       0.32570282 0.084720954 -0.015845442 0.48787764
000190 09 f3 df 3e 43 fc d5 3e 73 cc 65 3d 97 13 fc 3d
       0.4374011 0.41794023 0.05610318 0.12308424
0001a0 53 9a 7b 3f cf 28 23 3f eb 7f 9d bd 61 b9 14 3f
       0.98282355 0.63734144 -0.07690414 0.58095366
0001b0 2f 2e 93 3e 55 9e e2 bd ce cd 3c 3e 9c 49 b0 3e
       0.28746173 -0.11065356 0.18437883 0.3443116
0001c0 fe a5 2c 3f 0b 34 89 3f 84 8b de be 25 3e 9d be
       0.67440784 1.0719007 -0.43465817 -0.30711475
0001d0 c2 60 a0 be 35 d2 22 3f 81 33 80 be e0 d6 d4 be
       -0.3132382 0.63602 -0.25039294 -0.41570187
0001e0 e6 96 ef 3e a5 16 95 3d 64 92 32 3f 7c 14 99 be
       0.46794814 0.0727971 0.69754624 -0.2989844
0001f0 47 86 28 3f 61 d2 36 3d d3 7f 90 3d 46 76 31 3f
       0.6582989 0.044634227 0.070556305 0.69321096
000200 a1 fe 08 be 2e 41 0c bf eb ad b3 3e 82 fb 12 be
       -0.13378383 -0.54786956 0.35093626 -0.14353755
000210 b0 65 7f 3f 1d 82 06 be 23 34 bb 3e dc a2 75 3e
       0.9976454 -0.13135572 0.36563215 0.23987907
000220 5b b9 02 3e 6a a7 f9 bd 5c 63 63 3a fd eb 78 bd
       0.1276602 -0.12190135 0.00086741685 -0.06077193
000230 a1 d7 9c be a8 9a 5b be 4d 43 49 be 88 a3 0a bf
       -0.30633262 -0.21445715 -0.1965458 -0.5415578
000240 35 2a 6c 3e 98 35 ca be 5b 31 84 be 10 08 a4 be
       0.23062976 -0.39494014 -0.25818905 -0.320374
000250 8a 3e ed be 50 5f 5d 3e fc 89 26 3f 2a 7e ca 3e
       -0.46336776 0.2161839 0.650543 0.3954938
000260 44 37 22 3f 1a 8b 0d bf 4d 38 35 3f 25 d2 2a 3f
       0.6336558 -0.5529038 0.70789033 0.66726905
000270 1a 1a cc be 0f bc 97 be 43 93 f2 3d 3e 4a ad be
       -0.39863664 -0.29635665 0.11844494 -0.33845705
000280 48 ad f9 be 0b fa 89 be 0e 2e 8b be f0 6b 0a 3f
       -0.48765016 -0.2694858 -0.27183574 0.5407095
000290 49 2d 23 bf 84 8a 31 bd b7 72 88 bf a2 4f 7e 3e
       -0.63740975 -0.04334499 -1.0660008 0.24835065
0002a0 25 fc d8 3c 9a 63 17 bf 19 eb 91 be c7 9f 15 3f
       0.02648742 -0.59136355 -0.28499678 0.58446926
0002b0 ba 5e 6c be 9a 8a 3a 3f 49 fb 54 bf 59 1c cb 3d
       -0.2308301 0.7286774 -0.8319593 0.09917516
0002c0 92 95 51 bf b7 16 91 3d 26 9f 2f 3f c2 62 5e be
       -0.8186885 0.07084411 0.68602216 -0.2171736
0002d0 0a c4 d3 bd 96 7a 38 bf cb 0b cb 3d d8 2c ca be
       -0.10340126 -0.7206205 0.09914359 -0.39487338
0002e0 e7 82 8f be 39 bb 9a bd d8 02 28 be ca ef 01 bd
       -0.28029558 -0.07555241 -0.16407335 -0.03172282
0002f0 e7 5f ca 3e a6 65 66 3e a7 d6 0c 3f bb 6d 13 3f
       0.39526293 0.22499713 0.55015033 0.5758931
000300 46 63 08 3f 79 09 b1 be a7 70 85 bf fb e5 70 be
       0.5327648 -0.3457754 -1.0425004 -0.2352523
000310 bb 4a c1 be e2 b9 96 bd 10 99 ce 3d 56 59 32 be
       -0.37752327 -0.07359673 0.10087788 -0.17416891
000320 4d 3e 29 3f 64 21 5a 3d f3 0a 81 bc 2b d4 a0 3e
       0.6611069 0.0532545 -0.015752291 0.3141187
000330 2e ed 63 3e b5 18 41 3e df 22 a1 3e 52 ae 09 3f
       0.22258446 0.18857081 0.31471917 0.53781617
000340 f4 c1 51 bf 8e b0 10 bf 6b b7 04 be 86 a6 bd be
       -0.81936574 -0.565194 -0.12960593 -0.3704111
000350 0f 7e 69 be 13 2a 4a be 9c f0 89 be 21 69 84 bf
       -0.22801994 -0.19742613 -0.26941383 -1.0344583
000360 27 40 73 bc c0 1e 57 bf 85 b3 c8 be 2c 55 25 3f
       -0.014846838 -0.84031296 -0.39199463 0.64583087
000370 e4 c2 03 bf 94 35 b5 3d 87 62 96 be f9 fc ed be
       -0.51469254 0.0884811 -0.29372045 -0.46482065
000380 fc e0 60 bf f9 45 bb 3d a9 db 09 bf 27 c0 34 be
       -0.878433 0.091442056 -0.538508 -0.17651425
000390 ca 4e 00 3f 16 82 d3 3e 1e 31 9b 3e 6b e3 aa be
       0.5012022 0.41310185 0.3031091 -0.3337663
0003a0 d4 1c 93 3f cb 67 a8 bf 9f 7d 8d 3e 75 11 56 3f
       1.1493173 -1.3156675 0.27634904 0.8362039
0003b0 cf f3 87 be 6a 08 58 be 4e fc 5a be ab 0c 4b 3f
       -0.265532 -0.2109696 -0.21385309 0.79316205
0003c0 2a f6 e8 3e 85 d9 b9 be 8e 1d 1a 3e ec 9d ae 3e
       0.45500308 -0.36298767 0.15050337 0.3410486
0003d0 23 76 8c be 16 3d 82 bf f5 c5 aa 3c e6 05 e7 3b
       -0.2743388 -1.0174892 0.020846346 0.0070502637
0003e0 41 1c e4 3e b7 d1 22 3f 64 ec 2a 3f 77 77 ae bd
       0.44552806 0.6360125 0.66766953 -0.0851888
0003f0 62 c1 0b be 1f 03 12 be 3d a4 ba bd 66 ef 4b be
       -0.13647988 -0.14259003 -0.09113357 -0.19915542

network_body._body_endoder.seq_layers.0.bias f4 [128]
000000 b7 a3 ca 3d fb 9f 31 be c6 11 d0 3d 30 c0 74 3d
       0.098945074 -0.17346184 0.1015964 0.059753597
000010 c1 d1 58 bd ba 6a ca 3d 32 b0 00 3d b2 77 61 3d
       -0.052934412 0.09883638 0.031418033 0.05504579
000020 e2 ab 1e 3e a5 2e 43 3e 92 55 0d 3d d1 e1 34 3d
       0.15495256 0.19060762 0.034505434 0.044160668
000030 76 d6 22 3e e6 27 d3 3d 64 27 df 3d cf 98 27 3e
       0.15902123 0.103103444 0.10896185 0.16366886
000040 4e 8c 18 3e 15 86 22 3e 39 6a ad 3d e4 15 d8 bd
       0.14897272 0.1587146 0.08467526 -0.1055105
000050 91 ca f1 3d 3e 2b 04 be 41 b3 3e 3e 26 ad 24 3e
       0.118062146 -0.1290712 0.18623067 0.16081676
000060 59 b1 0d be 04 1f cc 3d 16 3a 0a be 17 05 9c 3d
       -0.13837184 0.09966853 -0.1349872 0.07618158
000070 6f 6c 0d 3e f7 59 d1 3d bf bd 2f be 41 ca 8a bd
       0.13810895 0.102222376 -0.17162226 -0.06776858
000080 f9 e1 02 be 5a 67 08 3e 1f 8d 26 3e 39 22 bd 3d
       -0.12781514 0.13320675 0.16264771 0.09235043
000090 6c 9b 07 3e 90 75 32 be a4 79 17 3e 90 2f de bc
       0.13242882 -0.17427659 0.14792496 -0.027122289
0000a0 3d 26 c8 3d 0b 1c c8 3d 85 91 98 bd 70 39 d4 bd
       0.097729184 0.09770974 -0.07449631 -0.10362518
0000b0 c4 b7 f6 3c ce 70 84 3c a0 e1 32 3e c8 be b4 bc
       0.030116923 0.01616707 0.17468882 -0.022063628
0000c0 b4 e6 be bd e3 26 13 3e d3 4f b5 3c 4b cb 1f 3e
       -0.09321347 0.14370303 0.02213279 0.15604894
0000d0 4f 68 1f bc b8 cc bb bd 47 0b 62 3d a9 f8 01 3e
       -0.009729459 -0.091699064 0.055186536 0.12692513
0000e0 0d 72 45 3d 4f e3 65 3d 5f cc 8c bd 79 cb d1 3d
       0.04820447 0.05612498 -0.06874918 0.102438875
0000f0 d2 7e a2 3d 90 60 05 3d 03 73 2e 3e ce e5 92 3d
       0.07934345 0.032562792 0.17036061 0.07172738
000100 8a 54 28 3d 84 8a f7 3c 29 85 f3 3c 39 a7 d0 3d
       0.041096248 0.030217417 0.029726582 0.10188145
000110 da d9 94 3d 07 81 88 bd a5 15 dc bd e4 c8 2b be
       0.072681144 -0.06665235 -0.10746316 -0.16775852
000120 63 40 30 3e 14 3d 35 3e 68 e5 b7 3d 9d 68 47 3d
       0.17212062 0.1769908 0.08979303 0.04868375
000130 37 49 e3 3d be 79 18 3e 32 59 22 3e a2 43 79 bd
       0.11097949 0.14890191 0.15854338 -0.060855515
000140 71 22 29 3e 2e d8 e8 3d 92 79 48 3d 2c c8 57 bc
       0.16517045 0.11369358 0.048944063 -0.013170283
000150 ee c0 cb 3d aa 95 cc 3c 16 48 18 3d 9d 7a 21 3d
       0.09948908 0.02497371 0.03717812 0.039423574
000160 11 19 5f bd 75 bf 41 be 3d cd 0f be d7 48 0b 3e
       -0.054467265 -0.18920691 -0.14043136 0.13602005
000170 35 d6 02 bd fb 80 05 3e 60 a1 a1 bc 97 c5 06 3e
       -0.031942565 0.13037483 -0.01973027 0.13161312
000180 c4 e0 20 be 54 33 2d bd 85 c0 c4 3d 66 60 1c 3e
       -0.15710741 -0.04228528 0.09607033 0.15271148
000190 ec b8 ec 3d 4e f8 2e 3d c8 75 27 3e 30 68 e8 3d
       0.115587085 0.04271727 0.16353524 0.11347997
0001a0 0c f8 c4 3d c1 bb 6c 3d ae d4 a5 3d b9 4a 35 3e
       0.09617624 0.057796244 0.08097206 0.17704286
0001b0 1b 0f b2 3d ac 60 1a be 4b 3a d8 3d 88 6c 3d bc
       0.086942874 -0.1507594 0.105579935 -0.01156152
0001c0 2c 6d e0 3d e9 a9 41 be 9d f0 89 bd 6e ea 91 bc
       0.10958323 -0.18912472 -0.067353465 -0.01781198
0001d0 a9 f6 dd 3d 30 7d 0b 3c a9 da f6 bd a9 8f 8e ba
       0.10838062 0.008513734 -0.12053425 -0.0010876554
0001e0 5e a9 c7 bc f5 b4 3b 3d 68 d6 f1 3d f6 07 30 3e
       -0.024372753 0.04582687 0.11808473 0.17190537
0001f0 b7 d8 f9 3d 2a 27 58 be 10 b6 f6 3c 5b d6 f5 3d
       0.12199538 -0.2110869 0.030116111 0.12003776

network_body._body_endoder.seq_layers.2.weight f4 [128, 128]
000000 f3 04 e6 bc 1e 6f 97 3b 7a e4 67 3d 1e 95 dd 3d
       -0.028078532 0.0046214005 0.056614377 0.108194575
000010 19 fb ec 3d 98 28 b5 be 82 b3 d1 3d a8 69 43 bd
       0.115713306 -0.35382533 0.102393165 -0.047708184
000020 ef 09 19 be a0 53 18 be 8d 47 e2 3a ab c7 67 3d
       -0.14945196 -0.1487565 0.0017263755 0.056586903
000030 93 25 2e bd a9 74 35 bc 7d a1 1c 3e 3a 49 12 3d
       -0.042516302 -0.011075177 0.15295978 0.035714366
000040 98 74 4c bd ef e2 0b 3e dc 5f c2 bd 6b fd 39 bd
       -0.04991588 0.13660787 -0.0949094 -0.045407694
000050 db 60 00 3d 93 35 c3 3d 8c 09 c3 bd 68 c9 cf 3d
       0.03134237 0.09531703 -0.09523305 0.10145837
000060 01 26 47 3c 9f ff ef bd 32 64 00 be 7c ce aa bd
       0.012155057 -0.11718678 -0.12538221 -0.08340165
000070 b8 db 6d 3d b6 ca 8a 3d c0 21 a4 bc f3 a9 8f 3c
       0.05807087 0.06776945 -0.020035625 0.017537093
000080 0e d4 08 bd 64 57 d3 3b a9 ed 7e bc f3 a7 08 3e
       -0.033405356 0.0064496268 -0.015559592 0.13345318
000090 f3 ab ca bb 21 37 01 bd 8a 50 b6 3d 29 c7 ab bc
       -0.0061850487 -0.031546716 0.0890208 -0.02096899
0000a0 26 00 0b 3d bb 95 bb 3d 63 08 28 bd 83 76 9e bd
       0.03393569 0.09159418 -0.041023623 -0.07737448
0000b0 04 73 cb bd 81 70 87 bc e7 35 8c bd 9b 0f 93 bd
       -0.09934047 -0.016533138 -0.068462186 -0.07180711
0000c0 ea 9e cc 3d e4 35 10 bc fa d3 66 be 76 3b 3d be
       0.09991248 -0.008801911 -0.225418 -0.18479714
0000d0 5d 79 e9 3b 67 ed 9e 3d 13 c2 00 3e 3c fa 0e 3e
       0.0071250633 0.07760125 0.12574033 0.13962644
0000e0 5f 80 0a 3d 81 28 62 3d 94 37 f7 3d f8 c3 3b bd
       0.03381383 0.05521441 0.120711476 -0.045841187
0000f0 fd cb 79 be e8 dd e6 bd a2 e6 58 3d 71 15 c7 3c
       -0.24394222 -0.11272794 0.052954324 0.024302216
000100 03 1f d6 3d fd 71 e8 3d 7d f0 e7 bd da c1 f9 3c
       0.10455134 0.113498665 -0.113251664 0.030487943
000110 73 19 fb bc ba 4c 53 bc 7a f8 da 3d 89 f4 32 3e
       -0.030651784 -0.012896711 0.106919244 0.17476095
000120 7d 0a 26 be 65 ab 8b 3c 7b 19 6f be 49 14 f4 bd
       -0.16214938 0.0170495 -0.23349564 -0.119179316
000130 ab 60 19 bd fc ad 55 3e 01 85 15 3e c8 66 a1 3d
       -0.037445705 0.20867151 0.14601518 0.07880932
000140 51 c7 05 be c2 75 ac 3c d6 67 5a 3e dd 61 a9 3d
       -0.13064314 0.021052245 0.21328673 0.08270619
000150 d4 de c1 3d 80 e7 4c 3e a9 b6 27 3d 15 14 35 be
       0.09466329 0.20010185 0.040945683 -0.17683442
000160 7f b7 4f bd fc 72 00 be b5 8f cf bc 84 1d 98 be
       -0.050712105 -0.12543863 -0.02533708 -0.2971002
000170 5f c1 32 3c a1 47 3a 3d b3 f1 99 bd 06 3c 4f bb
       0.010910361 0.045478467 -0.075168036 -0.003162147
000180 92 85 92 3d a6 a3 fb bd ea 08 2c 3e 89 0d ac bd
       0.07154383 -0.12287073 0.16800275 -0.08401019
000190 df d8 6a 3c 9a de 96 bc 94 02 68 3d 38 89 c8 bc
       0.014333933 -0.018416692 0.056643084 -0.024479493
0001a0 70 4b c9 bc fc 32 8f 3d 9b a3 15 be 2d c0 7d 3d
       -0.024572104 0.069921464 -0.14613192 0.06195085
0001b0 64 98 30 3d 01 10 b5 bd 48 72 31 3e 53 89 c5 bd
       0.04311408 -0.08840943 0.17328751 -0.09645333
0001c0 d2 32 d1 bd 9a 1e 36 bd 8e 21 af bb b3 e8 ca bd
       -0.10214771 -0.044462778 -0.005344576 -0.09907665
0001d0 57 65 b6 bd 07 bf 3e bd 73 75 c8 3b a4 1e 24 3e
       -0.08906048 -0.046568897 0.0061175167 0.16027313
0001e0 f5 90 a6 3d 09 81 01 bd 08 c9 8b bc 6d 2c 85 bd
       0.08133117 -0.0316172 -0.017063633 -0.06502614
0001f0 34 68 33 3c 24 11 04 bd d6 a1 88 3d 6b a1 6a 3d
       0.010950137 -0.03224291 0.06671493 0.057282846
000200 43 fa 49 3e a8 b8 10 bd f0 7e 16 bd b5 08 b5 3d
       0.19724374 -0.035332352 -0.03674215 0.08839551
000210 74 12 32 bc e4 34 5f 3d 6a cc 0a be 79 2f 01 3e
       -0.010868657 0.0544938 -0.1355454 0.12615766
000220 81 7a 82 3d d3 42 01 bd d0 db 0c be 75 ed 0a 3c
       0.06371022 -0.03155787 -0.13755727 0.008479466
000230 67 f9 d5 bb d7 a8 4e 3e f2 38 80 3d 3f f6 3b bd
       -0.006529975 0.20181595 0.062608615 -0.045889135
000240 89 72 c5 3d e6 ef ed 3d 77 6d a6 bc dd 49 35 3e
       0.096409865 0.116180226 -0.020315869 0.17703958
000250 65 af 47 bc 88 12 a1 bd 76 47 c2 bd fd 6e 2d 3d
       -0.012187813 -0.07864863 -0.09486286 0.042342175
000260 c1 7f ca bd 28 4a ff bd 89 ac 2c bd 8d 31 eb 3d
       -0.098876484 -0.12465316 -0.04215673 0.114840604
000270 f1 16 f4 3d 26 03 93 bd d6 e0 3c be f5 08 1a 3e
       0.11918438 -0.07178335 -0.18445143 0.1504248
000280 db 80 82 bd 75 8e 38 3e d8 db 59 3a 96 c2 eb ba
       -0.063722335 0.18023093 0.00083106523 -0.0017987068
000290 e9 7f 4b 3e 27 b5 50 3d 31 47 07 be 9c 7d fd 3c
       0.19873013 0.05095401 -0.13210751 0.030943684
0002a0 16 d0 ac 3c f2 d6 35 3e d9 da 1f be 96 67 9a bc
       0.021095317 0.17757776 -0.15610828 -0.018848222
0002b0 ca c8 f7 3c 86 64 1b 3e 2e 55 12 3d 1e 54 4c 3c
       0.03024711 0.15175065 0.035725765 0.012471227
0002c0 09 cf 02 be 0d 80 f0 bd 98 26 ee 3d cb 6b 31 3e
       -0.1277429 -0.11743174 0.11628455 0.17326276
0002d0 43 cc 80 bd 70 d0 12 be d3 0d d3 3c b2 fc be 3d
       -0.0628896 -0.14337325 0.025763428 0.093255416
0002e0 a7 f4 22 bd 7a 8a 9b 3d f8 10 91 be 75 f4 af 3d
       -0.0397841 0.07594772 -0.2833326 0.08591548
0002f0 90 7d 0f bd 44 73 54 3e 03 6b b6 bc 42 cf 5e 3d
       -0.035031855 0.20747095 -0.022267824 0.054396875
000300 96 d2 95 bb ec 7b 59 be da 29 10 3d be 46 b7 bd
       -0.004572223 -0.21238679 0.035196163 -0.0894904
000310 0d 96 01 be 4c 3d a8 bd 86 f9 0d bd 5a 0c c8 bd
       -0.12654896 -0.082148165 -0.034661792 -0.09767981
000320 4e ad d5 3d 3c 3f a4 bd 44 78 d0 3d a9 32 12 3e
       0.10433446 -0.080198735 0.10179189 0.14277138
000330 30 a9 c1 3d 28 23 94 3d c9 58 89 bd a2 4d ab bd
       0.09456098 0.07233268 -0.067063875 -0.08364417
000340 d5 1a 3a 3d 79 0e 03 3e 6e 6b 62 be 01 8a 00 be
       0.045435745 0.1279849 -0.22111294 -0.12552644
000350 a3 35 94 bd cc 00 76 3d 23 61 05 be dc 67 07 bc
       -0.07236793 0.060059354 -0.13025336 -0.008264508
000360 3d d2 3e bd 82 5b 2c be e8 af 97 bd 44 6d 0d 3e
       -0.046587218 -0.16831782 -0.07406598 0.13811213
000370 09 79 79 3d a0 0a 3f be 94 6e 8a 3d e0 9b ce 3d
       0.060906444 -0.18656397 0.06759372 0.100883245
000380 8d 8f a6 bd 2f d8 1a 3e 2e ac 20 3e 08 c7 9f 3d
       -0.08132849 0.1512153 0.15690681 0.07801634
000390 e1 53 23 3e 0a 45 7a 3d 44 1a e2 3d d1 06 99 3e
       0.15949966 0.061100997 0.11040166 0.29888013
0003a0 06 25 b0 3d b3 54 d3 3c ce d7 a9 3d b2 67 2a 3e
       0.08600812 0.025797224 0.082931146 0.16641119
0003b0 80 1d b1 3d 98 85 7a bd 86 d4 a0 3c fd 9c 6c bd
       0.08648205 -0.06116256 0.01963259 -0.057766903
0003c0 c7 06 8c bc d4 83 77 be bc 9b 19 bd 2a 78 e2 3d
       -0.017093075 -0.24171382 -0.037502035 0.11058076
0003d0 4f d0 46 3e b9 e4 4e 3e cd 56 c7 bc 7d 42 3d 3d
       0.19415401 0.20204438 -0.024333382 0.046205986
0003e0 a3 c9 c3 bd 3b 0c 73 3e 3b 1d 59 3e b9 38 d1 bc
       -0.095599435 0.23735134 0.21202557 -0.025539743
0003f0 ab 47 93 3d 4e 1d 6e bd 55 8e 3e bd f4 98 dc bd
       0.07191404 -0.058133416 -0.046522457 -0.10771361

network_body._body_endoder.seq_layers.2.bias f4 [128]
000000 a2 89 e2 bc 0c 36 e7 3d c7 d2 23 3e 34 c4 8c 3d
       -0.027653519 0.112896055 0.15998374 0.0687336
000010 61 a7 05 bc 5e 6d cb bc b9 26 07 3e dc 8e 82 bc
       -0.008157582 -0.024832424 0.13198365 -0.015937261
000020 27 02 fc bc 85 7b bd 3d 42 6b bc 3d 82 6b 8c bd
       -0.030762745 0.09252075 0.09200145 -0.06856443
000030 97 c2 c1 3d 2d 72 c1 bd 8c 00 2d 3d d1 37 be 3d
       0.09460943 -0.094456054 0.04223685 0.0928799
000040 14 fc ae 3d 89 f2 d5 3d 82 cf 8d 3c 0f 84 cc 3d
       0.08544174 0.104466505 0.017310861 0.09986126
000050 75 ef 1d 3e d2 0a e7 3d 3b 67 82 3d d6 02 02 3d
       0.15423377 0.11281361 0.06367346 0.031740986
000060 40 9f 44 bc 1a 9f 27 3d f9 45 97 3d 55 b4 d9 3d
       -0.012000859 0.040923215 0.07386393 0.10630099
000070 0a 37 5d 3d f0 96 12 3b bd 8b b8 3d 2c 23 f0 bc
       0.054007567 0.0022367798 0.09011028 -0.029313646
000080 e4 0d f8 3d f1 18 fa 3d 86 94 b2 3d 7e 87 26 3e
       0.121120244 0.122117884 0.08719735 0.16262624
000090 e1 ef c8 3d ca e6 f9 3d 10 78 09 3d a4 96 5f bd
       0.09811378 0.12202223 0.033561766 -0.05458702
0000a0 85 2e b3 3d a7 8e aa 3d 77 76 66 3d df 3a e6 3d
       0.08749107 0.0832799 0.05626532 0.112416975
0000b0 fe 08 2b 3d 80 9f 96 bd a2 6d 08 bd 95 81 6e bc
       0.041756622 -0.07354641 -0.03330768 -0.014557262
0000c0 7c 09 a4 3d ba 42 0a 3e dc b7 a7 bd 27 05 c8 bb
       0.080096215 0.13502017 -0.08189365 -0.00610413
0000d0 3a fa 03 3e 74 f4 1e 3e 30 2f a7 3d 82 7a 05 3e
       0.12888423 0.15522939 0.08163297 0.13035014
0000e0 08 76 e0 3d e6 3e f3 3d 04 89 a5 3d 20 49 11 3e
       0.10960013 0.11877231 0.08082774 0.14188051
0000f0 59 83 f3 3d f7 36 4b 3d 93 eb b9 3c c6 55 8a bd
       0.11890287 0.049612965 0.022695338 -0.06754641
000100 71 52 4e 3d 2e f2 dc bd d8 44 a9 bd f5 2c 98 3d
       0.05037159 -0.107883796 -0.08265084 0.0743045
000110 fe 18 7b 3d 4d 7f 5d b9 d2 a1 c6 3d 1c 7d b7 bd
       0.06130313 -0.00021123626 0.096988335 -0.089594096
000120 3a 97 2c bd 47 4f b9 3d c8 67 fd 3d f2 45 87 3d
       -0.04213641 0.09048324 0.1237331 0.06605138
000130 26 b8 c5 3d 5a b4 d5 3d ab 02 6a bd b5 68 17 3c
       0.09654264 0.1043479 -0.05713145 0.009241273
000140 95 60 f0 3d d6 f4 99 3d 99 e9 b5 3d 3e e9 7c 3d
       0.117371716 0.07517402 0.08882446 0.061745875
000150 61 c3 b8 3d be 4b da bc 02 9b a3 bd 6a 21 0a 3e
       0.090216406 -0.026647445 -0.0798855 0.13489309
000160 4a 51 83 3c af 92 ed 3c 5d e9 7c 3d 00 14 d7 bd
       0.016029973 0.029000608 0.06174599 -0.105018616
000170 02 bc c4 3d af fa c8 bc cb ca a3 3d db e0 3a 3d
       0.09606172 -0.024533598 0.07997664 0.045624595
000180 32 92 83 3d a1 2b e6 3d c4 fd 00 3e 74 e3 be 3d
       0.06424369 0.1123879 0.12596804 0.09320727
000190 03 46 a9 3d 26 13 c6 3d c7 a7 4f 3d c1 2c bf 3c
       0.08265307 0.09671621 0.050697114 0.02333677
0001a0 32 c5 a5 3d 52 4b fe 3c e5 34 27 3d 77 f5 b6 3d
       0.08094253 0.031041775 0.04082193 0.089335375
0001b0 e8 c6 6c bd 9a 31 69 3d 5a 5d 00 3e 44 1a a7 3d
       -0.05780688 0.05693207 0.12535611 0.08159307
0001c0 14 68 fb 3d d9 f8 d9 3d 08 f7 0c 3e c8 dd be bd
       0.12275711 0.10643167 0.1376611 -0.09319645
0001d0 8f 3a dc bd 3e 2a ba 3d 02 7f 12 3e c7 c4 04 3e
       -0.10753357 0.09090088 0.14306262 0.1296569
0001e0 12 7b 21 3e fe 14 ff 3d 83 c2 db bd 0f 87 d6 3d
       0.15769604 0.12455176 -0.107304595 0.10474979
0001f0 5a 31 12 3e 47 40 17 3e 3f 0f b7 3d 88 27 be 3d
       0.14276639 0.14770614 0.08938455 0.09284884

action_model._discrete_distribution.branches.0.weight f4 [5, 16]
000000 6d 45 b9 bc c5 6d d5 3c ae 10 2a 3c 5a 5c c7 bc
       -0.022616113 0.026053319 0.010379953 -0.024336029
000010 0a 23 76 3e 11 b7 80 3e 04 f4 86 bd 1a 4e 55 3c
       0.24036804 0.2513967 -0.06589511 0.013019109
000020 cd b4 a1 bd 6a 6d 94 bd 73 6d aa 3b 48 57 1e 3e
       -0.07895813 -0.072474316 0.0052010356 0.15462983
000030 65 83 29 be c3 43 aa 3d b6 8d c2 3d 66 0a 1b bc
       -0.1655403 0.08313706 0.094996855 -0.009462928
000040 4b 99 37 bb 6d 66 eb bb ff 1f 39 be 26 98 75 3e
       -0.0028014954 -0.007183841 -0.18078612 0.23983821
000050 81 9d 15 be fc 46 a8 ba a2 ce 43 3e c6 c1 d3 bd
       -0.14610864 -0.0012838538 0.19121793 -0.10339694
000060 67 ad 15 be 0e 8a 66 be a4 f5 6c 3e a0 0f 20 3d
       -0.14616929 -0.22513601 0.2314058 0.0390774
000070 d4 10 2e 3e 20 f2 13 be 59 a7 12 3e 19 cc 6d 3e
       0.16998607 -0.14447832 0.1432165 0.23222388
000080 30 c2 11 3d 5a c7 d6 bd 5c 4f 19 3e d6 9c 39 be
       0.035585582 -0.10487242 0.1497168 -0.18126234
000090 46 33 1a 3e f4 7c 09 be fe 41 28 be 76 44 a0 3d
       0.15058622 -0.13426572 -0.16431424 0.07825558
0000a0 e6 94 44 3e 58 c8 19 3e d9 a5 6c be 1d b4 b0 bd
       0.19197425 0.15017831 -0.23110141 -0.08628104
0000b0 82 3a e4 bd 70 34 42 3e 8c 6f 46 be 61 e2 7c be
       -0.11143972 0.18965316 -0.1937849 -0.24695732
0000c0 11 e4 07 3e d4 92 3e 3e f8 e3 92 3d 8c ca 41 be
       0.13270594 0.18610698 0.07172388 -0.18924922
0000d0 85 b6 ed bd 16 f1 8d 3c 74 ea 13 3e c7 13 3a 3e
       -0.116070785 0.017326873 0.14444906 0.18171607
0000e0 73 54 82 bd b1 cd 61 3d d1 ec 17 3e 2f f8 4d be
       -0.06363764 0.055127803 0.14836432 -0.20114206
0000f0 4a bd 3c 3e 01 67 57 3e 7f 43 12 3e c7 0b 92 3c
       0.18431583 0.21035387 0.1428356 0.017827882
000100 84 9f 2a be 4e d7 61 be 64 9e 1a be 4a bc 50 3e
       -0.16662413 -0.22054788 -0.15099484 0.20384327
000110 2c aa a7 bd 44 29 44 be 62 95 54 be 62 b7 5a be
       -0.081867546 -0.19156367 -0.2076011 -0.21359017
000120 da 1d 0e 3e 92 8c df bd c0 59 20 be a7 0b 15 3e
       0.13878575 -0.109154835 -0.15659237 0.14555226
000130 34 1c fe bd d9 ad 2e be 83 aa 57 be bf 87 b0 bc
       -0.12407723 -0.17058505 -0.21061139 -0.021549104

action_model._discrete_distribution.branches.0.bias f4 [5]
000000 aa 7c 6c be 4d 4b 4e 3d af 6c a0 3d 01 47 91 3d
       -0.2309443 0.05036478 0.0783323 0.07093621
000010 2a 69 82 3d
       0.06367715

onnx::LSTM_98 f4 [1, 64, 128]
000000 68 1a ab 3d 80 58 13 bc 66 99 a0 bc 38 3c f1 3c
       0.08354646 -0.008993268 -0.019604396 0.02944766
000010 4e 79 17 3e ba 3e 89 3d 0f 27 7f 3d 89 39 96 bd
       0.14792368 0.06701417 0.06229311 -0.07335193
000020 f5 34 7c be 0d d5 81 3e b6 90 ee bd 5c 8a 9f bd
       -0.24629577 0.25357857 -0.11648695 -0.07790062
000030 5e a2 88 3d d8 06 d1 bd 84 26 56 3e cf 07 09 bc
       0.06671594 -0.102063835 0.2091313 -0.008363678
000040 53 f9 53 3e bb d9 4b 3d 60 16 86 3d 9b 3f 1e bc
       0.20700578 0.04976819 0.065472364 -0.009658719
000050 bb 42 42 3e 1d e4 35 3e ad 27 b1 3d 7c 77 24 3e
       0.18970768 0.177628 0.08650146 0.16061205
000060 01 ac 25 3d 2f 7d c6 bd 70 9f 3e 3e 82 83 82 bd
       0.04044724 -0.096918456 0.18615508 -0.063727394
000070 86 a5 0c bd b8 71 2f 3e aa 35 0f 3e 33 9d 63 bd
       -0.034337543 0.17133224 0.13985315 -0.05556984
000080 24 ce 7a 3e 89 05 e9 3d 84 76 62 3e d3 8c a9 3d
       0.24492699 0.11378009 0.22115523 0.08278813
000090 f8 50 03 3a 70 eb 9d bd ce 8c 78 3e 8c 7c be 3d
       0.00050093187 -0.07710922 0.24272463 0.09301099
0000a0 c5 4a 13 bd aa f0 5e 3e 95 2d 2a bd 4b 22 4a 3e
       -0.035959978 0.21771494 -0.041547377 0.19739644
0000b0 d9 d9 40 3e 1b 60 d9 bd 70 2f 75 3d d6 6f 2d be
       0.18833102 -0.10614034 0.059859693 -0.16937193
0000c0 66 5a 79 bc 41 90 45 bd 31 ff e9 bd 43 13 1a be
       -0.015219307 -0.048233274 -0.11425627 -0.1504641
0000d0 2a 90 fd 3d 31 75 da bd f2 ef 64 3e 8f 34 77 3e
       0.12381013 -0.10666884 0.22357157 0.24141143
0000e0 80 7e d6 3c 87 91 2f 3e 29 fd 0e 3e e7 78 5e 3c
       0.026183367 0.17145358 0.1396376 0.01357863
0000f0 0e 77 2c 3e 07 a1 f4 bd 2b 11 5e 3e af 39 4b be
       0.16842291 -0.11944776 0.21686237 -0.19846223
000100 1f 09 a6 3d a3 b7 dd bd 32 18 51 3d 3d 89 a7 3d
       0.081072085 -0.108260415 0.051048465 0.08180473
000110 77 42 f1 3d de 52 07 3e 5b 34 64 3e 00 73 9b be
       0.11780255 0.13215205 0.22285597 -0.30361176
000120 90 e5 62 bd 12 6a 0f be 16 6a 1b 3e 98 ee 58 3e
       -0.05539471 -0.14005306 0.15177187 0.21184766
000130 98 87 8d bd e1 94 96 bc bb a2 03 3e aa 7b 5a 3e
       -0.06910628 -0.018381538 0.12855045 0.21336237
000140 1f b0 c3 bd 64 8c 79 3e bb f1 e5 3d 46 48 60 3e
       -0.09555077 0.24369961 0.11227747 0.2190257
000150 93 a5 39 3e ae 32 54 3d 4a 8e ac 3c 90 78 6d bc
       0.18129568 0.051806144 0.021063942 -0.014494076
000160 9b 9f 04 3d 89 73 20 be ec 9a 33 bd 4e 98 63 bd
       0.032378774 -0.15669073 -0.043848917 -0.05556517
000170 cd 3f 80 3e c4 08 95 3d 6f 58 01 be 3c 87 9e 3c
       0.25048676 0.072770625 -0.12631391 0.019351594
000180 45 df 9b bd 1f b1 96 3c c2 78 d5 3d 19 f3 76 3e
       -0.07610945 0.018395005 0.10423423 0.24116172
000190 d5 59 f8 3d 3e 23 67 3e 6b e5 b6 3d ab cb 7e 3d
       0.12126509 0.22572038 0.08930477 0.06220595
0001a0 85 87 2d 3e 05 dd 1e 3e 7b d5 1f 3e 8d b0 72 3e
       0.16946228 0.15514 0.1560878 0.23700161
0001b0 60 fb 4a be 74 26 3a 3e 7d e5 2b 3d 64 d1 f9 3d
       -0.19822454 0.18178731 0.041966904 0.12198141
0001c0 05 36 83 3e eb 28 81 3d 89 b4 0a 3e 53 8a eb bd
       0.2562715 0.063066326 0.13545431 -0.115009926
0001d0 d7 7d b9 bd ca ab fd 3c 0a ac 28 bd a6 4c 96 3e
       -0.09057205 0.030965704 -0.041179694 0.29355353
0001e0 66 0e 4e bd 94 96 53 3e fd 08 52 be 15 80 35 bd
       -0.0503067 0.2066291 -0.20511241 -0.0443116
0001f0 ea 13 8a bd 12 4a cc 3d 9b 5a 50 3e 40 20 c5 3d
       -0.067420796 0.09975065 0.20347063 0.09625292
000200 bf c3 a2 3d 1f b2 21 3e f8 a1 45 3e 95 e8 27 3e
       0.07947492 0.15790604 0.19300067 0.16397317
000210 92 43 d2 bd d3 aa a0 be 80 a6 f6 bd 84 93 54 bd
       -0.10266794 -0.3138033 -0.12043476 -0.051898494
000220 58 1c 1e be c8 1b c5 3d 5f b8 67 3e 7a 12 46 be
       -0.154405 0.096244395 0.22628926 -0.19342986
000230 8c a1 2d 3e 54 4c 87 bc 1e 17 18 be d8 c4 8e 3d
       0.16956156 -0.016515888 -0.14852569 0.06971139
000240 e7 6a 25 3d 4e e2 1d bd 34 15 1c bd 6d cc a5 3e
       0.040385153 -0.0385459 -0.03810616 0.32382527
000250 88 91 e6 3d 72 8d 7b 3e 79 4c 3b 3e 72 6a 73 3d
       0.11258227 0.24565676 0.18290891 0.059427686
000260 ee a7 3f be 0b e7 d0 3d ff 6a 88 3e dd de c5 bc
       -0.18716404 0.10200318 0.26644132 -0.024154121
000270 ba 72 29 bd eb 4c 18 3e 2c 27 15 3e 60 6f 0b be
       -0.041369177 0.14873092 0.14565724 -0.13616705
000280 ae 81 8e bd c3 2d 33 3e 1a bd 8b bd c1 22 a8 3d
       -0.06958328 0.17497925 -0.06823178 0.08209754
000290 9c bd ab 3d 47 b9 d5 3d d5 bc f7 3d 54 66 ee bd
       0.083857745 0.104357295 0.12096564 -0.11640611
0002a0 49 d2 a5 3c 8c 06 d4 3d 94 24 a3 3d be 85 58 bd
       0.020241873 0.10352811 0.07965961 -0.05286192
0002b0 fb 08 85 3e 0f 37 6f be f3 33 9c bd 4d fd 0b be
       0.25983414 -0.23360847 -0.07627096 -0.13670845
0002c0 6a 4f 6e 3e 82 f6 bd 3d 36 21 9b bd fb 89 15 3e
       0.23272482 0.09275533 -0.07574694 0.14603417
0002d0 ad 9c 5b 3e 34 85 97 3e b3 14 8b 3e 09 6c a3 3e
       0.21446486 0.29593813 0.2716423 0.31918362
0002e0 d1 3a 64 3e f4 27 74 3c f9 fd 7c 3e df 87 21 3e
       0.22288062 0.014902104 0.24706258 0.15774487
0002f0 ab 6f 31 bd 13 37 5a 3e 9b 7b d4 bd 7c a4 1a be
       -0.043319385 0.21310072 -0.10375138 -0.15101808
000300 50 33 37 bd ad 30 73 3d 9b d0 a4 bd f6 11 1a bd
       -0.04472667 0.059372593 -0.08047601 -0.037614785
000310 57 22 91 3e 26 7f a2 3d 09 ca cd 3c 1d 6b 91 be
       0.28346512 0.07934408 0.025120752 -0.28402033
000320 60 c4 51 be d0 82 28 3d a2 f6 a6 3d fd 60 8a 3e
       -0.20485067 0.041140378 0.0815251 0.2702712
000330 33 0f 28 3e 59 3a 3d 3e f3 80 32 be 0c 9a b3 bd
       0.16412048 0.18479289 -0.17432003 -0.087696165
000340 4a f3 82 3d fd 70 1e 3b 81 85 33 3e 27 19 73 3e
       0.0639406 0.0024176233 0.17531396 0.23740064
000350 c6 23 21 bd fd c4 9c 3c 1c 6a 05 be 6b f3 92 3e
       -0.039340757 0.0191369 -0.13028759 0.28701338
000360 e3 42 3a bd 3c 85 c8 bd 76 8b c7 3d a3 c0 12 be
       -0.045473944 -0.097910374 0.09743397 -0.14331298
000370 ca f8 1f 3d 42 19 81 3d e1 cb 29 3e 41 0c 6e 3c
       0.039055623 0.06303646 0.1658168 0.014529289
000380 04 d1 99 bd 75 e7 ff bb 7c 24 48 3e f0 82 a9 3e
       -0.0751057 -0.0078095743 0.19545168 0.3310771
000390 a2 8b 51 3e 63 77 d4 bd 31 6f 46 bd 43 3e c8 3d
       0.20463422 -0.10374334 -0.048445884 0.097775005
0003a0 5d 93 74 3d 58 94 f3 3d 75 7e 9e bd b1 ab 1c 3e
       0.05971085 0.11893529 -0.077389635 0.1529987
0003b0 f2 17 8d bc 51 2d c0 bd 85 ec 5a bd 6d 9b 35 3e
       -0.017223332 -0.093836434 -0.05344822 0.17735071
0003c0 b9 ca 22 3e c6 bf 63 3e 83 35 97 3e 7e 8b 3d be
       0.15897645 0.22241125 0.29533014 -0.18510243
0003d0 0d 9d 97 be 46 06 90 bd 23 c0 3b 3d 7f e4 80 bc
       -0.29612008 -0.070324466 0.045837533 -0.015733955
0003e0 0e ad 92 3e 70 5c e0 bd 70 82 b5 3d b7 f9 55 3e
       0.28647655 -0.10955131 0.088627696 0.2089604
0003f0 ca 59 9f 3e 5e 2d 76 3e f8 26 06 3e 0e 28 7d 3e
       0.3112319 0.24040744 0.13100803 0.24722311

onnx::LSTM_99 f4 [1, 64, 16]
000000 9c 2f 4b be 3b 38 6f 3e 62 7f 7d be 44 e9 9b 3e
       -0.1984238 0.23361294 -0.24755624 0.30451405
000010 18 b1 42 3d 73 d8 e5 be 40 fd bc be 38 68 ce 3e
       0.04753217 -0.448917 -0.36911964 0.40313888
000020 f4 f7 9c 3e f8 3e a4 be e9 66 91 bd e7 8e 82 bc
       0.30657923 -0.3207929 -0.07099707 -0.015937282
000030 ff cb 02 3e ac 00 ac 3e 4e 6d bb 3e 38 83 80 be
       0.12773131 0.33594263 0.3660683 -0.25100112
000040 b5 11 91 be 5a cc 90 be 60 80 43 3e 8b 7e 3b bc
       -0.28333822 -0.28280908 0.1909194 -0.011443744
000050 2b 51 b4 be bd 02 31 3e 34 03 82 3c 97 15 31 be
       -0.35218176 0.17286201 0.015870668 -0.17293392
000060 97 32 d0 3e e4 d5 b7 bc 6b c2 29 be bb 5b ab 3d
       0.40663597 -0.022440858 -0.16578071 0.083671056
000070 ab 74 b3 3e f1 5f 1f be a8 83 51 bd a3 f5 1c bd
       0.35049948 -0.15563942 -0.051150948 -0.038320195
000080 08 a5 91 3e 80 7d 26 be f7 33 94 be 3d 3d 70 3e
       0.2844622 -0.16258812 -0.28945896 0.2346086
000090 8e a9 c6 be 52 61 7c 3e 04 0c 82 bd 86 2a d3 3d
       -0.38801235 0.246465 -0.06349948 0.10310845
0000a0 92 81 a0 3e e7 8d 6c be c4 c8 da 3d 47 00 a4 be
       0.31348854 -0.23101006 0.10682824 -0.32031462
0000b0 56 b3 8f 3e c7 51 a6 3e d3 bc bd 3d 9a 93 50 be
       0.2806651 0.32484266 0.09264531 -0.20368806
0000c0 06 93 91 3e 12 f1 b3 bd 8a 0c ce bd 4e b4 28 3d
       0.28432482 -0.08786215 -0.100609854 0.041187577
0000d0 0c f8 01 be a6 28 c1 bd bc 6f 4a 3e 91 ac c2 be
       -0.12692279 -0.09431581 0.19769186 -0.38022283
0000e0 1a 6b 8b be 27 3c fd 3e ee 08 c3 3e 91 ec a9 3e
       -0.2723015 0.49459955 0.3809275 0.33188298
0000f0 66 79 a9 be 36 17 ad bc 23 cf af 3e 41 7d d4 be
       -0.33100432 -0.021129232 0.3433772 -0.4150181
000100 65 55 26 bd e5 0a cb 3e fe 8b 93 3e 04 8c b7 3e
       -0.040608782 0.3965675 0.28817743 0.3584901
000110 56 c1 be 3e ae aa 81 3e 0b 41 f5 bd 85 0f e2 3e
       0.3725688 0.2532553 -0.119752966 0.44152465
000120 30 5c 0c be c1 ba a5 bd ba 2c 5d 3e 7c 45 7f be
       -0.13707042 -0.08092261 0.21599093 -0.2492885
000130 54 25 c4 3e 28 11 0c 3e cc f5 21 be f4 56 ae 3e
       0.3830973 0.1367842 -0.1581642 0.34050715
000140 5f 01 c5 bd 95 d7 a5 be bb 07 d6 be 62 89 da be
       -0.09619402 -0.3239104 -0.41802773 -0.4268294
000150 b9 90 a3 3d b4 d9 5e 3e be f1 73 be cc c0 54 be
       0.07986588 0.21762735 -0.23822686 -0.20776671
000160 00 1a ab 3c 56 22 32 3e ba ee c0 be a0 4f 91 3e
       0.020886421 0.1739591 -0.37682134 0.28381062
000170 11 cd af be 94 f9 c6 bd 6f d3 0e 3e 1b 01 d1 be
       -0.3433614 -0.09715572 0.13947843 -0.40821156
000180 3e ba b8 be 4a 1f 46 3e 6c d8 56 be 6f ae 3d be
       -0.36079592 0.19347873 -0.20980996 -0.18523572
000190 7a a5 31 be da 25 96 3d 35 17 93 3c a9 27 35 3e
       -0.1734828 0.07331438 0.017955402 0.1769091
0001a0 99 88 28 3e e5 fa a1 3e b3 5e 21 3e 73 04 3e be
       0.16458358 0.3163673 0.15758781 -0.18556385
0001b0 61 bb f7 3d f0 e5 25 3e 8a 40 be 3e fd 4a c5 3e
       0.120962866 0.16200995 0.37158614 0.38533774
0001c0 d6 9f a6 3e b1 b3 90 3e 1b e6 00 3e cf 60 31 3e
       0.3254382 0.28262094 0.12587778 0.17322086
0001d0 aa 25 01 be 06 53 f2 be 7f 7d 22 3e 25 68 65 be
       -0.12612024 -0.47328967 0.15868185 -0.22403009
0001e0 4b 9f 1f 3d a2 bd 2e bd 72 f7 75 be 27 2b d9 3e
       0.038970273 -0.042661317 -0.24020174 0.42415735
0001f0 a6 56 22 3e 88 06 1d 3d 0f 01 a6 be 58 8d 89 be
       0.15853366 0.038336307 -0.32422683 -0.2686565
000200 76 58 b6 3e d9 23 be bd b6 bc a1 be e9 2c 2c bc
       0.35614365 -0.09284181 -0.31589288 -0.010508754
000210 b8 9a 19 3d e8 3e 45 3e d8 73 d3 3e b6 c6 3b 3c
       0.037501067 0.19262278 0.4129932 0.011460951
000220 b9 b6 b1 3e 3a 63 a1 be 5d 53 83 3e 54 90 bc 3e
       0.3470972 -0.31521016 0.2564954 0.36828864
000230 38 f8 52 be 7b f4 2d 3d fb ef d2 3d de a3 68 be
       -0.206025 0.042469483 0.10299679 -0.2271876
000240 53 bc 9e 3e f5 8b 48 3e 0a 8a b6 bc a6 ba 18 be
       0.31003055 0.1958464 -0.022282619 -0.1491495
000250 19 11 08 bf 2c 6b ec be 70 82 83 be 65 11 d0 3d
       -0.5315109 -0.46175516 -0.25685453 0.10159568
000260 56 14 9c 3e f4 3e 0d 3e cd c5 a5 be d4 6c 42 bd
       0.30484265 0.13793546 -0.32377473 -0.047467068
000270 c0 79 95 3e 55 76 b1 bc 41 36 0b be 2d f2 88 3e
       0.2919445 -0.02166287 -0.13594915 0.26747265
000280 8f 5d 2c be 83 cc 9f 3e 82 12 ac bd 37 8e d0 3e
       -0.16832565 0.31210718 -0.084019676 0.407335
000290 78 26 32 3d 7f 58 f5 be 2d f8 c1 be 1d bb 7c bd
       0.043493718 -0.4791908 -0.37884656 -0.061701883
0002a0 1b 2c 59 3e 81 4b e3 3e 35 82 c8 bd 79 c0 8d bd
       0.21208231 0.44393542 -0.0979046 -0.06921477
0002b0 21 74 21 be c4 35 b3 3d 7b 08 f1 bd e3 a1 07 3e
       -0.15766956 0.08750489 -0.11769196 0.13245349
0002c0 47 5c 5a 3e 0c b3 77 3e 64 c0 a0 bd ce c6 d7 be
       0.21324264 0.24189395 -0.078491956 -0.42143863
0002d0 9f 49 ca be e7 d7 3e be 01 51 8f be bd 71 8d 3e
       -0.39509293 -0.18637048 -0.2799149 0.27625838
0002e0 ef e9 13 be c6 c0 97 be 37 02 76 3e a2 ca 16 3e
       -0.14444707 -0.29639262 0.24024282 0.14725736
0002f0 c2 e8 dc 3e a3 aa 9d be fc 04 58 be 81 55 c7 bb
       0.4314633 -0.30794248 -0.21095651 -0.006083191
000300 90 5e cd 3d 27 61 48 3d 33 9f c9 3e a2 ae 69 be
       0.10027802 0.048920777 0.39379272 -0.22820523
000310 66 c8 44 3e dd a7 f1 be f5 87 93 3d b8 91 7a be
       0.19217071 -0.47198382 0.07203666 -0.2446965
000320 86 20 85 be e0 89 8f be 9f b4 51 3e 96 b4 f9 bd
       -0.26001376 -0.28034878 0.20479058 -0.12192647
000330 ef 8a a4 be e5 86 9b be 5a a1 13 be d8 b7 9e 3c
       -0.32137248 -0.30376354 -0.1441702 0.019374773
000340 18 23 06 bf b3 23 bb 3e 17 b5 13 be 55 95 a0 3e
       -0.523973 0.36550674 -0.14424549 0.3136393
000350 5b ac 5b bd cb 88 c7 be 22 e8 b0 bd 3e ff df 3d
       -0.053631168 -0.38971552 -0.08638026 0.109373555
000360 72 02 8c 3d a3 11 da bd 46 a2 47 be c1 83 13 be
       0.06836404 -0.10647895 -0.19495496 -0.14405729
000370 25 4d ca bd be 82 b4 bd e6 fb 99 3e cd 4e 25 3e
       -0.098779954 -0.088139996 0.30074996 0.16143341
000380 77 b8 67 be 46 84 aa be 25 44 39 3e 13 b1 15 3e
       -0.22628962 -0.33304042 0.18092401 0.1461833
000390 78 c2 d7 be 8f 60 54 be 4e ed 74 3d c9 1e 4a 3e
       -0.42140555 -0.20739959 0.059796624 0.19738306
0003a0 7b b1 f3 bd e0 35 da 3d 6d c7 fe bd 06 63 1a 3e
       -0.11899086 0.10654807 -0.12440381 0.15076837
0003b0 0f 74 90 be 1c 45 5c 3e 7b fc 00 3e 7a 6b 3f 3e
       -0.28213546 0.21510738 0.12596314 0.18693343
0003c0 b4 21 65 3b e0 39 14 b9 58 eb 59 be 83 8f 89 be
       0.0034962716 -0.0001413594 -0.21281183 -0.26867303
0003d0 42 22 8f be a0 9c 90 be 0c f7 5c 3e 88 72 3c be
       -0.27955824 -0.28244495 0.21578616 -0.18403065
0003e0 66 4f 81 be 22 99 01 bd 59 88 82 bd 2c ce c4 3d
       -0.2525589 -0.03164018 -0.063736625 0.09609637
0003f0 44 6f b4 bd 95 64 1e bd bf 47 2c be fe 84 d4 be
       -0.08810285 -0.03867014 -0.16824244 -0.41507715

onnx::LSTM_100 f4 [1, 128]
000000 fa 46 ce 3d 60 00 0d 3e 14 50 0b 3e c3 60 27 3e
       0.100721315 0.13769674 0.13604766 0.16345505
000010 f6 b5 5f 3d 8e af ca 3c 65 13 23 3e e4 e6 f8 3d
       0.05461689 0.024741914 0.15925367 0.12153414
000020 d0 cc 16 3e f1 97 08 3e 8a 6a 30 3e 72 1e b3 3d
       0.14726567 0.13339211 0.17228141 0.08746041
000030 0d c2 e1 3d f6 43 1d 3e 17 aa 20 3e 83 c2 2e 3e
       0.110233404 0.15357956 0.15689884 0.17066388
000040 a9 1a f4 3d df 33 0a 3e a9 93 0c 3e 63 e3 f9 3d
       0.119191475 0.1349635 0.13728203 0.12201574
000050 14 a1 6d 3d 49 f3 90 3d bd ed 11 3e 16 a6 fd 3d
       0.058014944 0.07077653 0.14250846 0.12385194
000060 40 5a 03 3e f0 6e 18 3e 1e 36 21 3e ea d7 b3 3d
       0.12827396 0.1488607 0.157433 0.08781417
000070 7d c0 00 3e 97 1b 21 3e 13 5c 12 3e 87 32 16 3e
       0.12573428 0.15733181 0.14292936 0.14667712
000080 18 06 76 3f cb e2 74 3f 8e 71 71 3f bb 0a 7a 3f
       0.9610305 0.9565856 0.94313896 0.97672623
000090 39 51 79 3f 1f 5a 83 3f 67 35 7e 3f 6e ad 6d 3f
       0.9738956 1.0261878 0.99300236 0.9284276
0000a0 53 dd 7e 3f 5d 77 79 3f b5 5f 84 3f 87 80 7f 3f
       0.99556464 0.9744776 1.0341707 0.9980549
0000b0 ac ae 70 3f 03 41 83 3f 06 45 72 3f a5 7d 82 3f
       0.9401653 1.0254215 0.9463657 1.0194594
0000c0 9a 7d df 3c ae ec 4f bb 13 42 2d 3c 58 af 5a bb
       0.027281571 -0.0031726765 0.010574835 -0.0033368673
0000d0 10 08 0c bc 29 7f 41 bd 46 15 a2 bb c4 78 02 3c
       -0.008546844 -0.04724041 -0.0049463836 0.007963363
0000e0 24 b6 7d bb 41 88 b0 3c e2 d6 2e bc bc f2 2b bd
       -0.00387133 0.021549346 -0.010671349 -0.041979536
0000f0 06 cd 7e 3c ad ab 13 bc b6 ac bc bc 7d 89 14 bb
       0.015551811 -0.009013099 -0.023031574 -0.0022664957
000100 fa 46 ce 3d 60 00 0d 3e 14 50 0b 3e c3 60 27 3e
       0.100721315 0.13769674 0.13604766 0.16345505
000110 f6 b5 5f 3d 8e af ca 3c 65 13 23 3e e4 e6 f8 3d
       0.05461689 0.024741914 0.15925367 0.12153414
000120 d0 cc 16 3e f1 97 08 3e 8a 6a 30 3e 72 1e b3 3d
       0.14726567 0.13339211 0.17228141 0.08746041
000130 0d c2 e1 3d f6 43 1d 3e 17 aa 20 3e 83 c2 2e 3e
       0.110233404 0.15357956 0.15689884 0.17066388
000140 a9 1a f4 3d df 33 0a 3e a9 93 0c 3e 63 e3 f9 3d
       0.119191475 0.1349635 0.13728203 0.12201574
000150 14 a1 6d 3d 49 f3 90 3d bd ed 11 3e 16 a6 fd 3d
       0.058014944 0.07077653 0.14250846 0.12385194
000160 40 5a 03 3e f0 6e 18 3e 1e 36 21 3e ea d7 b3 3d
       0.12827396 0.1488607 0.157433 0.08781417
000170 7d c0 00 3e 97 1b 21 3e 13 5c 12 3e 87 32 16 3e
       0.12573428 0.15733181 0.14292936 0.14667712
000180 18 06 76 3f cb e2 74 3f 8e 71 71 3f bb 0a 7a 3f
       0.9610305 0.9565856 0.94313896 0.97672623
000190 39 51 79 3f 1f 5a 83 3f 67 35 7e 3f 6e ad 6d 3f
       0.9738956 1.0261878 0.99300236 0.9284276
0001a0 53 dd 7e 3f 5d 77 79 3f b5 5f 84 3f 87 80 7f 3f
       0.99556464 0.9744776 1.0341707 0.9980549
0001b0 ac ae 70 3f 03 41 83 3f 06 45 72 3f a5 7d 82 3f
       0.9401653 1.0254215 0.9463657 1.0194594
0001c0 9a 7d df 3c ae ec 4f bb 13 42 2d 3c 58 af 5a bb
       0.027281571 -0.0031726765 0.010574835 -0.0033368673
0001d0 10 08 0c bc 29 7f 41 bd 46 15 a2 bb c4 78 02 3c
       -0.008546844 -0.04724041 -0.0049463836 0.007963363
0001e0 24 b6 7d bb 41 88 b0 3c e2 d6 2e bc bc f2 2b bd
       -0.00387133 0.021549346 -0.010671349 -0.041979536
0001f0 06 cd 7e 3c ad ab 13 bc b6 ac bc bc 7d 89 14 bb
       0.015551811 -0.009013099 -0.023031574 -0.0022664957
