Scenes/ImprovedGridWorld2D/results/ppo-memory-8-curriculum/DroneGrid2D/DroneGrid2D-799951.onnx (onnx, 114477 bytes, 9 tensors)

network_body._body_endoder.seq_layers.0.weight f4 [128, 6]
00000000: f79e de3e fb4d bdbe 483f bc3d 979a e63e
00000010: 4ccc 19bf dca2 eebe 9b31 113f 846c 82bd
00000020: 7ed9 273d 7990 febc 0fe9 953e a5c5 45be
00000030: 2d52 30bd bbbb be3e 279b debe 72b6 28bb
00000040: e917 113f d65e a6be 95cc c03d 2eaf a93d
00000050: 4386 3b3e 8ba5 90bf 8ff5 c93e 18d0 553f
00000060: 7649 44bf cf73 2b3f f4de 353f 64a0 48be
00000070: d9ee e4bd 6e3b 7bbe d97e 013f 2cba 0fbe
00000080: d721 9bbe ca58 b73d 155a 6cbf 17d0 69be
00000090: 27ce 233e be4c 973e 9288 b93e 4e82 e43e
000000a0: af11 c83e f7df 91bf e013 e63d 0a53 da3e
000000b0: a5fd 343f 9ef2 423f 612d fbbe 4212 353f
000000c0: 7255 963e 9b0c e23e d459 273f 0895 e3be
000000d0: 19c4 19bf cd31 153e 2a04 fe3e d267 35bf
000000e0: 8043 403f ead3 643f 3f13 49bf 716c b7be
000000f0: 1cee 283d 4942 6fbd 98ee 983e b173 09bd
00000100: add7 473e 8ebd 28bf caf2 773c a0e0 babe
00000110: a068 983c ac08 11be 120b 403f 5f1a b13e
00000120: d925 b73d 7c58 05bf 4a53 b03e 784f 423f
00000130: da8f 9d3e 1575 05bb 12e5 5abe 2f52 1a3f
00000140: 6846 fb3d 0f1f 763e 2f94 8ebe e49b ff3e
00000150: ecc8 0e3f 733c 2ebf a147 1f3f 4569 59bd
00000160: aff1 8cbe f9df 20bf 621f 10be 9618 933e
00000170: 1003 9f3e 6451 14bd 1084 803f 4cce ebbe
00000180: e67a a63e 77cc ab3d e0d9 8ebc fc11 fa3e
00000190: d30b e03e 0dfd d63e 7e86 5d3d f840 f83d
000001a0: e733 7b3f 8d07 233f 3076 99bd e27e 143f
000001b0: 73bc 923e e131 e4bd e1cd 3b3e 7a85 b03e
000001c0: c6b1 2c3f 2d5c 893f 3d51 debe 5867 9dbe
000001d0: c026 a0be 269a 223f 4a25 7fbe 04af d5be
000001e0: 851a ef3e 8d4d 943d 968c 323f da6c 98be
000001f0: 5551 283f 4157 483d d2d8 8c3d bca3 313f
00000200: 7d9e 08be da1f 0bbf dc39 b23e be06 0ebe
00000210: ef8c 7f3f 2a3f 08be 0a1e bb3e 19a3 763e
00000220: 6404 033e 2a0a f4bd 4ec7 db39 a39d 6ebd
00000230: 4e69 9cbe b5ed 5bbe ac4a 49be ef99 0abf
00000240: 0968 6c3e 8583 cabe b4e3 84be 3b29 a4be
00000250: 568e ebbe 2225 593e 744e 263f c8bb c93e
00000260: 80ff 213f 8587 0dbf ff1d 353f ed8e 2b3f
00000270: 9be0 cbbe 9855 97be eb6b f03d 0cc3 adbe
00000280: 3a6d f8be f068 8bbe 689a 8abe e4d8 093f
00000290: 9117 23bf a64b 3cbd f7fe 87bf f37c 7a3e
000002a0: 9e23 d63c d718 18bf 7cf9 92be 3ca6 153f
000002b0: 6843 6bbe 02c9 393f 75c6 54bf 48c2 cf3d
000002c0: d90b 51bf eff3 953d c981 2e3f c372 5abe
000002d0: 1bff d4bd da25 38bf 9c86 c93d 50da c9be
000002e0: 0226 8ebe 815f a0bd 994f 29be 0e22 02bd
000002f0: 745a ca3e a16f 673e 77ce 0c3f 4df3 133f
00000300: 5df1 073f b06f b0be 5ccc 84bf d7be 71be
00000310: f9c3 bfbe 2fab 9abd 800f cc3d 2607 34be
00000320: 37e7 283f faae 593d 11d0 71bc a4eb a03e
00000330: 7927 653e f114 413e 1c46 a13e 1461 093f
00000340: fc9a 51bf 9c79 11bf 9a49 05be c156 bcbe
00000350: 9440 68be a1c2 4abe d6e3 89be 526c 84bf
00000360: 27b6 77bc 1e43 58bf 19d4 c9be 4158 253f
00000370: 672c 03bf 3361 ac3d ab74 97be 315f eebe
00000380: 643c 61bf 29d9 b63d 8226 09bf 57f7 36be
00000390: 3226 003f 011c d43e fab4 9b3e e4fe a9be
000003a0: ded3 923f 05e9 a7bf a9c4 8d3e 3465 553f
000003b0: 1422 88be 7a5f 58be 122b 5abe 6ba2 4a3f
000003c0: bf57 e93e 0e0c b9be a2c4 1b3e f089 ae3e
000003d0: b7db 8cbe a54e 82bf 2fe1 a63c c649 0c3c
000003e0: 7f68 e43e b03a 233f d97d 2a3f ae6b a6bd
000003f0: 2ba1 0cbe b0a5 0fbe 38a2 b9bd e0e2 4cbe
0.43480656 -0.36973557 0.091917574 0.45039818 -0.6007736 -0.46608627 0.56716317 -0.06368354
0.0409789 -0.03107475 0.29279372 -0.19313677 -0.04304712 0.37252602 -0.43477747 -0.0025743512
0.5667711 -0.3249423 0.09414021 0.08285366 0.18312936 -1.130052 0.3944516 0.8352065
-0.7667459 0.66973585 0.71043324 -0.19592434 -0.11178369 -0.2453439 0.5058418 -0.14035863
-0.30299255 0.08952482 -0.92324954 -0.22833286 0.1599661 0.29550737 0.36237007 0.44630665
0.39075992 -1.1396474 0.112342596 0.4264148 0.7069953 0.76151454 -0.4905806 0.70730984
0.29362065 0.44150242 0.6537144 -0.4444964 -0.60064846 0.14569779 0.49612552 -0.7086154
0.75102997 0.89385855 -0.7854499 -0.35824922 0.041242704 -0.058412824 0.29869533 -0.033557598
0.19515868 -0.6591424 0.015133569 -0.364995 0.018604577 -0.14163464 0.7501689 0.34590432
0.08942766 -0.5208814 0.34438545 0.7590251 0.30773813 -0.0020363976 -0.21376446 0.6028165
0.12269288 0.24035285 -0.2784743 0.49923623 0.5577533 -0.6806099 0.6221867 -0.05307891
-0.2752814 -0.62841755 -0.14074472 0.28729695 0.31057024 -0.036210433 1.0040302 -0.4605583
0.3251564 0.08388608 -0.017437875 0.48841846 0.4375902 0.41989937 0.05408334 0.12121767
0.9812607 0.63683397 -0.074932456 0.5800611 0.286594 -0.11142326 0.18340255 0.34476835
0.6745876 1.0731255 -0.43421355 -0.30742908 -0.31279564 0.6351646 -0.24916568 -0.4173509
0.4669992 0.07241354 0.6974577 -0.29770547 0.657491 0.048911337 0.06877293 0.69390464
-0.13341708 -0.54345477 0.34809768 -0.1386976 0.9982442 -0.13305345 0.36546355 0.24085654
0.12794644 -0.11916001 0.0004191943 -0.058255803 -0.3054909 -0.21477397 -0.19657391 -0.54141134
0.23086561 -0.39553466 -0.25954974 -0.32062706 -0.4600703 0.21205571 0.6496346 0.39401078
0.6328049 -0.5528491 0.70748895 0.6701496 -0.39819798 -0.2955749 0.11739334 -0.3393787
-0.48520833 -0.27228498 -0.27070928 0.53846574 -0.63707834 -0.04597058 -1.0624684 0.24461727
0.02614003 -0.594129 -0.28705966 0.5845678 -0.22974932 0.7257234 -0.8311532 0.10144478
-0.81658703 0.07321917 0.68166786 -0.2133284 -0.1040022 -0.71932757 0.09840128 -0.39424372
-0.27763373 -0.07830716 -0.1653427 -0.03177076 0.39522135 0.22601177 0.5500254 0.5779312
0.53102666 -0.3446021 -1.0374866 -0.23607956 -0.37454203 -0.07552182 0.09963894 -0.17580852
0.65977806 0.053145386 -0.01475908 0.3142978 0.22378339 0.18855645 0.31498802 0.53663754
-0.8187711 -0.56826186 -0.13016358 -0.36784938 -0.22680885 -0.19800808 -0.26931638 -1.0345557
-0.015119112 -0.8447741 -0.3941963 0.6458779 -0.5123963 0.08416977 -0.29581198 -0.46557
-0.87982774 0.08928139 -0.53574383 -0.1786779 0.5005828 0.41427615 0.30411512 -0.3320228
1.1470907 -1.3117987 0.27689102 0.8335755 -0.265885 -0.21130171 -0.21305493 0.7915408
0.45574757 -0.3614201 0.15211728 0.34089613 -0.2751138 -1.018025 0.020371048 0.008562511
0.44610974 0.63761425 0.6659828 -0.08126007 -0.13733356 -0.14028049 -0.09064144 -0.20008421

network_body._body_endoder.seq_layers.0.bias f4 [128]
00000000: dc52 c73d 2592 31be 693f cf3d 115d 783d
00000010: eb3d 5cbd 50f5 c73d 6319 fc3c 1474 613d
00000020: 8abd 1d3e 8498 413e 473d 093d 0f68 393d
00000030: 54d2 233e a519 d33d 45bc db3d 6b59 273e
00000040: ed89 193e 6374 223e dc8c af3d c5ee d9bd
00000050: 09e0 f23d 02c6 03be 2ee7 3c3e 3cd9 223e
00000060: 3e5c 0dbe 1a9f cd3d c61f 0bbe 36be 9a3d
00000070: 197b 0e3e 16e6 d13d ab62 30be a8d6 87bd
00000080: 3907 04be 2205 093e bdfb 243e 968d b93d
00000090: 829e 073e e01f 33be 6b9d 163e a5e9 d8bc
000000a0: 5a2d c53d 75d6 c83d 94a0 9abd a9af d2bd
000000b0: 4413 ef3c f7d9 823c 8791 313e ac6f b3bc
000000c0: 475e bcbd 71ce 133e 9d69 be3c c0b1 1e3e
000000d0: 1c1a 2dbc a270 bdbd 3eec 5b3d 9784 023e
000000e0: 00b8 403d 9f10 683d f9eb 8cbd d70d d43d
000000f0: c352 a23d 15d3 033d 18b7 2d3e 7c22 943d
00000100: c8a3 233d 7810 f13c de10 f63c b4e9 ce3d
00000110: 57a0 913d b855 8bbd c83e dabd f569 2cbe
00000120: 00a0 2e3e b18c 343e f77c b53d 950a 463d
00000130: 5f3f e03d 813b 173e c730 213e c17e 7fbd
00000140: fcf1 293e 5399 ea3d 97df 453d e03d 6ebc
00000150: 8607 ca3d 0a16 d03c 58e3 133d 766b 273d
00000160: 2338 59bd 2968 3fbe 1c2e 10be 590a 0a3e
00000170: d17c fcbc d06b 053e f2c6 8fbc e654 053e
00000180: 6813 1ebe 6feb 2abd 05d4 c63d 6bc6 1a3e
00000190: bbad ee3d c83f 2f3d 4764 273e a342 e93d
000001a0: 2477 c63d 6044 683d c6d4 a63d edc4 343e
000001b0: 578e b33d 33d2 19be 42ba d53d 2398 27bc
000001c0: a387 e23d 12d0 42be d318 86bd bc1e 93bc
000001d0: 2e36 dc3d 9a28 053c 508a f9bd 8f61 31b8
000001e0: c81a bfbc 39a3 413d 9eab f03d e1f9 2f3e
000001f0: a0c7 f73d 51b9 56be 279a ea3c a875 f33d
0.09732601 -0.17340906 0.101195164 0.06063563 -0.053769987 0.097635865 0.030773824 0.05504234
0.15404335 0.18905836 0.033505704 0.045265254 0.15998203 0.10307626 0.10729269 0.16342704
0.14994021 0.1586471 0.08571789 -0.10641245 0.118591376 -0.12868503 0.18447563 0.15903181
-0.13804719 0.10040112 -0.1358634 0.07555811 0.13914146 0.102489635 -0.17225139 -0.06632739
-0.1289338 0.13380864 0.16111656 0.090602085 0.1324406 -0.17492628 0.14708488 -0.026478598
0.09627791 0.098065294 -0.07550159 -0.10287411 0.029183991 0.015973074 0.1734067 -0.021903835
-0.091976695 0.1443422 0.02324372 0.15497494 -0.010565307 -0.09249999 0.053692095 0.12745892
0.047050476 0.056656476 -0.06880946 0.10354202 0.07925942 0.032183725 0.16964376 0.0723314
0.039951116 0.029426798 0.03003734 0.10103169 0.071106605 -0.06803459 -0.10656506 -0.16837294
0.17053223 0.17631795 0.08861726 0.048349936 0.10949587 0.14768793 0.15741263 -0.06237674
0.16596216 0.114550255 0.048308935 -0.014541119 0.09864716 0.025401134 0.036105484 0.040873967
-0.05303205 -0.18692078 -0.1408009 0.1348051 -0.030821236 0.13029408 -0.01755092 0.13020667
-0.1543709 -0.041728433 0.09708408 0.15114753 0.1165423 0.042785436 0.16346847 0.11389663
0.09690693 0.056705832 0.08146052 0.17653246 0.087673835 -0.15021591 0.104359165 -0.010229143
0.11061027 -0.19024685 -0.065477036 -0.017958991 0.107525215 0.008127356 -0.12184584 -4.2290947e-05
-0.0233282 0.047274802 0.117514834 0.17185165 0.12098622 -0.2096913 0.028637959 0.118876755

network_body._body_endoder.seq_layers.2.weight f4 [128, 128]
00000000: 5a2c e9bc d85e 873b 5830 623d 556d dd3d
00000010: bb49 f13d 168b b5be 620d d23d 3726 3abd
00000020: 591a 18be 6df7 17be dc57 d539 114f 5d3d
00000030: 3202 2fbd 2015 15bc ef84 1c3e e521 0f3d
00000040: 83d8 4abd 8695 0d3e 9183 c0bd bad3 3bbd
00000050: e9dd 003d 2f38 c23d 5590 c3bd 8bf7 c73d
00000060: 6aac 453c 108a efbd 417f ffbd 8370 a6bd
00000070: 4f93 6a3d 82ad 853d d8d8 9fbc 49a1 a73c
00000080: 1708 0ebd 3703 f93b ff87 6ebc 8657 043e
00000090: 97f8 04bc bc3b 03bd fe2a b23d 9c8a 9fbc
000000a0: b6dd 053d 36d9 bc3d a43e 2cbd 35b2 9bbd
000000b0: ca5c cabd f874 8abc 14fe 88bd 3637 8ebd
000000c0: ca78 d03d 7827 1dbc f56f 66be e888 3bbe
000000d0: 448b e03b 79cb 9b3d 231c f93d d59c 0e3e
000000e0: f5a2 083d 059d 623d 5dd5 f33d f672 45bd
000000f0: b5e3 78be 7c3c e5bd e042 5c3d 9374 ae3c
00000100: 1c15 d13d d010 e83d eba0 e4bd af27 003d
00000110: 5174 f2bc 84c1 76bc 8da9 e03d 2ac5 353e
00000120: ce2b 26be c7e0 913c 5129 6ebe d30a f4bd
00000130: dfff 19bd b1d1 533e 7d7b 153e a3d3 9e3d
00000140: 5069 05be 1e38 b23c 964b 573e 5184 a13d
00000150: afd0 c33d 81ef 4b3e 0a90 253d ef79 35be
00000160: 5ed0 51bd 97c9 ffbd ec03 cdbc 4c55 98be
00000170: 716e 1d3c a79e 333d dc28 9dbd 0c60 64bb
00000180: ec4b 943d d71d f7bd 1dff 2c3e 1533 adbd
00000190: 11a2 743c fb3e 85bc a231 6a3d ec21 bbbc
000001a0: 43c9 cbbc 160f 8a3d 41cf 12be 78be 7a3d
000001b0: 91cc 363d 864c b4bd bc9d 2e3e 79ca c7bd
000001c0: e2e8 cebd 18a4 39bd 1db5 9ebb 2179 c7bd
000001d0: 0513 b7bd e2bb 3cbd f9c6 993b cafa 243e
000001e0: 61f1 a83d c875 00bd 3a17 73bc 97b1 87bd
000001f0: 2551 3d3c f7c8 ffbc 2f98 833d cb8f 683d
00000200: b40e 4b3e 458e 0cbd 2da2 17bd 6e43 b33d
00000210: 0065 45bc cd54 613d 3ba2 0abe 25b6 003e
00000220: 7c50 813d 078b fcbc 4f46 0cbe e5b8 253c
00000230: 5698 acbb fd7e 4d3e 283c 803d 1c82 3bbd
00000240: 9d5b c63d 6b86 ed3d e34d a2bc f0ed 363e
00000250: c103 48bc 4d66 a2bd 17fe c0bd c4c6 2f3d
00000260: fc4c cabd 755c ffbd f68d 2fbd 1534 e53d
00000270: a95e f83d b284 92bd 1a62 3dbe acc9 193e
00000280: 2801 80bd 1b3f 383e 33d2 2b3a ac75 55ba
00000290: ae53 4e3e 3a20 533d ad6a 06be c372 f23c
000002a0: aaf5 b63c 5752 363e 04c8 1fbe 46bf a5bc
000002b0: 5132 f13c 641d 1b3e e0ec 0d3d ce51 333c
000002c0: 4ea5 02be 60a4 eebd 2654 ec3d 34d4 303e
000002d0: d043 80bd adf8 12be 08d2 dd3c 9655 c03d
000002e0: 069f 23bd 3924 9c3d 92ae 90be d7d5 b13d
000002f0: 00cd 0ebd 0322 543e 37d3 babc 38e7 653d
00000300: 6ced 5ebb 6885 59be 3aff 093d afcf b8bd
00000310: 3bda 01be a0cd a3bd 3580 15bd be96 cabd
00000320: 3954 d23d d002 a3bd ba49 ce3d b665 133e
00000330: 834e bf3d 4e88 973d 1d22 88bd f601 abbd
00000340: b6ea 3b3d ad55 033e 1a73 60be 6422 febd
00000350: 8836 96bd fc5b 793d 81fb 04be a11c c9bb
00000360: f671 42bd 3ce1 2cbe 052c 97bd a5dd 0c3e
00000370: 5984 813d 3eff 3ebe 97c4 8d3d 31fc cc3d
00000380: 1e62 a8bd bb88 193e f9f5 1f3e de03 a03d
00000390: 6183 233e 8f18 743d 0c34 e13d d2d4 983e
000003a0: 102d b23d cc37 e73c 8115 a63d d3c0 2b3e
000003b0: f9fd b03d 0a57 78bd cde6 a03c f036 66bd
000003c0: eb53 91bc 8cc5 76be 70de 19bd bccd de3d
000003d0: 5448 463e 24de 4f3e 186d bbbc 8174 383d
000003e0: 39cf c4bd e900 723e 87bc 573e 56be cabc
000003f0: fea1 933d a855 70bd e6bb 34bd f255 dcbd
-0.028463531 0.0041311793 0.055221885 0.10811869 0.11781641 -0.35457677 0.10256459 -0.0454466
-0.14853801 -0.14840479 0.00040691986 0.05403048 -0.042726703 -0.009099275 0.15285085 0.034944434
-0.049522888 0.1382657 -0.09400094 -0.045856215 0.03146163 0.094833724 -0.095490135 0.09764012
0.0120650325 -0.11696255 -0.12475444 -0.08126929 0.05726939 0.065272346 -0.019512579 0.020462649
-0.034675684 0.00759926 -0.014558791 0.12924013 -0.008115909 -0.03203939 0.08699606 -0.019475274
0.032682143 0.09221117 -0.042051926 -0.0760235 -0.09880979 -0.016901478 -0.066890866 -0.069441244
0.10179289 -0.00959193 -0.22503646 -0.18313944 0.0068525393 0.07607169 0.1216357 0.13927014
0.033358533 0.055325527 0.1190593 -0.04820534 -0.24305613 -0.11193177 0.053774714 0.021295821
0.102091044 0.11331332 -0.11163505 0.031287845 -0.02959648 -0.015060786 0.10969839 0.17750993
-0.16227648 0.017807378 -0.23257948 -0.11916127 -0.037597533 0.2068546 0.14597888 0.0775521
-0.13028455 0.021755274 0.21024927 0.078865655 0.095612876 0.19915582 0.04042057 -0.17722295
-0.051224105 -0.12489622 -0.025026284 -0.29752576 0.009608851 0.043852475 -0.07673809 -0.0034847287
0.072410434 -0.120662384 0.16894193 -0.08457009 0.014931218 -0.016265383 0.05717624 -0.022843324
-0.024876243 0.06741159 -0.14336874 0.0612168 0.044628683 -0.08803658 0.17052358 -0.097554155
-0.101030126 -0.045322508 -0.0048433677 -0.097399004 -0.089391746 -0.046077617 0.004692909 0.16111293
0.082491644 -0.031362325 -0.014837081 -0.066256694 0.011554991 -0.031223757 0.06425511 0.056777757
0.19829828 -0.034315366 -0.037019897 0.087530956 -0.012048006 0.055012513 -0.13538449 0.12569483
0.06314179 -0.030828012 -0.13698696 0.010114883 -0.0052671833 0.20067973 0.06261474 -0.04577838
0.096854426 0.11597904 -0.01981253 0.17864203 -0.012207926 -0.079296686 -0.09423464 0.042914167
-0.09877965 -0.12468807 -0.042859994 0.111915745 0.1212743 -0.07154216 -0.18494454 0.15018338
-0.062502205 0.17992823 0.00065544544 -0.00081428397 0.20149109 0.051544406 -0.13126631 0.029595738
0.022333939 0.17804848 -0.15603644 -0.020232808 0.029442938 0.1514793 0.03464973 0.010944797
-0.12758371 -0.11652446 0.115394875 0.17268449 -0.06262934 -0.14352675 0.02707769 0.09391324
-0.03994658 0.076240964 -0.28258187 0.08683365 -0.034863472 0.207161 -0.022805793 0.05612871
-0.0034016026 -0.21242297 0.03369067 -0.090239875 -0.12680905 -0.07998204 -0.03649922 -0.09892033
0.102699704 -0.07959521 0.10072656 0.14394268 0.09341147 0.07399045 -0.066471316 -0.083499834
0.045878135 0.12825651 -0.21918908 -0.12408903 -0.0733462 0.06087874 -0.12986566 -0.006137446
-0.047471963 -0.16882795 -0.07381443 0.13756426 0.063240714 -0.18652055 0.06922262 0.10009039
-0.08221839 0.14993565 0.15621175 0.078132376 0.15968086 0.059593733 0.10996255 0.2984987
0.08700001 0.028224848 0.0810957 0.16772775 0.086421914 -0.060629882 0.019641304 -0.056204736
-0.01774021 -0.24098796 -0.03756565 0.108790845 0.19363528 0.20299584 -0.022879168 0.04503298
-0.09609837 0.2363316 0.21068011 -0.024748962 0.07208632 -0.05867544 -0.044124506 -0.1075858

network_body._body_endoder.seq_layers.2.bias f4 [128]
00000000: c294 e8bc 3a84 e73d 201d 233e faa4 8c3d
00000010: 6161 f0bb d1e5 c6bc 9287 073e a550 74bc
00000020: 32f3 eebc 063f be3d a163 bd3d ce0a 87bd
00000030: f5ac bf3d 1266 bebd 2292 333d aec4 bc3d
00000040: 2029 b03d 01e9 d73d 187e 943c d47c c93d
00000050: 649a 1e3e 3345 e43d 2052 7e3d 6e40 053d
00000060: 746d 3dbc b22f 213d f48d 953d 1844 dd3d
00000070: 9fa7 5e3d f040 103b 6a25 ba3d 75aa edbc
00000080: 2614 f93d d512 fe3d b2c6 b13d 8292 263e
00000090: adc4 c83d 326f f83d 65a3 083d 1695 5ebd
000000a0: 67e9 b53d 73d1 a83d 4044 6c3d ed28 e83d
000000b0: 0e13 2c3d 4b8c 98bd 4a84 0ebd b2b0 80bc
000000c0: d5f3 a03d e8f9 0a3e 37f1 a7bd 8f72 a5bb
000000d0: aaf7 033e ce26 1f3e a200 a53d 6119 043e
000000e0: 5907 e03d beb6 f13d f69e a73d c50f 103e
000000f0: 22b4 f43d de74 483d 562a b53c 73b6 8abd
00000100: 0248 4d3d 06c7 dfbd 5926 acbd 976e 943d
00000110: 6726 753d f292 caba 32ab c43d af67 b6bd
00000120: 1f4b 2abd 90b3 b83d 6da3 f93d a677 883d
00000130: 697f c33d 1f3a d53d c0d2 6bbd 1068 253c
00000140: cf76 f23d 713f 9b3d a9d1 b53d 131a 753d
00000150: 256c b63d bbe5 ddbc 6e8f a1bd 0969 083e
00000160: 847d 8a3c a39e ea3c 26de 823d 26bc d6bd
00000170: 6b16 c23d eb44 c0bc 01f4 a53d 8f31 393d
00000180: 9c7f 803d fa23 e23d 5c69 003e fa1e bc3d
00000190: 79c4 ac3d f8ee c73d f1e7 523d dd82 bd3c
000001a0: b094 a23d 4bf0 f33c 3d3e 213d 81a2 b73d
000001b0: 7a0d 74bd 8699 693d 0227 fe3d 84af a83d
000001c0: dbf4 f93d d903 d83d 9d32 0b3e cf68 bebd
000001d0: 7c3e dabd 6aa3 b53d 0d69 123e be6e 033e
000001e0: 487c 223e 4d61 013e 6243 dcbd c0d1 d33d
000001f0: 5c1b 123e a288 163e a7f2 b83d dd10 bd3d
-0.028391246 0.11304517 0.15929079 0.06867404 -0.007335827 -0.024279507 0.1323531 -0.014911805
-0.029168699 0.092893645 0.09247518 -0.06593858 0.09359161 -0.09296812 0.043840535 0.09217201
0.08601594 0.10542489 0.018126532 0.09838262 0.15488583 0.11146011 0.06209004 0.032532148
-0.01156174 0.039352126 0.07302466 0.108040035 0.054359075 0.0022011362 0.090891674 -0.029011944
0.12162046 0.12405936 0.08680476 0.16266826 0.09803138 0.12130584 0.03335895 -0.0543414
0.088824086 0.08243074 0.057682276 0.11335931 0.04201036 -0.07448634 -0.03479413 -0.015709255
0.07859007 0.13571894 -0.08200305 -0.005049057 0.12887445 0.15542147 0.08056761 0.12900306
0.109389015 0.118024334 0.08184616 0.14068516 0.1194842 0.04893958 0.022114914 -0.06773081
0.0501175 -0.109266326 -0.08405752 0.07247656 0.059851076 -0.001545517 0.096029654 -0.08906495
-0.041575547 0.09018624 0.12189374 0.06663446 0.09545786 0.10411476 -0.057574034 0.010095611
0.11839067 0.0758046 0.0887788 0.05983932 0.08907346 -0.027087083 -0.07888685 0.13321318
0.016905554 0.028640097 0.06390028 -0.10485105 0.09476932 -0.023470363 0.08103181 0.04521328
0.062743396 0.11042018 0.12540191 0.09185596 0.08435912 0.097623765 0.051490728 0.02313369
0.07938516 0.029777667 0.039365996 0.08966542 -0.059583165 0.057031177 0.12409784 0.08236602
0.122049056 0.10547609 0.13593526 -0.092973344 -0.10656449 0.088690594 0.14297886 0.12835214
0.15867722 0.12634774 -0.1075504 0.10342741 0.1426825 0.14700559 0.09030657 0.09231732

action_model._discrete_distribution.branches.0.weight f4 [5, 16]
00000000: 5b03 a5bc e38f ca3c b054 e53b 3107 c1bc
00000010: 4853 6c3e f787 773e 96ce 82bd 8b76 633c
00000020: e38f 91bd 321d 92bd 4a6d b13b 2e90 153e
00000030: d4e7 22be 4728 9f3d 831f b83d 9282 f6bb
00000040: 08d9 bcba a94d a2bb b0e0 33be e6c2 6e3e
00000050: 2731 11be 9f2b 133b 4c15 423e 2d9b c9bd
00000060: 8ddc 17be b0f2 60be 1d6c 693e 30e6 273d
00000070: ea56 2a3e 222b 0dbe ca6a 123e 853d 683e
00000080: 873e 0f3d 4f5b d4bd 1d01 143e 2d7a 34be
00000090: 83b6 183e c9e7 06be 3aea 24be 2c0c 9c3d
000000a0: 7c89 423e 5e72 143e dd4d 66be 7a13 acbd
000000b0: 74fd e1bd ae37 413e 9c23 42be e812 76be
000000c0: 0ab1 023e 6324 393e 944c 8c3d cb8d 3abe
000000d0: 279c e7bd 2d39 973c a312 0f3e 6e6d 333e
000000e0: cd11 87bd a55b 4e3d 5ab2 143e dff5 46be
000000f0: d557 393e cddf 503e d30b 103e 4f08 893c
00000100: 1924 28be 4f97 5ebe d5bd 14be ec96 4a3e
00000110: 428e 9fbd 9e55 40be adfd 52be 3ab0 57be
00000120: 44a7 0d3e 4efc d7bd c11b 20be 1ebe 113e
00000130: 2766 fdbd f07a 29be 991f 55be 88cf bfbc
-0.020143202 0.024726814 0.006998621 -0.023563 0.23078644 0.2417296 -0.063870594 0.013883243
-0.07107522 -0.07134475 0.0054146396 0.14605781 -0.15908748 0.07771354 0.089903854 -0.0075228894
-0.0014407942 -0.0049531055 -0.1756618 0.23316535 -0.14178906 0.002245642 0.18953437 -0.098440506
-0.14830227 -0.21967578 0.22795148 0.04099101 0.16634718 -0.13785985 0.1429855 0.22679718
0.03497174 -0.10368978 0.1445355 -0.17624731 0.14913373 -0.13174357 -0.16104975 0.07619509
0.18997759 0.14496753 -0.2249064 -0.08402152 -0.110346705 0.18868896 -0.18958896 -0.2403065
0.12762848 0.18080287 0.068505436 -0.18218152 -0.113090806 0.01845988 0.13971953 0.17522213
-0.06595192 0.050380368 0.1452116 -0.1942973 0.18099912 0.20397873 0.1406701 0.016727595
-0.1642002 -0.21737407 -0.1452554 0.19784135 -0.077908054 -0.1878266 -0.20604582 -0.21063319
0.13833338 -0.1054617 -0.15635587 0.1423268 -0.12373 -0.16550803 -0.20812835 -0.023414388

action_model._discrete_distribution.branches.0.bias f4 [5]
00000000: de2d 63be 260a 433d 3ab7 9c3d 7252 8c3d
00000010: c98c 783d
-0.22185466 0.0476171 0.07652135 0.06851663 0.06068114

onnx::LSTM_98 f4 [1, 64, 128]
00000000: 364e a93d f37c 0bbc bfe0 a1bc bfa1 e93c
00000010: db28 183e 2e3d 8a3d e5bf 7f3d c91e 95bd
00000020: 1c96 7bbe 6b1d 823e 1ea0 edbd 4191 9ebd
00000030: f9eb 863d 3d8c d0bd 92bc 563e d1b5 07bc
00000040: 979b 543e b8cd 4d3d b035 853d a098 23bc
00000050: 23c4 423e aea0 353e 2b4a af3d fd3f 253e
00000060: 1481 243d 3be5 c8bd 8aac 3d3e 50cc 81bd
00000070: 5228 0bbd 92f2 2e3e 1c76 0f3e 1b8d 67bd
00000080: 3115 7b3e 816a e93d 82f1 623e 4590 a93d
00000090: 0a79 1e3a 023f 9dbd ab32 793e fcf9 bf3d
000000a0: b482 10bd 0b5e 5e3e f0c8 29bd 83e2 493e
000000b0: e4ab 413e 7f35 d9bd 36fd 733d 9816 2fbe
000000c0: 1feb 84bc 2129 44bd 14d6 e9bd ac54 19be
000000d0: a56a fe3d 313f dabd 7cfa 633e d4d4 763e
000000e0: 356d d43c 5a31 2f3e 086c 0f3e 7d42 543c
000000f0: 0a17 2d3e 51a3 f3bd 8611 5d3e 8016 4cbe
00000100: dc44 a73d 228e ddbd fb20 4f3d 8534 a63d
00000110: f9e0 ef3d 04a4 053e bd7f 633e cd72 9bbe
00000120: aa2f 61bd 7ef3 0fbe ae80 1b3e 5e10 593e
00000130: 2e27 8fbd fef8 96bc 1f56 033e 0129 5b3e
00000140: f42e c3bd e2ad 793e caee e63d d345 5f3e
00000150: bb29 393e 048c 543d 545f b13c 81d0 6cbc
00000160: baab 063d 18be 20be 3e3b 31bd abb8 63bd
00000170: 52a8 7f3e c66f 963d 8827 01be 053a 963c
00000180: 32d2 9dbd 6a94 903c 7376 d63d 3860 763e
00000190: f57a f93d 7a4b 673e 9a24 b73d 5d88 803d
000001a0: d013 2d3e e978 1e3e b880 1e3e b752 733e
000001b0: 01d1 4bbe 6ccf 3a3e 96c1 2c3d fd14 fa3d
000001c0: 232e 833e 7b55 7f3d 72c1 0a3e 5301 ebbd
000001d0: 022c b9bd 093d fc3c d4b6 26bd 2203 963e
000001e0: b1d1 4cbd 0ece 533e 903f 52be 5f1b 37bd
000001f0: 6029 8abd ed53 cc3d d2e5 503e 5ccb c33d
00000200: 1d40 a43d da9f 203e 777f 433e b060 253e
00000210: 14fa d1bd 49b2 9fbe 40da f8bd 96a3 52bd
00000220: 367a 1cbe fa82 c33d fd02 673e ff5c 44be
00000230: ef9d 2a3e 8a5b 73bc 3d54 18be 9e03 8b3d
00000240: bcdd 233d f6ce 21bd 67ea 23bd 21a6 a43e
00000250: 5edf e43d ba75 793e 2e70 393e d15c 733d
00000260: 4dec 3ebe 14ec cc3d 8f25 873e ff4b cfbc
00000270: c993 2cbd b795 183e fc1d 143e ffc4 0abe
00000280: 51e3 90bd f6a4 313e 1e65 8ebd cea0 a43d
00000290: aaad a83d f7cf d23d 2d22 f73d 82d2 eabd
000002a0: d84e a13c 5a8c d13d be82 a03d f619 61bd
000002b0: b8e8 843e 8a9b 6dbe d7cc 9ebd 8205 0dbe
000002c0: 6a71 6b3e 9e20 bb3d d420 98bd 6ad5 163e
000002d0: 787a 5a3e 40cc 963e 3855 8a3e 214c a23e
000002e0: 1abe 613e 8511 5a3c 1282 7c3e 64e0 1f3e
000002f0: de5e 34bd 6e9b 593e c75c d8bd 7ff0 19be
00000300: 9af5 39bd ac7a 793d 576c a3bd 1cf3 23bd
00000310: f241 903e a585 a03d 75ac bd3c 7a9d 90be
00000320: 444d 50be 174b 243d 4b2c a33d f4e2 893e
00000330: 9548 263e 7514 3c3e 3081 32be 621b b2bd
00000340: cd93 803d 59aa 203a 368c 323e 383e 713e
00000350: 7a82 26bd e25a 9f3c 67bf 03be c50d 923e
00000360: a863 39bd 65f2 c9bd 342b c43d 902b 11be
00000370: 24a7 173d d3eb 833d 81cc 283e cb56 443c
00000380: 1539 9fbd a28e 27bc ca08 473e 5e33 a83e
00000390: 2ce9 503e 27f3 d5bd 99d3 48bd f078 c53d
000003a0: 6955 6c3d 5900 ef3d 668e a3bd 218c 1c3e
000003b0: 8c51 89bc 2c7e c1bd 5001 61bd 1c71 343e
000003c0: 08a8 203e b787 613e dc52 963e 6fb4 3bbe
000003d0: 1daf 96be c88e 94bd f34a 373d 1e68 93bc
000003e0: 7807 923e 4763 e3bd c208 b83d e576 533e
000003f0: 0673 9e3e 552d 743e d4ab 053e fd96 7b3e
0.08266871 -0.008513677 -0.019760488 0.02851951 0.14859335 0.0674995 0.062438864 -0.072812624
-0.24568981 0.2541307 -0.116028056 -0.07742549 0.06587977 -0.10182998 0.20970371 -0.0082830945
0.20762478 0.050245017 0.06504381 -0.009985119 0.19020133 0.17737076 0.08559068 0.16137691
0.04016216 -0.09809347 0.1852285 -0.06337798 -0.033974 0.1708472 0.14009899 -0.056531053
0.24519803 0.11397267 0.2216244 0.0827947 0.0006045258 -0.076780334 0.24335735 0.093738526
-0.0352809 0.21715562 -0.041451395 0.19715314 0.18913227 -0.10605907 0.059567653 -0.17098463
-0.016225396 -0.047890786 -0.11417785 -0.14973706 0.124226846 -0.10656584 0.22263521 0.24104625
0.02593098 0.1710867 0.14006054 0.012955305 0.1690332 -0.118963845 0.21588716 -0.19930458
0.08167431 -0.10818125 0.050568562 0.08115486 0.11712832 0.13050848 0.22216697 -0.30361024
-0.054977097 -0.14057729 0.15185806 0.2119765 -0.06989895 -0.018429276 0.12825821 0.2140236
-0.0953044 0.24382737 0.11276014 0.2180398 0.18082325 0.05189134 0.021651901 -0.014454008
0.032878615 -0.15697515 -0.04326939 -0.055596035 0.24966553 0.07345538 -0.12612736 0.018338213
-0.07706107 0.017648894 0.10471811 0.24060142 0.12181655 0.22587386 0.08942528 0.06276009
0.16902089 0.15475811 0.1547879 0.23762022 -0.19903947 0.18243188 0.042176805 0.122110344
0.25621137 0.06233738 0.13550356 -0.11474862 -0.09041597 0.030790823 -0.040701702 0.29299265
-0.050004665 0.20684072 -0.2053206 -0.044703837 -0.06746173 0.09976945 0.2040017 0.09560272
0.08020041 0.15685979 0.19091593 0.16150165 -0.10252777 -0.31190708 -0.12151003 -0.05142554
-0.15280995 0.09546466 0.22559734 -0.191761 0.1666181 -0.014853368 -0.14875884 0.06787799
0.040006384 -0.039504014 -0.040018465 0.32157996 0.111754164 0.24361315 0.181092 0.05941469
-0.18644829 0.10005966 0.26395842 -0.025304792 -0.042133126 0.14900862 0.14464563 -0.1355171
-0.07074607 0.17348084 -0.0695288 0.080384836 0.08236249 0.102935724 0.120670654 -0.114659324
0.019690916 0.10231848 0.07837437 -0.0549564 0.259588 -0.23203865 -0.07753914 -0.13771632
0.22992483 0.091370806 -0.074281365 0.14729849 0.2133578 0.29452705 0.27018142 0.31698707
0.22045174 0.013309841 0.24658993 0.15612942 -0.044035785 0.21250698 -0.10564571 -0.15033148
-0.04540024 0.060908005 -0.079796486 -0.04002677 0.28175312 0.07837991 0.023153523 -0.28245145
-0.20341974 0.040110674 0.079674326 0.26930964 0.16238625 0.18367179 -0.17432094 -0.08696629
0.06278191 0.00061288994 0.17436299 0.23558891 -0.040651776 0.019452516 -0.12865983 0.2852613
-0.045261055 -0.09860686 0.09578553 -0.14176774 0.037024632 0.06441464 0.16484262 0.011983584
-0.077745594 -0.010226877 0.19436947 0.3285169 0.20401448 -0.10446768 -0.04902992 0.096422076
0.05769864 0.11669988 -0.07986145 0.1528783 -0.016762517 -0.094478935 -0.054932892 0.17621273
0.15689099 0.22024427 0.29360092 -0.18330549 -0.29430476 -0.07253796 0.04474921 -0.017993983
0.28521323 -0.1110292 0.089860454 0.20650823 0.3094713 0.23845418 0.13053828 0.24569316

onnx::LSTM_99 f4 [1, 64, 16]
00000000: 7ada 4cbe 5e44 6e3e e126 7cbe 82a4 9b3e
00000010: d791 443d 7bd9 e5be 787f bdbe 7472 ce3e
00000020: 260f 9d3e ef01 a4be 1a89 92bd 9b9e 7ebc
00000030: a25a 023e 9dc8 ab3e 07d6 ba3e 4b15 81be
00000040: 7395 91be d33b 91be 5467 453e 0460 42bc
00000050: 8f1e b3be c85a 333e 7ef3 743c deab 30be
00000060: ad2c d03e e27c b7bc 6697 2bbe dddf ae3d
00000070: 3bbf b23e c6df 1ebe d121 54bd e069 24bd
00000080: dcbc 923e 1b2d 24be f820 94be 083c 6f3e
00000090: 0d7d c5be d68a 7f3e 2ac3 7bbd e222 d83d
000000a0: ff1c 9f3e 24e4 6dbe f7b0 dd3d 8122 a4be
000000b0: f85a 903e f101 a73e d09e c03d d591 4fbe
000000c0: 4c94 913e f599 b1bd a0b0 cbbd 0554 293d
000000d0: eb4e fcbd 3d3d b8bd cf77 4a3e e329 c2be
000000e0: 1442 8dbe 7f93 fc3e 77b2 c23e 18da ab3e
000000f0: 7307 aabe 1374 b1bc 8178 b03e 710b d4be
00000100: 97b8 27bd 1fec ca3e 9bb3 923e 0844 b83e
00000110: 59f8 bd3e f201 823e c380 f5bd 93cc e13e
00000120: 0d4e 0dbe 254b a8bd 22f2 5d3e b9b5 7ebe
00000130: 08c7 c43e fe0f 0c3e f71f 21be b5e1 ae3e
00000140: 3ade c3bd c378 a5be 011e d6be 7ddf dabe
00000150: 53d2 a33d 5e7d 5f3e 8904 74be da8e 54be
00000160: 1d3a aa3c ce51 323e 32e8 c0be 2712 913e
00000170: 52d9 afbe 896e c5bd f2f1 0e3e 90ff d0be
00000180: 035a b8be 8a41 463e dc54 55be 4b77 3ebe
00000190: ebe5 30be 672f 983d f836 953c dbb7 363e
000001a0: 9890 273e 0580 a23e 56c1 203e 9e8f 3dbe
000001b0: 57b7 f73d d6bc 263e 140e be3e b807 c53e
000001c0: 9ca9 a53e 660c 903e dfcf 033e 38a3 303e
000001d0: 4e4c fabd cb48 f0be 8205 223e 40cd 66be
000001e0: 51f9 193d 168a 2bbd b33f 79be 1cd9 d93e
000001f0: 9056 1f3e 7c49 153d 4802 a7be 36ad 8bbe
00000200: 02b4 b63e bf56 bfbd c35f a2be 0329 20bc
00000210: e689 133d f511 443e ed9f d33e a485 393c
00000220: 184f b23e 26f6 a1be 8f04 843e 22df bb3e
00000230: acd1 51be 3033 2a3d d11b d33d b343 67be
00000240: 6a10 9f3e bfec 493e ea92 a8bc cd69 19be
00000250: c963 07bf c077 eabe 569d 83be 8d23 d33d
00000260: 7f38 9a3e 789e 0c3e 6524 a6be b077 36bd
00000270: d400 953e 0ca3 abbc cb6b 0abe 1115 893e
00000280: 59c5 2dbe 5607 9f3e 8154 abbd cdfc d03e
00000290: a78c 3e3d 0171 f3be e4db c2be e4fb 7ebd
000002a0: d9ef 553e 66cd e23e 8a2f cabd 12a6 88bd
000002b0: 8e3a 24be 049f b23d 23d0 f1bd 485b 073e
000002c0: 5177 5c3e 38c1 793e 4067 9cbd 01fb d8be
000002d0: ecac c8be 0206 3dbe 27bd 8ebe 640d 8e3e
000002e0: 4ac2 14be f630 97be 4689 763e add8 173e
000002f0: b8b7 db3e dd01 9dbe a1f1 59be 3b6a b8bb
00000300: e0af ca3d f53a 463d 0bbe c83e b472 68be
00000310: 86e4 433e d990 f1be f9cf 973d 3a2b 7cbe
00000320: 53eb 84be a631 90be 1fd7 523e 6339 fabd
00000330: c38e a3be 2bed 9cbe ec03 10be 32fb a63c
00000340: 677e 05bf f600 bb3e 8145 13be 494b a13e
00000350: 545b 52bd 953f c6be 8b25 b2bd c861 df3d
00000360: 2901 883d aa74 dcbd 89f2 49be 6c09 12be
00000370: 49a7 c9bd c199 b4bd 94c9 993e 23c8 243e
00000380: e5a1 69be 541d acbe 1e6d 393e 0ea5 183e
00000390: 0d8b d6be 3ce5 51be 4cbf 6c3d 413b 493e
000003a0: 3e96 f9bd a640 d63d fe79 ffbd b6be 1c3e
000003b0: fea6 91be 78d3 5a3e 4802 fe3d cf9a 3e3e
000003c0: 1b30 6b3b 4d8f 3bba f9ec 58be 7f3c 89be
000003d0: d8c9 8dbe 3d04 8fbe 99f6 5b3e b721 3cbe
000003e0: c105 83be d58f 04bd e8d3 84bd 4df6 c83d
000003f0: 9a1c b9bd 27c2 1ebd 64e0 2cbe dcdf d4be
-0.20005217 0.23268268 -0.24624206 0.30398947 0.047990646 -0.44892487 -0.37011313 0.40321696
0.3067562 -0.32032725 -0.07155056 -0.015540744 0.12729886 0.33551493 0.36491415 -0.25211558
-0.28434333 -0.28365955 0.19277698 -0.011863712 -0.34984252 0.17515099 0.014950631 -0.17253062
0.40659085 -0.022398416 -0.16756973 0.08538792 0.34911522 -0.1551505 -0.051790062 -0.040140033
0.28659713 -0.16032831 -0.28931403 0.23362744 -0.3857197 0.24955305 -0.06146542 0.10553528
0.3107681 -0.2323156 0.10824769 -0.32057574 0.28194404 0.3261867 0.09405291 -0.20270474
0.28433454 -0.08671943 -0.09945798 0.041339893 -0.1231974 -0.08996055 0.19772266 -0.37922582
-0.27589476 0.4933128 0.38026783 0.3356483 -0.33208808 -0.021661794 0.34466937 -0.4141498
-0.040947523 0.3963327 0.28652653 0.35989404 0.37103537 0.2539211 -0.1198745 0.4410139
-0.13799305 -0.08217458 0.21674398 -0.24874009 0.384331 0.13677976 -0.1573485 0.34156576
-0.09563871 -0.32318696 -0.41819766 -0.42748633 0.079991005 0.21825168 -0.23829855 -0.20757619
0.020779664 0.17414019 -0.3767715 0.28334162 -0.3434549 -0.096402235 0.13959482 -0.4081998
-0.36006173 0.19360939 -0.20833153 -0.18600194 -0.17275207 0.07430916 0.018214688 0.17843573
0.16363752 0.31738296 0.15698752 -0.18511817 0.12095516 0.16282973 0.37120116 0.3848245
0.32355964 0.2813446 0.12872265 0.17249763 -0.12221585 -0.46930537 0.15822414 -0.22539234
0.037591282 -0.041879736 -0.24340706 0.42548454 0.15560365 0.036447033 -0.32618928 -0.27280587
0.3568421 -0.093427174 -0.31713685 -0.009775403 0.036020182 0.19147475 0.4133295 0.011323366
0.3482597 -0.3163311 0.25784728 0.36693674 -0.2049014 0.041552722 0.1030804 -0.22584419
0.3106721 0.19719218 -0.020577867 -0.14981766 -0.52886635 -0.45794487 -0.25705975 0.10309515
0.30121228 0.13732326 -0.32449642 -0.044547737 0.29102194 -0.02095177 -0.13517682 0.26773885
-0.16969813 0.31060284 -0.08365727 0.40817872 0.046520855 -0.47547153 -0.38058388 -0.06225194
0.20892276 0.44297332 -0.098723486 -0.066723004 -0.16037962 0.08721736 -0.11807277 0.13218415
0.2152989 0.24390113 -0.07636881 -0.42379 -0.3919443 -0.18459323 -0.27878687 0.2774459
-0.1452724 -0.29529542 0.24075803 0.14828749 0.42913604 -0.30665484 -0.2128358 -0.005627898
0.09896827 0.04839607 0.3920749 -0.22700006 0.19130144 -0.47180822 0.074127145 -0.24625865
-0.25960788 -0.2816288 0.20589875 -0.12217977 -0.31944856 -0.30649695 -0.14063996 0.020383451
-0.52146 0.3652417 -0.14381982 0.3150275 -0.05135663 -0.38720384 -0.08698567 0.10907322
0.06640846 -0.107644394 -0.19721426 -0.14261407 -0.0984636 -0.08818389 0.30036604 0.16091971
-0.22815664 -0.33616126 0.18108031 0.14906713 -0.41902962 -0.20497602 0.057799622 0.1965151
-0.121868595 0.104615495 -0.1247444 0.15307125 -0.28447717 0.21369731 0.12402779 0.18613742
0.0035886827 -0.00071548374 -0.21184148 -0.26803967 -0.27693057 -0.2793292 0.21480788 -0.18372236
-0.25590327 -0.03236373 -0.064857304 0.09812603 -0.090386584 -0.038759377 -0.16882473 -0.4157704

onnx::LSTM_100 f4 [1, 128]
00000000: 3a34 ce3d 7a9c 0b3e 9d4e 083e a020 243e
00000010: 5db2 5b3d 811a c73c dc3d 223e 3f6f f23d
00000020: ad27 173e b56a 053e 5a4d 2e3e 3ef4 af3d
00000030: d5d3 e13d 8703 1b3e d342 1e3e 42a8 2c3e
00000040: 26f9 f03d b929 083e a334 093e 53d5 f73d
00000050: 6f62 643d 355d 943d 3831 103e 8b8c fb3d
00000060: c193 033e f108 153e 8e1b 203e c2cf ac3d
00000070: a011 ff3d 77a8 1f3e 87b6 113e 4aaa 153e
00000080: 8a67 773f a1fe 743f 825f 713f 2abf 793f
00000090: b118 793f 004a 833f 14a9 7e3f 673f 6d3f
000000a0: e843 7f3f 608b 793f 475f 843f 7b2f 7f3f
000000b0: a3ce 703f 8090 833f e820 733f bcbe 823f
000000c0: 695f d03c 48a0 48bb 9f17 333c d530 71bb
000000d0: bc38 0dbc 3800 40bd 58a6 adbb 2738 c83b
000000e0: b52c 45bb a294 bb3c b5cf 3bbc df41 2fbd
000000f0: d476 823c fa71 35bc d1eb c1bc 9de6 8abb
00000100: 3a34 ce3d 7a9c 0b3e 9d4e 083e a020 243e
00000110: 5db2 5b3d 811a c73c dc3d 223e 3f6f f23d
00000120: ad27 173e b56a 053e 5a4d 2e3e 3ef4 af3d
00000130: d5d3 e13d 8703 1b3e d342 1e3e 42a8 2c3e
00000140: 26f9 f03d b929 083e a334 093e 53d5 f73d
00000150: 6f62 643d 355d 943d 3831 103e 8b8c fb3d
00000160: c193 033e f108 153e 8e1b 203e c2cf ac3d
00000170: a011 ff3d 77a8 1f3e 87b6 113e 4aaa 153e
00000180: 8a67 773f a1fe 743f 825f 713f 2abf 793f
00000190: b118 793f 004a 833f 14a9 7e3f 673f 6d3f
000001a0: e843 7f3f 608b 793f 475f 843f 7b2f 7f3f
000001b0: a3ce 703f 8090 833f e820 733f bcbe 823f
000001c0: 695f d03c 48a0 48bb 9f17 333c d530 71bb
000001d0: bc38 0dbc 3800 40bd 58a6 adbb 2738 c83b
000001e0: b52c 45bb a294 bb3c b5cf 3bbc df41 2fbd
000001f0: d476 823c fa71 35bc d1eb c1bc 9de6 8abb
0.10068555 0.1363391 0.13311239 0.1602807 0.053636897 0.02430463 0.1584391 0.11837625
0.14761229 0.13028987 0.17021695 0.085915074 0.11026732 0.15138064 0.15455179 0.1686106
0.11766271 0.13297166 0.13398986 0.12101235 0.055757936 0.0724434 0.14081275 0.12282666
0.12849332 0.14554192 0.15635511 0.08438064 0.124545336 0.15591608 0.14229785 0.14615741
0.96642363 0.9570103 0.9428636 0.9755732 0.973033 1.0256958 0.9947674 0.9267487
0.9971299 0.97478294 1.0341576 0.99681824 0.940653 1.0278473 0.94972086 1.0214458
0.02543612 -0.0030613113 0.010930925 -0.0036802788 -0.008619484 -0.04687521 -0.0052993707 0.0061102095
-0.0030086462 0.022898022 -0.011463095 -0.04278743 0.015925802 -0.011074537 -0.023672016 -0.004238917
0.10068555 0.1363391 0.13311239 0.1602807 0.053636897 0.02430463 0.1584391 0.11837625
0.14761229 0.13028987 0.17021695 0.085915074 0.11026732 0.15138064 0.15455179 0.1686106
0.11766271 0.13297166 0.13398986 0.12101235 0.055757936 0.0724434 0.14081275 0.12282666
0.12849332 0.14554192 0.15635511 0.08438064 0.124545336 0.15591608 0.14229785 0.14615741
0.96642363 0.9570103 0.9428636 0.9755732 0.973033 1.0256958 0.9947674 0.9267487
0.9971299 0.97478294 1.0341576 0.99681824 0.940653 1.0278473 0.94972086 1.0214458
0.02543612 -0.0030613113 0.010930925 -0.0036802788 -0.008619484 -0.04687521 -0.0052993707 0.0061102095
-0.0030086462 0.022898022 -0.011463095 -0.04278743 0.015925802 -0.011074537 -0.023672016 -0.004238917
