Scenes/ImprovedGridWorld2D/results/ppo-memory-8-curriculum/DroneGrid2D/DroneGrid2D-299911.pt (torch, 671405 bytes, 57 tensors)

network_body._body_endoder.seq_layers.0.weight f4 [128, 6]
000000 c8 6b e1 3e fa af c2 be 45 e5 cd 3d 55 6f e7 3e
       0.44027543 -0.38024884 0.10053495 0.45202127
000010 46 36 16 bf 22 28 f0 be 63 71 11 3f 29 e5 76 bd
       -0.58676565 -0.4690562 0.5681364 -0.060277138
000020 7d eb 1d 3d 5b 03 73 bc d0 cd 80 3e 91 3f 1e be
       0.038554657 -0.014832343 0.25157022 -0.15453936
000030 c5 05 15 bd aa ca bd 3e bc 74 e5 be bf 8f bc 3a
       -0.036382455 0.37068683 -0.44815624 0.0014386101
000040 86 d2 02 3f 48 a5 97 be b8 3b a1 3d 13 e0 56 3d
       0.51102483 -0.29618287 0.078727186 0.052459788
000050 be d3 39 3e eb a3 8d bf 9d 4c c6 3e 90 48 52 3f
       0.1814718 -1.1065649 0.38730326 0.8214197
000060 00 f6 35 bf 73 71 2d 3f 7c 6d 32 3f 9b e1 62 be
       -0.7107849 0.67751235 0.6969831 -0.22156374
000070 ab 7d de bd 45 ba 83 be 29 96 01 3f e8 b1 0e be
       -0.10863813 -0.2572805 0.5061975 -0.13935053
000080 d3 a6 90 be a4 0d b2 3d 48 af 66 bf 3d 88 70 be
       -0.28252277 0.08694008 -0.9011121 -0.23489471
000090 2a 75 2d 3e 59 02 91 3e 01 6e b6 3e f0 c8 e2 3e
       0.16939226 0.28322104 0.356308 0.44293928
0000a0 54 8a c0 3e 36 2a 90 bf 6c 62 c0 3d 91 2f da 3e
       0.37605536 -1.1262882 0.093937725 0.42614415
0000b0 d1 0b 35 3f a5 a7 41 3f 58 da ed be 6d 7c 2d 3f
       0.70721155 0.7564643 -0.46455646 0.67767984
0000c0 fc fc 93 3e bb 48 e3 3e da e8 24 3f 0f fe f3 be
       0.2890395 0.44391426 0.64417803 -0.4765477
0000d0 67 1d 0a bf e6 98 f0 3d 29 a9 fc 3e ac 28 3b bf
       -0.53951114 0.11747913 0.4934781 -0.73108935
0000e0 33 f2 3f 3f 4a 9f 64 3f da d4 41 bf 5e 1a be be
       0.7497894 0.89305556 -0.7571541 -0.37129492
0000f0 4b c1 4d 3d dc 59 81 bd a4 37 98 3e 0c 95 09 bd
       0.050233167 -0.063159674 0.2972995 -0.033589408
000100 2c 64 35 3e 6b 99 21 bf 39 d6 41 3c 90 b8 bd be
       0.17713994 -0.6312472 0.01183086 -0.37054873
000110 27 0c ae 3c 21 d3 19 be 18 d0 38 3f f9 ba b0 3e
       0.021246029 -0.15021946 0.72192526 0.3451765
000120 69 e2 92 3d 11 3c 05 bf 2a 57 b0 3e 60 7b 42 3f
       0.071720906 -0.5204478 0.344415 0.75969505
000130 f7 b5 93 3e e7 c2 8d 3b 95 25 6a be 9d 8c 19 3f
       0.28849766 0.0043262127 -0.22865899 0.59980184
000140 c2 ac 01 3e b6 4a 73 3e 6c 9f 82 be 4c 92 e9 3e
       0.12663558 0.23758969 -0.25512254 0.45619428
000150 49 e9 11 3f c1 27 31 bf 17 90 20 3f dc a5 43 bd
       0.5699659 -0.69201285 0.62719864 -0.047765598
000160 26 83 8a be 9a b4 1d bf 08 aa 15 be c8 9f 8d 3e
       -0.27053183 -0.616037 -0.14615643 0.27660966
000170 0a 57 9b 3e 57 4c 09 bd 60 1e 74 3f a0 65 dc be
       0.30339843 -0.03352007 0.9535885 -0.43046284
000180 7d e9 a2 3e 7c c9 a7 3d 9f 7a 06 bd a0 8d f9 3e
       0.31818762 0.08192727 -0.032831784 0.48740864
000190 6e d8 d9 3e d3 b4 d8 3e 55 b8 df 3c 08 68 e8 3d
       0.42547935 0.42325458 0.027309576 0.113479674
0001a0 1e 61 7a 3f 5f bc 21 3f 5c 04 59 bd 16 86 0d 3f
       0.9780444 0.63178056 -0.052982673 0.55282724
0001b0 ff 24 8e 3e 75 73 d0 bd f7 23 39 3e 9f 98 b1 3e
       0.277626 -0.10178272 0.18080126 0.34686753
0001c0 9d ef 2b 3f fb 1d 89 3f 36 11 e1 be 8b 76 a4 be
       0.67162496 1.0712274 -0.43958443 -0.3212169
0001d0 18 7d a7 be be eb 24 3f db f8 63 be f9 12 d3 be
       -0.32712626 0.64422214 -0.222629 -0.41225412
0001e0 a8 d8 e5 3e 09 84 52 3d d4 5e 2e 3f 1a e0 9a be
       0.44891858 0.05139545 0.68113446 -0.302491
0001f0 66 99 20 3f 7e 00 94 3d d1 13 87 3d 8e 5a 30 3f
       0.6273407 0.072266564 0.065955766 0.68888175
000200 f9 3a 19 be a2 e7 04 bf 52 ad 9b 3e 85 f3 bf bd
       -0.14963903 -0.51915944 0.3040567 -0.093726195
000210 da 5d 75 3f 40 b9 36 be 07 8e aa 3e bc cf 59 3e
       0.9584633 -0.17844105 0.33311483 0.2127065
000220 54 14 ea 3d 30 4a 8b bd 49 82 35 bb 8a 15 52 bd
       0.114296585 -0.068012595 -0.0027696064 -0.051290073
000230 3e 43 9d be 98 37 5c be dd 9c 4d be b5 65 03 bf
       -0.30715364 -0.21505582 -0.2007937 -0.5132707
000240 99 e3 6b 3e 64 f5 c5 be 63 31 84 be e5 a0 9f be
       0.2303604 -0.3866378 -0.2581893 -0.3117744
000250 13 22 cd be 74 bc 3c 3e 09 66 21 3f d3 2b c3 3e
       -0.4006506 0.18431264 0.6304632 0.38119373
000260 d2 43 1f 3f 7c 8c 0a bf 3d 1a 36 3f 22 e3 2c 3f
       0.6221286 -0.5412061 0.71133786 0.6753408
000270 e7 d9 c0 be 5f 50 89 be ab 6a d4 3d 17 0e a7 be
       -0.37666246 -0.2681913 0.10371908 -0.32627937
000280 f1 8e e8 be 46 c1 89 be dd 66 8f be a8 46 0a 3f
       -0.45421556 -0.26905268 -0.28008166 0.5401406
000290 b8 6c 1f bf 50 88 63 bd 05 67 81 bf 1a e2 60 3e
       -0.62275267 -0.05554992 -1.0109564 0.21961251
0002a0 29 74 bb 3c f4 69 15 bf d3 35 93 be 19 a1 14 3f
       0.022882538 -0.58364797 -0.28752002 0.58058316
0002b0 91 32 5e be 18 ce 31 3f 99 c6 4b bf e8 cd d2 3d
       -0.21698977 0.694551 -0.7959991 0.1029318
0002c0 af 0f 4d bf 6f 45 96 3d 16 fb 1d 3f 24 a7 41 be
       -0.80102056 0.07337462 0.6171125 -0.18911415
0002d0 8f 94 bf bd c8 c7 2d bf 66 c6 af 3d 48 0e bc be
       -0.09354507 -0.67882967 0.085827634 -0.36729646
0002e0 89 67 75 be ac 1a a0 bd 52 69 3a be fc 60 ce bc
       -0.23965277 -0.07817587 -0.18204239 -0.02519273
0002f0 c3 9a cd 3e 5c df 68 3e 76 31 09 3f 81 4d 14 3f
       0.40157136 0.22741455 0.53591096 0.5793076
000300 5a 76 01 3f 66 d2 b2 be 51 b4 76 bf d7 8c 6c be
       0.50571215 -0.34926146 -0.9636889 -0.23100601
000310 d4 40 b0 be 7f da 89 bd 9c f1 89 3d 17 66 3b be
       -0.3442446 -0.06731128 0.067355365 -0.18300663
000320 e2 12 28 3f de bd 35 3d 58 4f 28 bc 46 3b 9b 3e
       0.6565381 0.044370525 -0.010272823 0.3031866
000330 06 fa 6a 3e 73 7e 3a 3e 73 a9 a2 3e 5c b2 07 3f
       0.22946939 0.18212299 0.31769904 0.5300653
000340 7c 58 4e bf 76 36 14 bf fc 13 04 be 2b a9 b5 be
       -0.80603766 -0.578956 -0.12898248 -0.35480627
000350 17 9c 68 be b1 fe 3f be 71 2c 89 be 31 af 80 bf
       -0.22715794 -0.18749501 -0.2679172 -1.0053464
000360 e4 f3 91 bc 42 80 5c bf 6c e1 ca be 8a 45 26 3f
       -0.017816491 -0.86133206 -0.39625108 0.6494986
000370 b8 96 ef be 4f e1 55 3d c9 5b aa be ed 87 f2 be
       -0.46794677 0.052216824 -0.33273152 -0.47369328
000380 e4 a4 74 bf 30 8a cf 3d 8f be fc be ff a1 29 be
       -0.95564103 0.10133779 -0.49364135 -0.16565703
000390 2f 6f ff 3e 52 33 cf 3e b0 9e 97 3e a6 cf a9 be
       0.49889514 0.40468842 0.29613256 -0.33166236
0003a0 ad 86 8e 3f dc 31 a3 bf 92 de 8f 3e 75 6e 54 3f
       1.113485 -1.2749591 0.28099495 0.82981044
0003b0 be 8a 8a be 6c ab 48 be 53 0d 45 be 28 3e 42 3f
       -0.27058977 -0.19596642 -0.19243364 0.7587609
0003c0 16 02 ee 3e d0 bc bd be 49 ee 24 3e 37 f2 af 3e
       0.46485966 -0.37058115 0.16106524 0.34364483
0003d0 b5 dc 8f be e8 6b 80 bf bd ee a0 3c 1e 7e b7 3b
       -0.28098074 -1.003293 0.01964509 0.005599751
0003e0 16 39 e1 3e c9 3d 24 3f a3 57 20 3f d7 e2 7a bd
       0.43988866 0.64156777 0.62633723 -0.061251488
0003f0 51 1f 09 be 0d 8a 05 be f8 40 c4 bd 4f 1b 48 be
       -0.13390853 -0.13040943 -0.09582704 -0.19541667

network_body._body_endoder.seq_layers.0.bias f4 [128]
000000 74 5e c0 3d 69 75 26 be c9 70 c4 3d 83 1a 5d 3d
       0.093930155 -0.16255726 0.095918246 0.05398036
000010 4e 7d 5b bd da a5 bd 3d 96 11 cd 3c 24 d9 43 3d
       -0.053586297 0.09260149 0.0250328 0.047814503
000020 aa 91 0f 3e 16 23 33 3e 30 28 f7 3c 2e 32 32 3d
       0.1402041 0.17493853 0.03017053 0.043504886
000030 cd 68 12 3e 32 0b c5 3d 2e fd d2 3d 69 b4 1d 3e
       0.14297791 0.09621276 0.103021964 0.15400852
000040 b0 07 11 3e 08 45 16 3e f1 d8 a7 3d 82 95 ca bd
       0.14163089 0.14674771 0.08195675 -0.098917976
000050 a1 70 dc 3d 81 07 00 be e4 35 17 3e 4d f5 1b 3e
       0.1076367 -0.12502863 0.14766651 0.15230294
000060 67 58 05 be d6 ed c5 3d bc 68 03 be e0 55 90 3d
       -0.13022004 0.09664504 -0.12832922 0.07047629
000070 1e ea 06 3e dc 16 c4 3d 94 bf 21 be 8c 38 84 bd
       0.13175246 0.095746726 -0.15795738 -0.06456098
000080 34 eb f6 bd 88 89 ff 3d c7 80 1d 3e 9c 36 b5 3d
       -0.1205658 0.12477404 0.15381156 0.088483065
000090 c1 b4 f9 3d d3 bc 22 be c5 53 0d 3e 9c 28 cf bc
       0.12192679 -0.15892343 0.13801487 -0.025287919
0000a0 79 0f c1 3d 81 dd bd 3d 17 28 8f bd 8a fe ce bd
       0.09426779 0.09270764 -0.069900684 -0.10107143
0000b0 14 bd e4 3c 05 0a 51 3c ac 2e 26 3e 7c 4b b8 bc
       0.02792219 0.0127587365 0.16228741 -0.022496931
0000c0 2f d6 b3 bd 02 87 08 3e f6 30 af 3c 0a 39 14 3e
       -0.08781087 0.13332751 0.021385651 0.14474884
0000d0 da 28 42 bb 19 e5 b8 bd 48 79 56 3d 54 55 f5 3d
       -0.00296264 -0.09028072 0.052361757 0.11979166
0000e0 68 b8 41 3d e9 f0 54 3d 2e 23 8d bd c9 e8 c5 3d
       0.047295004 0.051987562 -0.068914756 0.09663541
0000f0 c1 bf 97 3d b9 a3 e6 3c 2f 87 20 3e 26 f8 88 3d
       0.07409621 0.02815424 0.15676568 0.066879556
000100 9b 96 1e 3d 0e a4 cd 3c 05 88 eb 3c cc 9e c7 3d
       0.038717847 0.025102641 0.028751383 0.09747085
000110 57 c0 8c 3d 1a d7 79 bd 84 d1 d3 bd af e5 21 be
       0.068726234 -0.060996152 -0.10342696 -0.15810274
000120 59 5d 25 3e d9 b2 28 3e 29 15 ae 3d 07 41 33 3d
       0.1614889 0.16474475 0.0850013 0.043763187
000130 6f b6 d7 3d 4f aa 10 3e 95 af 19 3e dc f7 76 bd
       0.10532843 0.14127468 0.15008385 -0.06029497
000140 86 b4 1b 3e 01 d9 e0 3d f9 23 37 3d ce cf 6d bc
       0.15205583 0.1097889 0.04471204 -0.0145148765
000150 22 fd bd 3d 59 78 ba 3c 59 d1 03 3d ce 33 1e 3d
       0.09276797 0.022762464 0.03218207 0.038623624
000160 3d 4e 54 bd 13 6a 2e be 6e c1 06 be e9 a5 01 3e
       -0.051832426 -0.17032652 -0.13159725 0.12660946
000170 e5 ba ff bc b0 22 f7 3d 7a c7 7f bc 2e 64 01 3e
       -0.031217048 0.12067163 -0.015611524 0.12635872
000180 9e 23 0a be af 22 33 bd 0a c9 bc 3d fe 06 13 3e
       -0.1349015 -0.04373425 0.09218033 0.14358136
000190 fe f3 dd 3d da 84 1b 3d 8c 46 17 3e d4 1e df 3d
       0.108375534 0.037968494 0.14773005 0.10894552
0001a0 dc 5c ba 3d 88 db 61 3d 0e 46 9d 3d f0 64 25 3e
       0.09099743 0.055141002 0.076793775 0.16151786
0001b0 e8 68 a5 3d 7e 61 de bd fc 15 cc 3d f9 62 3c bc
       0.0807665 -0.10858439 0.09965131 -0.011498206
0001c0 3e b7 be 3d d6 7c 32 be 9d 56 75 bd 4d d3 97 bc
       0.093122944 -0.17430434 -0.059897054 -0.018533373
0001d0 b0 8f c9 3d 71 db a1 3b 4b 08 eb bd 8b ec ea ba
       0.09841859 0.0049394895 -0.11476191 -0.0017923279
0001e0 18 f9 c8 bc c8 c5 35 3d d5 b7 e3 3d b9 e6 23 3e
       -0.02453284 0.044378072 0.111190476 0.16005982
0001f0 cc da f0 3d 6a 9d 3b be 76 a4 e8 3c 85 c5 e6 3d
       0.11760482 -0.18321767 0.028398734 0.112681426

network_body._body_endoder.seq_layers.2.weight f4 [128, 128]
000000 db 26 a7 bc 97 d9 ed 3b 3c 33 31 3d 7c 4d c1 3d
       -0.02040427 0.0072586047 0.04326175 0.09438607
000010 f5 1c e1 3d 4d 05 ad be a8 a9 c7 3d b9 47 14 bd
       0.10991851 -0.33793107 0.09749156 -0.036201213
000020 83 36 1a be 4f 2a 12 be ea 82 89 bc 94 d5 04 3d
       -0.15059857 -0.14273952 -0.016786058 0.032430246
000030 14 49 31 bd ea df c1 bb 11 d7 1d 3e 48 d5 89 3c
       -0.043282583 -0.005916585 0.15414073 0.016825333
000040 bd 6e 3a bd fd 1c 12 3e d9 b5 b8 bd cb 79 3f bd
       -0.045515765 0.1426887 -0.0901906 -0.04674701
000050 27 81 b7 3c 48 9f a2 3d df eb be bd ad 81 ab 3d
       0.022400452 0.07940537 -0.093223326 0.08374343
000060 5b 1b 9d 3c 05 8e 01 be 61 09 ed bd ab ff 8a bd
       0.019178083 -0.12651832 -0.115740545 -0.06787046
000070 88 c4 7c 3d 85 88 1e 3d 6b 87 33 bc b2 eb ad 3c
       0.061710864 0.038704414 -0.010957579 0.021230552
000080 e9 8f fb bc 19 c6 22 3c 58 7e ef bb ec 03 ed 3d
       -0.03070827 0.0099349255 -0.0073087625 0.11573014
000090 f6 2c 1d bc 40 b8 fb bc 33 7f 87 3d da a5 7a bc
       -0.009593239 -0.030727506 0.06616058 -0.015298331
0000a0 f8 a0 03 3d 61 52 ba 3d 20 37 3b bd 9e 58 ab bd
       0.032135934 0.09097744 -0.04570687 -0.08366512
0000b0 b6 c9 bc bd 7e 11 98 39 3a 2a 70 bd a5 dd 35 bd
       -0.09218161 0.00029004732 -0.05863402 -0.04440083
0000c0 b7 38 d8 3d 83 54 da bb 8a c6 5a be e4 7f 36 be
       0.105576925 -0.0066629066 -0.21364799 -0.17822224
0000d0 a7 e6 ff 3b 3d 9e 67 3d 0a 9b da 3d 06 26 0e 3e
       0.0078094783 0.056547392 0.106741026 0.13881692
0000e0 05 d1 20 3d 12 a4 4b 3d 33 e7 dc 3d ce 96 48 bd
       0.039261837 0.049717017 0.10786285 -0.048971944
0000f0 50 55 6d be 5c 4a a8 bd df c1 54 3d ec e7 0a 3c
       -0.23177075 -0.08217308 0.051942702 0.008478146
000100 11 a2 b9 3d ae e7 d1 3d e6 14 e6 bd 07 5e b4 3c
       0.09064115 0.102492675 -0.11234455 0.022017492
000110 a5 8b a4 bc 0d b2 a7 bc 49 6e 00 3e a1 b4 40 3e
       -0.020086119 -0.020470643 0.1254207 0.18818904
000120 7b 54 25 be 5d 32 eb 3c ed af 5f be 75 14 d1 bd
       -0.16145508 0.028710539 -0.21844454 -0.1020898
000130 16 83 19 bd c2 dd 52 3e e6 e7 14 3e 7f e0 99 3d
       -0.03747853 0.20592406 0.14541587 0.07513522
000140 73 32 f8 bd 75 de e8 3c f0 40 46 3e bc ce 7d 3d
       -0.121189974 0.028426388 0.19360709 0.061964735
000150 a5 56 c7 3d ba 9e 46 3e 9e b9 bd 3c 36 80 32 be
       0.09733323 0.19396487 0.023159798 -0.17431721
000160 c4 e8 74 bd 57 bb f4 bd 16 44 86 bc 6f a2 99 be
       -0.059792295 -0.11949795 -0.016389888 -0.3000674
000170 e0 c6 8d 3c bb 94 bd 3c 24 92 a6 bd 00 ce 4a bc
       0.017306745 0.02314221 -0.08133343 -0.012378216
000180 b7 53 9f 3d 81 e9 d4 bd f7 94 24 3e 05 66 a3 bd
       0.07779639 -0.103961 0.1607245 -0.07978443
000190 64 a7 04 3c d2 70 2e 3b 3b 21 88 3d e6 3b 64 bc
       0.00809655 0.002661754 0.06646963 -0.0139302965
0001a0 0b 4a e4 bc c2 73 6e 3d 49 1c ed bd 83 85 61 3d
       -0.027867338 0.058215864 -0.115776606 0.055058967
0001b0 ba 46 5d 3d 35 d5 a8 bd d1 e3 1d 3e a3 a7 bb bd
       0.05402253 -0.08243791 0.15418936 -0.091628335
0001c0 84 29 d9 bd 7d 40 3a bd 5a 22 5b bb 78 cc 95 bd
       -0.106036216 -0.045471657 -0.0033437223 -0.0731439
0001d0 bc 3a 87 bd d5 34 ca bc 66 35 de 3a 84 8c 18 3e
       -0.066029996 -0.024683395 0.001695317 0.14897352
0001e0 cd 9a bb 3d 24 cd e2 bc a2 21 f3 bb 66 f0 93 bd
       0.09160385 -0.02768571 -0.007419781 -0.07223587
0001f0 df 42 9f 3c 86 7b d8 bc 41 85 68 3d f6 08 3d 3d
       0.019441066 -0.026426088 0.056767706 0.046151124
000200 2e 60 49 3e 74 63 ae bc e8 a3 18 bd d6 67 b6 3d
       0.19665596 -0.021287657 -0.03726569 0.08906524
000210 6c d0 c2 bb c9 bf 36 3d 73 8f 01 be f2 79 f9 3d
       -0.005945256 0.044616494 -0.12652378 0.12181462
000220 49 d6 7c 3d 87 5b 02 bd 58 ba f0 bd 90 58 cb 3c
       0.061727796 -0.03182557 -0.11754292 0.024822503
000230 fd 85 6e bb be 52 46 3e 72 40 85 3d 3f 0d 12 bd
       -0.0036395781 0.19367501 0.065064326 -0.035657164
000240 42 b5 c1 3d f9 72 eb 3d a3 75 b2 bc ce 87 38 3e
       0.094584 0.11496539 -0.02178461 0.18020555
000250 cf 40 8c bb 0a 45 98 bd ba 6b bc bd 4e 48 1f 3d
       -0.0042801867 -0.07435043 -0.09200235 0.038887314
000260 dd 8d c9 bd 37 04 f4 bd 46 0d 33 bd 33 41 b1 3d
       -0.098415114 -0.119148664 -0.04371383 0.08655014
000270 36 05 e9 3d 93 fe 93 bd 9f 78 3c be cd 30 20 3e
       0.11377947 -0.072262906 -0.18405388 0.15643616
000280 7f a9 6b bd ae 55 37 3e 50 5e 3f bb b9 59 83 3b
       -0.05753469 0.17903778 -0.0029200502 0.0040084985
000290 cd b5 4b 3e ab 75 59 3d 1e a1 ec bd b4 97 a7 3c
       0.1989357 0.053090733 -0.11554168 0.02045808
0002a0 9c 35 e2 3c 0f 35 3a 3e 4f a8 1a be b6 15 b8 bc
       0.027613454 0.18184303 -0.15103267 -0.02247129
0002b0 e3 c6 ca 3c 7a 1e 0d 3e 31 b9 bf 3c 31 7f 51 ba
       0.02475304 0.13781157 0.023403736 -0.000799167
0002c0 df 51 01 be a8 04 ef bd 33 5f be 3d 13 26 2d 3e
       -0.12628888 -0.1167081 0.092955016 0.16909055
0002d0 c8 02 70 bd e9 b5 04 be 13 56 15 3d 88 cd c8 3d
       -0.058596402 -0.12960018 0.03645904 0.09804827
0002e0 2d fe 30 bd 82 6b a5 3d 36 3b 89 be 1e 6c a6 3d
       -0.04321115 0.08077146 -0.26802987 0.081260905
0002f0 54 62 24 bd b1 1f 33 3e 97 9f da bc 23 87 87 3d
       -0.040132836 0.17492558 -0.026687426 0.06617572
000300 aa 1f 24 3c 2f 26 4b be de fb f9 3c 2d ba ae bd
       0.010017315 -0.19838785 0.030515607 -0.08531604
000310 ff 9b 02 be 32 df 95 bd 66 74 48 bd 5a c8 ce bd
       -0.1275482 -0.07317962 -0.04893913 -0.10096808
000320 24 37 be 3d 6a 03 b4 bd d1 98 b4 3d a4 0f 05 3e
       0.09287861 -0.08789714 0.0881821 0.12994248
000330 fd d4 b1 3d 62 20 a3 3d 9a 35 7f bd 59 9e 9f bd
       0.086832024 0.07965161 -0.062306978 -0.07793874
000340 90 7b 25 3d f6 2d ff 3d 63 1e 4f be 4c 7b e3 bd
       0.04040104 0.12459938 -0.20226435 -0.111075014
000350 a7 f0 9d bd f3 1d 91 3d f9 3c f5 bd 37 ec 6b bc
       -0.077119164 0.070857905 -0.1197452 -0.01439958
000360 71 95 48 bd 19 13 2a be 1e 00 96 bd af 4f 07 3e
       -0.048970643 -0.16608848 -0.07324241 0.1321399
000370 59 32 87 3d d3 87 30 be 33 ca 8e 3d 7b 18 cc 3d
       0.066014 -0.17239313 0.0697216 0.09965607
000380 1a 8c a3 bd 26 00 ff 3d 55 19 1e 3e d7 6e 98 3d
       -0.079857066 0.124512 0.15439351 0.07443016
000390 4b 2b 28 3e 69 25 1e 3d 41 4d ce 3d 28 b8 95 3e
       0.16422765 0.038609896 0.10073329 0.29242063
0003a0 5a 2d b9 3d 60 cf 08 3d ab fb 6e 3d 45 ec 2f 3e
       0.09041853 0.033400893 0.058345478 0.17179973
0003b0 d7 a5 a8 3d a8 55 73 bd 23 97 b6 3c 56 95 5c bd
       0.082347564 -0.05940786 0.022288864 -0.053853355
0003c0 59 bf 7e bc 0c d5 70 be 11 bc 37 bd b0 d7 b2 3d
       -0.0155485505 -0.23518771 -0.04485709 0.087325454
0003d0 df da 2d 3e c8 35 47 3e 5f f8 80 bc 98 92 69 3d
       0.16978024 0.1945411 -0.015743433 0.05702457
0003e0 c7 72 c7 bd 51 12 69 3e 2b 8d 4b 3e 41 54 ba bc
       -0.09738689 0.22760893 0.1987807 -0.022745254
0003f0 e8 0d 90 3d 4f bb 5f bd a6 f1 16 bd 59 e4 cb bd
       0.070339024 -0.05462199 -0.036851548 -0.09955663

network_body._body_endoder.seq_layers.2.bias f4 [128]
000000 84 a1 06 bd cb 0d df 3d 22 63 19 3e 39 be 77 3d
       -0.032868877 0.10891303 0.14979222 0.060484145
000010 5a 57 ee bb 2f 1f c6 bc 2a 0b f7 3d a4 bb 76 bc
       -0.0072735967 -0.024184791 0.12062676 -0.015059385
000020 78 95 d6 bc 63 0b b2 3d 96 86 ab 3d a6 77 7c bd
       -0.02619432 0.08693578 0.083752796 -0.061637543
000030 18 38 b6 3d 67 29 c1 bd d9 9b 24 3d 8d 3d ad 3d
       0.08897418 -0.09431725 0.04018769 0.084590055
000040 0e a5 a6 3d 90 b9 cd 3d 7d e9 78 3c 3c 42 ca 3d
       0.081369504 0.10045159 0.015192387 0.098759145
000050 c9 6c 1c 3e 52 21 d1 3d 14 81 61 3d 9f 91 da 3c
       0.15275873 0.102114335 0.05505474 0.026680766
000060 e9 c6 6d bc 4b d5 f0 3c 3b 52 95 3d 86 b2 d3 3d
       -0.014512756 0.029398581 0.07291075 0.10336785
000070 44 0e 48 3d ba c9 5d bb 82 21 b0 3d 2a ec ff bc
       0.04884173 -0.0033842162 0.08600141 -0.031240541
000080 42 63 e9 3d 82 b2 d7 3d 54 02 a4 3d a6 dd 1a 3e
       0.11395885 0.105320945 0.080082566 0.15123615
000090 39 91 b0 3d c5 01 e6 3d ac 83 db 3c 0b bc 48 bd
       0.08621449 0.11230806 0.026796184 -0.049007457
0000a0 b1 02 ab 3d c6 7f 97 3d 83 2d 59 3d 7d e9 d1 3d
       0.08350123 0.07397418 0.05302192 0.102496125
0000b0 c2 22 23 3d 49 a3 99 bd 1f dd 1f bd 7a cf a2 bc
       0.03982807 -0.07501847 -0.039029237 -0.019874323
0000c0 ea 6e 9e 3d 6f 09 01 3e 61 b9 bd bd 55 dd ae bb
       0.07735999 0.12601255 -0.09263874 -0.0053364434
0000d0 da 8d ec 3d 29 c0 16 3e e1 b6 9f 3d 33 42 03 3e
       0.115504935 0.14721741 0.07798553 0.12818222
0000e0 a5 20 d1 3d 34 f7 df 3d 80 21 9b 3d 11 bc 0c 3e
       0.102113046 0.10935822 0.07574749 0.13743617
0000f0 5c 9a e6 3d 14 5d 35 3d 39 fd 90 3c 26 7c 85 bd
       0.112599105 0.04427822 0.017698871 -0.0651782
000100 1d c6 32 3d c8 94 cf bd 74 c8 9d bd b0 9d 96 3d
       0.043645967 -0.101358 -0.07704249 0.07354295
000110 f3 fb 76 3d 7b c6 96 39 4b 4b b8 3d c6 73 b3 bd
       0.06029887 0.0002875811 0.08998736 -0.087623164
000120 83 6a 31 bd 51 29 a5 3d e6 83 da 3d ea 53 72 3d
       -0.043314468 0.08064521 0.10669689 0.059162058
000130 97 7b b3 3d d2 67 d4 3d 05 bc 60 bd af 14 73 3b
       0.08763807 0.10371365 -0.05486681 0.0037091186
000140 0d f2 f5 3d 60 63 99 3d 36 33 b2 3d 3b 4b 5a 3d
       0.12009058 0.074896574 0.08701174 0.0532944
000150 c3 03 b2 3d 44 a1 0c bd e0 ba a0 bd a5 fd e7 3d
       0.08692124 -0.034333482 -0.078481436 0.11327676
000160 40 25 37 3c 13 5b da 3c 79 4e 3e 3d 23 40 de bd
       0.011178315 0.026654756 0.046461556 -0.10852077
000170 dc 83 b9 3d 29 24 c8 bc e5 68 96 3d 54 14 2a 3d
       0.09058353 -0.024431305 0.07344226 0.041523293
000180 2f d7 74 3d 08 12 d7 3d d9 72 ec 3d df bf ac 3d
       0.059775528 0.10501486 0.11545343 0.08435034
000190 71 9f a0 3d f9 17 ce 3d da a5 38 3d 91 4f 7e 3c
       0.07842911 0.10063166 0.045080043 0.0155219
0001a0 f9 13 ac 3d 4c 96 c5 3c 34 0c 25 3d 51 34 ab 3d
       0.08402247 0.024119519 0.04029484 0.08359588
0001b0 8d 1f 7d bd 2b 6b 4c 3d da 00 04 3e 6f eb 95 3d
       -0.061797667 0.04990689 0.1289095 0.07320296
0001c0 a9 80 ef 3d c9 7f d3 3d 2a 60 07 3e 57 dd bd bd
       0.11694462 0.103271075 0.13220277 -0.09270733
0001d0 05 7c cd bd 6c f6 ae 3d 22 f7 10 3e cf e7 03 3e
       -0.100334205 0.08543095 0.14156774 0.12881397
0001e0 4c 1a 14 3e 5e 16 eb 3d 37 11 c8 bd 3e 53 bd 3d
       0.14463156 0.114788756 -0.097689085 0.09244393
0001f0 d9 91 06 3e f9 20 0c 3e 41 8f ad 3d 57 d3 a4 3d
       0.13141574 0.13684453 0.08474589 0.080481224

network_body.lstm.lstm.weight_ih_l0 f4 [64, 128]
000000 5e 55 ba 3d 31 b1 d5 bc fb c3 13 bd 7d 9a 90 3c
       0.09098314 -0.026085468 -0.036075573 0.01765179
000010 bd 9f 12 3e 10 83 a5 3d d6 79 4b 3d 8d bd 97 bd
       0.14318748 0.08081639 0.04967674 -0.07409201
000020 47 c5 72 be b2 5a 73 3e e0 e8 06 be 65 e2 86 bd
       -0.23708068 0.23765066 -0.13174772 -0.0658615
000030 e6 7c 51 3d c3 0e b4 bd b0 76 4b 3e 3c 62 e5 bc
       0.051144503 -0.08791878 0.19869494 -0.028000943
000040 64 ec 42 3e 9e e4 14 3d 30 db 5c 3d 6f a9 d5 bc
       0.19035488 0.03635084 0.05391997 -0.026081769
000050 44 1c 32 3e e2 28 26 3e 0f 87 9a 3d a9 f3 14 3e
       0.17393595 0.16226533 0.07545292 0.14546074
000060 8c 95 39 3d ef df d6 bd e5 ba 32 3e 9a 21 9c bd
       0.045308635 -0.10491931 0.17454107 -0.076235965
000070 6a b2 37 bd e7 98 32 3e be ec 02 3e 20 da 21 bd
       -0.044847883 0.1744114 0.12785622 -0.03951466
000080 51 35 6c 3e ea f2 ca 3d 12 60 4f 3e cf 31 88 3d
       0.23067214 0.099096134 0.20251492 0.06650125
000090 b5 72 6d bc 90 f9 c4 bd 65 3c 66 3e a0 ec db 3d
       -0.01449268 -0.09617913 0.22483976 0.10738492
0000a0 32 1d 50 bd 71 c7 55 3e 5c 80 65 bd c4 30 3a 3e
       -0.050809093 0.20876862 -0.056030616 0.18182665
0000b0 5c bb 34 3e 7c 8d c0 bd 1a c0 43 3d 1c 48 2b be
       0.17649597 -0.09401986 0.047790624 -0.16726726
0000c0 fb 6a ec bc 92 47 87 bd 4a 34 d1 bd f1 7e 19 be
       -0.028859606 -0.06605448 -0.102150515 -0.1498983
0000d0 14 12 d7 3d 02 62 f7 bd 65 20 5c 3e 56 ab 67 3e
       0.10501495 -0.120792404 0.21496733 0.22623953
0000e0 4d 34 14 3c ec 05 23 3e 24 60 02 3e 84 89 69 3b
       0.009045673 0.15920228 0.12731987 0.0035634944
0000f0 a2 00 1b 3e 65 b4 0f be c4 30 55 3e dc 31 3b be
       0.1513696 -0.14033659 0.20819384 -0.18280739
000100 99 51 7b 3d 0c 7a c0 bd 77 dc 84 3d c8 9f 8b 3d
       0.061357114 -0.093982786 0.06487363 0.06817585
000110 88 2b dc 3d d9 30 0e 3e f2 e2 58 3e 9f 05 94 be
       0.107504904 0.13885821 0.21180323 -0.2891054
000120 49 fb 36 bd 5c ff 17 be 62 72 08 3e 9e 83 4c 3e
       -0.044673238 -0.14843506 0.13324884 0.19972083
000130 ba 3c a3 bd 0e c9 ec bc f2 24 0c 3e db 81 61 3e
       -0.07970567 -0.028904464 0.13685969 0.22022192
000140 66 89 dd bd 64 26 69 3e 41 95 c1 3d 2c 9b 56 3e
       -0.10817222 0.22768551 0.09452296 0.20957631
000150 c3 1b 30 3e ba 18 59 3d 8e 5b f6 3c 9b 5d fd bc
       0.1719809 0.053002097 0.030072954 -0.030928424
000160 60 02 08 3d cb 08 28 be c1 30 82 bd 53 af 26 bd
       0.03320539 -0.16409604 -0.06356955 -0.040694546
000170 f5 ef 74 3e d1 83 a0 3d eb e4 0d be 0e c5 09 3c
       0.23919661 0.07837642 -0.13856857 0.008408798
000180 63 e6 b3 bd 4f bb 9b 3b e4 3e ab 3d dd e6 66 3e
       -0.08784177 0.0047525535 0.08361605 0.22549005
000190 21 3f dc 3d 9c 55 5c 3e 59 5c a4 3d ed ad 2f 3d
       0.107542284 0.21517032 0.080254264 0.042890478
0001a0 15 b2 20 3e 64 82 12 3e 5a d5 15 3e 28 21 64 3e
       0.15692933 0.14307553 0.14632168 0.22278273
0001b0 b3 32 3d be b7 84 26 3e c0 6e d2 3c 47 19 df 3d
       -0.18476371 0.16261564 0.025687575 0.10893493
0001c0 6c a6 73 3e 93 b4 4f 3d aa 1f f6 3d b0 b8 d2 bd
       0.23793954 0.05070932 0.12017758 -0.102891326
0001d0 e0 08 9b bd 55 d2 5a 3c 21 f0 69 bd c8 75 8f 3e
       -0.07570052 0.013355811 -0.05711377 0.28019547
0001e0 bf 32 86 bd 70 06 45 3e 77 2c 43 be 31 be 7b bd
       -0.06552648 0.19240737 -0.1905993 -0.061460678
0001f0 24 81 a9 bd 06 7a a8 3d 1a a7 40 3e 71 bf ae 3d
       -0.08276585 0.08226399 0.18813744 0.08532608
000200 73 9f ae 3d f0 7a 0f 3e 43 a2 2b 3e 12 fa 0e 3e
       0.08526506 0.1401174 0.16761117 0.13962582
000210 f3 d4 cf bd eb bf 94 be 12 1c 0b be ea 46 53 bd
       -0.10148039 -0.29052672 -0.13584927 -0.0515813
000220 05 c5 08 be a5 10 a4 3d c6 fb 58 3e 31 db 2e be
       -0.13356407 0.08010987 0.21189794 -0.17075802
000230 5d 61 12 3e 9d 05 be 3b cc 2b 23 be 57 42 3f 3d
       0.14294954 0.005799009 -0.15934676 0.046694126
000240 2c 70 e1 3c 79 19 5f bd 42 41 6d bd b4 ee 98 3e
       0.027519308 -0.054467652 -0.057923563 0.29869616
000250 90 e9 c1 3d 7e 9a 62 3e 98 4d 23 3e 01 8a 5a 3d
       0.09468377 0.22129247 0.15947568 0.053354267
000260 be d2 3b be 0c 4b ad 3d 94 2e 78 3e 12 aa 35 bd
       -0.1834211 0.0846158 0.24236518 -0.044351645
000270 bd 01 64 bd 9a 23 19 3e 85 37 02 3e 8c 0a f9 bd
       -0.05566572 0.14954987 0.12716492 -0.12160215
000280 d4 3b b9 bd 67 30 1d 3e fb 93 b0 bd 49 4e 6b 3d
       -0.090446144 0.15350495 -0.08621975 0.057447705
000290 bc e8 6f 3d b6 3b ac 3d 47 4b ea 3d 2e 5f bd bd
       0.058571562 0.084098265 0.11440139 -0.0924667
0002a0 85 f5 e7 3b f7 c1 b0 3d 25 d5 63 3d fd 5d a2 bd
       0.0070788288 0.08630746 0.055623192 -0.07928083
0002b0 69 1d 80 3e e3 e3 57 be 14 33 b0 bd 59 75 10 be
       0.25022438 -0.21083026 -0.086034924 -0.14107265
0002c0 9e 5f 58 3e 7a 1a 91 3d a1 2f 60 bd 68 ef 20 3e
       0.21130225 0.07085128 -0.054732922 0.15716326
0002d0 bb 6e 47 3e d6 c4 8c 3e 03 da 81 3e 5c 91 97 3e
       0.19475834 0.27493924 0.25361642 0.29603088
0002e0 fa 16 4a 3e d6 c8 cd bb 3e 2f 70 3e df ef 0b 3e
       0.19735327 -0.006280045 0.23455521 0.13665722
0002f0 9d 4e 6b bd 53 5f 4e 3e 8b 3a fd bd a7 c4 0a be
       -0.05744802 0.20153551 -0.12364682 -0.1355158
000300 fd 7a 6e bd 17 7a a9 3d c7 a3 78 bd eb 5b 78 bd
       -0.05822276 0.0827524 -0.060703065 -0.060634535
000310 81 e7 86 3e cc fd a2 3d 4d e6 23 3b e9 a0 85 be
       0.26348498 0.07958564 0.0025009096 -0.26099327
000320 11 ed 3d be 5f c1 da 3c b7 d2 65 3d dc 76 7f 3e
       -0.18547465 0.026703535 0.056109156 0.24947685
000330 57 46 12 3e f2 1b 2a 3e 37 22 26 be 44 f5 8f bd
       0.14284645 0.16612223 -0.1622399 -0.070292026
000340 37 0b 38 3d 69 13 a0 bc 62 85 23 3e da 8b 5c 3e
       0.04493257 -0.019540505 0.1596885 0.21537724
000350 3d 60 6a bd 9c 35 ee 3c 95 69 e3 bd 65 61 86 3e
       -0.057220686 0.029078297 -0.111041225 0.2624618
000360 4d 5d 36 bd e6 55 eb bd 08 67 9f 3d 12 a6 fa bd
       -0.044522572 -0.11490993 0.077833235 -0.12238707
000370 54 0e 9c 3c e2 39 a1 3d ee 9b 17 3e 40 66 16 bc
       0.019049801 0.078723684 0.14805576 -0.009179652
000380 04 66 cb bd 07 74 09 bd b5 67 38 3e 33 9d 9b 3e
       -0.09931567 -0.033557918 0.18008311 0.3039337
000390 a7 e7 41 3e 49 46 f3 bd a4 92 74 bd 2e fb a6 3d
       0.18936025 -0.1187864 -0.05971016 0.081533775
0003a0 f3 49 17 3d 93 a4 d5 3d a2 23 c4 bd fd 2c 13 3e
       0.036935758 0.10431781 -0.09577109 0.1437263
0003b0 bb f7 b3 ba 85 42 dd bd a8 f5 98 bd 0a 30 1f 3e
       -0.0013730446 -0.10803703 -0.0746873 0.15545669
0003c0 c6 ab 0b 3e 41 c8 4a 3e f6 83 8c 3e 76 dc 24 be
       0.13639745 0.19802953 0.27444428 -0.16099724
0003d0 ac 6e 8a be 8b e3 be bd 57 b7 e2 3c f6 b1 24 bd
       -0.2703756 -0.09320744 0.027675314 -0.04020878
0003e0 bf 1d 88 3e fa 8f 03 be d0 63 e2 3d dd f6 3a 3e
       0.26585194 -0.12847891 0.11054194 0.18258233
0003f0 bb 70 92 3e fe 4f 5e 3e da 6a f4 3d 3b e0 68 3e
       0.28601632 0.21710202 0.11934443 0.22741787

network_body.lstm.lstm.weight_hh_l0 f4 [64, 16]
000000 5e 15 52 be c6 af 76 3e 70 42 73 be f0 20 99 3e
       -0.20515963 0.2409049 -0.23755813 0.29907942
000010 08 fe 7d 3d 9f 6c dc be 23 13 bc be 21 d1 d3 3e
       0.06200984 -0.4305162 -0.3673335 0.4137049
000020 11 b4 95 3e fd a5 a3 be 79 bf 85 bd 5e d9 99 b9
       0.29238942 -0.31962577 -0.06530661 -0.00029344385
000030 7f cf fe 3d 21 20 b1 3e 17 c3 bf 3e 3f 47 7d be
       0.124419205 0.34594825 0.3745353 -0.2473421
000040 84 41 97 be 75 dc 8b be 7b 9d 57 3e bc b6 00 bd
       -0.29542172 -0.27316633 0.21056168 -0.03142427
000050 d3 66 a6 be 94 3e 51 3e a2 25 6a 3c dc c1 17 be
       -0.32500324 0.20434028 0.014291199 -0.14820045
000060 c5 ca cb 3e fe 3d 39 bc 46 84 28 be 82 72 d0 3d
       0.39803138 -0.011306284 -0.16456708 0.10178091
000070 4b 4f af 3e ec 8a 13 be cf fc 47 bd 2a fb 42 bd
       0.34240183 -0.14408463 -0.04882508 -0.04760281
000080 f0 53 9b 3e 53 86 12 be f4 b7 92 be 40 e0 6d 3e
       0.30337477 -0.14309053 -0.2865597 0.23230076
000090 5b d8 b9 be 51 24 8e 3e 33 64 3a bd a6 2e f3 3d
       -0.3629788 0.27762082 -0.045505714 0.11874132
0000a0 fb 40 92 3e 4a b2 74 be c1 73 f2 3d 22 d6 a4 be
       0.285652 -0.23896137 0.118384846 -0.3219462
0000b0 56 a4 94 3e 3d 1a ab 3e dd f1 e5 3d 93 0a 44 be
       0.29031628 0.33418456 0.112277724 -0.19144659
0000c0 f5 00 93 3e fe ea a0 bd 75 b3 af bd a4 a3 36 3d
       0.28711668 -0.07857321 -0.085791506 0.044589654
0000d0 e7 b1 c0 bd 78 f8 5c bd 8a a9 4c 3e a0 06 be be
       -0.09408932 -0.053947896 0.19986549 -0.3711443
0000e0 14 c1 97 be 8f 82 f9 3e cc 01 c6 3e 12 ab b7 3e
       -0.29639494 0.4873242 0.38673246 0.35872704
0000f0 03 7b ae be e5 ab b3 bc fb 88 b5 3e c8 9c d2 be
       -0.34078225 -0.021932552 0.3545607 -0.4113524
000100 b4 58 74 bd ef 4b cc 3e 33 69 9a 3e a9 26 b2 3e
       -0.059654906 0.39901683 0.30158386 0.3479512
000110 d6 c3 c9 3e ef aa 8a 3e b1 e2 f5 bd e0 70 e7 3e
       0.39407223 0.27083537 -0.120061286 0.45203304
000120 d6 33 1d be 6d 7b 94 bd e2 62 6a 3e 70 61 6d be
       -0.15351805 -0.07250104 0.22889283 -0.231817
000130 a2 a0 c2 3e 65 7c fc 3d 27 c5 15 be 3c 31 b1 3e
       0.38013178 0.12328414 -0.14625989 0.34607875
000140 8c d3 d6 bd e8 70 a8 be e9 4c d0 be 1e 90 db be
       -0.10489568 -0.3289864 -0.40683678 -0.4288339
000150 e6 f8 bb 3d 77 23 68 3e 11 20 81 be 1f 55 57 be
       0.09178333 0.22669779 -0.25219777 -0.21028565
000160 6f cf 21 3d af 93 34 3e d5 20 c9 be 10 3c 94 3e
       0.039504465 0.17634462 -0.3928286 0.28952074
000170 f0 64 b5 be 5f 7d c5 bd 44 c7 04 3e 5f 54 d7 be
       -0.35428572 -0.09643053 0.12966639 -0.42056558
000180 57 15 b6 be 64 14 5c 3e b4 71 33 be 57 07 5b be
       -0.35563156 0.21492153 -0.17523843 -0.21389519
000190 1b 7e 19 be 33 68 e3 3d 5c ae d1 3c aa b4 59 3e
       -0.14989512 0.11103859 0.025595836 0.21260324
0001a0 7b ad 11 3e 04 db ac 3e 27 f2 31 3e 6f 5d 35 be
       0.14226334 0.33760846 0.1737753 -0.17711423
0001b0 94 93 d9 3d 35 f4 38 3e 52 9b c8 3e 35 38 c5 3e
       0.106238514 0.18061908 0.39181 0.38519445
0001c0 2a 30 a4 3e 3a 71 93 3e a0 1f 03 3e 46 f7 3c 3e
       0.32067996 0.28797323 0.12805033 0.18453702
0001d0 6d f6 e0 bd 7e e3 e4 be 1c 44 2a 3e 14 dd 72 be
       -0.10984502 -0.44704813 0.16627544 -0.23717147
0001e0 db 01 de 3c 8b 30 75 bd fc 7e 78 be a6 c9 dc 3e
       0.027100494 -0.059860747 -0.2426719 0.43122596
0001f0 0d a4 22 3e c2 c1 9a 3c 13 1c a4 be ce 6c 88 be
       0.15882893 0.018891219 -0.3205267 -0.2664551
000200 06 73 b6 3e 0b 52 c6 bd 22 fa a0 be da 17 83 bc
       0.3563463 -0.09683617 -0.31440836 -0.016002584
000210 e8 83 31 3d 44 f4 48 3e 88 2e d0 3e 01 3a 91 3c
       0.043338686 0.1962443 0.406605 0.017727854
000220 bd 38 b6 3e ef ba a1 be 61 8b 83 3e 26 8f b9 3e
       0.35590163 -0.31587932 0.25692275 0.36242026
000230 a1 f8 56 be b0 7c 23 3d c9 9c cc 3d 35 3d 6e be
       -0.20993282 0.039913833 0.09990842 -0.23265536
000240 58 14 a1 3e 9b dd 4e 3e 93 2e 90 3b 55 ed 23 be
       0.31460834 0.20201723 0.0044000833 -0.16008504
000250 4b 59 01 bf 47 dd d8 be 96 8a 87 be c4 59 ef 3d
       -0.50526875 -0.4235632 -0.2647292 0.11687043
000260 13 27 94 3e b8 55 17 3e 89 cd a8 be ed f6 0c bd
       0.2893606 0.14778793 -0.3296931 -0.034415174
000270 f5 7f 8d 3e 3f 11 50 bc 49 3e 0e be 2e 2f 85 3e
       0.27636686 -0.012699424 -0.13890947 0.26012558
000280 54 03 39 be e6 e5 9a 3e 95 76 95 bd 27 8d d1 3e
       -0.18067676 0.30253524 -0.07298008 0.40928003
000290 02 c7 8a 3d 04 fb e4 be af 10 cb be 94 1c 80 bd
       0.06776239 -0.4472276 -0.39661166 -0.06255451
0002a0 6b 30 47 3e dd 2f e4 3e 82 ed ce bd b5 ae 48 bd
       0.19452064 0.44567767 -0.10103895 -0.04899474
0002b0 1f 78 39 be f2 e7 ac 3d 93 0a fd bd 80 99 fe 3d
       -0.18112229 0.084426776 -0.123555325 0.124316216
0002c0 14 b8 5c 3e 77 30 79 3e f1 24 a7 bd eb 0a d5 be
       0.21554595 0.24334894 -0.08161343 -0.41609892
0002d0 7f 94 cc be e7 da 3c be 78 d5 8d be 30 41 90 3e
       -0.39957044 -0.1844288 -0.27701926 0.28174734
0002e0 7a 79 1a be df ca 9b be 0d 4f 76 3e 6f 56 12 3e
       -0.15085402 -0.30428216 0.24053593 0.14290784
0002f0 22 96 d8 3e 96 eb 9f be b9 de 5f be 2e 9a 9f 3b
       0.42302042 -0.31234425 -0.21862306 0.0048706746
000300 1a 01 9c 3d 19 c6 0e 3d 44 0c c2 3e 96 7c 54 be
       0.076173976 0.03485689 0.37899983 -0.20750651
000310 3f 16 44 3e ec 63 ec be df 85 7d 3d e0 87 86 be
       0.19149111 -0.46169984 0.061895248 -0.2627554
000320 0f ed 8a be 51 0c 96 be f9 68 5c 3e 10 8d e1 bd
       -0.27133986 -0.29306272 0.21524419 -0.11013234
000330 e7 9f a7 be f6 b3 a6 be fa 63 00 be 39 69 f8 3c
       -0.32739183 -0.32559174 -0.12538138 0.030323612
000340 db f8 04 bf 98 1e bb 3e 8f 24 12 be ad 81 a4 3e
       -0.51942223 0.3654678 -0.14271758 0.32130185
000350 6a c8 bd bc 46 4e b8 be 34 a0 b2 bd d5 9d df 3d
       -0.023166854 -0.35997218 -0.087219626 0.10918776
000360 01 81 51 3d 72 3f ef bd fc 37 4f be 2b b2 06 be
       0.05114842 -0.11682023 -0.202362 -0.13153903
000370 c2 3c e1 bd 72 5e b1 bd 22 70 9a 3e be 99 25 3e
       -0.10997917 -0.08660592 0.30163676 0.16171929
000380 a2 51 6a be 5c 7b ab be 20 f0 48 3e 74 a0 10 3e
       -0.22882703 -0.33492553 0.1962285 0.14123708
000390 50 cb cd be 7c 5a 39 be 11 62 67 3d d6 46 5b 3e
       -0.40194178 -0.18100923 0.056490008 0.2141374
0003a0 6e 43 06 be 65 24 df 3d d1 ff f2 bd 82 a8 27 3e
       -0.1311166 0.108956136 -0.11865199 0.16372874
0003b0 fc f5 98 be 7c 30 5e 3e fb b7 f4 3d 67 41 34 3e
       -0.2987517 0.21698183 0.11949154 0.17603074
0003c0 25 3f 7a 3b ad 7a d9 b9 91 0f 52 be f4 18 89 be
       0.003818461 -0.00041480866 -0.2051375 -0.2677685
0003d0 08 9e 83 be ea 59 80 be 0f 81 5b 3e 34 de 38 be
       -0.25706506 -0.250686 0.2143595 -0.18053514
0003e0 60 b6 8e be c4 7f 14 bd 99 08 88 bd f5 2e e2 3d
       -0.27873516 -0.03625466 -0.06642265 0.110441126
0003f0 9f 98 d6 bd 08 fa 25 bd 59 61 27 be 9e e5 d5 be
       -0.10478329 -0.04052165 -0.16345729 -0.41776747

network_body.lstm.lstm.bias_ih_l0 f4 [64]
000000 d3 24 b3 3d 22 7c f2 3d 74 27 e4 3d 4b 88 0a 3e
       0.08747258 0.11840083 0.111403376 0.13528554
000010 a2 b1 05 3d d7 3e 45 3c ad 25 05 3e 3e 9c d6 3d
       0.032640107 0.012038908 0.13002653 0.104790196
000020 c6 71 10 3e 14 7c d4 3d 65 49 1c 3e 3a 27 b7 3d
       0.14105901 0.103752285 0.15262373 0.08943029
000030 55 2b ca 3d 82 54 04 3e 97 c3 0c 3e 80 ef 1a 3e
       0.09871546 0.12922862 0.13746487 0.15130424
000040 04 03 7d 3f 57 1c 7a 3f 02 40 74 3f 2b cb 7e 3f
       0.98832726 0.97699493 0.9541017 0.9952876
000050 7e 68 7c 3f 01 4d 81 3f 46 bb 7c 3f 2a 52 74 3f
       0.9859694 1.0101625 0.98723257 0.9543787
000060 4d 8c 80 3f 6c 48 7a 3f b9 01 84 3f a6 8e 7f 3f
       1.0042816 0.97766757 1.0313026 0.9982704
000070 ef 4d 78 3f 0c 04 83 3f 04 01 73 3f 29 b9 83 3f
       0.9699392 1.023561 0.94923425 1.0290881
000080 f7 da ca 3c 24 7e 17 bc 24 66 15 3c e3 4c 49 bb
       0.024762614 -0.009246383 0.0091185905 -0.0030715994
000090 ef d2 68 ba 0e 4c 25 bd 22 75 d9 3a f3 f5 21 3a
       -0.0008881529 -0.040355735 0.0016590694 0.0006178312
0000a0 c8 c4 cb ba ab e4 8d 3c bb 6d 59 bc 0a 2e fe bc
       -0.0015546316 0.017320951 -0.013270791 -0.031027813
0000b0 ef 1e e6 3c 82 28 11 bb be 4a e6 bc 4b c6 a6 bb
       0.028090922 -0.0022149389 -0.028111812 -0.0050895563
0000c0 ab 6a e4 3d 75 a8 00 3e cf 70 d5 3d e9 ba e9 3d
       0.11153158 0.12564261 0.10421907 0.114126034
0000d0 a4 c4 75 3d 60 db 76 3d e0 f9 ff 3d 0c ab e8 3d
       0.060001984 0.060267806 0.12498832 0.113607496
0000e0 52 3c ef 3d 02 a1 e3 3d fd 87 17 3e 94 bb 97 3d
       0.11681427 0.11114694 0.14797969 0.074088246
0000f0 08 77 e4 3d d7 26 15 3e 68 15 07 3e a9 84 0b 3e
       0.11155516 0.14565597 0.1319176 0.13624825

network_body.lstm.lstm.bias_hh_l0 f4 [64]
000000 d3 24 b3 3d 22 7c f2 3d 74 27 e4 3d 4b 88 0a 3e
       0.08747258 0.11840083 0.111403376 0.13528554
000010 a2 b1 05 3d d7 3e 45 3c ad 25 05 3e 3e 9c d6 3d
       0.032640107 0.012038908 0.13002653 0.104790196
000020 c6 71 10 3e 14 7c d4 3d 65 49 1c 3e 3a 27 b7 3d
       0.14105901 0.103752285 0.15262373 0.08943029
000030 55 2b ca 3d 82 54 04 3e 97 c3 0c 3e 80 ef 1a 3e
       0.09871546 0.12922862 0.13746487 0.15130424
000040 04 03 7d 3f 57 1c 7a 3f 02 40 74 3f 2b cb 7e 3f
       0.98832726 0.97699493 0.9541017 0.9952876
000050 7e 68 7c 3f 01 4d 81 3f 46 bb 7c 3f 2a 52 74 3f
       0.9859694 1.0101625 0.98723257 0.9543787
000060 4d 8c 80 3f 6c 48 7a 3f b9 01 84 3f a6 8e 7f 3f
       1.0042816 0.97766757 1.0313026 0.9982704
000070 ef 4d 78 3f 0c 04 83 3f 04 01 73 3f 29 b9 83 3f
       0.9699392 1.023561 0.94923425 1.0290881
000080 f7 da ca 3c 24 7e 17 bc 24 66 15 3c e3 4c 49 bb
       0.024762614 -0.009246383 0.0091185905 -0.0030715994
000090 ef d2 68 ba 0e 4c 25 bd 22 75 d9 3a f3 f5 21 3a
       -0.0008881529 -0.040355735 0.0016590694 0.0006178312
0000a0 c8 c4 cb ba ab e4 8d 3c bb 6d 59 bc 0a 2e fe bc
       -0.0015546316 0.017320951 -0.013270791 -0.031027813
0000b0 ef 1e e6 3c 82 28 11 bb be 4a e6 bc 4b c6 a6 bb
       0.028090922 -0.0022149389 -0.028111812 -0.0050895563
0000c0 ab 6a e4 3d 75 a8 00 3e cf 70 d5 3d e9 ba e9 3d
       0.11153158 0.12564261 0.10421907 0.114126034
0000d0 a4 c4 75 3d 60 db 76 3d e0 f9 ff 3d 0c ab e8 3d
       0.060001984 0.060267806 0.12498832 0.113607496
0000e0 52 3c ef 3d 02 a1 e3 3d fd 87 17 3e 94 bb 97 3d
       0.11681427 0.11114694 0.14797969 0.074088246
0000f0 08 77 e4 3d d7 26 15 3e 68 15 07 3e a9 84 0b 3e
       0.11155516 0.14565597 0.1319176 0.13624825

action_model._discrete_distribution.branches.0.weight f4 [5, 16]
000000 7d 55 15 bb 78 01 0e 3b 74 5e be bc 3e 49 a5 bc
       -0.002278655 0.0021668356 -0.023238398 -0.020176526
000010 bd 92 da 3d 80 ff ba 3d a3 ba 2d bd e6 29 4a 3c
       0.10672519 0.09130764 -0.04241432 0.012339091
000020 23 60 58 bb 20 8c 72 bd a1 ca 41 bb 5c 75 84 3d
       -0.0033016286 -0.059215665 -0.002957024 0.06467697
000030 b9 00 9b bd 59 c8 14 3d c5 28 6d 3c 79 9b c6 ba
       -0.07568497 0.03632388 0.014475052 -0.0015152536
000040 2c 62 21 bc 42 61 85 bc a0 69 0e be 16 3d 4d 3e
       -0.009850066 -0.016281728 -0.1390748 0.20042834
000050 31 df ca bd 60 25 e1 3c a0 9c 14 3e c9 07 8f bd
       -0.09905852 0.027483642 0.14512873 -0.06983907
000060 c5 ce 07 be 1a 07 30 be e2 bd 4c 3e 92 0b 8c 3d
       -0.1326247 -0.17190209 0.1999431 0.06838144
000070 8a 04 eb 3d 8b f5 b0 bd 48 23 fc 3d c0 78 3a 3e
       0.11475475 -0.086405836 0.12311417 0.18210125
000080 35 a2 17 3d b0 d1 a1 bd 15 82 df 3d 6b 2a 13 be
       0.037019927 -0.07901323 0.10913483 -0.1437165
000090 aa 14 1a 3e c7 a8 aa bd 30 c1 02 be 29 56 85 3d
       0.15046945 -0.08332973 -0.12769008 0.06510574
0000a0 de fc 21 3e d5 29 e0 3d 0f 16 49 be 70 f8 66 bd
       0.15819117 0.10945479 -0.19637321 -0.056389272
0000b0 bf 3a c2 bd 6c 17 1f 3e db 1e 19 be af 41 4a be
       -0.09483861 0.15536278 -0.14953177 -0.19751619
0000c0 77 4f dc 3d 5c ce 10 3e 2c 0c 57 3d d3 ed 15 be
       0.10757344 0.1414122 0.052501842 -0.14641504
0000d0 3c a1 8c bd 26 97 54 3d 06 47 c7 3d f7 5b 05 3e
       -0.068666905 0.05190196 0.097303435 0.13023363
0000e0 96 4c 93 bd fa 07 cf 3c 79 14 f7 3d 95 30 0f be
       -0.07192342 0.025272358 0.12064452 -0.13983376
0000f0 01 23 0b 3e 1d b6 37 3e ae d8 f2 3d aa 11 ca 3a
       0.13587572 0.17940564 0.118577346 0.0015416641
000100 91 0a 1f be b8 46 31 be ea df ce bd 34 08 25 3e
       -0.15531375 -0.17312133 -0.10101302 0.1611641
000110 5c eb d7 bc 69 83 f5 bd 23 74 31 be fd 71 37 be
       -0.026357345 -0.11987955 -0.17329459 -0.17914577
000120 b4 ed ca 3d 8f b6 d0 bd d4 53 ff bd 80 e2 e8 3d
       0.099086195 -0.1019107 -0.12467161 0.113713264
000130 f9 16 f1 bd 62 5c fb bd 7c a8 12 be 89 9b 41 bc
       -0.1177196 -0.1227348 -0.14322084 -0.011816868

action_model._discrete_distribution.branches.0.bias f4 [5]
000000 df 80 ca bd 68 7a 92 3c 9a 69 3b 3d 4f 80 f7 3c
       -0.098878615 0.017880633 0.045755006 0.03021255
000010 95 11 4c 3c
       0.012455364

exp_avg f4 [128, 6]
000000 89 bc 00 3a a8 50 9d 39 d1 40 05 3a 44 67 2a 3a
       0.00049109064 0.00030005467 0.0005083206 0.0006500373
000010 eb 7a 4d 38 fc 4e 85 37 67 6f 53 38 22 a4 54 b8
       4.8990285e-05 1.5891615e-05 5.041007e-05 -5.06976e-05
000020 c7 52 f3 38 17 6f e6 38 15 0e 76 b7 71 77 c3 37
       0.000116025614 0.00010987947 -1.4666021e-05 2.330143e-05
000030 4d 1f 96 b8 8e 84 2d b9 76 2a 93 38 88 d4 d0 38
       -7.1583876e-05 -0.00016547946 7.017415e-05 9.9578e-05
000040 bc 83 dc b8 78 0b 00 38 79 73 9a b9 1c ea e7 b9
       -0.00010514955 3.052826e-05 -0.00029459203 -0.00044234178
000050 58 3d 9a b9 44 e6 99 b8 90 09 d8 b8 6d 17 1f 36
       -0.00029418874 -7.338499e-05 -0.00010301464 2.3706482e-06
000060 bb 5b 67 38 fe b6 8b 39 0c 13 b8 38 5d 31 65 39
       5.5160122e-05 0.00026648486 8.7773515e-05 0.00021857531
000070 aa cd 8d 37 a0 28 81 37 7f 1a 1a 3a 2f 5a 13 3a
       1.690428e-05 1.5396916e-05 0.0005878582 0.00056210434
000080 51 21 c0 39 da 35 0d 3a 59 b4 82 38 da 85 4c 37
       0.00036645916 0.00053867477 6.2324754e-05 1.2190512e-05
000090 98 2c 60 38 0c e1 1f 39 98 17 ab 39 8d 1d fb 39
       5.3447293e-05 0.00015247258 0.0003263324 0.00047896468
0000a0 95 8a 5a b8 9e df 96 38 38 ce d7 37 95 c4 86 b8
       -5.2104315e-05 7.194209e-05 2.5726025e-05 -6.426234e-05
0000b0 40 52 9d b9 83 71 d3 b9 fe 10 7f 38 11 b2 63 b8
       -0.00030006655 -0.0004032963 6.0812563e-05 -5.4286855e-05
0000c0 98 18 19 39 9f cd aa 39 2e 14 4e b8 5e 91 10 38
       0.00014600379 0.00032578126 -4.913302e-05 3.446766e-05
0000d0 e6 6c 9a 38 f9 78 5f b7 33 8e 86 39 3e 1c 61 38
       7.363576e-05 -1.3320002e-05 0.00025664418 5.3670483e-05
0000e0 a7 68 3f 39 49 92 df 39 be 5a 62 38 4e 16 87 b7
       0.00018254165 0.00042642865 5.396711e-05 -1.610364e-05
0000f0 91 cf 45 39 3b f5 34 39 b0 c5 10 3a 2f b2 10 3a
       0.00018864709 0.00017257493 0.0005522622 0.00055197155
000100 3d cb 9b b7 91 a9 83 38 c3 c4 ff b9 a9 c4 df b9
       -1.857208e-05 6.278151e-05 -0.0004878399 -0.00042680398
000110 64 0f f1 b9 86 4e 15 ba 90 13 ad b8 13 f3 ae b7
       -0.0004597857 -0.00056956 -8.252927e-05 -2.0855607e-05
000120 ac 3c 1e b9 e9 11 a2 b8 8c 21 72 b9 48 e3 07 b9
       -0.00015090656 -7.728098e-05 -0.00023091416 -0.00012959272
000130 c2 d5 9d b7 08 82 53 b5 69 ca a4 b8 53 11 d9 b8
       -1.8815397e-05 -7.8792846e-07 -7.857831e-05 -0.00010350593
000140 6b be 74 b9 e5 cf f4 b9 2e 9e f0 37 10 15 03 b8
       -0.0002334059 -0.000466942 2.8683888e-05 -3.125245e-05
000150 7e 80 87 39 44 36 d3 37 d9 57 04 3a 6b 9a c9 39
       0.0002584494 2.517843e-05 0.0005048491 0.00038452758
000160 97 b6 0f 38 66 8b f4 37 6c bd 9f b9 ac 95 e0 b9
       3.4263907e-05 2.915198e-05 -0.00030467974 -0.00042836124
000170 75 a6 3b b8 15 0b 8e b7 b3 c9 f1 b8 fd 17 69 38
       -4.47393e-05 -1.693288e-05 -0.00011529345 5.557387e-05
000180 56 4d ce b9 71 c5 bc b9 15 a5 c8 b9 cf ac 00 ba
       -0.00039349002 -0.0003600526 -0.00038269968 -0.0004908563
000190 f0 0d 5a b7 dc 00 03 b8 8e f2 23 b9 ff 0f fe b8
       -1.2997058e-05 -3.1233634e-05 -0.0001563525 -0.00012114643
0001a0 42 3a 92 b9 ed 62 ef b9 09 f5 83 37 fc 98 88 b7
       -0.00027890695 -0.00045659338 1.573052e-05 -1.6283702e-05
0001b0 c6 08 e5 b9 31 1c d5 b9 d0 53 11 ba bc 56 52 ba
       -0.0004368482 -0.0004064753 -0.00055438 -0.00080237887
0001c0 fe 2a 09 37 0f 27 48 b8 1c 30 c3 38 63 1d 08 39
       8.175846e-06 -4.7720092e-05 9.307286e-05 0.00012980918
0001d0 59 33 20 39 14 bd c9 39 03 b6 e4 37 41 b1 20 37
       0.00015277918 0.00038478582 2.7264474e-05 9.578013e-06
0001e0 22 09 81 b9 60 f6 84 b9 41 35 4a b9 43 36 05 b9
       -0.00024611602 -0.00025360566 -0.0001928406 -0.00012704082
0001f0 db e1 51 b8 ee 86 2b 37 12 53 b6 37 c9 7f df b8
       -5.0039827e-05 1.022381e-05 2.1734773e-05 -0.000106572705
000200 f7 3e 07 38 08 e9 af 38 e2 a8 75 37 ab 28 23 b7
       3.224515e-05 8.388056e-05 1.4642459e-05 -9.725026e-06
000210 7f f4 eb 37 e5 30 00 38 c1 c9 eb b6 20 03 15 39
       2.8128035e-05 3.0563115e-05 -7.027033e-06 0.00014210911
000220 33 15 2d 36 76 36 94 37 68 47 4f 39 24 2f ce 39
       2.5791348e-06 1.7668335e-05 0.00019767659 0.00039326504
000230 f3 ca 76 39 47 97 ca 39 f1 00 3f 37 a4 80 40 38
       0.00023535993 0.00038641153 1.1384706e-05 4.5896173e-05
000240 1f 11 e4 38 0b b8 c4 38 28 05 b0 37 f3 56 11 38
       0.00010875076 9.380289e-05 2.0983236e-05 3.465167e-05
000250 2c 4f 4e 38 a4 53 8c b7 f5 2f de b9 b4 b9 c3 b9
       4.9187962e-05 -1.6728249e-05 -0.0004237887 -0.00037331658
000260 2d 5a 07 ba 70 55 8a b9 54 99 8a b8 51 56 fc 36
       -0.00051632785 -0.00026385067 -6.6089124e-05 7.520234e-06
000270 50 a6 2e 39 23 42 83 39 ef bf 49 39 7b ea 63 39
       0.0001665589 0.00025035543 0.00019240355 0.00021735758
000280 b8 72 49 38 b3 a0 d2 36 a2 ce 16 39 b3 52 08 3a
       4.8028975e-05 6.2771956e-06 0.00014382091 0.00052003114
000290 af 78 84 b7 30 39 09 38 6c 08 90 38 24 7a 29 37
       -1.5791824e-05 3.2716605e-05 6.868024e-05 1.0101623e-05
0002a0 37 fe 38 b9 95 a3 34 b9 7a e9 c1 b9 a0 58 10 ba
       -0.0001764231 -0.00017227077 -0.00036985782 -0.000550637
0002b0 53 c5 54 38 9a ae 9c b8 2a a8 fb b7 73 d2 ae b9
       5.072851e-05 -7.471182e-05 -2.999984e-05 -0.00033344663
0002c0 52 16 0c 38 1b 2f bf 37 1f 59 8a b8 aa 15 62 b7
       3.339939e-05 2.279091e-05 -6.596953e-05 -1.3475694e-05
0002d0 7c d3 ee 38 13 40 1c 38 70 dd 13 39 f0 53 03 39
       0.000113881164 3.7252972e-05 0.00014101504 0.00012524403
0002e0 31 24 11 38 ef 52 a8 b4 ba 12 a3 b9 3c 11 d2 b9
       3.46044e-05 -3.135278e-07 -0.00031103735 -0.00040067162
0002f0 bb 46 1a ba ec 81 33 ba e4 31 0e b8 5f fa 34 b8
       -0.00058851735 -0.0006847668 -3.3901902e-05 -4.314852e-05
000300 bf ba 2b 39 9d 29 1e 39 c6 24 4b 38 d6 7d b3 38
       0.00016377399 0.00015083556 4.843322e-05 8.558824e-05
000310 9b 12 29 38 c4 e7 02 b7 11 76 51 b9 d3 d1 9e b8
       4.0310068e-05 -7.802566e-06 -0.00019975776 -7.57311e-05
000320 df 19 f6 b9 a8 7b bb b9 73 8c 8f b7 f8 37 d6 b7
       -0.00046940052 -0.0003575955 -1.711233e-05 -2.553685e-05
000330 7d 49 d2 39 dd 58 17 3a 1e 05 d9 39 79 0c 2e 3a
       0.00040109074 0.00057734345 0.00041393278 0.0006639432
000340 1c 1d 75 38 69 6d e5 37 e7 b7 9f 39 60 c7 c3 39
       5.8439662e-05 2.7349875e-05 0.0003046386 0.00037341844
000350 9e 14 05 3a 30 14 04 3a cf a2 ad b6 54 f1 8d 38
       0.00050766196 0.00050384086 -5.174755e-06 6.768355e-05
000360 bb 6f 52 38 47 1d 6a 36 e4 f5 82 b7 4f d1 72 37
       5.017196e-05 3.4885759e-06 -1.561171e-05 1.44730575e-05
000370 10 f9 16 37 8f ea 5f b7 1e 44 27 38 23 dc 01 39
       8.998686e-06 -1.3346448e-05 3.987934e-05 0.00012384406
000380 3d 3e 22 37 86 17 10 39 f1 fc 19 38 5b 32 83 36
       9.670443e-06 0.00013741673 3.6713613e-05 3.9099664e-06
000390 e1 4e e7 b8 10 56 1a b9 0a 58 8f 39 7b 75 9c 39
       -0.00011029631 -0.00014718645 0.0002734068 0.00029842168
0003a0 04 20 be b8 29 22 d8 38 f0 c7 f0 b8 a5 46 8c b9
       -9.0658694e-05 0.000103060454 -0.00011481333 -0.00026755515
0003b0 c3 40 96 b7 7a 74 6e b9 f2 4b 8f b7 1e 8e 8f b7
       -1.791155e-05 -0.0002274084 -1.7082293e-05 -1.7113107e-05
0003c0 9e 1c bb 39 c0 32 7a 39 25 a1 1a 3a 6f fb 47 3a
       0.0003568874 0.00023860764 0.0005898646 0.0007628714
0003d0 ad 02 92 b5 cf 3c a2 38 d2 56 b0 b9 89 b7 9d b9
       -1.0878626e-06 7.7360884e-05 -0.00033634022 -0.00030082118
0003e0 79 5a 50 b9 51 f9 9e b9 24 bd 9f b8 a1 fc 18 38
       -0.0001987013 -0.00030321864 -7.616941e-05 3.6474903e-05
0003f0 45 f7 b8 38 0b b3 1b 39 ed 10 52 39 c4 1e 42 39
       8.819861e-05 0.0001484865 0.00020033466 0.00018512743
