Scenes/ImprovedGridWorld2D/results/test-run/DroneGrid2D/DroneGrid2D-499868.pt (torch, 446685 bytes, 33 tensors)

network_body._body_endoder.seq_layers.0.weight f4 [128, 6]
000000 03 8d d7 3a 2b c2 bb 3e 44 88 04 3e a2 c0 88 3e
       0.0016445223 0.36671576 0.12942606 0.26709467
000010 d4 12 80 bd 1a 7e 2a 3f 6d 2b 6a be 28 86 a9 3e
       -0.06253591 0.66598666 -0.22868128 0.33110166
000020 73 6c 38 bf 20 43 67 bf be ab ab be 66 ae ff bd
       -0.7204048 -0.903368 -0.33529466 -0.12484436
000030 ab cc eb 3d f1 ef 14 3f 31 a2 8a be 5d 39 dc be
       0.11513647 0.5817862 -0.27076867 -0.43012515
000040 83 1d 1e bf c3 67 23 bf bc 8c 32 3f 39 b3 78 3e
       -0.6176378 -0.638302 0.69745994 0.24287118
000050 20 e9 0a bf e1 5c 38 be 04 ed 21 3e e2 fd 1a bf
       -0.5426197 -0.1800418 0.1581307 -0.60543644
000060 fa 72 0b 3f f2 8f 2b 3e ec a5 a7 3d c2 d3 b8 bb
       0.54472315 0.1675413 0.08185944 -0.005640478
000070 1f 06 ba 3e 0d 32 ac bd 39 4b 33 bf dd d9 9e bd
       0.36332795 -0.08407984 -0.70036656 -0.07756398
000080 0c 97 38 3e 69 f6 79 be 16 49 e0 be 35 9b 66 3e
       0.1802637 -0.24410404 -0.4380576 0.22520144
000090 25 09 26 3e 4b b6 bf 3e c3 70 8b 3d 24 25 45 be
       0.16214426 0.37443766 0.06808617 -0.1925245
0000a0 94 30 7b be aa da 29 3f a3 2d 4b 3d f3 6d 32 3e
       -0.2453025 0.6634928 0.04960407 0.17424755
0000b0 37 e6 0e 3e f9 5a 02 bf b2 50 2c bf 07 64 54 3f
       0.13955007 -0.50920063 -0.6731063 0.8296513
0000c0 ab a8 99 be 7b ae 39 3e 5d 2c 13 3f 09 8d dc bc
       -0.30011496 0.18132965 0.5748957 -0.02692272
0000d0 40 b1 8c be 76 e6 82 3f d3 c8 8c 3e 65 87 32 3e
       -0.2747898 1.0226581 0.27496967 0.17434461
0000e0 9b 5d d2 bd 87 f7 e5 bd 60 c1 94 3d 19 d4 16 be
       -0.1027176 -0.11228853 0.07263446 -0.14729346
0000f0 d3 f0 65 3e c1 c2 05 bf 6a ee 41 3e 5e a5 cc 3e
       0.22455148 -0.52250296 0.18938604 0.39969915
000100 51 ac 32 3f e3 37 95 3e 19 f6 d0 3e ed 8e a9 3b
       0.69794184 0.291442 0.40812758 0.005174509
000110 45 f3 a6 3d 67 ed 30 be 82 c5 0c bf 91 c8 fb 3c
       0.08151869 -0.17278062 -0.54988873 0.030735286
000120 e9 e8 dc bd c9 80 56 bc e7 15 8c bd 80 0e 3a 3f
       -0.107866116 -0.013092228 -0.06840115 0.72678375
000130 8b c5 46 3c 94 0f 88 3f 9e 94 13 be 7e 29 cc 3c
       0.012132059 1.0629754 -0.14412162 0.024922129
000140 8a 8b 03 be ff 5d 4d be 8b 7d 81 be 3c fe 64 bf
       -0.12846199 -0.20055388 -0.25291094 -0.8945043
000150 1e 77 20 bf 99 5f c8 3e 7f c7 e3 be fc 08 a5 be
       -0.6268176 0.39135435 -0.4448814 -0.32233417
000160 1b 3d e5 3e c3 4c 2f bf 58 d4 84 3d 17 2e 4e be
       0.44773182 -0.68476504 0.06485814 -0.2013477
000170 6a de 9e 3c a1 ba 7b bd 48 c7 f4 be e6 ed 02 3e
       0.019393165 -0.06145728 -0.4780829 0.12786064
000180 8e 2e b8 3c 32 f0 3f 3e 54 e0 31 bc b5 0f f5 3b
       0.022483137 0.18743971 -0.010856707 0.007478679
000190 47 8d 9b bc 4c bf 11 3f eb ee 0f bf 1a 01 a0 3e
       -0.018988265 0.5693252 -0.56223935 0.3125084
0001a0 aa 8c 8b 3e 87 42 0a 3e 46 7f 68 3e 1b 2d e6 be
       0.27255756 0.1350194 0.22704801 -0.44956288
0001b0 4c 1a e4 3e c8 52 fa bd 21 05 fd be dc 1b 59 3e
       0.44551313 -0.122228205 -0.49417976 0.21202034
0001c0 3e c6 8d 3e f6 81 db 3e 7c b8 2f 3d 89 dd d3 bd
       0.2769031 0.4287259 0.042900547 -0.10344989
0001d0 4e d5 ca 3e ec f8 8f be b2 f6 27 39 d0 32 e3 3e
       0.39615864 -0.281196 0.00016018262 0.44374704
0001e0 d2 e3 b8 be 19 60 c8 3e 87 b0 40 3e fe 5f 0e 3e
       -0.36111313 0.39135817 0.1881734 0.13903806
0001f0 2e 4d 8c bd 69 cb 96 3f da 7c 39 3f b1 cd 21 bf
       -0.06850658 1.1780826 0.72456133 -0.63204485
000200 6f 60 10 bf db d3 50 be 89 5a f2 3e 74 8f 68 3f
       -0.56397146 -0.20393316 0.47334698 0.9084389
000210 71 39 5e bd 4e 2a 8c 3e d4 fe 19 3f a5 1e a7 bb
       -0.054254 0.27376026 0.6015446 -0.0051000887
000220 50 a3 76 3f 47 6e b3 be 1c 96 00 3d 74 b4 1b 3f
       0.96342945 -0.35045072 0.031393155 0.60822225
000230 de 91 ad be d1 c3 6a 3f 3f 57 87 bf 7f e3 cf 3e
       -0.3390035 0.9170504 -1.05735 0.40603253
000240 ca 96 a4 be de 41 f1 be 82 f7 14 be 8b 8f fc 3e
       -0.32146293 -0.47120565 -0.14547542 0.49328265
000250 a1 58 57 3d 39 de 03 3f 3e 37 a9 be 8e 3b 08 3e
       0.052574757 0.5151096 -0.3304996 0.13303968
000260 d0 d6 40 3e d4 a3 c4 3e 27 d6 70 be 27 1f 2e 3e
       0.18831944 0.3840624 -0.23519193 0.17004071
000270 5a 43 07 bd 8e 3b d3 3d 30 38 7d bd c0 48 10 3c
       -0.033023216 0.103140935 -0.061821163 0.008806407
000280 3a 3d cf be a2 ab 47 3e d6 2f 52 3f 16 a1 2c 3e
       -0.404764 0.19499066 0.8210424 0.16858324
000290 c1 db 7a 3e c8 db 16 3f 5d bd 4b 3d 66 07 93 be
       0.24497892 0.5892911 0.049741138 -0.28716582
0002a0 99 29 6c 3e 5a 86 0b 3f d7 f0 8c bf 50 2c be 3d
       0.23062743 0.5450188 -1.1010998 0.09285796
0002b0 b0 e4 1d bf ff 38 0a 3f 08 95 90 be a7 1e 9f bd
       -0.61677074 0.5399322 -0.28238702 -0.07769518
0002c0 8a 80 ba 3e 7a bd 89 3d de e2 bc be 89 38 07 3f
       0.36426193 0.06725593 -0.36891836 0.5282064
0002d0 a7 b2 36 be 55 87 17 bf 55 27 a5 be 60 51 15 be
       -0.17841588 -0.59190875 -0.3225657 -0.14581823
0002e0 65 8f e6 3e d5 8f 0a 3d 80 41 6c 3e 8b 9f 97 3d
       0.45031276 0.033828575 0.23071861 0.07403477
0002f0 bd 16 6b be 1c 49 d8 be a0 a7 f3 3e 56 51 00 3e
       -0.22957893 -0.42243278 0.47588825 0.12531027
000300 ea d9 ee 3e d6 71 4b 3e de 85 c5 3e 7d 04 08 3f
       0.4665063 0.19867644 0.38578695 0.5313185
000310 dd 34 1b 3f d3 01 9f 3d a8 db 05 be 6f cc c3 3e
       0.6062754 0.0776402 -0.13072073 0.38241908
000320 d0 55 5b 3f 2e 25 93 be df 8b 1b be cc 38 92 bf
       0.85677814 -0.28739303 -0.15190075 -1.1423583
000330 88 c0 38 be 96 f5 57 3f 07 f1 b8 bd b5 92 39 3f
       -0.18042195 0.8435911 -0.09030347 0.7248948
000340 34 a9 05 bf 53 5a 9b 3e a8 41 36 3f 2b 9a 57 3e
       -0.5221131 0.3034235 0.71193933 0.21054904
000350 e1 f5 26 be 36 7e 33 be 64 65 95 3e 88 54 01 bf
       -0.16304733 -0.17528614 0.29178917 -0.5051961
000360 90 2a 5a 3e 48 11 0e 3e bf 71 25 3f 16 1d 1a bf
       0.21305299 0.1387378 0.6462669 -0.6020063
000370 d3 e4 60 bf 54 78 97 bd 6e e1 00 bf 4f 55 d9 bd
       -0.8784916 -0.07395998 -0.5034398 -0.106119744
000380 1b 60 92 be 70 5d d4 be 16 61 b0 be 9d 86 9f 3d
       -0.28588948 -0.41477537 -0.3444907 0.07789347
000390 ac 2e 41 3e bf 48 9f 3e 87 1f a3 be a2 8e 82 be
       0.1886546 0.31110188 -0.3185999 -0.25499445
0003a0 99 cc 81 bf f3 dc 97 3f d3 4b 50 3d 5f 67 7f be
       -1.0140563 1.1864303 0.05085356 -0.24941777
0003b0 35 c5 6b be 8c 89 9d 3e 3f 66 63 bf 78 16 1c 3f
       -0.23024447 0.30769002 -0.8882789 0.60971785
0003c0 ac fa 04 3e e6 d6 68 3e 6b 4f ad 3e 68 40 54 bf
       0.12986249 0.22738227 0.33849654 -0.82910776
0003d0 f5 f8 bb be 50 2d 68 3e f4 ac 53 3f 6c 57 9b bb
       -0.36713377 0.22673535 0.8268578 -0.004740646
0003e0 74 31 4b bf f7 23 61 be 01 96 13 bf 38 0e 34 3f
       -0.79372334 -0.21986376 -0.5765076 0.70334196
0003f0 48 e7 79 be 6b 19 1f bf 7e 0c be 3e b7 a3 45 3c
       -0.24404633 -0.6214816 0.37118906 0.012062958

network_body._body_endoder.seq_layers.0.bias f4 [128]
000000 03 a9 b6 3b 56 f2 20 bd cc 6c e8 bd 81 ae 3a bc
       0.005574347 -0.03929361 -0.11348876 -0.011394144
000010 9d 0c ab 3c 73 e2 2a ba 50 4c 95 3b 2d 23 f7 3c
       0.020880038 -0.0006518729 0.0045562163 0.03016814
000020 3c 52 3e 3d 35 57 60 3d 2b 8e 97 3d cb ef 90 3b
       0.046465144 0.054770667 0.07400163 0.004423117
000030 86 56 13 3d 93 b6 b0 bc 7e 7c 4a 3d dd 0b ae 3c
       0.035971187 -0.021571433 0.04943513 0.021245891
000040 91 9b 6b 3d 0b 88 21 bc 64 8f c1 3d 8e 60 f4 3c
       0.057521407 -0.009859095 0.09451178 0.029831197
000050 7d 6a 0a 3d 75 9f 40 3d 31 bd 79 3d 1a 26 52 3d
       0.03379296 0.04702707 0.060971443 0.051305868
000060 31 3f 71 bc cc cc c1 3b 28 11 98 3b f6 e3 ea 3c
       -0.014724539 0.0059143063 0.004640717 0.028673153
000070 4f 6c 37 3d c9 54 36 3a fc c6 9a 3c 86 68 13 3d
       0.044781025 0.0006955383 0.018893711 0.035988353
000080 7e 82 70 3d 5f a4 0d 3d 0d d7 c1 3c f0 53 15 3c
       0.058718197 0.034580585 0.023662115 0.009114251
000090 2c e2 ce bc e5 05 a3 bc 90 80 51 3d 56 50 ce 3c
       -0.025254332 -0.019900272 0.051147997 0.025184792
0000a0 1d 90 d5 bb 05 30 dd 3c d4 f7 8d 3c 64 de 87 bb
       -0.006517424 0.027000437 0.017330088 -0.004146384
0000b0 82 32 4d 3d 71 f5 b3 3b 9d 81 16 bc b0 f8 06 bc
       0.050096996 0.0054919054 -0.009186176 -0.008238003
0000c0 e2 35 51 3d 22 4f 0e 3d 66 df 5c 3c 73 f1 5f 3a
       0.051076777 0.034743436 0.013480997 0.00085427536
0000d0 3e 42 c1 3c b3 13 77 bb 7d 3f f0 3c ca 46 62 3c
       0.023591157 -0.003770095 0.029327149 0.013810823
0000e0 47 3b 17 3d 74 d3 06 3c 19 9a 3e 3d 02 1d 21 3d
       0.036921766 0.008229125 0.046533678 0.039334305
0000f0 64 d6 84 3d 20 5c 1b 3d b3 1f e1 3c 8d 7d c3 3c
       0.06486204 0.037929654 0.027480936 0.023863578
000100 4e 25 b7 3c a8 07 bc 3c ef 61 81 bc cb 8b 06 3d
       0.022356655 0.02295287 -0.015793769 0.03284816
000110 2d 47 61 bd 39 c2 39 39 e6 ff 07 3c bb 5d 68 3c
       -0.05499952 0.00017715328 0.008300757 0.014182503
000120 3b 4c 01 3e da 49 13 3d 09 a2 7c 3d d4 ae 40 3d
       0.12626736 0.035959102 0.061677966 0.04704173
000130 c7 b5 9c bc 81 6e 0a 3d 41 8e 2d 3d 64 6b fe 3c
       -0.019129647 0.03379679 0.042371992 0.031057067
000140 97 00 bf bd 11 1b 68 3b 46 be d3 bc 98 52 fd 3c
       -0.093262844 0.0035416523 -0.025847565 0.030923173
000150 9b 70 54 bd e5 fd f2 3c 98 a5 3a bd c5 68 98 3b
       -0.0518652 0.029662082 -0.04556808 0.0046511614
000160 ac bd 48 3c e4 05 b9 3c d7 53 1f 3d bf 8d 1b 3d
       0.012252253 0.022585817 0.038898315 0.037976976
000170 78 d0 2e bc 8f 21 e5 b9 93 16 48 3c b8 6a 72 3d
       -0.01066982 -0.00043703287 0.012212413 0.059183806
000180 bb 2b 08 bc 5b 3d 53 3d d5 90 be 3d ec e7 37 3d
       -0.008311207 0.051572185 0.09304968 0.044898912
000190 31 44 d6 3c a9 5c 76 3d 21 7d 19 bb f1 e8 6c 3d
       0.026155563 0.06014696 -0.002342053 0.057839338
0001a0 8a 54 cc 3c 15 9c a5 3c 87 bb f1 3c 9d bf a9 3d
       0.024942655 0.020216027 0.029508365 0.082885005
0001b0 0b f8 2f 3d 7c b5 13 bd fd 85 8a bc 97 e9 08 3d
       0.04296116 -0.03606175 -0.016909594 0.033425894
0001c0 41 df 3b bb 24 21 57 bc d0 06 6f bc 6c 07 ae bc
       -0.0028667005 -0.01313046 -0.014589027 -0.021243773
0001d0 96 a4 f5 bb 3c 11 91 bc 1c 8a 11 3d 83 8d 38 bc
       -0.007496427 -0.017708413 0.035532102 -0.011264208
0001e0 bf 58 15 bd 19 f9 cb 3b 5a 56 2b 3d 24 d0 ff 3c
       -0.036461588 0.006224763 0.0418304 0.031227179
0001f0 61 16 32 3d f9 04 a5 3c 2b dd e2 bd 7b 70 b1 3c
       0.043478373 0.020143973 -0.11077341 0.02166008

network_body._body_endoder.seq_layers.2.weight f4 [128, 128]
000000 d8 40 72 bd 5a 93 26 bc 8c d8 fc 3c 0a 3d 11 3e
       -0.05914387 -0.010166967 0.030864976 0.14183441
000010 ba 9a 3d 3d 1f 74 a1 bd 92 f8 b8 bd 32 a6 7c be
       0.046290137 -0.078834765 -0.09031786 -0.24672773
000020 4e cb 11 be fd df 02 3e d1 76 44 3b 2f 46 8d be
       -0.14237711 0.12780757 0.0029978047 -0.27592608
000030 cc 20 6a be b0 bc 34 bb a7 02 5f 3e 9a 79 08 be
       -0.22864074 -0.0027578287 0.21778356 -0.13327637
000040 43 6a f3 bd d9 d9 30 3d 5c b2 c7 3c 09 13 68 be
       -0.11885502 0.043176506 0.02437704 -0.22663511
000050 05 b3 b3 3c 41 52 27 bd 4c 6c 08 3e 17 37 79 bd
       0.02193595 -0.040849928 0.13322562 -0.060843553
000060 05 2b 46 be e2 b0 dc bb 69 a0 b7 bd f4 22 8e 3d
       -0.19352348 -0.0067349533 -0.08966143 0.069402605
000070 73 64 9a 3c 0d c1 10 be 9d 47 86 3c 6f 2a 04 bb
       0.018846726 -0.14136143 0.01639157 -0.0020166894
000080 43 3e 11 be 4b 08 89 3d 45 7b a2 bd 61 9c 59 bd
       -0.14183907 0.06691035 -0.07933668 -0.05312765
000090 b7 93 3a be 4a 6a 68 be fa 06 19 be 50 c2 87 be
       -0.18220411 -0.22696796 -0.14944068 -0.26515436
0000a0 e7 f9 75 bd 80 22 23 bd 41 a4 08 3d cd c6 a5 be
       -0.06005278 -0.039827824 0.03335977 -0.32378235
0000b0 5b 3c f4 3d 92 55 02 3e 12 f1 1b bd b5 12 e9 bd
       0.119255744 0.12727955 -0.0380717 -0.11380521
0000c0 a3 90 9c 3d f0 3e 8e bd 2d ba 2e 3d 5e 33 96 3c
       0.07644775 -0.06945598 0.04265802 0.01833504
0000d0 51 b7 27 bc f7 4b db be e5 07 13 bd e9 62 6d bd
       -0.010236577 -0.42831394 -0.0358962 -0.057955656
0000e0 9b 43 4d 3e 15 c7 4c 3c f3 a4 a3 3a 7e d3 12 3e
       0.2004532 0.012498637 0.0012485072 0.1433849
0000f0 c2 87 38 bc cc e4 58 3d a6 e3 60 be 68 1b 49 bd
       -0.011262836 0.052952573 -0.21961841 -0.049098402
000100 c9 42 5b be 3a 81 c6 bc ae 2c 96 3d 31 de 8a 3d
       -0.21412195 -0.024231542 0.07332741 0.06780661
000110 6d 78 03 3d 24 75 18 bc 52 dc 20 3e 4b 29 80 bd
       0.03209727 -0.009305272 0.15709046 -0.06257876
000120 1e f2 c6 bd b2 dd aa bd 6d 6b 7a 3a b8 b2 e7 bd
       -0.09714149 -0.08343066 0.0009552751 -0.11313385
000130 c3 9d ab bd f4 ad 10 bb 1d 2e 01 3e 4c 75 52 be
       -0.083797 -0.002207634 0.12615247 -0.20552558
000140 67 92 2d be 70 02 85 3c b7 ef 89 bd 09 0f f3 3d
       -0.1695038 0.016236514 -0.06735175 0.11868102
000150 d8 c6 f8 3d 6f ac b0 bc be 49 ac bd 07 e1 1b be
       0.121473014 -0.021566598 -0.08412503 -0.1522256
000160 91 d7 4c bd d7 bb 08 be cd 59 67 be b3 74 0e be
       -0.050010268 -0.13352905 -0.2259285 -0.13911705
000170 45 3c dd bd 36 67 25 3e 53 3b d9 3d b1 3e 66 bd
       -0.10802511 0.16152653 0.10607018 -0.05621213
000180 17 da 07 3e 20 e4 d3 bd ba 31 ee 3c 4d e9 8c bd
       0.13266788 -0.10346246 0.029076446 -0.06880436
000190 90 8f 85 3d 52 ba ab 3d 78 45 48 be e3 d1 c8 3d
       0.06521523 0.08385147 -0.1955775 0.09805658
0001a0 0d 80 bf bc 65 8f 85 3d 8d 88 f7 3b c9 6b 28 be
       -0.023376489 0.06521491 0.00755412 -0.16447367
0001b0 b4 2c e2 3d 32 bb f2 bd 7a e4 9f 3d 6f 29 ea 3d
       0.11043683 -0.11852111 0.0780725 0.11433684
0001c0 b7 b9 18 3e d1 97 20 be 2f 9b 63 be 69 9f 1f be
       0.14914595 -0.15682913 -0.22227167 -0.15588154
0001d0 24 2a 1b be 91 d0 f5 3d 4b f3 de 3c b1 ac da bd
       -0.15152794 0.120026715 0.02721562 -0.106774695
0001e0 71 c5 4b 3d 42 36 e4 3c f2 3a 0e be 23 c0 13 3e
       0.04974884 0.027857903 -0.13889673 0.14428763
0001f0 98 ea 2d 3d 4e e5 fb bb 3f 57 c3 3c af de 84 3c
       0.042460054 -0.0076872474 0.023845313 0.016219465
000200 e5 a3 57 bd 25 47 85 bd f5 0a ba bd 45 2b 34 3d
       -0.052646536 -0.0650771 -0.09084121 0.043986578
000210 86 ea a0 bb 6d fc 6c 3b 81 45 87 bd 15 26 ce bd
       -0.00491077 0.00361612 -0.06605054 -0.10065857
000220 24 fa 42 3d 06 fd d8 3d bf f6 c6 bd 7c 32 22 be
       0.047601834 0.105951354 -0.09715032 -0.15839571
000230 20 39 e8 3d 9d 30 96 3c cb 45 06 bd 0b b7 87 3d
       0.11339021 0.018333727 -0.032781404 0.066267096
000240 16 67 14 3c 24 27 8b 3d 10 f7 a0 3d 9e 38 b2 3d
       0.009057781 0.06794575 0.078596234 0.08702205
000250 f3 ce ba 3d 70 eb 15 bd 3e 31 1a 3e e2 9a 13 3e
       0.09121504 -0.036601484 0.15057847 0.14414552
000260 2c da 07 3d 58 40 4a be c1 b6 b4 bc 82 0f cd 3d
       0.03316705 -0.19751108 -0.0220598 0.100127235
000270 51 2a 4f 3d c8 a4 be bd 22 23 27 bd e9 49 86 3d
       0.050577465 -0.09308773 -0.04080499 0.06557066
000280 12 b9 40 3d cf ef 90 bd d9 39 30 bd 7a 20 25 3e
       0.047051497 -0.0707699 -0.043023918 0.1612567
000290 ad 5c 24 bd c9 d8 ba 3c 29 99 5d 3d d6 82 69 be
       -0.040127445 0.02280845 0.054101143 -0.22803816
0002a0 a0 5a 17 bd b4 85 bf 3c a0 fa 0e 3c 3c 3e 9f bd
       -0.03695166 0.023379184 0.008726746 -0.07775542
0002b0 90 92 50 3e be 35 4e 3d 8b 31 08 be 9f bd a0 bd
       0.20368409 0.05034422 -0.13300149 -0.07848667
0002c0 71 b4 0e 3e 5c a1 e3 3d 86 50 01 3c 5f 5a 30 3d
       0.1393602 0.11114761 0.007892733 0.043054935
0002d0 27 ca e1 3d 89 cd 1a 3d 87 03 0d bd 34 77 e6 3d
       0.110248856 0.03779367 -0.034427192 0.11253205
0002e0 ce 5e 01 3e c9 f8 88 3e 81 39 0a bd 72 9e 03 3e
       0.12633821 0.26752308 -0.033746246 0.12853411
0002f0 d8 8c b0 3d 91 4a 64 bd 20 dd e6 3d 72 ff d0 3d
       0.08620614 -0.055735175 0.11272645 0.10204972
000300 5e 51 dd bd 44 81 82 bd 87 e4 82 bd 14 32 88 bd
       -0.10806535 -0.06372312 -0.063912444 -0.06650177
000310 c9 59 a1 bd b1 ce 81 bd 79 94 8a 3b c9 e1 97 3d
       -0.07878453 -0.063382514 0.004229125 0.07416112
000320 e9 17 a7 bc 51 94 08 3e 38 a8 94 3d d8 e9 82 bd
       -0.020397143 0.13337828 0.07258648 -0.063922584
000330 7e 37 4a bd c3 d1 aa 3c d5 1b dc bd 0b f9 39 be
       -0.049369328 0.020851975 -0.10747496 -0.18161409
000340 a2 83 36 3e e4 b7 23 3e 46 d8 a9 3c 3c f1 bf bc
       0.17823651 0.15988117 0.02073301 -0.02343046
000350 57 ca a1 3c ca 66 a6 bc 44 84 97 bd 5e b0 84 bd
       0.019749803 -0.020312686 -0.073982745 -0.06478952
000360 b3 eb 1b be 57 c7 a5 3d 4a 87 47 3d 8a 64 a4 3c
       -0.15226631 0.08094662 0.048713006 0.020067472
000370 3b 3a ff bb b9 09 b4 3d 8b 13 af 3d 35 81 27 3e
       -0.007788924 0.08790917 0.085486494 0.16357882
000380 7f 9f e5 3c 57 71 29 be 50 fb 38 3d 62 b6 db bd
       0.028030155 -0.16547142 0.045161545 -0.10728146
000390 29 ed 3b 3d d8 a4 90 3c e0 43 46 be 0f 72 b7 bd
       0.04588047 0.017656729 -0.1936183 -0.08957302
0003a0 08 a4 d1 bd c6 ba b9 bd 6d bf 2d bd aa a6 bb 3d
       -0.102363646 -0.09068827 -0.042418886 0.09162648
0003b0 b2 1d e4 3c bc 11 0b 3e ff ee 95 3d f2 3d ae 3d
       0.027846191 0.13580984 0.073209755 0.08507909
0003c0 df 11 69 bd fb 9f 1a 3e 8b 9f c8 bd 61 4c d9 3d
       -0.05690181 0.1510009 -0.097960554 0.10610271
0003d0 95 78 5c bc 5c eb 77 3d 76 34 66 3e cb 32 9a bc
       -0.013456483 0.06052719 0.2248095 -0.018823048
0003e0 2b 68 47 3c 3f 28 a5 bd e4 9e 5b 3d 9b 23 bf 3d
       0.012170832 -0.08064317 0.053618327 0.09332963
0003f0 cd 8f 02 be 81 31 02 be e0 a6 86 3b bc 92 03 be
       -0.12750168 -0.12714197 0.0041092485 -0.12848943

network_body._body_endoder.seq_layers.2.bias f4 [128]
000000 e2 52 ff 3c a2 45 22 3d 05 da 6a 3d 2f 03 b4 3c
       0.031167451 0.03961719 0.057336826 0.021974174
000010 5f dc 4f 3d 1b dc 1d 3d 89 17 96 3c 3e be 18 bd
       0.05074727 0.038539987 0.01832177 -0.037290804
000020 fd a6 e1 3c 6a 14 eb 3c a3 7e 30 3d 20 2b 44 3a
       0.027545447 0.028696258 0.04308952 0.0007483233
000030 53 5f 8e 3d 2c 0a bc 3c 75 2a 78 3d 1a 83 95 3c
       0.069517754 0.02295407 0.060587365 0.01825099
000040 9b d5 99 3c b3 bd b4 3c 94 8a 5b 3d 39 dd 36 3d
       0.018778613 0.022063112 0.053598955 0.044644568
000050 24 a3 c6 3c 2e 3d fe 3c fa 7e 36 bd 0d 70 4b 3d
       0.024247713 0.031035032 -0.044554688 0.049667407
000060 85 ce 95 3d 6a aa 0d bd 24 69 08 bc 2f 6f b3 3c
       0.07314781 -0.034586348 -0.008325849 0.021903602
000070 3b 0a 29 3d 44 fd 49 3d 8f 16 27 3d 6a 64 12 bd
       0.041269522 0.0493138 0.040792998 -0.035740294
000080 3b 5a 41 3d 81 a2 02 3d b9 92 6b 3d fb 1f b0 3c
       0.04720519 0.031893257 0.057512973 0.021499624
000090 81 aa 56 bd 9b 15 8d 3d 22 30 3c 3d 16 f8 43 3d
       -0.0524087 0.068888865 0.04594434 0.047844015
0000a0 73 f7 82 3d 07 73 db bb 11 1b 71 3d 93 28 3d 3d
       0.063948534 -0.006697062 0.058863703 0.046181273
0000b0 0b 12 3d bc 7e 24 92 3c 17 b8 09 3d 7d 98 8e 3d
       -0.011539946 0.017839666 0.033622827 0.069626786
0000c0 4f 30 59 3d 09 3e 5b bd 37 15 59 bd b0 26 42 3d
       0.053024586 -0.05352596 -0.052998748 0.047400177
0000d0 81 d7 55 3d 3c 6f 35 3d 9d 2f 46 3d 98 14 00 3d
       0.052207474 0.044295534 0.04838525 0.03126964
0000e0 d8 17 63 3d ec bf 30 3d fe 0b 80 3c b4 55 1e 3d
       0.05544266 0.04315178 0.015630718 0.03865595
0000f0 c1 d8 10 3d c4 f6 07 3d 5b d2 0c bd 13 14 17 3d
       0.035362963 0.03319432 -0.034380298 0.03688438
000100 5b 7f d3 3c dc 5f 43 3d f6 51 86 3c 48 71 76 bd
       0.025817564 0.04769884 0.016396504 -0.060166627
000110 83 66 39 3c 77 6d 03 bd be f6 22 3d 13 ff f8 3c
       0.011315945 -0.032086816 0.039786093 0.030395066
000120 00 74 5a 3d 5f 1d 1b bd 5e 26 8e 3d 93 df 71 3d
       0.053333282 -0.037869807 0.06940912 0.059051108
000130 84 be 9d 3c 4e 5c 8a 3d dd b4 27 3d 52 52 89 3d
       0.019255884 0.06755887 0.04094397 0.067051545
000140 00 84 24 bd c8 cc 18 3d 60 89 77 3d f3 6d 21 bd
       -0.040164948 0.03730467 0.060433745 -0.039411496
000150 b0 58 7c 3d ed 5f 6f 3d 8d 51 7d 3d 05 00 58 3d
       0.061608016 0.05844109 0.06184535 0.052734394
000160 a5 2d 77 bd 86 fb 5c 3c 7e 27 0c bd d5 63 8b 3d
       -0.060346264 0.013487702 -0.03421735 0.06806151
000170 3e 12 53 3d fe 24 16 3d 20 d3 7a 3d bd 19 3f 3d
       0.05153107 0.036656372 0.0612365 0.046655405
000180 8b 80 0d 3d 4a 2d 58 3d cf 12 ae 3c e1 19 76 3d
       0.034546416 0.052777566 0.021249203 0.060083274
000190 c8 c8 fc 3c 4a 15 da 3c 33 ca 78 3d 2d 24 f5 3b
       0.030857459 0.02662148 0.060739707 0.007481119
0001a0 00 3f 84 3d b7 37 35 3d e1 fb 29 3d f6 81 62 3d
       0.06457329 0.044242587 0.041499976 0.05529972
0001b0 a0 17 35 3d db bd 8e bc ea e9 97 3c 64 20 56 3d
       0.044211984 -0.017424515 0.018544156 0.052276984
0001c0 e2 4a 82 3d c6 e7 1a bc 6d 14 f7 3c 7d 6f 0e bd
       0.06361939 -0.009454673 0.030161107 -0.034774292
0001d0 a1 cd 7a 3c 56 cf 0e 3d 2b 50 07 3d 57 80 c9 3c
       0.015307815 0.0348657 0.03303544 0.02459733
0001e0 c9 cd 27 3d ca e6 63 bd 05 86 17 3d ff e8 0e bc
       0.040967736 -0.05564002 0.036993045 -0.008722543
0001f0 ec b1 94 3d c9 be 5e 3d 97 14 7c bd 88 04 47 3d
       0.072604984 0.054381166 -0.061543074 0.048588306

action_model._discrete_distribution.branches.0.weight f4 [5, 128]
000000 14 50 fe bb 48 56 09 bd 2f ca 4f bd f5 ae 22 3d
       -0.007761011 -0.03352955 -0.050729927 0.039717633
000010 fc e1 2a bd 0b a2 dc bb 1f 03 26 3d d0 80 87 3d
       -0.04171942 -0.006733184 0.04053032 0.06616366
000020 2f 91 d4 3c f8 e6 13 bc 4b 78 95 bc 38 b3 f1 3c
       0.025948135 -0.009027235 -0.018245837 0.029504403
000030 2b b2 e1 bc 27 86 b3 bb f4 60 8c bd a4 12 7b 3b
       -0.027550777 -0.0054786387 -0.0685443 0.0038310671
000040 62 e8 1a 3d 4f d5 a9 bc c0 b8 83 bd 24 40 2b bd
       0.037819274 -0.020731596 -0.06431723 -0.041809216
000050 25 36 87 3c 77 f8 e3 3c 9f bd 49 3d 23 c9 30 bd
       0.01650531 0.027828438 0.049253102 -0.04316057
000060 ae e4 88 bd b5 40 89 3d 54 cd 94 3c c0 60 3c bd
       -0.06684242 0.06701795 0.018164314 -0.045990705
000070 7b ad 02 bd 9e e9 28 bc 37 ba 3a bd 14 c4 ce 3c
       -0.031903725 -0.010309605 -0.045587745 0.025239982
000080 30 fa 86 3c 29 ed 56 bd 8e d5 62 bd b0 bc 7c 3c
       0.01647672 -0.052472267 -0.055379443 0.015425846
000090 e3 c2 98 3d a3 16 81 bd 0a 1f af bc 31 60 9e bc
       0.07459047 -0.06303146 -0.021377105 -0.019332977
0000a0 29 46 8c bd fd 12 18 bc ea e8 78 bd 95 2a 65 bc
       -0.068493195 -0.009281871 -0.060769 -0.013987203
0000b0 9f 96 4e 3d 46 c3 da 3c 92 41 f8 bb 00 1e 90 bd
       0.050436612 0.026704442 -0.007576176 -0.07036972
0000c0 e1 a0 ff bc af 43 78 3d 72 82 9c 3d 21 a5 7b bd
       -0.031204643 0.060611423 0.07642068 -0.061436776
0000d0 31 87 ce 3b 0e 0e 1b bd 48 e0 21 bd 54 4c 14 bd
       0.006302737 -0.0378552 -0.039520532 -0.036205605
0000e0 aa db 50 bd 25 81 41 bd f1 76 de 3c 7a cd 46 bc
       -0.050990738 -0.047242302 0.027156325 -0.01213395
0000f0 59 ac 05 3b 26 83 e0 ba 0e 25 53 3d 20 c1 94 3c
       0.0020396917 -0.0017128929 0.05154901 0.018158495
000100 4d 4c b3 3c c1 62 46 bd 87 5d 09 3c ee d9 a9 3d
       0.021886969 -0.048434023 0.008384115 0.0829352
000110 92 4b 38 3d ba 88 6b 3d 48 12 05 bd 06 18 49 3c
       0.044993944 0.05750344 -0.032488137 0.012273794
000120 1f cd ea bb 37 9c 9e 3d da b0 66 bd e4 88 71 bd
       -0.0071655656 0.07744639 -0.056321003 -0.05896844
000130 da 41 6c 3d 4d 06 af bd b9 e6 84 bd de d4 34 bd
       0.05767999 -0.08546124 -0.06489319 -0.04414832
000140 34 0e 87 3d 6b 18 1b bb 37 b1 aa bd 6d 24 92 3d
       0.06594506 -0.0023665677 -0.08334582 0.07135854
000150 d8 5b 56 bd f1 1e 2b bd 7d 25 61 bd 24 44 22 bd
       -0.052333683 -0.041777555 -0.054967392 -0.039615765
000160 42 80 97 3d bf b6 7a 3c 54 bf 6d 3d d7 89 50 bd
       0.0739751 0.015302359 0.058043793 -0.050912704
000170 89 7c 3b bd ed fb 73 bc 26 b0 8c bd 7c 39 3f bd
       -0.045773063 -0.014891607 -0.06869535 -0.04668568
000180 1a 67 37 bd 8d 08 54 bd 3f 03 0d bd 6a 3f 20 bd
       -0.04477606 -0.051765967 -0.034426924 -0.039122976
000190 d0 e2 3b bb 24 e5 46 3c af 35 aa bd 25 ef 2d 3d
       -0.0028669126 0.012139592 -0.083110206 0.042464394
0001a0 79 d0 bb bd a3 bc d1 bc 46 21 fb ba 7e ec 7e bd
       -0.091706224 -0.025602644 -0.0019159697 -0.062237255
0001b0 6f c5 90 bc 26 a9 db 3c d5 a8 06 3d 13 4b 7c bd
       -0.017672269 0.026814055 0.032875855 -0.061595034
0001c0 ac 17 0b bd cb 30 b5 3c 05 90 ad bb 66 69 5b 3d
       -0.033958122 0.022117993 -0.0052967095 0.053567313
0001d0 26 bd d9 3c fa df 69 bc 5f 9e 1b bd c1 04 b9 3c
       0.02657945 -0.014274592 -0.03799283 0.022585275
0001e0 81 ac 3d bd ec 2b a7 3d 20 4b c0 bc b2 7b 42 3d
       -0.04630709 0.08162674 -0.023473322 0.047481246
0001f0 7d 5f 8c bd 65 92 27 bc 7b af b3 3d cc 4a 53 bd
       -0.068541504 -0.010227774 0.087737046 -0.051585004
000200 c0 ba a1 bd 10 d9 e7 3b bb 4d 27 3d f3 e5 76 bd
       -0.07896948 0.0070754364 0.040845614 -0.06027789
000210 7e fb 82 3d 12 7f 9e bd 17 47 92 bd 3b 23 90 bc
       0.063956246 -0.077390805 -0.071424656 -0.017594924
000220 46 65 87 3d 9a 49 d2 3d 8b c8 99 3d e6 b5 73 bd
       0.06611113 0.10267945 0.07508954 -0.059499644
000230 30 c9 0c be 0c 45 6e 3d de 5a 8e bd d6 e9 10 3d
       -0.13748622 0.058171317 -0.06950925 0.035379253
000240 10 38 90 bd 51 cd 74 bd 45 8c 98 bc 94 1c 11 bd
       -0.07041943 -0.059766117 -0.018621573 -0.035427645
000250 96 a4 63 3d 07 5f b4 bd 22 ac 19 bd 62 1b e9 bc
       0.055576883 -0.088071875 -0.037517674 -0.02845544
000260 c9 1b f4 bd 0d 78 43 bd c9 36 2c 3d 9e 71 57 3c
       -0.11919362 -0.04772191 0.042044435 0.013149647
000270 89 f2 01 bd b5 19 eb bd a0 5c 8a bd c1 5e 86 3b
       -0.03172544 -0.114795126 -0.06755948 0.004100651
000280 f3 08 9b bd 81 e6 a2 bd 19 cc 08 3d 76 48 90 3d
       -0.07570066 -0.079541214 0.033397768 0.07045071
000290 66 0e 97 3a cd c0 83 bd cc ed aa bd 2e 40 81 3d
       0.0011524677 -0.06433258 -0.083461374 0.063110694
0002a0 bd 52 30 bd 7d be 69 bd 36 8d 2f 3d 2a bb 92 bd
       -0.043047655 -0.05706643 0.04285928 -0.07164605
0002b0 63 79 10 3d c4 b7 b1 3d f7 d1 d1 3d c2 e9 aa bd
       0.035272013 0.08677629 0.10245126 -0.08345367
0002c0 82 47 c4 3d 97 78 df bb c2 68 2d bd fc c1 1f bd
       0.095839515 -0.0068197954 -0.042336233 -0.039003357
0002d0 b7 85 d3 bd f0 17 54 3d 8d cb 2e 3d 04 a7 2f bd
       -0.103282385 0.05178064 0.04267459 -0.042883888
0002e0 66 91 81 3d 75 ab 72 3d ed 31 91 3d 20 fd 49 bd
       0.06326561 0.059245545 0.07089601 -0.049313664
0002f0 4c aa cb bd d4 b3 bc 3d 68 55 1a bd 5b 62 c3 3d
       -0.09944591 0.09213987 -0.037679106 0.09540244
000300 70 08 8f bd 45 e7 9b bd 2a 80 96 bd 64 63 5a bc
       -0.06984031 -0.076124705 -0.07348664 -0.013329361
000310 70 d1 93 3d fb 7b 97 3c 6c 0d 9e bd 15 85 88 3d
       0.072176814 0.018491736 -0.07717404 0.066660084
000320 60 36 01 be fc ef 90 3c a3 46 e9 bd dc 5a 7b 3d
       -0.12618399 0.017692558 -0.11390426 0.061365947
000330 41 5f 9a bd fa f7 cf bd a7 00 ce bb 7d 13 ad 3d
       -0.075376995 -0.1015472 -0.006286699 0.08450983
000340 7d aa df bc e5 06 88 3d 83 60 f2 3c 75 26 6d bd
       -0.027302975 0.0664194 0.029587036 -0.057898004
000350 50 1a bd bd 2f 33 37 bd 28 b2 4a 3d cf d6 2e bd
       -0.09233534 -0.044726547 0.04948631 -0.042685326
000360 d2 6a c0 bc cb 0b 27 bd aa 2b 42 bd b6 c3 fc bd
       -0.023488436 -0.04078273 -0.047404923 -0.123420164
000370 e9 8b b2 3c 3f c5 88 3d df 89 71 bd 39 f6 b7 bd
       0.02179523 0.06678247 -0.058969375 -0.0898251
000380 44 99 c2 bc ed 3a b6 bd 41 4c d9 3c 2d ff c8 bd
       -0.023754723 -0.08897958 0.026525619 -0.09814296
000390 59 f1 c2 bd 82 95 9c bd 05 57 98 3c a0 29 cb bd
       -0.0951869 -0.07645704 0.018596182 -0.09920049
0003a0 75 a5 0a 3d 09 1b a0 3d d4 1b 9f 3d 34 ea 25 3d
       0.0338492 0.078176565 0.0776898 0.040506557
0003b0 a6 2b ba 3d 8c 95 0c bd e0 ac b3 3d 0b 52 5f bd
       0.090903565 -0.034322307 0.08773208 -0.0545216
0003c0 ea 20 a3 3d d8 da 4d 3d dd 87 ab 3d 7b 21 9b 3c
       0.07965262 0.050257534 0.08375523 0.018936863
0003d0 6e 60 75 bd ee 59 95 3d 60 7f 77 bc 4b 0d c0 3d
       -0.059906416 0.07292543 -0.015106052 0.093775354
0003e0 5c fd d8 bc c8 e9 b7 3b 08 96 7d 3d e8 a9 57 bd
       -0.026487999 0.0056125857 0.06191066 -0.05265227
0003f0 20 e5 d5 bd 92 8a bb 3d 2c 4b 31 bb a0 80 b8 3c
       -0.10444093 0.091572896 -0.0027052863 0.02252227

action_model._discrete_distribution.branches.0.bias f4 [5]
000000 41 58 81 bd a1 80 82 3c a4 8c c0 3b 0e ac 82 3c
       -0.06315661 0.015930476 0.0058761407 0.015951183
000010 db a2 7d 3c
       0.015480722

exp_avg f4 [128, 6]
000000 61 34 d7 b7 e6 9d 44 39 e4 79 1f 37 29 56 7f 37
       -2.5654388e-05 0.00018750838 9.505518e-06 1.5219245e-05
000010 2e b6 05 39 7d 50 28 b8 99 08 c2 36 2f c3 91 38
       0.00012751736 -4.0129282e-05 5.7826514e-06 6.9504946e-05
000020 e7 96 4e 36 02 01 e2 35 c4 b5 48 38 48 85 db b6
       3.0784229e-06 1.6838605e-06 4.7853e-05 -6.5422246e-06
000030 6b 92 48 37 64 53 29 37 d9 e8 aa 36 65 c3 3c 36
       1.19550195e-05 1.0092601e-05 5.093502e-06 2.8127918e-06
000040 92 6a 10 37 14 ae 48 37 cf a5 03 38 35 c9 2d b9
       8.607882e-06 1.196146e-05 3.1387255e-05 -0.00016573521
000050 85 0c a7 b6 63 a6 82 b6 ff 3f f5 b8 da 74 3d 38
       -4.9784453e-06 -3.893672e-06 -0.000116944306 4.5169938e-05
000060 1b 85 88 37 c9 4e 40 b9 06 b0 0c b8 0d 5e 89 b7
       1.6274445e-05 -0.00018339897 -3.3542536e-05 -1.6375468e-05
000070 7e f3 2c b9 67 d7 41 37 5e 92 c4 b6 e9 ee 54 39
       -0.00016493906 1.1553849e-05 -5.8582946e-06 0.00020306896
000080 d5 c6 13 38 fb 98 ac 37 ff ce 32 39 34 c7 8f b8
       3.5232708e-05 2.0575235e-05 0.00017052515 -6.855876e-05
000090 fb 21 fc b7 bb ae 97 39 8c 70 a9 37 78 70 30 37
       -3.0056564e-05 0.0002893115 2.0198779e-05 1.0516604e-05
0000a0 74 a3 50 39 eb 1f 69 b8 fa 39 44 b8 60 e0 d4 39
       0.00019897317 -5.5581255e-05 -4.6784036e-05 0.00040602963
0000b0 0c a6 16 38 fe bd 20 b5 db e6 af 39 dc 7f e9 b8
       3.591743e-05 -5.988112e-07 0.00033550602 -0.000111341215
0000c0 e6 34 06 b8 c8 5b 80 39 ac d1 57 37 bd be 93 37
       -3.1997355e-05 0.00024482445 1.2863817e-05 1.7612585e-05
0000d0 88 4c 55 39 29 7c 80 b8 d6 69 eb b6 d2 4d e5 b8
       0.00020341773 -6.126642e-05 -7.0158667e-06 -0.00010934066
0000e0 5d ca e9 b7 ad c1 d3 b7 6a 6b c9 b8 2d ea c7 b6
       -2.7869997e-05 -2.5243347e-05 -9.604434e-05 -5.957924e-06
0000f0 b6 60 d1 b7 e9 41 8b b8 c1 49 5b b8 16 5e 3c b8
       -2.4959776e-05 -6.640313e-05 -5.2282358e-05 -4.4910317e-05
000100 3f 96 cf b8 9f bf 22 b8 b9 0d 42 b8 c7 9a 2e 39
       -9.898515e-05 -3.880227e-05 -4.6265985e-05 0.00016651592
000110 75 6a e2 36 ef b6 31 37 da dc 01 39 23 1c b4 b8
       6.747718e-06 1.0592615e-05 0.00012384672 -8.58831e-05
000120 2f fc 22 b8 c0 37 28 39 90 cc db 35 5b a7 13 b7
       -3.8858674e-05 0.00016042497 1.6376307e-06 -8.800848e-06
000130 4a 12 f2 38 e4 e1 67 b8 e3 20 63 37 4e 38 5b b8
       0.00011542866 -5.528507e-05 1.3537911e-05 -5.2266107e-05
000140 44 1d 68 36 bc e9 05 b6 53 ff cd b7 ff 6d 03 38
       3.4587729e-06 -1.9954596e-06 -2.4556799e-05 3.1335276e-05
000150 00 7f 73 37 8c b7 f8 b9 5f b2 dc b7 f3 57 1d b8
       1.4513498e-05 -0.00047439 -2.6309104e-05 -3.7513626e-05
000160 e2 b9 8b b9 a1 e6 c2 38 8b c6 36 b8 46 cb 2f 39
       -0.0002665064 9.293599e-05 -4.357709e-05 0.00016765026
000170 6c ae 88 37 5b 22 be 37 9e ba 2c 39 92 19 d4 b8
       1.6293685e-05 2.2665763e-05 0.00016472719 -0.000101137106
000180 67 ad 15 b8 6e a9 23 39 56 65 8f b6 a9 93 d2 b6
       -3.568586e-05 0.00015608009 -4.273529e-06 -6.2756776e-06
000190 48 ba d9 38 bc 59 8a b8 0f fe 84 37 1a aa 8a b9
       0.00010382064 -6.597067e-05 1.5853931e-05 -0.00026448147
0001a0 48 c0 53 b7 fa 8c 61 b7 c5 b9 17 b9 29 e9 a2 38
       -1.2621349e-05 -1.3443869e-05 -0.00014469687 7.7681914e-05
0001b0 c4 50 13 b8 63 3d ba 37 4b cb 75 b7 f5 9f a8 b7
       -3.512275e-05 2.2201513e-05 -1.4650471e-05 -2.0101646e-05
0001c0 5c 97 91 34 fc ee 32 b8 d2 67 5e b7 1c d1 6b 38
       2.7118483e-07 -4.266108e-05 -1.3256404e-05 5.6223114e-05
0001d0 34 1f 7a 34 0a 28 86 35 0e ec 6b 38 fe d9 d2 b7
       2.3294416e-07 9.995431e-07 5.624821e-05 -2.5135461e-05
0001e0 01 fa a7 b7 93 07 98 39 f7 20 a4 37 b2 f7 6f 37
       -2.0024368e-05 0.00028997342 1.9565674e-05 1.4303181e-05
0001f0 60 d9 62 39 c4 6d 64 b8 79 31 ef b7 fd 94 26 38
       0.00021634018 -5.4461663e-05 -2.8514058e-05 3.971624e-05
000200 a2 55 b0 b6 4a a5 c1 b7 4b 75 a9 36 97 4a 56 b8
       -5.2551777e-06 -2.3084362e-05 5.050247e-06 -5.1091043e-05
000210 78 49 9b 37 87 5d ed b9 55 d8 b6 b8 eb 48 d4 b7
       1.8511651e-05 -0.00045273846 -8.718731e-05 -2.5306324e-05
000220 87 3b b1 b9 e2 e2 a0 37 cc 3c 4f b8 cf cf 9c 39
       -0.00033804422 1.9179137e-05 -4.9409267e-05 0.00029909468
000230 ab 5a 35 b7 86 92 48 b7 7c 28 19 39 de 4f 0a b9
       -1.0809551e-05 -1.1955044e-05 0.00014606299 -0.00013190458
000240 c5 3b 6b b7 29 5e d1 38 40 83 c2 37 31 30 32 36
       -1.4021008e-05 9.983435e-05 2.318772e-05 2.6552118e-06
000250 53 de f6 38 36 80 14 b8 f4 53 34 b7 e9 b5 00 39
       0.00011771605 -3.5405355e-05 -1.0748383e-05 0.00012274798
000260 c3 2e 52 37 6a 58 af 37 68 aa dd 38 b5 1c 21 b8
       1.2527863e-05 2.0902797e-05 0.00010569842 -3.8412127e-05
000270 64 e2 4a b8 7f 1f a8 39 71 41 a6 37 19 84 d1 37
       -4.8371396e-05 0.00032066923 1.9819216e-05 2.4976254e-05
000280 f8 51 86 39 d7 e4 fb b8 ab 40 d3 b6 52 dc 8a b8
       0.00025619543 -0.000120112374 -6.2958184e-06 -6.621391e-05
000290 90 bb ec b7 47 31 12 b8 b4 e8 c3 b8 53 29 27 b7
       -2.8220733e-05 -3.4855006e-05 -9.341669e-05 -9.963597e-06
0002a0 72 31 73 b8 8c fe b1 39 f6 a2 a3 b6 50 f4 3b 36
       -5.7981764e-05 0.00033949723 -4.8767497e-06 2.800738e-06
0002b0 e0 72 46 39 08 8a e7 b8 7b e3 de b7 e3 1c 80 39
       0.00018925546 -0.00011040649 -2.6570391e-05 0.00024435585
0002c0 9e 14 53 38 73 c6 37 38 db 7b 8d 39 63 83 8c b8
       5.032552e-05 4.381542e-05 0.00026985895 -6.700193e-05
0002d0 41 31 4f 37 74 a2 86 b8 32 51 85 b7 62 c2 2e b7
       1.2349629e-05 -6.419877e-05 -1.5892645e-05 -1.04164665e-05
0002e0 b6 90 be b8 62 27 ea 37 ff 61 0b 36 16 3f f6 b8
       -9.0868605e-05 2.7913313e-05 2.0769655e-06 -0.00011741945
0002f0 d6 c2 ab b7 15 2d 0b b6 7a a3 b7 b8 90 53 16 36
       -2.0475516e-05 -2.0738855e-06 -8.75657e-05 2.2400382e-06
000300 4c 17 4c b7 19 71 4f b9 3e a9 8e b8 27 02 36 b8
       -1.2164772e-05 -0.0001978319 -6.8026115e-05 -4.3394186e-05
000310 c4 d4 4d b9 2d 0d ca b7 fc 98 ca 37 bd 04 78 b9
       -0.00019629585 -2.4086412e-05 2.4151515e-05 -0.00023652888
000320 80 73 be b7 a8 4e a1 b7 9f 1b 06 b9 c1 28 a9 38
       -2.2703549e-05 -1.9229323e-05 -0.00012789525 8.066139e-05
000330 77 00 f4 b7 ba 90 7c 39 48 6b 1d b6 69 b7 2f 37
       -2.9087283e-05 0.00024086508 -2.345727e-06 1.0473516e-05
000340 af 0d fe 38 4f 7a 97 b8 e1 d7 f6 37 5d 41 80 b9
       0.000121142126 -7.223023e-05 2.9426012e-05 -0.00024462762
000350 de 3c c4 b7 c0 5d 3a b7 01 25 3c b9 4c d3 5e 38
       -2.3393364e-05 -1.1108292e-05 -0.00017942862 5.312571e-05
000360 20 c5 38 b7 82 8a 14 39 32 f4 1b 38 24 d6 71 36
       -1.1013151e-05 0.00014165978 3.7182304e-05 3.6036445e-06
000370 e6 6f 05 39 40 2a 43 b8 a9 72 6a b6 3c 8d 05 39
       0.00012725554 -4.653097e-05 -3.4935458e-06 0.00012736482
000380 90 0d 89 37 54 2c 79 37 c2 cd ed 38 bf 0c 37 b8
       1.6337988e-05 1.48518775e-05 0.00011339366 -4.364247e-05
000390 63 8b b3 b8 b2 dd 0f 3a 9d 1d b7 36 7d 65 6d b7
       -8.561348e-05 0.0005488052 5.4572724e-06 -1.414993e-05
0003a0 fd dd cf 39 06 b1 3e b9 57 72 90 b8 eb b9 78 39
       0.0003964751 -0.00018185758 -6.8877525e-05 0.00023720383
0003b0 f8 72 67 37 ba 3a e9 37 e8 ba 91 39 fc 97 3a b9
       1.3795441e-05 2.7803111e-05 0.0002779581 -0.00017794961
0003c0 94 63 ed b6 9b 5d 05 39 5b 99 93 37 ca 39 08 36
       -7.074743e-06 0.00012718739 1.7595177e-05 2.0299217e-06
0003d0 8d 3c c9 38 35 13 e0 b7 e9 a8 ab b8 a2 29 85 39
       9.595705e-05 -2.6711825e-05 -8.1853774e-05 0.00025398756
0003e0 f3 c4 77 b5 8e 0e 56 b5 04 36 45 39 9e 08 f2 b8
       -9.230127e-07 -7.974239e-07 0.00018807506 -0.00011541064
0003f0 82 35 fe 37 59 a6 04 b9 b7 c0 e0 b7 d2 8e 5f b7
       3.0304076e-05 -0.0001265047 -2.679262e-05 -1.3325089e-05

exp_avg_sq f4 [128, 6]
000000 23 84 29 33 fc 24 ad 33 bf b4 36 33 63 9b 9c 33
       3.9468556e-08 8.062668e-08 4.2539565e-08 7.292581e-08
000010 33 af 8c 33 f8 5d 96 33 9e 11 25 31 d7 7c 79 32
       6.5511266e-08 7.002012e-08 2.4020674e-09 1.4522093e-08
000020 f3 36 15 30 2b 93 3a 2f ed fb 2b 32 6c 0e d4 31
       5.428397e-10 1.6968886e-10 1.0010791e-08 6.1716516e-09
000030 ba 1e 0a 31 5b 80 88 31 a8 dc c9 2f 53 15 81 2f
       2.009911e-09 3.9727133e-09 3.6718473e-10 2.3480115e-10
000040 a1 90 bd 30 86 c7 56 30 14 d6 d5 33 8f 0e a6 33
       1.3792666e-09 7.8136286e-10 9.957526e-08 7.7326256e-08
000050 2c 96 df 31 67 c8 14 33 35 07 74 33 75 6d 57 33
       6.5072268e-09 3.46412e-08 5.6817232e-08 5.015814e-08
000060 b1 b1 15 34 51 f3 f8 33 97 fa 77 33 80 f8 c7 33
       1.394135e-07 1.1592659e-07 5.773708e-08 9.3118615e-08
000070 fc 27 fb 33 be 18 c9 33 71 32 3b 32 13 98 ec 33
       1.16953714e-07 9.3642925e-08 1.0896302e-08 1.10172685e-07
000080 7d f9 ea 33 a8 40 7e 33 e3 f5 18 34 57 f0 04 34
       1.0941856e-07 5.9197788e-08 1.4245556e-07 1.2380893e-07
000090 4e c4 de 33 46 c8 48 34 92 17 b5 33 f9 64 84 33
       1.0373388e-07 1.869931e-07 8.432757e-08 6.165096e-08
0000a0 ee 70 13 34 c1 3d 1b 34 09 ac b9 34 9c aa 0a 35
       1.3731525e-07 1.4457966e-07 3.4584107e-07 5.1657275e-07
0000b0 1e 5b be 34 85 5e c6 33 5e e7 e6 34 4d 88 0a 35
       3.5456554e-07 9.2372865e-08 4.300918e-07 5.160735e-07
0000c0 97 83 9d 33 20 2a 53 34 69 d2 63 34 85 bc 19 34
       7.334818e-08 1.9666231e-07 2.1217569e-07 1.4317818e-07
0000d0 8b c2 47 34 44 70 71 34 10 15 39 33 96 60 30 33
       1.8604094e-07 2.2485716e-07 4.3092825e-08 4.1066038e-08
0000e0 47 79 58 32 a3 91 c0 32 5d 2e 3e 33 0f b0 d9 32
       1.260043e-08 2.241797e-08 4.427999e-08 2.5342187e-08
0000f0 90 91 2c 33 c6 47 4a 32 1b 88 b4 32 72 d6 23 33
       4.017926e-08 1.1774267e-08 2.1016652e-08 3.8146432e-08
000100 38 40 81 33 b7 6e d6 32 87 12 05 34 fc 56 b8 33
       6.018712e-08 2.4963226e-08 1.239333e-07 8.58399e-08
000110 f6 31 9b 33 39 db 5b 33 ba aa b0 33 40 d1 d2 33
       7.226838e-08 5.1189293e-08 8.2266936e-08 9.8169494e-08
000120 5e 17 41 33 24 91 90 33 f0 d5 3a 33 81 b6 2e 34
       4.4957567e-08 6.7319235e-08 4.3501075e-08 1.6271407e-07
000130 1b 7d cb 33 62 b9 dd 33 0e 80 3f 31 39 65 a4 31
       9.475681e-08 1.03248354e-07 2.7866949e-09 4.784536e-09
000140 76 37 08 31 00 00 3f 31 8c 6d a3 31 a7 c5 7a 31
       1.982213e-09 2.7794158e-09 4.7563784e-09 3.649214e-09
000150 84 d1 1a 33 1b 61 0a 35 ee 6b 83 33 0e c6 15 34
       3.6046472e-08 5.1550313e-07 6.119795e-08 1.3948758e-07
000160 ba ce be 34 ab f0 88 34 ee 24 0a 34 9d e9 af 33
       3.554067e-07 2.5507083e-07 1.2865686e-07 8.1915665e-08
000170 b0 4c cf 33 74 d3 fb 33 62 8c 14 34 bd 2f 28 34
       9.653138e-08 1.17265614e-07 1.3834645e-07 1.5663586e-07
000180 d6 30 18 33 b4 c8 61 33 d0 c7 1a 33 09 0d 6e 33
       3.5434674e-08 5.2569433e-08 3.6037648e-08 5.542555e-08
000190 82 aa 6d 33 8e b4 a8 33 96 d2 31 32 3f 21 f0 33
       5.533594e-08 7.855952e-08 1.0350638e-08 1.1181918e-07
0001a0 63 4f bc 33 ff 4b b6 33 76 d1 bb 33 1a 8c ab 33
       8.7688726e-08 8.488859e-08 8.745967e-08 7.988292e-08
0001b0 39 dd bf 31 e7 70 60 31 76 5d da 30 1a 51 17 32
       5.5839817e-09 3.2660468e-09 1.5888151e-09 8.807797e-09
0001c0 c9 28 f3 31 1b fe 19 32 14 5d c6 31 c0 4c dd 31
       7.0768675e-09 8.963549e-09 5.77314e-09 6.440672e-09
0001d0 49 28 51 32 55 0e 99 31 59 25 39 32 e3 ac 67 32
       1.2174561e-08 4.4545154e-09 1.0776909e-08 1.348528e-08
0001e0 fc 96 7d 33 88 7f 77 34 29 fa 19 34 6d b8 35 34
       5.9043472e-08 2.3050063e-07 1.4340243e-07 1.6924032e-07
0001f0 bd 00 58 34 21 cd 7a 34 5b 21 24 32 d9 18 1b 31
       2.0116836e-07 2.335769e-07 9.5536405e-09 2.2569593e-09
000200 4b 0d 26 31 e1 a9 b5 31 cf 7a 4a 32 de 54 81 32
       2.4163735e-09 5.2871063e-09 1.1785871e-08 1.505617e-08
000210 99 cd 83 34 0a 10 0f 35 fa 42 ec 34 4d 3f c6 34
       2.4550243e-07 5.329499e-07 4.4007157e-07 3.692643e-07
000220 0c f7 15 35 f5 da c3 34 3c 5a ca 33 87 1c 8f 34
       5.5866326e-07 3.6480893e-07 9.4227715e-08 2.6656582e-07
000230 f3 60 3f 33 08 d4 dc 34 35 42 fc 33 76 b9 29 34
       4.4558828e-08 4.1132466e-07 1.17467074e-07 1.5806822e-07
000240 c4 e0 18 33 46 eb ff 32 06 a9 26 33 51 66 40 34
       3.559468e-08 2.9792897e-08 3.8803613e-08 1.7918616e-07
000250 a8 90 06 34 f7 26 cf 33 be 68 5b 32 a2 18 4d 33
       1.2532348e-07 9.646276e-08 1.2771293e-08 4.7752685e-08
000260 45 ae 28 33 75 d1 8b 33 17 b5 3c 33 e8 9a 41 33
       3.9274045e-08 6.510792e-08 4.393686e-08 4.50772e-08
000270 39 c4 3d 34 0f fe 9e 34 66 35 26 34 19 ee 7f 34
       1.7673382e-07 2.9614645e-07 1.5479381e-07 2.3835345e-07
000280 e0 2d 93 34 06 e3 a2 34 82 3d 5c 33 c1 e3 df 32
       2.7414262e-07 3.0340033e-07 5.1278683e-08 2.6064187e-08
000290 59 c0 85 32 c2 2f 21 33 bb 74 d9 32 93 97 93 32
       1.5570707e-08 3.752917e-08 2.5315208e-08 1.718198e-08
0002a0 be 07 2e 34 19 5a a4 34 0c 3b 06 31 fd 78 2f 34
       1.620783e-07 3.0612935e-07 1.953313e-09 1.634216e-07
0002b0 3d a8 27 34 81 35 67 34 91 ba eb 33 8d 51 5f 34
       1.5614292e-07 2.1533016e-07 1.09769765e-07 2.0798161e-07
0002c0 c7 9a 9d 34 f3 b1 8c 34 e3 a1 a3 34 8c 98 a5 34
       2.9356144e-07 2.6206507e-07 3.0478904e-07 3.0844637e-07
0002d0 40 74 01 33 30 43 39 32 82 a8 94 32 13 50 3b 33
       3.0140882e-08 1.0783694e-08 1.7306096e-08 4.3612157e-08
0002e0 be cc 99 33 c4 37 85 33 63 67 17 33 34 6c 1a 33
       7.16186e-08 6.203439e-08 3.5251457e-08 3.595433e-08
0002f0 9e 3f 40 32 2d 96 67 32 75 06 4d 33 b0 af 09 33
       1.1190336e-08 1.3480116e-08 4.7736155e-08 3.2057585e-08
000300 c8 a3 20 34 59 1c 0b 34 1e 30 dd 33 94 38 51 34
       1.4960744e-07 1.2955697e-07 1.0299867e-07 1.9485225e-07
000310 d1 f9 38 34 e0 71 d6 33 57 dd 13 33 56 95 f3 33
       1.7227218e-07 9.985865e-08 3.4427412e-08 1.1342733e-07
000320 b6 9f 20 34 90 5a f7 32 9c 65 80 33 02 a5 48 33
       1.4959264e-07 2.8795768e-08 5.978947e-08 4.6716202e-08
000330 4e 72 0c 33 b1 70 38 34 05 c5 35 33 b5 f5 2a 34
       3.270025e-08 1.7177332e-07 4.2321535e-08 1.5921871e-07
000340 61 ab 8f 33 03 59 b1 33 49 06 87 34 40 7f 2c 34
       6.69013e-08 8.258396e-08 2.5150283e-07 1.6065042e-07
000350 db 75 5e 33 e7 62 b5 33 3d ec 16 34 80 1f fb 33
       5.1795592e-08 8.4464595e-08 1.4055782e-07 1.1693828e-07
000360 34 a6 a3 33 6a 55 c9 33 3f 26 06 34 5c 59 fc 31
       7.620511e-08 9.3753286e-08 1.2493636e-07 7.3443243e-09
000370 df 5d 87 33 84 fb 6e 33 77 85 49 32 e0 ae 5a 33
       6.3035024e-08 5.5642445e-08 1.1730086e-08 5.0916128e-08
000380 f1 07 c3 32 cb 3d 97 32 2d 7a 96 33 53 e6 88 33
       2.2704599e-08 1.7606814e-08 7.007143e-08 6.374889e-08
000390 7b 50 3a 35 e9 0a 83 35 55 48 8a 34 e7 44 a8 34
       6.9407514e-07 9.763436e-07 2.5757132e-07 3.1342572e-07
0003a0 81 3d 33 35 83 ad 7e 35 7e 4a c7 34 5b 49 72 34
       6.6772196e-07 9.4874866e-07 3.712084e-07 2.2564693e-07
0003b0 dc 71 49 34 f4 8d 37 35 7d a7 ef 34 45 1a 15 35
       1.8761006e-07 6.837938e-07 4.4639083e-07 5.554505e-07
0003c0 3e b4 a5 32 b7 19 0c 33 b3 67 c5 32 1b 37 8d 30
       1.9290493e-08 3.2619678e-08 2.2980975e-08 1.0274762e-09
0003d0 5e 75 e7 32 2c 1f cb 32 1e 1e da 34 ec b0 4f 34
       2.6945312e-08 2.3646486e-08 4.0627577e-07 1.9342741e-07
0003e0 f3 be 8d 32 12 06 fb 33 bf eb 66 34 4e 49 9a 34
       1.6501394e-08 1.16892025e-07 2.1506183e-07 2.8738071e-07
0003f0 00 69 7f 33 2c 93 c7 32 30 0b 47 34 31 bb 17 34
       5.946731e-08 2.3233575e-08 1.8537389e-07 1.4131071e-07

exp_avg f4 [128]
000000 b9 e1 58 38 42 13 1c 39 d6 2a ff 38 6b 40 28 b9
       5.1708634e-05 0.00014884493 0.00012167326 -0.00016045726
000010 a3 b6 9c b9 a5 4f 65 39 9b ec f4 38 ec 93 fd 38
       -0.00029890714 0.00021868812 0.00011678898 0.00012091533
000020 34 07 25 37 f5 81 a8 b9 4c 59 c8 b9 f5 96 dd b7
       9.8364435e-06 -0.00032140283 -0.00038213504 -2.6415548e-05
000030 6b 71 4a b8 9e 14 2e b7 7f c4 14 ba 1c fd 19 36
       -4.826618e-05 -1.03760085e-05 -0.0005675032 2.2946106e-06
000040 00 d0 09 b9 f2 c7 16 b9 94 27 63 b9 5d 7b 0d b8
       -0.00013142824 -0.000143796 -0.00021663151 -3.373191e-05
000050 c5 c2 31 38 36 6d 5f b9 4b 70 40 ba 63 df 5e b8
       4.238148e-05 -0.00021307622 -0.00073409517 -5.313697e-05
000060 81 60 10 39 81 3c b4 38 a4 7d 03 39 0c f3 86 b9
       0.0001376886 8.5943386e-05 0.00012539938 -0.00025739556
000070 cb 53 29 b8 15 fe 70 39 8c 9b 85 b8 d3 2b 62 b9
       -4.0370778e-05 0.00022982837 -6.370907e-05 -0.00021569365
000080 3f 64 09 ba d9 12 7b b9 38 77 c7 37 75 f6 89 b9
       -0.0005241073 -0.00023944247 2.3778164e-05 -0.000263143
000090 20 e1 6a 39 ba fa 23 39 4d 8d c9 b8 a6 9e b2 b8
       0.00022399845 0.00015638294 -9.610746e-05 -8.517252e-05
0000a0 5b a1 ee 38 4e 6e 27 b9 5c ef ba b6 e8 c8 09 39
       0.00011378779 -0.00015967453 -5.571097e-06 0.00013140182
0000b0 3f 00 b5 b9 28 de a5 b9 b8 9f 4c b9 26 b8 07 38
       -0.00034523194 -0.00031636772 -0.00019514456 3.235801e-05
0000c0 b6 cf 84 b7 66 49 23 b9 06 01 04 38 4c 7f 2f b9
       -1.583235e-05 -0.00015572234 3.1472206e-05 -0.00016736722
0000d0 d5 f3 06 b9 93 3f a3 39 dd 42 38 b9 2f 75 c9 38
       -0.0001287007 0.0003113715 -0.00017572516 9.606254e-05
0000e0 72 63 f7 b9 a4 8f 88 b8 40 86 16 b9 ba a2 c0 b9
       -0.00047185604 -6.5117405e-05 -0.00014355127 -0.00036742334
0000f0 78 56 28 b9 b3 6a 10 b7 de 72 25 b9 10 3d 27 b8
       -0.0001605394 -8.607912e-06 -0.00015778418 -3.987277e-05
000100 9a de 63 39 a3 55 48 b9 58 9c 44 b9 18 25 ef b8
       0.00021731333 -0.00019105388 -0.00018750259 -0.00011403317
000110 a9 77 a4 37 a7 c0 0d 39 d2 ae 69 b9 47 a6 24 37
       1.9606045e-05 0.00013518576 -0.00022285737 9.813876e-06
000120 49 3c 62 b9 3b 4c 0c b9 a5 d1 8c b9 17 a6 5a b9
       -0.00021575498 -0.00013379838 -0.00026859078 -0.00020851973
000130 47 c9 10 38 3f 10 76 38 3d ce 81 b9 ff 84 47 b9
       3.451973e-05 5.86661e-05 -0.00024758457 -0.00019027664
000140 1f c0 47 39 5b fb d3 38 83 3a 16 38 01 90 dd b9
       0.0001904969 0.00010108083 3.581728e-05 -0.00042259696
000150 7e 83 d5 37 08 4d 12 b9 7a 44 fa 38 f8 76 09 b8
       2.545281e-05 -0.00013952341 0.00011933684 -3.2774144e-05
000160 0a a7 86 b9 12 ec 5d b8 1f 3d b6 b9 92 76 5c b8
       -0.00025682925 -5.2910364e-05 -0.00034759284 -5.2562515e-05
000170 ad 0a 29 38 6f 68 a7 b7 34 b0 13 b9 f2 36 ca b8
       4.0302682e-05 -1.9956582e-05 -0.00014084653 -9.642345e-05
000180 8e 96 4a b9 5b ca 34 b9 3f b1 2b b9 30 9d 0a 38
       -0.00019320307 -0.00017241521 -0.0001637386 3.3048156e-05
000190 92 cd 64 b9 7f 53 3d b9 62 6d 1a 39 45 c5 bb b9
       -0.00021820355 -0.0001805555 0.00014727333 -0.00035814397
0001a0 5c 1d 82 b7 c0 db 5f b9 44 9a 24 35 4b c9 bf b9
       -1.551088e-05 -0.000213488 6.1319247e-07 -0.00036580334
0001b0 ab 52 10 ba 16 8b a8 38 80 0e dc 38 27 8c bb b9
       -0.00055054825 8.036771e-05 0.00010493118 -0.0003577184
0001c0 f8 56 20 38 35 66 57 38 eb 6a e3 38 24 22 03 39
       3.822797e-05 5.1355182e-05 0.000108441185 0.00012505852
0001d0 30 15 ee 38 5e 5e 80 38 f4 5e 63 b9 d2 37 fb 38
       0.00011352671 6.121093e-05 -0.0002168378 0.0001197901
0001e0 83 6d 5b 38 76 aa 94 b9 49 dc 3d b9 a2 08 cb b8
       5.231566e-05 -0.00028355763 -0.00018106507 -9.681402e-05
0001f0 1d b3 cf 38 3b 8c e3 36 04 d7 ab 38 d3 1d 59 b8
       9.9038916e-05 6.781452e-06 8.193965e-05 -5.1764608e-05
