Scenes/ImprovedGridWorld2D/results/test-run/DroneGrid2D/DroneGrid2D-500007.onnx (onnx, 77147 bytes, 6 tensors)

network_body._body_endoder.seq_layers.0.weight f4 [128, 6]
000000 04 36 ed 3e b8 1b 12 bd 55 0b 8c bd 96 ff 69 3e
       0.46330273 -0.035670966 -0.06838099 0.22851405
000010 ea 72 13 bd 4f f6 cf bd 77 52 f3 3e 9f 05 85 be
       -0.035998262 -0.101544015 0.47523853 -0.2598085
000020 83 9b 5c 3e c2 13 fe 3d fe 54 cf be 44 2d df be
       0.21543698 0.12406112 -0.4049453 -0.43589222
000030 71 98 0b be 96 67 13 bf ea 6a 66 3e 70 71 35 3f
       -0.1363237 -0.57579935 0.22501722 0.70876217
000040 a8 6e 6b be d2 fb a3 3e b4 82 db be 9c 28 d4 3e
       -0.22991431 0.3202806 -0.42873156 0.41437232
000050 8b a9 83 3f 56 6b 1d 3e 12 8c cd be a9 0e bd be
       1.0286115 0.15372977 -0.40145928 -0.36925247
000060 cf eb dc be 32 a5 b6 be f4 0e 0b bf d6 6b ae 3e
       -0.43148658 -0.3567291 -0.5431969 0.34066647
000070 cc b0 e9 bd 0c 9f 1e 3f 0e 16 93 be f6 c3 3d 3f
       -0.114106745 0.61961436 -0.28727764 0.7412714
000080 3b 0d 04 3f c5 dd 3f 3e 5b 7f 4a bf 5e 12 30 3e
       0.5158269 0.18736942 -0.7910058 0.17194507
000090 69 50 87 be 98 52 1b bf bb ca 63 bf de 5b 9b 3d
       -0.26428536 -0.60672903 -0.8898122 0.07585882
0000a0 09 3f 3f be 55 05 da be 66 f5 e0 3e 54 9a 79 be
       -0.1867639 -0.42582193 0.43937224 -0.24375278
0000b0 51 d9 53 be 3e 53 be bd 99 c4 5c 3e fe 79 43 3e
       -0.20688368 -0.09293221 0.21559371 0.19089505
0000c0 b0 98 c7 3e 38 4a e3 be 61 0f 1b 3f df bd 4b bf
       0.3898368 -0.44392562 0.6057034 -0.79586595
0000d0 b3 72 43 be 28 20 c3 bd 01 5a e6 bd d7 a6 27 bf
       -0.19086723 -0.09527618 -0.11247636 -0.6548895
0000e0 1f 53 e5 3d 05 9d b0 bc 23 70 13 bf ac 84 87 3e
       0.11197495 -0.021559248 -0.5759298 0.26468408
0000f0 56 90 d9 be b4 e5 01 bc 33 be f8 3e b3 bd 75 bf
       -0.42492932 -0.007928301 0.4858261 -0.95992583
000100 af f3 c7 3e 1a 9e 87 be a1 33 42 3e 50 af 30 bd
       0.39053103 -0.2648781 0.18965007 -0.04313594
000110 a6 3d 06 bf 1d d2 3b bf a9 a5 83 bf f4 85 06 bf
       -0.5243782 -0.7336748 -1.028493 -0.52548146
000120 0c 5a a7 be 8a 1e 30 3f 91 f5 a2 3e 9d 15 09 3f
       -0.32685888 0.687966 0.31827977 0.53548604
000130 4a 94 9a be dd 18 96 be ad 1e b1 3f d6 9e fc 3e
       -0.3019126 -0.29315844 1.3837487 0.49339932
000140 5e 4f 23 3e 83 03 36 3e 69 b8 d1 be 7e fe d9 3c
       0.15948245 0.17774777 -0.40961006 0.02661061
000150 e7 b0 65 be e2 6c 9a be a7 60 60 3f d4 68 01 bf
       -0.22430764 -0.30161196 0.8764748 -0.5055058
000160 3e ea c0 bd 66 fa 10 3f f3 79 fa 3d d5 71 25 3d
       -0.09419678 0.5663208 0.12230291 0.04039176
000170 c3 ab e9 be 96 2b 80 3e ca 9a 3f 3e 78 f5 57 3e
       -0.45638856 0.25033253 0.18711391 0.21089733
000180 56 e1 fa 3e b0 39 15 be 30 ae ca 3d 45 db 84 be
       0.49000043 -0.14572787 0.09896505 -0.2594854
000190 31 e4 41 3f 7a 2e 3c 3e 67 66 4b be f9 a3 9b 3e
       0.7573882 0.18377104 -0.19863282 0.3039854
0001a0 23 a5 43 be 5f 86 7b be c4 73 a0 3d 6f 89 00 bf
       -0.19105963 -0.24562977 0.078345805 -0.5020971
0001b0 d6 dd e1 bd f9 47 5f bf 07 74 61 bd a5 46 16 3f
       -0.1102864 -0.87219197 -0.055042293 0.58701545
0001c0 f0 4e 66 be 60 a6 76 be 7a 87 4c 3f 21 c6 20 bf
       -0.2249105 -0.24086905 0.7989422 -0.6280232
0001d0 e8 15 05 bf 88 0b bf be b7 3d 1e 3e c7 e8 e9 3d
       -0.5198655 -0.37313485 0.1545323 0.11421352
0001e0 3c ef ca 3d 23 b6 86 3c a4 53 8e 3f 2d 0e 0c bf
       0.099089116 0.016444271 1.1119275 -0.5470913
0001f0 44 05 88 be a4 31 b6 be 3c f1 2a 3d 2b 52 98 bd
       -0.26566517 -0.35584748 0.041733965 -0.07437547
000200 10 fa 21 ba a8 e7 87 be bf 28 85 3d ed fe d3 3d
       -0.0006178925 -0.26543927 0.06501912 0.103513576
000210 86 ab b1 3d c6 ed f4 bd 2a b4 1c bf 82 c9 b9 3e
       0.086752936 -0.11959414 -0.6121241 0.3628655
000220 72 aa db be 7b 0b 22 be 36 4b 00 3c 1e f1 fd bd
       -0.42903477 -0.15824692 0.007830432 -0.12399505
000230 e7 01 68 bf 1e 56 4c 3f ca a1 20 3e f9 26 5b 3f
       -0.906279 0.79818904 0.15686718 0.8560634
000240 6a 5b e6 3d 0f 96 8f 3a 5f 54 2d be cb e9 35 be
       0.112479046 0.0010954755 -0.16926716 -0.17764966
000250 45 82 20 bf 07 76 75 be a7 01 08 3d ce 5c 08 bf
       -0.62698776 -0.23970805 0.0332047 -0.5326661
000260 9f f8 d7 3d ca 94 87 bf b0 df 3d be 11 4f 0a bf
       0.105454676 -1.0592282 -0.18542361 -0.54026896
000270 d9 4d 15 3f ce 3c 16 3e c5 b6 25 3d fb 30 f3 bd
       0.5832191 0.14671633 0.040457506 -0.11874577
000280 47 20 55 bd 5c 02 c9 bd 08 ec 9c be fe 87 28 3d
       -0.052032735 -0.09814903 -0.30648828 0.041145317
000290 80 4a 6a 3d 95 f2 be 3e 2d 0a 7c 3e c7 d7 5e bd
       0.057199955 0.3729445 0.24613257 -0.054405
0002a0 f8 06 db 3e cb 93 1e be 03 ca fd bd 52 a0 31 bf
       0.42778754 -0.15486066 -0.12392046 -0.69385254
0002b0 a7 81 d2 3e 25 99 1c 3e 83 80 d9 3d 0b 10 c1 bc
       0.41114542 0.15292795 0.10620215 -0.02356722
0002c0 55 16 2e 3d 76 64 c1 bd ec 62 ef 3e 9c d6 48 3f
       0.042501766 -0.094429895 0.4675516 0.7845247
0002d0 64 3c c5 be bb 1c 3f bc 22 d1 1d 3c 86 32 c9 be
       -0.38522637 -0.011664565 0.009632381 -0.3929636
0002e0 d3 3a 0b be cc 5e b9 bd 6a 42 b0 3e 61 43 05 bd
       -0.13596658 -0.09051284 0.3442567 -0.03253496
0002f0 35 79 cc 3e 8c e7 27 be 95 04 9d be ab 24 fa 3e
       0.39936224 -0.16396922 -0.30667558 0.488561
000300 13 44 d3 be a1 c3 98 3e 60 19 83 be 03 ee 09 be
       -0.41262874 0.29836753 -0.25605297 -0.134697
000310 b4 bc 68 be 21 1d 65 bc b8 0f 3e be b4 bf c7 be
       -0.22728235 -0.013983996 -0.18560684 -0.39013445
000320 81 d1 85 be f6 68 46 be e0 8f 24 bf 60 15 7e be
       -0.261364 -0.19375977 -0.64282036 -0.24812841
000330 36 2c 24 3e a4 04 5c be 14 3e b7 3e 2e 35 82 bd
       0.1603249 -0.21486145 0.3578955 -0.063577995
000340 af 0f 4f 3d 2c 8b 21 3f 1b 07 61 3e 16 88 f9 be
       0.050552066 0.63102984 0.21975367 -0.48736638
000350 ed 7e 72 3e 5b f8 88 3f 69 86 31 3e 88 ad 5b be
       0.23681231 1.0700792 0.1733643 -0.21452916
000360 25 3a 42 bf 60 4d 64 be 27 d5 c6 3e ba 70 ef be
       -0.7586997 -0.22295141 0.38834497 -0.4676569
000370 a4 dd a3 3e 52 d9 bd 3d 3b 19 b2 be 70 e6 bb 3d
       0.32005036 0.09269966 -0.34784874 0.09174812
000380 82 37 07 3d c6 ab 18 bf f5 73 43 be 93 34 ff bd
       0.03301192 -0.59637105 -0.19087203 -0.124611996
000390 b8 7d 9d bc b2 be 27 be df 09 a9 be 1b 42 8c 3e
       -0.019224986 -0.16381338 -0.33015344 0.27394184
0003a0 39 37 a6 3e 04 2b 06 bf 9d 14 09 be 1e d1 96 be
       0.32464007 -0.52409387 -0.1338677 -0.2945642
0003b0 f9 47 39 be 00 8d dd 3c aa 70 b7 3f 1d c3 8a bc
       -0.18093862 0.027044773 1.4331257 -0.01693874
0003c0 39 3d c7 3e f7 78 1a bf 7a 3a cd be a4 d4 2b 3f
       0.38913897 -0.6034083 -0.40083677 0.6712134
0003d0 80 bb 0a 3f f6 de 5c bf 87 3f c4 3d ec 9e 8c 3e
       0.5419235 -0.8627771 0.095824294 0.27464998
0003e0 b0 6b e2 be 23 b8 cd be 7c ca 0a 3e 77 e8 a3 be
       -0.44222784 -0.40179548 0.13553804 -0.32013294
0003f0 d4 55 d8 bd 76 5d b4 3e 32 1e cd 3e 40 d1 bd be
       -0.105632454 0.35227555 0.400621 -0.37073708

network_body._body_endoder.seq_layers.0.bias f4 [128]
000000 4c 3e 06 3d c5 bf 19 3c 76 c5 06 b9 6b 26 9a 3c
       0.032774255 0.0093841 -0.00012852796 0.018817147
000010 9d a7 7f 3c 27 79 39 3d 94 0a 38 3c a7 7a 14 3d
       0.015603927 0.045281556 0.011232991 0.036249783
000020 da dd 9b 3c e1 8c 10 3d b3 fd cc 3c 29 25 c0 3c
       0.019026686 0.035290603 0.025023317 0.02345522
000030 0c 51 af 3c 7d b8 82 3c df 5a 22 bc 43 c8 34 bc
       0.02140095 0.015957111 -0.009909361 -0.011034074
000040 48 c1 ed 3c c9 9b 70 3c b8 0f f0 3b 92 8b 99 3c
       0.029022828 0.01468558 0.0073260926 0.01874331
000050 10 f9 0b ba 38 7d e1 3b 47 a8 16 bc f5 ae 30 3d
       -0.00053395424 0.0068813823 -0.009195394 0.043135602
000060 12 c1 e2 bb e8 2e 30 bd 75 7c f4 ba 56 8e b9 3c
       -0.0069199884 -0.043013483 -0.0018652814 0.022650879
000070 4a 68 04 3d 92 6e f1 3c e2 f6 18 bd d6 fd 03 3d
       0.03232602 0.02947167 -0.03734482 0.0322245
000080 4e a1 13 3d 8c 75 ee 3c 37 3e 37 3d 33 b3 0e bc
       0.036042504 0.029108785 0.044737067 -0.008709717
000090 e2 a7 e1 3c 18 e7 34 bd 6c 57 c4 3c cb be 48 3d
       0.027545873 -0.0441657 0.023967467 0.04901008
0000a0 46 f7 14 3d 0e d6 3b 3c 75 d7 26 3c 85 32 52 3c
       0.03636863 0.011464609 0.010183205 0.012829428
0000b0 53 1a 08 3d 01 8f ee 3c b5 15 7b 3c 14 f5 98 3c
       0.03322823 0.029120924 0.015325 0.01867155
0000c0 19 51 eb 3b 9c d1 97 3c 28 fb f8 3c 85 8a 14 3d
       0.0071812985 0.018532567 0.030393198 0.036264915
0000d0 89 25 a9 bc b1 99 db 3c d8 34 0f 3d c7 06 d0 3b
       -0.020647781 0.026806684 0.034962505 0.006348464
0000e0 e7 6f 03 3d 88 fe ec 3c d8 b6 ae 3c bf 76 9d 3c
       0.03208914 0.028929964 0.021327421 0.019221662
0000f0 d8 d9 dd 3c 3c 24 3b 3b 20 2d ba 3c 9f 50 7e bc
       0.027081415 0.0028555533 0.022726595 -0.015522151
000100 83 a4 d6 3c bf 36 2e 3d 0f 22 30 3d 71 ef 50 3d
       0.026201492 0.04253268 0.04300123 0.0510096
000110 39 1b 39 3d d3 ac e2 3c b1 90 9f 3c 68 8c 96 3c
       0.045191977 0.0276703 0.019478174 0.018377498
000120 df ce bf 3c fb 80 ce 3a c9 ba 1c 3d e1 f5 27 3d
       0.023414074 0.0015754992 0.03826407 0.041005973
000130 97 e3 e4 3c f5 ab ef bc 91 3c 13 3d 83 36 bd bc
       0.027940555 -0.0292568 0.035946433 -0.023097282
000140 ef c3 f5 3c 5b 37 e7 3c 3f bc 13 3d 22 36 6a 3c
       0.030000655 0.028224638 0.036068197 0.014295133
000150 61 ad 5f 3c 2c e3 cd 3c 3b 46 c9 3c a8 c4 1f 3d
       0.013652177 0.025132738 0.024569621 0.039005905
000160 25 d7 1a 3d 7b ff cf 3c e5 8d 6a bc 5a f8 a9 3c
       0.037802834 0.025390377 -0.014316057 0.020748306
000170 8d c4 78 3c 21 33 40 3d 82 56 d7 3c e9 1d 37 3d
       0.01518358 0.04692376 0.026286367 0.04470626
000180 3b c3 34 3d 30 3d 06 bc 86 9d 23 3d f8 31 0c 3d
       0.0441315 -0.008193299 0.039945148 0.03422734
000190 5d 5d 30 3d 3c 2e e3 3c 61 64 d4 ba 2f e6 cb 3c
       0.04305779 0.027732007 -0.0016204232 0.024890034
0001a0 39 4e 4d 3d 76 f4 c6 bb 6d 5b 83 3c bf 96 e6 3c
       0.050123427 -0.0060716225 0.016034806 0.028148053
0001b0 66 94 52 3d 05 cb b2 3c ff da 45 3d 6c 6a 30 3d
       0.051411055 0.021825323 0.048304554 0.04307024
0001c0 f4 4e 54 3b 46 de 1d 3d 01 6e e2 3c cb 2f 3e 3d
       0.0032395693 0.038542055 0.027640345 0.046432298
0001d0 3b 6c ca bb dc e2 14 3d 84 3c ac bb de 55 54 3c
       -0.006177453 0.036349162 -0.0052562375 0.012959925
0001e0 0c 2f 11 3c 02 29 81 3c e7 65 19 3c b3 91 db bb
       0.0088613145 0.015766624 0.009362674 -0.0067007183
0001f0 bd e1 13 3d ff 03 19 3d 82 ad c7 3c 7f e6 ba 3c
       0.036103953 0.037357327 0.024374727 0.022814987

network_body._body_endoder.seq_layers.2.weight f4 [128, 128]
000000 4b 91 22 bd 21 9e c0 bd ba 5e 41 3d 00 f7 0f be
       -0.039689343 -0.09405161 0.04720948 -0.14059067
000010 b8 09 d8 bc c9 ed 51 be cc 0a 96 3c d2 40 c4 bc
       -0.026371822 -0.20500864 0.018315695 -0.02395669
000020 00 78 86 bc 55 7a aa 3c 75 c6 91 bd 45 ad 48 bb
       -0.016414642 0.020810286 -0.07117931 -0.0030620855
000030 d4 d7 00 bd dd e7 a4 be 41 d4 24 3e 69 1d aa 3d
       -0.03145583 -0.32208148 0.16096593 0.08306391
000040 85 84 fb bd 80 16 a4 bc ef be 7f 3d 6d b5 58 3d
       -0.122811355 -0.02003026 0.062437948 0.052907396
000050 34 dc a2 bd 1d 55 95 3c 4c 32 e2 bb b7 bd 5d 3c
       -0.07952157 0.018229062 -0.0069029685 0.013534001
000060 04 71 94 bd 35 8a 3a 3d fc 38 e0 3c 3a 86 da 3c
       -0.072481185 0.04554196 0.027370922 0.026675332
000070 98 7c 18 3d aa 8a 79 bd a4 2b 3b bd 61 1f aa bd
       0.037228197 -0.060923256 -0.045695916 -0.08306766
000080 a6 d5 46 3d d1 1e 02 bc 32 19 be bc 41 89 26 3d
       0.048543595 -0.0079419175 -0.023205373 0.04065824
000090 71 e0 cd 3d c4 b5 ca bc f1 3b 3f be 2f dd d6 bc
       0.100525744 -0.024744876 -0.1867521 -0.026228515
0000a0 55 75 0e bd 31 5c 4d bd 42 6e 60 be b6 7c 8c bd
       -0.034779865 -0.05013675 -0.2191706 -0.06859724
0000b0 f0 5d dc 3d 7a ca f0 3d 0e 52 d0 bd 13 de be 3d
       0.10760105 0.11757369 -0.10171901 0.09319701
0000c0 e5 b4 e2 3d 9d 64 d2 3d 40 27 ab 3d e9 9b 9e 3d
       0.11069659 0.10273097 0.08357096 0.07744581
0000d0 07 cc 9c 3d 61 80 65 be 89 17 97 3d 63 c4 e7 3c
       0.07656103 -0.22412254 0.07377536 0.028291887
0000e0 bd aa f2 bc 59 23 7f bd 2e 1b 50 3d 16 f0 f0 3d
       -0.02962243 -0.06228957 0.05080717 0.11764543
0000f0 c3 6d 23 3d 1b 84 0f 3e 05 25 0e 3c 58 c3 95 3d
       0.0398996 0.14015238 0.008675818 0.073126495
000100 a5 88 9e bd 51 aa 93 be 96 ae 9d bb 1d d2 1d 3e
       -0.077409066 -0.2884088 -0.004812072 0.15412183
000110 1c 06 36 3e e4 79 0b 3e 8f 46 dd bc 62 ed d9 3d
       0.17775768 0.13620716 -0.027011184 0.1064098
000120 cb 37 69 bd 8f 90 ad bd 41 c3 2d 3e ce fd a2 bd
       -0.056937974 -0.08474838 0.16969015 -0.07958566
000130 a0 dd 08 3c 35 ef bf bd f2 bf 46 3d 0f 2d 1a be
       0.008353621 -0.09371797 0.048522897 -0.15056251
000140 a4 8c 1e 3e 9a 48 18 3d a3 16 15 3d de 7c e1 bd
       0.15483338 0.037178613 0.03639854 -0.11010145
000150 c3 32 f2 bc 52 3b 09 bd f0 55 2b bc cd 7a 03 3e
       -0.02956522 -0.033503838 -0.010457501 0.12839814
000160 e0 36 29 3e 7d bf b6 bd bd 89 c4 3d 57 8c d3 bc
       0.1652484 -0.08923242 0.09596584 -0.025823755
000170 93 94 95 3d 84 de 68 3e 21 80 c9 3c 12 f4 9a bd
       0.07303729 0.22741133 0.02459723 -0.07566084
000180 e5 a5 07 be d6 5b aa bd 8e a5 89 bd a5 e2 08 bc
       -0.13246877 -0.083182976 -0.0672103 -0.0083548175
000190 4b 07 31 3d 24 94 8a 3d b7 56 14 bd 32 95 a5 3d
       0.043219846 0.06766537 -0.03621551 0.080850974
0001a0 c8 88 9a 3a 52 8a a6 bc 45 de c9 bd 88 ec 82 3d
       0.0011790032 -0.020329628 -0.09856848 0.06392771
0001b0 e4 1a 71 bd 99 4c f6 bd 73 05 4d 3d 58 5f 4c 3d
       -0.058863536 -0.120263286 0.050054025 0.049895614
0001c0 aa d4 37 be b0 a8 07 3d 02 b3 b3 bd 40 13 22 3e
       -0.17952219 0.033119857 -0.087743774 0.15827656
0001d0 ad 87 a2 bd ae e0 01 3d 09 01 e0 3c 60 64 51 3e
       -0.07936034 0.031708412 0.027344244 0.20448446
0001e0 bd 3c bb bd 6e f6 ec bd 42 8f 94 bc 4a 5f 88 3d
       -0.09142444 -0.1157044 -0.018134717 0.066588
0001f0 3e c4 ac 3d 94 3d 1e be f7 bf e5 bc 17 f9 50 3d
       0.08435868 -0.15453178 -0.028045638 0.0510188
000200 b6 02 c6 bd 0e 87 ed bc b7 0a 90 bd f6 31 ce 3d
       -0.09668486 -0.028995063 -0.07033294 0.10068123
000210 3a b8 9a bd 5c fd 7d 3d 90 f6 26 3e a4 dd d2 bd
       -0.0755467 0.0620092 0.16304994 -0.10296181
000220 d3 c3 97 3d f1 0c 60 bb a6 1d a2 bb 87 94 15 3e
       0.074103974 -0.0034187401 -0.004947382 0.1460744
000230 17 22 49 3e ee 80 63 3d 52 0e fa bd 92 4a 83 bd
       0.1964191 0.05554288 -0.12209763 -0.064107075
000240 9a 9c 8e bd d5 37 27 3e ee e6 d8 3b e8 e1 03 3e
       -0.06963463 0.16329892 0.006619326 0.12879145
000250 b0 e1 86 3d 70 8f 62 3d 8b 88 1f 3e cb d2 2e bd
       0.06586015 0.055312574 0.15579431 -0.042681497
000260 87 f5 36 bd 6a 00 5a bd 37 77 e8 3d 9a 18 a9 bd
       -0.044667747 -0.05322305 0.113508634 -0.082566455
000270 62 fa bc 3b 49 2b 54 3e a6 b7 6e 3d cc 5f be 3b
       0.0057671526 0.20719637 0.05828061 0.0058097597
000280 5e e4 48 bd 62 3e e7 3d 14 95 60 be fb dc 52 bc
       -0.049045913 0.112911955 -0.21931869 -0.012870069
000290 86 a3 35 3c 95 5a 1f 3d f2 ed 10 bd 65 6e fe bd
       0.01108635 0.038904745 -0.035383172 -0.124234
0002a0 c2 ef 94 bd 2b 80 b7 bd fe a2 0b 3e d1 48 05 be
       -0.07272293 -0.08959993 0.13636395 -0.13016059
0002b0 cd c1 b4 bd e0 de d0 bd 85 a6 13 3d d7 87 a9 3d
       -0.08826027 -0.1019876 0.036047477 0.082778625
0002c0 41 09 f8 3c 3e 85 88 3d 03 da df 3d 1f 4c 84 bd
       0.03027785 0.06666039 0.10930254 -0.064598314
0002d0 94 52 08 bd c2 62 7c bd 88 4d 8b bd ac 9a 79 bd
       -0.033281878 -0.06161762 -0.06801897 -0.060938522
0002e0 7b 51 1c bd 3f 28 83 3b ef e3 27 be b4 9f 9a bd
       -0.038163643 0.0040026004 -0.16395544 -0.07549992
0002f0 c2 ef 23 bc 7f 4d 47 be 60 04 99 b8 44 52 87 bb
       -0.010005893 -0.19463156 -7.2964234e-05 -0.00412968
000300 7c 2f b0 bd ce d1 aa 3d 04 63 fd b8 38 f1 8d bc
       -0.08602807 0.08340798 -0.00012082423 -0.017326936
000310 88 2b a2 3d cf b4 1b be d5 cc 1a bd 29 e9 9b 3c
       0.07918459 -0.15205692 -0.037793 0.019032078
000320 7f db 85 bc f1 d9 b3 ba e1 37 cf bb ea 38 40 bd
       -0.016340015 -0.0013721568 -0.0063238 -0.046929277
000330 83 3d f3 b8 cd f4 c8 3d 17 45 24 be 36 a7 25 bc
       -0.000115986004 0.09812317 -0.1604198 -0.010110667
000340 a2 6c 9c bc a8 70 c7 bc b9 c6 cd 3d 60 b7 d2 3b
       -0.019094769 -0.02434571 0.10047669 0.0064305514
000350 79 d4 f8 bd d5 02 1f bc 78 e6 80 bd 5d 01 07 3d
       -0.12149901 -0.009705265 -0.062939584 0.032960285
000360 d4 e9 5d bd 44 70 5b bc c3 5e 73 3c ae 74 0b 3c
       -0.054178074 -0.013393465 0.014854136 0.008511705
000370 bc c1 d7 3d f0 69 16 3e a3 82 9c bd 60 9b 54 be
       0.10534999 0.1468885 -0.076421045 -0.20762396
000380 cc e3 32 3e 01 8a f8 3c 31 f7 51 bd 42 00 8d bd
       0.1746971 0.030339243 -0.05126113 -0.06884815
000390 d7 56 29 be 28 fd ba bd e6 3b 18 be d8 44 92 3d
       -0.16537033 -0.09130317 -0.148666 0.07142037
0003a0 54 53 41 bd bf 00 a4 3d 63 e6 88 3d 92 e5 f5 3d
       -0.04719861 0.08007955 0.06684568 0.12006678
0003b0 c2 5e 5a 3d 35 01 22 bd 08 b9 6b bc 21 f8 9e bd
       0.053313024 -0.039551932 -0.014387377 -0.077621706
0003c0 a9 63 27 be a4 6d 08 be ef 87 cd bc a9 bd 88 3d
       -0.16346611 -0.13323075 -0.025089232 0.066768
0003d0 88 e8 26 3d a7 03 0d 3e 25 38 1a 3d 52 69 38 bd
       0.040749103 0.13770925 0.0376512 -0.045022316
0003e0 89 78 a5 bd 72 21 ce 3c 47 e8 61 bd 08 12 cb bb
       -0.08079631 0.025162432 -0.055153158 -0.006197218
0003f0 87 69 93 bb 73 87 a5 bb b1 fc f5 bd cd de 04 3e
       -0.004498664 -0.005051547 -0.12011088 0.12975617

network_body._body_endoder.seq_layers.2.bias f4 [128]
000000 91 7e e3 3c 62 ef 1d bb e2 33 8d 3c 46 5a 6a bc
       0.027770313 -0.0024098982 0.017236654 -0.014303749
000010 66 2b 9b 3c 6a d2 38 3d 65 f4 03 3d fb 51 b7 3c
       0.018941592 0.04512254 0.032215495 0.022377959
000020 f5 b4 ac 3c a4 2f 4b 3d d2 94 bc 3c df c8 cc 3c
       0.02108238 0.04960598 0.023020182 0.024998127
000030 b4 12 2a bb eb c6 8a 3c d5 a0 f1 3c 38 18 be 3c
       -0.002595109 0.016940555 0.029495636 0.023204908
000040 3a 0c 2b 3c 52 fe 73 bc 36 a3 e8 3c 92 22 f3 3c
       0.010439927 -0.014892178 0.028398138 0.02967957
000050 68 ab 7a 3c ae 66 09 3d a3 2b ec 3c 28 8f ac 3c
       0.0152996555 0.03354519 0.028829401 0.021064356
000060 d3 0b 2a 3b 82 44 94 3b 48 86 21 3d 66 db 04 3d
       0.002594699 0.0045247683 0.0394347 0.032435797
000070 71 e2 c2 3c 88 b9 c1 3c c8 9a a9 3c 59 d4 53 3c
       0.023789616 0.023648039 0.020703688 0.012929046
000080 95 0d f5 3c 6c a3 fa 3c 29 0f 01 3d f7 86 81 bb
       0.029913703 0.030595504 0.0315086 -0.0039528566
000090 ba a2 29 3c 32 21 c8 3c 2d a3 04 3d 77 c2 8b 3c
       0.010353738 0.024429891 0.03238218 0.017060502
0000a0 6e d9 d3 3c 7e 2d 14 3c 5d 71 8a bc 6c 03 03 3d
       0.025860514 0.009044049 -0.016899759 0.031985685
0000b0 84 b5 28 3d f7 9e 67 3c 15 85 04 3d 31 67 b4 3c
       0.04118873 0.014137021 0.03235348 0.022021862
0000c0 7e 10 d2 3b 9a d0 7a ba 6f b3 e4 3c 13 40 e9 3c
       0.0064106574 -0.0009567827 0.027917592 0.028472936
0000d0 65 32 e0 3b 60 02 b7 3c 32 01 23 3d 6b 07 cc 3c
       0.006841945 0.02234 0.03979606 0.02490588
0000e0 98 d2 c8 3c 25 26 26 3c 9c a6 df 3c c9 f8 19 3d
       0.024514481 0.01014093 0.027301125 0.037590776
0000f0 37 3c e0 3c af 1c 34 3d 4d bf 33 3d 78 93 6d 3b
       0.027372463 0.043972667 0.04388361 0.0036251228
000100 bf bf c6 3c 19 a1 18 3d bd 8a bf 3c 1a 4e 01 3d
       0.024261354 0.03726301 0.023381585 0.031568624
000110 57 c9 95 3c cf a7 8c 3c f3 0c 13 3b 8a 2c b1 3c
       0.018284483 0.017169861 0.0022438138 0.021627683
000120 10 b7 87 3c 41 37 bc 3c 3f 53 fa 3c f2 a3 04 3d
       0.016566783 0.022975566 0.030557273 0.032382913
000130 46 87 86 3b 6e 2c 11 3d d3 f8 df 3c 74 70 f1 bb
       0.0041054813 0.035442762 0.027340328 -0.007368142
000140 1b 5d 40 3c ae 48 ba bb 39 d2 04 3d 8b 6f 0f 3c
       0.011740948 -0.0056849336 0.032427046 0.008754621
000150 db 1e fe 3c fa d9 1a 3d e1 63 26 3c 38 18 89 3c
       0.031020572 0.037805535 0.010155649 0.016735181
000160 35 55 e1 3c ac 3d 99 3c 4e 1b d5 3b cf af c2 3b
       0.02750645 0.018706165 0.006503499 0.005941368
000170 12 0c 09 3d 40 6f 8f 3c e2 d4 d4 3c 4a 89 55 3c
       0.033458777 0.017509103 0.025980417 0.013033221
000180 01 3d ef 3c 33 43 6a 3c 0d 5e 13 3d a6 65 8f 3c
       0.029203894 0.014298248 0.035978366 0.017504524
000190 34 b6 a9 3c f3 dd 6b bc 58 39 07 3d 2f f4 16 3d
       0.020716764 -0.014396179 0.03301367 0.036853965
0001a0 7d c3 92 3c 48 0c 07 3d c5 01 b7 3c 69 62 24 3d
       0.017915482 0.032970697 0.022339711 0.040132914
0001b0 be 73 6c 3b 26 7b e4 3b 6e 4e cc 3c 53 f3 09 3d
       0.003607973 0.0069726883 0.024939742 0.033679318
0001c0 20 c3 14 3c fe b9 ad 3c be c1 95 3b b0 cc 2d 3c
       0.009079725 0.021206852 0.004570215 0.010607883
0001d0 df 19 eb 3c cd b2 e8 3c 00 93 15 3d 5e 46 cb 3c
       0.02869886 0.028405571 0.036517143 0.024813827
0001e0 35 fa b9 3c fc 1c d0 3c 7f e5 c2 3c 9d 59 c4 3c
       0.022702316 0.025404446 0.023791073 0.023968512
0001f0 ec 33 10 3d f5 9e ab 3b 93 2c 5b 3b c6 ba ab 3c
       0.035205767 0.005237455 0.0033443316 0.020963084

action_model._discrete_distribution.branches.0.weight f4 [5, 128]
000000 6d 4b 94 bc 07 a0 83 bc 43 13 16 3c 8a 7b 9a 3c
       -0.018102372 -0.016067518 0.009159866 0.018857736
000010 05 81 79 bc 67 4c 2e bd b0 da 57 bd ce 6b d9 bc
       -0.015228515 -0.04255333 -0.05269879 -0.026540663
000020 b0 96 e8 bb 4f f0 66 bd b1 83 1a 3c c7 d5 a2 bc
       -0.0070980415 -0.05638152 0.009430812 -0.019877328
000030 be c5 f1 3c b6 dc 78 3c 80 ea e3 bc 68 86 37 bd
       0.029513236 0.01518934 -0.02782178 -0.044805914
000040 f2 4d 88 3b b1 b2 a2 b6 c9 45 cd bc 23 17 ba bc
       0.0041596824 -4.8487786e-06 -0.02505769 -0.02271611
000050 fc 15 49 3c b4 26 16 bd 7e 62 dc bc 07 49 27 ba
       0.012273308 -0.036658004 -0.026902433 -0.00063814264
000060 ff 41 9e 3c 65 96 3d 39 bc 85 5e bd 29 38 20 bd
       0.019318579 0.00018080471 -0.054326758 -0.03911606
000070 1a 64 0c bd e6 b7 04 bc 3f c4 c6 bc 5d a8 ea 3b
       -0.03427515 -0.008100485 -0.0242635 0.0071611837
000080 4d 23 b6 bc 9e fd 18 bd 89 c7 d9 bc e6 73 03 3d
       -0.02223363 -0.037351243 -0.026584404 0.03209295
000090 ed a4 93 3a 4a c3 1a bc f7 47 bb bc 1a ab 3c bb
       0.0011264362 -0.009445975 -0.022861464 -0.0028788508
0000a0 88 f7 de bc 11 ce 09 bd 63 d2 c0 3c 9c 46 1f bd
       -0.027217641 -0.033643786 0.02353782 -0.038885698
0000b0 41 8d 35 bd 97 ff b7 3b 6a 15 a3 bc a2 8c 2d bb
       -0.044324163 0.0056151855 -0.019907672 -0.0026481529
0000c0 a6 ff 30 3b 6f 07 04 3c 4a 93 87 3c 5f 93 28 bd
       0.0027007847 0.008058413 0.016549725 -0.04115617
0000d0 4d ef b2 3c 30 e6 38 bc 3b 54 7f bd ab e9 09 bd
       0.021842623 -0.01128535 -0.062336188 -0.03367011
0000e0 c1 90 d7 bc c1 d5 1b 3b 61 15 b5 bc a0 c5 94 bd
       -0.026314141 0.002377853 -0.02210492 -0.072642565
0000f0 37 b2 fa bc 99 a5 55 bd d9 f2 20 bd b4 0c d4 3c
       -0.030602558 -0.05215988 -0.039294098 0.025884964
000100 68 a4 e8 bc a3 93 31 bd bc f4 de bc 02 8a 95 3b
       -0.028398708 -0.043353688 -0.027216308 0.004563571
000110 d5 cf 62 bc d5 20 d5 bc a5 db f1 3c 3e 37 64 bc
       -0.013843496 -0.026016632 0.02952368 -0.013929186
000120 8d 0c aa bc ee 8b 55 bc 32 80 f0 bc 2f a0 cc bc
       -0.020757938 -0.01303385 -0.029358003 -0.024978725
000130 16 b1 05 3c c9 bd 75 bd 77 2e 29 bc 5e a6 22 3d
       0.008159896 -0.059995446 -0.0103260195 0.03970944
000140 5d 6b 2f 3c 7d 14 be 3c 10 00 50 bd 66 5a be 3c
       0.01070675 0.023203129 -0.05078131 0.023236465
000150 3a 9b 2b bd b8 e7 d8 bc 1a e4 df b5 30 95 4d bc
       -0.041896082 -0.02647768 -1.6681181e-06 -0.012547776
000160 0e b7 08 bc 06 90 be bc 91 bf 2d 3d 9f 86 06 bc
       -0.008344425 -0.023262035 0.04241902 -0.008210807
000170 97 69 ad bc e0 cf 83 bc e3 cd e4 bc 55 42 0c bc
       -0.021168513 -0.016090333 -0.027930206 -0.008560737
000180 e0 b8 26 bd 9b 79 50 bc f6 da 7e bd 1f 4a 6e bb
       -0.040703654 -0.0127243055 -0.062220536 -0.0036360098
000190 90 bb 84 bc e2 d4 26 3d c3 b5 51 bb 7d b0 76 bd
       -0.016202718 0.040730365 -0.0031999208 -0.060226906
0001a0 8d 32 8c 3a 3e 5c 2e bd f7 d0 a0 bc ad 5f 53 bd
       0.0010696218 -0.042568438 -0.019630892 -0.051604915
0001b0 05 ef 3c bc e6 d2 09 3d 16 fa 8c bc 00 ab 20 bc
       -0.011531596 0.033648394 -0.017209094 -0.009806395
0001c0 e7 c0 19 3c d6 b4 98 bc 38 b3 db 3c f0 ca ab bc
       0.00938437 -0.018640917 0.026818857 -0.020970792
0001d0 a9 fd fc 3b da 4a e9 bb e0 5f 9d bc dc cb 93 bc
       0.0077206683 -0.0071195187 -0.019210756 -0.018041544
0001e0 1c 0b 88 3b d7 e8 d1 bc a1 33 ec bc e7 e9 90 3b
       0.004151715 -0.025623722 -0.028833212 0.0044224146
0001f0 ec e4 11 bd 5b e0 95 3c e5 90 9c 3b 26 42 8f 3c
       -0.035618708 0.018295458 0.004778015 0.017487597
000200 d6 34 3d bc a2 68 68 3c 75 69 f4 bc e7 19 a8 bc
       -0.011548242 0.014185103 -0.029835442 -0.020520164
000210 eb e0 21 3d 73 d1 df 3c e7 17 bc 3c 0a fd 87 bc
       0.03952114 0.027321553 0.022960616 -0.01660015
000220 9e c4 e2 bc 94 40 e1 3c 2e 18 dc 3c 2d 22 0f 3d
       -0.027681645 0.027496614 0.026866999 0.034944702
000230 b7 d6 40 bd 75 26 f1 bc 35 2e aa bc 15 ab a3 3c
       -0.047079768 -0.029437283 -0.020773986 0.01997904
000240 47 d1 a3 bc f2 3a 86 3c 81 14 83 3c 59 58 d7 bb
       -0.019997252 0.01638553 0.016000988 -0.006571811
000250 48 5c 3f bd 97 70 d0 3c e6 33 3a bc 60 b4 a8 bc
       -0.046718866 0.025444312 -0.011364913 -0.020593822
000260 25 9e bc 3c 23 fe a7 bc 54 f0 b3 bc e7 27 90 bc
       0.023024628 -0.020506924 -0.021965183 -0.017597152
000270 b6 af 0f bd 27 65 d8 bc a5 1d 9e 3c 2c c1 6a bc
       -0.03507968 -0.02641542 0.019301245 -0.014328282
000280 71 a8 71 3c 89 c6 e5 3c c9 9a c2 3c 9f bb c2 bc
       0.014749632 0.02804877 0.023755448 -0.023771105
000290 03 c6 4c bb b6 bb 2f 3c 8b d7 07 bd 09 11 5d bc
       -0.0031245954 0.010725906 -0.033164542 -0.013492831
0002a0 63 94 2a 3d d1 ea 10 bb b8 fe 76 3c dd 46 00 3d
       0.04164542 -0.0022112618 0.015075378 0.03131758
0002b0 b8 a8 68 bc e6 e1 ce bc 40 e7 af bc 40 f3 fc 3b
       -0.014200382 -0.025254201 -0.021472573 0.0077194273
0002c0 95 9a 6e bc df f5 a3 bc d5 0c 08 bd e6 3b 16 3d
       -0.014563222 -0.020014701 -0.033215363 0.036678217
0002d0 da 66 7f 3c 2a 76 48 bd ae 9b 81 3c 00 ba e2 bc
       0.015588487 -0.048940815 0.015821304 -0.027676582
0002e0 37 82 b2 3c bb 95 99 bb 6d 9b b5 bc e3 cf 99 bc
       0.021790607 -0.0046870387 -0.02216884 -0.018775886
0002f0 23 d9 2b 3d 4d 9f 0f 3d e9 a0 55 3b 95 78 f6 bb
       0.041955125 0.03506403 0.003259713 -0.0075216987
000300 54 6b 31 3d 1e 84 cb 3c 0f 3a 1f 3d e9 9c 47 bc
       0.043315247 0.024843272 0.03887373 -0.012183406
000310 d2 54 ac 3b 43 b8 82 3c 34 e9 4c 3d 62 3a 90 bc
       0.005259135 0.015957003 0.050027087 -0.017605964
000320 3a 91 02 bd eb cf be 3c 17 1b 81 3c d4 05 00 bd
       -0.03187678 0.023292502 0.015759988 -0.031255558
000330 c2 a0 37 bc 86 fe a5 3c 77 1a 3b 3d 3d 8c 74 bc
       -0.011207761 0.020262968 0.045679536 -0.014926014
000340 e9 7b a9 bc 7a b9 d0 bc 37 98 31 3d b9 cd a6 bc
       -0.020688968 -0.025479067 0.043358054 -0.020361768
000350 5b 55 b4 bb d2 ec 14 bd 16 0a a2 bc bf eb 05 bd
       -0.005503339 -0.036358662 -0.0197802 -0.032695528
000360 19 94 23 bd e3 2c 82 39 34 65 33 bd 65 48 3a bc
       -0.03993616 0.00024828975 -0.043797687 -0.011369799
000370 98 f1 4f bc ee fc 04 3d 1e 44 04 bd 09 91 45 bc
       -0.012691878 0.032467775 -0.032291524 -0.012058505
000380 33 b7 f1 3c b5 24 0b 3d 96 42 00 3d 35 3e 16 bd
       0.029506302 0.033970553 0.0313135 -0.03668042
000390 8e c3 60 bc fa eb 14 3d 1b b2 bb bc db 26 22 3d
       -0.013718499 0.036357857 -0.022912076 0.039587837
0003a0 e4 58 bb 3b 58 64 11 bc 68 5f 97 3c ec 21 96 3b
       0.0057173837 -0.0088740215 0.01847811 0.0045816805
0003b0 41 b4 f1 3b 5c 3a a1 3c 3e 69 03 bd 7d b7 e1 bc
       0.0073762243 0.019681148 -0.03208279 -0.027553314
0003c0 f1 54 b6 bc 6d c5 34 bd a8 78 04 bc 8b a2 1a 3d
       -0.0222573 -0.044133592 -0.008085407 0.03775267
0003d0 36 ca 22 bd 5b 2b c7 3c dd 01 70 bc 66 25 14 3c
       -0.039743625 0.024312666 -0.014648882 0.00904212
0003e0 8c 17 94 bc 70 3d a6 bc 6f 4b b1 3c a6 51 49 bb
       -0.018077634 -0.020292968 0.021642415 -0.0030718832
0003f0 4f 2d 24 3d 30 cd 6b bc be e6 9f bc b8 52 9c bc
       0.040082272 -0.014392182 -0.019519206 -0.019082412

action_model._discrete_distribution.branches.0.bias f4 [5]
000000 b3 d3 0e bd 8c 7c 28 3c d6 72 bb 3b 94 13 84 3c
       -0.03486986 0.010283601 0.0057204766 0.016122617
000010 15 ad 0c 3c
       0.008586188
