Scenes/ImprovedGridWorld2D/results/test-run/DroneGrid2D/DroneGrid2D-499996.pt (torch, 446685 bytes, 33 tensors)

network_body._body_endoder.seq_layers.0.weight f4 [128, 6]
00000000: 603c 8c3e 7499 0a3e d102 d83e 6af6 303b
00000010: ba37 713e 8706 833e 585d e8be cc5c 5dbf
00000020: 69f8 52be 7b14 34bd 7bde 4b3f b481 1e3e
00000030: 4356 fbbe a2af 1b3f 421d 393f f348 42bf
00000040: c1f9 b53e 4bc1 843e 364a 03bf 7b24 e8be
00000050: e706 3d3e 5370 833e d845 283e 3f6b a8be
00000060: df23 40bf d6f8 47be 712b e2bd 906a 3d3f
00000070: d118 a53e d67d 9abe d86d d83d 3827 fdbe
00000080: 8c01 863e 8ba7 353e a040 50be 9ce9 fc3e
00000090: 4624 123d cbc8 d8bd 8b1d c1bd 11c5 cbbe
000000a0: 3949 17bf d796 b53e b1a6 c5be 5a7c 293e
000000b0: 48a0 e8be b9fc a6bd d8cf 7ebe 262c 50bf
000000c0: 42cc cabe 728c 79be 5fd7 9c3e 55b3 c1be
000000d0: 71f5 6ebf 7251 7fbe a900 5a3e 3d7e 073f
000000e0: 2210 873e fe02 123e 3875 263f 9a04 05bf
000000f0: 8176 bb3c 91b4 eb3e 2c88 973f eea8 a7be
00000100: 5088 2f3f 1461 debd 0dde 08bf 1ddc 293f
00000110: 73e1 1fbf d2bd 09be 2914 8ebd e4db 09bf
00000120: 603d cb3d 3e73 95be 0aab bfbd efe9 3cbe
00000130: 494c f1be 2b69 dabd 30b3 c03e c061 83be
00000140: 5e18 483e 6173 f3be 1605 443d 4d4c 81be
00000150: c89d 29bd 2179 78be 7346 8bbd 0329 b03e
00000160: 380c 0bbe fb88 0c3f 67d6 bfbe b45b 0fbf
00000170: b0a7 723f 086a d63d 75bc 853d 2f8e e5be
00000180: e562 cb3e b8df 843e 0c3a 633f e9c8 09bf
00000190: 1aac 873f afed 31bf c8db 4cbf 73d7 e5bd
000001a0: 9dc7 f93e f487 263e bb5b 263f 7219 a03e
000001b0: 9f13 323e 8b53 9fbe 5cfa 11be fa1c 273f
000001c0: 7df9 e6be db53 3d3f 4819 853e 951f d63e
000001d0: ff4a e9bd 09e5 99be 7b96 283e fcf6 83be
000001e0: c45e 0cbf 785d 32bf df52 71bf 8a0c 57bf
000001f0: d712 3dbf 928a a73e 2358 233f 21a4 353e
00000200: efb7 be3d d17c 973e 37ac d4be 5caf 443f
00000210: 7d34 413d 0488 61bd 0075 073f c42b 63bf
00000220: 34fb d6be 0c84 253e 8729 66bf 5ebb 6ebf
00000230: cc6e 5cbf d17b 30be e034 a7bd 0e85 82be
00000240: 2b00 c23e 1c95 84bd 6671 7cbe 8d82 df3d
00000250: 4a08 443f e1e0 53be 6de1 0ebf b212 1fbf
00000260: b9c2 d33e 6862 ac3d 226d babc 3ac3 2cbe
00000270: a94c 933e 55f2 be3e ad8d 51be 3605 b8bc
00000280: 82a0 e9be a628 dc3d 57a4 113d 8d6e a43e
00000290: 53c9 0cbf c9e5 4bbc 9ef7 6ebe 10d4 5d3e
000002a0: 6ebf f4bd d394 193f 1ddb 2fbf 0a8a ef3e
000002b0: eff4 28bf e468 cb3e 8489 6e3e ca33 10bf
000002c0: 0c08 e23d e533 453e 1dc8 28bd 5883 fdbe
000002d0: d40b 42be 3e0c 82bd 7ad0 0a3e ed78 953e
000002e0: 1a60 95be e958 423f 1fe6 923e 16d0 40bf
000002f0: c2e8 97be fe83 3c3e 27a0 63bd c297 9dbe
00000300: 9354 563d 6dd1 4c3e f2f4 623e 5a07 5d3f
00000310: 7c80 593e 97ac da3e b02a de3d 728c 43bf
00000320: d181 253e 0e1e 5cbe 338f 59bf 5847 b5bd
00000330: 5283 06bf f346 8d3f ac41 e63b a7fb 91be
00000340: 1037 8b3d 0f7b cebe 62c2 24bf 29f6 09be
00000350: f0b6 d7be fd6f 38bf ee18 d73c 599e f7be
00000360: be77 1d3f d64f df3e 3d13 593f 13ca a83e
00000370: 354c 72bf 4fee c3bd a8fc 58be 8548 94be
00000380: 3b9f fdbe e653 823e 0fdc 193f 6171 ea3d
00000390: cbc3 2e3f e393 0a3b b7b3 54be 47de 393f
000003a0: 5ba1 5f3e 2e7c 5c3f 2db5 3dbc 67f3 06bf
000003b0: 69d6 5d3e 98c7 123e 010a a5be 2fe8 233f
000003c0: 285b 933d f22d 233f 2d32 b2be f889 1ebf
000003d0: 3d9c 123f 0dc5 17be 9bae aebe 3540 ebbd
000003e0: 4cfa e2bd d351 fa3c d02c b83c 297a 003f
000003f0: 5e11 84be 59fe 28be 2fb6 593e 66af 9bbd
0.27389812 0.135351 0.4218965 0.0027002343 0.23556414 0.25590917 -0.45383716 -0.8646972
-0.20602573 -0.043964844 0.79636353 0.15479165 -0.4908925 0.6081487 0.7231027 -0.7589256
0.3554211 0.2592872 -0.5128511 -0.45340332 0.18459664 0.25671634 0.16432893 -0.32894322
-0.75054735 -0.19528517 -0.11043442 0.73990726 0.32245496 -0.3017413 0.10567826 -0.49443984
0.26173055 0.17739694 -0.20337152 0.4939698 0.035679124 -0.10585173 -0.09429463 -0.39798787
-0.59096104 0.35466644 -0.38603738 0.16551343 -0.45434785 -0.08153672 -0.24883974 -0.81317365
-0.3960896 -0.24369982 0.30633065 -0.37832132 -0.93343264 -0.24933413 0.21289314 0.52927
0.26379496 0.14258954 0.6502261 -0.51960146 0.022883656 0.460362 1.1838431 -0.3274607
0.6856737 -0.1085836 -0.5346382 0.6635149 -0.62453383 -0.13451317 -0.06937439 -0.5385115
0.09923816 -0.29189485 -0.09358795 -0.18448614 -0.47128513 -0.106645904 0.3763671 -0.25660515
0.19540545 -0.47548965 0.047856413 -0.25253525 -0.041410238 -0.24264957 -0.068005465 0.3440629
-0.1357888 0.54896516 -0.37468264 -0.559993 0.9478712 0.104694426 0.06530086 -0.4483504
0.39723888 0.25951934 0.8876045 -0.5382219 1.0599396 -0.695033 -0.8002286 -0.11222734
0.48785105 0.162628 0.6498372 0.31269413 0.17390297 -0.31118426 -0.14255661 0.6527859
-0.4511222 0.7395608 0.2599585 0.4182097 -0.113912575 -0.30057552 0.16463654 -0.25774372
-0.548321 -0.6967387 -0.94267076 -0.8400351 -0.7385687 0.32722908 0.6380636 0.17738391
0.09312426 0.29587415 -0.4153764 0.7683008 0.047169197 -0.055061355 0.529129 -0.88738656
-0.41988528 0.16163653 -0.89907116 -0.9325465 -0.8610656 -0.17234732 -0.08164382 -0.25492138
0.37890753 -0.06473753 -0.24652633 0.109135725 0.7657515 -0.20691253 -0.5581272 -0.621379
0.413595 0.08417207 -0.022757117 -0.16871348 0.28769425 0.3729426 -0.20464201 -0.022463422
-0.4563027 0.107499406 0.035557117 0.32115594 -0.54994696 -0.012444922 -0.23336646 0.21662927
-0.11950575 0.5999271 -0.68693715 0.46785003 -0.6599874 0.39728463 0.23294646 -0.56329024
0.11036691 0.19258077 -0.041206468 -0.4951427 -0.18949825 -0.06349991 0.1355609 0.29193822
-0.29174882 0.75916916 0.28691193 -0.75317514 -0.29669768 0.18409726 -0.055572655 -0.30779845
0.05232675 0.20001765 0.22163752 0.8633934 0.21240419 0.427098 0.10847986 -0.7638618
0.16162802 -0.2149584 -0.8498413 -0.08851498 -0.5254413 1.1037277 0.0070268717 -0.28512308
0.06797612 -0.4032826 -0.64359105 -0.13472809 -0.42131758 -0.7204588 0.026257005 -0.48362997
0.6151084 0.43615597 0.8479498 0.3296667 -0.9464753 -0.09566938 -0.2119013 -0.28961578
-0.49535546 0.25454634 0.6010141 0.114474066 0.68267506 0.0021145276 -0.20771681 0.72604793
0.21838896 0.86126983 -0.01157884 -0.5271515 0.21663822 0.14333951 -0.32234195 0.6402616
0.07195121 0.6374198 -0.34803906 -0.61929274 0.5726965 -0.14821263 -0.34117588 -0.11486856
-0.110828966 0.030556595 0.022482306 0.501864 -0.257945 -0.16503276 0.21260904 -0.07601814

network_body._body_endoder.seq_layers.0.bias f4 [128]
00000000: e63d 013c 4fc7 4f3d 46e9 57bb 4839 6cbd
00000010: eae9 033d 6b90 683b b019 243b a1e5 453c
00000020: f0d6 84bd cce8 333d e1f0 243d f621 deb9
00000030: 6190 40bc e48a 223d 5da3 bf3c 611c 193c
00000040: bd3e 503d ea77 1f3d cd9b 0b3b a2ef e5bb
00000050: 3ea3 903b 0e5c 453d 16a0 00bd 4692 24bd
00000060: d55e 633d 02ad 31bd 1045 7a3d 9244 0d3b
00000070: 8629 2ebb f1fa 6f3d a33d e93b 13fe 123b
00000080: 1bb1 9d3c 421d a2bb 1e95 5f3d 4a52 12bd
00000090: db5b 853d 8fa0 173d 40d4 c53c 9b65 2b3c
000000a0: 65cf 173d ca14 7a3c 5fbb a8bc 5f1e ca3c
000000b0: 8dff 3bbc 69d0 313d 7850 513d e5a0 bb3c
000000c0: 89de d7bc e2a7 013d 7248 413a cf5f 85bb
000000d0: 4b1c 143d 0530 2bbd 408c ab3c 4787 443d
000000e0: c3c0 293d f800 993c 10ab 1a3d c5c9 d03b
000000f0: 7a12 323c 9733 953d 7548 323d 3569 dd3c
00000100: c385 e83b 8d49 2d3d d3c7 f3b9 2ba2 8f3d
00000110: dc7c f13c de9f 44bc c300 e13c c65e 723c
00000120: bdc1 5c3c b562 c3bb 6357 3a3d b5e2 443d
00000130: 05d4 0fbd 11d1 823c 3189 493d a8fd 933c
00000140: aa28 9fbc e8b1 ab3d 2d28 603d ab76 923c
00000150: 6c9f 143d 8894 0d3d ecac 443d cdcb f5bc
00000160: b9ee ee3c b897 bd3c b3c2 003d 5342 41bb
00000170: 9441 eabb d89f 703d 9a2c 38bc 79fa 87bd
00000180: 0bf7 163d 273b 373c 8ab8 203d d28b 2f3d
00000190: 71a9 263c bd91 e4bc e7af 403d 09f0 533d
000001a0: 5ddf 893d 8028 893d 5052 79bd 1c19 133d
000001b0: be35 b13b 16c6 753c 9a94 2c3d c1d6 46bc
000001c0: 6ee0 44bd 9c4b 463d ed0e 363c ae0f 303b
000001d0: 93ab 443d 5a0a 44bc 2ad5 373d 7005 313d
000001e0: ef46 763a 73de eb3b cd2f d5bc 97ff d33c
000001f0: 8b6f f63c 20a5 873d 6139 5ebd c4a1 283d
0.007888293 0.050727185 -0.0032945438 -0.057671815 0.0322055 0.003548647 0.0025039725 0.012078674
-0.064863086 0.043923184 0.040268783 -0.00042368443 -0.011753173 0.039683238 0.023393327 0.009345145
0.050841082 0.03893272 0.0021302581 -0.007017092 0.0044139912 0.048183493 -0.03140267 -0.04017856
0.05551036 -0.043377884 0.06110102 0.0021555764 -0.0026575043 0.058588926 0.0071179434 0.0022429272
0.01924949 -0.0049473355 0.05458557 -0.03572301 0.06511661 0.037018355 0.02414906 0.010461236
0.03706302 0.015263746 -0.020597158 0.024672685 -0.011474502 0.043411646 0.05110213 0.022903869
-0.02635123 0.031654246 0.0007373161 -0.004070259 0.036159795 -0.041793842 0.0209409 0.047980573
0.041443598 0.01867722 0.037760794 0.006371709 0.010868663 0.072852306 0.04352613 0.027027706
0.0070960238 0.04230647 -0.00046497452 0.07013353 0.029478483 -0.012001006 0.027466184 0.014793104
0.013473925 -0.0059626945 0.045493495 0.048067767 -0.035114307 0.015968831 0.0492031 0.018065289
-0.01942857 0.08383542 0.054725815 0.01787885 0.03628485 0.03456548 0.048016474 -0.030004406
0.029166566 0.023143634 0.03143568 -0.0029488995 -0.007148931 0.05874619 -0.011241103 -0.06639571
0.036856692 0.011183537 0.03923849 0.042857952 0.010172234 -0.027901525 0.047042754 0.051742587
0.06732056 0.06697178 -0.060869515 0.035912618 0.005408018 0.015000841 0.042133905 -0.012136162
-0.048065595 0.04841195 0.011111957 0.0026864815 0.04801519 -0.011965359 0.044881023 0.043218076
0.0009394725 0.007198149 -0.02602377 0.02587871 0.030082485 0.06623292 -0.05425394 0.041169897

network_body._body_endoder.seq_layers.2.weight f4 [128, 128]
00000000: 8642 dabd dd8e d43c 65ed eebd de7f 363e
00000010: 5b79 8e3d 7a10 1abe 7e5a 113e 35eb 16bd
00000020: 2f1c ec3d e7f2 a9bd dcbb 30be 208e 13bc
00000030: 0dfc b73d f982 a13d f4bf 3c3d 98be 963d
00000040: e475 a2bc f654 babc cf0f f33d 91f0 1abc
00000050: fdd9 f9bd a328 183c d578 ba3c fb0c 043e
00000060: 616c 83bd 43c0 8a3c d4dc cd3d 647f 47bd
00000070: 5770 3b3d 2fea d9bd b2c9 903d 6cc7 d43d
00000080: 4b86 46bd 228d 1d3d 6295 fcbb 91bf bd3d
00000090: 9006 223e f166 6a3d a1b5 50bc 0eb6 073e
000000a0: f0ed b43d d54e 633d fa46 8dbd c7fa 81bc
000000b0: 0c46 9f3d d362 eabd ef95 3ebd 0da3 f73d
000000c0: c8a4 be3d 15ef 213c d79f eebc 66b0 193d
000000d0: 9944 2abd ec0f 60bd a98c bcbc 1711 ffbd
000000e0: 58e0 893c 7277 38bc 1f68 173e 4d8a 19be
000000f0: 3ebf 3b3d 1e2c 1fbe 404b dbbd 59a8 df3d
00000100: 3482 aebd 5442 6f3b 2ed4 e83d f674 1abe
00000110: 7f6c 9cbd 42d5 c7bd 7eb6 8c3c 2309 a23d
00000120: 3f22 c83c 0f3d 64bd b84b 44be f4de b2bd
00000130: 2ad3 95bc 5617 913d 83e1 a4bd a8f6 2cbc
00000140: 8eb0 533d e2a3 493d 0eae 913d 5b1b 053d
00000150: 188c dfbd d864 8abd bab9 643a 888e f2bd
00000160: 695e d7bc 9cc5 913d fc3a b5bc edca c7bd
00000170: da09 563d 0826 8dbd 2418 9abd ab75 213e
00000180: 76a5 acbd d43f 2f3e 67ba 5c3c b19c a93c
00000190: 9a9f 2c3e 58d0 983b 50cb 26bd 8f95 dc3c
000001a0: 21b8 75bd b865 85bd a6ae 053e d8ac c2bd
000001b0: 6de7 a4bd 9ddd 913c 5d1e a13c 5fcf 5cbd
000001c0: da55 3d3d 8642 763c c2a9 0bbe 0584 adbd
000001d0: e6b9 df3d 4427 8bbd 7af0 1f3c fe95 5fbe
000001e0: eef4 1cbe 866d d53d 94af e7bd 96ee 453e
000001f0: aadb 83be 30ed f33c 4f45 823d c353 babd
00000200: fa2a b2bc 06c3 8e3d 80b1 98bd 97a4 713c
00000210: 45e1 9cbd 4eff 9a3d fe8f aa3e c7e0 8c3d
00000220: 09b5 9d3e 9ea3 babd b3dc e6bd faa4 273c
00000230: 1525 c1bc 9b8b b93d 71bc 243d 13d3 87bd
00000240: 8134 e3bd 6863 1fbe ec51 aabd b7d5 823c
00000250: d172 113e f80a 3f3d 41a5 223e 4034 073e
00000260: 9fce b8bd 5cde 2dbd 4757 673e f1d5 f13d
00000270: 9718 ebbd f5fc 82be 6c39 d43d 66f0 28be
00000280: 66fd 5ebe 333d 903d ff1c 993d a994 043e
00000290: 338b 41bc aad3 b0bd 14f2 3bbd eac6 323d
000002a0: 3f0d babd 20b2 76bd 5f56 d6bd f183 7f3d
000002b0: 0d60 96bb bad4 59be a764 4dbe bae2 423e
000002c0: 4bf1 573e c0b5 0e3d 79f4 23bc 21ad 2dbd
000002d0: 7e64 93bd 840f 143e 96d5 50bd 9a03 16be
000002e0: b703 a4bd ea6e 773c ed93 393d a463 2fbd
000002f0: e438 49bd d0a2 9bbd 1bb9 bdbd 6297 2b3d
00000300: 50a6 b4bb d14b 15bc b4a1 ab3d cc90 73be
00000310: 3034 00be 4d26 a63d 8576 97bd 83a1 b13d
00000320: 666f 09be e816 e13c 40b2 973d 1593 d9bd
00000330: ec99 1ebd 45a8 f8bd 6b64 18bd aba8 603e
00000340: c28d f0bc 6318 213d a5d6 80bd 6deb 3ebe
00000350: f005 96be 4b65 3dbe 76d4 82bd c987 dabd
00000360: 43cd cdbd 48d0 f93d 7730 973c 391b 893d
00000370: ef2c 343e 5f0e cd3d 8295 91bd e007 4fbe
00000380: 13f1 5fbd 0796 6a3c 4c0d 143e 9b55 4b3e
00000390: 378c 833e 6a6d 923c 124e 2bbe 833b 19bd
000003a0: 868f 203d bee3 b93c e8ec 0b3e d24a abbd
000003b0: cd98 903c 31a5 66bd 50b7 b1bd 7caa 9dbd
000003c0: b25f 5dbd 005f 1fbd 0a05 2c3d 70f3 ed3d
000003d0: 2c99 95bc a1da 2c3e f226 d13d 8920 b8bd
000003e0: 5c9e f23d 1d05 1f3c e3aa 523c 713d d23d
000003f0: aef2 1cbd 8fbe 00bc ce20 f53d 6d2d 113e
-0.106572196 0.025947029 -0.11666373 0.17822215 0.069567405 -0.15045348 0.14194676 -0.036845405
0.11528813 -0.08298283 -0.17259163 -0.009006053 0.08983622 0.07886309 0.0460815 0.073605716
-0.019831605 -0.02274559 0.118682496 -0.00945677 -0.12199781 0.009287032 0.022762695 0.12895577
-0.06417156 0.01693738 0.10051885 -0.048705474 0.045761432 -0.1064037 0.0706972 0.10389599
-0.048467916 0.038464673 -0.0077082375 0.09265054 0.15822816 0.05722708 -0.012738616 0.13253042
0.088344455 0.055495102 -0.06898303 -0.01586665 0.07777032 -0.114446305 -0.046529707 0.12091646
0.09308773 0.009883662 -0.029128952 0.037521742 -0.041569326 -0.054702684 -0.02301629 -0.124544315
0.016830608 -0.011258947 0.14785813 -0.14994164 0.04583668 -0.15544173 -0.10707712 0.10920782
-0.08520928 0.003650804 0.11368595 -0.1508368 -0.076378815 -0.097574726 0.017176863 0.07911899
0.024430392 -0.055722293 -0.1916951 -0.08733931 -0.018289167 0.07084529 -0.080508254 -0.010556854
0.051682048 0.049228556 0.071132764 0.03249679 -0.10915393 -0.06757516 0.0008725185 -0.11843592
-0.026290135 0.07117769 -0.022122853 -0.09755502 0.05225549 -0.068920195 -0.07524136 0.15767543
-0.08429997 0.17114192 0.013472176 0.0207046 0.16857758 0.0046635084 -0.040721238 0.026926784
-0.059990052 -0.06513542 0.13054904 -0.095056236 -0.080519535 0.017805869 0.019667799 -0.053908702
0.046224453 0.015030509 -0.13638976 -0.08472446 0.10924129 -0.06794599 0.009761924 -0.21834561
-0.15327808 0.104212806 -0.11312786 0.19329295 -0.25753528 0.029776186 0.06360876 -0.090980075
-0.021749008 0.069707915 -0.074557304 0.014748714 -0.07660154 0.07568227 0.33312982 0.068788104
0.3080218 -0.09113239 -0.11272564 0.010232205 -0.023577252 0.09059831 0.040218774 -0.06632056
-0.11093999 -0.15565264 -0.083164066 0.015971048 0.14203955 0.04664132 0.15883352 0.13203526
-0.09023785 -0.042448387 0.22591887 0.11808384 -0.114792995 -0.25583616 0.10362515 -0.16497955
-0.21776351 0.07042923 0.07476234 0.12947334 -0.011812973 -0.08634122 -0.04588516 0.04364673
-0.09084558 -0.060228467 -0.10465693 0.06238169 -0.004589087 -0.21272555 -0.20057927 0.19031802
0.2108814 0.0348413 -0.010007017 -0.042401437 -0.07196902 0.14459044 -0.05098494 -0.14649811
-0.08008521 0.015102128 0.04530709 -0.042819634 -0.04912652 -0.075994134 -0.09263822 0.041892417
-0.00551299 -0.009112314 0.08380452 -0.23785704 -0.12519908 0.08112774 -0.07395653 0.08673384
-0.13421401 0.027476743 0.07407045 -0.10623757 -0.03872101 -0.1214147 -0.03720514 0.21939342
-0.02936447 0.039329898 -0.0629094 -0.18644495 -0.29301405 -0.18495671 -0.0638818 -0.1067043
-0.10048916 0.121979296 0.018455727 0.066946454 0.17595266 0.10012507 -0.071085945 -0.20217848
-0.054673266 0.014317996 0.14458197 0.19856875 0.25692913 0.017874438 -0.16729 -0.03741027
0.039199375 0.022691604 0.13664591 -0.0836388 0.017650986 -0.056309883 -0.08677542 -0.07698533
-0.05404634 -0.03890896 0.041996993 0.11618698 -0.018261515 0.16880275 0.10212506 -0.089905806
0.11846611 0.009705809 0.012858125 0.10265625 -0.038317375 -0.007857933 0.119691476 0.14177485

network_body._body_endoder.seq_layers.2.bias f4 [128]
00000000: 97bd 93bd 8fa5 34bd d62d 6d3d d018 883c
00000010: d9ba c33c ea34 853c a3d5 e93c 9033 323c
00000020: 12e3 423c 278c 833d a310 0a3d 7efc 273d
00000030: e585 19bd 8c42 013d 5de3 ffbc 6a3b 033d
00000040: 8e9b a93c d1a2 133d fae7 b03b 1de0 2eb9
00000050: ca18 c6bc af9e d73c 1801 2f3d 56ec fdb8
00000060: 9b89 c43c 24d0 203d e6fa 1d3c 6ccf 3e3d
00000070: 7711 263d ebd1 b73c f3f3 44bc 0741 593d
00000080: 5b78 8f3d cba2 af3c 0ef9 ec3c 6d1f 10bd
00000090: 57bb 453d ce75 403d c824 053d bb98 4d3d
000000a0: f5ea 1a3d c9f9 083c 6e04 2fbd ad95 863c
000000b0: 9ddd b33b 8bdb 323d 3f26 2c3b a971 d5bc
000000c0: ccfc 383d 3910 0b3d 402a 2d3d e2b3 dcbc
000000d0: d1cc 323d 4e82 a13c f361 80bc 2a01 473d
000000e0: c3c7 093c bd48 493d 52ae 343d 7a7e 223d
000000f0: 6715 64bd 3c3d 943d 5fbe 473d 73f8 aabb
00000100: b5db 2d3c 9b0a 913d 94b4 1d3d 4875 4e3d
00000110: f61b 213d 01ac 153d 51e7 dc3c cbfa 393d
00000120: 593c f73b 2cd0 863c 3cb5 05bb bab4 5d3b
00000130: 6b24 02bd 2025 8bbd f3af 483d 1c33 3abc
00000140: c28e 453d 043e 483d 7c75 893d b988 60bd
00000150: 44c9 383d 548c 303d b245 fb3b a32c 8a3c
00000160: b3a3 20bc 9ae5 f53c 34b1 a33c 1b93 f53c
00000170: 8a22 c23c 92ed f93c fd64 02bd d3b0 8a3c
00000180: 26b3 3e3d fcd4 19bb 71bb 4d3d f974 f53b
00000190: 8da4 9bbc 75a9 2b3d 0801 233d 9a36 0a3d
000001a0: 37d2 e43a 8259 3c3d f139 653d 63e6 1c3d
000001b0: f670 843d 739a 90bd fd77 3b3d 592d 0abd
000001c0: c273 3d3d 775c 103d d757 a23c 0261 b73c
000001d0: 7b7c 033d e37c 81bd cbeb 7b3c 8c43 843d
000001e0: c9e5 663d 2fd6 af3d 066a 643d 68c3 dfbc
000001f0: eff3 a5bb a9c9 153d dd76 663d b4d5 323d
-0.07213896 -0.0441032 0.05790504 0.016613394 0.023892807 0.016260583 0.028544253 0.010876551
0.011894958 0.06423216 0.033707272 0.04101228 -0.037481207 0.031557605 -0.031236345 0.032039084
0.020704057 0.036043946 0.0053987475 -0.00016677422 -0.024181742 0.026320783 0.042725652 -0.00012108001
0.023991397 0.039261 0.009642338 0.04658453 0.040544 0.022438964 -0.012021053 0.05304053
0.07005378 0.02143993 0.028927352 -0.03518622 0.048274364 0.046987347 0.03250578 0.050194483
0.03782173 0.008360335 -0.042728834 0.016428793 0.005489065 0.043666404 0.0026267914 -0.026055174
0.04516296 0.033951018 0.04227662 -0.026941244 0.04365236 0.019715454 -0.015671706 0.048585095
0.008409443 0.049141634 0.044111557 0.0396714 -0.055684473 0.07238242 0.048765536 -0.0052176057
0.010611464 0.07082101 0.03850229 0.050404817 0.039333306 0.03654099 0.026965769 0.04540519
0.007545036 0.016456686 -0.0020402214 0.0033829645 -0.031773012 -0.067941904 0.048995923 -0.0113647245
0.048231848 0.048887268 0.067118615 -0.05481789 0.045113817 0.043102577 0.0076682204 0.016866988
-0.009804654 0.03001671 0.019981958 0.029977372 0.02369811 0.03050879 -0.03183459 0.01693002
0.046557568 -0.0023472896 0.050227586 0.007490751 -0.018999362 0.041909654 0.039795905 0.03374348
0.0017457668 0.0459838 0.05596346 0.03830565 0.06466858 -0.07060709 0.045768727 -0.033734653
0.046252973 0.03524443 0.019817276 0.022385124 0.032101136 -0.063226484 0.015376042 0.06458196
0.056371484 0.08585774 0.055765174 -0.027314857 -0.0050644795 0.03656927 0.0562657 0.043660834

action_model._discrete_distribution.branches.0.weight f4 [5, 128]
00000000: 6962 a23d c059 a83d 84b1 e3bc 0811 3dbd
00000010: bb8b 733d 0457 67bb 2b88 3f39 d34c cf3c
00000020: 1952 b23c 5eae fabc 584a 18bd 13ad 393d
00000030: c928 9b3d 7215 0dbd 8445 0b3d a782 9cbc
00000040: b74e fe3c 1bd1 203c ffb8 413d 7ce9 6a3d
00000050: e88c a53d 1de8 793c 9829 97b9 03e8 90bc
00000060: b87c 923c ccf2 aa3c ef1f afbc 19be 73bc
00000070: 1ff9 b1bc aa2d a7bc 0a05 7e3d a7fa 26bd
00000080: f1bd 88bd 4a58 043d 8310 8f3c 40b5 9c3d
00000090: 51e9 573b 0158 99bc f804 923c 9d25 2dbc
000000a0: 9ea3 46bd d856 c73c 2512 9c3d 69f9 d73c
000000b0: 73f9 693c f1f5 6abd de2e 603d 2ddf 843d
000000c0: fe48 a5bd d41d f23c c2aa 69bd 6eaf 4c3d
000000d0: 3e3e 7dbd c52c ab3c 47f7 8d3d 967c f5bc
000000e0: c30d ec3c f1d6 dabc 243d 14bd a6f1 8fbc
000000f0: 1971 053d 1f0b 03bd 39e9 1cbc 6479 21bc
00000100: 309a df3c 493b 49bd 5fb7 ecbc d712 f3bc
00000110: 3bc9 c5bc 9f7b 58bd 93e0 7ebd f5ed 09bd
00000120: 3f88 0aba 5286 313d 954c 7f3d 9dc9 993d
00000130: a618 483d 3c3c a53d e390 4dbd 0f4e 173d
00000140: 5823 a2bc e2cf a0bc ab1c 82bd bbe8 713d
00000150: 96b2 84bd 58c6 be3c 6898 4e3d 98a7 4b3b
00000160: 0515 29bc 31b6 3bbd 3c2f a93c 7b20 6ebc
00000170: 78d3 38bd 06f6 aebc d51a f93c 62ae 913c
00000180: 3caa 41bd 49e1 343c 7739 2cbc eb95 423c
00000190: 7fc1 c7bb 31ab 50bd f838 08bd 3436 59bd
000001a0: c005 c73c 5159 2dbd 9fa8 b5bd 1dab 82bd
000001b0: fba1 6ebc 2c80 9d3d 4263 8ebd 8cd7 853d
000001c0: 4363 53bd d092 fabb df0c 233d 8021 de3c
000001d0: 72d0 883c 6ceb 7b3d 3874 f1bb 64f5 65bd
000001e0: d947 95bd 305d ecbd 6056 8cbd d0fb 8b3d
000001f0: ba7f e83b 66b5 85bc cb2c 04bd 9e35 f3bc
00000200: 61f9 8a3b cb9e ac3c 6e40 afbd 8ccd 443d
00000210: bc2c 923d d9a3 b53c bb19 4ebd 4857 babd
00000220: 3d10 98bd 0c10 9d3d c4c6 723d b6c6 833d
00000230: 2825 13bd 0a6a db3d 8412 533d 4aa1 abbc
00000240: ac84 cebd 08b6 b7bd bc9c f83c 7a43 323d
00000250: 0770 c2bb 1445 d2bd 6f76 bdbd c8a8 583d
00000260: 2252 80bd 083d 823a b054 593d f409 c03d
00000270: 3c97 a93d ef52 8f3d 91cb ebbc db29 11bd
00000280: 1e49 9bbd d3e3 79bd c414 7abd 7aa4 503d
00000290: bae0 efbd 92f5 803d b512 8ebd 1e8f b4bd
000002a0: 8bc5 3ebd 7804 303d ff42 013d 4769 a93d
000002b0: 70b0 6fbd 8a90 823d 4973 75bd f676 553d
000002c0: 9b5e 2b3d 5069 863d da19 1b3d a99b 6cbd
000002d0: 0c37 9c3d c9b6 e0bd 2c95 573d 301f 7ebd
000002e0: fda4 d3bd 2f77 aabd 1139 73bd 5809 bfbd
000002f0: c376 a4bb 9f47 d6bd 9ccd aebd ffd8 f53b
00000300: 5549 a73d 47fa a1bd f2b0 8f3d a8ca acbd
00000310: ecfc b8bd b687 8b3d e912 6a3d 0037 c83d
00000320: c3e8 5f3d 37c1 a2bd 9864 aabd f5b1 a63d
00000330: 5f38 573d dad6 1c3d e1a0 82bd 0349 e0bc
00000340: 36be 72bd 2395 81bd 065a c0bd 721a a8bc
00000350: f1f6 b63d 13c0 973d 08b4 9abd e7ee 8dbd
00000360: 0c4a 7c3d 29da 2ebd 91b5 2cbd 730c 133d
00000370: adb3 28bd 227c aa3d 0b57 66ba 1a17 f7bc
00000380: e8db a33d 78f8 65bd df45 bfbd a3a5 973d
00000390: 3b15 b43c 2fa6 883d 822b 943d 2e98 1bbd
000003a0: ec73 723d 75dc 75bd 11d5 2b3d 6c75 ae3d
000003b0: 7edc 9ebd 3a38 3bbc e073 853d b3f8 a8bd
000003c0: abb3 893d 5275 aabd 18da 9b3d 3ad6 283d
000003d0: 6ff3 a83d 8c95 cfbc 0702 07bc 1c0c cdbc
000003e0: d1a8 0a3d fc67 9a3c 40e7 8dbc 11fc 92bc
000003f0: b909 20bd 1d34 af3d fc31 8bbd f0ce 16bd
0.079289265 0.082202435 -0.027794607 -0.04615882 0.05945943 -0.0035299668 0.00018265906 0.025305187
0.021767663 -0.030600723 -0.037180275 0.045331072 0.075761385 -0.03444428 0.034001842 -0.019105269
0.031043394 0.00981548 0.047295567 0.057351574 0.08083516 0.015253094 -0.00028831954 -0.017688757
0.017881736 0.020867728 -0.021377532 -0.014876866 -0.021725236 -0.020407517 0.062016524 -0.040766384
-0.066768534 0.03231076 0.017463928 0.07651758 0.0032945464 -0.018718721 0.017824635 -0.01056805
-0.04849588 0.024333403 0.07620648 0.026364045 0.014280665 -0.057363454 0.054732196 0.0648788
-0.08070563 0.029555239 -0.057047613 0.04997199 -0.061826937 0.020895371 0.0693193 -0.029966634
0.028815156 -0.02671382 -0.03619112 -0.017571282 0.03257856 -0.031993028 -0.009577089 -0.009855602
0.027295202 -0.049128804 -0.028896032 -0.02967207 -0.024143806 -0.05285227 -0.06222589 -0.0336742
-0.00052845845 0.04334099 0.062328894 0.07509158 0.04885163 0.080681294 -0.050187003 0.036939677
-0.019792244 -0.019630376 -0.06353124 0.05905984 -0.06479375 0.023287937 0.050438315 0.0031075235
-0.010319953 -0.04582805 0.020652406 -0.014534111 -0.045123547 -0.021357547 0.030408302 0.017783348
-0.04728149 0.01104004 -0.010511748 0.011876564 -0.0060960646 -0.05094451 -0.033257455 -0.053030208
0.024294734 -0.042321507 -0.088700525 -0.063802935 -0.014564986 0.076904625 -0.06952526 0.06535253
-0.051608335 -0.007646896 0.039807197 0.027115583 0.016700957 0.061503813 -0.0073685907 -0.056142226
-0.072890945 -0.115412116 -0.06852412 0.06835139 0.0070953043 -0.01632185 -0.03226928 -0.029688653
0.004241154 0.021071812 -0.08557211 0.048047587 0.07137439 0.022172855 -0.050317507 -0.09098679
-0.07424972 0.07669076 0.05927159 0.064343855 -0.035924107 0.10713585 0.05153133 -0.020950932
-0.10083899 -0.089702666 0.030348174 0.043521382 -0.005933765 -0.10267082 -0.09251105 0.052895337
-0.062656656 0.0009936402 0.05305928 0.093768984 0.08280799 0.0699824 -0.028783591 -0.035440307
-0.07582305 -0.061008286 -0.06105496 0.050938107 -0.11712785 0.06296839 -0.06937162 -0.0881636
-0.04657511 0.04297301 0.031558033 0.08272033 -0.058517873 0.06375225 -0.059924398 0.052115403
0.04183827 0.065630555 0.03786645 -0.057765637 0.07627687 -0.109723635 0.052632496 -0.06204146
-0.103342034 -0.08323514 -0.059380595 -0.09327954 -0.0050190403 -0.104628794 -0.085353106 0.0075026746
0.08168284 -0.07909065 0.070161715 -0.08437091 -0.09032616 0.06812994 0.05714694 0.097761154
0.05466534 -0.07947009 -0.08319968 0.08139411 0.052543994 0.038290836 -0.063783415 -0.027378565
-0.05926343 -0.06327274 -0.093921706 -0.020520423 0.08933819 0.07409682 -0.075538695 -0.06930333
0.061594054 -0.042688522 -0.042165343 0.035900544 -0.041186977 0.08324458 -0.0008786774 -0.030162383
0.08000928 -0.05614516 -0.09339499 0.074046396 0.02198278 0.06672322 0.07234861 -0.037986927
0.059192583 -0.060024697 0.041951243 0.0851849 -0.07756899 -0.01142698 0.06516242 -0.082505606
0.06723722 -0.08323158 0.076099575 0.041219927 0.08249556 -0.025339864 -0.008240229 -0.025030188
0.033852402 0.018848412 -0.017322183 -0.01794246 -0.039071772 0.08554862 -0.06796643 -0.036818445

action_model._discrete_distribution.branches.0.bias f4 [5]
00000000: b29f 84bd 9d9b 003a 2830 d13c 3080 75bb
00000010: e356 0f3d
-0.06475772 0.00049060007 0.025535658 -0.003746044 0.03499497

exp_avg f4 [128, 6]
00000000: 2002 9a36 1d9c ab37 a1fe 93b6 bfad 3c37
00000010: 4470 d437 6ec8 1338 aab9 5b38 305d 1fb8
00000020: eb0f 6337 7487 7bb8 e15d d4b7 2ba8 8238
00000030: 754a 7db7 3a43 39b7 0e7c 17b5 adc5 4236
00000040: 1721 02b8 4c3c c7b7 b70f f737 8ae7 bbb7
00000050: 1f61 a737 20ac 88b8 9133 4cb7 ad86 3d38
00000060: 6a46 0b38 73b6 19b8 ba1f 5937 fc76 c8b8
00000070: 6798 4c36 04d9 8a38 2f20 4cb9 e484 a738
00000080: 84b4 32b8 6fe9 1039 d5b3 fb36 aae9 e6b8
00000090: 19ac 87b9 8fae 5539 2a07 39b8 cfdb aa38
000000a0: 08b0 fe37 5c99 54b9 4548 5438 a4c1 b2b8
000000b0: a72a 2a37 ffb0 54b8 8f5f 09b8 d46f ec37
000000c0: 8070 02b8 01cd 4338 fb3a 3bb7 8d55 2f37
000000d0: e447 ed37 66ff 44b8 a22d 7639 8c68 71b9
000000e0: 570b 2638 54e7 0bb9 7ce2 29b7 5bb5 fe38
000000f0: 2076 c238 a525 c4b8 34b5 e437 3f64 33b8
00000100: e410 6136 4f12 3038 d69e 7637 11c2 7fb8
00000110: 7929 1c36 816c 8fb7 e9ed 95b7 b75a 4d37
00000120: 6617 97b8 baae 0138 7b6e 12b7 e194 db37
00000130: c8f6 86b5 1faf a1b8 c265 a138 e690 3fb8
00000140: c591 5937 d01c c3b7 4d0a 0eb7 96d4 fc37
00000150: 3f47 00b9 55c2 f538 6369 feb7 55fc 0239
00000160: a30a 7e38 dc9a 05b8 57a0 8238 f208 c2b7
00000170: a146 1338 ff4a 8ab8 6adc fa36 921b d038
00000180: f61f 9039 17fe 43b9 05b1 8138 2d1c aeb8
00000190: 7e49 3438 9bdc 1139 0dd9 a637 0b2b 47b8
000001a0: bc50 4d37 6884 f3b7 1880 1cb7 7219 5538
000001b0: 360a 56b9 19ac 1e39 bb8e 18b8 e541 4a39
000001c0: 57ec b138 4e1b 87b8 b26f 8538 c0de 78b8
000001d0: aa06 2537 7f76 d2b7 ac69 73b6 7785 de37
000001e0: 54fd 84b8 30c4 2538 6018 8fb6 0a92 5837
000001f0: 752d 1537 961a 09b9 5687 83b9 0474 4339
00000200: 41e2 49b8 ab14 2939 85f6 5838 0306 75b8
00000210: 4f5a 0fb9 f6ff cb38 05fa 02b8 0f80 2e37
00000220: 58c9 a0b6 d65e e6b8 5c24 bd35 25ec 97b6
00000230: ea92 d135 4dbc 51b7 bbec a6b7 146b 2837
00000240: 4a45 9539 f184 1db9 515c d737 1c65 17b9
00000250: 2e25 1738 3563 2939 829a f036 5e22 5fb6
00000260: 605c 2b37 dddd 45b7 6fab c435 e84a ec37
00000270: f2d5 29b9 8743 1939 c008 d7b7 3276 ba38
00000280: 3e2d eb37 2184 8eb8 9f4b 29b9 09e8 2c39
00000290: 032b 70b7 6edb de38 c8bf 0f38 c289 49b8
000002a0: 7c32 02b9 1da3 6d39 0229 34b7 a24b 0a39
000002b0: 2d9c aa38 59b9 04b8 ecf5 1039 6fb2 f4b7
000002c0: 2cb2 c337 d1b1 b6b8 8b56 0537 9afa aa38
000002d0: 96e5 48b9 4e28 4739 f55c 6db8 7e9f 4d39
000002e0: 26d9 7138 eba2 b7b8 207a 9738 75c7 66b6
000002f0: cd7d f536 20bf 35b8 b4df 2d37 1004 1a38
00000300: c161 2eb7 b993 5638 3fcb 41b7 d58e 5738
00000310: 4e42 4838 bfee ba38 0eff e9b8 ba61 be37
00000320: 57e2 cfb7 d881 3438 7a06 b037 259c e5b8
00000330: 27c3 b137 167b 1db8 bc4b b136 6df0 6ab7
00000340: 8f9e 28b6 d2c8 a637 718a b837 a77e 67b8
00000350: 36c1 2837 3875 75b7 3078 c6b7 6e21 b137
00000360: 8258 0eb9 4433 2339 5dca 45b8 54ef c238
00000370: 0d56 8f38 a834 59b7 4bf4 aa38 fe9a 3db8
00000380: 3ce6 1f37 c9a5 8fb8 ff05 3937 63d4 9638
00000390: 8fd2 9ab8 19cb d438 7958 5bb7 897d 8938
000003a0: 81f4 4938 da57 8e37 4511 76b9 310f f038
000003b0: d80e 67b8 9985 3439 9dea c737 3a1d 1fb9
000003c0: 2665 c138 f975 1eb9 4845 3e37 3a1b e7b7
000003d0: 47db e5b7 1846 1b38 6a0c 8db8 8d62 7b38
000003e0: b594 8eb7 5f73 8138 6dde 4bb5 748f 57b8
000003f0: 1dd0 25b7 f744 a2b6 1872 73b6 8f67 6337
4.589805e-06 2.0457484e-05 -4.410584e-06 1.1246127e-05 2.5324647e-05 3.5234196e-05 5.2386582e-05 -3.799534e-05
1.3533961e-05 -5.9969214e-05 -2.5316085e-05 6.230207e-05 -1.5097311e-05 -1.1042512e-05 -5.6432407e-07 2.9023315e-06
-3.1025233e-05 -2.3750727e-05 2.9452012e-05 -2.2399956e-05 1.9953177e-05 -6.517046e-05 -1.2171354e-05 4.5186538e-05
3.320576e-05 -3.664796e-05 1.2941595e-05 -9.558906e-05 3.0487079e-06 6.620775e-05 -0.00019466945 7.987933e-05
-4.2606625e-05 0.00013819871 7.501318e-06 -0.00011010778 -0.0002587743 0.00020378291 -4.411411e-05 8.147174e-05
3.036113e-05 -0.00020275026 5.0612045e-05 -8.52377e-05 1.014272e-05 -5.070958e-05 -3.275234e-05 2.8185466e-05
-3.109919e-05 4.6682548e-05 -1.1159801e-05 1.0450732e-05 2.8286078e-05 -4.69679e-05 0.00023477388 -0.00023022498
3.9588045e-05 -0.0001334225 -1.01259175e-05 0.00012145444 9.2726434e-05 -9.35302e-05 2.7264097e-05 -4.2770287e-05
3.3537444e-06 4.197872e-05 1.46997245e-05 -6.0977476e-05 2.3269952e-06 -1.7097454e-05 -1.787297e-05 1.2240073e-05
-7.2045994e-05 3.0918723e-05 -8.728001e-06 2.6176162e-05 -1.0055601e-06 -7.709697e-05 7.696032e-05 -4.5672896e-05
1.29681475e-05 -2.3259228e-05 -8.466258e-06 3.0139734e-05 -0.00012233572 0.000117187075 -3.0328234e-05 0.00012491767
6.0568225e-05 -3.1853895e-05 6.228749e-05 -2.3130768e-05 3.511331e-05 -6.594322e-05 7.47624e-06 9.923348e-05
0.00027489633 -0.00018691305 6.184172e-05 -8.302215e-05 4.298379e-05 0.0001391046 1.9889814e-05 -4.7485384e-05
1.223775e-05 -2.9029514e-05 -9.328149e-06 5.0806855e-05 -0.00020412434 0.00015132166 -3.6372552e-05 0.00019288769
8.4840394e-05 -6.4423875e-05 6.362739e-05 -5.933526e-05 9.836318e-06 -2.508913e-05 -3.627133e-06 2.6526612e-05
-6.3414365e-05 3.952178e-05 -4.2645697e-06 1.2908606e-05 8.891676e-06 -0.00013075242 -0.000250871 0.00018639868
-4.813285e-05 0.00016124795 5.1728002e-05 -5.841815e-05 -0.00013671185 9.727471e-05 -3.1227264e-05 1.0401024e-05
-4.791811e-06 -0.00010984919 1.4092179e-06 -4.5276415e-06 1.5614471e-06 -1.2501213e-05 -1.9898978e-05 1.0038511e-05
0.0002847112 -0.00015022211 2.5672985e-05 -0.00014438148 3.603583e-05 0.00016154053 7.1705444e-06 -3.3249594e-06
1.0213902e-05 -1.1793772e-05 1.4653032e-06 2.8168273e-05 -0.00016196797 0.00014616373 -2.5634072e-05 8.891187e-05
2.803525e-05 -6.7956986e-05 -0.00016145267 0.00016489638 -1.4315129e-05 0.00010626657 3.4272467e-05 -4.805043e-05
-0.00012416573 0.00022662846 -1.0738384e-05 0.00013188881 8.135322e-05 -3.164387e-05 0.00013824523 -2.9170156e-05
2.332878e-05 -8.711557e-05 7.947568e-06 8.15291e-05 -0.00019159014 0.00018993134 -5.6591776e-05 0.00019609739
5.7661113e-05 -8.756466e-05 7.222989e-05 -3.438877e-06 7.316214e-06 -4.3331762e-05 1.03636885e-05 3.6720245e-05
-1.0393968e-05 5.1159153e-05 -1.1551018e-05 5.1393017e-05 4.7745467e-05 8.913641e-05 -0.000111578134 2.2695272e-05
-2.478172e-05 4.303627e-05 2.098385e-05 -0.00010948655 2.119092e-05 -3.754635e-05 5.2838277e-06 -1.4003465e-05
-2.5126244e-06 1.9882256e-05 2.1998976e-05 -5.5192646e-05 1.0058566e-05 -1.463043e-05 -2.3659406e-05 2.1115611e-05
-0.00013575147 0.0001556399 -4.7156926e-05 9.295219e-05 6.8347996e-05 -1.2946468e-05 8.151735e-05 -4.520546e-05
9.530744e-06 -6.849651e-05 1.1028255e-05 7.1921175e-05 -7.382512e-05 0.00010146778 -1.3074016e-05 6.556052e-05
4.8149846e-05 1.6968628e-05 -0.00023466822 0.000114469214 -5.5088516e-05 0.00017215907 2.3831899e-05 -0.0001517431
9.2217975e-05 -0.00015112002 1.1341013e-05 -2.7550024e-05 -2.7401036e-05 3.702016e-05 -6.725716e-05 5.9934846e-05
-1.6996966e-05 6.172689e-05 -7.5947065e-07 -5.1393596e-05 -9.8832215e-06 -4.836005e-06 -3.6276233e-06 1.3554366e-05

exp_avg_sq f4 [128, 6]
00000000: 9bee 9c31 0ec7 7531 49be 3a31 fd64 0431
00000010: 42d0 ba31 666f 6231 0d58 8d32 3590 8831
00000020: 1e5a 9c32 4521 1733 2da9 9f33 de14 5c33
00000030: bb1f 1b30 ab59 f931 cb12 d130 a85b 9e2f
00000040: 72c2 c731 d233 5c31 7cd3 9031 9d82 c431
00000050: 83e0 e032 44d9 3833 65b5 fa32 e0e5 fc32
00000060: 59a2 5a31 a694 8932 0ff4 1432 6372 8933
00000070: 037f 5233 9bb1 cd32 04ca 0834 64a3 d532
00000080: 624b 0234 7c0e 2234 74d4 2734 69f3 1e34
00000090: 7c0f 7134 a73e 1634 1421 0734 3bac 9d33
000000a0: b3d8 8234 3ff9 9934 c8b9 6432 83bb 5e33
000000b0: 79a5 2632 afc3 e732 bc51 4033 5321 1333
000000c0: e02d 9331 bcf7 b231 3384 6632 7b3e 0b31
000000d0: 0fb6 3732 8539 0932 4a2f 4734 56cf 6f34
000000e0: 6090 1234 0fe7 3d34 711b 7334 d887 2034
000000f0: a5fb 2533 f361 6b33 270b a733 5434 a732
00000100: e3aa 9433 18c9 2133 b578 3830 2399 3e32
00000110: f592 0830 60af 2431 cafc c331 2aa2 9731
00000120: f8a7 5632 14b4 9e31 a305 7031 0036 0732
00000130: ef61 6832 b65d 5c32 0bdc 0233 8f47 0132
00000140: 04ef b132 5145 b731 ed8d eb32 1b1c a232
00000150: becd b533 43d6 3b33 27a3 8633 2a5d 0e34
00000160: a873 0134 be1c 0e34 9c87 b032 ecbc 4232
00000170: 3b14 1634 bd4b 9a33 917d 9f33 5a8e 8933
00000180: bacc 9834 8e82 6f34 ed07 bb34 e9b5 9133
00000190: 6cf6 ae34 be26 5534 ecbf 0931 f7b9 8c32
000001a0: 188f ce32 c8bc 8b32 b959 2533 0787 d532
000001b0: 4d9a 7734 846b aa33 4cde f633 b384 c434
000001c0: 0e58 8734 0c1f 8c34 2900 0832 673e ff31
000001d0: 3850 1331 b3ce 2131 5b09 2732 1354 fc31
000001e0: e6a7 3932 bbf2 b031 d5e3 7330 0379 4031
000001f0: 0a80 7033 1e79 8433 cac3 b134 76a4 2434
00000200: 7ebf 1334 8133 6a34 b89a 4c34 7941 7534
00000210: 867d 5f33 5149 0333 a7b5 8c33 b5fd b130
00000220: 6143 7d33 10c3 5033 266a 3a2f 254e 262f
00000230: 901e d32f 32d3 a031 39e3 1e32 3056 3232
00000240: 432f 8834 b91d 0534 0d02 9433 9c05 4f34
00000250: bad9 9834 56ed 3634 112e a230 732b 7730
00000260: 9d0f 8d32 10d3 1e32 d0fc 1732 5c51 5f32
00000270: eeae 0a34 d1be 0134 c168 3333 c959 d333
00000280: f66f d533 f822 0234 585d fc33 d266 1734
00000290: b0b9 9c32 3fb8 0534 24e5 1234 b621 0c34
000002a0: 64ea c133 3b4a 8334 4737 5632 dea8 7534
000002b0: e637 1534 c9d2 3334 ebc9 6d33 a02d e931
000002c0: 6131 2a33 7e62 7033 46f6 6e33 167e 0d33
000002d0: d3ad 1034 dab2 1134 6428 4e34 4d1b 9f34
000002e0: 96be 9634 f520 9534 71de 5732 7e49 db2f
000002f0: a2f1 b630 192a 2332 2197 1432 c945 cf31
00000300: e63f 9032 e344 a032 171a 9532 f09d 0533
00000310: f207 e632 67e8 c032 9dae 4333 7676 0731
00000320: 2957 1e33 a74b b232 761b 0f33 aa2a 1c33
00000330: cd6e 9930 02ad 2332 f008 1b31 c808 ab30
00000340: 5f7b e131 aea3 4431 7d3d 7231 a76c 8e32
00000350: c104 fe31 a138 4231 6fab 0f33 aa70 1533
00000360: 3936 2634 1b7d c833 7e64 2934 d8c7 f533
00000370: aa4d 7833 5601 b833 8e21 9232 f3fe 3732
00000380: cafe a231 8f11 1033 2be8 4e33 b168 f232
00000390: bb57 bf33 0779 2c33 7833 0433 1cf3 a933
000003a0: 8977 9033 aa8f 9733 6377 5034 4953 2d33
000003b0: a20f 5934 9f27 8234 7ef7 8334 c74e 8e34
000003c0: b9f5 2333 740a 7033 43da 4c32 10a0 df31
000003d0: d371 7033 ed8f 3a33 970d 1d32 efab 9432
000003e0: c9c5 6832 e459 c832 8cb4 1533 80e2 0e33
000003f0: 2bb9 fb30 71ec 4731 f5b5 5931 e6a4 3c31
4.567324e-09 3.5765342e-09 2.7174727e-09 1.9265933e-09 5.4369886e-09 3.295065e-09 1.6454601e-08 3.9745154e-09
1.820177e-08 3.5187686e-08 7.4347874e-08 5.124172e-08 5.6433763e-10 7.257048e-09 1.5212093e-09 2.8805158e-10
5.813768e-09 3.204367e-09 4.2149946e-09 5.7192e-09 2.6179128e-08 4.303844e-08 2.918632e-08 2.9441196e-08
3.181546e-09 1.6016497e-08 8.670226e-09 6.4003665e-08 4.900995e-08 2.3945907e-08 1.273948e-07 2.4870765e-08
1.2134618e-07 1.5092695e-07 1.5630377e-07 1.4803449e-07 2.2450507e-07 1.3992631e-07 1.2584889e-07 7.342211e-08
2.4372056e-07 2.867982e-07 1.33135885e-08 5.1858944e-08 9.700096e-09 2.6980926e-08 4.477782e-08 3.4256413e-08
4.2834785e-09 5.208646e-09 1.3417821e-08 2.0262678e-09 1.0693397e-08 7.987528e-09 1.8550523e-07 2.2334038e-07
1.3649833e-07 1.7686055e-07 2.2641122e-07 1.4950581e-07 3.8645926e-08 5.4804286e-08 7.778572e-08 1.9465155e-08
6.922871e-08 3.7668627e-08 6.7110345e-10 1.1094275e-08 4.968535e-10 2.396483e-09 5.7039857e-09 4.4131143e-09
1.2494631e-08 4.6188777e-09 3.49278e-09 7.870312e-09 1.3526445e-08 1.2826993e-08 3.046811e-08 7.525059e-09
2.0714204e-08 5.3338813e-09 2.7422141e-08 1.8872063e-08 8.4658936e-08 4.37342e-08 6.2695385e-08 1.3258673e-07
1.2056137e-07 1.3235237e-07 2.0550765e-08 1.1335242e-08 1.3977198e-07 7.1849605e-08 7.426855e-08 6.405453e-08
2.8461164e-07 2.2306105e-07 3.483723e-07 6.785178e-08 3.258932e-07 1.9851265e-07 2.0045219e-09 1.6382712e-08
2.4046628e-08 1.6267578e-08 3.849866e-08 2.4857867e-08 2.3059802e-07 7.935799e-08 1.1495703e-07 3.6604396e-07
2.5209778e-07 2.6099622e-07 7.916278e-09 7.428571e-09 2.1436914e-09 2.3546078e-09 9.722807e-09 7.3437234e-09
1.0806593e-08 5.1498694e-09 8.8726654e-10 2.8008464e-09 5.5995805e-08 6.16876e-08 3.3111274e-07 1.5333521e-07
1.3760106e-07 2.1811685e-07 1.9055267e-07 2.2841222e-07 5.2035396e-08 3.0567495e-08 6.5523004e-08 1.2950553e-09
5.8967434e-08 4.8606182e-08 1.6954313e-10 1.5125375e-10 3.8402392e-10 4.680623e-09 9.248475e-09 1.038056e-08
2.5366361e-07 1.2397403e-07 6.89216e-08 1.9280418e-07 2.8470623e-07 1.7036413e-07 1.1800144e-09 8.991982e-10
1.642166e-08 9.2448005e-09 8.84684e-09 1.2998807e-08 1.291589e-07 1.208348e-07 4.177196e-08 9.841785e-08
9.938951e-08 1.2119915e-07 1.17516436e-07 1.4100377e-07 1.8245231e-08 1.2453619e-07 1.368067e-07 1.305078e-07
9.029898e-08 2.445466e-07 1.2469008e-08 2.2878837e-07 1.3897042e-07 1.6747357e-07 5.5364506e-08 6.7863795e-09
3.962612e-08 5.5968933e-08 5.5637678e-08 3.2943795e-08 1.3474282e-07 1.3569243e-07 1.9199939e-07 2.9635922e-07
2.8078347e-07 2.7777392e-07 1.2565224e-08 3.9888087e-10 1.3310919e-09 9.497421e-09 8.6490966e-09 6.0324266e-09
1.6792864e-08 1.8657778e-08 1.7357747e-08 3.111012e-08 2.6779137e-08 2.2457426e-08 4.5560785e-08 1.9712423e-09
3.6866513e-08 2.075633e-08 3.3319758e-08 3.6360383e-08 1.1163707e-09 9.527186e-09 2.256055e-09 1.2444383e-09
6.5623875e-09 2.8614795e-09 3.5250587e-09 1.6580385e-08 7.3929134e-09 2.8262905e-09 3.34507e-08 3.4794233e-08
1.5479681e-07 9.335982e-08 1.577591e-07 1.1445053e-07 5.7812635e-08 8.568411e-08 1.7011896e-08 1.0709971e-08
4.7437867e-09 3.3543582e-08 4.8174268e-08 2.8220116e-08 8.910089e-08 4.0156944e-08 3.0780456e-08 7.913897e-08
6.727266e-08 7.057618e-08 1.9414942e-07 4.035545e-08 2.0215387e-07 2.4243215e-07 2.4580726e-07 2.650688e-07
3.817488e-08 5.588886e-08 1.192399e-08 6.508351e-09 5.5982877e-08 4.34374e-08 9.141693e-09 1.7307654e-08
1.35491485e-08 2.3323942e-08 3.4855972e-08 3.3267952e-08 1.8315282e-09 2.9092713e-09 3.1681087e-09 2.7451335e-09

exp_avg f4 [128]
00000000: 4eec f838 9a48 0838 3eba a7b8 ff9a db37
00000010: 9670 fcb6 cc97 18b9 ecd4 c1b9 d00d 09b9
00000020: 39aa 92b7 4d53 3f38 a5d1 eab7 ff14 5ab8
00000030: d173 1bb9 21c4 84b7 3a23 7938 ffb4 0139
00000040: c1f8 1539 b0d0 0738 359d e337 7cec 94b6
00000050: 0c30 64b9 5fef 4cb8 81a6 4ab9 618a 0ab7
00000060: 42cb 5139 ec0e 9038 85e3 c8b8 78b4 2338
00000070: d6f2 aa38 59da fc37 b1a7 0237 0fb4 2838
00000080: eeab 9239 3c48 4cb9 7519 5eb8 60d0 3eb8
00000090: 7b21 f5b5 46fa ac38 9fed b738 44f4 70b9
000000a0: 1817 d5b7 e419 29b8 c106 5139 992f cab8
000000b0: dda1 20b8 af08 b237 2d1a 7138 33c9 5ab9
000000c0: 3ed8 4bb8 77bc 6738 e5c6 b338 1162 eb38
000000d0: d547 12b9 1586 9538 dc68 16b8 9265 f038
000000e0: 7ffe 1539 65e2 e9b8 3fad 06b8 87bc 9938
000000f0: a316 5139 d0d1 e438 3892 67b7 139a a9b7
00000100: 252c c138 6bc0 4237 11dd 54b9 02e2 bab7
00000110: 20a7 14b8 c27b d0b6 06de e0b8 3e2b c5b9
00000120: 0d57 c6b7 ebf0 dfb7 bc39 25b8 7d57 7c38
00000130: e2cd 5eb8 2338 36b9 35c8 0e39 f9d8 7338
00000140: 0130 f038 1c41 9336 1429 d238 1a3e d438
00000150: ca5d 84b8 609a ff38 d516 5f36 1aee ff38
00000160: fbc7 4c39 9c34 64b9 54e7 3c39 0d09 3236
00000170: 5ecb aab8 5865 1439 83d1 b2b8 94b2 14b8
00000180: 8f7f 95b8 0657 1fb9 cd78 3db9 ea1b 5db9
00000190: c221 81b9 d5fa 06b7 5deb 3339 d4fe 5439
000001a0: a37e d0b7 2431 17b8 a0dc 02b7 ce63 0bb8
000001b0: e024 82b8 53d5 e638 7306 34b9 1d0a d7b8
000001c0: e0da 33b8 f401 b938 4068 89b8 0f3e ca38
000001d0: 7f19 2339 5ffe b3b8 cb91 72b9 4c42 1d39
000001e0: 486a 96b7 dc9d e5b9 36f8 a838 46ec b838
000001f0: e3d2 1a39 d520 c2b8 8ebd 1338 bbe3 ef38
0.00011869577 3.2492542e-05 -7.997871e-05 2.617901e-05 -7.523292e-06 -0.00014552398 -0.00036970468 -0.00013070484
-1.7483822e-05 4.561553e-05 -2.7992597e-05 -5.1994804e-05 -0.00014825097 -1.5826956e-05 5.9399033e-05 0.00012369825
0.00014302415 3.2380864e-05 2.7133714e-05 -4.438274e-06 -0.00021761673 -4.8860322e-05 -0.00019326249 -8.25766e-06
0.00020007513 6.8692345e-05 -9.579122e-05 3.9030303e-05 8.1514634e-05 3.0142417e-05 7.7876475e-06 4.0222014e-05
0.00027975388 -0.00019481865 -5.2952633e-05 -4.5493594e-05 -1.8263667e-06 8.248216e-05 8.7703804e-05 -0.0002297918
-2.5402333e-05 -4.0316852e-05 0.00019934309 -9.640976e-05 -3.829772e-05 2.1223297e-05 5.7483256e-05 -0.00020865053
-4.8600363e-05 5.5250213e-05 8.572432e-05 0.000112239395 -0.00013950405 7.1298484e-05 -3.5860445e-05 0.00011463011
0.00014304554 -0.00011152475 -3.2109438e-05 7.3307245e-05 0.00019940226 0.00010910968 -1.3802717e-05 -2.0218116e-05
9.21118e-05 1.1608102e-05 -0.00020300249 -2.2278171e-05 -3.5441597e-05 -6.2132904e-06 -0.000107225074 -0.00037606986
-2.3643976e-05 -2.6695858e-05 -3.9392835e-05 6.016296e-05 -5.3120668e-05 -0.00017377785 0.00013616758 5.8137786e-05
0.00011453033 4.388521e-06 0.00010021232 0.00010120515 -6.31172e-05 0.00012188102 3.324288e-06 0.000122036974
0.00019529455 -0.00021763373 0.00018015254 2.6529335e-06 -8.144112e-05 0.00014152133 -8.526726e-05 -3.5452264e-05
-7.128633e-05 -0.0001519584 -0.00018069446 -0.00021086601 -0.0002462995 -8.045424e-06 0.0001715845 0.00020312826
-2.4854502e-05 -3.604697e-05 -7.799972e-06 -3.3233133e-05 -6.2057516e-05 0.000110069894 -0.0001716854 -0.00010253883
-4.288077e-05 8.821851e-05 -6.552087e-05 9.64367e-05 0.0001555439 -8.5827654e-05 -0.0002313323 0.00014997384
-1.7930884e-05 -0.00043795898 8.057097e-05 8.817813e-05 0.00014765146 -9.256756e-05 3.5224068e-05 0.00011438826

exp_avg_sq f4 [128]
00000000: a7cc cc33 c2a6 c735 c810 a533 6b4a 7d35
00000010: b170 8035 07c1 9036 406c 0f37 94cc d335
00000020: 07a3 bd34 6208 ad36 c347 a535 cf18 4c34
00000030: a955 e734 cc3f 3b35 0372 6b36 ed15 1236
00000040: 3c12 e736 ec05 3b35 73e3 f536 7618 9234
00000050: 2daa 0236 1cfa c736 2b11 df35 8091 ae34
00000060: 7e5b c236 2477 b134 e90b 7136 4c71 8236
00000070: ae40 a436 0838 c435 6f26 0237 e4cb 6b34
00000080: a0c2 1935 05f4 ac35 1782 0334 5c9e a035
00000090: 73b4 2c36 118c 7535 ae8a de35 4ba2 ee36
000000a0: 05c5 b235 da25 8035 e779 1234 be5d 3e36
000000b0: 48c3 2036 4cd0 b736 f49a 3134 5be2 6637
000000c0: e951 2835 0dc5 6836 bc54 a935 281b 5036
000000d0: 9d7c ad36 25ad eb35 b090 8436 c4d4 2936
000000e0: 1ffa bd35 a7a9 4237 7188 2536 e0a1 a235
000000f0: a5bd 0a36 ae8a 9335 4647 1636 4c51 5e33
00000100: 3f0e 4f35 c89b 3236 2fb5 6c37 6819 1f37
00000110: 0132 a035 2726 8634 8141 e936 8377 2737
00000120: 7ec6 9f34 60f3 5135 a8eb 0b37 d5e8 5135
00000130: 793c 1335 fc97 6a36 7f67 a134 345f 0935
00000140: a0c3 0636 e2da 9f34 c1eb 8d34 d1c7 0936
00000150: 6642 0034 a663 9835 72e5 8f35 31a6 3b35
00000160: 88c5 9036 66b8 0a37 edda 8e34 4df1 fc35
00000170: bf8d 2136 3f24 7034 b9d0 8734 d6cb 6534
00000180: 4aa4 0b35 0106 3337 d9f1 3136 d728 0736
00000190: 5a1b 1837 b299 d933 3274 9835 b38b 7c36
000001a0: b320 6433 a250 a733 2e55 ed32 4b1c 0037
000001b0: 9367 aa36 fdb5 af35 e514 5937 33bc f535
000001c0: 5f05 5f35 9ee0 a936 3894 ae36 83ec 0037
000001d0: 5889 1436 4fec 1437 6f49 6135 4376 7d34
000001e0: e101 aa36 fc58 1737 edd3 bc35 5245 9336
000001f0: 0728 a236 8dc5 ff34 c75f ff33 622a 4134
9.536716e-08 1.4875188e-06 7.686464e-08 9.4358137e-07 9.569541e-07 4.3140058e-06 8.548668e-06 1.5780265e-06
3.532261e-07 5.1567777e-06 1.2314343e-06 1.9008006e-07 4.308943e-07 6.9755765e-07 3.5084092e-06 2.1768458e-06
6.8864592e-06 6.9671546e-07 7.3280476e-06 2.7212417e-07 1.9470565e-06 5.9597787e-06 1.6619791e-06 3.251589e-07
5.7923016e-06 3.3055505e-07 3.591873e-06 3.8874914e-06 4.8951106e-06 1.4619445e-06 7.757552e-06 2.1960255e-07
5.728016e-07 1.2886018e-06 1.2247652e-07 1.1967018e-06 2.5735033e-06 9.1473436e-07 1.658065e-06 7.111846e-06
1.3319374e-06 9.547759e-07 1.3641657e-07 2.8366771e-06 2.3955527e-06 5.478074e-06 1.6540781e-07 1.3761771e-05
6.270407e-07 3.4685393e-06 1.2616142e-06 3.1010222e-06 5.1703087e-06 1.7559256e-06 3.9507504e-06 2.5306808e-06
1.4154392e-06 1.1602801e-05 2.4666335e-06 1.2117052e-06 2.067399e-06 1.0992715e-06 2.2393228e-06 5.1762342e-08
7.713424e-07 2.6614744e-06 1.4108881e-05 9.483054e-06 1.1935482e-06 2.4987204e-07 6.951567e-06 9.981802e-06
2.976048e-07 7.8212724e-07 8.339914e-06 7.819738e-07 5.4849767e-07 3.4957184e-06 3.006389e-07 5.1175016e-07
2.0081425e-06 2.9775316e-07 2.643483e-07 2.05309e-06 1.1945085e-07 1.1353884e-06 1.0721108e-06 6.990477e-07
4.31453e-06 8.268375e-06 2.660885e-07 1.8845691e-06 2.4073377e-06 2.2364928e-07 2.5297575e-07 2.1401442e-07
5.202061e-07 1.0670629e-05 2.651583e-06 2.014034e-06 9.066274e-06 1.0132807e-07 1.13587e-06 3.7632242e-06
5.3115127e-08 7.7912105e-08 2.7629167e-08 7.635982e-06 5.0784524e-06 1.3091482e-06 1.2939073e-05 1.8308696e-06
8.308179e-07 5.0627414e-06 5.202859e-06 7.684462e-06 2.2133663e-06 8.876507e-06 8.392589e-07 2.3605485e-07
5.0666135e-06 9.02102e-06 1.406877e-06 4.3890113e-06 4.832636e-06 4.7641188e-07 1.18917846e-07 1.7989944e-07
