Scenes/ImprovedGridWorld2D/results/test-run/DroneGrid2D/DroneGrid2D-499914.pt (torch, 446685 bytes, 33 tensors)

network_body._body_endoder.seq_layers.0.weight f4 [128, 6]
00000000: 1d87 c0be 7ed0 a93e 8eae 3ebf 9f44 c5bd
00000010: 1ec6 a63d 0a3d 35be a891 6f3e 0792 5fbe
00000020: e21d 2dbe 55f1 1abe d295 833e 5bbc 0e3f
00000030: 7d67 33be 70ff 3b3e 2e61 04bf 41e1 93bf
00000040: bec9 8e3e 42ff 343e dafd f0bc dc70 c5be
00000050: 1c40 933d 18d4 c63e 2005 56be f220 05be
00000060: 39a4 0d3e 9eac 7a3e d6e5 b0be 2e94 f33e
00000070: 9361 da3d ad29 24bf 6b03 d63e f30e 8bbe
00000080: fbf2 b83d 4c89 05bf 7276 1cbf 2bac 1c3e
00000090: 9935 3d3c 05c1 903e 0a90 9e3e 324f 4f3d
000000a0: 6f8e b03d 34d0 4a3e f888 eb3e 319c d63e
000000b0: 1505 97be acc9 223e 650c ccbe 856c 623f
000000c0: 4b3a c3be 6c76 ca3d 672b 66be ed49 88bd
000000d0: 24bb fa3a 7707 213f 6954 24bf 1929 43bd
000000e0: 8cb2 a33e af91 00bf b694 56be a57c 0a3f
000000f0: 1eac e43e 9d3a ae3e e70f 033d 029c 143d
00000100: 6e74 783d 2ca7 20bf 7adb 8c3d 071a 0ebf
00000110: 835d bd3e a14a 173f 258e ffbc 2431 91be
00000120: 936c e43e 3a0b b0be 57f9 2ebe 0724 16bf
00000130: 2d5d e23e 4fad d1be 4aa8 b0bd ae09 adbe
00000140: 63c1 d2bd c70c 443e cacd 3bbf ff3f bcbe
00000150: 3e55 d6be 522d 68bf 0d6a 2abf c350 943e
00000160: 0aac 1c3e 98fb 1b3c 895b b4bc 9529 19bf
00000170: b8e7 89bf 0b30 0d3e 8592 3a3e addb 0abf
00000180: 7b2f bbbe 1dde bdbe 968f 22be 02b1 9ebf
00000190: 2080 a53c fd7f 773e cb2b a63e ace9 20bf
000001a0: ef1e 8abe f060 ccbd e037 d0bd 3582 4ebe
000001b0: 3efd 7ebc e534 813c e0a0 5cbf 8e1a bfbd
000001c0: 8dbe 173f b9bf ff3d 7153 e9bb 7583 22bf
000001d0: 354b 6cbe 2106 8bbe e0f2 bf3e b96e 5dbd
000001e0: 680a 2f3d e372 6dbe 5650 29be ef57 583f
000001f0: 65cf ba3d 6a8e 413e 1da6 4fbe e878 83be
00000200: 580a a13e 158d f63e 806a f53e d6dc 74bf
00000210: c1e4 b7be e15d 34be 4dde ea3c 42e0 40bf
00000220: 9e17 d5be 7003 43bf 2e13 c93e b9e4 e1bd
00000230: c34f febe 4948 94be 3aad d4be 3c76 9cbe
00000240: 9abf 5a3e ccd3 25bf 9ef3 3f3f 8292 b63d
00000250: 9787 11bf 2436 c33e eb0c 7cbc fabe b2be
00000260: e697 673e fb79 8bbe ade2 73be 93cc 82be
00000270: 44dd c73a a3ae b6be 6993 3b3f a46d 4f3e
00000280: 5520 3cbf 57de 003e a7e6 0c3e 1494 6d3e
00000290: eddf 57be 9018 18bf 692d 1e3f b294 c9be
000002a0: 9d72 993e e43b d03e 95d9 b6be bf5b 6e3c
000002b0: ba50 45be 039f 873e 6f49 45bd 874b dd3e
000002c0: e58e 0c3f dc6d e7be 3390 6e3e 0e93 2b3c
000002d0: 63fd d63d bf17 a83e 66e3 563e 1550 623f
000002e0: 7aa4 36be f98a dabd aee7 743d ca00 48be
000002f0: 6c4b 533e 5969 d0be acc1 dfbe 0ac1 dcbd
00000300: 1928 483d 8db0 d33e 173d 31bf 2c8a 7abe
00000310: 88c9 a83e a571 b6be af6c 453f 30ad ffbd
00000320: cac9 8b3e 0eeb a53d 7fa3 1dbe e5b5 f1bd
00000330: 74b2 85be 8da2 a1be 0106 8bbb 09df 76be
00000340: bbf5 b1be 6801 7d3c d8c0 3bbf 42d9 c4be
00000350: b87a 8a3e 545a 8a3e 4316 febd 2326 0d3f
00000360: f3ea 46bf 583f 30bf a1b9 553f 444f 1cbf
00000370: eae3 613d 43c3 2bbf d9ab 9bbd df1c 913e
00000380: 2007 c7be d545 933e 65bf e7bd 900f bebe
00000390: 7bdc 413d c07a 0dbf 497e 57bf 6498 28bf
000003a0: 76ee d03e a5a1 c8bd c06d e83d 877d 75be
000003b0: ebdc d3be 9c20 5f3f 3025 873e a74a 023d
000003c0: 16f4 08bf c397 83be 517b 113a 6912 5d3f
000003d0: 1a17 24be 5440 bc3d 8c76 293f e3b5 0d3f
000003e0: d74c 733e 9b85 0c3f 5b38 f93e 7e3c a6be
000003f0: a2d2 043e f99c 823d 0b39 c3be b108 333e
-0.37603083 0.3316688 -0.744851 -0.09632229 0.081432566 -0.17699066 0.23395407 -0.21833049
-0.1690593 -0.15131123 0.2570024 0.5575616 -0.17519946 0.1835916 -0.51710784 -1.1553117
0.27888292 0.17675498 -0.02941792 -0.38562667 0.07189962 0.3883369 -0.20900393 -0.13000849
0.13832177 0.2447991 -0.3455035 0.4757399 0.10663142 -0.6412609 0.41799483 -0.27159843
0.0903072 -0.52162623 -0.61118233 0.15300052 0.011548423 0.28272262 0.30969268 0.050612636
0.08620917 0.19805986 0.46002936 0.4191604 -0.29496065 0.15897244 -0.39853206 0.8844684
-0.38130412 0.098858684 -0.22477494 -0.06654725 0.0019129259 0.62902015 -0.641913 -0.047646616
0.31972158 -0.50222296 -0.20955166 0.5409644 0.44662565 0.34029093 0.031997588 0.036281593
0.06065791 -0.62755084 0.06877799 -0.55508465 0.36985406 0.5909825 -0.03119571 -0.28357804
0.44614086 -0.34383565 -0.17087303 -0.58648723 0.44211712 -0.40952536 -0.086258486 -0.33796448
-0.10290792 0.19145499 -0.73360884 -0.36767575 -0.4186191 -0.90694153 -0.6656807 0.28967866
0.15300003 0.009520434 -0.022016304 -0.59829074 -1.077384 0.13787858 0.18219955 -0.5424145
-0.36559662 -0.3708352 -0.15875086 -1.2397768 0.020202696 0.24169917 0.32455286 -0.62856555
-0.26976725 -0.09979427 -0.10166907 -0.20166858 -0.015563307 0.015772292 -0.86182976 -0.09331237
0.5927513 0.1248774 -0.0071205427 -0.6348184 -0.23075564 -0.27153113 0.37489986 -0.05406067
0.042734534 -0.23188357 -0.16534552 0.84509176 0.091215886 0.18901983 -0.20278211 -0.25678182
0.31453204 0.48154512 0.47932816 -0.9564947 -0.35916713 -0.17613937 0.028670454 -0.7534219
-0.4161958 -0.7617712 0.39272445 -0.110299535 -0.49670228 -0.289614 -0.4153841 -0.30558956
0.21362153 -0.647763 0.74981105 0.08914663 -0.5684752 0.38127244 -0.015383939 -0.3491133
0.22616538 -0.272415 -0.23816939 -0.25546703 0.0015248437 -0.35680112 0.73271805 0.20256668
-0.73486835 0.12584816 0.13759862 0.23201019 -0.21081515 -0.5941248 0.6178804 -0.39371258
0.29970255 0.40670693 -0.35712877 0.014548241 -0.19269076 0.26488504 -0.048165735 0.43221685
0.5490554 -0.45201004 0.23297195 0.010472072 0.104975484 0.32830617 0.20985183 0.88403445
-0.1783618 -0.10671038 0.05979126 -0.19531551 0.2063424 -0.40705374 -0.43702447 -0.10779007
0.048866365 0.41345635 -0.6923384 -0.24466771 0.32966256 -0.3563358 0.77118963 -0.12484205
0.2730239 0.08101474 -0.153944 -0.11802272 -0.2611271 -0.3156933 -0.004242659 -0.24108519
-0.3475779 0.01544223 -0.7334113 -0.38447005 0.27046752 0.2702204 -0.1240659 0.55136317
-0.77702254 -0.68846655 0.8348637 -0.6105845 0.055148996 -0.6709482 -0.07601137 0.2834234
-0.38872623 0.28764215 -0.113158025 -0.37121248 0.047329407 -0.55265427 -0.8417707 -0.6585753
0.4080693 -0.09796456 0.11349058 -0.23973666 -0.41379485 0.8715913 0.2639556 0.031809475
-0.53497446 -0.25701723 0.00055496866 0.86356217 -0.16024438 0.09191957 0.66196513 0.5535566
0.23759781 0.54891366 0.48675808 -0.32468027 0.12970975 0.063775964 -0.38129458 0.17483784

network_body._body_endoder.seq_layers.0.bias f4 [128]
00000000: 89e5 633d 0765 153d 92ad a73c 60ac e7bc
00000010: f8bd 663b 42fb fe3b 3169 6a3d 19a6 b33c
00000020: 1ce5 f73c c478 373c 6b06 693d 68f7 633c
00000030: c6b3 2abb 9817 123c 1056 12bc d9e9 65bb
00000040: e4c3 f03a 730a fbbc 1ee2 313d 4f87 d63c
00000050: 7b3b 6e3c 3da6 593d a447 5cbc d786 b53c
00000060: 0c43 ca3b c30b 063d b038 f03c 37f6 203d
00000070: a57c 10bd bb61 463d b6ab 3e3d 0f71 07bd
00000080: 6e71 183c 6203 293d 797f d3bb b5ec 0f3d
00000090: 3c79 be3c 161f ea3b 5117 213d 4e37 7b3d
000000a0: a393 573c 1db1 7e3d 43ab 5cbb bc18 1e3d
000000b0: 7d24 14bb 3c2e ef3a 431e 583d 1998 713d
000000c0: e461 5b3d 6b55 203c bbcf 3f3d 1b1b babc
000000d0: ddab 7e3d 5548 083c b3c1 7ebb 6d43 5e3c
000000e0: 6fdf 473d 3b35 503c 367c de3c fe71 d8bc
000000f0: 4243 ff3b 353c 803d bc69 153d aebe 89bc
00000100: 462a 243d 2750 cd3c 1a2e 12bc a1ea cd3c
00000110: ac1c 573d cb13 803b b05a c53c ff2f 2fbd
00000120: d781 453d 0580 083d 26ce 423d e22f 2a3d
00000130: 081c 4c3d 3907 833d fe30 ee39 4bdb fd3b
00000140: c8ed d23b 2838 de3c 2b6f 91bb 7c3b 4b3d
00000150: 5ee3 e23c c31a 53bd d3b3 783d 6fff 0dbb
00000160: 6681 2e3d 4a42 033d 522b 6c3d 59df f63c
00000170: c015 703d d050 473d 07c7 163d fdc1 4dbd
00000180: 3ce9 bebc 9692 9d3c d79f b2bc d2ff 6f3d
00000190: 052a 8a3d 4886 5e3b 81fb 673b f579 103d
000001a0: bf33 493d dedf e03b af82 ca3b 434c 1d3d
000001b0: 7cfc 403d 0df4 5c3d c5b3 773d 992a 8a3d
000001c0: 5348 543d b03b e93c b45f 353d df14 623d
000001d0: 7580 343d 2ee4 403d 4e9d 783b f0a0 143d
000001e0: 9040 de3c 9d92 693d 7921 413d 8720 0f3d
000001f0: b5cb 063d 4264 cd3c 7ea9 5d3d 83da 44bc
0.055638824 0.0364733 0.020468507 -0.028280437 0.0035208445 0.007781417 0.057229225 0.021929787
0.030260615 0.011198226 0.056890886 0.013913967 -0.0026047095 0.008916758 -0.008931652 -0.003508201
0.0018368927 -0.030644631 0.043428533 0.026187567 0.014540548 0.053137053 -0.013444815 0.022159023
0.0061725434 0.03272606 0.029323906 0.03929731 -0.03527512 0.048433047 0.046550475 -0.033066805
0.0093043875 0.04126299 -0.006454405 0.03513785 0.023251168 0.007144819 0.039328877 0.06133204
0.013157758 0.062180627 -0.0033671416 0.038597807 -0.0022604757 0.0018248032 0.052763235 0.058982942
0.053560153 0.00978599 0.046828967 -0.022718003 0.06217562 0.008318027 -0.0038872778 0.01356588
0.048797067 0.012708004 0.027158838 -0.026421543 0.00779 0.062614836 0.03647779 -0.016814556
0.040079378 0.025062634 -0.008922124 0.025136294 0.052517578 0.0039086095 0.024091095 -0.042770382
0.048219528 0.033325214 0.04755988 0.04154957 0.04983142 0.06397862 0.000454314 0.007747089
0.006437037 0.027126387 -0.004438301 0.049617276 0.027696308 -0.051539194 0.06071837 -0.0021667143
0.042603873 0.03204564 0.0576585 0.030135797 0.058614492 0.048661053 0.0368109 -0.05023383
-0.023304574 0.019234937 -0.021804733 0.05859358 0.06746296 0.003395455 0.003539771 0.035272557
0.049121615 0.0068626245 0.0061801295 0.038402807 0.047115788 0.053943682 0.060474176 0.06746406
0.051826786 0.028470844 0.044280723 0.055195685 0.04406782 0.04709261 0.0037935558 0.036286294
0.027130395 0.057024587 0.047151063 0.03494313 0.032909114 0.02507222 0.05411672 -0.012014988

network_body._body_endoder.seq_layers.2.weight f4 [128, 128]
00000000: 213c c9bc 783a 403d a374 42bd fbaf a4bd
00000010: fc60 80ba 42d8 99bd 2531 293e fefc 0cbe
00000020: 1701 b2bc 1143 803b 11ef 063e 809f bfbc
00000030: 3d1b aa3d f1de 29be 9b1c 893d fb0a e03d
00000040: 3c39 853c fd1b 02bd d12d e7bb 9a45 9c3d
00000050: c436 113e 4a2c 973d 2623 323c 91ca 1ebd
00000060: 3714 03bd 68db 1f3e 43e5 2abd 56f1 ce3d
00000070: 4c1c 8dbd 411a 133e a334 88bd d18c bf3c
00000080: aee5 45be c9ff 2ebd 63c8 64bd cf4c 44be
00000090: 0f39 38bc 7255 1c3d 51a1 b5bb 80b3 303d
000000a0: 377e bdbd 141e a13d ac47 913d 26f6 283e
000000b0: bb03 9f3c 78d7 d23d 6cc4 c73d b213 013e
000000c0: 17c2 523d a217 173c 94ec d6b9 9994 a1bd
000000d0: b0c5 6cbd d7e5 5ebd 79fb 5bbe 6851 083d
000000e0: d996 2dbc 35b8 673d 3962 9dbe 1018 ffbd
000000f0: 1754 823d 28e2 dfbb 2693 da3b cda8 25be
00000100: 43ef cc3d 65fb 8f3c b9d0 2cbc a78e 48bc
00000110: 0407 5f3e e1e6 a53d 185f 2f3c 7420 90bd
00000120: 9cbf 6d3d 2e25 bdbb b03e eabd 7a41 983b
00000130: c5d1 f23d 7473 183e dc27 c8bd 55d4 b43d
00000140: 29f8 17bd e9f7 de3d e9e5 35bd b58e 98bd
00000150: dfc9 04bd ea13 d23c af77 243c 0864 f3bc
00000160: e778 253e b8c8 26bc 5828 86bd 455d 533d
00000170: 7618 e23d 7f46 183d ec95 75be 3c59 9dbd
00000180: ea7f b4bc 9ee0 df3d e7a7 bdbd f710 e2bd
00000190: 6a47 47bd ac81 8c3c b693 753d 38bd 5dbd
000001a0: a45f 163e fdc7 1cbe 52ad ef3c 1f02 3e3d
000001b0: ffe3 0e3e a544 53bc 06c4 16be 0c44 6b3d
000001c0: 7af9 c33d 2a1b ae3a 138a ecbc 0e9c 973c
000001d0: 3eae 633d b219 3c3d 38d5 cabb ab22 f1bc
000001e0: 71fb 293e 3e42 e33d 3e08 a63d 6940 44bd
000001f0: f21e c2bc 2164 10be 575e 48bd 6773 b7bc
00000200: f043 45bd 8a77 003d eea2 823d 0c71 0bbe
00000210: aa50 4bbd 70ba 4b3d 5400 ac3d 3433 75bd
00000220: 4eed 453d 76f8 963d 79e6 86bd 609c 0f3e
00000230: 9497 9c3d df25 abbc 1add e1bd 9ecc 753d
00000240: 77f2 57be afcf a03d bd2e c03d f915 763d
00000250: 6b66 04be eccc 2c3e e7f0 77be 516a 09be
00000260: f331 f83d 8044 3c3b 0529 cfbd 63d9 0e3e
00000270: e9b1 b6bd f537 e83c 65c0 403e 52c6 bfbc
00000280: f64f 84bd e744 ffbd 4028 c43d 939f 0dbe
00000290: c72a abbd 6292 1c3d 6883 483c 4813 36bd
000002a0: c2b8 643d b4a6 6e3d 0b80 423d 2f22 27bc
000002b0: f069 d33d c3c2 afbd 3c76 42bc 8ac6 9a3d
000002c0: 7f12 abbc 38e7 39bc aa0b 113e 13bd dfbd
000002d0: c7a7 fabd 3c13 41bd 3f9a b5bd 4a98 93bd
000002e0: 465c 5abe 3d7a 2c3d 904b 013e 0620 f4bc
000002f0: 2467 d53c 61e5 bc3d 14f5 ab3b 23aa 1ebc
00000300: d16b 183d af08 af3c 2c45 2fbd a956 ccbd
00000310: 53d7 a83d cdec 01be f877 98bc 5664 92bd
00000320: 4093 e2bd 370e 913d 7efd c9bd a949 623c
00000330: d881 1d3c d7d2 1f3e fc81 0abd 8400 22bd
00000340: 6d18 febc 7d59 27bd 3f38 de3b f6ae 31bd
00000350: 166a 3d3d 8e0e 83bd b77e ce3d 8c95 01bc
00000360: dfde 9e3d 6ac6 2bbd 7e50 643d 6e86 08bb
00000370: 3587 0d3e 886e 19bd 5e3f 8f3e 42d3 a83d
00000380: 3ed2 84bd b67c c33b db8e 09bc c6a8 28be
00000390: cd3a f93c 6c60 ef3d 798c 3abc 1961 01bd
000003a0: 44e0 edbc 4dab 1e3e 7e2c 15bd dbef 39be
000003b0: 1a23 7b3d ffa6 3d3c 312f 8f3e d7b8 c73c
000003c0: 6469 e13d e829 d13c 3373 0a3e b9db 913c
000003d0: 5303 1bbd bc7b 4e3d 09d1 953c b98d 3f3e
000003e0: 40f3 9c3d ba92 023e 5c91 bcbc ff02 32be
000003f0: 7663 34bd 758f 52bc ce93 ce3c 8161 09be
-0.024564805 0.04693076 -0.047474515 -0.08041378 -0.0009794529 -0.07511951 0.16522653 -0.13768384
-0.021729035 0.003914245 0.13177134 -0.023391485 0.083059765 -0.16588952 0.06694909 0.10939594
0.016262643 -0.031764973 -0.0070550223 0.07630463 0.14181048 0.07381494 0.010872638 -0.0387674
-0.0320017 0.1561104 -0.041722547 0.10104625 -0.06890163 0.14365484 -0.06650665 0.023382576
-0.19325897 -0.042724404 -0.055855166 -0.19169925 -0.011244073 0.038167424 -0.005542912 0.043139935
-0.09252589 0.07867065 0.070937485 0.16500148 0.019410959 0.10295004 0.097542614 0.1260517
0.05145463 0.009221943 -0.00040993525 -0.07889671 -0.057805717 -0.05441841 -0.21482648 0.03328076
-0.010595047 0.056572158 -0.30739 -0.124557614 0.06363695 -0.00683238 0.0066703735 -0.16177674
0.10006573 0.017575929 -0.01054781 -0.012241042 0.2178002 0.08100677 0.010703824 -0.0703744
0.05804406 -0.0057722544 -0.11437738 0.0046464773 0.118564166 0.14887792 -0.097732276 0.088295616
-0.0371019 0.10887129 -0.044408713 -0.07449094 -0.03241908 0.025644261 0.0100383 -0.029710785
0.16159402 -0.010179691 -0.06550664 0.05160262 0.11039822 0.037176605 -0.23982972 -0.07683036
-0.02203365 0.10931514 -0.092605405 -0.11038392 -0.04865209 0.017151676 0.05995532 -0.05413553
0.14684922 -0.15310664 0.02925745 0.04638874 0.13954161 -0.012894784 -0.14723215 0.05743794
0.09569068 0.0013283242 -0.028874433 0.01850703 0.055586092 0.045922942 -0.0061899684 -0.029435476
0.16599824 0.11096619 0.08107041 -0.04791299 -0.023696396 -0.14100696 -0.048918094 -0.022393895
-0.048160493 0.031364 0.063787326 -0.13617343 -0.049637474 0.049738348 0.083985 -0.059863284
0.048322015 0.07371609 -0.06586928 0.14024496 0.07646099 -0.020892082 -0.110285 0.06000959
-0.21088587 0.078521125 0.093839146 0.06007955 -0.12929694 0.16875046 -0.2421299 -0.13419463
0.12118902 0.0028727353 -0.10115246 0.13950114 -0.089206524 0.028346995 0.18823393 -0.023409996
-0.06460564 -0.12464314 0.095779896 -0.13830404 -0.083577685 0.03822554 0.012238361 -0.04445198
0.05584026 0.05826445 0.047485393 -0.010201021 0.1032294 -0.0858207 -0.01186901 0.075573996
-0.020882843 -0.011346631 0.14164606 -0.10924735 -0.12239032 -0.047137484 -0.08867311 -0.07206781
-0.21324262 0.042108763 0.12626481 -0.029800426 0.026050158 0.09223438 0.0052477214 -0.009684118
0.037212197 0.021366445 -0.042790577 -0.099774666 0.08244195 -0.12687989 -0.018611893 -0.07148044
-0.11063242 0.070827894 -0.09862803 0.013811507 0.009613477 0.15607773 -0.03381537 -0.039551273
-0.031017506 -0.040856827 0.0067816074 -0.043379746 0.04624375 -0.063992605 0.10082763 -0.00790919
0.07757353 -0.04193727 0.055740826 -0.002083208 0.13821109 -0.037458926 0.27978033 0.08243419
-0.06485413 0.0059657944 -0.008395876 -0.16470632 0.030423546 0.11688313 -0.01138603 -0.03158674
-0.029037602 0.15495034 -0.036419384 -0.18157904 0.061312772 0.0115754595 0.27965692 0.02438013
0.1100643 0.025532678 0.13520508 0.017804967 -0.037844967 0.05041097 0.018288152 0.18706407
0.07663584 0.12751284 -0.023018532 -0.17383955 -0.044040166 -0.012851586 0.025216963 -0.13416101

network_body._body_endoder.seq_layers.2.bias f4 [128]
00000000: 2fd5 203d a64d 103d 808a 683c f37a 373c
00000010: 6271 373d bb64 bc3c 3653 573d 1aed 0e3d
00000020: 3bcd 8aba f3cf 993c 829d 293d f9d9 303d
00000030: 8e41 1e3c f82f 4e3d d30c 493d ee51 643d
00000040: 1084 173c 447a 5abb ea2a af3b 093e 453d
00000050: 415b 0b3d 9117 633d 5fd2 bf3c 54e4 be3b
00000060: 6009 293c 1628 813d dd08 47bb 80d2 0cbc
00000070: af6d 313c 8c6f cb3c ca9b 1cbd 1eea 153d
00000080: db6f fcbb 436b 1eba 1ab9 a439 b673 2b3c
00000090: 4cdf 653d f7c0 083d 46af e13a 1565 ccbb
000000a0: 435d e7bc 6c5d 253c 4104 363d 7b84 743d
000000b0: fd6b 523d d1a6 643d f135 823d c1e2 e13c
000000c0: a93b ba3b eb4b 7cbb fb91 f93c 6784 4a3d
000000d0: f8b1 303d fb8b 793d 9ba4 4dbb 2066 993c
000000e0: 5983 80bb 6bd8 1a3b fd9d 133d 4ed7 c23c
000000f0: d755 223c a365 e7ba d87b c93c 1688 823c
00000100: 7628 6d3d a9fa 8b3d 6cdd 3bbc 65b6 3bbc
00000110: 5962 163d 9cff fd3b 652d 353d 38cf 1b3d
00000120: 2a97 513d 400a c03b 211f 4b3d 2138 f93c
00000130: 2c9c 30bc 4a89 213d 7b1b 4f3d afcf 4b3c
00000140: 724b ddba e40c fc3b 80cd 333d cb29 9a3c
00000150: 6c90 383c bc53 b43c 0f92 9b3c bec4 1b3d
00000160: 0e5e 4d3c 9341 d0bb be7e 2f3c 75c1 3b3d
00000170: 2dd9 023d a903 cf3c bb56 593a 792a 413d
00000180: 85a3 633d 587b 093d 32ad 783d a81f 083d
00000190: cef0 303c d5ea 93bc c31b 633d 23fb 67bb
000001a0: 613d 0d3d 4823 a53c fc34 813d f019 a33c
000001b0: 23aa 953c 703d fbbb b514 033d 24d3 eb3c
000001c0: d259 e2bb 4605 563d 4285 4fbc 473d 4e3d
000001d0: 52fe 373d 289b 743d 9ca4 1a3d db87 cc3b
000001e0: 3a3d 2bbc 27be 563d 3799 883d 5f65 8b3d
000001f0: 0636 093d acf7 04bc 9359 143d b341 2bbc
0.039265808 0.0352303 0.014193177 0.011198747 0.044785865 0.02299725 0.05256959 0.034894086
-0.0010589728 0.018775916 0.041409977 0.043176625 0.009659184 0.050338715 0.049084496 0.055742197
0.009247795 -0.0033337036 0.005345692 0.048154864 0.034022573 0.055442397 0.023415742 0.0058255587
0.010317177 0.06306474 -0.0030370273 -0.008595109 0.010829373 0.024833463 -0.03823451 0.036600225
-0.007703764 -0.0006043205 0.0003141843 0.010464599 0.056121156 0.03338715 0.0017218373 -0.006237636
-0.028242713 0.010093074 0.04443765 0.059696656 0.051372517 0.05582315 0.06357945 0.027573945
0.0056833816 -0.00384974 0.030465117 0.049442675 0.043138474 0.06092451 -0.003137863 0.018725455
-0.003921908 0.002362753 0.03603934 0.023784306 0.009908161 -0.0017654191 0.024595186 0.015934031
0.057899915 0.06834919 -0.011466365 -0.01145706 0.036714885 0.0077514183 0.044232745 0.038039416
0.051169552 0.005860597 0.049590234 0.030422272 -0.010779422 0.03943757 0.050563317 0.012439652
-0.0016883446 0.0076919664 0.043897152 0.018818757 0.011264902 0.022012584 0.018990545 0.038029425
0.012534631 -0.0063554733 0.01071137 0.045838792 0.031945396 0.0252703 0.0008290817 0.047159646
0.055575866 0.033564895 0.060712047 0.033233315 0.0107996 -0.018056313 0.055446398 -0.0035397492
0.034482364 0.020158425 0.06308934 0.019909829 0.018269604 -0.007667236 0.03200217 0.028787203
-0.00690768 0.052251123 -0.0126660485 0.050351407 0.044920273 0.05971828 0.03775464 0.006241781
-0.010451609 0.052427437 0.066698484 0.068064444 0.033498786 -0.00811569 0.036218237 -0.010452676

action_model._discrete_distribution.branches.0.weight f4 [5, 128]
00000000: 980f e0bc b146 1cbd 4ca7 00bd 34ac 41bd
00000010: f642 37bd 3db4 dabc f5e4 51bd 8be9 39bd
00000020: aab8 833c b171 1abd 7503 7bbd 0eaa 60bd
00000030: a5d0 a3bc 2ad0 10bd 5fc6 ecbc c141 3bbd
00000040: 3b0c 20bd 5348 75bc 9fcc 4d3c 7a05 34bd
00000050: 0b43 49bd bea6 35bd e7d3 fcbc 2360 3c3c
00000060: aebc 863b dda9 25bd 9114 45bc 9939 bebb
00000070: ad47 15bd 6a3e f8bc e252 6d3d 13f4 55bd
00000080: cdfa 7f3c a021 d1ba c5d1 813c 8494 aebb
00000090: 4395 56bd b534 1ebd 23ff 93bc 2b1a 683a
000000a0: f9c1 6c3d 0ae7 4dbc 91b2 76bd 21c5 37bd
000000b0: 5ed9 7bbd b176 14bd 6cf5 97bd a096 5fbd
000000c0: bb0f bebc 88b2 3dbc fc80 86bd 0cf4 00bd
000000d0: 0f0d 16bd 55b4 1abd 7d37 e2bc f58c 9fbc
000000e0: e7e9 873c f929 00bd 3a8b 02bd 178d 9cbc
000000f0: ce47 24bd 1fd8 a53c bd59 92bc 1419 96bb
00000100: 00d1 32bd b363 8cbd 5163 9fbb aa92 003d
00000110: 1b02 e2bc b367 12bd 0dec 2cbd a7b2 25bd
00000120: fcb2 4fbd 4d12 c5bc dff4 87bd 6582 c1b9
00000130: 5bdd 02bc 3e76 fabc de17 abbd 45d0 b9bc
00000140: d759 67bc 4683 62bc aff3 a8bc 9dcc 1abc
00000150: f2bd bcba d383 0dbd eb77 2cbd 8681 81bd
00000160: ee5f 01bd d94b e33c fe7a 3ebd fa69 5cbd
00000170: 0c77 61bd 9599 89bc b994 823b c197 f2bc
00000180: 94f5 56bd 6487 96bc 203e 93bd acd7 39bd
00000190: 2608 2c3d 9d9a 093d 5f85 a7bd 0432 963b
000001a0: 2645 53bd 455c 44bc abc5 88bd f5e8 57bd
000001b0: e5b4 68bd 3d94 b23b 8ec0 1fbd 56d8 1bbd
000001c0: 42fa bd3c fe1a 83bd 4613 833c 0685 e5bc
000001d0: 1a57 2dbd fc4b f7bc 1ca7 dcbc 4106 bfbb
000001e0: 261c bb3b 2fb4 85bd 7fcf abbd f526 68bd
000001f0: 87cd 78bd 033d e03b 93f3 c1bc 9459 16bc
00000200: e104 8c3c bf25 9bbc 5390 e23c 1112 413c
00000210: 8ea1 8cbc a428 0a3d a805 27bd 2e1f 993d
00000220: 41b6 ec3c a0b6 763d 2d50 02bb f48a 183d
00000230: dddc 4e3d 11f0 07bd 3878 36bd 2db8 06bd
00000240: ef9a ffbc a883 bb3a 9fc8 5d3d af43 ecbc
00000250: c6c1 4e3c e4c4 1bbd e4bc 893d 3b37 b43c
00000260: d8a5 873d ac84 c8bc e909 4f3d ebcd e3bc
00000270: 8ed0 05bc 6beb c7bc 047a a03c 80c6 013d
00000280: d125 713d fdb1 1f3d b2da 163d d62c 553c
00000290: 107c 0ebd 39fa b4bc fc86 4ebd c6ed 2fbd
000002a0: c576 9f3b 228b 553d 19ab 4a3d 6235 efbc
000002b0: 5d22 c53c 28f8 43bd b406 0a3d 6f48 633d
000002c0: 8b54 0cbb 86db 1abd c41a d13c 9e95 07bd
000002d0: 6086 c03c fbf9 6abd 294e af3c 5af8 d9bc
000002e0: 8721 4e3d 9325 98bc 556a 513d 168f abbc
000002f0: 7b1b e3bc f51f a93c 1821 603d 6898 8e3d
00000300: fcac f3bc 74f8 523b 69c5 473d 0645 cf3c
00000310: f3c6 0f3d c9c8 b33b 8d5b 4ebd dd31 553d
00000320: 9b56 2e3b 1175 fbbb 9edc 403d 282a d4bc
00000330: c2d2 583b 51e0 3ebd f5a8 713d fcae 003d
00000340: c59b 613d 3a1e 2dbd 71bc 44bd d197 e0bc
00000350: 2adb 7d3d 56ef 363d cb72 8bbc 51db dd3c
00000360: 2307 08bd 5e57 65bc 42b3 69bc 3190 9e3c
00000370: 9faf 013d 824c 683d a6fb 14bd 29f2 76bd
00000380: 76ee 80bc 9b82 733d 5094 18bc 9134 17bd
00000390: 5cf4 16bd 9209 803d 545d ca3c 3d9e 39bd
000003a0: 4c2f 4c3d 3559 763d 26a0 11bd 76ba 4ebd
000003b0: b79b 8abc 4df8 aebc a312 cdbc 0dea 503d
000003c0: c9e5 1a3d 6788 103d 4de2 1cbd 8c6f 4bbd
000003d0: 8d2e a03b 1e4f 0abd 3aba 8ebc c71a e63c
000003e0: 4d40 533d 8a8f 03bd 2d29 91bc ec6c 0dbd
000003f0: ea58 173d f866 60bc 0145 683d 9268 d5bc
-0.027351186 -0.038153354 -0.031409547 -0.047283366 -0.044741593 -0.026697272 -0.05124374 -0.04538874
0.016079266 -0.03770608 -0.061282594 -0.054849677 -0.01999695 -0.03535477 -0.028903184 -0.045717005
-0.039074164 -0.014970857 0.0125609925 -0.043950535 -0.049136203 -0.04434847 -0.030862762 0.01149753
0.004111848 -0.040445197 -0.012028829 -0.005805206 -0.03644531 -0.030303199 0.05794037 -0.05223472
0.01562376 -0.0015955456 0.015847096 -0.005327763 -0.05238844 -0.038624484 -0.018065995 0.0008853997
0.057802174 -0.012567291 -0.060228888 -0.04486573 -0.061486594 -0.036246005 -0.074198574 -0.054587007
-0.02320086 -0.01157821 -0.065675706 -0.03148274 -0.036633547 -0.037769634 -0.02761435 -0.019476393
0.016591026 -0.03129003 -0.031871058 -0.019110246 -0.04010754 0.020244656 -0.017865056 -0.0045806263
-0.04365635 -0.068549536 -0.0048641344 0.03138987 -0.027588895 -0.035743427 -0.042217303 -0.04045358
-0.050707802 -0.024056578 -0.06638502 -0.0003690898 -0.007987346 -0.03057396 -0.08354162 -0.022682318
-0.014120541 -0.013825243 -0.02062401 -0.009448198 -0.001439987 -0.034549545 -0.04210655 -0.06323533
-0.031585626 0.027746128 -0.046504013 -0.053812005 -0.055045173 -0.016796866 0.0039850143 -0.029613378
-0.052480295 -0.018375106 -0.07189584 -0.045371696 0.04199996 0.033594716 -0.081797354 0.004583599
-0.051579617 -0.011984889 -0.06678327 -0.0527124 -0.05681314 0.0054498003 -0.039001994 -0.03804811
0.023190621 -0.06401633 0.016000401 -0.028017532 -0.042319395 -0.0301876 -0.026935153 -0.005829603
0.0057101427 -0.06528508 -0.08389186 -0.056677777 -0.06074288 0.0068432107 -0.023675716 -0.0091766305
0.01709217 -0.018938897 0.02765671 0.0117840925 -0.017166879 0.033730164 -0.04077688 0.0747665
0.0288955 0.06023276 -0.0019884214 0.03724189 0.0505036 -0.03318793 -0.044548243 -0.032890487
-0.031201808 0.0014306204 0.054146405 -0.028840868 0.012619441 -0.038029566 0.06725481 0.021998992
0.06623429 -0.024477325 0.05054656 -0.02780815 -0.008167399 -0.024404248 0.019589432 0.031683445
0.058873955 0.038988102 0.036829658 0.013011178 -0.034786284 -0.022091972 -0.0504217 -0.042951368
0.0048664534 0.05213464 0.049479578 -0.02920026 0.024064237 -0.047844082 0.0336978 0.055489
-0.0021412696 -0.03780701 0.025525458 -0.03310167 0.023501575 -0.057367306 0.021399574 -0.026607681
0.050324943 -0.018572604 0.051126797 -0.020942252 -0.027723065 0.020645121 0.05471906 0.06962663
-0.029745571 0.0032191547 0.04877225 0.025301468 0.035101842 0.005486582 -0.05038028 0.052049506
0.0026601914 -0.0076738675 0.047085397 -0.025899008 0.0033084606 -0.046600644 0.05899902 0.031416878
0.055080194 -0.042265154 -0.048031274 -0.027416142 0.06197659 0.044661842 -0.017022511 0.027082117
-0.03320993 -0.013997881 -0.01426393 0.019355865 0.031661626 0.05671359 -0.036372803 -0.060289536
-0.015738707 0.059450727 -0.009312704 -0.036915366 -0.036854133 0.062518254 0.024702705 -0.045316923
0.049849793 0.06014367 -0.03555312 -0.05047079 -0.016919954 -0.021358633 -0.0250333 0.05100446
0.037816796 0.035286333 -0.038301755 -0.049666926 0.004888362 -0.03376686 -0.017422784 0.02808894
0.051574994 -0.03211931 -0.01771983 -0.034527704 0.03695003 -0.013696425 0.056706432 -0.02605084

action_model._discrete_distribution.branches.0.bias f4 [5]
00000000: 7924 54bd cd70 c33b 6c86 ba3b 3a00 abbb
00000010: 31ea d73c
-0.051792596 0.0059643746 0.005692294 -0.005218533 0.026356788

exp_avg f4 [128, 6]
00000000: 151b 0638 9f66 14b8 8d19 89b7 c950 38b7
00000010: f635 06b6 d401 d2b7 7842 d037 6059 a138
00000020: 3a47 7d38 47ec 8a38 7b7e 3f38 307b da38
00000030: 75a4 8a38 a07b c2b6 b2cf feb7 6205 58b7
00000040: 91e1 48b7 d97b 0637 b9dd 80b5 77fe f1b7
00000050: 8310 aab5 9ccf d437 84b7 4e38 175b 78b8
00000060: 5f6a 8638 3468 82b7 e7c9 c9b6 2287 d8b8
00000070: 826f d2b8 6a25 a3b7 a348 afb8 9a93 0d37
00000080: e303 9537 9f12 bb34 64e0 5938 c625 7437
00000090: 8316 39b7 1616 4639 8a2e 9b38 fefb 8638
000000a0: e64c b4b6 d5eb 4e39 3083 aab8 5271 a738
000000b0: 0ed1 df37 e052 62b7 40af 5837 e780 ee38
000000c0: ee43 83b6 7f85 2738 1816 5538 ca44 1738
000000d0: b409 0cb8 b604 1338 399a 97b7 5ad2 9137
000000e0: 14d9 0736 2f52 c837 c7e6 6437 0a67 9838
000000f0: 3189 25b8 b6e5 dc38 0fbf 0a39 c364 18b9
00000100: 147c 98b8 e13f 3738 5c6e 3f38 63c7 ed37
00000110: d5bb 5038 b28d 28b9 0b83 69b9 c034 6eb7
00000120: 554e 7538 bdd6 bc37 c23d cfb6 d5fc 22b8
00000130: 82d3 ebb8 7613 8e36 b947 57b6 e4b2 86b8
00000140: 889a 7438 ce8d 2738 0861 4938 2812 e7b8
00000150: cc79 0a38 17d5 c8b7 98a7 7737 339f 8837
00000160: aab7 e536 dcd2 e1b7 956d 8638 c705 b335
00000170: 0a54 6737 d8b1 3bb8 086e d4b8 519c a0b6
00000180: cb90 cd36 6f63 3fb7 3aaf 6eb8 5392 ffb6
00000190: b50f 9e37 763f 1938 4343 8236 560c b4b7
000001a0: c89d 0538 57b9 79b6 1a4d 66b7 f16c aab8
000001b0: e0ed 1237 b9fb 1738 02b4 06b8 36a4 2237
000001c0: c3cd 2338 ae53 d538 8ac9 0738 7d02 7c37
000001d0: 48c3 45b8 a036 83b7 33a7 8cb8 b94a 7d38
000001e0: b179 e2b6 fe64 8a38 e349 6b38 df1a 0439
000001f0: 1b81 1c39 9fea 8638 250c c938 fda1 9538
00000200: be70 7c37 9a4c 4ab9 a0da a1b9 3478 ca38
00000210: 30cd 70b7 5235 84b8 2fe7 2239 ab7a 3a38
00000220: 106a 6a39 1199 47b9 6335 13b7 579a 02b8
00000230: 8492 8138 4db9 8737 9c56 ae37 fcb3 a7b8
00000240: 57f6 28b9 4d77 8b37 0dfd 2838 259b 5737
00000250: 259b ef38 1965 be38 be80 b3b8 ebec 87b6
00000260: 6e2d 2339 19f4 9ab8 5378 f2b7 775a d8b8
00000270: c757 3cb9 1fdc 4b38 078d 1d39 1682 eab8
00000280: 78ad 38b8 813d e537 d0e2 8238 80aa 8a38
00000290: 912a 3ab8 78e1 1fb8 0c40 f4b8 a545 b938
000002a0: 1eac c9b6 299f 64b8 34ef 88b8 c1fe 6c37
000002b0: ff5b 41b8 b02a 63b8 ca4e 8538 c1f5 1939
000002c0: 49bc c638 962d 0137 c6c1 19b9 8446 f738
000002d0: 60f8 bab8 6590 c538 6214 5f38 b2a9 98b8
000002e0: de02 1938 7cb2 8538 825a b8b8 c5ff ffb7
000002f0: 1bab 0d38 256f f3b5 39e7 9938 2b77 93b8
00000300: 08c6 8d38 1368 2637 3433 25b7 1108 13b8
00000310: e651 75b8 750a c135 e7eb 11b9 30cb 7538
00000320: fa31 1d39 828e 11b9 93f1 d9b6 f2be 8d37
00000330: 8542 6fb8 d230 39b8 e5f8 eeb7 fd5a 8f37
00000340: 9244 a138 5a07 0fb8 7306 28b7 32be 6938
00000350: 73f5 a638 38b7 c338 339f 9038 2604 6338
00000360: 0753 3838 31ef f6b6 2b4d 0d39 c4d0 02b9
00000370: 55e4 34b9 f57d 0eb9 c54d 8038 4f3c 73b8
00000380: 6dac 4636 83fc 6ab8 08f8 54b8 8948 a0b8
00000390: 487f 9337 f631 abb6 2c48 6ab8 7d9b e2b6
000003a0: 8f79 deb7 f858 dd37 b09b 8ab8 6bb6 af38
000003b0: 6d76 f8b7 8315 50b6 568d dc38 5b93 2139
000003c0: d0dc 04b8 2900 0d38 00d4 6738 1d14 9038
000003d0: dd5e b838 fa5f 4538 fc51 a737 28a7 8e39
000003e0: bece 7938 340a 34b9 15fb e7b8 c269 9439
000003f0: 3ad8 a738 c726 0db8 6c66 fbb6 c6bc 80b8
3.197331e-05 -3.5381523e-05 -1.634357e-05 -1.0986064e-05 -1.9998965e-06 -2.5034802e-05 2.4826484e-05 7.693726e-05
6.0386235e-05 6.624363e-05 4.5655743e-05 0.000104179955 6.610985e-05 -5.7960424e-06 -3.0375875e-05 -1.2875857e-05
-1.1973448e-05 8.015858e-06 -9.601273e-07 -2.8847933e-05 -1.2670793e-06 2.5369045e-05 4.928514e-05 -5.921264e-05
6.409431e-05 -1.5545731e-05 -6.0137713e-06 -0.00010324853 -0.0001003435 -1.9448536e-05 -8.35818e-05 8.438621e-06
1.7763994e-05 3.4845013e-07 5.194581e-05 1.4552328e-05 -1.1032101e-05 0.00018890979 7.3996445e-05 6.436555e-05
-5.37337e-06 0.00019733545 -8.130667e-05 7.984288e-05 2.668102e-05 -1.3489946e-05 1.2915407e-05 0.00011372734
-3.9120123e-06 3.994023e-05 5.0803734e-05 3.606527e-05 -3.3387638e-05 3.505192e-05 -1.8072418e-05 1.73833e-05
2.0242924e-06 2.3880128e-05 1.3643591e-05 7.267117e-05 -3.9466835e-05 0.000105332045 0.0001323188 -0.00014533386
-7.271036e-05 4.3690092e-05 4.564073e-05 2.8345448e-05 4.9765997e-05 -0.00016074514 -0.00022269429 -1.4198187e-05
5.8485504e-05 2.2511342e-05 -6.1762703e-06 -3.8859278e-05 -0.000112450696 4.2341953e-06 -3.2079245e-06 -6.422939e-05
5.831805e-05 3.994797e-05 4.80125e-05 -0.0001101832 3.3015196e-05 -2.3941086e-05 1.4761368e-05 1.6286596e-05
6.846113e-06 -2.692028e-05 6.410029e-05 1.3338221e-06 1.378824e-05 -4.4749904e-05 -0.00010129443 -4.786569e-06
6.126332e-06 -1.1407638e-05 -5.6906814e-05 -7.6166266e-06 1.8842382e-05 3.6537145e-05 3.882132e-06 -2.1463416e-05
3.1856616e-05 -3.7211773e-06 -1.372702e-05 -8.1265236e-05 8.757663e-06 3.623564e-05 -3.2115735e-05 9.694186e-06
3.905386e-05 0.00010172218 3.2374206e-05 1.502095e-05 -4.715033e-05 -1.5641854e-05 -6.7068635e-05 6.038949e-05
-6.7494916e-06 6.599164e-05 5.609718e-05 0.00012598511 0.00014925415 6.4333195e-05 9.586689e-05 7.135046e-05
1.504662e-05 -0.00019292757 -0.000308712 9.6545e-05 -1.4352889e-05 -6.304182e-05 0.00015535647 4.44601e-05
0.0002235549 -0.0001903514 -8.774313e-06 -3.1138155e-05 6.17849e-05 1.6179541e-05 2.0782747e-05 -7.996705e-05
-0.00016113497 1.6625645e-05 4.0289993e-05 1.2851121e-05 0.00011425306 9.078737e-05 -8.559365e-05 -4.0508944e-06
0.00015561815 -7.388759e-05 -2.8904678e-05 -0.00010316533 -0.00017961777 4.8603975e-05 0.00015025224 -0.0001118222
-4.4030574e-05 2.7327567e-05 6.24113e-05 6.612111e-05 -4.43855e-05 -3.811854e-05 -0.00011646756 8.83446e-05
-6.010304e-06 -5.4507665e-05 -6.5295404e-05 1.4126011e-05 -4.6100464e-05 -5.4160773e-05 6.35661e-05 0.00014682768
9.4764466e-05 7.699613e-06 -0.00014663403 0.000117910124 -8.9154346e-05 9.4205876e-05 5.3186326e-05 -7.279533e-05
3.6480713e-05 6.3751795e-05 -8.790662e-05 -3.051747e-05 3.3776374e-05 -1.8137258e-06 7.338677e-05 -7.031703e-05
6.76029e-05 9.918603e-06 -9.846688e-06 -3.5055044e-05 -5.8488826e-05 1.4382664e-06 -0.00013916158 5.8601785e-05
0.00014991304 -0.00013881366 -6.495227e-06 1.6897426e-05 -5.704399e-05 -4.4152905e-05 -2.8487711e-05 1.7089298e-05
7.6898505e-05 -3.4100703e-05 -1.0015082e-05 5.5728662e-05 7.961215e-05 9.332452e-05 6.896108e-05 5.412488e-05
4.3946344e-05 -7.359217e-06 0.00013475555 -0.00012475537 -0.00017251198 -0.00013589098 6.118001e-05 -5.799188e-05
2.9604664e-06 -5.6025117e-05 -5.0775736e-05 -7.642905e-05 1.7583036e-05 -5.1020133e-06 -5.5857163e-05 -6.753426e-06
-2.6521067e-05 2.6386682e-05 -6.609352e-05 8.378628e-05 -2.961905e-05 -3.1006937e-06 0.00010516743 0.0001540905
-3.16769e-05 3.361717e-05 5.5272132e-05 6.8702015e-05 8.7914734e-05 4.7057845e-05 1.9946128e-05 0.00027208892
5.955877e-05 -0.00017169939 -0.00011061706 0.00028307555 8.003456e-05 -3.3653134e-05 -7.4923064e-06 -6.1386774e-05

exp_avg_sq f4 [128, 6]
00000000: a955 9f31 eb73 9032 f990 4e31 7944 5e32
00000010: 46da 1433 9880 f132 4c86 b833 d17e 3833
00000020: b6b0 8733 4006 dd33 3275 5b34 e433 8634
00000030: 2f3c 7733 8740 e333 5939 0532 7c60 a230
00000040: 7af5 2334 7dcf 1734 2185 0c33 7bbb 3532
00000050: 061b 9632 a67a cd32 919f 6533 9a44 7133
00000060: 32cc d032 2f9f d733 b31a 9533 f884 3434
00000070: 72a0 8034 b07a 3634 8fa2 7033 804e 3133
00000080: 0a83 0f32 1e62 c532 96c9 e033 7483 b933
00000090: d914 a133 6a4a ca33 7fed 1b34 5ed9 ff33
000000a0: f940 8034 e4f7 7934 5489 3234 527a 9334
000000b0: be45 e533 7898 8334 d9b5 0c35 5748 a534
000000c0: e51f 7633 d413 eb33 7c0b f633 fe8d 1a34
000000d0: 9420 ad34 42f7 8e34 7f84 9533 4f75 db33
000000e0: 78bc 9a34 4b51 ac33 b037 d234 e2bf aa34
000000f0: 5385 e633 0d45 4934 c2b9 2c34 533a 5034
00000100: 4669 d034 f0c5 b334 f265 3433 246c dc32
00000110: 45ca d633 a2cf c333 0662 3134 95d6 0334
00000120: 84f2 6233 68b6 2332 381c 0b33 1fc0 1432
00000130: ba69 ac33 66d4 a733 7662 b533 0e2f 5a33
00000140: b5f1 3234 fd80 4034 7049 c834 c0fb 8e34
00000150: cedd 3b32 8297 0631 6407 7a31 fe28 0a33
00000160: b614 6433 3764 2733 11aa 2a32 3af1 2832
00000170: 90b2 b131 9194 2533 4a99 9833 5d83 a733
00000180: 2000 4b32 a326 4832 1b86 d932 2410 3130
00000190: 7316 6133 7994 5e33 5b7a 9b33 f5ea 0532
000001a0: dc93 4333 912b 8f33 fb7b 2334 aeb7 1234
000001b0: 913b ee33 7da5 0a34 19d4 a132 fb8d 1033
000001c0: ba74 9134 e716 8a34 3428 3533 17f0 0a32
000001d0: 0ddd 9f32 bda9 1532 04bf ba33 9772 b033
000001e0: 99ca 7833 1837 4a33 004e e433 ce03 8934
000001f0: f7da 9134 3427 6c34 0c74 ad33 01a7 ed33
00000200: 197d 7a34 2c52 9734 5427 0635 7358 1535
00000210: 660e 1833 1bbe b433 697d 6b34 040b 1933
00000220: 7b63 ac34 9d60 b434 9f6a 3a33 fa0d 0b33
00000230: b92d fe32 bf4f 2033 6917 fb33 991c dc33
00000240: d7e9 b534 0e30 0e34 0e0f a634 f43c 4f34
00000250: ae00 2d35 2802 0535 f7f2 1a33 63bd 1633
00000260: 3e29 cc33 34fb 4a33 83f8 3a34 25ca 1034
00000270: 35e2 2534 fcb2 1334 d448 c633 e516 3734
00000280: f83d fc34 bcbc 5f34 6aaa a533 b1be 9a33
00000290: 5648 3a33 153f b732 b3ce 3934 e70e 2a34
000002a0: 9a9a 4633 5573 f233 2d48 2033 c1f1 b433
000002b0: 2944 2f34 4e0a d633 81a7 5333 b30e 8a33
000002c0: 2c4f 5a33 7fca b132 c3c0 db33 3aa3 f333
000002d0: 4e8c 6b33 7507 ee33 99e3 4d33 e468 1e34
000002e0: 7e15 5434 523c bf33 73c4 bc33 e785 9b33
000002f0: b8c6 3633 0a59 f832 4db5 4234 176a 3534
00000300: b5d2 e832 53b7 8333 0a22 0f32 d94f 1333
00000310: eb2d ea33 7070 bc33 653a 4534 4bd2 bb33
00000320: e37f ab33 286e 0534 4af5 8934 c62e 2f34
00000330: 4fb6 9833 9ffc 8733 9096 9833 6822 da32
00000340: 2d18 3a34 6618 3234 8dcd 5e33 a96d bb33
00000350: 05d7 a034 39f3 9a34 56a3 0935 d937 b734
00000360: 43e7 2232 10cb 2733 ff03 b534 2c11 a933
00000370: 4912 c534 3db9 ec34 bb61 6d32 aea3 a833
00000380: 88cd 2a33 ec42 dc33 020d 2934 bcbf fd33
00000390: 7700 f232 eb40 2032 5eb9 9c31 972d af30
000003a0: f8b8 9b33 6288 8a33 6b25 8833 3f69 2c33
000003b0: c78c e632 1758 b033 4b3a 0934 3f87 0134
000003c0: 8286 2333 75a9 9133 20b8 2e34 4e94 8c34
000003d0: 292f c534 8f27 8434 fb5c f334 71ae 0335
000003e0: f34a be34 1b7c e534 ad87 4f35 bd4b 4135
000003f0: b4f1 2c33 27cb a533 b972 1d33 9207 d533
4.6372475e-09 1.681652e-08 3.0059353e-09 1.293767e-08 3.4657454e-08 2.811457e-08 8.592596e-08 4.2956177e-08
6.318571e-08 1.0292251e-07 2.04386e-07 2.49972e-07 5.7563906e-08 1.0582249e-07 7.754658e-09 1.1814474e-09
1.5269862e-07 1.4138455e-07 3.271737e-08 1.0578215e-08 1.7474587e-08 2.3920915e-08 5.3463342e-08 5.6174578e-08
2.4307244e-08 1.0040673e-07 6.94321e-08 1.681218e-07 2.3958597e-07 1.6994704e-07 5.60272e-08 4.128242e-08
8.35349e-09 2.2978437e-08 1.0467481e-07 8.638645e-08 7.500939e-08 9.419894e-08 1.45219e-07 1.1913902e-07
2.3889132e-07 2.3280114e-07 1.6627502e-07 2.7469883e-07 1.06763295e-07 2.4511587e-07 5.241869e-07 3.078628e-07
5.7305346e-08 1.0946647e-07 1.1457357e-07 1.4394024e-07 3.2247465e-07 2.6629465e-07 6.962454e-08 1.02193205e-07
2.8821864e-07 8.024161e-08 3.9156066e-07 3.180458e-07 1.0734461e-07 1.8744704e-07 1.6086327e-07 1.9392728e-07
3.8819616e-07 3.3485367e-07 4.2002235e-08 2.5660547e-08 1.0001944e-07 9.118163e-08 1.652007e-07 1.227839e-07
5.2840292e-08 9.529323e-09 3.2389124e-08 8.658417e-09 8.028606e-08 7.8151785e-08 8.446379e-08 5.0799876e-08
1.6665474e-07 1.7928319e-07 3.7306336e-07 2.6632733e-07 1.0935265e-08 1.9585689e-09 3.638399e-09 3.216791e-08
5.3104223e-08 3.8973862e-08 9.933971e-09 9.833736e-09 5.171678e-09 3.8552177e-08 7.105935e-08 7.800438e-08
1.1816184e-08 1.1650317e-08 2.5323109e-08 6.441516e-10 5.2407312e-08 5.1823438e-08 7.240006e-08 7.795042e-09
4.5536453e-08 6.666881e-08 1.5225662e-07 1.3664132e-07 1.1093574e-07 1.2912456e-07 1.8839318e-08 3.3656743e-08
2.7093284e-07 2.5721167e-07 4.217891e-08 8.087247e-09 1.8610558e-08 8.7115355e-09 8.6960455e-08 8.2164824e-08
5.792626e-08 4.7081897e-08 1.06312655e-07 2.5521007e-07 2.7167673e-07 2.1993475e-07 8.077049e-08 1.106655e-07
2.3328575e-07 2.818573e-07 4.997612e-07 5.5635536e-07 3.5403353e-08 8.416483e-08 2.1931704e-07 3.5633107e-08
3.2109878e-07 3.3597908e-07 4.340347e-08 3.237617e-08 2.9590284e-08 3.732543e-08 1.16923566e-07 1.024975e-07
3.3884018e-07 1.3242263e-07 3.0930863e-07 1.9300552e-07 6.444851e-07 4.95495e-07 3.6076894e-08 3.5096843e-08
9.506992e-08 4.7260258e-08 1.7413008e-07 1.3484585e-07 1.5449116e-07 1.3755556e-07 9.233341e-08 1.7051532e-07
4.6983746e-07 2.0837155e-07 7.7144094e-08 7.2058704e-08 4.337229e-08 2.133269e-08 1.7304664e-07 1.5837905e-07
4.6241077e-08 1.1289982e-07 3.7318546e-08 8.425878e-08 1.6322942e-07 9.967026e-08 4.927961e-08 6.4287995e-08
5.0829087e-08 2.0697597e-08 1.0233045e-07 1.134526e-07 5.4842808e-08 1.1084095e-07 4.793728e-08 1.4753056e-07
1.9751857e-07 8.905103e-08 8.790166e-08 7.242107e-08 4.255591e-08 2.891149e-08 1.8133615e-07 1.6895534e-07
2.7104173e-08 6.133509e-08 8.331435e-09 3.4298726e-08 1.09048266e-07 8.7748845e-08 1.8368299e-07 8.746118e-08
7.9860705e-08 1.2426665e-07 2.569671e-07 1.6315161e-07 7.111213e-08 6.332379e-08 7.105439e-08 2.5394186e-08
1.7331395e-07 1.6586418e-07 5.187535e-08 8.727813e-08 2.995877e-07 2.8861703e-07 5.127416e-07 3.412704e-07
9.482224e-09 3.90674e-08 3.3716785e-07 7.872799e-08 3.6707414e-07 4.4093204e-07 1.3817437e-08 7.852883e-08
3.976814e-08 1.0256721e-07 1.5744084e-07 1.1816107e-07 2.817272e-08 9.327986e-09 4.5612714e-09 1.2745883e-09
7.2513956e-08 6.450934e-08 6.3398e-08 4.014259e-08 2.6839542e-08 8.211662e-08 1.2780326e-07 1.2063263e-07
3.807373e-08 6.782913e-08 1.6271997e-07 2.6184938e-07 3.6728423e-07 2.46157e-07 4.532993e-07 4.905515e-07
3.544479e-07 4.2744873e-07 7.7310943e-07 7.2008316e-07 4.02667e-08 7.7203644e-08 3.665875e-08 9.9199625e-08

exp_avg f4 [128]
00000000: 8f2f 36b8 045c 2939 48c3 6d38 e550 14b8
00000010: 1f95 6cb8 b5a0 62b8 f8a9 4f39 c12c 2b38
00000020: 3953 c638 784e ce37 be04 2238 7201 1336
00000030: 97b0 6737 9e72 3fb8 ed97 1b38 648f abb7
00000040: 328d 09b8 35aa 3fb8 bbfd d438 781f d737
00000050: c7ab 2839 e880 2db6 3db5 df37 abac acb7
00000060: 2505 cbb7 9c01 d536 161c 8a37 5b57 fe37
00000070: e330 77b8 a7db 4539 428e cc37 27c7 58b8
00000080: 3458 be35 8513 9fb7 ae08 a1b8 4aee 1739
00000090: 56be 4f38 9038 81b8 50f9 fe37 ed2e ef37
000000a0: f372 bc38 42ee 0939 e48b 1fb8 b093 f937
000000b0: 85e8 3638 a5b8 e338 6d9a 4635 fee9 a638
000000c0: d43b 7938 eb2f edb8 04b0 0939 ab80 4d35
000000d0: 01cd 8939 9654 c8b8 78ce 4cb9 aa8e 0ab8
000000e0: 96ba 10b7 67c9 f5b8 2e5f a7b6 2a7d fdb8
000000f0: 4afb bcb7 f247 5139 8627 cc38 2bbc 11b9
00000100: 5068 0e38 5423 f8b6 0398 b4b8 df6b 30b9
00000110: 6ecb 0539 a3ac 31b8 8669 80b7 d7d7 e9b8
00000120: 4d83 4039 2340 0a39 dc29 acb6 f4ec cf38
00000130: fb82 dd38 4789 ad39 87ad d4b8 e397 3638
00000140: a991 45b9 dc44 f537 8679 e9b8 ece9 9438
00000150: 8aad 1038 696d bfb8 da8c 8a39 6348 5d37
00000160: 5e90 8037 2b88 b038 8c6d 8839 8f5d 6fb8
00000170: 946a fd37 44a0 d738 a5be 9336 9607 c4b8
00000180: b849 ddb8 f756 f4b7 b12f 8cb8 7c66 0a39
00000190: 1daa 4839 12fb 9ab6 b376 9938 38b1 7bb7
000001a0: 8566 6039 f99b b638 6970 6fb8 bb6b efb7
000001b0: 3f35 3838 24db 9338 4644 6039 4aae 9239
000001c0: 563e 5339 c602 8137 b4b1 1339 1606 2539
000001d0: 7bb1 9336 465b 0d37 c542 54b9 77eb 4539
000001e0: a64b 9c38 2362 e838 d772 3bb8 35e9 dc38
000001f0: a174 9db7 8df0 9db7 659f d938 e290 23b8
-4.3436474e-05 0.00016151374 5.6687073e-05 -3.536129e-05 -5.6405665e-05 -5.403227e-05 0.00019804377 4.0811257e-05
9.456877e-05 2.4593654e-05 3.8628226e-05 2.1905548e-06 1.38097885e-05 -4.5644694e-05 3.709637e-05 -2.045156e-05
-3.2794844e-05 -4.5696466e-05 0.00010156209 2.5644651e-05 0.0001608572 -2.5854042e-06 2.6668067e-05 -2.0584403e-05
-2.4201881e-05 6.348082e-06 1.646396e-05 3.0319838e-05 -5.893492e-05 0.00018869211 2.4384939e-05 -5.1683888e-05
1.4181774e-06 -1.8963367e-05 -7.678695e-05 0.00014489252 4.952991e-05 -6.161735e-05 3.0395255e-05 2.8512872e-05
8.9859495e-05 0.00013154096 -3.8038837e-05 2.9751885e-05 4.3608732e-05 0.00010858596 7.3985467e-07 7.959081e-05
5.9421945e-05 -0.00011309966 0.00013130909 7.655569e-07 0.00026283416 -9.5524985e-05 -0.00019531872 -3.303463e-05
-8.626512e-06 -0.000117200245 -4.988068e-06 -0.00012087294 -2.2528362e-05 0.00019958595 9.73484e-05 -0.00013898376
3.3952587e-05 -7.3950887e-06 -8.611383e-05 -0.00016824853 0.00012759652 -4.236087e-05 -1.5307927e-05 -0.00011150509
0.0001835946 0.00013184598 -5.1308725e-06 9.914665e-05 0.00010562498 0.0003309941 -0.0001014127 4.3533637e-05
-0.00018841647 2.9238341e-05 -0.00011132941 7.100761e-05 3.4493896e-05 -9.127969e-05 0.00026426354 1.318948e-05
1.5326015e-05 8.417697e-05 0.0002602156 -5.7069174e-05 3.020958e-05 0.00010281851 4.4031353e-06 -9.347421e-05
-0.000105518324 -2.9127563e-05 -6.6846034e-05 0.00013198884 0.00019136858 -4.618786e-06 7.317718e-05 -1.5002028e-05
0.00021400496 8.7074885e-05 -5.708673e-05 -2.8541186e-05 4.3918608e-05 7.050324e-05 0.00021387739 0.00027977146
0.0002014575 1.537929e-05 0.00014085212 0.00015737893 4.401603e-06 8.425506e-06 -0.00020242769 0.00018875102
7.45275e-05 0.000110809015 -4.4691227e-05 0.00010533856 -1.8770168e-05 -1.8827874e-05 0.00010377056 -3.899716e-05

exp_avg_sq f4 [128]
00000000: f649 6833 a7c3 bb34 edf5 7734 bed1 c333
00000010: a56b b034 684d 1b34 0569 c134 1e49 3335
00000020: 7895 f534 5bb6 2035 262f 2435 1189 8234
00000030: c4a9 1734 356b 0935 bd51 9e33 416d 0034
00000040: 0c6b c333 4bcd 7134 0a86 e534 6a8a 1734
00000050: f596 cd34 56f6 6d35 a569 0935 ba90 3934
00000060: 534d 7c35 263b 8534 102b 0e35 1452 9a34
00000070: 23e9 6b34 2277 3134 83c9 7434 3ada 9734
00000080: 0cca 2f34 b2fa ba34 900f 9c34 1e3e 3535
00000090: 27fc 2935 4d99 6d34 5c0d e933 1f13 5434
000000a0: b57d 0235 1259 ad35 b8c5 8834 50cb bc34
000000b0: f9fa 2435 cc6c a634 5d65 0435 090e 4535
000000c0: fd8c 7e35 7e27 8434 7609 1235 52f9 7834
000000d0: f720 3335 10df e234 9be7 4b35 8f71 1135
000000e0: 340e 9134 5907 8e34 5579 c534 fa51 8234
000000f0: 9d3f aa34 d1e5 1335 ce28 9034 d639 2635
00000100: 05d9 f734 1b3c 9834 f6b6 9b34 aaa3 0835
00000110: 9e5a 5734 aacc 0f35 a64d 2235 75d4 0a34
00000120: 6781 0835 fcf4 9d34 8c45 8235 507c b234
00000130: 0d00 ce34 9cb7 7835 fb0a c934 84a9 4734
00000140: 506d a635 bea8 8935 bf94 e234 f5c6 c935
00000150: 9124 8e34 6257 6334 2b54 1d35 6a91 0235
00000160: 1f6c 8733 cd28 8634 4b3f 5835 c70b 4435
00000170: 603f d134 a22e cd34 4fb1 7934 8bcb c534
00000180: 509d 5734 6ac0 9634 5b8d 6c34 cc6f 8635
00000190: a370 c334 d5e2 a734 ad92 af33 b01f 8534
000001a0: a7b1 1035 e17a df33 331c 5834 2c80 1e35
000001b0: 524d a135 6dfa 0e35 3785 3435 e116 8f35
000001c0: b59c 0535 656d 2835 a0a6 6234 f762 0c35
000001d0: 7e21 6134 d815 1235 616d c934 62c6 7d35
000001e0: f92b c434 385f de34 d174 8335 0eef 8335
000001f0: 0ad1 5134 ed6f 3534 7408 2835 4102 0334
5.4083976e-08 3.497382e-07 2.3093135e-07 9.118547e-08 3.2860876e-07 1.446366e-07 3.6025463e-07 6.6789096e-07
4.574356e-07 5.9870007e-07 6.116337e-07 2.4314116e-07 1.4124731e-07 5.1192484e-07 7.3723164e-08 1.1960675e-07
9.099867e-08 2.2519559e-07 4.27521e-07 1.4113326e-07 3.829406e-07 8.8647846e-07 5.119021e-07 1.7282119e-07
9.3989837e-07 2.4816217e-07 5.2961786e-07 2.8744455e-07 2.1970895e-07 1.652775e-07 2.279758e-07 2.8284722e-07
1.6371649e-07 3.4827605e-07 2.9068588e-07 6.7518147e-07 6.3324336e-07 2.2128116e-07 1.0852338e-07 1.9750995e-07
4.86117e-07 1.2915427e-06 2.5475833e-07 3.5165658e-07 6.1459974e-07 3.099907e-07 4.9321335e-07 7.340864e-07
9.482754e-07 2.461565e-07 5.4403006e-07 2.3187502e-07 6.6730667e-07 4.225808e-07 7.5960423e-07 5.418196e-07
2.701869e-07 2.6454907e-07 3.678239e-07 2.4274033e-07 3.1711252e-07 5.5096194e-07 2.685178e-07 6.192398e-07
4.6165238e-07 2.835594e-07 2.900412e-07 5.090211e-07 2.0056402e-07 5.3569477e-07 6.0462696e-07 1.2929543e-07
5.0852253e-07 2.9421778e-07 9.705996e-07 3.3245533e-07 3.8370527e-07 9.2654386e-07 3.7447157e-07 1.8594989e-07
1.2399778e-06 1.0256406e-06 4.2204007e-07 1.5033571e-06 2.6476167e-07 2.1172812e-07 5.860954e-07 4.864038e-07
6.3060945e-08 2.4989131e-07 8.0558374e-07 7.303283e-07 3.8975395e-07 3.8218155e-07 2.3254437e-07 3.6842206e-07
2.0080665e-07 2.8079677e-07 2.2030638e-07 1.0016315e-06 3.6403534e-07 3.1271216e-07 8.175753e-08 2.4796236e-07
5.39027e-07 1.0406598e-07 2.0126826e-07 5.90461e-07 1.2017938e-06 5.326354e-07 6.724908e-07 1.0660989e-06
4.97744e-07 6.2744067e-07 2.1108508e-07 5.2298077e-07 2.0966942e-07 5.4421025e-07 3.751875e-07 9.453853e-07
3.653984e-07 4.1420003e-07 9.794259e-07 9.829835e-07 1.954069e-07 1.6897657e-07 6.259718e-07 1.2201146e-07
