Scenes/ImprovedGridWorld2D/results/test-run/DroneGrid2D/DroneGrid2D-600979.pt (torch, 446685 bytes, 33 tensors)

network_body._body_endoder.seq_layers.0.weight f4 [128, 6]
00000000: 7649 bebe 7013 a93e 7fd3 3fbf 973a dabd
00000010: 8e95 9b3d 7e83 3abe 4d4a 6b3e 499f 62be
00000020: a1eb 30be 834a 16be ccfa 883e a8bb 103f
00000030: f4e3 37be be08 3e3e 39fd 07bf 7e9f 93bf
00000040: 126d 943e 4e70 383e 98bd c7bc e860 c5be
00000050: 234a a33d 4f86 c43e 1ef4 5ebe 415d 0abe
00000060: 326f 0d3e 4dd4 773e abf5 adbe c923 f23e
00000070: 1ea6 db3d 5034 25bf 0e7a d63e bbad 8abe
00000080: 43cb bd3d d383 06bf fc3c 1fbf 2be5 1a3e
00000090: c263 b63b 0d7b 923e 2469 9e3e 06f5 693d
000000a0: 4520 bc3d a6b1 533e 3715 e93e f6f0 d53e
000000b0: 6fe8 97be 923a 213e ee65 ccbe 3f35 623f
000000c0: 5472 c4be c894 c53d e776 69be 646c 88bd
000000d0: e103 133b d06e 223f b7f7 24bf 777a 4fbd
000000e0: b663 a13e 0482 00bf adb9 58be b0af 0c3f
000000f0: 87c3 e23e 0a71 ae3e b990 323d 1197 123d
00000100: cc12 7f3d 65df 21bf 8b3c 863d 83a8 0cbf
00000110: 8cda c13e 8ef6 163f 5edd f3bc 3c9e 90be
00000120: 3932 e23e e668 b1be d2bc 2dbe 4e9d 16bf
00000130: 078f e63e 80e8 d1be 09c7 a2bd 2781 adbe
00000140: 9b99 bfbd 9b0b 413e 661b 3dbf d1a6 c0be
00000150: 22db d1be 7bd1 66bf 3864 2bbf 226a 953e
00000160: 7daa 263e e554 023c eb12 c7bc b229 1bbf
00000170: 85bf 88bf 25f6 073e dd3a 3f3e 72fb 0bbf
00000180: 0984 b9be 9dcb babe 7b98 2dbe 62cf 9ebf
00000190: ade6 853c 1fe0 813e c936 a83e ff9c 20bf
000001a0: 605a 86be 4034 d3bd c026 e3bd dbdb 57be
000001b0: 6df3 a4bc 403a 803c 1808 5ebf d53f afbd
000001c0: d09b 1b3f 721e 003e 86e7 24bc d272 22bf
000001d0: 3aa5 72be 358c 88be 1203 c73e 82db 50bd
000001e0: b1d1 233d 752e 6cbe 48d2 2dbe d67a 593f
000001f0: f641 c93d 1cb4 453e c588 54be ed55 84be
00000200: 0599 a33e 42e7 f43e 6c90 f73e 5416 75bf
00000210: ae94 b5be 5a64 3bbe 6dc6 1f3d 6a6b 42bf
00000220: 0a3c d6be 163e 46bf ac87 ca3e 9663 e4bd
00000230: dbe9 f9be 197b 96be 712e d7be 8f80 a0be
00000240: 760f 563e bcd3 25bf 07fe 403f cdcd b33d
00000250: 7953 12bf 2e7e c53e 49ab 77bc 4de0 b1be
00000260: b788 783e 029d 8cbe 23bc 7cbe 8855 85be
00000270: f5e9 89bb 49e3 b4be df7a 3f3f f6a4 4f3e
00000280: 6941 3ebf 570c 053e b9a7 053e 7492 6b3e
00000290: c0f2 58be c04d 18bf bb9d 203f fdae c9be
000002a0: d47a 9c3e 31b7 d03e 5a79 bdbe 6405 363c
000002b0: 0ff5 48be ec89 873e d450 5bbd 73e8 dd3e
000002c0: 4a90 0e3f a9c6 e2be b48f 763e 73b4 a33c
000002d0: e13f ce3d c4e5 a93e 399d 663e 9314 633f
000002e0: 3767 3abe b8c1 d5bd 74b8 803d d5a4 46be
000002f0: 2ee0 5a3e 6e23 d2be dce7 e4be 98a2 e3bd
00000300: fad5 2a3d c92f d23e c815 30bf 5aae 7dbe
00000310: c491 ab3e 3780 b7be 8bb1 433f 5fe2 f5bd
00000320: ca78 933e c048 9f3d 5654 1ebe 1566 f6bd
00000330: a14f 85be 72fc a2be 2cfa 71bb cf3a 7abe
00000340: a77a b5be 3440 5a3c 2650 3dbf e3a9 c5be
00000350: 6d05 8a3e 11f1 8b3e fc18 00be fa4e 0f3f
00000360: 034c 47bf 3f07 31bf 2775 583f 1b95 1dbf
00000370: 3bb7 6f3d 702c 2ebf 8db9 96bd 2353 8f3e
00000380: 0e00 c4be 7373 903e 7ba2 e8bd c362 c1be
00000390: bb22 283d dc4a 0cbf e753 59bf 122a 28bf
000003a0: d7e9 d73e 94e8 c6bd f095 da3d 611a 74be
000003b0: 0841 d5be 9a3b 603f 3801 8e3e 22cb 003d
000003c0: 9504 0abf 04c6 84be f341 8eba a0a3 5d3f
000003d0: 2620 24be b689 c83d a918 283f fe24 0e3f
000003e0: adc9 793e 898e 0d3f 01f3 fb3e fb21 a6be
000003f0: d133 063e 1ebe 7c3d 1f39 c1be 597f 303e
-0.3716542 0.33022642 -0.7493209 -0.106557064 0.07596885 -0.18214223 0.22977562 -0.22131075
-0.17277385 -0.14676861 0.26753843 0.5653634 -0.17958051 0.18558022 -0.5312076 -1.1533048
0.28989464 0.18011591 -0.024382398 -0.38550496 0.07973125 0.3838372 -0.21772811 -0.13512136
0.13811949 0.2420208 -0.33976492 0.47292927 0.10725044 -0.6453295 0.41889995 -0.2708567
0.09267285 -0.525449 -0.6220243 0.15126483 0.0055660913 0.28609505 0.3093959 0.05711844
0.091858424 0.20673236 0.45523998 0.417854 -0.2966952 0.15744999 -0.39921516 0.883625
-0.38368475 0.096475184 -0.22799264 -0.06661299 0.0022432732 0.63450336 -0.6444048 -0.0506539
0.31521386 -0.5019839 -0.2116458 0.5495558 0.442898 0.34070617 0.04359505 0.0357886
0.062273785 -0.632315 0.065545164 -0.5494463 0.3786205 0.5896996 -0.029768642 -0.28245723
0.44178942 -0.34650344 -0.1696656 -0.5883378 0.45030996 -0.40997696 -0.07948119 -0.33887598
-0.0935547 0.18852083 -0.7386993 -0.3762727 -0.40987498 -0.9016339 -0.66949797 0.29182535
0.16275974 0.007954811 -0.024301013 -0.60610497 -1.0683447 0.1327749 0.18674798 -0.5468055
-0.36233547 -0.3648347 -0.16952698 -1.2407038 0.016345346 0.25366303 0.32854298 -0.6273956
-0.26240826 -0.103127 -0.11091375 -0.21079962 -0.020135606 0.015652776 -0.867311 -0.08557097
0.60784626 0.12511614 -0.010064965 -0.6345645 -0.23695841 -0.2666947 0.3886953 -0.05099059
0.0399949 -0.23064597 -0.16974747 0.8495306 0.09827034 0.19306988 -0.20755298 -0.25846806
0.31952682 0.47832686 0.48352373 -0.95737195 -0.35464996 -0.183 0.039007593 -0.7594515
-0.4184268 -0.77438486 0.39556634 -0.11151807 -0.4881123 -0.2939079 -0.4202762 -0.31348082
0.20904335 -0.64776206 0.75387615 0.08779488 -0.5715862 0.3857283 -0.015116521 -0.3474144
0.24270903 -0.27463537 -0.24681143 -0.26041818 -0.004208798 -0.35329655 0.7479686 0.20277771
-0.7431856 0.12992989 0.13052262 0.23005086 -0.21186352 -0.5949364 0.6274068 -0.39391318
0.3056246 0.40764764 -0.37006646 0.011109684 -0.19624732 0.26472414 -0.05354388 0.43341407
0.5568892 -0.4429219 0.24078256 0.019983506 0.10070778 0.3318311 0.22520913 0.8870327
-0.18203436 -0.104373395 0.06285182 -0.19398816 0.2137458 -0.41042656 -0.44708145 -0.11114997
0.04170797 0.41052082 -0.68783236 -0.24773541 0.33509648 -0.35840008 0.76442784 -0.120060675
0.28803092 0.07777548 -0.15461859 -0.12031189 -0.26037315 -0.31833225 -0.0036922796 -0.24436496
-0.3544514 0.013320971 -0.7395042 -0.38606176 0.26957265 0.27332357 -0.12509531 0.55979884
-0.7785036 -0.6915168 0.8455376 -0.6155564 0.05852435 -0.68036556 -0.0735961 0.27993116
-0.38281292 0.2821308 -0.11359116 -0.37770662 0.041048747 -0.54801726 -0.8489365 -0.65689194
0.42170593 -0.097123295 0.106731296 -0.23838188 -0.41651177 0.87590945 0.27735305 0.031443723
-0.5391324 -0.25932324 -0.0010853395 0.86577797 -0.16027889 0.09791891 0.6566263 0.55525196
0.2439334 0.55295616 0.49208835 -0.324478 0.13105704 0.061704747 -0.37738892 0.1723608

network_body._body_endoder.seq_layers.0.bias f4 [128]
00000000: b7f0 643d 8e8c 293d 7de9 8a3c b19d b8bc
00000010: 2719 ad3a db71 693c 1b8d 753d cd61 e33c
00000020: e121 143d 3abe 973c 2469 6a3d 4a7c 403c
00000030: 49a4 2abc 6eec 6f3c 2169 6fbc a660 25bc
00000040: b3f0 d53b 4988 e3bc 3983 323d dad3 a43c
00000050: 2949 8a3c a10a 5d3d 8a5f b5bb fefc cc3c
00000060: e39b 803c 7647 313d 5351 253d 97b4 0a3d
00000070: b9f1 0ebd 5472 4b3d aad0 553d fa64 c1bc
00000080: 6a8f 913b bdab 243d 9347 403b 500f 2c3d
00000090: 3675 e93c 5ff1 6c3b 671f 0f3d 4318 793d
000000a0: 8906 a73c 43b3 783d ea7c 19bc 0a5c 0b3d
000000b0: 228a d83b de66 86ba 1359 573d 2036 793d
000000c0: 0965 673d 46c4 383c 0201 4a3d c1b8 2fbc
000000d0: fe95 893d 6293 953c 0c2f d93b de8b 903c
000000e0: b5d5 723d e39d 673c ff0d 0f3d 77aa 9abc
000000f0: 01e4 f13b 24a1 903d 0037 243d 2869 1cbc
00000100: 03ac 143d beb0 dd3c bfe6 b439 063c 0f3d
00000110: c900 5d3d e650 093c 47cd c03c 6563 20bd
00000120: 858b 663d 19c2 183d ef15 503d 4712 243d
00000130: a30b 423d 7de2 8c3d 7c3e cf3b 4e1c 13bb
00000140: 175a 493c beb9 d73c 310c a83a 810f 563d
00000150: 9509 c83c 8e82 3ebd 4b98 883d 9c63 f33b
00000160: a3e6 2a3d d4b7 e03c 9cb3 763d 4cd5 f63c
00000170: 71f8 6f3d 5cc2 3f3d 6a10 093d 0af2 43bd
00000180: 01e3 a0bc 06cd b43c c4dd 8ebc dbff 603d
00000190: 6181 8b3d 581a af39 bee9 fa3b 1015 333d
000001a0: 0a6d 5c3d a9cf b23b 9742 d83a 9bff 123d
000001b0: 6388 453d 9344 4d3d 7597 853d 6db8 853d
000001c0: 432a 713d b3f5 eb3c 51a0 4f3d 168a 553d
000001d0: 5bf2 263d 73bf 363d 1ea8 963c 3065 2d3d
000001e0: f901 d63c 9c71 5d3d c9b2 403d 0068 2a3d
000001f0: 988b 0f3d cfaf 053d c9d1 763d f322 09bc
0.055893626 0.04139381 0.016957039 -0.02253613 0.0013206349 0.014248337 0.05994902 0.027756596
0.036165122 0.018523324 0.057229176 0.011748383 -0.010415145 0.014643772 -0.014612467 -0.010093844
0.0065289377 -0.027774947 0.043582175 0.02012055 0.016880589 0.053965215 -0.005535071 0.02502298
0.015699333 0.04328104 0.04036076 0.03386363 -0.034898493 0.04966958 0.05220095 -0.02360772
0.004442145 0.040202845 0.0029339537 0.04200679 0.028498273 0.003615461 0.034942057 0.060814153
0.020388858 0.060717832 -0.009368161 0.034023322 0.0066082636 -0.0010254045 0.052575182 0.060842633
0.05649284 0.011277264 0.049317367 -0.010725201 0.06718062 0.018258754 0.006627923 0.017644819
0.05928584 0.014136764 0.034925457 -0.018880112 0.0073819165 0.07061985 0.040091515 -0.009546556
0.036296856 0.027061816 0.00034504195 0.034969352 0.053955827 0.008381104 0.023535384 -0.03915729
0.0562854 0.03729448 0.050802168 0.040056493 0.04737438 0.06879137 0.0063245874 -0.002244729
0.0122895455 0.026333686 0.0012821016 0.05226088 0.024418632 -0.046511225 0.066696726 0.007427646
0.04172386 0.027431406 0.060229883 0.030131005 0.05858654 0.046816215 0.03346292 -0.04783825
-0.019639494 0.022070419 -0.01743973 0.054931503 0.068117864 0.0003339823 0.007657259 0.04372126
0.053814925 0.005456884 0.0016499338 0.035888296 0.04822577 0.050114226 0.06523029 0.06529317
0.058878195 0.028803682 0.05069 0.052133642 0.040758472 0.044616174 0.018390711 0.042332828
0.026123988 0.054063424 0.047045503 0.04160309 0.035045236 0.032638367 0.06025866 -0.008370149

network_body._body_endoder.seq_layers.2.weight f4 [128, 128]
00000000: 3a8e 8fbc 732f 543d 345d 1abd ab33 b2bd
00000010: 530e b4bb c2fd b3bd af39 2b3e 5d93 10be
00000020: 8e94 8fbc ea5d 913b 8871 fd3d bc5e f9bc
00000030: ba25 ab3d 2611 33be 2fe5 993d 0d8a e23d
00000040: 0e4e ae3c 8fb6 1fbd 8f5a 8c3b 0b78 b03d
00000050: a956 153e b1aa 8f3d 92e9 ca3a fa2f 4fbd
00000060: ebbe 22bd 9f33 143e 1053 4dbd 9d16 da3d
00000070: 8e21 95bd 9334 153e 4801 8dbd 46bb 4c3c
00000080: c8e9 41be b0bb 5ebd 61b5 76bd ff1c 40be
00000090: 230a 8bbc 60db 0d3d bd0b a73b 4023 423d
000000a0: 3aa5 b7bd dc65 9d3d 2fe6 8f3d a35b 2f3e
000000b0: 26de 203c 1e8f d93d f22a ca3d d795 fe3d
000000c0: 6947 273d 1b6d 3b3b 65fa a839 df2b a8bd
000000d0: fde5 52bd 0386 75bd 77bc 64be cefe cb3c
000000e0: 2606 2dbc 680a 6e3d 0896 a0be e13a 07be
000000f0: f88e 823d fed3 7e3b 98ef 3a3c 0b3d 29be
00000100: e65f c93d 85a9 1f3c f5e5 87bc 30f2 b6bc
00000110: 68d1 693e d080 a03d 92f0 d43a 2aab 95bd
00000120: 89b5 6d3d 0e09 deb9 4016 00be 9889 f73b
00000130: 342e f73d 495d 1c3e 69fc debd d8fd af3d
00000140: ee33 36bd 4def d33d de4e 47bd ce46 abbd
00000150: bdc1 99bc 1757 b93c bf1f 773c 041f 28bd
00000160: 8c93 2c3e 8bb0 9ebb 7632 81bd b00f 373d
00000170: 4706 f93d ce11 353d 34c7 74be 2d9e 9dbd
00000180: 933f 06bd 9ab1 c93d a2d6 c9bd 1f43 e9bd
00000190: 3895 50bd f086 be3c fff6 703d f570 72bd
000001a0: 4845 1c3e 2475 21be efc9 ab3c 1ce2 1c3d
000001b0: 8929 0a3e fb6a 41bc 81de 0fbe de08 793d
000001c0: 1513 ca3d 7e48 c1bb d064 a1bc 22f4 a13c
000001d0: 9839 843d 5cf3 493d 53cf 7abc 49dd cfbc
000001e0: cf0f 263e c256 dd3d 36c2 913d 6c3c 71bd
000001f0: c0c2 cbbc 263d 1bbe 77a5 56bd bd95 d7bc
00000200: 8634 49bd 282a 343d 0f80 853d fa3d 0dbe
00000210: aeb1 53bd 2756 323d 980f b83d 5b1e 64bd
00000220: 6fe9 703d 03a5 a13d df94 94bd 072a 0f3e
00000230: 2091 903d ed86 f7bc 35cf d5bd 081a 683d
00000240: f1ea 56be 617b 913d 78e9 d63d 7244 7f3d
00000250: 2202 f6bd 87fc 283e 60ef 82be ead8 16be
00000260: a999 f93d 6494 23bc 6525 d3bd a068 0b3e
00000270: 8b37 b4bd c00b d33c cfac 443e bafa 0ebd
00000280: 7f96 89bd a7a4 02be e6db b63d ed42 04be
00000290: fa5b c4bd e1d5 093d df34 583c 22ee 0ebd
000002a0: 4c22 7f3d 1034 783d 547a 453d 59af 0fbc
000002b0: 2ade bc3d e867 9fbd c6d9 fbbb fa9b 9d3d
000002c0: 643e e8bc 14dd a4bc b736 1b3e d705 e7bd
000002d0: 9fb7 e1bd b9ed 5abd 292e c3bd b01f 92bd
000002e0: c9cf 58be f2d2 113d 9c0e 053e 1a2e 1dbd
000002f0: c213 a23c 749b dd3d 3570 6d3c f273 47bc
00000300: ecf4 1b3d 8346 2d3c 9f9a 58bd 2a76 e9bd
00000310: 6cde bd3d 1b5d fcbd 6ecc e7bc 8372 a6bd
00000320: fb8f e4bd 3398 a33d 74c4 dabd 9d89 7b3c
00000330: 3b01 3e3c 707a 283e 659b 2dbd 4013 2fbd
00000340: 0bcd 0dbd d74f 34bd 5028 c63b 9f17 56bd
00000350: b80d 593d e3e5 96bd a590 e43d 6081 b3bc
00000360: 48e2 a63d 4b7c 15bd f371 753d 13d5 79bb
00000370: 5d0f 143e 72f8 ecbc 0bfc 8b3e 1867 a93d
00000380: 71b8 97bd a996 e638 c654 81bc 338e 28be
00000390: 1040 f93c 8fe2 ec3d c416 0fbc a0f8 f8bc
000003a0: 27f1 97bc d2e9 1f3e 7141 1ebd 518a 40be
000003b0: 79a1 703d 0b98 9e3c c3c5 943e f512 d33c
000003c0: 8a60 ef3d 710c 9c3c 780c 143e 6c58 b83c
000003d0: 4780 27bd 04e2 613d d148 cf3b 93c1 4a3e
000003e0: 5fa5 883d 78f6 043e 8d58 ecbc 6145 40be
000003f0: 458b 54bd 54d5 8cbc 567c fb3c 39c7 10be
-0.017523874 0.051803064 -0.03768654 -0.08701261 -0.0054948716 -0.08788635 0.16721223 -0.14118715
-0.017526891 0.0044362443 0.1237517 -0.03044068 0.08356805 -0.1748701 0.075144164 0.11061487
0.021277454 -0.03899246 0.0042832564 0.086166464 0.1458384 0.07014979 0.0015480986 -0.050582863
-0.039732855 0.14472817 -0.050128043 0.106488444 -0.07281791 0.14570837 -0.0688501 0.012495821
-0.18936837 -0.05437821 -0.06023157 -0.18761061 -0.016972607 0.03463304 0.005097835 0.0473969
-0.08967061 0.07685444 0.07026326 0.171248 0.009818589 0.106230006 0.098714724 0.124309234
0.040839586 0.0028598967 0.00032230015 -0.08211493 -0.051488865 -0.059942257 -0.22337519 0.024901774
-0.010560548 0.058115393 -0.31364465 -0.13206054 0.063749254 0.0038883681 0.011409663 -0.16527192
0.09832744 0.009745006 -0.016589144 -0.02233228 0.22833788 0.07837069 0.0016246012 -0.073080376
0.058034454 -0.00042349886 -0.12508488 0.0075542443 0.120693594 0.1526996 -0.10887987 0.08593339
-0.044483118 0.103483774 -0.048659198 -0.08363114 -0.01876914 0.022624535 0.015083252 -0.041045204
0.1685316 -0.004842823 -0.06308453 0.044692695 0.121594004 0.044206433 -0.23904115 -0.07696185
-0.032775473 0.09848328 -0.09855391 -0.113897555 -0.050923556 0.023257703 0.058829304 -0.059189755
0.15260804 -0.15767342 0.020970313 0.038301572 0.13492407 -0.011805291 -0.14049722 0.060799472
0.09866921 -0.0058985343 -0.019701391 0.019769732 0.06456298 0.04930435 -0.015308219 -0.025374072
0.16216968 0.10807563 0.07117121 -0.058895513 -0.024873137 -0.15160045 -0.052403893 -0.026316518
-0.049122356 0.043985516 0.06518566 -0.13793173 -0.05168312 0.043539193 0.08987349 -0.05569301
0.05881637 0.078928016 -0.072549574 0.13980876 0.070589304 -0.030215705 -0.10439912 0.05666545
-0.2098806 0.07103611 0.104937494 0.062321134 -0.120121256 0.16502582 -0.25573254 -0.14731184
0.121875115 -0.00998411 -0.10309867 0.1361413 -0.087996565 0.025762439 0.19206546 -0.03490708
-0.06718158 -0.12758122 0.08928661 -0.12916155 -0.09587856 0.033651236 0.013196199 -0.03489507
0.062288567 0.060596526 0.048212364 -0.0087698335 0.09222062 -0.077834904 -0.0076858727 0.07695766
-0.028350063 -0.02012495 0.15157591 -0.11280411 -0.11021351 -0.053449366 -0.09530289 -0.0713495
-0.21173014 0.035601564 0.12993854 -0.038374044 0.019784812 0.10820666 0.014492084 -0.01217364
0.038075373 0.010575893 -0.052881833 -0.11399491 0.09270939 -0.12322446 -0.028295722 -0.0812731
-0.111602746 0.07988014 -0.10682002 0.015352634 0.011596973 0.16452956 -0.042384524 -0.042742968
-0.034619372 -0.044021454 0.006047286 -0.05226862 0.0529916 -0.07368066 0.11160401 -0.021912277
0.081486285 -0.036495488 0.059923124 -0.0038121387 0.14458986 -0.028927062 0.2734073 0.08271617
-0.07408226 0.00010995317 -0.015787493 -0.16460495 0.030426055 0.1156665 -0.008733455 -0.030391991
-0.018547608 0.15616539 -0.03863663 -0.18802764 0.058747742 0.01935961 0.2905713 0.025765875
0.11688335 0.019048901 0.14457881 0.0225031 -0.04089382 0.055147186 0.006325819 0.19800405
0.06672167 0.12984645 -0.028850818 -0.18776466 -0.05189063 -0.017191567 0.030698936 -0.14138497

network_body._body_endoder.seq_layers.2.bias f4 [128]
00000000: 9bbc 103d 7fe1 283d bb50 c23c 7c2e a53c
00000010: e98a 583d faea 9e3c a64f 5d3d 1fd8 1d3d
00000020: 5922 273c 6767 d03c df1a 243d 4136 293d
00000030: f362 2c3c b891 433d 4ef9 5b3d bd63 6e3d
00000040: bd34 803c 1cd1 633b 11a2 d23b d669 3d3d
00000050: cbdc f63c 9855 723d 60a5 f13c b341 793c
00000060: 004b 2e3c 1d20 7c3d d51c c839 1de8 42bb
00000070: e5ea 9e3c 7ce6 093d 5f40 2ebd 3cc9 143d
00000080: fcc9 a639 25a3 043c efd2 183c 4276 b03c
00000090: 11cf 793d ecb2 283d 2b19 103c 0e3a df38
000000a0: 70ab 0bbd 13c9 403c 2af4 2a3d 37e8 733d
000000b0: dd6b 413d ad31 723d 2dd9 8b3d 9593 f63c
000000c0: 5c29 4e3c 1d75 8b3b 20b5 133d 8fa3 693d
000000d0: 6863 293d d4cd 743d 6e68 b7bb e4be b23c
000000e0: 5a10 f9bb be1b 293b 6856 0a3d 5a08 ef3c
000000f0: 2013 7a3c 6744 f13b 84b1 ba3c 4ac7 943c
00000100: 6fd1 7b3d c1f3 973d 3a92 4dbc 39a0 5fbb
00000110: 61af 043d 0f1c 8a3c 39dc 333d 8e29 153d
00000120: 2490 413d ed76 613c 60df 4b3d a463 0e3d
00000130: 561a 51bc e710 123d 32ae 633d 82c4 f13b
00000140: e67a a33b f9c3 843c 824f 313d 3503 b23c
00000150: 2529 843c ac1c a73c 7bd7 d13c 25a5 143d
00000160: 4b1d 913c c002 903a 94b6 913c 54ed 373d
00000170: 2640 053d 151f ed3c 3ebe ff3b 8dac 413d
00000180: 76a4 663d 3738 1d3d ccda 7d3d b929 273d
00000190: 6fc5 833c b6e4 a3bc 38f8 7d3d cf86 7a3b
000001a0: 26e1 0a3d 358b b03c 2fc2 863d cea1 c93c
000001b0: 387c d43c 5396 2ab9 cf80 143d 2dd4 e73c
000001c0: d5e2 903b a23d 503d f92c 0cbc 5db4 463d
000001d0: ece5 213d 948a 773d 750e 393d 733b 7a3c
000001e0: 59d1 39bc ce87 653d d083 863d 748a 8f3d
000001f0: 0287 173d 6026 363a eba7 ff3c f044 9fbb
0.03533612 0.041230675 0.023720136 0.020163767 0.05286685 0.019399155 0.054031037 0.038536187
0.01020106 0.025439931 0.04006469 0.041311506 0.010521638 0.04774639 0.053704552 0.058200587
0.015650148 0.003476209 0.006428011 0.04624351 0.03013458 0.05916366 0.029497802 0.015213418
0.010637999 0.061554063 0.00038168454 -0.00297404 0.019399116 0.033667073 -0.042541858 0.036324725
0.00031812477 0.008095537 0.009327634 0.021540765 0.06098849 0.04118626 0.008795063 0.00010644282
-0.034099042 0.01176669 0.04173676 0.05954763 0.047222007 0.059129406 0.06828532 0.03009967
0.012583103 0.0042559044 0.036061406 0.057040747 0.041354567 0.059766605 -0.005597166 0.02181954
-0.007600826 0.002580389 0.03377381 0.029178787 0.015263349 0.0073628905 0.022789724 0.018161435
0.06147903 0.07419539 -0.01254707 -0.00341226 0.032393817 0.016859083 0.043911193 0.036416583
0.047256604 0.013761264 0.049773574 0.034762993 -0.012762627 0.03566065 0.055586047 0.007378162
0.004989016 0.016206728 0.043288715 0.021730045 0.0161329 0.020399414 0.025615444 0.036290307
0.017714163 0.0010987148 0.017787255 0.044904068 0.03253188 0.028945485 0.007804661 0.047283698
0.056309186 0.03838369 0.06197624 0.040811274 0.016085355 -0.020006519 0.062004298 0.0038227325
0.033906125 0.021550754 0.06580006 0.024613287 0.025938138 -0.00016268464 0.036255654 0.028299415
0.0044215717 0.050840028 -0.008555644 0.04851185 0.03952591 0.060434893 0.045179803 0.015272963
-0.011341416 0.056037717 0.0656811 0.0700883 0.036993988 0.00069484673 0.031208 -0.004860513

action_model._discrete_distribution.branches.0.weight f4 [5, 128]
00000000: e9f4 e3bc 075f 2dbd ad76 13bd 9890 59bd
00000010: 292b 52bd 6501 e0bc de82 5dbd 47c0 42bd
00000020: c211 763c c615 26bd 4e8d 85bd 6542 66bd
00000030: 3414 b5bc 582e 0cbd 221f 02bd 4b6f 46bd
00000040: 96e2 3cbd 36d3 82bc 01c2 243c 0e4d 32bd
00000050: 4f48 4bbd 4c01 4cbd af0d 16bd 9f36 453c
00000060: 2422 a23a a1ff 25bd bd77 69bc 9c27 2ebc
00000070: 6bbb 31bd e90a 0dbd 2e66 823d 587f 62bd
00000080: b391 633c 8710 b3b9 ea52 6e3c 7c00 c5bb
00000090: 0938 64bd 3d08 3ebd b2ae bdbc 3c4a 55bb
000000a0: c24d 823d 68d1 61bc 6048 7bbd b571 42bd
000000b0: 8b93 81bd 0320 1cbd 3711 a5bd c7d7 70bd
000000c0: dd18 d6bc a4d3 8cbc 0427 9bbd ffcb 13bd
000000d0: 5eb8 1bbd ade7 16bd ff6b cfbc ecb3 99bc
000000e0: e828 a13c 1b6c 07bd 5091 0abd 7bca 9dbc
000000f0: 8157 45bd 0376 bd3c 2827 a4bc d9fc d0bb
00000100: cad5 34bd eb02 9abd f3f1 d7bb 9316 073d
00000110: b8d7 e8bc fd8e 2cbd b029 2ebd b789 24bd
00000120: a71f 53bd b8bd dbbc eb89 8ebd 8146 673b
00000130: cde0 0ebc a4c8 ebbc 8c56 b7bd 1840 afbc
00000140: 8a77 96bc 1523 92bc cce9 adbc cedb f9bb
00000150: bf1a 4cbb 7a96 19bd 8423 4fbd 45a2 8abd
00000160: 4e5d 11bd 94f9 023d 0e2b 66bd 5829 6bbd
00000170: b90e 75bd 7d97 9cbc bf14 643b b382 e3bc
00000180: 447c 60bd b5d8 96bc c35d 99bd b310 59bd
00000190: a2cd 473d 85dd 083d 16fb b8bd c84b da3b
000001a0: 2c8d 5ebd 445f 51bc f288 91bd a93d 6fbd
000001b0: 9610 86bd 0c1f 363b fe5f 2fbd 43ef 24bd
000001c0: 3766 c13c 2684 88bd f84b a13c ebe7 e4bc
000001d0: 1b3f 2bbd e403 f3bc cc94 06bd 4a09 d4bb
000001e0: b358 873b a7f9 8fbd c175 b4bd a66a 73bd
000001f0: 0e5c 8bbd 90e1 d23b 293f c7bc 6256 4abc
00000200: 2616 8d3c 5b4f 85bc dd43 f83c 08e8 8d3c
00000210: 970c 38bc fff9 253d 9632 0abd 4795 a63d
00000220: aa8b e73c 936b 843d ad4a 873b ab4c 293d
00000230: f594 6d3d e122 12bd 20df 34bd bb37 fbbc
00000240: 0b31 d9bc 7de5 8a3a f869 543d 10b7 e6bc
00000250: 1b43 763c 9477 febc cf43 953d 55da 903c
00000260: 34d6 8f3d 67ef d8bc 8b0b 5e3d 4d94 d7bc
00000270: 0936 ad3a 870e a8bc ce31 5b3c b75d 183d
00000280: c37d 723d 2117 1d3d 7323 0e3d e576 0d3c
00000290: 3de1 0bbd d5a5 60bc be30 5ebd 1f33 34bd
000002a0: f420 913a c545 633d a1f9 563d be26 ffbc
000002b0: 71f3 b03c bb83 3dbd 2487 283d 5024 793d
000002c0: 11a8 76b8 0fbb 2fbd 88ee 203d fa04 f1bc
000002d0: a951 e83c 3e90 6ebd 28dd f13c de8c c2bc
000002e0: 60d6 6d3d 9a1c 2cbc fa08 6a3d e7a6 7ebc
000002f0: 43d4 a7bc b1bc 673c c52c 793d 92cc 973d
00000300: 68a6 01bd 1677 e13b c8ce 693d 8290 9b3c
00000310: a53f 123d e67d 0d3c c65d 31bd 34b1 6d3d
00000320: 0a9e 593b ec02 0fbc def7 4b3d d741 e8bc
00000330: e9b7 fb3b 424d 4ebd 8084 943d ffed 0d3d
00000340: 179e 733d f72b 39bd 6be0 50bd b436 f5bc
00000350: 8d71 833d 0296 473d 9be6 66bc 8f09 053d
00000360: 0151 e8bc 9801 bfbc c287 e4bb 9ab9 c13c
00000370: c27e 1d3d 658c 783d 5e94 29bd 5206 81bd
00000380: 7fc7 7ebc 0b28 783d c286 f8ba 39f6 f3bc
00000390: b386 42bd d00d 8f3d ed39 113d e881 5bbd
000003a0: 3577 673d 0b55 823d 90f7 f5bc be3c 34bd
000003b0: ad76 2ebc b31a c7bc f537 88bc 2234 6d3d
000003c0: f6e4 153d 89f7 1f3d 3b56 36bd f1b3 57bd
000003d0: cc8b 893b 315b 1cbd 9c97 33bc 25c6 d13c
000003e0: 6b7f 683d 5b5d e4bc 2c1a 51bc 6518 09bd
000003f0: c25c 523d a57d 9ebc 56dc 723d d67f d1bc
-0.027826743 -0.042326953 -0.03600185 -0.05311641 -0.051310692 -0.027344415 -0.054079883 -0.04754665
0.015018882 -0.04054811 -0.06521092 -0.056215663 -0.02210436 -0.034223884 -0.03176797 -0.04844598
-0.046114527 -0.015969854 0.01005602 -0.043530516 -0.049629506 -0.049805924 -0.036634143 0.012036948
0.0012369794 -0.04052699 -0.014249739 -0.010629561 -0.043391626 -0.034434233 0.063671455 -0.055297226
0.013889718 -0.00034153854 0.014546135 -0.0060120206 -0.0557175 -0.046394575 -0.02315459 -0.0032545468
0.063624874 -0.0137828365 -0.06134832 -0.04747172 -0.0632697 -0.038116466 -0.08059924 -0.05879953
-0.026134903 -0.017190762 -0.07575801 -0.036083218 -0.038017623 -0.036842037 -0.025320051 -0.018762551
0.019672826 -0.03306208 -0.033829987 -0.01926159 -0.048179153 0.023127561 -0.020038202 -0.006377798
-0.044149198 -0.07520088 -0.006590122 0.032980513 -0.028423175 -0.04212855 -0.042520225 -0.040170398
-0.051543858 -0.026823863 -0.069598995 0.0035289826 -0.008720589 -0.028782196 -0.089520544 -0.021392867
-0.018367548 -0.017838994 -0.021229647 -0.0076250797 -0.0031143872 -0.03749702 -0.05057098 -0.06769232
-0.035489373 0.031976297 -0.056193404 -0.057412475 -0.059828494 -0.019115204 0.0034802405 -0.027772283
-0.05480601 -0.01841388 -0.07488587 -0.05299444 0.04878009 0.033414382 -0.09032266 0.006661866
-0.05433385 -0.012779061 -0.07106198 -0.058408413 -0.06546132 0.0027789501 -0.042816155 -0.04026724
0.02360831 -0.0666583 0.019689545 -0.027942618 -0.04180823 -0.029664941 -0.032856748 -0.006470834
0.004130447 -0.07030039 -0.08811522 -0.05942788 -0.068046674 0.0064355806 -0.02432211 -0.012349697
0.017222475 -0.016273191 0.030305797 0.017322555 -0.01123347 0.040521618 -0.03373965 0.08133941
0.02826484 0.06465831 0.004128775 0.041332882 0.058003385 -0.035677794 -0.0441581 -0.030666223
-0.026512643 0.0010596957 0.051858872 -0.028163463 0.015030648 -0.031062879 0.07288324 0.017682234
0.07023278 -0.026481343 0.054210227 -0.026315833 0.0013214956 -0.02051474 0.013378574 0.03719875
0.059201967 0.038352136 0.034701776 0.008634304 -0.03415035 -0.013711412 -0.054245703 -0.043994065
0.0011072443 0.05548646 0.05248416 -0.031146403 0.021600457 -0.046268206 0.041144505 0.060825646
-5.8807494e-05 -0.042903002 0.03928998 -0.029421318 0.028359251 -0.05824303 0.0295244 -0.023748811
0.058065772 -0.010504866 0.057137467 -0.015542722 -0.020486956 0.014144109 0.06083371 0.074120656
-0.031652838 0.006880651 0.057081968 0.018989805 0.035705227 0.008635974 -0.04330232 0.058030322
0.003320577 -0.008728724 0.04979693 -0.028351707 0.007681836 -0.050366648 0.07251835 0.0346508
0.059476938 -0.045207944 -0.05099527 -0.029933311 0.064181425 0.048727043 -0.014093067 0.03247982
-0.028358938 -0.02331619 -0.0069741914 0.023648072 0.038450964 0.060680766 -0.04140126 -0.06300034
-0.015550493 0.060585063 -0.0018961059 -0.029780494 -0.04749174 0.069850564 0.035455633 -0.053590685
0.05651017 0.06363877 -0.030025274 -0.04400324 -0.010648412 -0.024304723 -0.016628245 0.057911046
0.036595307 0.039054427 -0.04451583 -0.05266184 0.0041975733 -0.038172904 -0.010961439 0.025607178
0.05676214 -0.027876547 -0.0127625875 -0.03347053 0.051357992 -0.019347021 0.05929216 -0.025573652

action_model._discrete_distribution.branches.0.bias f4 [5]
00000000: a126 64bd a698 e83b b612 213c 134e cfba
00000010: 83fd aa3c
-0.055700902 0.0070982752 0.009831121 -0.0015816115 0.020872837

exp_avg f4 [128, 6]
00000000: c70b 8fb7 9d81 7cb6 e43a 4037 15b1 63b6
00000010: 47b3 d4b6 7195 f337 5d4b 2c39 42ee 7838
00000020: ad5a fe37 f8fa 03b8 f294 52b9 547d 0b39
00000030: 546e f638 4e9f 2239 eecc 8a37 ea6f f6b6
00000040: 2cda a4b9 05f4 aa38 60f5 9bb8 8219 04b8
00000050: 3328 2f38 8d9d 88b6 95fd 6e39 2b78 67b8
00000060: 0d0d 8f36 22bd aa38 76a3 2c38 34ba 0739
00000070: b5ee 16b8 c5e4 8138 7703 23b9 fad4 e3b8
00000080: 0e6f 0db7 cf42 6bb8 83e6 4039 2d65 8fb8
00000090: 85ca 0239 afed 5438 5bc8 23b8 ee10 96b7
000000a0: d935 6fb9 4618 1a39 6b1b d6b8 8211 73b9
000000b0: 47d8 c737 ef0d c8b8 46f9 7f39 ca28 4ab8
000000c0: 1ff5 c4b7 ceb1 26b9 d8cd a938 831c abb8
000000d0: 7b41 1e39 53a6 98b7 20c0 c6b8 96e0 1cb9
000000e0: db6d ee38 d930 81b8 051e 2539 63e0 9737
000000f0: 2371 4538 e1d6 9638 2c62 16b8 4dbb 0f39
00000100: 68b8 e9b8 20c8 4d39 844b 8838 e116 f437
00000110: b1f4 64b7 7acb 2339 a7a4 43b8 084c 1a38
00000120: 5e9a 5938 4c5c 0738 c3b2 69b6 a189 c237
00000130: 5dfa 4db9 07f2 7738 e4b5 08b9 859d 3bb8
00000140: 6343 d6b7 edfc ec37 26a5 7d39 f35b 29b7
00000150: 91a6 d737 80fe 4db6 cbcb aab7 34cd 32b8
00000160: fdbb c6b8 b866 3ab8 f68a 9cb6 b8dc bc37
00000170: 2ba1 f837 ed6c 8038 4821 7b36 98d1 2c38
00000180: 3b85 a5b7 6be2 17b8 89f7 aa38 032f e036
00000190: be51 1237 bdcd ffb7 61de 02b9 e48a 84b7
000001a0: 57bd f237 279a 0537 d0d3 5639 1682 deb7
000001b0: 97c8 e938 d207 1c39 1743 91b8 538e 58b8
000001c0: cda9 2fba 8c2e 1739 d960 8538 5385 cb37
000001d0: 6249 3ab8 0818 27b7 61fa b4b9 e861 bc37
000001e0: 053f 0539 ee11 1838 dd82 e5b7 839c ccb8
000001f0: e951 55b9 b043 ca38 6348 8437 1f08 a336
00000200: 969e b2b6 906b 2439 fdf2 78b9 fdea 1839
00000210: 341b 0fb8 8f3f 68b7 c562 8037 ff6e 0138
00000220: d339 aa39 63ad a9b7 dbcd 00b9 2777 66b8
00000230: e4cd 71b7 0633 2ab5 e790 0739 d5e9 4e36
00000240: 5a8c 81b9 5ab3 66b9 183c 7bb8 9cae 2cb8
00000250: 92b5 e339 14df 6fb8 cbf9 e4b8 6be7 9cb8
00000260: 7872 9bb8 fda7 8738 66ff a639 2967 f4b7
00000270: 8f7a 37b9 d193 50b9 bcbb 03b9 eeb4 4d37
00000280: d6ea c739 4e52 7ab8 e7c4 9a38 3757 f438
00000290: 944b 24b8 0783 6137 d119 cdb9 176f 3139
000002a0: aebb 82b8 bf2c 95b8 2c12 4038 5eb1 b0b8
000002b0: 3ad9 d338 e296 dab8 2495 e038 f72d c438
000002c0: 1bf0 2cb8 1fa5 d837 e0c0 0db9 507e 3a39
000002d0: 1282 45b6 2f54 8fb7 6c34 75b8 aa36 b838
000002e0: 408b d438 e991 9437 57d9 63b9 ab3d 1fb9
000002f0: 7c4a 9cb7 36ea 1bb8 5ec2 a639 f09e fbb8
00000300: f528 2038 353f ce38 74b6 2fb6 2b76 4638
00000310: 910f 37b9 fd69 db38 8d04 6eb8 7901 99b8
00000320: 4249 b9b8 4efc ce38 dcca 1839 f1f2 1bb8
00000330: 882d 3bb9 356c 2bb9 94f4 af37 35cc 37b8
00000340: 1a88 8639 7361 74b8 6286 bcb7 e13a f5b8
00000350: 7c63 e037 e936 f2b8 040f 1839 da75 4538
00000360: 1f30 d336 c347 3bb8 6759 b5b7 fbf4 ca38
00000370: 00f1 4839 d68d e837 3026 bdb7 afde 2338
00000380: 84ae 2d37 6a16 d438 c32e 2638 5a15 cc37
00000390: 9f02 4236 49fb 1337 1a5c 2bb8 04af 5ab7
000003a0: a548 acb9 2568 8ab7 066d b938 c847 2838
000003b0: 9e9d 28b8 dae8 b636 993c ccb9 15fe c738
000003c0: c174 38b7 8644 c0b8 079d 1937 ee56 c5b8
000003d0: 6275 8638 a936 3238 8d84 9f39 ffdb 9139
000003e0: 49cb 5db8 0d9a 6639 8831 2cba aca3 dc39
000003f0: 2878 3638 9f43 0339 abf8 b137 7e6b 9938
-1.7052413e-05 -3.762637e-06 1.1457803e-05 -3.3928711e-06 -6.338963e-06 2.9037446e-05 0.00016431273 5.9349702e-05
3.0321384e-05 -3.1466567e-05 -0.00020082647 0.00013302761 0.00011750744 0.0001550887 1.654631e-05 -7.3444e-06
-0.00031443068 8.151684e-05 -7.4366806e-05 -3.149501e-05 4.176069e-05 -4.071457e-06 0.00022791915 -5.5186607e-05
4.2632514e-06 8.1414604e-05 4.116023e-05 0.0001294397 -3.59851e-05 6.193811e-05 -0.00015546182 -0.000108638735
-8.430112e-06 -5.6090586e-05 0.00018396419 -6.837617e-05 0.0001247321 5.07661e-05 -3.9048824e-05 -1.7889277e-05
-0.00022812876 0.00014695627 -0.00010209422 -0.00023180808 2.382336e-05 -9.5393385e-05 0.00024411557 -4.819854e-05
-2.3479164e-05 -0.00015897231 8.096889e-05 -8.159226e-05 0.00015092448 -1.8197263e-05 -9.477162e-05 -0.00014960984
0.000113691865 -6.160298e-05 0.0001574681 1.8105091e-05 4.7073827e-05 7.192582e-05 -3.5854217e-05 0.00013707318
-0.00011144654 0.00019624876 6.499051e-05 2.909772e-05 -1.3646831e-05 0.00015620692 -4.6644967e-05 3.678727e-05
5.1880597e-05 3.2272466e-05 -3.4823759e-06 2.319069e-05 -0.00019643591 5.9114795e-05 -0.0001303773 -4.4730976e-05
-2.5542167e-05 2.825117e-05 0.00024189483 -1.0094594e-05 2.570756e-05 -3.069552e-06 -2.0360478e-05 -4.2629617e-05
-9.476391e-05 -4.444152e-05 -4.6653395e-06 2.2514127e-05 2.9638953e-05 6.1238046e-05 3.7421287e-06 4.1203195e-05
-1.9731573e-05 -3.6212074e-05 8.152339e-05 6.681193e-06 8.72131e-06 -3.0494173e-05 -0.00012480609 -1.5800302e-05
2.8936816e-05 7.963309e-06 0.00020487537 -2.6525038e-05 0.000111476686 0.00014880233 -6.926635e-05 -5.1630963e-05
-0.00067010225 0.00014417822 6.3599735e-05 2.426157e-05 -4.44142e-05 -9.959571e-06 -0.00034518822 2.2456938e-05
0.00012707345 3.6256322e-05 -2.7359865e-05 -9.7566306e-05 -0.00020343777 9.6447184e-05 1.5769334e-05 4.858724e-06
-5.323275e-06 0.00015680329 -0.00023741643 0.0001458339 -3.411919e-05 -1.3843076e-05 1.5304782e-05 3.085937e-05
0.0003246801 -2.022711e-05 -0.00012283718 -5.4947242e-05 -1.4412657e-05 -6.3404184e-07 0.00012928584 3.08325e-06
-0.00024709367 -0.00022001323 -5.989903e-05 -4.1170613e-05 0.00043432094 -5.7189798e-05 -0.00010918415 -7.4817646e-05
-7.4122974e-05 6.468592e-05 0.00031852274 -2.9135104e-05 -0.00017497897 -0.00019891492 -0.0001256307 1.2261078e-05
0.00038131204 -5.9681297e-05 7.379968e-05 0.00011651072 -3.9171035e-05 1.3441552e-05 -0.00039119882 0.0001692142
-6.233841e-05 -7.113208e-05 4.579329e-05 -8.425371e-05 0.00010101726 -0.00010423154 0.00010708932 9.35457e-05
-4.123161e-05 2.5826097e-05 -0.0001351866 0.00017785397 -2.9430998e-06 -1.708613e-05 -5.8461374e-05 8.783986e-05
0.00010134885 1.771092e-05 -0.00021729372 -0.00015186395 -1.8631334e-05 -3.7173006e-05 0.00031806802 -0.00011998217
3.8185117e-05 9.834619e-05 -2.6183234e-06 4.731693e-05 -0.00017458039 0.000104624756 -5.674786e-05 -7.295883e-05
-8.835133e-05 9.869841e-05 0.0001457142 -3.7181137e-05 -0.00017850671 -0.00016348141 2.0975516e-05 -4.3820783e-05
0.00025659875 -5.826489e-05 -2.2473923e-05 -0.000116934774 2.6749207e-05 -0.00011549687 0.00014501443 4.7078218e-05
6.293892e-06 -4.4651108e-05 -2.1618513e-05 9.677742e-05 0.00019163266 2.7722603e-05 -2.2548338e-05 3.906962e-05
1.0352236e-05 0.00010113123 3.9621034e-05 2.4328638e-05 2.8909778e-06 8.82039e-06 -4.0855353e-05 -1.3034562e-05
-0.0003286052 -1.6499378e-05 8.8417946e-05 4.0121173e-05 -4.0201114e-05 5.45113e-06 -0.0003895506 9.536386e-05
-1.09944385e-05 -9.168037e-05 9.156071e-06 -9.409884e-05 6.411482e-05 4.2489413e-05 0.000304256 0.00027820465
-5.287983e-05 0.00021991898 -0.000656866 0.00042083615 4.3504086e-05 0.00012518324 2.121584e-05 7.3156305e-05

exp_avg_sq f4 [128, 6]
00000000: addc c531 7fdd 9f32 b7c0 3631 92b6 6132
00000010: d178 1033 0a7e f432 2a67 fe33 ae9e 8f33
00000020: 1c62 9333 4fea eb33 b3db 7e34 029c a534
00000030: 261e 9a33 0fb9 0734 7d1c 0532 f136 a830
00000040: 8e39 4c34 79cc 4c34 b455 1b33 1475 3732
00000050: 843a a132 b966 e232 73c0 8b33 f5c2 9133
00000060: 318d ef32 ca64 c833 dfda 8633 c2b0 3e34
00000070: ef2a 8234 eb20 4434 4edc 8333 2d07 5133
00000080: 531f 0532 f2ae e632 be03 0234 59f8 d333
00000090: 22c7 1734 f9bb 1234 e17f 3334 c1c6 1c34
000000a0: b139 a334 019e b134 b7e0 4f34 1680 9c34
000000b0: 3b6b f333 54c3 a234 22d2 1d35 f9cc b134
000000c0: 49e1 8d33 f62d 0734 4716 f333 10c9 2c34
000000d0: 0aba bc34 e731 9d34 e6fe a133 523d f233
000000e0: c197 9b34 6923 c033 a17c f334 4c1c be34
000000f0: 6e51 1434 63d2 6434 39f2 3034 4c69 5934
00000100: 6861 dd34 cea2 ca34 11c0 5c33 ce57 f432
00000110: 4ae9 df33 2219 ff33 13ea 5434 63fb 1634
00000120: 8f5a 7233 4d89 5c32 d9be f732 ceaa 0b32
00000130: 8f85 b033 03da b333 45d7 df33 b785 4933
00000140: 9e95 4634 f90a 6f34 e189 f334 dced b934
00000150: 43d6 3d32 8626 f830 0424 5e31 cd75 0d33
00000160: 4a71 6a33 ed2e 2d33 8ddf 3d32 2358 1b32
00000170: 7955 ac31 5a11 6e33 71bf c233 002a cf33
00000180: 00e9 6132 18c1 7f32 2463 fa32 a45b 2230
00000190: 64ec 8933 5397 8833 c9e5 b633 fa3f 2332
000001a0: 4b4d 5933 b52f aa33 1fb4 4534 3609 3434
000001b0: 35ef 2834 19b5 4a34 b243 9632 dfc9 2633
000001c0: 6626 d134 9fd6 d634 a5f5 3833 a75f 2832
000001d0: a2f6 9432 ff00 3032 5a67 ea33 142e d533
000001e0: d8d2 b133 a95f 5733 7a30 e533 a314 8d34
000001f0: 0b24 9d34 c25c 8a34 d51b b633 ad91 d233
00000200: 1464 5f34 b3e8 a434 a096 0435 4f60 1935
00000210: 9e5d 4833 614c ad33 f606 7d34 9f3d 5b33
00000220: 2344 e534 8725 0435 8ffe 6133 c544 1633
00000230: f378 0b33 a8b5 4733 3e16 1634 a5b7 1334
00000240: 7854 cb34 920b 1e34 3555 ab34 6f1d 8434
00000250: b95b 4035 c760 0f35 8b18 2d33 8599 1f33
00000260: 22a2 df33 2218 7033 3429 6934 b59a 3a34
00000270: 02d0 6234 39e6 2734 f6f0 0a34 ad6f 6934
00000280: ae1b 1435 9a72 8c34 69c6 ca33 9371 c233
00000290: a170 2133 1225 ad32 d0bb 4834 156f 4734
000002a0: 5283 aa33 2d33 1e34 d93a 3933 b164 d333
000002b0: 503d 4234 ff66 1134 93f9 b633 b69a e333
000002c0: c009 8333 bf04 ec32 1d3f 1234 0ac4 3934
000002d0: 013e a033 73f2 0234 f07d 8133 1234 2834
000002e0: e16b 5c34 0153 f133 5124 dd33 c805 bb33
000002f0: f8be 3133 71aa 0733 71e2 6834 dc14 5c34
00000300: 7609 0b33 9f5a 8833 e3ba ed31 5b12 0b33
00000310: cddf df33 25c1 c033 1e12 7434 12a9 ea33
00000320: d21a dd33 d081 2234 303c 9e34 a178 5134
00000330: 730a b833 889a ab33 9cea a633 1fff 0033
00000340: 59a2 8334 bcd9 6234 04d1 a133 8f51 bb33
00000350: f60a a034 664b a734 5845 1235 0d4d cc34
00000360: 7f88 1032 8fc2 2033 3d49 b634 b246 bf33
00000370: 2d56 df34 a784 0b35 4f2c 9c32 fae1 9f33
00000380: 4d4b 2833 540e f333 ee41 3a34 9fa6 1d34
00000390: 7013 0233 d4f7 4e32 07de 9331 6ac0 d730
000003a0: ed33 eb33 c016 e733 ab94 b633 a172 6833
000003b0: 2d64 fc32 1400 b733 6b95 3334 625f 2c34
000003c0: 52ce 5d33 4404 8c33 a161 2734 6c35 8f34
000003d0: 68bf c734 bc86 8934 12ca 3335 96e0 3b35
000003e0: 8816 c634 0edf f634 11a3 6f35 03a9 7d35
000003f0: 6e0a 5633 4784 ab33 c090 1733 517d f333
5.7585425e-09 1.8610761e-08 2.6594031e-09 1.3138235e-08 3.3637495e-08 2.8462654e-08 1.1846562e-07 6.68782e-08
6.863067e-08 1.0985661e-07 2.373552e-07 3.0847156e-07 7.176668e-08 1.2640179e-07 7.748096e-09 1.2239224e-09
1.9019919e-07 1.9073367e-07 3.6166696e-08 1.0678622e-08 1.8769477e-08 2.6356576e-08 6.507698e-08 6.787551e-08
2.7887468e-08 9.331559e-08 6.279674e-08 1.7759433e-07 2.4245625e-07 1.8265898e-07 6.140236e-08 4.866813e-08
7.748741e-09 2.685508e-08 1.2108555e-07 9.870627e-08 1.4135415e-07 1.3665694e-07 1.6717196e-07 1.4600938e-07
3.0403092e-07 3.3083782e-07 1.9360128e-07 2.915046e-07 1.13350744e-07 3.031697e-07 5.879284e-07 3.3117956e-07
6.606803e-08 1.2589575e-07 1.13196215e-07 1.6091894e-07 3.515309e-07 2.9279838e-07 7.5435125e-08 1.1280157e-07
2.8981415e-07 8.947138e-08 4.5352957e-07 3.5410847e-07 1.3813198e-07 2.1310693e-07 1.6479397e-07 2.0248007e-07
4.123533e-07 3.7743888e-07 5.1397425e-08 2.8445267e-08 1.0426682e-07 1.18789345e-07 1.9829194e-07 1.4061293e-07
5.642738e-08 1.2836904e-08 2.8841372e-08 8.129701e-09 8.219933e-08 8.374993e-08 1.0423404e-07 4.6920572e-08
1.8494617e-07 2.2262601e-07 4.5362597e-07 3.4632e-07 1.1049965e-08 1.8055324e-09 3.2325724e-09 3.293626e-08
5.4585406e-08 4.032238e-08 1.10520775e-08 9.042227e-09 5.015576e-09 5.5429474e-08 9.068652e-08 9.6468284e-08
1.3149702e-08 1.4886858e-08 2.9148914e-08 5.9065486e-10 6.422559e-08 6.360519e-08 8.516833e-08 9.502395e-09
5.0594547e-08 7.92492e-08 1.8412582e-07 1.6767157e-07 1.5733242e-07 1.8878599e-07 1.7493083e-08 3.8833488e-08
3.8957222e-07 4.0016764e-07 4.306425e-08 9.800636e-09 1.7341623e-08 1.0244775e-08 1.0915274e-07 9.926967e-08
8.280557e-08 5.014559e-08 1.0672461e-07 2.6278312e-07 2.9269754e-07 2.5771993e-07 8.480098e-08 9.805385e-08
2.0804902e-07 3.071669e-07 4.939302e-07 5.713709e-07 4.6651273e-08 8.0698335e-08 2.3564994e-07 5.1045955e-08
4.270415e-07 4.922844e-07 5.2618415e-08 3.4987142e-08 3.2473462e-08 4.6498513e-08 1.397793e-07 1.3757251e-07
3.7873156e-07 1.4719106e-07 3.1913228e-07 2.4608332e-07 7.165905e-07 5.341248e-07 4.0302023e-08 3.7159698e-08
1.04137385e-07 5.5901303e-08 2.1714806e-07 1.7378882e-07 2.1123563e-07 1.5636842e-07 1.2939913e-07 2.1740443e-07
5.5174576e-07 2.6160416e-07 9.4424486e-08 9.054488e-08 3.758817e-08 2.0156708e-08 1.8694777e-07 1.857373e-07
7.940129e-08 1.4733514e-07 4.312719e-08 9.843769e-08 1.8089963e-07 1.3541647e-07 8.520433e-08 1.0598653e-07
6.1019364e-08 2.7476174e-08 1.362027e-07 1.7300786e-07 7.461859e-08 1.2195396e-07 6.0299385e-08 1.5665162e-07
2.0528343e-07 1.1237535e-07 1.02977204e-07 8.708918e-08 4.138471e-08 3.1587152e-08 2.1689063e-07 2.0496685e-07
3.2372064e-08 6.3494774e-08 6.9188544e-09 3.2380154e-08 1.0424956e-07 8.9758295e-08 2.2730862e-07 1.0927228e-07
1.0295993e-07 1.5134651e-07 2.9473586e-07 1.9508526e-07 8.5700684e-08 7.990917e-08 7.7726526e-08 3.0034354e-08
2.4518775e-07 2.1127101e-07 7.5351664e-08 8.7227015e-08 2.9810298e-07 3.1161034e-07 5.4490147e-07 3.8054023e-07
8.412939e-09 3.7429853e-08 3.395343e-07 8.90699e-08 4.1599688e-07 5.197457e-07 1.818094e-08 7.4451194e-08
3.9184034e-08 1.13181756e-07 1.7346585e-07 1.4682381e-07 3.0285662e-08 1.2047128e-08 4.3035047e-09 1.5697996e-09
1.09524855e-07 1.0760914e-07 8.502078e-08 5.4120964e-08 2.9382216e-08 8.521616e-08 1.6725032e-07 1.6053448e-07
5.164322e-08 6.520034e-08 1.5588604e-07 2.6674695e-07 3.7205905e-07 2.561627e-07 6.697675e-07 6.9989744e-07
3.6896768e-07 4.5983364e-07 8.927173e-07 9.449579e-07 4.9835243e-08 7.986869e-08 3.5289077e-08 1.1338364e-07

exp_avg f4 [128]
00000000: 587e 0ab8 114d d9b7 1138 2438 80e6 3138
00000010: 3b06 ed38 66c5 52b9 7257 d1b8 b8ab 80b9
00000020: 31e0 99b8 9be7 b1b7 3da8 7fb8 7586 5138
00000030: d364 3ab8 b845 f0b8 0d49 00b8 189e a638
00000040: ace1 dd38 5a48 a636 8b39 a4b9 1616 40b9
00000050: 29f0 bdb8 3e16 55b9 ce17 8438 d966 a4b8
00000060: cf73 8fb9 adc8 f0b8 77e7 acb9 ea31 10b9
00000070: 8d23 adb7 115e 8f35 7f2f 6fb8 c3bd 0cb9
00000080: e2a9 5b37 2a66 f4b8 952d a2b7 271b f7b8
00000090: 77f7 5bb8 99b5 0639 c1cf 6eb9 4d02 4bb9
000000a0: 4abe b4b8 f0ee 4e38 97a4 f338 9181 e3b8
000000b0: 1b4a 20b9 6446 4c38 6f99 71b9 b2cc 6db9
000000c0: 4d2c f5b8 73df c3b7 d76d ab38 2c39 68b8
000000d0: 1bb9 3eb9 f631 cbb9 c7a1 c5b9 fc6a 97b9
000000e0: 2710 e4b8 eea5 ab38 b787 22b9 c08f 7ab8
000000f0: ed17 86b6 34b2 3fb9 c617 2f38 209d 3db9
00000100: 4b32 c5b8 362b 71b8 a23a e3b8 dddf b6b9
00000110: d14f bab8 72f6 31b9 a1ab 0b39 a291 9537
00000120: cf43 70b9 dc05 18b9 c1fa 64b8 1a90 87b9
00000130: 4f68 85b9 6102 20b9 c065 54b9 2e3b b938
00000140: 8de6 1cba c882 4c39 af98 9cb9 53d3 beb8
00000150: d251 04b9 388f 2439 9a78 06b7 8f63 3cb8
00000160: 1674 05b9 b074 dab8 56fc bcb8 e2b1 3238
00000170: 5040 f3b9 c4d8 80b9 9119 68b8 a616 12b7
00000180: 7121 08b9 2603 91b9 63fb 8fb7 230c ecb8
00000190: fbb6 f9b8 8be4 f138 2d0b b837 9b89 68b9
000001a0: 6cd4 d7b8 5ca5 a437 af5e 9e38 7dfc 0837
000001b0: dc16 0b38 2646 f0b8 8544 e1b8 8018 acb9
000001c0: 3b9c 9c37 9230 9138 a16c 12b9 02f8 4bb9
000001d0: a72e 84b9 a57b 0cb9 0543 3fb9 ed4e c5b8
000001e0: 0a2e 33b9 6b1b f137 2fb2 7c37 e21b 4eb9
000001f0: 5fbd 4538 0a29 15b9 2edb e0b8 5452 9f38
-3.301943e-05 -2.5904303e-05 3.9152863e-05 4.241476e-05 0.00011302201 -0.00020100697 -9.9821846e-05 -0.00024542003
-7.3373674e-05 -2.1207894e-05 -6.095342e-05 4.9954706e-05 -4.4439756e-05 -0.00011457078 -3.0585612e-05 7.944944e-05
0.00010580136 4.9556083e-06 -0.0003132339 -0.00018318775 -9.0569556e-05 -0.00020321549 6.2986845e-05 -7.839286e-05
-0.0002736137 -0.000114814706 -0.0003297885 -0.00013751505 -2.0639762e-05 1.0681707e-06 -5.7026275e-05 -0.00013422132
1.3092971e-05 -0.00011653856 -1.933313e-05 -0.00011782935 -5.244414e-05 0.00012846886 -0.00022774843 -0.00019360446
-8.618513e-05 4.9336755e-05 0.000116178 -0.00010848337 -0.00015286396 4.8702947e-05 -0.0002304071 -0.00022678336
-0.00011690762 -2.3349863e-05 8.174375e-05 -5.5366356e-05 -0.00018188769 -0.000387564 -0.00037695302 -0.00028880674
-0.00010874896 8.184822e-05 -0.00015500082 -5.9738522e-05 -3.9962965e-06 -0.00018281565 4.1745392e-05 -0.00018082978
-9.40306e-05 -5.749912e-05 -0.00010835125 -0.00034880536 -8.884038e-05 -0.00016971843 0.0001332001 1.783e-05
-0.00022913444 -0.00014498032 -5.459297e-05 -0.0002585657 -0.00025445453 -0.00015259675 -0.000202558 8.8325105e-05
-0.00059852825 0.00019503676 -0.00029868397 -9.099268e-05 -0.00012618981 0.00015693612 -8.015102e-06 -4.4915414e-05
-0.00012727114 -0.00010416785 -9.01154e-05 4.2604173e-05 -0.00046396488 -0.00024575565 -5.533692e-05 -8.707551e-06
-0.00012982429 -0.000276589 -1.716399e-05 -0.000112556176 -0.00011907328 0.00011534345 2.1939713e-05 -0.00022176506
-0.000102915656 1.9627325e-05 7.551663e-05 8.165019e-06 3.3161472e-05 -0.00011457158 -0.00010741599 -0.0003282465
1.86694e-05 6.923186e-05 -0.00013964112 -0.00019451979 -0.0002521176 -0.00013397502 -0.00018240146 -9.408393e-05
-0.00017087921 2.8742206e-05 1.5061857e-05 -0.00019656078 4.7144826e-05 -0.00014225036 -0.00010721978 7.5970456e-05

exp_avg_sq f4 [128]
00000000: 83a4 6333 d81e df34 3d55 9834 445f db33
00000010: 88f3 b334 c2e2 3034 504f fc34 61b2 4535
00000020: eac7 0635 3aea 3135 3222 3135 ee7d 9934
00000030: 3462 1734 8cf4 2735 a816 a733 afd4 1b34
00000040: c2d1 df33 0e14 8e34 c3ed 2135 1cfe 2c34
00000050: 1746 df34 e8ce 6935 c96a 3235 5edb 6434
00000060: 4249 8735 fb33 a634 39f3 2735 bd54 a234
00000070: 088c 8e34 1219 7a34 c5b8 8734 197f ae34
00000080: 4259 2934 8525 d434 d541 c434 7089 4135
00000090: 925e 3b35 0790 8634 6766 2734 45d3 8034
000000a0: 54f4 0335 cf6d ce35 ff24 9134 fb02 cd34
000000b0: 2ed5 3f35 479d ef34 fe85 1235 3237 5935
000000c0: c093 8f35 a68b 9734 c430 2335 1a5c 8a34
000000d0: 14b7 4d35 8c7b 0335 7305 7435 d0f5 1935
000000e0: 7482 c034 66c0 af34 dad0 df34 c57f 9c34
000000f0: cb20 af34 9399 3135 5db4 aa34 34a3 5a35
00000100: ff27 0835 a89b a034 2509 c634 afe5 2c35
00000110: 3c93 8334 36b7 1835 843a 3b35 ac5e 4134
00000120: efcf 2035 826d b134 b429 9135 a8a7 d634
00000130: 9132 fa34 ec94 9335 e580 f334 51b6 5934
00000140: 1bb8 cb35 897f 9235 404c 0635 b421 d535
00000150: f67a b934 a4a3 9634 0471 4535 de19 2635
00000160: 8051 8f33 ddca c434 2fec 9135 5109 5d35
00000170: 3023 0d35 94ee 1235 e9e7 7534 4aaa c334
00000180: 4201 7034 5f6a 9d34 e698 9034 16d5 9d35
00000190: e2df 0b35 676e a734 accb e833 64d0 9d34
000001a0: 019e 4535 f86c 1334 598d 6f34 71fc 2735
000001b0: 8fa9 a935 d04e 3c35 16d6 4735 2ab2 bb35
000001c0: f840 1e35 c538 3735 a8bc 9534 a7bf 3b35
000001d0: b66e 6534 7fea 1d35 1416 fe34 0fda 8835
000001e0: 636f c334 9d33 0735 a7a4 8d35 1198 9335
000001f0: a936 8334 eaf2 3e34 5a55 4635 e9bd 3a34
5.300218e-08 4.155943e-07 2.8374225e-07 1.0215311e-07 3.351854e-07 1.6473771e-07 4.6996365e-07 7.3647794e-07
5.0209803e-07 6.627848e-07 6.59874e-07 2.8590097e-07 1.4098697e-07 6.256821e-07 7.780665e-08 1.4512874e-07
1.04224014e-07 2.6464153e-07 6.032316e-07 1.6111193e-07 4.1587984e-07 8.710035e-07 6.646556e-07 2.131396e-07
1.0079605e-06 3.095773e-07 6.2566284e-07 3.0236507e-07 2.6551447e-07 2.3292185e-07 2.5280147e-07 3.25025e-07
1.5771823e-07 3.9515376e-07 3.6555744e-07 7.20981e-07 6.9800546e-07 2.506424e-07 1.5590341e-07 2.3995577e-07
4.9156847e-07 1.5380155e-06 2.7035273e-07 3.8186394e-07 7.146326e-07 4.4631653e-07 5.458422e-07 8.091912e-07
1.0697331e-06 2.822755e-07 6.0793195e-07 2.5771516e-07 7.6634865e-07 4.898109e-07 9.0905013e-07 5.7354646e-07
3.5857704e-07 3.2736278e-07 4.1688946e-07 2.915023e-07 3.262015e-07 6.616112e-07 3.17962e-07 8.144882e-07
5.072215e-07 2.9915577e-07 3.6887027e-07 6.4409227e-07 2.4507779e-07 5.689102e-07 6.974808e-07 1.8008967e-07
5.990723e-07 3.3048497e-07 1.0815479e-06 3.9982592e-07 4.660292e-07 1.0995695e-06 4.535606e-07 2.0276026e-07
1.517826e-06 1.0914965e-06 5.002985e-07 1.5879546e-06 3.45484e-07 2.8058741e-07 7.355268e-07 6.187746e-07
6.673781e-08 3.6655447e-07 1.087208e-06 8.234247e-07 5.25778e-07 5.4736415e-07 2.2901772e-07 3.6445482e-07
2.23522e-07 2.9320924e-07 2.6933338e-07 1.1759428e-06 5.210733e-07 3.1186502e-07 1.08403896e-07 2.9395153e-07
7.3618145e-07 1.3730084e-07 2.2310032e-07 6.25797e-07 1.2640829e-06 7.0150145e-07 7.4444813e-07 1.3984438e-06
5.895413e-07 6.8255423e-07 2.7890678e-07 6.994182e-07 2.1367563e-07 5.8828294e-07 4.732725e-07 1.0196253e-06
3.6402625e-07 5.0366526e-07 1.0553239e-06 1.0996611e-06 2.4440422e-07 1.77835e-07 7.388495e-07 1.7391689e-07
