Scenes/ImprovedGridWorld2D/results/test-run/DroneGrid2D/DroneGrid2D-20529.pt (torch, 446624 bytes, 33 tensors)

network_body._body_endoder.seq_layers.0.weight f4 [128, 6]
00000000: 05e7 cd3e b72b f23e c2fa 7a3e e1de 4f3d
00000010: 2032 953d aaa6 c43e 2c55 ce3e 29a6 ef3e
00000020: 6c31 3b3d 2ee0 25bf 21b8 a3bd 9647 a7be
00000030: 3b7f ee3e 1bc6 6d3c 7591 72bb 2d1d c83e
00000040: d85c 3cbf dbf4 9e3e c716 40be d107 44bd
00000050: 3972 1d3e 974c 49bf 2793 973f e984 26bf
00000060: 0efe f9be 7742 9dbe 1622 273f d23c dcbe
00000070: 97b7 58bf 5757 213f 8bee 8dbe becd 1ebf
00000080: 5e8f a83d 0739 02bf c3a0 583c 1709 1dbf
00000090: 4c68 c83d 085b 293f 737f 2e3d b0a0 a53e
000000a0: 98a5 e8be 7b63 35bf cae7 bb3e ea17 4c3e
000000b0: f31b 30be c2aa 2fbe 0fbb 40be 38bb 153f
000000c0: ecbc 2f3f 229a dbbe af14 073f 94e7 c23a
000000d0: 5ae7 8e3e 8f12 1bbf 88c9 433f 60ff 063e
000000e0: 9536 ddbd 8c49 92be 50b0 2b3e 3628 a1be
000000f0: a2f3 c93e edad 313e 25d0 583e e44c 86be
00000100: 3961 adbd b5ab 48bd 972f b9be 95b1 853d
00000110: 323d 383e 36ae c13d 6c7e fe3e 6552 03be
00000120: ae39 adbd 4c5b b8bc 1fd1 21be b557 bdbd
00000130: 304d c8be 39fc eb3e eeb6 b3be 0316 313f
00000140: dbb8 0abf 4acf f6be 1d86 87bd e512 403e
00000150: cac2 cd3e df7a 07bf 86e4 b8be 9f4e a3be
00000160: da08 d03d f0f3 e3be c8b7 73be bcb3 093e
00000170: b6f2 8e3e f250 64bf e5dc 8bbe 9dd3 ef3e
00000180: a757 00bf ba1e fabe 03df 133f ced2 8abe
00000190: d7f2 833d 3637 0bbf 9c4d dbbc 475e 0d3e
000001a0: 89af 93bf de6b 643e b2aa 8cbe 37a2 9fbe
000001b0: f500 883e 5304 0a3d 8e29 47be 4179 853e
000001c0: d55b 20bf 3a90 a1be 2978 68be e412 8bbe
000001d0: 882e 2bbf 63fc 51bd ef07 4cbf b0ec 313d
000001e0: 3fcf 393e 4c7a 1ebf 12b1 36be 3a90 373e
000001f0: d9a1 6bbe 6b7c c9bd fdc7 8cbe 8821 953c
00000200: ce09 303c ec8c 0fbf fceb c0bd 10cc 243e
00000210: 62e7 093a f04b c93e 327a d1be 0f8b 593f
00000220: e5c4 0a3e 2e7a 803e 4798 1dbe 7930 253c
00000230: a3aa 65bf dd8a eabc 1fd6 22bf fd7e 18bf
00000240: b5ce 4abf a62c 13bf ab0a 0fbd 735c e23e
00000250: 5b21 86bd 2be7 0cbc cb28 7ebe 7273 5f3e
00000260: 879f bd3e 18bf 3ebe 27f2 a6be f382 fd3e
00000270: 13e5 993e 8c6a af3e 3a7e d6be 7247 b6be
00000280: ef12 113e 53f8 b0be a095 48be f3df 213e
00000290: d27d 5bbf 7f97 923e cf02 863e 9661 d93e
000002a0: 8ead 5f3f e242 9ebe 41db a73e 23a3 6bbe
000002b0: dc61 bc3e 2b4a 653e 7144 2bbe 6e26 e0be
000002c0: 9fa8 00bc 40b1 f1be 6ea0 a03e 2686 243f
000002d0: 014a 3ebe 9358 d23e 2673 36bd de04 0cbf
000002e0: 006b 803e 441f 0abf 4fb0 f3bd 70dc 003f
000002f0: 49db 8abe f469 403f 61f6 f93e 29c5 24bd
00000300: 4726 543e 6c1d d4be 2bd6 b33d 283f 92be
00000310: 2112 f7bd fb45 52be 7ea3 10be e8fb 073e
00000320: 4495 5fbd 8563 cf3e 9bf5 b53e bb28 c6bd
00000330: 64c8 543e 53d7 e3bc 0258 5ebf 971e 9fbe
00000340: 3b5c 26be f279 e43d 10b4 34bd 51ef 9ebe
00000350: 9c6f f43e ff16 82bd c528 173e 16db 71be
00000360: f0f0 4bbf 58da 7ebe 63f5 9ebe 3c25 19be
00000370: 9d24 033f fb75 f73e 6056 4dbe 8863 173f
00000380: 08df ad3e c09e 10bf 6552 733f f36f 633e
00000390: 717e 87bd 8950 c33e 971c 22bd f233 fa3e
000003a0: 9fb6 ccbc 8bda 66bc a15f 5dbd e623 b9be
000003b0: 2270 92be fb93 0d3f 6e32 c6be 0ceb 783f
000003c0: e33f bcbc d704 49bd 4a65 d4be d751 48bd
000003d0: 6890 8ebd 6b94 af3d 92a2 abbe 2c54 f3be
000003e0: 2244 b5bd 4dac 5ebe d5d9 b73d d7aa be3d
000003f0: c118 b6bd 8de5 e4bd 5f46 db3e 80bf ce3d
0.40215316 0.47298977 0.24509719 0.050749663 0.07284951 0.38408405 0.40299356 0.46806458
0.04570143 -0.64795196 -0.07994104 -0.32671803 0.46581444 0.014512564 -0.0037012969 0.3908476
-0.7357917 0.31046185 -0.18758689 -0.047859017 0.15375604 -0.7863249 1.1841782 -0.65046555
-0.4882664 -0.3071477 0.65286386 -0.43015152 -0.84655136 0.63023895 -0.27721056 -0.6203269
0.0823047 -0.50868267 0.013221922 -0.61341995 0.09785518 0.6615453 0.042602014 0.32349157
-0.45438838 -0.7085492 0.3670028 0.19930997 -0.17198162 -0.17154983 -0.18821357 0.584888
0.68647647 -0.42891032 0.52765936 0.0014870041 0.27910882 -0.60575193 0.7647939 0.13183355
-0.10801426 -0.28571737 0.16766477 -0.3147599 0.3944369 0.17351504 0.21173151 -0.26230538
-0.084658094 -0.048991878 -0.3616912 0.06528012 0.17992094 0.09457056 0.49705827 -0.128244
-0.08458267 -0.022504471 -0.1580243 -0.092452444 -0.3912139 0.46090868 -0.35100502 0.6917421
-0.5418832 -0.48205024 -0.06617377 0.18757208 0.40187675 -0.5292186 -0.3611185 -0.3189592
0.10157938 -0.44522047 -0.23800576 0.1344747 0.2791955 -0.8918601 -0.27316967 0.46841136
-0.50133747 -0.48851568 0.57762164 -0.27113956 0.064428024 -0.5438112 -0.026770405 0.13805495
-1.1537944 0.22306773 -0.2747398 -0.31178448 0.2656323 0.03369553 -0.19449446 0.26069072
-0.62640125 -0.3155535 -0.22702087 -0.2716285 -0.66867876 -0.051266085 -0.79699606 0.043438613
0.18145464 -0.6190536 -0.17840984 0.17926112 -0.23010959 -0.09838184 -0.2749633 0.018204466
0.010744525 -0.56074405 -0.094200104 0.16093469 0.0005260614 0.39315748 -0.4091354 0.8497781
0.13551672 0.25093216 -0.1539012 0.010082358 -0.89713496 -0.028630668 -0.6360797 -0.5956877
-0.7922166 -0.57490003 -0.034922283 0.44211158 -0.06549331 -0.008600037 -0.24820249 0.21821383
0.37035772 -0.18627584 -0.32606623 0.4951397 0.30057582 0.34260976 -0.41893178 -0.35601383
0.14167379 -0.34564456 -0.19588327 0.15808086 -0.8573886 0.28631207 0.26174018 0.42457265
0.873742 -0.30910403 0.32784465 -0.2301145 0.3679341 0.22391574 -0.16725327 -0.4377932
-0.007852702 -0.47205544 0.31372398 0.64267194 -0.18582918 0.41083202 -0.044543408 -0.54694927
0.25081635 -0.5395396 -0.118988626 0.5033636 -0.27120426 0.7516167 0.48820785 -0.04022709
0.20717727 -0.41428697 0.08781084 -0.2856381 -0.12064005 -0.20534508 -0.14124867 0.13279688
-0.05458571 0.40505615 0.35538945 -0.096757375 0.20779568 -0.027812636 -0.8685304 -0.31078026
-0.1624612 0.11156072 -0.044117033 -0.3104196 0.477414 -0.063520424 0.14761646 -0.23618731
-0.79664516 -0.24887979 -0.3104659 -0.1495561 0.5122774 0.483322 -0.2005248 0.5913625
0.33959222 -0.56492233 0.950476 0.22210674 -0.06615914 0.3814738 -0.039578047 0.48867756
-0.024989424 -0.014090191 -0.054046277 -0.361602 -0.28601176 0.55303925 -0.3871035 0.97233653
-0.022979682 -0.04907688 -0.41483527 -0.048906174 -0.06961137 0.0857323 -0.3352247 -0.47525156
-0.08850886 -0.21745415 0.08977095 0.09309929 -0.0889144 -0.11176596 0.42827126 0.100951195

network_body._body_endoder.seq_layers.0.bias f4 [128]
00000000: 8d47 b6ba 5b6a 3e3b 87f4 813a c4dc 113c
00000010: 9ae7 88bb 1d8c e7ba e542 cd3b a224 9c3b
00000020: 3443 d2bb c073 fd3b a916 b73b 3ee1 c7bb
00000030: 5699 943b f421 9abb 87d3 6e3b da3b eeb9
00000040: 8966 003b ad27 beb7 bcce d9bb e0ba 573b
00000050: 6bad 8d3b d5eb 5b3a 24cf 29bb a390 a83b
00000060: 3f8d adbb 0377 c43b cc93 933b 6f5a 5bbb
00000070: 1f0c b13b 1ecc f7bb 48ca 9e3b 5fce 2fbb
00000080: 6815 09bb 1a17 0abb 48cb d43b 24a9 e83b
00000090: 0a0e ecbb ed5a b93b 9b15 bb39 ebe7 d4bb
000000a0: e8f5 90ba 4c65 abbb 139c c13a 9372 66bb
000000b0: 70df 9bba 9ec9 cbbb 85bc d23a 5896 f03a
000000c0: 4425 013c 3c05 8ebb d394 383b 2c96 e03b
000000d0: ff11 06ba b559 89ba ac6b 93ba 6c20 463b
000000e0: 0e79 21bb 967d e0bb d99c 9dbb 1cc4 a538
000000f0: 4c32 743b cb3a b1bb 0743 e9bb 09c9 333b
00000100: 5e89 e13b 8409 0c3c 9dd3 9639 c7b8 ea3b
00000110: 7a34 8c3b f4ba eb3b 55f1 dcbb e3ca d9bb
00000120: 90bb dc3b db5d 213b 4594 c33b 4ba9 e7ba
00000130: a154 9a3b 78cf 86bb 7727 41bb d484 8c3b
00000140: 83e0 cd3b e7c5 a5ba 4bc3 063c a532 01bc
00000150: 516a 02bc d504 7239 bf97 aa3b 4d3a 453b
00000160: 9358 36bb da49 863b 897f f6bb 0580 2abb
00000170: d8bc c2bb cb25 f53b c3e5 a1bb 2e82 02bb
00000180: dd39 37bb 7f0c 033c 6984 73bb be7f b5bb
00000190: 342c c03b e85e 113b 7e67 bebb b71e 8838
000001a0: 4367 96bb 9a1a f83a 9d5f ddbb 5086 a63a
000001b0: eb4b 813b 6acf efba 3d96 b0bb a191 05bc
000001c0: 37f3 8fbb 51b1 bb3b 2486 c539 7bcf 41bb
000001d0: 4498 e8bb cd09 0b3c 44dc b8ba b56c 8b3b
000001e0: cdfa 253b fca5 623b 231f 30bb 10d5 e93b
000001f0: 3593 2a3b 39e2 a7bb 0461 303a 23af 8d3b
-0.0013906822 0.0029055092 0.0009914794 0.008902732 -0.0041779997 -0.0017665658 0.006264078 0.004765109
-0.0064167026 0.0077347457 0.005587418 -0.006099849 0.0045348806 -0.0047037546 0.0036441998 -0.0004543949
0.0019592366 -2.266824e-05 -0.006646959 0.0032917783 0.0043236515 0.0008389329 -0.002591082 0.005144195
-0.005296379 0.0059956326 0.0045037027 -0.003347065 0.0054030563 -0.0075621745 0.004845891 -0.0026825888
-0.00209173 -0.0021070899 0.0064939596 0.0071002413 -0.007203822 0.005656591 0.00035683517 -0.0064973733
-0.0011059614 -0.0052305814 0.0014771245 -0.0035163506 -0.0011892151 -0.006219103 0.0016077912 0.0018355353
0.00788242 -0.00433412 0.0028164878 0.0068538394 -0.0005114376 -0.0010479005 -0.0011247299 0.0030231727
-0.0024638805 -0.0068509085 -0.0048099575 7.904341e-05 0.0037261425 -0.00540862 -0.007118586 0.0027433059
0.0068828305 0.008547191 0.00028767894 0.0071631405 0.0042787166 0.0071939174 -0.006742636 -0.0066465004
0.0067362264 0.0024622593 0.005968603 -0.0017674355 0.0047097956 -0.0041140877 -0.0029472986 0.0042882953
0.0062828674 -0.001264748 0.008225272 -0.00788561 -0.007959918 0.00023080719 0.005206078 0.0030094564
-0.002782379 0.0040981593 -0.0075225276 -0.0026016247 -0.005942922 0.007481312 -0.00494072 -0.001991402
-0.0027958073 0.007998585 -0.003715778 -0.0055389097 0.0058646444 0.0022181813 -0.005810677 6.4907064e-05
-0.0045899465 0.0018928826 -0.0067557828 0.0012704823 0.0039458177 -0.0018296067 -0.0053890035 -0.008152396
-0.004393007 0.005727925 0.0003767471 -0.002957313 -0.0070982296 0.008486223 -0.001410373 0.0042549022
0.002532649 0.0034583798 -0.0026874028 0.0071359947 0.0026027684 -0.0051234034 0.00067283236 0.0043238564

network_body._body_endoder.seq_layers.2.weight f4 [128, 128]
00000000: 54f9 0f3d 8dc0 03bd a5a1 99bd 75be dfbb
00000010: 4d60 423c f2dc b73c 90b4 64bd 1d40 203d
00000020: d92e 7d3d e64b 17bd 55b7 033e c7b0 e9bc
00000030: aa13 953a 0bc4 043b 0acd f6bd a8db 963b
00000040: 5bd1 08bc fd85 31be 38fe afbb 7ac7 bb3d
00000050: d657 63bd efad f3bd 6173 353e d8eb 45bd
00000060: a6b3 aa3d eb05 183d a458 fabb be15 03be
00000070: 3539 9d3d 460e 823c 7e24 03be 46a0 7abd
00000080: e53a 1bbd 38a3 64bd a06b 553d 86dc bf3d
00000090: b8a6 1d3c 4b27 a03d 6e73 05bd ef1b a13c
000000a0: 3627 153c f8eb 26bc d73d 61bd 612b e2bc
000000b0: 56f1 03be 81ab 043e 32d4 8f3d 3530 c13d
000000c0: 1de7 fdbd f257 4a3d 57e7 b5bd 8cd9 d73c
000000d0: cdea 77be be67 1bbd 32b4 ef3c 7a29 9c3c
000000e0: ce9e fcbd f1c2 e7bc 82bf 0bbe 423c 0fbe
000000f0: c9e6 b03d 9ceb 6cbd 67d2 ee3d b5cb 9fbc
00000100: 1da3 083d 9901 6e3e d774 d6bd 63c1 78bd
00000110: 5d4f 78bd 2db8 23be 7c11 ab3d 26db 8f3d
00000120: 158f 38be 62e0 e33c f76c 0c3d 5d9a 993c
00000130: ebf0 5ebd 5f5d 3d3e da3c 68bd 3a3c d43b
00000140: 28bd 91bc 0593 81bb c38a 12bd a0e9 273c
00000150: 6a50 323d 4065 6bbd ece1 0fbd a948 073d
00000160: 6951 343e 0216 0a3d 2736 333d 2db7 e3bd
00000170: 7ddb c83d 58d1 1fbd 57e0 ef3c ad7d 043e
00000180: 0011 0abe 048e fbbd c5d1 333d 9e25 c1bd
00000190: 1962 dabc 3bcf f9bc fd80 0abe cbf7 013d
000001a0: 5d6f ac3d 20a6 20bc 3430 1cbd 29d7 fc3d
000001b0: d054 0bbc a04e 8bbc 2308 893c bf63 1cbd
000001c0: c20f 5a3e b508 e33b 40f7 2c3d 350c b4bd
000001d0: 1c54 fd3c a81d 59bd 520f babc 9d83 98bd
000001e0: f425 dabc 85eb a2bd a362 173d f997 54bd
000001f0: a6f8 3ebd de10 22bc 16ec d23d 50df 26bd
00000200: a948 cb3d e1bb 58bd 2f46 3e3d 129d c23d
00000210: 20a3 24be f2d0 a63d 6133 c33d 54fb 1dbc
00000220: 680d fa3d 8fae 9d3c 58eb 243d f129 dcbd
00000230: 5650 b83d f5cd 0ebd a255 71be 1e0d f93d
00000240: 29ae fabd adf4 503e 5147 d83d ddd2 64bd
00000250: 1460 99bd 7290 fb3d 912d 8e3d 7370 a33d
00000260: 8160 233e 4dd2 4cbe c727 163d 9a68 d1bd
00000270: 1dd7 b8bc 6b49 9a3d 75e0 413d 4671 333d
00000280: 4657 c53d 23fa 993c 27a3 33bd 68b4 debd
00000290: cd13 3abc aa1f 40bb e641 4cbd de56 4ebd
000002a0: b030 2ebd ec07 59be bbc0 f8bd 084e d73b
000002b0: 86a4 443d 8106 35bc 62b6 88bd 4d4a 433b
000002c0: dc59 c83c 42a1 f13b 42af ba3d a9d0 91bd
000002d0: ae40 253d 7f12 69bd 7cb2 0cbc fac7 30bc
000002e0: 3a26 a2bd 7de4 5e3d 0ab3 7dbd a93e aabd
000002f0: 611a 1fbe 8f6d 2b3e 44a9 d33c 5e83 41bd
00000300: c898 d23c 0fa2 31bc a49f 4cbd 101e e9bd
00000310: 85d1 b3bd 4658 1d3e 4810 f03d 025e 08be
00000320: d2cf 46be b02a 2c3c 3dd8 00be ddee 173e
00000330: 541f f73d 9ea0 33be e511 70bd d3ce 543a
00000340: 49d6 093c deee 9abc 5bec a2bc d693 a2bd
00000350: 3184 1fbe 08c3 dcbb 85db 0bbe ab7e 4abd
00000360: e879 24bd fba6 5f3d e471 203d 3fc8 713d
00000370: 9ff2 54bd ab23 883c 54bf e43a 4b73 82bd
00000380: 605c 2b3e 96ac 3b3e 4ae3 7bbd 38b6 aabc
00000390: ee2b d03d 79a8 45bd 5685 0dbc 8bc0 953d
000003a0: 519a babd f295 e93b 07da c53d 8eb4 ff3c
000003b0: cf12 3abd 15f0 ea3d 1682 b73d 2c92 2dbd
000003c0: 9926 8fbd 7f16 f43d f6ae 07be eb27 93bd
000003d0: 126c 733d 7c66 5cbd 1b64 d5bd b4d2 003d
000003e0: 0e9c 713d 74ec 773d 9c81 5b3d 92f5 cebd
000003f0: 348f 893d 2a35 cb3c cb95 443e 8640 303c
0.035149887 -0.032166053 -0.075015344 -0.006828124 0.01186378 0.022444222 -0.05583626 0.039123643
0.061812256 -0.036937617 0.12862904 -0.028526677 0.0011373658 0.0020258452 -0.12050827 0.004603822
-0.0083506955 -0.17336269 -0.0053708814 0.091689065 -0.05550369 -0.118984096 0.17719795 -0.04832062
0.083350465 0.03711502 -0.0076399613 -0.12801263 0.07676927 0.015875947 -0.1280689 -0.061188005
-0.037897963 -0.05581972 0.052104592 0.093682334 0.009622268 0.078199945 -0.032580785 0.01966664
0.009103587 -0.010188095 -0.054990616 -0.027608575 -0.12885031 0.12956049 0.07022895 0.09433023
-0.12397597 0.049400277 -0.08882015 0.026348852 -0.24210663 -0.037940733 0.029260729 0.019062746
-0.12334977 -0.028291197 -0.13647273 -0.1398783 0.08637769 -0.057841882 0.11661225 -0.019506315
0.033358682 0.23242797 -0.10471504 -0.060731303 -0.06062256 -0.15988226 0.08352944 0.07024221
-0.18023331 0.027816955 0.034283604 0.018750364 -0.054428976 0.1849265 -0.056698658 0.006476906
-0.017790392 -0.0039542937 -0.035776865 0.010248572 0.04353372 -0.057469606 -0.035127565 0.03302828
0.1760918 0.033712395 0.043752816 -0.111189224 0.09807489 -0.039018005 0.029281778 0.12938567
-0.13483047 -0.12282947 0.043901224 -0.09431003 -0.026658105 -0.030494323 -0.13525768 0.031730454
0.08419678 -0.009805232 -0.038131908 0.12345726 -0.008504108 -0.017005265 0.016727513 -0.038181063
0.21295074 0.006928528 0.042227983 -0.08791391 0.030923896 -0.053006798 -0.022712383 -0.07446978
-0.026629426 -0.07955078 0.0369593 -0.051902745 -0.04662385 -0.009891717 0.10298936 -0.04074031
0.09925968 -0.05291355 0.04645365 0.09502615 -0.16077852 0.08145322 0.09531284 -0.009642441
0.12209588 0.019248275 0.040263504 -0.10750187 0.08999698 -0.034864385 -0.23567823 0.12160705
-0.1224025 0.20405836 0.105604775 -0.055865157 -0.074890286 0.1228341 0.06942285 0.07980432
0.15954782 -0.20002098 0.03665903 -0.10225029 -0.022563512 0.075335346 0.0473332 0.043809198
0.09635787 0.018796032 -0.043856766 -0.108742535 -0.01135726 -0.0029315748 -0.049867533 -0.05037581
-0.0425269 -0.21194428 -0.121461354 0.0065705813 0.048008464 -0.011048914 -0.06675412 0.0029798925
0.02445691 0.0073739598 0.09115459 -0.07119877 0.040344886 -0.056902405 -0.008587476 -0.010789866
-0.079174474 0.054417122 -0.061938323 -0.08312733 -0.15537407 0.16741012 0.025837548 -0.047244422
0.025707617 -0.01084186 -0.049956933 -0.11382687 -0.08780197 0.15365705 0.117218554 -0.13317111
-0.19415215 0.010508224 -0.12582488 0.14837213 0.12066522 -0.1754174 -0.058610816 0.00081179774
0.008412906 -0.018912729 -0.019888094 -0.07938354 -0.15577771 -0.0067371167 -0.13657959 -0.049437206
-0.04015532 0.054602604 0.039171115 0.05902886 -0.051989194 0.01661857 0.001745204 -0.06369647
0.16734457 0.18327555 -0.061496057 -0.020838842 0.10164629 -0.04825637 -0.008637747 0.07312115
-0.09111465 0.0071284706 0.09660726 0.031214025 -0.045428094 0.11471573 0.08960359 -0.04237573
-0.06989784 0.11918353 -0.13250336 -0.07185348 0.059429236 -0.053808674 -0.10419484 0.031450942
0.058986716 0.060528234 0.053590402 -0.101054326 0.06716767 0.024805624 0.19197766 0.010757571

network_body._body_endoder.seq_layers.2.bias f4 [128]
00000000: 689f 723b 955f acbb 93ae c3bb 0e40 c53b
00000010: 900e 0d3b f546 02bb a2a5 91ba 0498 cc3a
00000020: 40b1 73bb 74a3 03bc 13fa 26ba a288 c6bb
00000030: fc5e 023c d203 eebb 76b8 e03b 6f08 ebb9
00000040: 280e 033c e7f7 ba3b da0b 393a aed0 e0bb
00000050: 5b94 0b3c 4594 9f3b 6ea1 8f3b dc30 b637
00000060: 976f eb3a 4f3f 033c 2a5b 0bbb 26f2 9e3b
00000070: dd27 fe3b 15cc b63b 1a90 b53b ae87 e33b
00000080: ff76 dcb9 b04c e43b 6f8e 90bb b61c b73a
00000090: 6ebf 023c ee42 d834 657e 433b c6ab e9bb
000000a0: 04a9 b1bb 49db ea3b 64e9 833b 7540 c13b
000000b0: e3cb e43a f449 dfbb 3fb7 e5ba be75 8c3a
000000c0: ccfb ca3b 837b d1bb 3192 3e3a 3f70 82b9
000000d0: f251 d5bb f565 a13b 7594 d9bb ae39 013c
000000e0: 4998 0a3c be45 b1bb 4632 00bb b35d a53b
000000f0: fd54 b23b 4a72 ceba 0ec8 ac3b 6beb 693b
00000100: c12f 533a ff14 e93b e081 d03a 8ff3 ca3b
00000110: 8bad 91ba 2e1f 023c 4453 443b df19 adbb
00000120: 46b0 80b8 2e2c 9e3b f93f fbbb 093b f7ba
00000130: 0e12 9bbb e873 b5bb 085f aabb a9c2 013c
00000140: d14d f53b 5a5d efba aa34 e93b 758e 88bb
00000150: 4060 edb9 0c3b 9dbb 1a55 2a3b f60d 92bb
00000160: f3ad 9cbb dc92 8cba 24fe f7bb 171c 72b9
00000170: bacc f1bb c3b7 ef3b 4a66 a7bb 8059 973b
00000180: 3392 15bb bb6c 283a 28d1 a8bb 4d5a efbb
00000190: 1ac6 7abb 64c1 fbbb be78 a93b ce1b b7bb
000001a0: 0ece 023c f22b c5bb 7fbd 5f3b bd1a 083b
000001b0: 0e73 ab3b c42d a5bb fccc d6bb bfaa 9a3b
000001c0: 37a4 efbb bebd 79bb a047 f53b cc06 c3bb
000001d0: 81f3 c53a 6a26 fdbb 16a0 413a 85ff 823b
000001e0: 48e2 073c f888 a1bb dcc5 a9ba 06b7 b73b
000001f0: 23da 963a 5f54 05bc 6eea fc3b 1c37 f2bb
0.0037021283 -0.0052604177 -0.0059717386 0.006019599 0.0021523573 -0.001987872 -0.0011111984 0.0015609269
-0.0037184507 -0.008034576 -0.00063696614 -0.0060587684 0.007957216 -0.007263639 0.006857927 -0.00044828976
0.007998981 0.005705822 0.0007058956 -0.006860814 0.008519257 0.00486997 0.0043832576 2.1718843e-05
0.0017962334 0.008010699 -0.0021264055 0.0048506437 0.007756217 0.0055785277 0.00554086 0.0069436645
-0.0004205033 0.0069671497 -0.0044115107 0.0013970349 0.007980211 4.0281833e-07 0.0029829976 -0.0071310727
-0.0054217596 0.007167254 0.004025625 0.0058975765 0.0017455783 -0.006814236 -0.0017525925 0.0010716242
0.0061945673 -0.0063928976 0.0007269709 -0.00024879162 -0.006510013 0.0049254843 -0.006640012 0.007887287
0.008459159 -0.0054099252 -0.0019561215 0.00504657 0.0054422603 -0.0015750614 0.005272872 0.0035693299
0.0008056127 0.0071130986 0.0015907846 0.006193585 -0.0011114342 0.007942004 0.0029956857 -0.005282625
-6.136349e-05 0.004827044 -0.0076675382 -0.0018862198 -0.004732377 -0.0055374987 -0.005199317 0.007919946
0.007486083 -0.0018262074 0.0071168737 -0.004167373 -0.00045275874 -0.0047982987 0.0025990666 -0.0044572307
-0.0047814786 -0.001072492 -0.0075681377 -0.00023089383 -0.0073791416 0.0073156073 -0.0051086294 0.0046188235
-0.0022822737 0.00064248935 -0.0051518865 -0.007304466 -0.003826505 -0.007682966 0.0051718643 -0.0055880314
0.007983698 -0.0060172016 0.0034140048 0.002076789 0.0052322214 -0.005040856 -0.0065551978 0.0047200616
-0.007313277 -0.003810748 0.007485345 -0.005951738 0.0015102477 -0.0077255266 0.00073862204 0.0039977455
0.008293696 -0.004929658 -0.0012952643 0.005606535 0.0011509102 -0.008137791 0.007718376 -0.0073918235

action_model._discrete_distribution.branches.0.weight f4 [5, 128]
00000000: cb93 f63b b185 8f3c b224 ecba d976 94bb
00000010: c59b 18bc 985c 11ba 9905 81bc 9306 e43b
00000020: 1c8d 13bc 3031 c1ba 0a2a 5abc 1ef0 f23a
00000030: 16dc d23b 36dc 35bb 93d4 1dbb e22b 5c3a
00000040: 8a2a 76bb 1a2b 2dbc 59f1 833c d849 673a
00000050: 6422 973b 6c0e d93b c759 db3b e7cf b73a
00000060: c869 173c 8436 f93b 2b9f 653b e891 e1bb
00000070: 22b8 cfbb e48b aebb 10f7 b93b d674 8f3a
00000080: e7c4 3d3c dc20 07bb eb47 02bc c1ba 463c
00000090: 60d0 ffba 28f2 0cbc d54c 09bc 3fd8 7bbc
000000a0: ab55 c0ba 66f9 10bc c500 e3bb 03b5 01bc
000000b0: f8aa fdbb f0bf 883c 2110 19bb e53c 9c3c
000000c0: feda a73a 8a90 5dbc 2972 15bc 2d65 2b3c
000000d0: ab29 16bc 9388 b5bc 554b f7ba 6573 b23b
000000e0: 35f2 f8b9 42c5 4dbb 6552 8939 6ca2 c7bb
000000f0: b914 97bb 6a10 1ebc 725a 56bb a701 b13c
00000100: aa7a 78bc 89f7 02bc 3401 3d3c bb77 24bb
00000110: e247 a63b 66a5 48bb 7747 efbb d540 4f3b
00000120: 615e acbb 6e64 dabb 8ae1 bb3a 0629 9bba
00000130: bcec 3cbb c9c8 39bb 6e7c 593c b58f a5ba
00000140: c4f4 4fbc 97e8 fcbb c89c c23c f08e 2b3b
00000150: def6 a0bb aecc dcb9 8d7a 22bc bccc bbba
00000160: 96e2 083c 51be a5bc d797 a5b8 0bdd 0dbb
00000170: feea 3b3b a97d 063c 0d19 26bc b7dd 6b3b
00000180: a379 fdbb 76a2 103c a903 94bc 1721 c93b
00000190: 48bb 7cbc 3c60 29bc bfba b4b9 50d7 883a
000001a0: 766f 46bc da56 dfb8 0074 96bc 8a83 7c3b
000001b0: 893f 74bc c3b3 243c 2542 d93a 4097 473c
000001c0: a877 3dbb 3640 f83a da3f fcbb 3bf0 2f3c
000001d0: 560d 2dbc c0aa 7dbb d515 edbb f845 a3ba
000001e0: 1f18 233c c2e3 99bc 3956 ee39 f333 78bc
000001f0: 0170 073c 0fa1 cd3b 34d4 bd3a e483 a93a
00000200: cb92 173a 6a1d 0fbc 8244 30bc 5608 843c
00000210: c266 70bb eb51 4cbc 833b cbba 547c 2c3c
00000220: 75b3 dabb a616 a2bc eb54 1dbb 995e 3fbc
00000230: 95ec 203c bef5 56bc 36c2 9c3c c83a 46bc
00000240: 9190 ab3c 28c5 353c 3380 63bb 22ce 543b
00000250: db9e 0b3c 51eb 923c e3c8 da3a 0451 03bc
00000260: 56ec 433b 8a4e 473c 2a99 9bba 78a8 203c
00000270: 635f 953c 932e 843c 0efd 553c 5c82 9a3c
00000280: 017c 093b 9044 b8bb dd2f b7bb 8652 66bb
00000290: 983c a73c d5ed 563c 038e df3b ed00 58bc
000002a0: b502 69bb 5a27 a93c 4ec3 a53b a509 ae3b
000002b0: 59cb 683c 047c 5abc ceb5 b73b 17af a43b
000002c0: be80 073c 195e 80bc 8c3b 58bc f1ce 073b
000002d0: d155 0fbd 01b8 1f3c 72f9 eabb c918 993c
000002e0: 2313 093b c42a 7dbc af72 f9b9 ac9c de3a
000002f0: 2824 5e3b af4f a4ba 0ec8 d13a 473b 96bb
00000300: 24cb 83ba c320 8d3c 1781 c1bb b2e9 6a3c
00000310: 3f0a ecbb 0154 3c3c 2c74 0b3c 6176 d1bb
00000320: c1c4 0c3c 4115 40bb 7dac cfbc ba82 e73b
00000330: 94d5 f6bb dbdd 303a fdd5 e8bb 36d8 183c
00000340: 9eac d13c f823 d2bb d8a0 1f3c ce94 97bc
00000350: bc27 58bb b443 82bc eccd 7c38 353f b13b
00000360: 3b04 4dbb 720c 94ba fb98 fab9 c613 093a
00000370: 052d e23b c205 663c 2c1e 73b9 2f85 323c
00000380: fb12 abbb 0806 44bc d35d 4fbc c78b 50bc
00000390: 96c0 84bb ad37 3ebc 2369 53bb 934c de3a
000003a0: 4e47 d93b 62ee e5bb 8c75 0e3c 0f4b 073b
000003b0: eacd e93b a611 9bbc 1d90 80bc fd8c 2b3b
000003c0: 2c4a 8dbb d8c3 c5bb 2199 873c dff3 98bb
000003d0: 59a6 0c3b ed2a 5bbc 04fc 07bb a1e6 a13b
000003e0: f2f7 893c 46dc 83bb 1d4f 7bbc 00ff 3fbb
000003f0: 90e7 d63a 7a80 f2ba bcfe 823c 6037 34bc
0.0075249425 0.017519804 -0.0018016307 -0.0045307693 -0.009314482 -0.00055451086 -0.01574974 0.0069587915
-0.009005811 -0.001473939 -0.013315687 0.0018534695 0.0064349277 -0.0027749664 -0.0024083003 0.0008398873
-0.0037561976 -0.010569358 0.016106294 0.0008822954 0.004612254 0.0066240337 0.006694052 0.0014023752
0.009241529 0.0076053757 0.0035037498 -0.0068838485 -0.006339089 -0.005326735 0.005675204 0.0010944854
0.01158259 -0.002061895 -0.007951717 0.012129487 -0.0019517057 -0.008602656 -0.008380135 -0.015371381
-0.0014673969 -0.008848524 -0.006927582 -0.007916692 -0.0077413283 0.016693085 -0.002335556 0.019072006
0.0012806354 -0.01352323 -0.009121456 0.010461134 -0.009165208 -0.02215985 -0.0018867055 0.005445885
-0.00047482704 -0.0031398092 0.00026192065 -0.0060923602 -0.0046106246 -0.009647468 -0.0032707718 0.021607233
-0.015165964 -0.007993587 0.011535931 -0.002509578 0.005074487 -0.0030616163 -0.0073022204 0.0031624336
-0.0052602743 -0.006664804 0.0014334184 -0.0011837787 -0.0028827628 -0.0028348437 0.013274295 -0.0012631329
-0.012692634 -0.0077181566 0.0237564 0.0026177727 -0.0049122414 -0.00042114168 -0.009916914 -0.0014327983
0.008354804 -0.020232351 -7.8960955e-05 -0.0021646644 0.0028674002 0.008208671 -0.0101378085 0.0035990307
-0.0077354475 0.008827796 -0.018068152 0.006137978 -0.015425511 -0.0103378855 -0.00034471412 0.0010440145
-0.012111535 -0.00010649646 -0.01836586 0.0038530552 -0.014907726 0.010052624 0.0016575499 0.012182057
-0.0028910432 0.0018940035 -0.0076980414 0.010738428 -0.010562262 -0.0038706511 -0.0072352686 -0.0012456765
0.009954481 -0.018785361 0.00045459138 -0.015149104 0.00826645 0.006275303 0.0014482797 0.0012932983
0.0005782067 -0.00873504 -0.010758521 0.016117256 -0.0036682342 -0.012470703 -0.0015505407 0.010527689
-0.006674225 -0.01978619 -0.0024006914 -0.011680269 0.009822031 -0.013120113 0.019135576 -0.0120989755
0.020942958 0.011094369 -0.0034713864 0.0032471498 0.008521761 0.017934473 0.0016691949 -0.008014921
0.0029895506 0.012164721 -0.0011871208 0.009805791 0.01823396 0.01613549 0.013060821 0.018860988
0.0020978453 -0.0056234077 -0.0055904225 -0.0035144403 0.020414636 0.013118227 0.006822349 -0.0131838145
-0.0035554592 0.020648647 0.0050586825 0.0053112083 0.014208638 -0.013335232 0.0056063896 0.005025755
0.008270441 -0.01566987 -0.013197791 0.0020722712 -0.03499395 0.00974846 -0.0071708495 0.018688576
0.0020915947 -0.015452091 -0.00047578427 0.0016983948 0.0033896063 -0.0012535955 0.0016005056 -0.004584703
-0.0010055047 0.017227536 -0.0059052813 0.014337944 -0.00720337 0.0114946375 0.008511584 -0.0063922857
0.008591832 -0.0029309543 -0.025350804 0.0070651444 -0.0075327847 0.0006746926 -0.0071055875 0.009328892
0.025595006 -0.006412979 0.009742938 -0.018503573 -0.0032982668 -0.015901424 6.027326e-05 0.005409146
-0.003128304 -0.0011295213 -0.00047797695 0.0005229082 0.0069023394 0.014039459 -0.00023185526 0.010896011
-0.0052207685 -0.011964329 -0.012656647 -0.012728638 -0.0040512783 -0.011609954 -0.0032258711 0.0016960077
0.0066308146 -0.007016943 0.008695018 0.0020644104 0.0071351426 -0.018929314 -0.015693719 0.0026176565
-0.0043118205 -0.0060353093 0.01655251 -0.0046677436 0.0021461456 -0.0133769335 -0.0020749578 0.004940823
0.016841862 -0.0040240614 -0.015338686 -0.002929628 0.0016395915 -0.0018501424 0.015990607 -0.010999531

action_model._discrete_distribution.branches.0.bias f4 [5]
00000000: 14b1 28bb 149a ed3b 04ad e5bb ad18 f039
00000010: d1e4 54ba
-0.0025740312 0.0072510336 -0.0070091505 0.00045794752 -0.00081212545

exp_avg f4 [128, 6]
00000000: 776a 3835 aa62 2f36 4449 5436 6263 c236
00000010: fa65 a0b5 d526 2936 fc9b 8ab6 ffaa 9db7
00000020: b63f 4eb7 c6dd 6db6 cf4e afb6 c0ee 6d37
00000030: e5d1 b0b6 9315 6ab7 ba4a 04b7 6bee 0db6
00000040: cf56 9335 9d41 3036 90b3 1cb6 9bb6 bcb7
00000050: 1a5b 06b8 a798 89b5 447f 46b8 ba26 3538
00000060: b31e d035 154f e735 f9be bc36 6a6a b735
00000070: 70bb 6f36 e1d4 7cb6 531c c9b5 8cb0 b5b5
00000080: d023 2eb6 b4a2 82b6 db82 aeb6 ac8c ba36
00000090: 005b 2535 6108 97b7 7816 bab6 3734 9336
000000a0: ea49 1f36 200f 8c37 fa2c 3336 a706 cbb5
000000b0: 30c7 cfb6 2f45 78b6 d08a 1f37 dcde 7a35
000000c0: 96b1 c2b5 7d84 1c34 f1cc f136 fed0 fe36
000000d0: f57c 5737 a151 4ab7 5be8 c7b4 680d 4db7
000000e0: 59cf 5fb7 99f1 a336 a0f3 31b7 601e c037
000000f0: bac6 ec35 9fee e6b6 3888 13b7 6a28 c536
00000100: 8aab 3b35 b04b e536 abe6 10b4 6c9b fd35
00000110: a5e9 ce36 9b19 9236 573b 9336 6605 e1b6
00000120: 1161 0e35 d38c 94b6 bf84 b5b6 19e7 a7b5
00000130: 4e1d 48b6 a762 d136 f23e 0f35 30bb ab36
00000140: 4859 1b36 c54d 8236 057f a336 408a c0b6
00000150: 8255 6c36 df69 8736 56a0 a4b5 5b88 1eb6
00000160: 5b96 9435 8cee 2f36 2cc2 a836 2fe9 1e37
00000170: c8d6 3836 d0e3 e2b5 8b0d 0337 8571 a534
00000180: 0725 24b6 28b0 45b7 d028 a7b7 f49c 0137
00000190: 09bb 58b7 7de2 6737 8c3e fbb5 6aff 20b7
000001a0: 65d8 b132 9828 a0b6 650e d8b6 dd61 6537
000001b0: dc5b 47b5 b1b6 8e36 351c af35 bd4f 7ab6
000001c0: 91a5 8db6 1396 a0b6 f802 0836 3e5b 9536
000001d0: adf0 6eb4 47d9 13b7 3d89 5835 a13d 8b35
000001e0: 1bb0 d036 e7be ac36 b5ab 1736 831e 68b6
000001f0: 9a80 b236 3e99 1536 a048 9d35 6b86 b735
00000200: 1336 c4b5 aba8 2e35 12b8 9336 1dcd 9fb5
00000210: 0282 c3b5 db07 7b36 3828 f534 97ca ac33
00000220: cae0 bd35 1538 70b6 1632 fab5 fe35 9db7
00000230: 0cdd 9fb4 a4f7 03b7 b831 3536 3098 ec37
00000240: 56e6 2a35 3bfa c236 6d8f 8436 5a83 8cb7
00000250: 00af 36b4 e790 44b5 0bb3 ef35 d2a8 d3b6
00000260: 1bd4 01b7 552e 0f37 a1b7 1637 64aa 91b6
00000270: b7da 55b5 4179 1eb7 354b 29b6 0bc0 2bb6
00000280: d139 e4b6 f2f6 3f37 a89c 9536 620d 8537
00000290: 8fff a436 4088 a1b6 870d ba36 2133 a0b6
000002a0: 6af6 9ab5 5428 4736 056e b3b6 efb7 a933
000002b0: fb12 24b7 bc6a 1636 569a 8135 160c e135
000002c0: 248a 2137 6f30 12b6 e49f f136 84b7 66b4
000002d0: a88a 8bb5 fc60 97b6 bcd9 f0b6 00e7 52b6
000002e0: 579c 1cb7 6eb9 2537 d37b 86b5 e3e3 3e35
000002f0: e075 12b6 ad35 1eb6 a028 f735 c3fc c1b5
00000300: e61a f235 b651 ef35 a6b2 0a35 1689 a5b6
00000310: cd20 f734 1a5f 3e35 bbef 8a36 8813 7837
00000320: 4bfe c336 6a29 26b7 6122 3e36 a4d2 adb5
00000330: b087 5f36 bb85 8435 86f1 1db4 0466 04b6
00000340: 324e 7736 1bc8 d136 b252 6636 cc32 a9b6
00000350: 12e2 a7b7 1545 3836 40cf 37b7 3f94 a437
00000360: aca2 2e35 c9eb 6237 606f 9037 e7ec ccb6
00000370: 88bf 1a37 3cd5 0eb7 f461 42b6 88b8 b0b7
00000380: 7375 b8b7 107d 1435 ec2d bab7 6809 4937
00000390: 2ed4 8136 3771 3a37 c845 a436 792c eeb6
000003a0: abf5 27b5 15c7 ca35 a40d 1536 ecad c936
000003b0: 5422 c536 2c86 ed34 ad12 a936 f943 54b6
000003c0: 0de2 0fb5 aeb7 2db5 3671 f434 02ff 60b6
000003d0: 7314 eb35 a284 c6b5 4bdb cfb4 9fee db35
000003e0: 2886 e436 9872 8136 e70f 6036 2c01 feb6
000003f0: 41e2 8e36 4771 1536 059b cfb5 d522 57b6
6.870027e-07 2.6134462e-06 3.1633108e-06 5.79322e-06 -1.1950608e-06 2.5205566e-06 -4.1308795e-06 -1.8795485e-05
-1.2293391e-05 -3.5444841e-06 -5.224581e-06 1.4181889e-05 -5.2696437e-06 -1.395251e-05 -7.885212e-06 -2.1149415e-06
1.0977618e-06 2.6264236e-06 -2.335033e-06 -2.2496379e-05 -3.2032935e-05 -1.0251723e-06 -4.7325404e-05 4.318983e-05
1.5506142e-06 1.7233857e-06 5.6250688e-06 1.3665533e-06 3.5722878e-06 -3.7674838e-06 -1.498391e-06 -1.3536933e-06
-2.5948866e-06 -3.893243e-06 -5.2008377e-06 5.5596083e-06 6.159971e-07 -1.8004504e-05 -5.5458477e-06 4.38702e-06
2.373587e-06 1.6696344e-05 2.6699258e-06 -1.5126615e-06 -6.192269e-06 -3.699515e-06 9.509458e-06 9.345656e-07
-1.4505811e-06 1.4576831e-07 7.206218e-06 7.59412e-06 1.2844092e-05 -1.2059144e-05 -3.72357e-07 -1.2222074e-05
-1.3340113e-05 4.885904e-06 -1.06067455e-05 2.2902328e-05 1.7641207e-06 -6.8823133e-06 -8.793599e-06 5.8757623e-06
6.991255e-07 6.833543e-06 -1.3494962e-07 1.8895203e-06 6.166478e-06 4.35412e-06 4.3878495e-06 -6.706151e-06
5.304037e-07 -4.427138e-06 -5.409674e-06 -1.2509728e-06 -2.981938e-06 6.24017e-06 5.336325e-07 5.1179886e-06
2.3148768e-06 3.8833555e-06 4.8725656e-06 -5.7381403e-06 3.5216513e-06 4.0356385e-06 -1.2265616e-06 -2.3623204e-06
1.1070618e-06 2.6215885e-06 5.0293947e-06 9.471826e-06 2.7543156e-06 -1.6904614e-06 7.811362e-06 3.081624e-07
-2.4459457e-06 -1.178313e-05 -1.9926956e-05 7.725543e-06 -1.2918151e-05 1.3821406e-05 -1.8719161e-06 -9.596211e-06
2.0703917e-08 -4.7730973e-06 -6.4389774e-06 1.3672249e-05 -7.426695e-07 4.253198e-06 1.3046725e-06 -3.7299317e-06
-4.221402e-06 -4.7858425e-06 2.0267307e-06 4.451168e-06 -2.2253035e-07 -8.812472e-06 8.066598e-07 1.0374243e-06
6.2193844e-06 5.1482234e-06 2.26007e-06 -3.4588454e-06 5.3197846e-06 2.229193e-06 1.1718548e-06 1.3673683e-06
-1.4618876e-06 6.5065495e-07 4.40237e-06 -1.1906119e-06 -1.4566469e-06 3.7406487e-06 4.566407e-07 8.046225e-08
1.414702e-06 -3.579543e-06 -1.8641028e-06 -1.8741e-05 -2.977689e-07 -7.865867e-06 2.7000042e-06 2.820426e-05
6.366512e-07 5.810781e-06 3.9506035e-06 -1.6750466e-05 -1.7013735e-07 -7.322655e-07 1.7858996e-06 -6.3079433e-06
-7.738384e-06 8.534252e-06 8.983451e-06 -4.341173e-06 -7.9666955e-07 -9.4457655e-06 -2.5226739e-06 -2.559277e-06
-6.80166e-06 1.1441984e-05 4.458783e-06 1.5861067e-05 4.917332e-06 -4.8140355e-06 5.5448068e-06 -4.7743238e-06
-1.154561e-06 2.9676785e-06 -5.3474237e-06 7.903133e-08 -9.779581e-06 2.241387e-06 9.656167e-07 1.6767324e-06
9.628511e-06 -2.1783887e-06 7.2009734e-06 -2.1487182e-07 -1.0396661e-06 -4.511441e-06 -7.177905e-06 -3.1426898e-06
-9.334725e-06 9.87794e-06 -1.0019816e-06 7.1112134e-07 -2.1824308e-06 -2.3575078e-06 1.8414758e-06 -1.4453184e-06
1.8038234e-06 1.7830669e-06 5.1668974e-07 -4.933342e-06 4.60312e-07 7.0918907e-07 4.140629e-06 1.4786499e-05
5.8410565e-06 -9.9040135e-06 2.8332217e-06 -1.2950809e-06 3.330857e-06 9.873687e-07 -1.470963e-07 -1.9728914e-06
3.6851384e-06 6.2519807e-06 3.4320806e-06 -5.042506e-06 -2.0013224e-05 2.7458348e-06 -1.0955904e-05 1.9619356e-05
6.505677e-07 1.3525548e-05 1.7218e-05 -6.107253e-06 9.22371e-06 -8.513507e-06 -2.896527e-06 -2.1066764e-05
-2.19892e-05 5.5316286e-07 -2.2194312e-05 1.1982724e-05 3.8692006e-06 1.1112824e-05 4.8957045e-06 -7.09813e-06
-6.256984e-07 1.5108113e-06 2.221067e-06 6.010514e-06 5.875054e-06 4.4242313e-07 5.0387666e-06 -3.1630027e-06
-5.36006e-07 -6.471481e-07 4.5530913e-07 -3.3527035e-06 1.7514816e-06 -1.4790751e-06 -3.871631e-07 1.6386219e-06
6.8105473e-06 3.85784e-06 3.3387857e-06 -7.5699263e-06 4.258269e-06 2.2268666e-06 -1.5467818e-06 -3.2057771e-06

exp_avg_sq f4 [128, 6]
00000000: e438 6d2d 36d3 632d 33c5 4f2c 1989 f32d
00000010: 3c67 812d 2f4a 6d2d 53d2 202e 4939 862e
00000020: 92b4 972d dc53 ec2c d408 ac2d b2ce f62d
00000030: cdb1 142e afd7 442d 55ae c22c 9c77 c82d
00000040: a767 bc2d 190b c02d f1c8 8e2c 60f3 c42d
00000050: d277 1e2e 9321 802b 23a5 852e afbb 872e
00000060: ad42 382c b6ae 162b 16db 2b2c d53f 7d2c
00000070: 3d8e 5f2c b416 6a2c 1aef ae2b 9c16 3e2b
00000080: 6055 002c c04d 2c2c 3404 7e2c 21ec 662c
00000090: f500 d42b 81c9 722d 8f42 362c 0e96 f52c
000000a0: e2d5 7f2c 76a3 1b2d d928 d92d 836e d82d
000000b0: 146f 672c 0afb 5e2e e746 eb2d de51 dc2d
000000c0: 05c4 d12d 2f77 292c 1fbe aa2d 0400 952d
000000d0: edd3 7d2d 5758 632d b539 9c2d a37c 892d
000000e0: e8c3 0e2d 0505 882c 5814 322d f98d f12d
000000f0: eef5 492d 15d0 d02c 8f25 e42c 796c 072d
00000100: de1d ef2c 99c0 312d 9eba 6c2c 8e8d 1a2d
00000110: e777 e52c 4d32 af2d 5e54 fe2c bfee e82c
00000120: 3eb8 fd2d 8ee2 a52b 88d7 342c 9d7d db2d
00000130: 5e68 4a2d 7a31 a42d 4481 0b2c 7e5a d62c
00000140: 53b0 1e2b 6d2c 982c 863c 3b2c b26a 4f2c
00000150: c114 0e2d d174 682c 0001 542b e43d 282d
00000160: a166 b42c 73cd a62c 6f9f a22d 5b61 842d
00000170: abf6 6b2c 949a d02c 396f 812d c272 672d
00000180: 78ad 5c2c 375a b52c 9d50 b42d e6c7 b92c
00000190: 75c3 782d ff44 722d 913a 922d 2819 992d
000001a0: c5dd a728 0dfb 802e 2aa6 b62d 6305 a62d
000001b0: 1f31 072c 0462 d32b 4b33 342b 5157 a52c
000001c0: 7744 2e2c 4b2c 3d2c 9c05 cc2c 109f ac2b
000001d0: 3f14 8729 7e60 b62d 37d2 382d 3d84 1a2d
000001e0: b25d 042e f435 d52b 97bf c12c 2080 032d
000001f0: 7d64 eb2c d342 5c2d 3a53 0f2c a44e ea2b
00000200: cb94 262a d615 632c 7054 462c 694a 132c
00000210: faf0 0c2d 2e69 102c 548f 5d2b 5593 962d
00000220: 5493 b32c e00c d82c 85bb 882d fde5 772d
00000230: 29ac 1b2a 1d83 fa2d 4d8d 642d 2533 f52d
00000240: 96dd ad2b d88c 2c2c 8986 282c 9111 6c2e
00000250: 59f1 192d 2eee 152d 6fd4 772d 1c24 2a2d
00000260: e0df 542d 4e33 e82d bc5d 922d d276 ab2d
00000270: c18f 822c 5729 0e2d a475 472b 7333 0f2c
00000280: 4d65 302c eab2 a82c 91ab 092d b328 2f2d
00000290: c041 972b 0f1b 082d db48 ba2c c0d0 2c2d
000002a0: 0a7e f82c cc30 d22a 889d ab2c 897f 582b
000002b0: 861f c02c bc6c 442c 0b2f 612c 8950 f52a
000002c0: 108c 8c2c 4f6e 602b 35da 862c f7ce 852c
000002d0: 7c5b c02b e08f 082d 31af 562c 2ad4 af2b
000002e0: 7d23 6c2c a94f 9c2c d9b7 f02b 4897 962b
000002f0: d0bf ff2a bc48 c72c d594 342c 1d44 542c
00000300: 082f 0a2c 5af9 9b2b 8758 062b db97 f02c
00000310: 3401 0a2c d83d 122c 6b0d 3d2d 917b 882d
00000320: 6a08 042d 76b4 b62d 86a8 0d2d ee7b 2a2d
00000330: d9ab 682d a636 542c 233c 812a f09c 092d
00000340: 42e0 c22c 5225 f72c 59a5 012d 4d08 442d
00000350: cbe1 f12d f4ca 412d 9c9c 8a2d 472a b72d
00000360: 25c9 a329 09f5 742d 8fb8 172d 1523 0f2d
00000370: 5b5f 382d a0c6 8c2d cdff 822c 8eb3 b42d
00000380: bd85 8a2d 5184 742b 0f61 7b2d 566b 2b2d
00000390: 3ab9 cd2c f4b8 9e2c 519c 392c db73 802d
000003a0: 7884 942c 0be4 c62c 3aff 512d 8896 be2b
000003b0: c14f 012c ad91 632d a4bd f32c 0c1a 1a2d
000003c0: 9fe1 952b a523 1e2b 1a94 3a2a be39 0b2c
000003d0: db84 de2b 9156 bf2b 16bb 7d2c d548 3a2b
000003e0: eade a82c bb43 b12c 5b1c 442c be83 892c
000003f0: 5a91 032d 4fae ef2b 3f56 5f2c 1e24 2b2d
1.34845225e-11 1.2950354e-11 2.9525937e-12 2.7686785e-11 1.4711447e-11 1.3488362e-11 3.6566594e-11 6.1037904e-11
1.7246902e-11 6.7168337e-12 1.9558057e-11 2.8058753e-11 3.3809223e-11 1.11892015e-11 5.5331664e-12 2.2790485e-11
2.1419156e-11 2.1832801e-11 4.0581917e-12 2.23907e-11 3.6031463e-11 9.104266e-13 6.077474e-11 6.1724285e-11
2.6184985e-12 5.3533165e-13 2.4422179e-12 3.5988896e-12 3.1769164e-12 3.3266003e-12 1.2429808e-12 6.7532937e-13
1.8237287e-12 2.448583e-12 3.6097904e-12 3.2816044e-12 1.5063772e-12 1.380085e-11 2.5900703e-12 6.9799782e-12
3.6356408e-12 8.8470255e-12 2.4688184e-11 2.4605434e-11 3.2888735e-12 5.0699923e-11 2.6747894e-11 2.504746e-11
2.38476e-11 2.4082505e-12 1.9411193e-11 1.6939346e-11 1.4428442e-11 1.29230715e-11 1.7760774e-11 1.5630447e-11
8.115265e-12 3.8659098e-12 1.0122646e-11 2.7461576e-11 1.14801346e-11 5.9348173e-12 6.4843196e-12 7.697947e-12
6.7961045e-12 1.010405e-11 3.364121e-12 8.785318e-12 6.5218833e-12 1.9917535e-11 7.228481e-12 6.6203427e-12
2.884459e-11 1.1786837e-12 2.5699182e-12 2.4953201e-11 1.1505545e-11 1.8666613e-11 1.9824845e-12 6.0922925e-12
5.6377575e-13 4.325032e-12 2.6607896e-12 2.9475697e-12 8.076374e-12 3.303403e-12 7.531892e-13 9.563437e-12
5.127302e-12 4.740813e-12 1.848807e-11 1.5049897e-11 3.3532437e-12 5.928877e-12 1.4714995e-11 1.3156311e-11
3.1360175e-12 5.1543453e-12 2.049943e-11 5.2802094e-12 1.4140568e-11 1.3771428e-11 1.6624287e-11 1.7405258e-11
1.8636902e-14 5.865362e-11 2.0764796e-11 1.8874407e-11 1.9211922e-12 1.5019657e-12 6.402003e-13 4.699276e-12
2.4764893e-12 2.6883103e-12 5.7986515e-12 1.2265484e-12 5.9987165e-14 2.0733856e-11 1.0505866e-11 8.783249e-12
3.0096543e-11 1.5149535e-12 5.5066607e-12 7.474937e-12 6.690258e-12 1.252039e-11 2.0367722e-12 1.6648527e-12
1.4795385e-13 3.2270762e-12 2.8184365e-12 2.0931262e-12 8.011586e-12 2.0522017e-12 7.871388e-13 1.7118454e-11
5.1038427e-12 6.1405186e-12 1.5544685e-11 1.4091392e-11 1.3826496e-13 2.8479935e-11 1.2991675e-11 2.7875988e-11
1.2353892e-12 2.4520854e-12 2.3948918e-12 5.367579e-11 8.750633e-12 8.522556e-12 1.4087494e-11 9.671399e-12
1.2100515e-11 2.639813e-11 1.6639905e-11 1.9493216e-11 3.710782e-12 8.080945e-12 7.086226e-13 2.0350082e-12
2.5067338e-12 4.7947106e-12 7.825644e-12 9.956635e-12 1.0747445e-12 7.736713e-12 5.2945265e-12 9.82342e-12
7.062577e-12 3.7337353e-13 4.877602e-12 7.6915606e-13 5.460468e-12 2.7913635e-12 3.2000537e-12 4.3576625e-13
3.9945894e-12 7.973387e-13 3.832735e-12 3.803065e-12 1.3667813e-12 7.762652e-12 3.050848e-12 1.2493385e-12
3.3557317e-12 4.4426307e-12 1.7104054e-12 1.070013e-12 4.5430196e-13 5.6639953e-12 2.5662157e-12 3.0164822e-12
1.9637087e-12 1.1082621e-12 4.772922e-13 6.8380696e-12 1.9611647e-12 2.0782178e-12 1.07463856e-11 1.5516284e-11
7.5052e-12 2.0771145e-11 8.052342e-12 9.690899e-12 1.3225831e-11 3.0157348e-12 2.2956731e-13 7.8223955e-12
5.5387092e-12 7.0243056e-12 7.369516e-12 1.1143153e-11 2.74988e-11 1.10158445e-11 1.5758332e-11 2.0823466e-11
7.273547e-14 1.3924203e-11 8.6243365e-12 8.136399e-12 1.0480362e-11 1.6004365e-11 3.723222e-12 2.0543369e-11
1.5748175e-11 8.686984e-13 1.42892495e-11 9.744058e-12 5.8470147e-12 4.511164e-12 2.6376854e-12 1.4603365e-11
4.22112e-12 5.6528163e-12 1.1936946e-11 1.3542093e-12 1.8376275e-12 1.2935803e-11 6.9275297e-12 8.75967e-12
1.0649709e-12 5.6182343e-13 1.6571502e-13 1.9785141e-12 1.5810924e-12 1.3595393e-12 3.6057316e-12 6.618155e-13
4.7995956e-12 5.038162e-12 2.7869016e-12 3.9084005e-12 7.478762e-12 1.7030352e-12 3.1738082e-12 9.728244e-12

exp_avg f4 [128]
00000000: 3c4f 44b6 a379 a2b8 dc90 11b8 3f3c 61b9
00000010: d0e7 9237 7504 09b8 c6e4 b7b8 a7f9 56b8
00000020: ec1d 7838 db3f fdb8 8e8e 92b8 0fcd 2d38
00000030: 385d 79b8 a6d1 3838 a4f8 91b7 b6ed 1b37
00000040: 9bc1 82b8 74f0 ebb7 623a 0c38 f062 b0b7
00000050: af7d cfb7 6d2a 9a35 e346 ed37 16b2 f1b8
00000060: c05c 2638 ea6c 9cb8 0285 77b8 33ae 6038
00000070: 422f d3b7 9477 3e38 7680 46b8 2929 1836
00000080: de92 ccb6 abf7 0037 7186 5eb8 d9ea 10b9
00000090: c846 f038 49a9 eab8 10aa a4b5 daa5 5b38
000000a0: c51a a337 8bde 9338 0c30 4db7 a1ad 1a38
000000b0: 24f9 9237 6da8 b038 6dd6 1ab8 0ebd 86b8
000000c0: dc46 b1b8 53ad 6238 bef8 8eb8 dec2 71b8
000000d0: 3df8 d136 7cf2 4f37 ac43 e6b7 2bd0 11b8
000000e0: 6c65 5138 ee98 3c38 23ec 9436 7575 adb7
000000f0: ec0f 9bb8 c93a bd37 47a2 c538 2f88 32b8
00000100: 6047 83b8 a441 a0b8 bae8 a2b6 2d40 a9b8
00000110: 5ee3 93b7 d5c1 07b9 d29a 8838 fa16 a338
00000120: 3672 c5b8 082f 89b8 d940 50b8 a8ca 66b6
00000130: e1b0 b8b7 6439 2d38 5d92 4837 4bfa 53b8
00000140: d44e 9fb8 1adb c1b7 5afb 0fb9 c916 ac38
00000150: 1ddd b338 ca3d fb36 ab2c ddb7 a7c9 0cb5
00000160: 07a4 12b6 2c64 29b8 7b49 7a38 0864 5b38
00000170: 7e85 0838 bb1f 2fb9 a7d0 3838 4b6d 03b7
00000180: f3dc a7b5 33e7 63b8 9376 2638 abde 8b38
00000190: a5dd 42b8 4862 52b8 99ae 8136 a1ce beb5
000001a0: aefb 3938 5d68 d3b7 0d4e 6e38 bd83 b634
000001b0: f106 6bb8 d105 1c38 2674 9738 48bd 0a39
000001c0: deaf 2038 2ba2 b7b7 0b27 2eb8 735c 5537
000001d0: 0af2 ce37 97fe c3b8 ddca 1d37 3ee7 f9b7
000001e0: 18de 20b8 687d 94b7 9e39 bb37 263b 2fb9
000001f0: 681e bbb7 f850 c338 fcfe 8cb7 6c1a 81b8
-2.9252396e-06 -7.7474186e-05 -3.4705605e-05 -0.00021480116 1.7512502e-05 -3.2667496e-05 -8.7687324e-05 -5.1254083e-05
5.9155675e-05 -0.00012075874 -6.9883754e-05 4.143739e-05 -5.9453043e-05 4.406427e-05 -1.740113e-05 9.294066e-06
-6.234945e-05 -2.8126153e-05 3.3432974e-05 -2.1026906e-05 -2.4734849e-05 1.1486242e-06 2.828561e-05 -0.000115249466
3.9663864e-05 -7.4589465e-05 -5.9013262e-05 5.3567997e-05 -2.5175166e-05 4.5410896e-05 -4.7326517e-05 2.2673723e-06
-6.0967714e-06 7.687059e-06 -5.3054133e-05 -0.00013820398 0.00011457276 -0.00011189521 -1.2268447e-06 5.236813e-05
1.944358e-05 7.050958e-05 -1.2230139e-05 3.6878166e-05 1.7520571e-05 8.423706e-05 -3.691616e-05 -6.424832e-05
-8.453216e-05 5.404402e-05 -6.8174195e-05 -5.764036e-05 6.257584e-06 1.2394619e-05 -2.7449649e-05 -3.4764565e-05
4.992394e-05 4.496512e-05 4.4382336e-06 -2.0677902e-05 -7.3939416e-05 2.255793e-05 9.4239185e-05 -4.2565338e-05
-6.2598614e-05 -7.641621e-05 -4.855069e-06 -8.070502e-05 -1.7629642e-05 -0.00012946811 6.513823e-05 7.7767254e-05
-9.4149655e-05 -6.541429e-05 -4.965146e-05 -3.4390632e-06 -2.2016875e-05 4.1299863e-05 1.1955007e-05 -5.0539424e-05
-7.596394e-05 -2.310942e-05 -0.00013731178 8.205843e-05 8.576571e-05 7.487576e-06 -2.6366053e-05 -5.2447507e-07
-2.1851172e-06 -4.0386032e-05 5.967308e-05 5.230683e-05 3.254925e-05 -0.00016701121 4.406334e-05 -7.833655e-06
-1.2506774e-06 -5.433634e-05 3.9687915e-05 6.669512e-05 -4.6459627e-05 -5.0159433e-05 3.8648254e-06 -1.421624e-06
4.4341832e-05 -2.5201758e-05 5.6816312e-05 3.3995994e-07 -5.603483e-05 3.7198715e-05 7.2218754e-05 0.00013231218
3.831076e-05 -2.1890815e-05 -4.1521194e-05 1.2717314e-05 2.4669822e-05 -9.345746e-05 9.405162e-06 -2.9790794e-05
-3.8353814e-05 -1.7701372e-05 2.2318967e-05 -0.00016711335 -2.2306296e-05 9.313406e-05 -1.6808037e-05 -6.156121e-05

exp_avg_sq f4 [128]
00000000: b603 e52e 890c ee2f 0c07 412f c73d a530
00000010: 56f8 202e 5c69 2e2f a9d8 922f 2f54 0e30
00000020: 8c06 b52f d0dc 0c30 8494 912f 98d2 4a2f
00000030: 6ac2 892f de61 fd2e 1852 3c2f de98 c42f
00000040: d496 5d2f 9951 f32f a77d eb2e 7a8a 382f
00000050: b80b 952f fa84 ab2e 3b6f 982e 4856 0e30
00000060: 0991 8a2f 3059 1330 e830 012f b3cb 1a2f
00000070: 9c7a 5c2e 221a b12e 367a c52e 17c9 282e
00000080: d6ff 432e 39b0 4c2f 9442 922f 1399 7830
00000090: 3029 0930 96bb ad2f 4456 a12e 984b 1d2f
000000a0: 8b5f ef2d 12b8 402f 5a92 b22e a482 6a2f
000000b0: e315 032f cb70 bb2f f254 762f 7821 432f
000000c0: 09e9 e32f 4776 0230 2f03 482f fdde 032f
000000d0: 7005 9b2e dd65 1b2f d332 982e 61bb 472f
000000e0: 0b49 722f 89cb c82e e05b fa2d 63de 2e2e
000000f0: 38b0 9e2f bc0b c22e b857 de2f 2df5 3e2f
00000100: ba3d 862f b4e1 4a2f ad68 4a2e 77a0 5e2f
00000110: 84df d52d 24e5 3c30 f6d9 d92f 0c28 962f
00000120: a9ba a82f 0726 1c2f b859 b82e 667a f32e
00000130: 7a04 822e faef ef2e 1dd8 ea2e 02c5 952f
00000140: 10f9 402f 1cb9 102f fbf3 1830 daa4 912f
00000150: 3503 a62f b2d9 2b2f a271 002f 786f 1c2e
00000160: 7657 9a2e 0144 7e2f bc38 442f 9bb1 3a2f
00000170: e4c8 d42e 3760 8930 a912 242f 1416 1c2f
00000180: 2a97 252f 2148 e22e 94c3 182f 706a dd2f
00000190: 86a1 f32e ca84 7d2f 0bed 852e 8b3e f82e
000001a0: d3e1 ea2e bc7d 402f 1eb2 932f 5168 352f
000001b0: 9ac2 ed2e d309 de2f 4535 d92f 1c01 3330
000001c0: 2cec 502f 1c71 462e 611b 292f b02a ab2e
000001d0: 9628 0e2e 45f6 9a2f ce68 ca2f d1f6 1f2f
000001e0: 5c88 6c2f 9059 ae2e bea8 972e 7291 7230
000001f0: 6a63 1b2f 4100 0930 af69 3f2f 4ced 892f
1.04143735e-10 4.3300855e-10 1.7555751e-10 1.2022888e-09 3.6600355e-11 1.5862639e-10 2.6711192e-10 5.177893e-10
3.292836e-10 5.1245497e-10 2.6480873e-10 1.8446611e-10 2.5058294e-10 1.1522493e-10 1.7127666e-10 3.576081e-10
2.0153418e-10 4.425942e-10 1.0708883e-10 1.6783899e-10 2.711127e-10 7.799801e-11 6.931918e-11 5.178191e-10
2.5205107e-10 5.360503e-10 1.1749857e-10 1.4078587e-10 5.0131108e-11 8.05367e-11 8.980232e-11 3.837738e-11
4.4565095e-11 1.8616299e-10 2.6604552e-10 9.0439406e-10 4.989884e-10 3.1601805e-10 7.336756e-11 1.4305923e-10
2.7213584e-11 1.7527693e-10 8.1205e-11 2.1328589e-10 1.1922156e-10 3.4095246e-10 2.2403748e-10 1.7747037e-10
4.145664e-10 4.7461807e-10 1.8191025e-10 1.1993602e-10 7.04955e-11 1.4133357e-10 6.921188e-11 1.8165515e-10
2.2035722e-10 9.131102e-11 2.846251e-11 3.976054e-11 2.8865244e-10 8.824183e-11 4.0443893e-10 1.7367503e-10
2.4418317e-10 1.8451979e-10 4.6022453e-11 2.0247791e-10 2.4314557e-11 6.871963e-10 3.962694e-10 2.7313296e-10
3.0691652e-10 1.4201627e-10 8.3832885e-11 1.1072103e-10 5.912511e-11 1.091109e-10 1.06794774e-10 2.7242925e-10
1.7550783e-10 1.3162488e-10 5.5643995e-10 2.649248e-10 3.0197503e-10 1.56297e-10 1.1681903e-10 3.5569298e-11
7.0186454e-11 2.3125325e-10 1.7846252e-10 1.69797e-10 9.676329e-11 9.995408e-10 1.4922343e-10 1.4195961e-10
1.5060367e-10 1.0290103e-10 1.3893803e-10 4.0275294e-10 1.1079053e-10 2.3057392e-10 6.090247e-11 1.1288844e-10
1.06812025e-10 1.7506968e-10 2.6865704e-10 1.6498915e-10 1.08120804e-10 4.0388545e-10 3.950992e-10 6.5121397e-10
1.9001395e-10 4.512045e-11 1.5380187e-10 7.7837625e-11 3.232311e-11 2.8187422e-10 3.6818054e-10 1.4548653e-10
2.151252e-10 7.9285134e-11 6.8966596e-11 8.824578e-10 1.4132487e-10 4.984067e-10 1.7408895e-10 2.5088764e-10
