Scenes/ImprovedGridWorld2D/results/test-run/DroneGrid2D/DroneGrid2D-999949.onnx (onnx, 77147 bytes, 6 tensors)

network_body._body_endoder.seq_layers.0.weight f4 [128, 6]
0	0x3e8a2737	0.26983044
1	0x3e14adba	0.14519396
2	0x3ed18faa	0.4092992
3	0xbca267a6	-0.019824814
4	0x3e676983	0.22598843
5	0x3e97f2e1	0.2967749
6	0xbee95700	-0.45574188
7	0xbf5d68da	-0.86488116
8	0xbe4d5461	-0.20051719
9	0xbd0e3eb0	-0.034727752
10	0x3f526dd1	0.82198817
11	0x3dfa1860	0.122116804
12	0xbef100e1	-0.47070983
13	0x3f1b639d	0.6069887
14	0x3f35102d	0.7072781
15	0xbf44c7d2	-0.768674
16	0x3ea875ce	0.32902378
17	0x3e8f52d0	0.27992868
18	0xbf0622d6	-0.52396905
19	0xbeeb5b11	-0.45967916
20	0x3e43822a	0.19092622
21	0x3e890034	0.26757967
22	0x3e526f01	0.20550157
23	0xbec1489f	-0.37750718
24	0xbf4354a0	-0.76301
25	0xbe47c70b	-0.19509523
26	0xbdd2b399	-0.10288162
27	0x3f405a42	0.7513772
28	0x3eb8a960	0.36066723
29	0xbeb4ad60	-0.35288525
30	0x3de87b9b	0.11351701
31	0xbefa2869	-0.48858956
32	0x3e8262a9	0.25465897
33	0x3e28cf2b	0.16485278
34	0xbe76a05c	-0.2408461
35	0x3f0879f8	0.5331111
36	0x3d335e09	0.04379085
37	0xbdd38463	-0.10327985
38	0xbdcb6e98	-0.099332035
39	0xbed06a25	-0.40705982
40	0xbf23bde1	-0.6396161
41	0x3ecb9640	0.3976307
42	0xbec9f021	-0.39441016
43	0x3e2882c8	0.16456139
44	0xbee6147d	-0.44937506
45	0xbd7d4393	-0.061832022
46	0xbe519d20	-0.20470095
47	0xbf61f4bc	-0.8826406
48	0xbec8e65d	-0.39238253
49	0xbe80cb53	-0.25155124
50	0x3e9a03f9	0.30081156
51	0xbec83e36	-0.39109963
52	0xbf7e5d36	-0.9936098
53	0xbe4196af	-0.18905137
54	0x3e533fc4	0.20629793
55	0x3f076a04	0.5289614
56	0x3e8943d5	0.26809564
57	0x3e1bcf5d	0.15215822
58	0x3f2eb68d	0.682473
59	0xbf10c322	-0.5654775
60	0x3ca078e2	0.019588891
61	0x3eee22bf	0.46510884
62	0x3f97fc1d	1.1873814
63	0xbea2b9a8	-0.3178227
64	0x3f34e6eb	0.7066485
65	0xbe12c448	-0.14332688
66	0xbf0ba38d	-0.54546434
67	0x3f298a20	0.6622639
68	0xbf1ffd3f	-0.624958
69	0xbde8305f	-0.11337351
70	0xbcb7323a	-0.022362817
71	0xbf1ba297	-0.6079497
72	0x3dddfc62	0.10839154
73	0xbe963806	-0.29339617
74	0xbdcadd94	-0.09905544
75	0xbe43797a	-0.19089308
76	0xbf06b163	-0.5261442
77	0xbd6ec049	-0.058288846
78	0x3ebda842	0.37042433
79	0xbe80413c	-0.2504977
80	0x3e4f8f28	0.20269454
81	0xbeeab029	-0.45837525
82	0x3d96f368	0.07370645
83	0xbe9a7ca4	-0.30173218
84	0xbd10f540	-0.03539014
85	0xbe71c226	-0.23609218
86	0xbd97a1de	-0.074039206
87	0x3ea9325c	0.33046234
88	0xbe2cc650	-0.16872525
89	0x3f15fcaa	0.5858866
90	0xbec2ba87	-0.38032934
91	0xbf10f8e3	-0.5662977
92	0x3f743e3f	0.9540748
93	0x3deba96b	0.11506923
94	0x3dd5b151	0.10434211
95	0xbefcb609	-0.49357632
96	0x3ec82acc	0.3909515
97	0x3e84562f	0.25847003
98	0x3f647daf	0.8925428
99	0xbf06af68	-0.526114
100	0x3f8b2f43	1.0873798
101	0xbf3cc8f1	-0.7374411
102	0xbf4d10cb	-0.8010375
103	0xbdd8c631	-0.10584677
104	0x3efaaf6d	0.48961964
105	0x3e28d4c6	0.16487417
106	0x3f2cd58d	0.6751335
107	0x3e94755f	0.28995797
108	0x3e384b98	0.17997587
109	0xbe9d3313	-0.3070303
110	0xbe18820b	-0.14893357
111	0x3f239609	0.6390081
112	0xbef91e88	-0.48656106
113	0x3f474658	0.7784171
114	0x3e81c501	0.25345615
115	0x3ed456d8	0.41472507
116	0xbde33671	-0.11094368
117	0xbe91330c	-0.28359258
118	0x3e50db0b	0.20396058
119	0xbe9f599d	-0.31123057
120	0xbf09d70f	-0.5384378
121	0xbf32a74c	-0.69786525
122	0xbf72964e	-0.94760597
123	0xbf590821	-0.8477803
124	0xbf4ac697	-0.79209274
125	0x3ebd288f	0.36945006
126	0x3f252f1c	0.6452501
127	0x3e3cc577	0.18434702
128	0x3db2e08c	0.08734235
129	0x3e92621f	0.28590485
130	0xbee78427	-0.45218012
131	0x3f4e1fc6	0.8051723
132	0x3d568989	0.052377257
133	0xbd58cc59	-0.052929256
134	0x3f060ca5	0.52363044
135	0xbf658fc2	-0.8967248
136	0xbeeee6fa	-0.46660596
137	0x3e53f78f	0.20699905
138	0xbf684efb	-0.90745515
139	0xbf6ef866	-0.93347776
140	0xbf5af275	-0.8552621
141	0xbe213113	-0.15741377
142	0xbd5ebfac	-0.05438201
143	0xbe9b1c6c	-0.30295122
144	0x3ebdf0b5	0.37097707
145	0xbd827450	-0.06369841
146	0xbe76506e	-0.24054119
147	0x3df62f5a	0.1202075
148	0x3f4b2b36	0.7936281
149	0xbe7d62cb	-0.24744718
150	0xbf0f8dd7	-0.56075805
151	0xbf242622	-0.64120686
152	0x3ed72261	0.42018417
153	0x3db50ed8	0.08840722
154	0x3c21ba50	0.0098710805
155	0xbe4fb2fb	-0.2028312
156	0x3e98662d	0.29765454
157	0x3ec27901	0.37982944
158	0xbe552abe	-0.20817086
159	0xbcff3570	-0.03115341
160	0xbefffa37	-0.49995586
161	0x3e1d7aa4	0.15378815
162	0x3d3606bc	0.044440016
163	0x3ea4fdb3	0.32224807
164	0xbf0d8a5c	-0.55289245
165	0xbcb10129	-0.021606999
166	0xbe89eda3	-0.26939115
167	0x3e83fd89	0.2577937
168	0xbde0e817	-0.109817676
169	0x3f1a2515	0.6021283
170	0xbf2fa448	-0.6861005
171	0x3ee959f4	0.4557644
172	0xbf33a0a3	-0.7016699
173	0x3ee1e4df	0.44119927
174	0x3e654352	0.22388962
175	0xbf0fb235	-0.561313
176	0x3df7c135	0.12097398
177	0x3e56e8dc	0.20987266
178	0xba1606e2	-0.00057230715
179	0xbf0e6c80	-0.5563431
180	0xbe3a0e82	-0.18169597
181	0xbd739305	-0.05946638
182	0x3e05a382	0.13050655
183	0x3e8f4f4b	0.27990183
184	0xbea7f115	-0.32801118
185	0x3f4c18d9	0.79725415
186	0x3e8cb553	0.2748209
187	0xbf4114fb	-0.7542264
188	0xbe91f1b6	-0.28504723
189	0x3e485490	0.19563508
190	0xbc25a536	-0.01011019
191	0xbeb7d2d4	-0.35903037
192	0x3d610046	0.0549319
193	0x3e558c38	0.2085427
194	0x3e5ce3a2	0.2157121
195	0x3f56f99f	0.8397464
196	0x3e5d5239	0.21613397
197	0x3eebda5d	0.46065035
198	0x3deca95f	0.115557425
199	0xbf42a3e6	-0.7603134
200	0x3e1ee019	0.15515174
201	0xbe661550	-0.22469068
202	0xbf68c1c7	-0.9092068
203	0xbd09621a	-0.033540823
204	0xbf069a96	-0.5257963
205	0x3f8efcf0	1.117094
206	0x3c835e2f	0.016036121
207	0xbe8a0d36	-0.26963204
208	0x3dd4e11b	0.10394498
209	0xbee20485	-0.44144073
210	0xbf26cc0c	-0.651551
211	0xbe0e7731	-0.13912655
212	0xbed62cc4	-0.41831028
213	0xbf33dad3	-0.70255774
214	0x3d79f26b	0.061022203
215	0xbf097e12	-0.53707993
216	0x3f1f73cd	0.6228607
217	0x3ee558f4	0.44794428
218	0x3f58426a	0.8447634
219	0x3ea23955	0.31684366
220	0xbf7e8a86	-0.9943012
221	0xbd338874	-0.043831304
222	0xbe61c6e2	-0.22048524
223	0xbe93e137	-0.28882763
224	0xbefb28b2	-0.49054486
225	0x3e86d5d7	0.26335022
226	0x3f21fe44	0.63278604
227	0x3d9ecbec	0.07753739
228	0x3f2f8652	0.6856433
229	0x3bfce4dd	0.0077177123
230	0xbe5c7249	-0.21527971
231	0x3f360f34	0.7111695
232	0x3e4cbd25	0.19994028
233	0x3f64d59f	0.8938846
234	0xbb7d6583	-0.0038665242
235	0xbf055ce0	-0.5209484
236	0x3e57103e	0.2100229
237	0x3e075277	0.13215052
238	0xbeb93980	-0.36176682
239	0x3f2d360b	0.6766059
240	0x3d8dc714	0.06922737
241	0x3f22e969	0.63637406
242	0xbeb145bb	-0.34623513
243	0xbf1bb1c3	-0.6081812
244	0x3f1a1878	0.60193586
245	0xbe40aa86	-0.1881505
246	0xbea92f69	-0.33043984
247	0xbde429ab	-0.1114076
248	0xbdeeb2a8	-0.1165517
249	0x3c9c3416	0.019067805
250	0xbc70b340	-0.014691174
251	0x3f0a6bf4	0.54070973
252	0xbe79ef53	-0.24407701
253	0xbe312e44	-0.17302805
254	0x3e494351	0.19654585
255	0xbde26000	-0.11053467

network_body._body_endoder.seq_layers.0.bias f4 [128]
0	0x3c93cd3f	0.018042205
1	0x3d4157f4	0.04720302
2	0xbc1285f9	-0.008943074
3	0xbd97d1e1	-0.07413078
4	0x3d321689	0.043478522
5	0x3c39666d	0.011315924
6	0x3c9a7776	0.018855792
7	0x3c2a45d3	0.010392624
8	0xbd957e41	-0.07299472
9	0x3d38a02c	0.045074627
10	0x3d65efa2	0.056136735
11	0xbb5bb4fb	-0.003352462
12	0xbaf513b9	-0.0018697894
13	0x3d432f0d	0.047652293
14	0x3d17725c	0.036974296
15	0x3b9374b2	0.004499995
16	0x3d5d26d3	0.053992104
17	0x3d49a3b7	0.049228396
18	0x3c50abf5	0.01273631
19	0xbc02c055	-0.007980426
20	0x3c88ab69	0.016683297
21	0x3d86e501	0.06586648
22	0xbcdb5ca8	-0.02677758
23	0xbda643af	-0.08118378
24	0x3d6c9614	0.057760313
25	0xbdab5222	-0.08365275
26	0x3db30762	0.087416425
27	0x3c3fe1fb	0.011711593
28	0x3c81296e	0.015766826
29	0x3d925a77	0.07146161
30	0x3c75e256	0.015007576
31	0x39b295df	0.00034062468
32	0x3ce9544e	0.028482582
33	0x3c0a29e1	0.008432836
34	0x3dd39774	0.10331622
35	0xbd637a40	-0.05553651
36	0x3dc94700	0.09827995
37	0x3d2452a3	0.04011787
38	0x3d29d5d0	0.041463673
39	0x3cae5954	0.02128283
40	0x3d066046	0.032806657
41	0x3ca3a055	0.019973913
42	0xbd9a9bec	-0.07549271
43	0x3cfc2c82	0.030782942
44	0xbbde5929	-0.006785531
45	0x3d464082	0.048401363
46	0x3dba7e08	0.0910607
47	0x3d1454e9	0.03621379
48	0xbd1bff9c	-0.038085565
49	0x3d5936d3	0.0530308
50	0x3cae4965	0.021275232
51	0xbaff898f	-0.0019495952
52	0x3d1eda24	0.038782254
53	0xbd453563	-0.048146617
54	0x3d19da15	0.037561495
55	0x3d71a591	0.058995787
56	0x3d277745	0.04088523
57	0x3d0095d9	0.031392906
58	0x3d3b60bc	0.04574655
59	0x3982b71a	0.00024931954
60	0x3cb29973	0.021801686
61	0x3dbada73	0.09123697
62	0x3d20f6be	0.03929781
63	0x3d662cff	0.056195255
64	0x3caaa631	0.0208312
65	0x3d15373e	0.036429636
66	0x3c1156aa	0.00887076
67	0x3da0e708	0.07856566
68	0x3ce3b0cc	0.027794264
69	0xbbb89337	-0.0056327838
70	0x3d3b5989	0.045739684
71	0x3ccf1961	0.025280656
72	0x3ca120f3	0.019669032
73	0xbc534a91	-0.012896196
74	0x3d5087c4	0.050910726
75	0x3da75f0d	0.081724264
76	0xbce92165	-0.028458307
77	0x3c77c7ce	0.015123321
78	0x3dd24e3d	0.10268829
79	0x3d2ad0f7	0.04170319
80	0xbcf52fe6	-0.029930066
81	0x3e13c78a	0.14431587
82	0x3dbeaf5f	0.09310793
83	0x3c0ec51a	0.008713985
84	0x3d9467e4	0.07246378
85	0x3d3f0ebf	0.046644922
86	0x3d857358	0.06516141
87	0xbd22585a	-0.03963504
88	0x3cebb457	0.028772516
89	0x3d238843	0.03992487
90	0x3d1dd929	0.03853718
91	0x3c2cce53	0.010547238
92	0x3be778e8	0.0070639737
93	0x3db415da	0.0879323
94	0xbbeaa760	-0.007161066
95	0xbdd60a4c	-0.10451183
96	0x3d51715b	0.051133495
97	0x3cb21892	0.021740232
98	0x3d7ecabd	0.062205065
99	0x3d7f1928	0.06227985
100	0x3cfd57b8	0.030925617
101	0xbc2b2534	-0.010445882
102	0x3d71ba8a	0.05901579
103	0x3d7d8b56	0.06190046
104	0x3de1b34e	0.11020528
105	0x3e224c7b	0.15849487
106	0xbdc5f977	-0.09666722
107	0x3d2a5424	0.04158415
108	0x3cbcb179	0.023033844
109	0x3c840ae4	0.016118474
110	0x3d406cbb	0.046978693
111	0xbccd012d	-0.025024975
112	0xbd9b9e26	-0.07598524
113	0x3d4cccc2	0.04999996
114	0x3ca07aac	0.019589745
115	0x3c95473e	0.018222447
116	0x3d6ccaa9	0.05781046
117	0x3b02f7ae	0.0019984054
118	0x3d78ca88	0.060740024
119	0x3d458e14	0.0482312
120	0x3c12b664	0.008954618
121	0x3cb287ee	0.021793332
122	0xbd09b36e	-0.033618383
123	0x3d484ae5	0.04889955
124	0x3d13cc02	0.03608323
125	0x3e039640	0.12850285
126	0xbd84ee89	-0.064908095
127	0x3d797a8c	0.060907885

network_body._body_endoder.seq_layers.2.weight f4 [128, 128]
0	0xbdf0bbf2	-0.11754598
1	0xbb755500	-0.0037434697
2	0xbdf89583	-0.12137892
3	0x3e427d08	0.18993008
4	0x3d2b615a	0.04184089
5	0xbdffb483	-0.12485602
6	0x3e462520	0.193501
7	0xbd181018	-0.037124723
8	0x3e1b1f79	0.15148725
9	0xbe0ad204	-0.13556677
10	0xbe446a99	-0.19181289
11	0xbc86e8ca	-0.016468424
12	0x3dfb5c4a	0.12273462
13	0x3d4b42f7	0.04962441
14	0x3d6a0100	0.05712986
15	0x3d9fcf56	0.07803218
16	0xbd722c0d	-0.05912404
17	0xbd25cf08	-0.040480644
18	0x3e136ad4	0.1439622
19	0xbd1a73eb	-0.037708204
20	0xbda783c5	-0.0817943
21	0x3c97ef3e	0.018546697
22	0x3d86c946	0.065813586
23	0x3e15c56c	0.14626092
24	0xbde84cf2	-0.11342801
25	0x3d3255d8	0.0435389
26	0x3dcf2b36	0.10115664
27	0xbd151044	-0.036392465
28	0x3d93b8bc	0.0721297
29	0xbe0adbc8	-0.13560402
30	0x3dc08aff	0.094015114
31	0x3dcec32c	0.1009582
32	0xbd5e17bf	-0.054221865
33	0x3da18c5c	0.078880996
34	0xbd1d9653	-0.03847344
35	0x3dc83d8f	0.09777366
36	0x3e385930	0.18002772
37	0x3cc5795b	0.024105718
38	0xbc9c8d48	-0.019110337
39	0x3e24b4cb	0.16084592
40	0x3d358241	0.044313673
41	0x3d798760	0.06092012
42	0xbd99c927	-0.0750907
43	0xbc2bf8fe	-0.010496376
44	0x3de6b870	0.112656474
45	0xbe1f84a0	-0.15577936
46	0xbd9417cd	-0.07231102
47	0x3e141574	0.14461309
48	0x3dca02eb	0.09863838
49	0x3c854260	0.016267002
50	0xbc8104ea	-0.015749414
51	0x3d3ee1d1	0.046602074
52	0xbdae1138	-0.08499378
53	0xbd121d99	-0.035672758
54	0xbc093f19	-0.00837686
55	0xbe2833d2	-0.16426018
56	0xbc9d8ecd	-0.019233132
57	0x3c37eec5	0.011226361
58	0x3dfa7f94	0.12231365
59	0xbe3943f0	-0.18092322
60	0x3d32ed1e	0.043683164
61	0xbe517d6e	-0.20458004
62	0xbe16ef09	-0.14739622
63	0x3dc38f5f	0.0954883
64	0xbdbafc40	-0.09130144
65	0xbd12643d	-0.035740126
66	0x3e16bf2c	0.14721364
67	0xbe4dc113	-0.20093183
68	0xbdd93050	-0.10604918
69	0xbdc05700	-0.09391594
70	0x3cc0623b	0.02348434
71	0x3def622d	0.116886474
72	0xbbbf7057	-0.0058422494
73	0xbd84bb44	-0.064810306
74	0xbe6b981e	-0.23007247
75	0xbdcb8898	-0.099381626
76	0xbb5654d0	-0.003270436
77	0x3d5cebf3	0.053935956
78	0xbdb62ecd	-0.08895645
79	0xbc65cff5	-0.014026632
80	0x3d4013c2	0.046893843
81	0x3cc2d211	0.023781808
82	0x3d69aad2	0.057047673
83	0xbc0c88ad	-0.008577508
84	0xbe08b715	-0.1335109
85	0xbdd81043	-0.10549977
86	0xbcfa785d	-0.030574972
87	0xbdba730f	-0.09103977
88	0xbd7d5ed2	-0.061858006
89	0x3de158f4	0.110032946
90	0xbd444254	-0.047914818
91	0xbd807663	-0.062725805
92	0x3dba59fe	0.09099196
93	0xbdc8fae0	-0.098134756
94	0xbd97aa4a	-0.07405527
95	0x3e321d09	0.17393889
96	0xbe0551e8	-0.13019526
97	0x3e42faf9	0.19041051
98	0x3cdf2530	0.027239412
99	0x3d60f85d	0.054924358
100	0x3e671ce8	0.2256962
101	0x3c3e6617	0.01162102
102	0xbda9b296	-0.08286016
103	0xbb94beff	-0.00453937
104	0xbd85e5d8	-0.0653798
105	0xbdc595d2	-0.096477166
106	0x3e211951	0.15732314
107	0xbe0d5621	-0.13802387
108	0xbd47fd4e	-0.048825555
109	0xb9a90ef3	-0.0003224533
110	0xbcd9df84	-0.026595838
111	0xbd552659	-0.052038524
112	0x3d5adfaf	0.053435978
113	0xbcb8df1c	-0.022567324
114	0xbe0817bd	-0.13290305
115	0xbd1266a8	-0.035742432
116	0x3d84f479	0.06491942
117	0xbcf4c20a	-0.029877681
118	0xbaff2537	-0.0019466047
119	0xbe706e14	-0.23479491
120	0xbdfc9e48	-0.12334877
121	0x3e19922c	0.14997166
122	0xbdf554a8	-0.119790375
123	0x3e6fc2d6	0.23414168
124	0xbe982f11	-0.2972341
125	0x3ad1cda5	0.0016006721
126	0x3dc47d20	0.09594178
127	0xbdf62a8d	-0.12019835
128	0xbd0a90a9	-0.033829365
129	0x3d1d2fdd	0.038375724
130	0xbdb2e0bc	-0.08734271
131	0xba135422	-0.0005620142
132	0xbdd6636b	-0.10468181
133	0x3dd01e25	0.101619996
134	0x3ecf3b51	0.40474942
135	0x3d7948ff	0.06086063
136	0x3eac7497	0.336827
137	0xbe1612c2	-0.14655593
138	0xbe0a7158	-0.135198
139	0xbb3fd8c2	-0.0029273485
140	0x3c7756f6	0.015096417
141	0x3d9f127e	0.07767199
142	0x3d69d22e	0.05708521
143	0xbd957cae	-0.072991714
144	0xbe22a352	-0.15882614
145	0xbe35ee8a	-0.17766777
146	0xbd636954	-0.05552037
147	0xbc73123b	-0.014835889
148	0x3e44c1b3	0.19214515
149	0x3d8ad154	0.067782074
150	0x3e456dfe	0.1928024
151	0x3e09342a	0.13398805
152	0xbe0e200e	-0.13879415
153	0xbd2626d5	-0.040564377
154	0x3e894c84	0.2681619
155	0x3e13351b	0.14375727
156	0xbda17da2	-0.07885291
157	0xbe8917b3	-0.26775894
158	0x3e0163e4	0.12635761
159	0xbe2aa66d	-0.16665049
160	0xbe65a427	-0.224259
161	0x3df1f65b	0.11814567
162	0x3d6e411e	0.05816757
163	0x3df246ff	0.11829948
164	0x3cdf8627	0.027285649
165	0xbdf2f3e0	-0.11862922
166	0xbd4b35df	-0.049611922
167	0x3d974f7e	0.07388209
168	0xbe04b9e5	-0.12961538
169	0xbd59114e	-0.05299502
170	0xbdff2c99	-0.12459678
171	0x3d885c8b	0.06658276
172	0x3d071f48	0.032988816
173	0xbe81ff00	-0.25389862
174	0xbe5b178b	-0.213957
175	0x3e61dcee	0.22056934
176	0x3e5097f2	0.20370463
177	0x3d571277	0.052507844
178	0x3be118d6	0.0068694158
179	0xbd165a1a	-0.03670702
180	0xbdfab6a1	-0.12241865
181	0x3e172bea	0.14762846
182	0xbd07157c	-0.032979473
183	0xbe2c6f92	-0.16839436
184	0xbde17fb4	-0.110106856
185	0x3d39b1f8	0.04533574
186	0x3cb2a660	0.02180785
187	0xbdad1789	-0.084517546
188	0xbd5402bf	-0.05176043
189	0xbdcf2f01	-0.10116387
190	0xbe054b72	-0.13017061
191	0x3d1d1590	0.03835064
192	0xbba74489	-0.0051046056
193	0xbd593081	-0.053024773
194	0x3dfa54eb	0.12223228
195	0xbe9715aa	-0.29508716
196	0xbe21c428	-0.15797484
197	0x3d9ae481	0.07563115
198	0xbd4e32ac	-0.050341293
199	0x3e0319f2	0.12802866
200	0xbe211296	-0.15729746
201	0x3c199a07	0.009375102
202	0x3d0ecf76	0.03486582
203	0xbdd8e19f	-0.10589909
204	0xbcd76653	-0.02629391
205	0xbe18f0a4	-0.14935547
206	0xbccccc84	-0.024999864
207	0x3e64e7c1	0.22354032
208	0xbd376f6e	-0.044784002
209	0x3d133f1d	0.03594886
210	0xbd6f8476	-0.058475934
211	0xbe715e79	-0.23571195
212	0xbe9db871	-0.3080478
213	0xbe57d803	-0.21078496
214	0xbdb0fb9e	-0.08641742
215	0xbdc9a959	-0.098467536
216	0xbe0e1355	-0.13874562
217	0x3e2866f6	0.16445526
218	0xbba17d08	-0.004928235
219	0x3dea4b78	0.11440176
220	0x3e63e61c	0.22255749
221	0x3dabc1f6	0.083866045
222	0xbd9c2249	-0.07623727
223	0xbe4f9bfa	-0.20274344
224	0xbda4844d	-0.08033047
225	0x3d299b1b	0.041407686
226	0x3e379e39	0.17931451
227	0x3e706686	0.2347661
228	0x3eab6e44	0.33482563
229	0x3cd01a19	0.02540307
230	0xbe4818d6	-0.19540724
231	0xbd8d3376	-0.06894581
232	0x3d3beaa9	0.045878086
233	0x3d34461e	0.04401218
234	0x3e1c23c6	0.15248021
235	0xbdfbc73e	-0.12293862
236	0x3d616467	0.05502739
237	0xbd999183	-0.07498457
238	0xbe11aab3	-0.14225273
239	0xbdb7ed34	-0.0898079
240	0xbd7a655e	-0.061131828
241	0xbda592cb	-0.08084639
242	0x3d323c6d	0.043514658
243	0x3e35e7fd	0.17764278
244	0xbd647e7b	-0.055784684
245	0x3e612abc	0.21988958
246	0x3dd7df5f	0.105406515
247	0xbdd38f6d	-0.10330091
248	0x3e0ff7da	0.14059392
249	0x3d952143	0.07281735
250	0xbc312dab	-0.010814111
251	0x3e17998b	0.14804666
252	0xbda78e68	-0.08181459
253	0xb92d2148	-0.00016510964
254	0x3e069740	0.13143635
255	0x3deffc97	0.117180996

network_body._body_endoder.seq_layers.2.bias f4 [128]
0	0xbdcfe194	-0.101504475
1	0xbd363696	-0.04448565
2	0x3d969744	0.073530704
3	0x3d527b6d	0.05138724
4	0x3d6369fe	0.055521004
5	0x3d066b52	0.032817192
6	0x3d2f3962	0.042779334
7	0x3c607abb	0.013701136
8	0x3cfaeb50	0.030629784
9	0x3dd2c83c	0.10292098
10	0x3d8da8e8	0.06916982
11	0x3d956bf9	0.07295985
12	0xbd1ecbd3	-0.0387686
13	0x3d90cacf	0.07069933
14	0xbca17e7c	-0.019713633
15	0x3d1cd17b	0.038285714
16	0x3d03e6e4	0.032202616
17	0x3d42264d	0.047399808
18	0x3c712260	0.014717668
19	0x3c239621	0.009984524
20	0xbd64b934	-0.055840686
21	0x3d461872	0.048363157
22	0x3d691d6c	0.056912825
23	0x3cf964dc	0.030443601
24	0x3d37ec64	0.044903174
25	0x3d0206f4	0.031744912
26	0x3d260d60	0.0405401
27	0x3dafef0b	0.08590516
28	0x3da3bd37	0.07995074
29	0x3d6f6401	0.05844498
30	0xbd2e0793	-0.042487692
31	0x3d9aa1e1	0.07550407
32	0x3dc34ac3	0.09535744
33	0x3d2b6c83	0.04185153
34	0x3d3780c2	0.044800527
35	0xbcb088e2	-0.021549646
36	0x3d8717b3	0.06596317
37	0x3daa39c0	0.08311796
38	0x3d45b1bf	0.048265215
39	0x3d91360a	0.07090385
40	0x3d86e73f	0.065870754
41	0x3d00d863	0.031456362
42	0xbd273c7f	-0.040829178
43	0x3d618d59	0.05506644
44	0x3c9b3323	0.018945282
45	0x3daad15c	0.083407134
46	0x3b3e0f5d	0.0029000856
47	0xbc82005e	-0.015869316
48	0x3db2fc93	0.08739581
49	0x3d855b71	0.06511582
50	0x3daf8678	0.0857057
51	0xbc28fa43	-0.010313573
52	0x3dac2081	0.08404637
53	0x3d2e697f	0.042581078
54	0x3b4784ad	0.003044407
55	0x3d967884	0.07347205
56	0x3cfc75dd	0.03081792
57	0x3d6f93a8	0.058490425
58	0x3d85cfeb	0.06533798
59	0x3d805af0	0.06267345
60	0xbda04505	-0.078256644
61	0x3dbdd0f8	0.09268373
62	0x3d94bb42	0.07262279
63	0xbc08cb10	-0.008349195
64	0x3d39053f	0.04517102
65	0x3dbd6045	0.092468776
66	0x3d9d8199	0.076907344
67	0x3d9b899b	0.075946055
68	0x3d825cbf	0.06365346
69	0x3d9badab	0.07601484
70	0x3d880f82	0.06643583
71	0x3db2e66c	0.08735356
72	0x3d0db84a	0.03459958
73	0x3d19f5fe	0.037588112
74	0x3c03571f	0.008016377
75	0x3d044823	0.032295357
76	0xbcad0ea6	-0.021125149
77	0xbd9578a6	-0.072984025
78	0x3d945d24	0.07244328
79	0xbcac2a40	-0.02101624
80	0x3d88369c	0.06651041
81	0x3d99f87a	0.07518096
82	0x3dab0ca4	0.083520204
83	0xbdb01681	-0.08598042
84	0x3db47754	0.088118225
85	0x3d937be2	0.07201363
86	0x3d016855	0.03159364
87	0x3d2c9dc9	0.042142663
88	0x3ca43540	0.020044923
89	0x3d55a659	0.052160595
90	0x3d279099	0.040909383
91	0x3d78d6d8	0.060751766
92	0x3d267955	0.040643055
93	0x3d8f942f	0.07010686
94	0xbd5aa7d3	-0.053382706
95	0x3cc9bbb3	0.024625635
96	0x3db49fed	0.08819566
97	0x3cc097c8	0.023509875
98	0x3d7d0582	0.06177283
99	0x3d24401e	0.04010021
100	0xbc9fc825	-0.019504616
101	0x3daeaafe	0.08528708
102	0x3d9a0675	0.07520763
103	0x3d71f564	0.059071913
104	0x3c92c6c7	0.01791705
105	0x3d8f8c66	0.07009201
106	0x3dd21fb9	0.10259957
107	0x3da0bdba	0.078486875
108	0x3db95f73	0.090514086
109	0xbdd8dc18	-0.105888546
110	0x3db53c10	0.08849347
111	0xbd23c511	-0.03998286
112	0x3dbb14ec	0.0913485
113	0x3d786b40	0.060649157
114	0x3d50fd6d	0.051022936
115	0x3d0c3f3e	0.03424
116	0x3d86e2b9	0.06586213
117	0xbddba146	-0.1072412
118	0x3cdd55c5	0.027018437
119	0x3db939c4	0.09044221
120	0x3dcbf779	0.09959311
121	0x3e073aca	0.1320602
122	0x3daaa08b	0.083314024
123	0xbd78e0fe	-0.060761444
124	0x3bb55df0	0.00553488
125	0x3d98d831	0.0746311
126	0x3d9ff261	0.07809902
127	0x3d6d51a9	0.057939205

action_model._discrete_distribution.branches.0.weight f4 [5, 128]
0	0x3e008892	0.12552097
1	0x3df62acb	0.12019881
2	0xbd27fc10	-0.04101187
3	0xbd9efc5b	-0.07762977
4	0x3d88ae96	0.066739246
5	0xbbb6a6e1	-0.0055740927
6	0x3c1571a9	0.009121337
7	0x3d245363	0.040118586
8	0x3d09ed19	0.03367338
9	0xbd723677	-0.059133973
10	0xbd737b47	-0.05944374
11	0x3d3923d5	0.045200188
12	0x3df4df38	0.11956638
13	0xbd6ba7d3	-0.057533097
14	0x3d524cb4	0.05134268
15	0xbd0b0d5d	-0.03394829
16	0x3d2caedc	0.042158946
17	0x3c8d2f2d	0.01723441
18	0x3d81b33e	0.06333016
19	0x3d9d61db	0.0768468
20	0x3e01a952	0.12662247
21	0x3cc267bc	0.023731105
22	0xbb901d0b	-0.0043979934
23	0xbcee6cb0	-0.02910456
24	0x3cf3ef52	0.029777203
25	0x3d07458c	0.03302531
26	0xbd1cad42	-0.03825117
27	0xbd1a8db5	-0.0377328
28	0xbd467e2b	-0.048460167
29	0xbd1ffa4a	-0.039057054
30	0x3de27710	0.110578656
31	0xbd794962	-0.060861
32	0xbdb7c1f3	-0.0897254
33	0x3d4c8058	0.049927086
34	0x3cbc67eb	0.02299877
35	0x3ddec079	0.10876555
36	0x38972466	7.207021e-05
37	0xbd2b7993	-0.04186399
38	0x3cd2fc84	0.025755174
39	0xbc9c359c	-0.019068532
40	0xbd848d59	-0.064722724
41	0x3cf0c2c2	0.029389743
42	0x3ded4736	0.11585848
43	0x3c99a68e	0.018756177
44	0x3ceb5d79	0.028731095
45	0xbdc2e1bb	-0.09515711
46	0x3db480f6	0.0881366
47	0x3dba7cbf	0.09105825
48	0xbdf60e67	-0.12014466
49	0x3cb56949	0.02214493
50	0xbdd4da9d	-0.1039326
51	0x3dab1229	0.08353073
52	0xbdc610be	-0.09671162
53	0x3cd8334c	0.026391648
54	0x3dbcf14f	0.092257135
55	0xbd19a77b	-0.037513237
56	0x3d156062	0.03646887
57	0xbd2ec91f	-0.042672273
58	0xbd56e236	-0.052461825
59	0xbcccc78f	-0.0249975
60	0x3daad569	0.08341486
61	0xbd45feb2	-0.0483386
62	0xbc8f9cb1	-0.017530771
63	0x3c5163a7	0.012780107
64	0x3c9e6d48	0.019339219
65	0xbd91bc11	-0.07115949
66	0xbd388bce	-0.045055203
67	0xbd21bbf2	-0.03948588
68	0xbd046e20	-0.032331586
69	0xbda09b3a	-0.07842107
70	0xbdc4a830	-0.09602392
71	0xbd764212	-0.060121603
72	0xbbec9ea6	-0.007221061
73	0x3d80470a	0.062635496
74	0x3dbc01a7	0.09180003
75	0x3db0294b	0.08601626
76	0x3d99c14d	0.07507572
77	0x3df8f0e3	0.121553205
78	0xbd81655d	-0.06318162
79	0x3d980c0c	0.07424173
80	0xbd0dfc8c	-0.034664676
81	0xbcea1302	-0.028573517
82	0xbdb46ec9	-0.08810193
83	0x3de591e2	0.112094656
84	0xbdceb1f0	-0.10092533
85	0x3c8d8bf7	0.017278655
86	0x3d986eed	0.074430324
87	0x3b944799	0.0045251367
88	0xbcad88ce	-0.021183398
89	0xbd77f90d	-0.060540248
90	0x3d320c97	0.043469038
91	0xbd12d52e	-0.035847835
92	0xbd652aac	-0.0559489
93	0xbd3a3500	-0.0454607
94	0x3d94bc09	0.07262427
95	0x3cf1af7d	0.029502625
96	0xbd9a2261	-0.075260885
97	0x3cce1404	0.025156029
98	0xbc913ed8	-0.017730162
99	0xbbe0a9f2	-0.0068561966
100	0x3c83d333	0.016091919
101	0xbdc0e5a5	-0.09418801
102	0xbd503e9a	-0.05084095
103	0xbd953234	-0.07284966
104	0x3cd3b0ab	0.025841078
105	0xbd844228	-0.06457931
106	0xbe0f510d	-0.13995762
107	0xbdc164e7	-0.09443074
108	0xbcafc627	-0.021456791
109	0x3e003819	0.125214
110	0xbdd6b8f2	-0.10484494
111	0x3dde8a3b	0.10866209
112	0xbdbe2a58	-0.0928542
113	0xbc4253e5	-0.011860822
114	0x3d23267e	0.03983163
115	0x3d127e3b	0.035764914
116	0x3bab2a16	0.005223523
117	0x3deaa0f0	0.11456478
118	0xbc7cc7ee	-0.015428526
119	0xbda24608	-0.07923514
120	0xbde6dd95	-0.11272732
121	0xbe275fb0	-0.16345096
122	0xbdc545d6	-0.09632461
123	0x3dee174d	0.11625538
124	0x3cddcefa	0.027076233
125	0xbd068ed3	-0.03285105
126	0xbd45e7c0	-0.048316717
127	0xbd54e339	-0.05197451
128	0x3acf986b	0.0015838271
129	0x3cfda4c7	0.030962361
130	0xbdee96b6	-0.116498396
131	0x3d428345	0.04748847
132	0x3db0297d	0.08601663
133	0x3d0e521f	0.034746286
134	0xbda9a965	-0.082842626
135	0xbe03cbb1	-0.12870671
136	0xbdeb13e2	-0.11478402
137	0x3dc06b18	0.093954265
138	0x3d83f371	0.06442917
139	0x3dad94e6	0.08475666
140	0xbd9395a7	-0.07206278
141	0x3de8ba90	0.11363709
142	0x3d687060	0.056747794
143	0xbcd55222	-0.02604014
144	0xbe1278e2	-0.14303926
145	0xbe04aa1f	-0.12955521
146	0x3d749972	0.05971665
147	0x3d8160e2	0.06317307
148	0x3b9cf892	0.004790374
149	0xbe16283c	-0.14663786
150	0xbe052269	-0.13001408
151	0x3d7b47a9	0.061347637
152	0xbdd91e63	-0.10601499
153	0x3d20b011	0.03923041
154	0x3d74293e	0.059609644
155	0x3dd6b205	0.10483173
156	0x3dc77273	0.09738626
157	0x3d99a872	0.075028315
158	0xbd52d85f	-0.05147588
159	0xbd80b3de	-0.06284307
160	0xbdd970bb	-0.10617205
161	0xbdd58327	-0.10425406
162	0xbdcb6fd2	-0.099334374
163	0x3d6c26ef	0.057654317
164	0xbe20e42e	-0.15712044
165	0x3da45117	0.08023279
166	0xbde1938b	-0.1101447
167	0xbe0132aa	-0.12616983
168	0xbda6bde3	-0.08141687
169	0x3d6ca6e0	0.057776332
170	0x3d1658d5	0.03670581
171	0x3dc4bb47	0.09606033
172	0xbdc63e38	-0.09679836
173	0x3d945a91	0.07243837
174	0xbdc5b149	-0.09652955
175	0x3d69bd57	0.057065334
176	0x3d222108	0.039582282
177	0x3da9ffaf	0.08300721
178	0x3d33a210	0.043855727
179	0xbdcf9765	-0.10136298
180	0x3dae8305	0.08521084
181	0xbe1dbda2	-0.1540437
182	0x3d886ac9	0.06660993
183	0xbdcf69a3	-0.101275705
184	0xbe187fa7	-0.14892446
185	0xbde4d3f5	-0.1117324
186	0xbdbee02d	-0.09320102
187	0xbe09cda0	-0.13457346
188	0xbd06b36b	-0.03288595
189	0xbe0ff3a2	-0.14057782
190	0xbe000138	-0.12500465
191	0xbcb4fdc3	-0.02209366
192	0x3dc22e5f	0.09481501
193	0xbdddc60d	-0.10828791
194	0x3d9a3a4a	0.07530649
195	0xbe0044f3	-0.12526302
196	0xbe06423d	-0.13111205
197	0x3d924b72	0.07143296
198	0x3d730015	0.05932625
199	0x3dd7c2aa	0.10535176
200	0x3d77373b	0.060355406
201	0xbe012e1d	-0.12615247
202	0xbdff4d33	-0.124658965
203	0x3dc2cf36	0.095121786
204	0x3d59702b	0.053085487
205	0x3cd60979	0.026127564
206	0xbdcce573	-0.100047015
207	0xbd593cd8	-0.05303654
208	0xbdb306c5	-0.087415256
209	0xbdd0dae9	-0.10198004
210	0xbdfab797	-0.12242048
211	0xbd412c10	-0.047161162
212	0x3dc55421	0.09635187
213	0x3dbf7478	0.093483865
214	0xbdfb128a	-0.122593954
215	0xbde5302a	-0.11190827
216	0x3d7cc873	0.0617146
217	0xbd90b5b2	-0.07065906
218	0xbdabad2a	-0.08382638
219	0x3d7233cb	0.059131425
220	0xbd9635e8	-0.073345006
221	0x3dbf553f	0.09342431
222	0xbcdea054	-0.02717606
223	0xbd7529c8	-0.0598543
224	0x3db217c9	0.08695943
225	0xbdca257c	-0.09870431
226	0xbe0124f4	-0.12611753
227	0x3db7e71f	0.0897963
228	0x3b3f14d0	0.0029156692
229	0x3d9ef757	0.0776202
230	0x3d9da39f	0.07697224
231	0xbd8b0a18	-0.067890346
232	0x3d98ce05	0.0746117
233	0xbdaf63f0	-0.085639834
234	0x3d34fa7a	0.044184186
235	0x3db9646e	0.090523586
236	0xbdf3a969	-0.11897547
237	0xbc8e4975	-0.017369011
238	0x3d8d0cbd	0.06887195
239	0xbdf1d317	-0.1180784
240	0x3d9fe127	0.07806616
241	0xbe025d76	-0.12730965
242	0x3db72f2b	0.089445435
243	0x3d8590c6	0.06521754
244	0x3dc2036f	0.09473311
245	0xbd363fc3	-0.0444944
246	0xbc9c65e2	-0.01909155
247	0xbd5a3461	-0.05327261
248	0x3d067f4e	0.03283625
249	0x3c9c3e1e	0.019072589
250	0xbd1898fe	-0.03725528
251	0xbc7c9e17	-0.015418551
252	0xbd975227	-0.07388716
253	0x3dbf0695	0.09327427
254	0xbdd4525a	-0.1036727
255	0xbd56ace8	-0.05241099

action_model._discrete_distribution.branches.0.bias f4 [5]
0	0xbddbcdbc	-0.107326
1	0x3cbfbd8f	0.023405818
2	0x3ca673cc	0.020318888
3	0x3b85b7f5	0.0040807673
4	0x3d0d9bdf	0.03457248
