Scenes/ImprovedGridWorld2D/results/test-run/DroneGrid2D/DroneGrid2D-1950148.onnx (onnx, 77147 bytes, 6 tensors)

network_body._body_endoder.seq_layers.0.weight f4 [128, 6]
00000000: 252b 8a3e 38a0 093e 4ec9 d03e cd74 5bbc
00000010: 6548 543e 43ea 9a3e e755 ecbe 4f6f 5abf
00000020: ebfd 47be 562e 25bd f7e4 563f af23 eb3d
00000030: 0013 f3be 19e1 193f 6d03 3a3f fa3a 41bf
00000040: c5e4 ac3e 4ca7 973e 12ef 05bf a7e0 e2be
00000050: 600e 433e 41a5 8b3e 0657 5b3e b7b8 cabe
00000060: 194d 43bf d9e2 3bbe e6da d6bd a56b 403f
00000070: 96aa bd3e 2591 bebe 05eb ef3d 37db 00bf
00000080: 5b0a 833e 0ff9 293e 2113 84be c594 0b3f
00000090: 476e 483d 2c20 efbd 562f c7bd cb54 d5be
000000a0: 669f 29bf 7355 d03e f464 ccbe 56d1 343e
000000b0: 6c38 eabe 590d 5dbd 7e29 41be 6983 68bf
000000c0: b58f c1be d138 84be 751d 9a3e 57e2 cdbe
000000d0: f242 84bf 0e0a 30be 066c 4c3e 875b 0a3f
000000e0: 77d0 873e 5d0f 203e ae4a 323f 9bed 13bf
000000f0: 37ea 123c 192e f23e 18c7 973f 7fd7 a3be
00000100: 98f8 383f 24a2 19be 1df5 0cbf 20f8 2c3f
00000110: 5890 21bf 6c34 d5bd 6c84 c8bb 25ef 20bf
00000120: 01da ea3d 7e58 9cbe 6e25 c8bd cf47 4fbe
00000130: d7bf 0cbf 4c1f 36bd c372 b73e e560 7cbe
00000140: e9ec 493e 657a eabe 2021 be3d ba6f a1be
00000150: 5ff3 03bd d4b6 80be 437d 99bd 9820 a93e
00000160: 7e70 3fbe 99df 173f a649 c5be ab92 0ebf
00000170: 9032 733f ee72 f53d f861 f13d 6e08 03bf
00000180: f6da c43e e63d 893e 68fd 633f 9211 07bf
00000190: bf70 8d3f 4bd3 3ebf 92d9 4fbf 7b9c c7bd
000001a0: 3138 fc3e e81b 253e ad79 303f e37f 903e
000001b0: 2f11 3c3e dfab a5be 9e9a 18be 4e61 233f
000001c0: c909 01bf 1d3b 4a3f ce28 7b3e 182e d93e
000001d0: 20fb e5bd d88a 8dbe 0e08 633e b08d a4be
000001e0: 38f0 08bf 07ff 35bf c4da 72bf 1cf8 5bbf
000001f0: 04cb 51bf 4854 c23e c1eb 253f cdfa 2c3e
00000200: 6409 b43d 5613 913e 4796 f0be 54ae 4f3f
00000210: a45c 783d f2fc 7cbd af89 063f 8887 68bf
00000220: 0a12 fdbe d7ce 5b3e 7667 67bf 2d95 69bf
00000230: b720 5bbf 41fa 17be 6909 37bd 6263 a3be
00000240: 8032 bb3e 7804 55bd da1e 78be d6a0 f33d
00000250: ee8b 4e3f 340b 84be a816 0fbf e87e 20bf
00000260: 70c5 d53e 656e c73d 9a3a b63c 54f9 58be
00000270: fe0c 993e 060a ba3e b870 51be 5b4d 2cbd
00000280: 9548 04bf 10e3 273e 59d7 403d 3259 9d3e
00000290: a5a4 0cbf ae6d d4bc dabf 92be f376 883e
000002a0: 8e60 dbbd d730 163f 843d 2ebf 0210 e63e
000002b0: 8f10 38bf cbcd e73e 1010 5f3e 41a5 0dbf
000002c0: beb4 eb3d d989 573e 02a1 893c 1feb 13bf
000002d0: 9d61 36be 0bcc 98bd b17a 053e 5129 903e
000002e0: a950 b1be 937e 4e3f bedf 8b3e d646 3dbf
000002f0: 5853 93be 86c0 453e 7aed 063c 9b21 c0be
00000300: c2c2 553d e8ca 433e 26b2 5d3e fb7b 583f
00000310: 6188 583e 2033 f33e 0107 fb3d b159 45bf
00000320: ab47 203e 9fdc 72be b637 70bf 16ce 8ebc
00000330: c233 0bbf 796a 8f3f fa16 803c 1218 8bbe
00000340: 6bb0 fd3d 4246 e9be c1c6 27bf fbd1 01be
00000350: 56d7 d6be 9468 32bf bafc a13d a140 0dbf
00000360: 0e37 203f 322e de3e 0119 583f 2281 9c3e
00000370: e2ff 81bf 2617 05bd 41ed 65be f67b 8dbe
00000380: 95b5 f8be 1038 853e 4075 253f 0cea 883d
00000390: 8126 303f e34c 08bc 6bb0 5bbe 72bd 353f
000003a0: e5c6 403e 88cf 663f a1d5 eeb9 a248 09bf
000003b0: 1fe6 573e 5e45 083e 5dae c2be 30a5 2f3f
000003c0: 2f8c 733d 9c3d 253f b3c3 b0be 82b0 1bbf
000003d0: cfd8 1f3f 4c86 43be 00b0 a7be 3aab 00be
000003e0: 8438 eabd 2961 b23c e7a2 e8bc 0d13 0e3f
000003f0: 7395 79be eb1c 2abe 2b0b 5b3e 437f b1bd
0.26986042 0.13440025 0.40778583 -0.013394547 0.20730741 0.30256853 -0.46159288 -0.85326093
-0.19530456 -0.040327393 0.8394312 0.114814155 -0.47475433 0.60109097 0.7266148 -0.75480616
0.33768287 0.29619825 -0.5231792 -0.4431202 0.19048452 0.27274516 0.21419916 -0.3959405
-0.76289517 -0.18348254 -0.1049097 0.7516425 0.3704421 -0.3722011 0.11714748 -0.50334495
0.25593838 0.16598915 -0.25795844 0.5452388 0.048933294 -0.11676058 -0.097258255 -0.41666254
-0.6625885 0.40690193 -0.3992077 0.1765798 -0.4574617 -0.053967807 -0.18863484 -0.90825516
-0.37804952 -0.25824597 0.301006 -0.40211746 -1.033293 -0.17191336 0.19963083 0.5404591
0.26526234 0.1563086 0.696452 -0.5778443 0.008966974 0.47300795 1.1857634 -0.32000348
0.72254324 -0.15003258 -0.55061513 0.6756611 -0.63110876 -0.10410389 -0.0061193015 -0.62864906
0.11467362 -0.30536264 -0.09772764 -0.20242237 -0.54980224 -0.04446344 0.35829744 -0.24646337
0.1971928 -0.45796505 0.09283662 -0.31530553 -0.03221452 -0.25139487 -0.07494595 0.3303268
-0.18695256 0.5932556 -0.38532752 -0.5569255 0.9499903 0.11984812 0.11786264 -0.5118474
0.38448304 0.26805037 0.8905854 -0.52761185 1.1050032 -0.7454116 -0.8119136 -0.09746643
0.4926162 0.16123927 0.6893566 0.2822257 0.1836593 -0.3235769 -0.14902732 0.6382035
-0.50405556 0.7899645 0.24527285 0.4241798 -0.11229539 -0.27644992 0.22171041 -0.3213935
-0.53491545 -0.71092266 -0.9486506 -0.8592546 -0.819504 0.37954926 0.64812857 0.16892548
0.087908536 0.28335065 -0.46989653 0.8112538 0.060635224 -0.061764665 0.5255384 -0.90831804
-0.49427825 0.21465622 -0.90392244 -0.9124325 -0.85596794 -0.14841558 -0.04468671 -0.3191176
0.36561966 -0.052006215 -0.24230519 0.118959114 0.80682266 -0.25789797 -0.55893946 -0.62693644
0.41752195 0.09737853 0.02224474 -0.21188861 0.29892725 0.36335772 -0.20453155 -0.04206596
-0.5167325 0.16395211 0.04708037 0.30732113 -0.5493873 -0.025931206 -0.28661996 0.2665325
-0.10711776 0.58668274 -0.68062615 0.44934088 -0.71900266 0.45274195 0.21783471 -0.5533028
0.11509083 0.21048678 0.016800407 -0.5778064 -0.17810674 -0.07460793 0.13035084 0.28156522
-0.3463185 0.80661887 0.2731914 -0.7393621 -0.28774524 0.19311723 0.00823533 -0.3752564
0.05218769 0.19120371 0.2164999 0.8456418 0.21145774 0.47499943 0.12257195 -0.77089983
0.15652339 -0.23716973 -0.9383501 -0.017432254 -0.5437585 1.1204368 0.015635956 -0.27166802
0.12387165 -0.45561415 -0.6553765 -0.12677757 -0.41961163 -0.69690824 0.07909532 -0.5517674
0.62584007 0.4339462 0.8441315 0.3056727 -1.0156214 -0.03249278 -0.22453786 -0.27633637
-0.48576036 0.26019335 0.64632034 0.06685266 0.6880875 -0.0083191125 -0.21454017 0.70992196
0.18825872 0.9016042 -0.00045554063 -0.53626454 0.21083878 0.13307711 -0.38023654 0.6861143
0.05945986 0.64547133 -0.34524307 -0.60816205 0.624402 -0.19094199 -0.32751465 -0.12565318
-0.11436561 0.021774845 -0.02839799 0.5549782 -0.24373417 -0.16612594 0.21390979 -0.08666851

network_body._body_endoder.seq_layers.0.bias f4 [128]
00000000: bade 593b 1a3a 383d 08f8 f1bc ca5e a7bd
00000010: 8461 3f3d 2b2f 613c a8b7 d53c 8d19 603c
00000020: 8008 90bd ba0f 3b3d 24d5 723d cb42 26b9
00000030: 94d4 e93b f552 623d 7769 263d c7f6 24b9
00000040: c0d4 5a3d 17c6 453d 4f66 833c 02bb 0cbc
00000050: 46a4 c73c d981 933d 92bb c8bc 6613 bfbd
00000060: d7dc 6e3d 9e61 d1bd a457 c83d 66c4 7f3c
00000070: 7bbd b03c 99c8 a03d 08c2 8e3c cdcc 46bb
00000080: 389b 973c afff 9c3c 7496 f33d ea9e 81bd
00000090: 2c14 e53d a313 1c3d 5d05 2b3d 8957 cf3c
000000a0: 25f4 ff3c 23d0 a03c f0ee fcbd 3231 f43c
000000b0: b02f 96bb 7385 513d 6bd2 c73d f763 253d
000000c0: 3a54 17bd 9017 6e3d 6e2b d83c e9c9 babb
000000d0: e449 273d f759 5ebd f47d 243d 46e1 853d
000000e0: 086b 1e3d 1525 103d ad06 563d d5ca abbb
000000f0: c826 b33c 9325 c73d 0ca3 1a3d 45c6 a03d
00000100: 3f6e a43c 782a 0e3d b738 3f3c 1969 a53d
00000110: 6ee2 df3c a2f6 ceba e97c 513d 4b62 f63c
00000120: 91ea b03c feb6 42bc 2fcf 5d3d c70d c03d
00000130: 6132 e6bc b241 853c 97ab 093e 3688 403d
00000140: b6a9 06bd 4286 2a3e 1c8c d63d 2bc7 733b
00000150: 33dc 9b3d 32b3 493d d88b 963d ef9e 48bd
00000160: 6a00 e83c 27f9 413d 7425 053d 3dc9 a33c
00000170: 6b14 583c 8bfc be3d 874e 4bbc 50eb f2bd
00000180: bb2a 6d3d 5a3f c33c 2490 943d 3113 933d
00000190: dc61 253d fd1d a4bb fea7 813d 7732 823d
000001a0: 1850 0a3e ff2a 473e 51dd d3bd ee43 393d
000001b0: 1053 ed3c 6732 9d3c 0485 4a3d a9aa e7bc
000001c0: fbe3 a8bd 7d76 4c3d be50 a53c fd2b cb3c
000001d0: d8fd 753d 4f32 c53b 5c78 833d 8cf9 203d
000001e0: dda5 3c3c 67b8 e33c 3636 1fbd 1188 6e3d
000001f0: 9e40 1a3d 906f 173e e349 94bd f37b 793d
0.0033244328 0.044977285 -0.029537216 -0.081723765 0.046723858 0.013744156 0.02608855 0.013677967
-0.07032871 0.045669295 0.059285298 -0.00015855876 0.007135937 0.055254895 0.040627923 -0.0001573219
0.05342555 0.048284616 0.016039995 -0.008589508 0.024370324 0.07202501 -0.024503503 -0.09329872
0.058316078 -0.10223697 0.09782341 0.01561079 0.021574726 0.07850761 0.017426506 -0.0030334473
0.018506631 0.019164888 0.11893931 -0.063291386 0.11185488 0.038104665 0.04175316 0.025310295
0.031244347 0.019630497 -0.12350261 0.029808614 -0.0045833215 0.051152658 0.09756931 0.040378537
-0.03694556 0.05812794 0.026387896 -0.005700339 0.040841952 -0.054285016 0.04015918 0.06537108
0.03867629 0.035191614 0.05225246 -0.0052426853 0.021869078 0.097239636 0.03775315 0.07850317
0.0200721 0.03470847 0.011671237 0.080766864 0.02732965 -0.0015790055 0.051144514 0.030076167
0.021596225 -0.011884449 0.054152664 0.09377628 -0.028100194 0.016266678 0.13444363 0.0470049
-0.032876693 0.16652778 0.104759425 0.003719757 0.07610359 0.04924316 0.07350892 -0.048979696
0.02832051 0.04735675 0.03250642 0.019993419 0.013188462 0.093255125 -0.012408859 -0.118612885
0.05790208 0.02383392 0.07254055 0.07181395 0.04037653 -0.0050084577 0.0633087 0.06357282
0.13507116 0.19449995 -0.10344947 0.0452308 0.028970271 0.019189073 0.04944326 -0.02827962
-0.08246609 0.049917687 0.020180102 0.024801249 0.060056537 0.00601796 0.06419441 0.039300486
0.011514154 0.02779789 -0.03887006 0.05823523 0.03765928 0.14788651 -0.07240655 0.060909223

network_body._body_endoder.seq_layers.2.weight f4 [128, 128]
00000000: 3e11 ebbd 657a 773a 9c80 f6bd 7267 283e
00000010: 5546 a4bb e0bc e8bd 275e 6d3e cc4e 57bd
00000020: 8521 193e 4936 38be 8353 57be 6e5d eebc
00000030: 8371 063e 5d32 2a3d 8795 8d3d 2f7e 2a3d
00000040: 9e4f b4bd be86 33bd 7f54 193e fcca 37bd
00000050: 100b 13bd 0dc0 f23c da01 a53d 9c6f 183e
00000060: 8ad6 fabd 54d9 dc3c 74e1 f33d 9b91 79bb
00000070: 8857 a33d 40c9 2fbe 483d dc3d 850e ac3d
00000080: 3872 85bd a9cd aa3d 1025 54bd 6619 c73d
00000090: ab18 263e c4f2 d43c 1094 26bc 2623 343e
000000a0: c745 3e3d ce44 a63d b663 7dbd a2a1 313c
000000b0: c144 193e 984d 45be adaf 72bd 237b 363e
000000c0: c849 a33d 4955 cc3c 267b 7fbc 1629 893d
000000d0: 8945 f4bd ab2e 34bc e67f 9a39 7a4c 56be
000000e0: c24f c5bb f41a 133d cc35 cd3d b380 38be
000000f0: af2f 3a3d 683a 61be 9ba1 0bbe e090 b63d
00000100: 080a cabd c8df 63bd bf03 2f3e 274a 80be
00000110: 51a9 f0bd e4cc 05be f6c4 413d a9c7 0d3e
00000120: 2a57 9dbb 70c6 a5bd 0965 80be 3433 d5bd
00000130: d298 183d bc4b ca3c 451a e7bd 0584 acbc
00000140: 26c6 db3c 1c3d 23bb 180d 363d e312 a9bb
00000150: 908f ecbd cbd0 15be b11a 4abd db8d babd
00000160: 34e0 b7bd de75 ca3d 360d 24bd 9609 81bd
00000170: eea5 d43d cae8 cbbd 6e2e 71bd fdc4 283e
00000180: a1c2 03be bcf5 633e 4438 e63c 5d48 323d
00000190: 23e4 753e 2ca7 0e3d 53ab eebd 5ad3 42bd
000001a0: a816 cbbd 99ba c3bd 3903 1e3e 1d97 28be
000001b0: f4b4 07bd a440 f8bc e421 8bbd 52b2 85bd
000001c0: 2944 273d 6a59 a6bc a51c ecbd 7bfe 1cbd
000001d0: bd02 723d d1ce 2bbc 76ed e73c e1b0 6dbe
000001e0: 6a3a f3bd 9aec 393e 0512 1dbe 0f43 593e
000001f0: 7129 b4be 6243 4f3c 9aba be3d 1b83 0dbe
00000200: acdc 84bd 4107 843c f608 00be 3e14 a2bc
00000210: b5ed f3bd 2f07 a13d 276a e63e d85b 943d
00000220: efe9 b73e dbfd 37be b007 2cbe d737 c73b
00000230: b6e9 663d 5f2d d33d 10ac 1a3d 7f1c a6bd
00000240: 2481 4fbe 38f7 55be a3ed 9bbd e0e3 82bc
00000250: 807a 7a3e 813a 583d 87a7 513e 93b2 0e3e
00000260: e44a 25be 781f 6ebd 0429 a23e 4ca8 273e
00000270: ad8c 7ebd 8578 80be e0d7 c43d 7f4e 18be
00000280: 6b81 83be b753 223e bb6c 923d f380 f93d
00000290: 0b7a 593d 362a 0fbe a92a a1bd ae5e 583d
000002a0: 9c57 1bbe 3678 99bd 7d7a 2fbe f1ca 1d3d
000002b0: 3f8e 7a3d 3865 83be e87a 63be d1fe 583e
000002c0: d91b 563e 7269 423d 5929 a33c 1b90 86bd
000002d0: da7c 11be 3929 e03d c734 2cbd 4a66 24be
000002e0: 3583 f7bd c56e 0a3d 3e29 123d e0f0 f3bd
000002f0: 4e34 aabd 8db3 adbd 6164 14be 54d0 853d
00000300: 3bf5 90bc b7f8 a2bd 452a d63d 8d67 aabe
00000310: c5fd 3fbe b340 963d e3dd 3fbd 7c38 ec3d
00000320: b692 12be db1f 7e3c 0ef0 263d c0a5 ebbd
00000330: 9884 b3bc 0480 1ebe c91a 2ebc 26f2 5c3e
00000340: 0102 25bd 97e5 523d 7aca 60bd cc42 87be
00000350: eb31 a1be 2577 5abe 34ba 95bd 4486 18be
00000360: 5cb5 1dbe 948c 243e cd38 f7bc 3a72 193e
00000370: 0ec5 843e 90ed 933d da17 d6bd 58ef 48be
00000380: c93d 5cbd 3639 003d 4f90 593e 0bbe 7f3e
00000390: fc53 c13e 32f8 453d 4882 49be 65b0 bdbd
000003a0: e3d7 7e3d 4321 a83d 8e73 2b3e 460a e9bd
000003b0: a3d8 9c3d 0e3f 8bbd cd25 23be c51c aebd
000003c0: 6563 69bd 9b69 d5bd 82af 5a3c 7659 4b3e
000003d0: a961 93bd 706b 753e 337f d73d 665b 06be
000003e0: 30ec d63d a9a7 de3d 85a5 dcbc 9acd 1d3e
000003f0: 9740 d3bd f5a0 043d 763d ee3d f5e9 b93d
-0.11477898 0.00094405405 -0.12036249 0.16445711 -0.005013267 -0.1136415 0.23180448 -0.05256538
0.14954193 -0.17989458 -0.21027951 -0.029097285 0.13129239 0.041551936 0.06913286 0.041624244
-0.08804248 -0.043829672 0.14973639 -0.044871315 -0.035899222 0.029632593 0.08056994 0.14886326
-0.12247951 0.026959099 0.11908236 -0.0038081172 0.0797568 -0.17166615 0.10753876 0.08401207
-0.06515926 0.08340008 -0.051793158 0.09721641 0.16220348 0.025994666 -0.010167137 0.17591533
0.046453264 0.08118592 -0.06186267 0.010841759 0.14967634 -0.19267881 -0.05924957 0.1782041
0.07973057 0.02494301 -0.015593326 0.0669729 -0.11927325 -0.010997455 0.0002946846 -0.20927611
-0.0060214708 0.035914376 0.100200266 -0.18017845 0.04545563 -0.21994936 -0.13635866 0.089143515
-0.098651946 -0.055633336 0.17091273 -0.25056574 -0.117510445 -0.13066441 0.047306977 0.13845696
-0.0048016505 -0.080944896 -0.25077084 -0.10410157 0.037255116 0.024694316 -0.112843074 -0.021059046
0.026827883 -0.002490825 0.04444608 -0.005159722 -0.1155082 -0.1463043 -0.04934186 -0.09109088
-0.0897831 0.09885763 -0.04005166 -0.063006565 0.10383211 -0.0995651 -0.05888217 0.16481395
-0.12867214 0.22261709 0.028103001 0.043526042 0.24012809 0.034827396 -0.11653771 -0.04756484
-0.09916431 -0.09557075 0.15430917 -0.16463895 -0.033131555 -0.03030426 -0.067935735 -0.065281525
0.040836487 -0.020306308 -0.11528901 -0.03832863 0.059084643 -0.010486321 0.028311472 -0.23212005
-0.11876376 0.18156663 -0.15338905 0.21216987 -0.35187867 0.012650343 0.09312935 -0.13819544
-0.06487402 0.01611674 -0.12503418 -0.019785043 -0.119105734 0.07862698 0.45002863 0.0724408
0.35920665 -0.17967932 -0.16799808 0.0060796547 0.056375228 0.10311388 0.037761748 -0.08110904
-0.20264107 -0.20895088 -0.07613685 -0.0159778 0.24460793 0.05279017 0.20474063 0.13935308
-0.1614185 -0.05813548 0.31671917 0.16372794 -0.062145878 -0.2509195 0.096114874 -0.14873694
-0.25684676 0.15852247 0.07149645 0.12182798 0.053094905 -0.13980946 -0.07869465 0.05282467
-0.15170139 -0.074936315 -0.1713657 0.038523618 0.061170813 -0.2566316 -0.22214854 0.21190955
0.2090906 0.04746384 0.019917177 -0.06570455 -0.14207783 0.109453626 -0.04204252 -0.16054645
-0.12085573 0.033797044 0.035683863 -0.11911178 -0.083107576 -0.08481512 -0.14491417 0.06533876
-0.01769506 -0.07957595 0.10457281 -0.33282128 -0.18749149 0.07336559 -0.046842467 0.11534211
-0.14313778 0.015510525 0.040756278 -0.11506224 -0.021913812 -0.15478522 -0.010626503 0.21576747
-0.040285114 0.051488485 -0.054880597 -0.2641815 -0.31483397 -0.21334513 -0.07310906 -0.14894968
-0.15401214 0.16069251 -0.030178452 0.1498498 0.2593159 0.07223046 -0.10453768 -0.19622552
-0.05376986 0.03130456 0.21246456 0.2497484 0.37759387 0.0483324 -0.19678605 -0.0926216
0.062217604 0.08209469 0.167433 -0.11378913 0.07658508 -0.06799136 -0.15932389 -0.08501581
-0.056979556 -0.10420533 0.013347508 0.19858345 -0.071963616 0.23966765 0.10522308 -0.13120803
0.10494268 0.108718224 -0.026934395 0.15410462 -0.10315054 0.032380063 0.116328165 0.09077827

network_body._body_endoder.seq_layers.2.bias f4 [128]
00000000: ea8f d9bd 052e b4bc 849b b23d ecf0 533d
00000010: 966b 9a3d 1a21 a43d 6b43 493d 58dc 003d
00000020: c7db 0c3d d994 023e cb66 af3d fa30 d13d
00000030: 8b14 37bd 983b 9b3d c538 26bc 56af 323d
00000040: 383b 303d da0a 7b3d 62ed 1e3d 81ca ec3c
00000050: b7e5 8bbd 7e3a 6e3d 10d1 933d 16ed 1f3d
00000060: 7bd8 5a3d 4880 383d 0701 5b3d 381b e33d
00000070: fbd5 c83d ae60 903d fb20 3fbd c732 a03d
00000080: 0fe0 d83d b1e4 4c3d f627 593d b673 58bc
00000090: 3b3b a93d 6e3a d43d 1a2f 6e3d b1cc ad3d
000000a0: 6b51 8c3d 07ba 3f3d 121d d9bc b807 7e3d
000000b0: 8bf7 b33c 80a6 a93d c955 313c 6437 16bc
000000c0: a285 b83d 536a ab3d f963 ab3d 9f9e dbbb
000000d0: a21c cb3d fd55 443d 9f26 993c 1b10 a23d
000000e0: 7f7f 0b3d 2e24 993d cf49 913d 7c2f 873d
000000f0: 342a b0bd dbd0 e03d f6a2 a63d 3308 ea3c
00000100: e6e9 5e3d de88 d93d 89a9 c43d 65f1 aa3d
00000110: 9d5a 963d b06e b63d 55c4 903d ba07 d83d
00000120: 5034 2c3d efec 483d 365b 973c 395d 5b3d
00000130: e3a9 43bb 744f 8bbd f244 993d 9871 04bd
00000140: 0b63 9f3d 59f5 a63d a712 d83d 4617 b4bd
00000150: efc1 c33d b92f c53d 0a64 243d 4922 2c3d
00000160: 0c8f a43c 1596 493d d223 383d fe79 9c3d
00000170: 9df4 163d 6178 b03d 09cb bebd f8aa b43c
00000180: ff85 ce3d 0930 d03c fe6b a13d 1164 3a3d
00000190: 102d 9fba 990e ba3d 4707 c63d 1372 533d
000001a0: b4f8 d13c 1789 9d3d 9554 eb3d fa92 b33d
000001b0: 320f d13d f536 f6bd ee8d b63d 9cca 0bbd
000001c0: a614 cd3d 0040 7c3d 47fa 8c3d 78ad 603d
000001d0: 8b6c 903d 4528 ebbd f117 113d 4284 ca3d
000001e0: 23e7 d03d 87f8 183e 70c0 c23d dae2 9ebd
000001f0: 7bd7 d53a 132b b33d 2183 ba3d 6def 783d
-0.106231526 -0.0219946 0.087210685 0.051743433 0.07540052 0.08014126 0.04913656 0.031460136
0.034389284 0.12752093 0.08564528 0.1021442 -0.044697326 0.07579726 -0.010145371 0.043624245
0.043025225 0.061289646 0.038800605 0.028905155 -0.06830924 0.05816125 0.0721761 0.039044462
0.053429108 0.045044214 0.053467777 0.11089176 0.098064385 0.0704969 -0.046662312 0.07822185
0.10589611 0.050022785 0.053016625 -0.013211181 0.082632504 0.10362707 0.05815039 0.084863074
0.06851467 0.04680827 -0.02650312 0.06201908 0.021968624 0.082837105 0.010823675 -0.00916848
0.090098634 0.08369889 0.08368678 -0.0067022587 0.09917571 0.047933567 0.018695174 0.07913228
0.034057137 0.07477604 0.07094156 0.06600854 -0.086017996 0.10977336 0.08136551 0.028568363
0.05442228 0.106218085 0.09602649 0.083468236 0.07341502 0.08907831 0.07068697 0.10548349
0.042042077 0.049054082 0.01847611 0.0535557 -0.00298559 -0.06802264 0.074838534 -0.032334894
0.07782563 0.08152265 0.10550433 -0.087935016 0.09558474 0.09628243 0.040134467 0.042024884
0.020087741 0.049215395 0.044956036 0.07640456 0.036854375 0.086167105 -0.0931607 0.02205418
0.100841515 0.02541353 0.07881926 0.045505587 -0.0012144167 0.090848155 0.09669357 0.05162246
0.025631286 0.076921634 0.11490742 0.08768268 0.102079764 -0.12022201 0.0891379 -0.03412877
0.10013704 0.061584473 0.06883674 0.054852933 0.07051953 -0.1148229 0.035423223 0.098885074
0.10200336 0.14938556 0.09509361 -0.07758112 0.0016314829 0.0874845 0.09107042 0.06077521

action_model._discrete_distribution.branches.0.weight f4 [5, 128]
00000000: c64c 1e3e 9dec 163e ea4b 86bd ce08 acbd
00000010: 5fa7 9a3d 4710 cc3b c4d6 aab9 00fb 1e3d
00000020: e5c3 af3c 54e8 87bd 0b8d 76bd e1d3 493d
00000030: 28a2 0e3e 20f6 80bd aace 903d adef 28bd
00000040: f287 113d 0d09 523c 77f2 aa3d b692 c93d
00000050: 71c8 1e3e 1b87 213c 1f89 cabc 2021 b1bc
00000060: c802 c33c 89ff 543d 2540 24bd 44d8 32bd
00000070: 6358 5ebd cbcc 36bd bf37 0c3e 80d5 a4bd
00000080: cce5 f1bd 07e3 323d b304 2f3c dcd1 093e
00000090: aba5 a9bc 5e11 43bd b27f 823c 9459 35bd
000000a0: 4c56 b2bd 1df2 153d ed32 133e 7c30 d23c
000000b0: cdb0 e53c 3f7d ddbd 92ce ca3d 4893 e83d
000000c0: 6187 09be d04f b93c a7f6 fabd f776 c13d
000000d0: 19a7 ddbd 7756 283c 33f9 e43d c6ae 71bd
000000e0: 2d28 c03c e685 81bd 324d 9abd 73cb 41bd
000000f0: 51a5 e43d 65f4 9cbd de0d 23bd 81b8 fb3c
00000100: edd3 ca3c 98ef cabd d67c 4bbd 7d37 72bd
00000110: 462f 5fbd c905 adbd e3f3 d6bd 69e5 83bd
00000120: cf7f 9fbb d04c 713d 82c4 c53d cfe8 c53d
00000130: b2d4 c73d bc89 193e 2be0 b3bd 7764 bf3d
00000140: 90e9 80bd 6eb5 45bd ec5b e8bd 02c8 0d3e
00000150: 3f8b e6bd 5bcd aa3c 3a8b 973d 11e0 38bc
00000160: 0a01 7dbc 871a afbd 1eca 3a3d 0805 00bd
00000170: c506 99bd f202 58bd 601d c83d 8379 e73c
00000180: c9f5 acbd 4763 8d3c 9fd3 27bd f0b7 0bbc
00000190: 43bf 1c3d a631 d8bd 94b4 68bd 9941 c8bd
000001a0: f525 0b3d 45cf bcbd 816e 23be bde6 d2bd
000001b0: ae53 2dbd 41d4 1e3e fbfc f0bd 75d0 033e
000001c0: 9b91 d1bd 690b ffbc 1b82 363d 55cc 4e3d
000001d0: e9e6 303c 178b 103e a4a3 82bc caca d0bd
000001e0: e03b 06be 39bd 41be 9eb6 f4bd 56f5 153e
000001f0: 177f 023d 8d87 18bd 5455 93bd 9b9b 98bd
00000200: a741 4f3c a46a ad3c 0939 bebd 89d4 5d3d
00000210: 01e8 ac3d 6a7d 03bc 5f51 6abd f51a fdbd
00000220: 65d1 bfbd 473f c03d 6112 813d ea33 ab3d
00000230: 1a0e 51bd 8af7 f83d 175e 653d 083e d5bc
00000240: 8302 f9bd 5fb0 e1bd f342 6a3d 5816 743d
00000250: 9f10 ba3c 346b 01be 05f7 d7bd be8e 893d
00000260: b04c b9bd 7bd9 f33c c6d0 873d ef34 dc3d
00000270: 00d5 ca3d b174 9d3d b457 d7bc 4678 3bbd
00000280: d906 bebd b5bb b2bd 1796 99bd 49d3 6b3d
00000290: 88d3 0bbe d94c ac3d bc59 b0bd 5f1d d8bd
000002a0: 97ce 7fbd d12d 873d e731 0b3d 5b07 c33d
000002b0: c0c2 a3bd fb12 9f3d 7a3c 97bd 5c1a 6e3d
000002c0: eccd 373d 515f b43d d2ca 473d 363e c1bd
000002d0: fb45 c03d 4ab7 09be 2895 883d ccb0 a5bd
000002e0: 2ea8 06be 55e9 a7bd e1b9 8ebd f2e1 e6bd
000002f0: d70c 4ebd 860e f6bd 81a2 dabd d4b7 62bd
00000300: 2071 c93d 3ed4 bbbd 25e0 9f3d f8e7 e6bd
00000310: a628 e5bd 0b77 983d 63af 803d 6412 dd3d
00000320: f318 8c3d 07ff debd 6491 d8bd 5a8d c23d
00000330: ba28 4a3d 5b6c ec3c 2ee1 a6bd ec2d 0abd
00000340: e265 85bd 402f b1bd ec9c dfbd 8174 09bd
00000350: 4133 d73d b920 c33d 780e dfbd 2adc bebd
00000360: c935 893d 59e5 5cbd fb9c 8ebd e3ce 683d
00000370: 72d0 6bbd 690d ce3d bb76 523d 8230 2dbd
00000380: 56d6 c03d 4cef 9ebd 382a cdbd d0a3 c23d
00000390: 9f32 b0bc 5e1c a93d 94f9 9f3d 1a8a 51bd
000003a0: 224f 9a3d 6e06 88bd 96ff f83c 0c6b c63d
000003b0: 59c2 cdbd 3a86 9a3a f8d7 9f3d 0816 ccbd
000003c0: b0af b03d 72bb efbd 8671 b73d ec10 8c3d
000003d0: 7c15 c93d dadc fcbc ac59 13bd 096f 86bd
000003e0: d5b6 213d b18a 573b fa8d 55bd dba7 0a3c
000003f0: b747 55bd b8f6 cd3d 18f7 97bd d331 06bd
0.15458974 0.14738698 -0.06557448 -0.08400117 0.07551455 0.0062275263 -0.0003258494 0.03881359
0.021455714 -0.0663611 -0.060193103 0.04927433 0.13929045 -0.062969446 0.07070668 -0.041244198
0.03553004 0.012819541 0.08347028 0.09842436 0.1550615 0.009858872 -0.024723588 -0.02162224
0.023805037 0.05200151 -0.040100235 -0.04366328 -0.05428351 -0.0446289 0.1369314 -0.080485344
-0.118114084 0.04367354 0.010682273 0.13458961 -0.02070888 -0.047623985 0.01593003 -0.04427488
-0.08707866 0.03660785 0.14374895 0.025657885 0.028038407 -0.108149044 0.099026814 0.11356217
-0.13430549 0.022621065 -0.122540765 0.09446519 -0.10822887 0.010274521 0.111803435 -0.059004568
0.023456657 -0.06324367 -0.07534255 -0.047313165 0.11164344 -0.07663802 -0.039808147 0.030727627
0.024759257 -0.0990898 -0.0496796 -0.05913495 -0.054488443 -0.08448369 -0.104957364 -0.06440241
-0.004867531 0.058911145 0.096566215 0.09663545 0.09757365 0.14993948 -0.08782991 0.09345334
-0.062945485 -0.048268728 -0.11345658 0.13845828 -0.11257028 0.020849874 0.07399602 -0.01128389
-0.015442142 -0.085499816 0.04560291 -0.0312548 -0.07471994 -0.052737184 0.09771228 0.028256183
-0.08445317 0.017259253 -0.040973302 -0.008527741 0.03826834 -0.10556345 -0.056812838 -0.09778137
0.033971746 -0.09219221 -0.15960123 -0.10297916 -0.04231613 0.15510656 -0.11767002 0.12872489
-0.1023285 -0.03113337 0.044557672 0.050487835 0.010797241 0.14115559 -0.01594717 -0.10194929
-0.13108778 -0.18919839 -0.11948894 0.1464437 0.031859484 -0.037238646 -0.071940094 -0.074515544
0.01264993 0.021169014 -0.09288222 0.054157767 0.08442689 -0.0080255065 -0.057206508 -0.12358657
-0.09366111 0.09387069 0.063023336 0.08359511 -0.05103884 0.12156589 0.055997934 -0.026030555
-0.12158682 -0.11019968 0.057192754 0.05959162 0.022713004 -0.12638551 -0.10545162 0.06716679
-0.0904783 0.029766789 0.06631617 0.10752284 0.09903908 0.07688273 -0.026286937 -0.045769
-0.0927865 -0.087272085 -0.074993305 0.057574544 -0.13654912 0.08413095 -0.086108655 -0.10552477
-0.06245288 0.06600536 0.033983137 0.09522887 -0.0799613 0.07767292 -0.07384582 0.058130607
0.044874117 0.08807243 0.04877741 -0.09435694 0.09388348 -0.13448825 0.06669074 -0.08090362
-0.13150093 -0.081988014 -0.06969047 -0.112735644 -0.050305214 -0.12014489 -0.106755264 -0.055351093
0.0983603 -0.09171341 0.07806424 -0.11274713 -0.11189394 0.07444581 0.06283452 0.10794523
0.06840696 -0.10888486 -0.10574606 0.09499617 0.049355246 0.028860262 -0.08148418 -0.0337352
-0.06513573 -0.0865159 -0.10918602 -0.033558372 0.10507823 0.09527726 -0.108914316 -0.09319337
0.06699712 -0.05392966 -0.069635354 0.056837928 -0.057571836 0.100611515 0.05138276 -0.04228259
0.09415881 -0.07760486 -0.10017818 0.09503901 -0.021508513 0.08257364 0.07811275 -0.051157095
0.07534625 -0.06641851 0.03039531 0.09688386 -0.100468345 0.001178927 0.07804865 -0.099651396
0.0862726 -0.11705674 0.089572 0.06839165 0.09818551 -0.030867029 -0.03597419 -0.06564147
0.039481003 0.0032889063 -0.052137353 0.008462871 -0.052070346 0.100568235 -0.07420176 -0.03276236

action_model._discrete_distribution.branches.0.bias f4 [5]
00000000: 0304 08be 7ea9 04bc db8e 713d 2cb8 77bc
00000010: 529a 643d
-0.1328278 -0.008097051 0.05897413 -0.015119594 0.055811234
