Scenes/ImprovedGridWorld2D/results/test-run/DroneGrid2D/DroneGrid2D-999949.pt (torch, 446685 bytes, 33 tensors)

network_body._body_endoder.seq_layers.0.weight f4 [128, 6]
00000000: 3727 8a3e baad 143e aa8f d13e a667 a2bc
00000010: 8369 673e e1f2 973e 0057 e9be da68 5dbf
00000020: 6154 4dbe b03e 0ebd d16d 523f 6018 fa3d
00000030: e100 f1be 9d63 1b3f 2d10 353f d2c7 44bf
00000040: ce75 a83e d052 8f3e d622 06bf 115b ebbe
00000050: 2a82 433e 3400 893e 016f 523e 9f48 c1be
00000060: a054 43bf 0bc7 47be 99b3 d2bd 425a 403f
00000070: 60a9 b83e 60ad b4be 9b7b e83d 6928 fabe
00000080: a962 823e 2bcf 283e 5ca0 76be f879 083f
00000090: 095e 333d 6384 d3bd 986e cbbd 256a d0be
000000a0: e1bd 23bf 4096 cb3e 21f0 c9be c882 283e
000000b0: 7d14 e6be 9343 7dbd 209d 51be bcf4 61bf
000000c0: 5de6 c8be 53cb 80be f903 9a3e 363e c8be
000000d0: 365d 7ebf af96 41be c43f 533e 046a 073f
000000e0: d543 893e 5dcf 1b3e 8db6 2e3f 22c3 10bf
000000f0: e278 a03c bf22 ee3e 1dfc 973f a8b9 a2be
00000100: ebe6 343f 48c4 12be 8da3 0bbf 208a 293f
00000110: 3ffd 1fbf 5f30 e8bd 3a32 b7bc 97a2 1bbf
00000120: 62fc dd3d 0638 96be 94dd cabd 7a79 43be
00000130: 63b1 06bf 49c0 6ebd 42a8 bd3e 3c41 80be
00000140: 288f 4f3e 29b0 eabe 68f3 963d a47c 9abe
00000150: 40f5 10bd 26c2 71be dea1 97bd 5c32 a93e
00000160: 50c6 2cbe aafc 153f 87ba c2be e3f8 10bf
00000170: 3f3e 743f 6ba9 eb3d 51b1 d53d 09b6 fcbe
00000180: cc2a c83e 2f56 843e af7d 643f 68af 06bf
00000190: 432f 8b3f f1c8 3cbf cb10 4dbf 31c6 d8bd
000001a0: 6daf fa3e c6d4 283e 8dd5 2c3f 5f75 943e
000001b0: 984b 383e 1333 9dbe 0b82 18be 0996 233f
000001c0: 881e f9be 5846 473f 01c5 813e d856 d43e
000001d0: 7136 e3bd 0c33 91be 0bdb 503e 9d59 9fbe
000001e0: 0fd7 09bf 4ca7 32bf 4e96 72bf 2108 59bf
000001f0: 97c6 4abf 8f28 bd3e 1c2f 253f 77c5 3c3e
00000200: 8ce0 b23d 1f62 923e 2784 e7be c61f 4e3f
00000210: 8989 563d 59cc 58bd a50c 063f c28f 65bf
00000220: fae6 eebe 8ff7 533e fb4e 68bf 66f8 6ebf
00000230: 75f2 5abf 1331 21be acbf 5ebd 6c1c 9bbe
00000240: b5f0 bd3e 5074 82bd 6e50 76be 5a2f f63d
00000250: 362b 4b3f cb62 7dbe d78d 0fbf 2226 24bf
00000260: 6122 d73e d80e b53d 50ba 213c fbb2 4fbe
00000270: 2d66 983e 0179 c23e be2a 55be 7035 ffbc
00000280: 37fa ffbe a47a 1d3e bc06 363d b3fd a43e
00000290: 5c8a 0dbf 2901 b1bc a3ed 89be 89fd 833e
000002a0: 17e8 e0bd 1525 1a3f 48a4 2fbf f459 e93e
000002b0: a3a0 33bf dfe4 e13e 5243 653e 35b2 0fbf
000002c0: 35c1 f73d dce8 563e e206 16ba 806c 0ebf
000002d0: 820e 3abe 0593 73bd 82a3 053e 4b4f 8f3e
000002e0: 15f1 a7be d918 4c3f 53b5 8c3e fb14 41bf
000002f0: b6f1 91be 9054 483e 36a5 25bc d4d2 b7be
00000300: 4600 613d 388c 553e a2e3 5c3e 9ff9 563f
00000310: 3952 5d3e 5dda eb3e 5fa9 ec3d e6a3 42bf
00000320: 19e0 1e3e 5015 66be c7c1 68bf 1a62 09bd
00000330: 969a 06bf f0fc 8e3f 2f5e 833c 360d 8abe
00000340: 1be1 d43d 8504 e2be 0ccc 26bf 3177 0ebe
00000350: c42c d6be d3da 33bf 6bf2 793d 127e 09bf
00000360: cd73 1f3f f458 e53e 6a42 583f 5539 a23e
00000370: 868a 7ebf 7488 33bd e2c6 61be 37e1 93be
00000380: b228 fbbe d7d5 863e 44fe 213f eccb 9e3d
00000390: 5286 2f3f dde4 fc3b 4972 5cbe 340f 363f
000003a0: 25bd 4c3e 9fd5 643f 8365 7dbb e05c 05bf
000003b0: 3e10 573e 7752 073e 8039 b9be 0b36 2d3f
000003c0: 14c7 8d3d 69e9 223f bb45 b1be c3b1 1bbf
000003d0: 7818 1a3f 86aa 40be 692f a9be ab29 e4bd
000003e0: a8b2 eebd 1634 9c3c 40b3 70bc f46b 0a3f
000003f0: 53ef 79be 442e 31be 5143 493e 0060 e2bd
0.26983044 0.14519396 0.4092992 -0.019824814 0.22598843 0.2967749 -0.45574188 -0.86488116
-0.20051719 -0.034727752 0.82198817 0.122116804 -0.47070983 0.6069887 0.7072781 -0.768674
0.32902378 0.27992868 -0.52396905 -0.45967916 0.19092622 0.26757967 0.20550157 -0.37750718
-0.76301 -0.19509523 -0.10288162 0.7513772 0.36066723 -0.35288525 0.11351701 -0.48858956
0.25465897 0.16485278 -0.2408461 0.5331111 0.04379085 -0.10327985 -0.099332035 -0.40705982
-0.6396161 0.3976307 -0.39441016 0.16456139 -0.44937506 -0.061832022 -0.20470095 -0.8826406
-0.39238253 -0.25155124 0.30081156 -0.39109963 -0.9936098 -0.18905137 0.20629793 0.5289614
0.26809564 0.15215822 0.682473 -0.5654775 0.019588891 0.46510884 1.1873814 -0.3178227
0.7066485 -0.14332688 -0.54546434 0.6622639 -0.624958 -0.11337351 -0.022362817 -0.6079497
0.10839154 -0.29339617 -0.09905544 -0.19089308 -0.5261442 -0.058288846 0.37042433 -0.2504977
0.20269454 -0.45837525 0.07370645 -0.30173218 -0.03539014 -0.23609218 -0.074039206 0.33046234
-0.16872525 0.5858866 -0.38032934 -0.5662977 0.9540748 0.11506923 0.10434211 -0.49357632
0.3909515 0.25847003 0.8925428 -0.526114 1.0873798 -0.7374411 -0.8010375 -0.10584677
0.48961964 0.16487417 0.6751335 0.28995797 0.17997587 -0.3070303 -0.14893357 0.6390081
-0.48656106 0.7784171 0.25345615 0.41472507 -0.11094368 -0.28359258 0.20396058 -0.31123057
-0.5384378 -0.69786525 -0.94760597 -0.8477803 -0.79209274 0.36945006 0.6452501 0.18434702
0.08734235 0.28590485 -0.45218012 0.8051723 0.052377257 -0.052929256 0.52363044 -0.8967248
-0.46660596 0.20699905 -0.90745515 -0.93347776 -0.8552621 -0.15741377 -0.05438201 -0.30295122
0.37097707 -0.06369841 -0.24054119 0.1202075 0.7936281 -0.24744718 -0.56075805 -0.64120686
0.42018417 0.08840722 0.0098710805 -0.2028312 0.29765454 0.37982944 -0.20817086 -0.03115341
-0.49995586 0.15378815 0.044440016 0.32224807 -0.55289245 -0.021606999 -0.26939115 0.2577937
-0.109817676 0.6021283 -0.6861005 0.4557644 -0.7016699 0.44119927 0.22388962 -0.561313
0.12097398 0.20987266 -0.00057230715 -0.5563431 -0.18169597 -0.05946638 0.13050655 0.27990183
-0.32801118 0.79725415 0.2748209 -0.7542264 -0.28504723 0.19563508 -0.01011019 -0.35903037
0.0549319 0.2085427 0.2157121 0.8397464 0.21613397 0.46065035 0.115557425 -0.7603134
0.15515174 -0.22469068 -0.9092068 -0.033540823 -0.5257963 1.117094 0.016036121 -0.26963204
0.10394498 -0.44144073 -0.651551 -0.13912655 -0.41831028 -0.70255774 0.061022203 -0.53707993
0.6228607 0.44794428 0.8447634 0.31684366 -0.9943012 -0.043831304 -0.22048524 -0.28882763
-0.49054486 0.26335022 0.63278604 0.07753739 0.6856433 0.0077177123 -0.21527971 0.7111695
0.19994028 0.8938846 -0.0038665242 -0.5209484 0.2100229 0.13215052 -0.36176682 0.6766059
0.06922737 0.63637406 -0.34623513 -0.6081812 0.60193586 -0.1881505 -0.33043984 -0.1114076
-0.1165517 0.019067805 -0.014691174 0.54070973 -0.24407701 -0.17302805 0.19654585 -0.11053467

network_body._body_endoder.seq_layers.0.bias f4 [128]
00000000: 3fcd 933c f457 413d f985 12bc e1d1 97bd
00000010: 8916 323d 6d66 393c 7677 9a3c d345 2a3c
00000020: 417e 95bd 2ca0 383d a2ef 653d fbb4 5bbb
00000030: b913 f5ba 0d2f 433d 5c72 173d b274 933b
00000040: d326 5d3d b7a3 493d f5ab 503c 55c0 02bc
00000050: 69ab 883c 01e5 863d a85c dbbc af43 a6bd
00000060: 1496 6c3d 2252 abbd 6207 b33d fbe1 3f3c
00000070: 6e29 813c 775a 923d 56e2 753c df95 b239
00000080: 4e54 e93c e129 0a3c 7497 d33d 407a 63bd
00000090: 0047 c93d a352 243d d0d5 293d 5459 ae3c
000000a0: 4660 063d 55a0 a33c ec9b 9abd 822c fc3c
000000b0: 2959 debb 8240 463d 087e ba3d e954 143d
000000c0: 9cff 1bbd d336 593d 6549 ae3c 8f89 ffba
000000d0: 24da 1e3d 6335 45bd 15da 193d 91a5 713d
000000e0: 4577 273d d995 003d bc60 3b3d 1ab7 8239
000000f0: 7399 b23c 73da ba3d bef6 203d ff2c 663d
00000100: 31a6 aa3c 3e37 153d aa56 113c 08e7 a03d
00000110: ccb0 e33c 3793 b8bb 8959 3b3d 6119 cf3c
00000120: f320 a13c 914a 53bc c487 503d 0d5f a73d
00000130: 6521 e9bc cec7 773c 3d4e d23d f7d0 2a3d
00000140: e62f f5bc 8ac7 133e 5faf be3d 1ac5 0e3c
00000150: e467 943d bf0e 3f3d 5873 853d 5a58 22bd
00000160: 57b4 eb3c 4388 233d 29d9 1d3d 53ce 2c3c
00000170: e878 e73b da15 b43d 60a7 eabb 4c0a d6bd
00000180: 5b71 513d 9218 b23c bdca 7e3d 2819 7f3d
00000190: b857 fd3c 3425 2bbc 8aba 713d 568b 7d3d
000001a0: 4eb3 e13d 7b4c 223e 77f9 c5bd 2454 2a3d
000001b0: 79b1 bc3c e40a 843c bb6c 403d 2d01 cdbc
000001c0: 269e 9bbd c2cc 4c3d ac7a a03c 3e47 953c
000001d0: a9ca 6c3d aef7 023b 88ca 783d 148e 453d
000001e0: 64b6 123c ee87 b23c 6eb3 09bd e54a 483d
000001f0: 02cc 133d 4096 033e 89ee 84bd 8c7a 793d
0.018042205 0.04720302 -0.008943074 -0.07413078 0.043478522 0.011315924 0.018855792 0.010392624
-0.07299472 0.045074627 0.056136735 -0.003352462 -0.0018697894 0.047652293 0.036974296 0.004499995
0.053992104 0.049228396 0.01273631 -0.007980426 0.016683297 0.06586648 -0.02677758 -0.08118378
0.057760313 -0.08365275 0.087416425 0.011711593 0.015766826 0.07146161 0.015007576 0.00034062468
0.028482582 0.008432836 0.10331622 -0.05553651 0.09827995 0.04011787 0.041463673 0.02128283
0.032806657 0.019973913 -0.07549271 0.030782942 -0.006785531 0.048401363 0.0910607 0.03621379
-0.038085565 0.0530308 0.021275232 -0.0019495952 0.038782254 -0.048146617 0.037561495 0.058995787
0.04088523 0.031392906 0.04574655 0.00024931954 0.021801686 0.09123697 0.03929781 0.056195255
0.0208312 0.036429636 0.00887076 0.07856566 0.027794264 -0.0056327838 0.045739684 0.025280656
0.019669032 -0.012896196 0.050910726 0.081724264 -0.028458307 0.015123321 0.10268829 0.04170319
-0.029930066 0.14431587 0.09310793 0.008713985 0.07246378 0.046644922 0.06516141 -0.03963504
0.028772516 0.03992487 0.03853718 0.010547238 0.0070639737 0.0879323 -0.007161066 -0.10451183
0.051133495 0.021740232 0.062205065 0.06227985 0.030925617 -0.010445882 0.05901579 0.06190046
0.11020528 0.15849487 -0.09666722 0.04158415 0.023033844 0.016118474 0.046978693 -0.025024975
-0.07598524 0.04999996 0.019589745 0.018222447 0.05781046 0.0019984054 0.060740024 0.0482312
0.008954618 0.021793332 -0.033618383 0.04889955 0.03608323 0.12850285 -0.064908095 0.060907885

network_body._body_endoder.seq_layers.2.weight f4 [128, 128]
00000000: f2bb f0bd 0055 75bb 8395 f8bd 087d 423e
00000010: 5a61 2b3d 83b4 ffbd 2025 463e 1810 18bd
00000020: 791f 1b3e 04d2 0abe 996a 44be cae8 86bc
00000030: 4a5c fb3d f742 4b3d 0001 6a3d 56cf 9f3d
00000040: 0d2c 72bd 08cf 25bd d46a 133e eb73 1abd
00000050: c583 a7bd 3eef 973c 46c9 863d 6cc5 153e
00000060: f24c e8bd d855 323d 362b cf3d 4410 15bd
00000070: bcb8 933d c8db 0abe ff8a c03d 2cc3 ce3d
00000080: bf17 5ebd 5c8c a13d 5396 1dbd 8f3d c83d
00000090: 3059 383e 5b79 c53c 488d 9cbc cbb4 243e
000000a0: 4182 353d 6087 793d 27c9 99bd fef8 2bbc
000000b0: 70b8 e63d a084 1fbe cd17 94bd 7415 143e
000000c0: eb02 ca3d 6042 853c ea04 81bc d1e1 3e3d
000000d0: 3811 aebd 991d 12bd 193f 09bc d233 28be
000000e0: cd8e 9dbc c5ee 373c 947f fa3d f043 39be
000000f0: 1eed 323d 6e7d 51be 09ef 16be 5f8f c33d
00000100: 40fc babd 3d64 12bd 2cbf 163e 13c1 4dbe
00000110: 5030 d9bd 0057 c0bd 3b62 c03c 2d62 ef3d
00000120: 5770 bfbb 44bb 84bd 1e98 6bbe 9888 cbbd
00000130: d054 56bb f3eb 5c3d cd2e b6bd f5cf 65bc
00000140: c213 403d 11d2 c23c d2aa 693d ad88 0cbc
00000150: 15b7 08be 4310 d8bd 5d78 fabc 0f73 babd
00000160: d25e 7dbd f458 e13d 5442 44bd 6376 80bd
00000170: fe59 ba3d e0fa c8bd 4aaa 97bd 091d 323e
00000180: e851 05be f9fa 423e 3025 df3c 5df8 603d
00000190: e81c 673e 1766 3e3c 96b2 a9bd ffbe 94bb
000001a0: d8e5 85bd d295 c5bd 5119 213e 2156 0dbe
000001b0: 4efd 47bd f30e a9b9 84df d9bc 5926 55bd
000001c0: afdf 5a3d 1cdf b8bc bd17 08be a866 12bd
000001d0: 79f4 843d 0ac2 f4bc 3725 ffba 146e 70be
000001e0: 489e fcbd 2c92 193e a854 f5bd d6c2 6f3e
000001f0: 112f 98be a5cd d13a 207d c43d 8d2a f6bd
00000200: a990 0abd dd2f 1d3d bce0 b2bd 2254 13ba
00000210: 6b63 d6bd 251e d03d 513b cf3e ff48 793d
00000220: 9774 ac3e c212 16be 5871 0abe c2d8 3fbb
00000230: f656 773c 7e12 9f3d 2ed2 693d ae7c 95bd
00000240: 52a3 22be 8aee 35be 5469 63bd 3b12 73bc
00000250: b3c1 443e 54d1 8a3d fe6d 453e 2a34 093e
00000260: 0e20 0ebe d526 26bd 844c 893e 1b35 133e
00000270: a27d a1bd b317 89be e463 013e 6da6 2abe
00000280: 27a4 65be 5bf6 f13d 1e41 6e3d ff46 f23d
00000290: 2786 df3c e0f3 f2bd df35 4bbd 7e4f 973d
000002a0: e5b9 04be 4e11 59bd 992c ffbd 8b5c 883d
000002b0: 481f 073d 00ff 81be 8b17 5bbe eedc 613e
000002c0: f297 503e 7712 573d d618 e13b 1a5a 16bd
000002d0: a1b6 fabd ea2b 173e 7c15 07bd 926f 2cbe
000002e0: b47f e1bd f8b1 393d 60a6 b23c 8917 adbd
000002f0: bf02 54bd 012f cfbd 724b 05be 9015 1d3d
00000300: 8944 a7bb 8130 59bd eb54 fa3d aa15 97be
00000310: 28c4 21be 81e4 9a3d ac32 4ebd f219 033e
00000320: 9612 21be 079a 193c 76cf 0e3d 9fe1 d8bd
00000330: 5366 d7bc a4f0 18be 84cc ccbc c1e7 643e
00000340: 6e6f 37bd 1d3f 133d 7684 6fbd 795e 71be
00000350: 71b8 9dbe 03d8 57be 9efb b0bd 59a9 c9bd
00000360: 5513 0ebe f666 283e 087d a1bb 784b ea3d
00000370: 1ce6 633e f6c1 ab3d 4922 9cbd fa9b 4fbe
00000380: 4d84 a4bd 1b9b 293d 399e 373e 8666 703e
00000390: 446e ab3e 191a d03c d618 48be 7633 8dbd
000003a0: a9ea 3b3d 1e46 343d c623 1c3e 3ec7 fbbd
000003b0: 6764 613d 8391 99bd b3aa 11be 34ed b7bd
000003c0: 5e65 7abd cb92 a5bd 6d3c 323d fde7 353e
000003d0: 7b7e 64bd bc2a 613e 5fdf d73d 6d8f d3bd
000003e0: daf7 0f3e 4321 953d ab2d 31bc 8b99 173e
000003f0: 688e a7bd 4821 2db9 4097 063e 97fc ef3d
-0.11754598 -0.0037434697 -0.12137892 0.18993008 0.04184089 -0.12485602 0.193501 -0.037124723
0.15148725 -0.13556677 -0.19181289 -0.016468424 0.12273462 0.04962441 0.05712986 0.07803218
-0.05912404 -0.040480644 0.1439622 -0.037708204 -0.0817943 0.018546697 0.065813586 0.14626092
-0.11342801 0.0435389 0.10115664 -0.036392465 0.0721297 -0.13560402 0.094015114 0.1009582
-0.054221865 0.078880996 -0.03847344 0.09777366 0.18002772 0.024105718 -0.019110337 0.16084592
0.044313673 0.06092012 -0.0750907 -0.010496376 0.112656474 -0.15577936 -0.07231102 0.14461309
0.09863838 0.016267002 -0.015749414 0.046602074 -0.08499378 -0.035672758 -0.00837686 -0.16426018
-0.019233132 0.011226361 0.12231365 -0.18092322 0.043683164 -0.20458004 -0.14739622 0.0954883
-0.09130144 -0.035740126 0.14721364 -0.20093183 -0.10604918 -0.09391594 0.02348434 0.116886474
-0.0058422494 -0.064810306 -0.23007247 -0.099381626 -0.003270436 0.053935956 -0.08895645 -0.014026632
0.046893843 0.023781808 0.057047673 -0.008577508 -0.1335109 -0.10549977 -0.030574972 -0.09103977
-0.061858006 0.110032946 -0.047914818 -0.062725805 0.09099196 -0.098134756 -0.07405527 0.17393889
-0.13019526 0.19041051 0.027239412 0.054924358 0.2256962 0.01162102 -0.08286016 -0.00453937
-0.0653798 -0.096477166 0.15732314 -0.13802387 -0.048825555 -0.0003224533 -0.026595838 -0.052038524
0.053435978 -0.022567324 -0.13290305 -0.035742432 0.06491942 -0.029877681 -0.0019466047 -0.23479491
-0.12334877 0.14997166 -0.119790375 0.23414168 -0.2972341 0.0016006721 0.09594178 -0.12019835
-0.033829365 0.038375724 -0.08734271 -0.0005620142 -0.10468181 0.101619996 0.40474942 0.06086063
0.336827 -0.14655593 -0.135198 -0.0029273485 0.015096417 0.07767199 0.05708521 -0.072991714
-0.15882614 -0.17766777 -0.05552037 -0.014835889 0.19214515 0.067782074 0.1928024 0.13398805
-0.13879415 -0.040564377 0.2681619 0.14375727 -0.07885291 -0.26775894 0.12635761 -0.16665049
-0.224259 0.11814567 0.05816757 0.11829948 0.027285649 -0.11862922 -0.049611922 0.07388209
-0.12961538 -0.05299502 -0.12459678 0.06658276 0.032988816 -0.25389862 -0.213957 0.22056934
0.20370463 0.052507844 0.0068694158 -0.03670702 -0.12241865 0.14762846 -0.032979473 -0.16839436
-0.110106856 0.04533574 0.02180785 -0.084517546 -0.05176043 -0.10116387 -0.13017061 0.03835064
-0.0051046056 -0.053024773 0.12223228 -0.29508716 -0.15797484 0.07563115 -0.050341293 0.12802866
-0.15729746 0.009375102 0.03486582 -0.10589909 -0.02629391 -0.14935547 -0.024999864 0.22354032
-0.044784002 0.03594886 -0.058475934 -0.23571195 -0.3080478 -0.21078496 -0.08641742 -0.098467536
-0.13874562 0.16445526 -0.004928235 0.11440176 0.22255749 0.083866045 -0.07623727 -0.20274344
-0.08033047 0.041407686 0.17931451 0.2347661 0.33482563 0.02540307 -0.19540724 -0.06894581
0.045878086 0.04401218 0.15248021 -0.12293862 0.05502739 -0.07498457 -0.14225273 -0.0898079
-0.061131828 -0.08084639 0.043514658 0.17764278 -0.055784684 0.21988958 0.105406515 -0.10330091
0.14059392 0.07281735 -0.010814111 0.14804666 -0.08181459 -0.00016510964 0.13143635 0.117180996

network_body._body_endoder.seq_layers.2.bias f4 [128]
00000000: 94e1 cfbd 9636 36bd 4497 963d 6d7b 523d
00000010: fe69 633d 526b 063d 6239 2f3d bb7a 603c
00000020: 50eb fa3c 3cc8 d23d e8a8 8d3d f96b 953d
00000030: d3cb 1ebd cfca 903d 7c7e a1bc 7bd1 1c3d
00000040: e4e6 033d 4d26 423d 6022 713c 2196 233c
00000050: 34b9 64bd 7218 463d 6c1d 693d dc64 f93c
00000060: 64ec 373d f406 023d 600d 263d 0bef af3d
00000070: 37bd a33d 0164 6f3d 9307 2ebd e1a1 9a3d
00000080: c34a c33d 836c 2b3d c280 373d e288 b0bc
00000090: b317 873d c039 aa3d bfb1 453d 0a36 913d
000000a0: 3fe7 863d 63d8 003d 7f3c 27bd 598d 613d
000000b0: 2333 9b3c 5cd1 aa3d 5d0f 3e3b 5e00 82bc
000000c0: 93fc b23d 715b 853d 7886 af3d 43fa 28bc
000000d0: 8120 ac3d 7f69 2e3d ad84 473b 8478 963d
000000e0: dd75 fc3c a893 6f3d ebcf 853d f05a 803d
000000f0: 0545 a0bd f8d0 bd3d 42bb 943d 10cb 08bc
00000100: 3f05 393d 4560 bd3d 9981 9d3d 9b89 9b3d
00000110: bf5c 823d abad 9b3d 820f 883d 6ce6 b23d
00000120: 4ab8 0d3d fef5 193d 1f57 033c 2348 043d
00000130: a60e adbc a678 95bd 245d 943d 402a acbc
00000140: 9c36 883d 7af8 993d a40c ab3d 8116 b0bd
00000150: 5477 b43d e27b 933d 5568 013d c99d 2c3d
00000160: 4035 a43c 59a6 553d 9990 273d d8d6 783d
00000170: 5579 263d 2f94 8f3d d3a7 5abd b3bb c93c
00000180: ed9f b43d c897 c03c 8205 7d3d 1e40 243d
00000190: 25c8 9fbc feaa ae3d 7506 9a3d 64f5 713d
000001a0: c7c6 923c 668c 8f3d b91f d23d babd a03d
000001b0: 735f b93d 18dc d8bd 103c b53d 11c5 23bd
000001c0: ec14 bb3d 406b 783d 6dfd 503d 3e3f 0c3d
000001d0: b9e2 863d 46a1 dbbd c555 dd3c c439 b93d
000001e0: 79f7 cb3d ca3a 073e 8ba0 aa3d fee0 78bd
000001f0: f05d b53b 31d8 983d 61f2 9f3d a951 6d3d
-0.101504475 -0.04448565 0.073530704 0.05138724 0.055521004 0.032817192 0.042779334 0.013701136
0.030629784 0.10292098 0.06916982 0.07295985 -0.0387686 0.07069933 -0.019713633 0.038285714
0.032202616 0.047399808 0.014717668 0.009984524 -0.055840686 0.048363157 0.056912825 0.030443601
0.044903174 0.031744912 0.0405401 0.08590516 0.07995074 0.05844498 -0.042487692 0.07550407
0.09535744 0.04185153 0.044800527 -0.021549646 0.06596317 0.08311796 0.048265215 0.07090385
0.065870754 0.031456362 -0.040829178 0.05506644 0.018945282 0.083407134 0.0029000856 -0.015869316
0.08739581 0.06511582 0.0857057 -0.010313573 0.08404637 0.042581078 0.003044407 0.07347205
0.03081792 0.058490425 0.06533798 0.06267345 -0.078256644 0.09268373 0.07262279 -0.008349195
0.04517102 0.092468776 0.076907344 0.075946055 0.06365346 0.07601484 0.06643583 0.08735356
0.03459958 0.037588112 0.008016377 0.032295357 -0.021125149 -0.072984025 0.07244328 -0.02101624
0.06651041 0.07518096 0.083520204 -0.08598042 0.088118225 0.07201363 0.03159364 0.042142663
0.020044923 0.052160595 0.040909383 0.060751766 0.040643055 0.07010686 -0.053382706 0.024625635
0.08819566 0.023509875 0.06177283 0.04010021 -0.019504616 0.08528708 0.07520763 0.059071913
0.01791705 0.07009201 0.10259957 0.078486875 0.090514086 -0.105888546 0.08849347 -0.03998286
0.0913485 0.060649157 0.051022936 0.03424 0.06586213 -0.1072412 0.027018437 0.09044221
0.09959311 0.1320602 0.083314024 -0.060761444 0.00553488 0.0746311 0.07809902 0.057939205

action_model._discrete_distribution.branches.0.weight f4 [5, 128]
00000000: 9288 003e cb2a f63d 10fc 27bd 5bfc 9ebd
00000010: 96ae 883d e1a6 b6bb a971 153c 6353 243d
00000020: 19ed 093d 7736 72bd 477b 73bd d523 393d
00000030: 38df f43d d3a7 6bbd b44c 523d 5d0d 0bbd
00000040: dcae 2c3d 2d2f 8d3c 3eb3 813d db61 9d3d
00000050: 52a9 013e bc67 c23c 0b1d 90bb b06c eebc
00000060: 52ef f33c 8c45 073d 42ad 1cbd b58d 1abd
00000070: 2b7e 46bd 4afa 1fbd 1077 e23d 6249 79bd
00000080: f3c1 b7bd 5880 4c3d eb67 bc3c 79c0 de3d
00000090: 6624 9738 9379 2bbd 84fc d23c 9c35 9cbc
000000a0: 598d 84bd c2c2 f03c 3647 ed3d 8ea6 993c
000000b0: 795d eb3c bbe1 c2bd f680 b43d bf7c ba3d
000000c0: 670e f6bd 4969 b53c 9dda d4bd 2912 ab3d
000000d0: be10 c6bd 4c33 d83c 4ff1 bc3d 7ba7 19bd
000000e0: 6260 153d 1fc9 2ebd 36e2 56bd 8fc7 ccbc
000000f0: 69d5 aa3d b2fe 45bd b19c 8fbc a763 513c
00000100: 486d 9e3c 11bc 91bd ce8b 38bd f2bb 21bd
00000110: 206e 04bd 3a9b a0bd 30a8 c4bd 1242 76bd
00000120: a69e ecbb 0a47 803d a701 bc3d 4b29 b03d
00000130: 4dc1 993d e3f0 f83d 5d65 81bd 0c0c 983d
00000140: 8cfc 0dbd 0213 eabc c96e b4bd e291 e53d
00000150: f0b1 cebd f78b 8d3c ed6e 983d 9947 943b
00000160: ce88 adbc 0df9 77bd 970c 323d 2ed5 12bd
00000170: ac2a 65bd 0035 3abd 09bc 943d 7daf f13c
00000180: 6122 9abd 0414 ce3c d83e 91bc f2a9 e0bb
00000190: 33d3 833c a5e5 c0bd 9a3e 50bd 3432 95bd
000001a0: abb0 d33c 2842 84bd 0d51 0fbe e764 c1bd
000001b0: 27c6 afbc 1938 003e f2b8 d6bd 3b8a de3d
000001c0: 582a bebd e553 42bc 7e26 233d 3b7e 123d
000001d0: 162a ab3b f0a0 ea3d eec7 7cbc 0846 a2bd
000001e0: 95dd e6bd b05f 27be d645 c5bd 4d17 ee3d
000001f0: face dd3c d38e 06bd c0e7 45bd 39e3 54bd
00000200: 6b98 cf3a c7a4 fd3c b696 eebd 4583 423d
00000210: 7d29 b03d 1f52 0e3d 65a9 a9bd b1cb 03be
00000220: e213 ebbd 186b c03d 71f3 833d e694 ad3d
00000230: a795 93bd 90ba e83d 6070 683d 2252 d5bc
00000240: e278 12be 1faa 04be 7299 743d e260 813d
00000250: 92f8 9c3b 3c28 16be 6922 05be a947 7b3d
00000260: 631e d9bd 11b0 203d 3e29 743d 05b2 d63d
00000270: 7372 c73d 72a8 993d 5fd8 52bd deb3 80bd
00000280: bb70 d9bd 2783 d5bd d26f cbbd ef26 6c3d
00000290: 2ee4 20be 1751 a43d 8b93 e1bd aa32 01be
000002a0: e3bd a6bd e0a6 6c3d d558 163d 47bb c43d
000002b0: 383e c6bd 915a 943d 49b1 c5bd 57bd 693d
000002c0: 0821 223d afff a93d 10a2 333d 6597 cfbd
000002d0: 0583 ae3d a2bd 1dbe c96a 883d a369 cfbd
000002e0: a77f 18be f5d3 e4bd 2de0 bebd a0cd 09be
000002f0: 6bb3 06bd a2f3 0fbe 3801 00be c3fd b4bc
00000300: 5f2e c23d 0dc6 ddbd 4a3a 9a3d f344 00be
00000310: 3d42 06be 724b 923d 1500 733d aac2 d73d
00000320: 3b37 773d 1d2e 01be 334d ffbd 36cf c23d
00000330: 2b70 593d 7909 d63c 73e5 ccbd d83c 59bd
00000340: c506 b3bd e9da d0bd 97b7 fabd 102c 41bd
00000350: 2154 c53d 7874 bf3d 8a12 fbbd 2a30 e5bd
00000360: 73c8 7c3d b2b5 90bd 2aad abbd cb33 723d
00000370: e835 96bd 3f55 bf3d 54a0 debc c829 75bd
00000380: c917 b23d 7c25 cabd f424 01be 1fe7 b73d
00000390: d014 3f3b 57f7 9e3d 9fa3 9d3d 180a 8bbd
000003a0: 05ce 983d f063 afbd 7afa 343d 6e64 b93d
000003b0: 69a9 f3bd 7549 8ebc bd0c 8d3d 17d3 f1bd
000003c0: 27e1 9f3d 765d 02be 2b2f b73d c690 853d
000003d0: 6f03 c23d c33f 36bd e265 9cbc 6134 5abd
000003e0: 4e7f 063d 1e3e 9c3c fe98 18bd 179e 7cbc
000003f0: 2752 97bd 9506 bf3d 5a52 d4bd e8ac 56bd
0.12552097 0.12019881 -0.04101187 -0.07762977 0.066739246 -0.0055740927 0.009121337 0.040118586
0.03367338 -0.059133973 -0.05944374 0.045200188 0.11956638 -0.057533097 0.05134268 -0.03394829
0.042158946 0.01723441 0.06333016 0.0768468 0.12662247 0.023731105 -0.0043979934 -0.02910456
0.029777203 0.03302531 -0.03825117 -0.0377328 -0.048460167 -0.039057054 0.110578656 -0.060861
-0.0897254 0.049927086 0.02299877 0.10876555 7.207021e-05 -0.04186399 0.025755174 -0.019068532
-0.064722724 0.029389743 0.11585848 0.018756177 0.028731095 -0.09515711 0.0881366 0.09105825
-0.12014466 0.02214493 -0.1039326 0.08353073 -0.09671162 0.026391648 0.092257135 -0.037513237
0.03646887 -0.042672273 -0.052461825 -0.0249975 0.08341486 -0.0483386 -0.017530771 0.012780107
0.019339219 -0.07115949 -0.045055203 -0.03948588 -0.032331586 -0.07842107 -0.09602392 -0.060121603
-0.007221061 0.062635496 0.09180003 0.08601626 0.07507572 0.121553205 -0.06318162 0.07424173
-0.034664676 -0.028573517 -0.08810193 0.112094656 -0.10092533 0.017278655 0.074430324 0.0045251367
-0.021183398 -0.060540248 0.043469038 -0.035847835 -0.0559489 -0.0454607 0.07262427 0.029502625
-0.075260885 0.025156029 -0.017730162 -0.0068561966 0.016091919 -0.09418801 -0.05084095 -0.07284966
0.025841078 -0.06457931 -0.13995762 -0.09443074 -0.021456791 0.125214 -0.10484494 0.10866209
-0.0928542 -0.011860822 0.03983163 0.035764914 0.005223523 0.11456478 -0.015428526 -0.07923514
-0.11272732 -0.16345096 -0.09632461 0.11625538 0.027076233 -0.03285105 -0.048316717 -0.05197451
0.0015838271 0.030962361 -0.116498396 0.04748847 0.08601663 0.034746286 -0.082842626 -0.12870671
-0.11478402 0.093954265 0.06442917 0.08475666 -0.07206278 0.11363709 0.056747794 -0.02604014
-0.14303926 -0.12955521 0.05971665 0.06317307 0.004790374 -0.14663786 -0.13001408 0.061347637
-0.10601499 0.03923041 0.059609644 0.10483173 0.09738626 0.075028315 -0.05147588 -0.06284307
-0.10617205 -0.10425406 -0.099334374 0.057654317 -0.15712044 0.08023279 -0.1101447 -0.12616983
-0.08141687 0.057776332 0.03670581 0.09606033 -0.09679836 0.07243837 -0.09652955 0.057065334
0.039582282 0.08300721 0.043855727 -0.10136298 0.08521084 -0.1540437 0.06660993 -0.101275705
-0.14892446 -0.1117324 -0.09320102 -0.13457346 -0.03288595 -0.14057782 -0.12500465 -0.02209366
0.09481501 -0.10828791 0.07530649 -0.12526302 -0.13111205 0.07143296 0.05932625 0.10535176
0.060355406 -0.12615247 -0.124658965 0.095121786 0.053085487 0.026127564 -0.100047015 -0.05303654
-0.087415256 -0.10198004 -0.12242048 -0.047161162 0.09635187 0.093483865 -0.122593954 -0.11190827
0.0617146 -0.07065906 -0.08382638 0.059131425 -0.073345006 0.09342431 -0.02717606 -0.0598543
0.08695943 -0.09870431 -0.12611753 0.0897963 0.0029156692 0.0776202 0.07697224 -0.067890346
0.0746117 -0.085639834 0.044184186 0.090523586 -0.11897547 -0.017369011 0.06887195 -0.1180784
0.07806616 -0.12730965 0.089445435 0.06521754 0.09473311 -0.0444944 -0.01909155 -0.05327261
0.03283625 0.019072589 -0.03725528 -0.015418551 -0.07388716 0.09327427 -0.1036727 -0.05241099

action_model._discrete_distribution.branches.0.bias f4 [5]
00000000: bccd dbbd 8fbd bf3c cc73 a63c f5b7 853b
00000010: df9b 0d3d
-0.107326 0.023405818 0.020318888 0.0040807673 0.03457248

exp_avg f4 [128, 6]
00000000: 62a7 25b7 6bbf 8eb6 08c0 18b8 f99d 4836
00000010: d05c 6037 c3a7 3eb7 6682 0837 ae1e e0b7
00000020: 71d9 40b7 b62c abb7 0a37 63b9 4566 8b37
00000030: 18ca 2e36 9421 ad36 fb9a efb6 4925 3d34
00000040: 6957 82b6 6fed d937 a0d7 ccb5 811c 61b7
00000050: d54b 3e38 6297 89b7 498e eab8 b086 e737
00000060: c6b8 0336 d3aa 64b8 f10e 31b6 e3ce d9b7
00000070: 948c 4cb9 a76b 68b7 7236 ccb7 8a16 4c38
00000080: 33d3 c4b7 7938 0b38 516b 9639 3e16 17b8
00000090: c465 f6b7 075d ec38 a194 c535 ba10 7b37
000000a0: f18b dd39 83b1 fbb8 3575 7036 20ce 3fb8
000000b0: 4506 d237 c032 d3b6 23ae 2cb9 f4ea ff37
000000c0: 0e8d 95b7 7462 fb37 6845 6238 2320 7234
000000d0: ec02 ae38 6fb8 f7b7 8bc8 c537 e8ce 38b9
000000e0: 543e f1b7 32a8 15b8 82e7 dab9 c584 0b36
000000f0: c2bc b337 f2af b6b8 0f6c d6b7 02db 57b7
00000100: 0dcf 43b9 2194 1eb6 5ea3 3236 0f0c 25b8
00000110: 381a e035 fff6 88b6 a8f1 aeb8 f8fc 5037
00000120: aef2 a8b6 6c3d e637 462c cd37 4997 a636
00000130: c963 f038 c2be edb7 4284 1338 0105 06b8
00000140: 86a3 60b4 7076 adb6 bc2e f1b8 450b e837
00000150: d5eb 95b7 ff97 5d38 d9a9 22b8 fce8 fc37
00000160: ea95 9239 7e3b 2db8 2b69 e4b6 616a a4b7
00000170: 1b4f f037 f77a 4cb7 96c6 31b9 2e04 dd37
00000180: cc9a 8837 1eac 10b9 fc56 0937 950b c1b7
00000190: dfea c8b9 0f85 06b7 7af4 dc35 8bb2 48b8
000001a0: 106b 4fb8 a2cd 3fb7 f396 18b9 cdf3 3db7
000001b0: 2443 38b8 2613 9138 ffe8 d9b7 f8a2 3838
000001c0: 3941 b939 0782 a7b8 0f2c 9535 d04e 44b8
000001d0: 870f a936 e4ab e7b6 5c2e 22b9 ca48 b136
000001e0: c1a5 ebb6 7c3e b337 57ec 9b36 bc9a 2035
000001f0: 048c 5b39 893f 95b8 0c8e 6cb7 518a aa38
00000200: 1be5 8fb8 3c43 1538 d160 a539 244b 68b8
00000210: 9bac 85b7 1ec7 8d38 c7ff 0c38 41ad 9e35
00000220: d6b8 5e39 ebbe f8b7 c9c0 06b5 472b a435
00000230: b6fb e936 92e0 78b5 4d80 10b8 462c 2938
00000240: 6a72 0338 2e1c feb8 c15c a6b7 d0d9 12b8
00000250: 0a3f c1b9 8116 0837 aec6 08b7 dd1b 2636
00000260: 0c36 4938 87ea 92b4 c557 3cb8 7fac f537
00000270: d5e8 2c37 adff 7438 a295 4ab8 29d8 7537
00000280: 3d3d 6939 bbb2 b0b8 3913 b8b7 c1dd da38
00000290: 1743 4db7 7450 b737 13ea 8a39 6e06 20b8
000002a0: 5209 8fb7 4a55 d738 884a 4bb7 4fb0 c737
000002b0: fca0 8c39 35a5 91b8 37da f737 cd91 fcb7
000002c0: e704 9737 3775 a2b7 34da 57b9 46d9 f937
000002d0: b598 0ab8 9b2a ed38 7a88 27b8 c2ab 4738
000002e0: 70f9 d439 533b 3bb8 8239 adb6 ad86 a7b6
000002f0: 0e9f 7637 f19e 2cb7 2502 aeb8 a7b1 4136
00000300: fe27 71b7 4095 70b5 3f05 87b8 3efe ff36
00000310: 2169 a537 a802 7134 e286 ccb7 f567 1937
00000320: fc3c de37 7915 aa36 5aa5 1f39 3a0e 98b8
00000330: 39a4 0937 d38b a0b8 6ee5 bcb7 efd7 bbb6
00000340: 0a4c e4b8 6e4f aab7 940b e2b5 2f97 5ab7
00000350: 972e e137 f039 11b6 c442 dcb8 8312 0d38
00000360: d603 5836 566c cf37 95fd e1b8 93b1 4e37
00000370: f119 2439 10bf 9ab8 575c cd35 74dc 3fb8
00000380: 5273 dfb6 ecde adb7 08cc 48b9 a457 86b7
00000390: 7ab8 d7b7 f342 1038 1d4d dcb7 b4cf 7237
000003a0: ed9e 0239 e30a 3db8 7065 05b8 bd8e 8338
000003b0: a38e adb7 cf48 2e38 393f c539 2b51 7db8
000003c0: 7bdf 5337 0162 b9b8 86da 41b7 c026 14b7
000003d0: 9946 81b9 e1ac 3237 9aa7 9bb6 9dc4 4b38
000003e0: 3283 7ab7 6d1d 8a37 f4a3 3d39 aaab beb6
000003f0: 8597 a1b7 7442 1637 0d11 ebb7 265d ab36
-9.873738e-06 -4.2542138e-06 -3.6418467e-05 2.9894275e-06 1.337305e-05 -1.1363943e-05 8.136592e-06 -2.6717167e-05
-1.1494719e-05 -2.0405609e-05 -0.0002166891 1.6617714e-05 2.6045655e-06 5.159711e-06 -7.140797e-06 1.7615561e-07
-3.884478e-06 2.597898e-05 -1.526194e-06 -1.3417682e-05 4.5370154e-05 -1.6402166e-05 -0.00011184492 2.7600065e-05
1.9628073e-06 -5.451853e-05 -2.6383752e-06 -2.5964755e-05 -0.00019507325 -1.3853342e-05 -2.4344048e-05 4.865838e-05
-2.3463368e-05 3.3192777e-05 0.00028690186 -3.602192e-05 -2.9372874e-05 0.000112706846 1.47209e-06 1.496466e-05
0.0004225667 -0.00012001677 3.583101e-06 -4.5729917e-05 2.503687e-05 -6.294198e-06 -0.00016468069 3.0507777e-05
-1.7827868e-05 2.9967377e-05 5.394724e-05 2.2549698e-07 8.297511e-05 -2.9530578e-05 2.3577615e-05 -0.00017624686
-2.8758463e-05 -3.5681012e-05 -0.00041752687 2.0789896e-06 2.142636e-05 -8.711209e-05 -2.5561107e-05 -1.286599e-05
-0.00018673782 -2.3630057e-06 2.661916e-06 -3.9350296e-05 1.6696931e-06 -4.08187e-06 -8.3419785e-05 1.2456665e-05
-5.035042e-06 2.7446738e-05 2.445852e-05 4.9647974e-06 0.00011462678 -2.834143e-05 3.5170706e-05 -3.195275e-05
-2.0921115e-07 -5.1695897e-06 -0.000115004805 2.7661803e-05 -1.7872002e-05 5.2832063e-05 -3.8781993e-05 3.0149233e-05
0.00027958985 -4.130182e-05 -6.8071727e-06 -1.959986e-05 2.8647066e-05 -1.21879775e-05 -0.00016954014 2.63472e-05
1.6284546e-05 -0.00013797029 8.186089e-06 -2.3012786e-05 -0.00038321965 -8.0180025e-06 1.6462429e-06 -4.7849997e-05
-4.9452356e-05 -1.1432365e-05 -0.00014552083 -1.1322042e-05 -4.3931548e-05 6.9177055e-05 -2.5976913e-05 4.4020795e-05
0.00035334544 -7.9874e-05 1.1114188e-06 -4.680344e-05 5.0384e-06 -6.904347e-06 -0.00015466794 5.283485e-06
-7.022842e-06 2.136756e-05 4.6468735e-06 5.9829813e-07 0.00020937627 -7.116708e-05 -1.4099769e-05 8.131995e-05
-6.8614456e-05 3.5586985e-05 0.00031543386 -5.538309e-05 -1.5935211e-05 6.7604924e-05 3.3616812e-05 1.1822341e-06
0.00021240427 -2.9652807e-05 -5.019943e-07 1.2231548e-06 6.973244e-06 -9.271399e-07 -3.4451765e-05 4.0333973e-05
3.133939e-05 -0.00012116913 -1.9831934e-05 -3.5011966e-05 -0.00036858796 8.111471e-06 -8.15249e-06 2.4752146e-06
4.797247e-05 -2.736526e-07 -4.4904435e-05 2.92866e-05 1.0306209e-05 5.841225e-05 -4.829991e-05 1.4653467e-05
0.00022243425 -8.425625e-05 -2.194346e-05 0.00010436355 -1.2234573e-05 2.1852764e-05 0.0002649581 -3.815296e-05
-1.7051269e-05 0.00010267885 -1.2117096e-05 2.3804749e-05 0.00026822824 -6.944911e-05 2.9546309e-05 -3.0108635e-05
1.8002886e-05 -1.9366487e-05 -0.00020585285 2.9784289e-05 -3.3043983e-05 0.000113089765 -3.9943006e-05 4.760526e-05
0.00040621636 -4.4639524e-05 -5.1624966e-06 -4.992666e-06 1.4699775e-05 -1.0289005e-05 -8.297366e-05 2.8862648e-06
-1.4374031e-05 -8.9624154e-07 -6.438279e-05 7.62919e-06 1.9718487e-05 2.244584e-07 -2.4381505e-05 9.143715e-06
2.649286e-05 5.0688946e-06 0.0001522502 -7.250575e-05 8.204072e-06 -7.655439e-05 -2.2518183e-05 -5.5981723e-06
-0.000108860506 -2.0302567e-05 -1.6841682e-06 -1.3029013e-05 2.6843785e-05 -2.1640408e-06 -0.000105028535 3.363426e-05
3.218874e-06 2.472677e-05 -0.000107760694 1.23199015e-05 0.00015649923 -7.3788804e-05 1.5300565e-06 -4.574326e-05
-6.659343e-06 -2.0727013e-05 -0.00019149494 -1.6014856e-05 -2.57159e-05 3.4394627e-05 -2.6261952e-05 1.4472684e-05
0.0001245697 -4.507125e-05 -3.1804142e-05 6.273154e-05 -2.0689627e-05 4.155264e-05 0.00037621873 -6.0395494e-05
1.2628613e-05 -8.839742e-05 -1.1554575e-05 -8.83051e-06 -0.00024657397 1.0649878e-05 -4.6388714e-06 4.8582082e-05
-1.49317075e-05 1.6464584e-05 0.00018085522 -5.6824256e-06 -1.9263252e-05 8.956169e-06 -2.8022123e-05 5.107041e-06

exp_avg_sq f4 [128, 6]
00000000: ad11 f831 9444 9a31 f866 2432 d704 a131
00000010: 3e48 2b32 dd20 0932 431b 1733 3fcc ea31
00000020: 12ef 8933 e411 9d33 2517 4c34 fc9e 1a34
00000030: 7a2c 3330 972b 2532 c5f2 df31 a10a d62f
00000040: d4f1 1832 e1e7 0b32 eea3 4a32 3b80 6632
00000050: 49f4 0734 56b0 e633 ca6e e733 c954 d733
00000060: 0527 1a32 5517 4933 5d6a a633 016d 6134
00000070: d41e 4234 c064 0134 4920 af34 7282 8133
00000080: 78ab 0835 94b4 b534 fe76 0a35 0139 f034
00000090: b3e9 2935 4540 b834 4aa0 1935 861c 3334
000000a0: fb35 6d35 6a68 6a35 3956 0133 9054 f833
000000b0: 6f7d 2a33 21f3 9933 2082 1034 0273 e133
000000c0: ee1d 3332 eb99 5c32 46e5 8833 46ee b831
000000d0: 4c51 2633 e7d2 f032 e4d0 e534 c95b ff34
000000e0: 4f5e 1835 d419 cb34 462b 2935 8844 fa34
000000f0: 2cef 6f33 a1ff 9333 42f1 4334 fc33 e032
00000100: 6ff7 0134 74db a033 5271 8731 cd7e 5d33
00000110: 2851 ad31 f775 8832 b1f9 2733 c191 0433
00000120: a12c 4333 a557 5132 ba6a f632 431b ad32
00000130: 4d84 6c33 f71c 5533 7273 7e33 044c 7b32
00000140: 2a34 8333 2eb2 1d32 83eb 8f33 a25f 2e33
00000150: 9f99 4e34 0b9c c233 6d54 6a34 84e8 9434
00000160: 850a c434 af58 b334 0dfc 0533 7bc2 8032
00000170: 5148 c234 0af2 d733 9eb2 1d34 02d5 0134
00000180: 6916 1235 a81b c934 1676 9635 242e ee33
00000190: 0439 3e35 55ff 0b35 a74a 4331 90c2 8932
000001a0: b97d 6033 1161 b732 08e8 8533 ae5f 3c33
000001b0: 7c01 0335 3acd 1834 1787 ba34 4b74 4235
000001c0: dbd7 3635 d888 2235 6a5e 4a33 92d6 3933
000001d0: a255 e732 1492 6432 770e 8933 f579 4c33
000001e0: e305 1b33 e402 6232 dd37 a931 01aa cc31
000001f0: 59b6 6d34 7fae 5e34 6ff5 3e35 6828 a834
00000200: 11d4 f434 0c77 e634 f1a7 1435 bd43 1535
00000210: 6650 1e34 4195 c033 9958 b734 8613 5931
00000220: b5f2 6934 34f4 4334 0de4 8c2f da64 672f
00000230: e0c6 7730 46ee 1f32 f1cb a732 01a7 d032
00000240: 3055 0c35 8c2b 7034 488c 8334 dfb0 c734
00000250: 4e04 3435 af3b 0435 2c0c 0231 754b 6330
00000260: 776d 2833 11b6 4632 9865 8d32 b96e ba32
00000270: 4f5b b834 c4d4 9234 6045 4734 eb2b 5c34
00000280: 3c46 af34 c211 c134 604a 7f34 63f9 8834
00000290: a08c 8233 d8ea 5b34 9686 b834 34f5 a634
000002a0: 07e6 4634 bff1 e234 f212 3333 56d6 dc34
000002b0: 4b01 c034 792c c534 1795 2a34 8f71 ab32
000002c0: 2596 5534 5d05 2634 b508 5a34 731c 0d34
000002d0: 547c af34 2032 a734 5312 4435 4bee 2c35
000002e0: 3f81 6e35 2ab2 4d35 4c6b 1933 3611 a930
000002f0: 8147 2e32 bdba e832 c31d 0633 732d d732
00000300: ab7a 8432 29be 9932 78e0 0633 7fe8 1133
00000310: 2458 0f33 328c 0633 2243 0e34 2184 b831
00000320: 034f 3c34 ffcf 4e33 1084 0b34 4eaf 0434
00000330: bd68 6f31 2f69 fb32 644e 8432 569a ab31
00000340: b62f f532 66d4 8132 c314 e831 ea8f 0d33
00000350: 5a8f da32 f51b c931 4eee c433 c767 c233
00000360: a0f5 bf34 7156 6534 2545 1f35 73a9 8034
00000370: e6d3 4934 c9c4 7b34 8f8c 3a33 345a e232
00000380: 524e ce32 eb1d b633 6e86 1334 f5e7 db33
00000390: c378 1234 8b94 6133 04ed 8733 8e5e 0034
000003a0: d757 0934 8845 0234 772c 0135 5316 cd33
000003b0: c060 5935 a64f 0e35 821d 6035 1d52 4c35
000003c0: 1564 c533 d320 0a34 d349 4433 1ae6 8232
000003d0: 4b35 3a34 c7a5 0a34 480b 1233 0eec 5c33
000003e0: af88 ab33 078a 9133 b866 2234 6aef 0634
000003f0: 5bac 5231 0b65 8531 bceb 3532 9d53 8831
7.2197595e-09 4.4897863e-09 9.569469e-09 4.686267e-09 9.969936e-09 7.981922e-09 3.518222e-08 6.8335164e-09
6.423046e-08 7.3141365e-08 1.90074e-07 1.4400206e-07 6.5183026e-10 9.614175e-09 6.517754e-09 3.8933926e-10
8.90255e-09 8.143588e-09 1.1795221e-08 1.3416918e-08 1.2661725e-07 1.0742285e-07 1.0776928e-07 1.002714e-07
8.972852e-09 4.682018e-08 7.749325e-08 2.0994413e-07 1.8078873e-07 1.2050714e-07 3.261978e-07 6.0307585e-08
5.091347e-07 3.3845265e-07 5.158216e-07 4.474496e-07 6.3297483e-07 3.4319433e-07 5.7230193e-07 1.6681051e-07
8.836793e-07 8.7323735e-07 3.0113572e-08 1.1563782e-07 3.969529e-08 7.1688426e-08 1.3458384e-07 1.0498299e-07
1.04259765e-08 1.2840682e-08 6.374698e-08 5.3821934e-09 3.8723826e-08 2.8035585e-08 4.2806562e-07 4.7564234e-07
5.676165e-07 3.783049e-07 6.302038e-07 4.6615992e-07 5.586405e-08 6.8917196e-08 1.8248559e-07 2.6100672e-08
1.2104077e-07 7.490499e-08 3.9419e-09 5.1570897e-08 5.044189e-09 1.5886128e-08 3.910981e-08 3.0866207e-08
4.5442565e-08 1.2185329e-08 2.8686703e-08 2.0152248e-08 5.506836e-08 4.961927e-08 5.924398e-08 1.4627407e-08
6.1096515e-08 9.179116e-09 6.701796e-08 4.059951e-08 1.9241132e-07 9.062213e-08 2.1823662e-07 2.7736326e-07
3.65155e-07 3.3405874e-07 3.1195714e-08 1.49896e-08 3.6187933e-07 1.0055744e-07 1.4686745e-07 1.2091553e-07
5.442185e-07 3.745929e-07 1.1210238e-06 1.10911316e-07 7.0863484e-07 5.215309e-07 2.841867e-09 1.6037376e-08
5.226841e-08 2.1348145e-08 6.2355014e-08 4.385918e-08 4.8803463e-07 1.4230764e-07 3.474349e-07 7.243986e-07
6.8114394e-07 6.0548837e-07 4.711766e-08 4.326882e-08 2.693088e-08 1.3304561e-08 6.382191e-08 4.760837e-08
3.6094104e-08 1.3155589e-08 4.9248983e-09 5.9565086e-09 2.2138683e-07 2.0738842e-07 7.113767e-07 3.1321838e-07
4.560284e-07 4.2927456e-07 5.5378683e-07 5.56054e-07 1.4744145e-07 8.967846e-08 3.415087e-07 3.1588754e-09
2.1788112e-07 1.8249631e-07 2.5627891e-10 2.1045157e-10 9.0140695e-10 9.309195e-09 1.95341e-08 2.4290332e-08
5.227803e-07 2.2367584e-07 2.450272e-07 3.719533e-07 6.706149e-07 4.9260683e-07 1.8924409e-09 8.268935e-10
3.9215106e-08 1.1566514e-08 1.646076e-08 2.17036e-08 3.4339106e-07 2.7349427e-07 1.8558558e-07 2.0505074e-07
3.2647392e-07 3.5961972e-07 2.3775783e-07 2.5513427e-07 6.079176e-08 2.04814e-07 3.4370595e-07 3.1098318e-07
1.852387e-07 4.2271674e-07 4.1693916e-08 4.1134143e-07 3.5763728e-07 3.6726468e-07 1.5886722e-07 1.995866e-08
1.9891793e-07 1.5461906e-07 2.0306e-07 1.3141998e-07 3.268675e-07 3.1142645e-07 7.3042355e-07 6.4421755e-07
8.8849987e-07 7.6627714e-07 3.5720674e-08 1.230126e-09 1.0144391e-08 2.7093273e-08 3.1226374e-08 2.5049962e-08
1.5422605e-08 1.7898019e-08 3.140346e-08 3.3971897e-08 3.3374945e-08 3.1326813e-08 1.3249203e-07 5.370126e-09
1.7537609e-07 4.8152284e-08 1.2993428e-07 1.2357233e-07 3.4838614e-09 2.9268078e-08 1.540247e-08 4.994301e-09
2.854345e-08 1.5114164e-08 6.754449e-09 3.296001e-08 2.5443729e-08 5.8530483e-09 9.1703086e-08 9.052706e-08
3.5755238e-07 2.1358734e-07 5.9332734e-07 2.3965148e-07 1.8796672e-07 2.3447787e-07 4.3434337e-08 2.6350882e-08
2.4017172e-08 8.4804775e-08 1.3739347e-07 1.0240175e-07 1.3641242e-07 5.2521994e-08 6.32954e-08 1.1955328e-07
1.2791075e-07 1.2132489e-07 4.812095e-07 9.550117e-08 8.097959e-07 5.3015026e-07 8.348944e-07 7.611541e-07
9.191732e-08 1.2864193e-07 4.570195e-08 1.523863e-08 1.7341988e-07 1.2912561e-07 3.4003534e-08 5.1437432e-08
7.9876706e-08 6.777196e-08 1.5124795e-07 1.2566821e-07 3.0656995e-09 3.8822967e-09 1.0589186e-08 3.9676267e-09

exp_avg f4 [128]
00000000: 7c75 c2b8 9d93 3439 364e 9337 8a50 e039
00000010: 444d e038 96f3 13ba ee60 a2ba e23e c439
00000020: a9ed 63b9 5474 8139 4b66 80b7 88c1 3539
00000030: 2a4d 8fb9 3789 4639 62b7 0eba 32dd b939
00000040: 2f53 8139 a1a2 4fb8 3e4e 52ba e1d0 f038
00000050: 81e4 32ba 6de9 42ba c377 b2b9 5c15 9d39
00000060: a424 8639 0e12 9d39 a7d4 70ba ccb8 0dba
00000070: f9af 53ba 5d7e a139 b6fc 37ba cf8b ec38
00000080: 38c6 18b9 4426 1eba cb01 23b9 f731 cc39
00000090: c465 66ba 18f2 c437 918d b8b9 0644 54ba
000000a0: af1d 0039 037d 7fb9 5d17 9038 d8a2 c0b9
000000b0: f246 f1b9 5bd8 db39 8a20 3cb9 4cb5 92ba
000000c0: ccf2 ab39 47b3 42ba c744 e2b9 e8a9 bbb9
000000d0: f429 b839 fec4 26b9 d6ee 2fba b885 a939
000000e0: bd83 ef38 4261 82ba b22e c539 6d63 1b39
000000f0: 0cb8 95b9 3225 6db8 9779 8939 bbb7 1138
00000100: 9afc 79b9 c1cb a839 e709 92ba 20f0 f238
00000110: 9113 3639 3c02 f838 5ef1 54ba 0246 8cba
00000120: 8646 5838 0172 9b39 d79a f439 44e2 a1b9
00000130: 9b38 61b9 5215 d039 0599 83b9 8dad 85b9
00000140: 949e fb39 6a1d 2db9 ff89 8ab9 0d1b ae39
00000150: ca97 bab8 d9c5 fa37 33d8 6a38 b801 c5b8
00000160: 12d8 d239 5710 8eba 397f a7b7 e019 23ba
00000170: 2093 2fba ec98 39b9 8a85 9db8 246b 7a39
00000180: 39b4 4238 19e3 71ba 64c7 2aba bb8a 2bba
00000190: dc17 c6ba 2200 01b9 e30b 2e35 6b95 c138
000001a0: c8bb 0b38 8245 e5b9 30e1 d837 a484 ef39
000001b0: b2b0 60ba 6cb8 c439 c910 0f3a 1627 043a
000001c0: b494 cb39 5cfd 2839 c933 ddb9 cc7b 95ba
000001d0: 859e 6038 d491 87ba a63e 95b9 b1c1 a1b8
000001e0: d79c 15ba d80c 9bba 4b55 d639 d943 89ba
000001f0: 8374 4339 101e 16ba 4804 bdb7 beb8 95b8
-9.272524e-05 0.00017221128 1.7560185e-05 0.00042784616 0.00010695544 -0.0005643902 -0.0012388506 0.00037430885
-0.00021736942 0.0002469147 -1.5306423e-05 0.00017333601 -0.00027332577 0.00018933868 -0.0005444196 0.00035450753
0.00024666774 -4.9504106e-05 -0.0008022523 0.000114829985 -0.0006824211 -0.0007435296 -0.00034040035 0.00029961288
0.0002558577 0.00029958825 -0.0009186961 -0.000540626 -0.0008075233 0.0003080246 -0.0007018553 0.00011279398
-0.00014569692 -0.00060329237 -0.0001554556 0.0003894714 -0.0008788968 2.3477754e-05 -0.0003520069 -0.00080972945
0.00012218089 -0.00024365266 6.870807e-05 -0.00036742422 -0.0004601996 0.00041932132 -0.00017941199 -0.0011192947
0.0003279656 -0.0007427227 -0.00043157322 -0.0003579401 0.00035126472 -0.00015904379 -0.00067113095 0.0003233382
0.00011420946 -0.0009947198 0.0003760956 0.00014818991 -0.0002855662 -5.6539844e-05 0.00026221268 3.4741806e-05
-0.00023840592 0.00032195266 -0.0011141867 0.00011584186 0.00017364162 0.00011825978 -0.0008123125 -0.0010702016
5.1564093e-05 0.00029648843 0.0004665467 -0.00030876894 -0.0002147876 0.00039688736 -0.00025100276 -0.00025497042
0.000479926 -0.00016509523 -0.00026424226 0.0003320802 -8.897444e-05 2.9894452e-05 5.59913e-05 -9.394012e-05
0.00040215306 -0.001083861 -1.9967194e-05 -0.0006221812 -0.00066976435 -0.00017699943 -7.511217e-05 0.00023881771
4.642105e-05 -0.00092272606 -0.0006514697 -0.0006543805 -0.0015113312 -0.00012302448 6.483735e-07 9.2307884e-05
3.3315067e-05 -0.0004373007 2.5854068e-05 0.00045684457 -0.00085712515 0.00037521438 0.0005457518 0.00050412246
0.0003882997 0.00016116112 -0.00042190988 -0.0011404692 5.3553395e-05 -0.0010343143 -0.0002846617 -7.713156e-05
-0.000570727 -0.0011829389 0.0004088081 -0.0010472491 0.00018640053 -0.00057265256 -2.253255e-05 -7.1392846e-05

exp_avg_sq f4 [128]
00000000: a59d 7634 dc8b 9b36 b1b5 3034 cdc3 7636
00000010: ab83 a936 6a77 8137 4a6b 0838 fcb2 ae36
00000020: 554f d135 4900 9637 58af 3e36 f26c bf35
00000030: 8c9c 0f36 67d8 ee35 7df3 3437 ee86 a636
00000040: 468f a037 743d cc35 b2ac ad37 4c3c 0336
00000050: 547e 0b37 3e16 9637 4ac1 f336 d79a 4c35
00000060: 0168 9337 6c85 2c35 0543 5237 5aaf 3737
00000070: 78a1 5c37 bf73 d336 eec3 d837 8003 8835
00000080: f1c5 5035 dbf6 bb36 de06 4a35 3fc1 6236
00000090: 8b9f 0f37 f87d 7036 60dc 6036 78c5 d537
000000a0: e33c 9b36 b703 9136 fdcc 8e34 61a5 2637
000000b0: c0e0 f336 9ae7 ac37 8013 8834 8d11 2d38
000000c0: 7644 4036 ed30 3a37 3986 6836 4684 1b37
000000d0: 80a8 a537 cda7 c936 bbde 4e37 0f06 2c37
000000e0: 82c1 8336 bc93 1438 122a 4837 c35d 8a36
000000f0: fb12 7836 1a27 8a36 af22 d136 0a80 6e34
00000100: 3414 0036 76e4 1e37 5fe9 4238 6a28 f837
00000110: eeb7 6c36 378f dc35 a498 9d37 15ea 1a38
00000120: 9ecc e435 ded0 8636 6fbf f637 df0d ad35
00000130: 1eae 0436 8de3 3737 314c 9a34 8c47 9a35
00000140: cd5f f636 b660 8535 1992 0e35 0521 ef36
00000150: b831 6234 d0e7 8936 b8a5 9336 17f8 2136
00000160: daa8 5437 102a e237 556b 2635 0e5e c936
00000170: 3081 1b37 5eaa f434 357e 8335 7aa6 1c35
00000180: d401 0e36 944d 1438 5f9a 0437 a16a 1d37
00000190: 4a91 0b38 393b b834 98c5 8936 7208 3637
000001a0: fb86 4a35 fb4a 3435 01ad a533 47d7 e837
000001b0: b549 8f37 cd4f c236 800d 2d38 b380 b136
000001c0: e5cd 2f36 77a5 5a37 53f1 7137 cbec c437
000001d0: fa3e d636 511a e737 b254 5836 c10a ac34
000001e0: a653 9337 ebe2 0b38 41a9 d436 d9bb 7837
000001f0: 41dd 8f37 21a6 e635 c921 4635 dc57 3b35
2.2967886e-07 4.6356417e-06 1.6457376e-07 3.6770828e-06 5.0519207e-06 1.5433605e-05 3.2524847e-05 5.2064406e-06
1.5594802e-06 1.7881526e-05 2.841427e-06 1.4262316e-06 2.1399783e-06 1.7795363e-06 1.0785528e-05 4.9628934e-06
1.9140203e-05 1.521707e-06 2.0703625e-05 1.9555619e-06 8.314459e-06 1.789175e-05 7.264466e-06 7.6221244e-07
1.7572196e-05 6.426915e-07 1.253258e-05 1.0948477e-05 1.3150617e-05 6.3017646e-06 2.5840443e-05 1.0133808e-06
7.777408e-07 5.601772e-06 7.5260857e-07 3.3789108e-06 8.560611e-06 3.583611e-06 3.3506876e-06 2.5483532e-05
4.626448e-06 4.321769e-06 2.659871e-07 9.932876e-06 7.2681287e-06 2.0611846e-05 2.5346162e-07 4.126276e-05
2.865008e-06 1.1097855e-05 3.4648822e-06 9.269517e-06 1.9747997e-05 6.0098014e-06 1.2330415e-05 1.02534095e-05
3.9266315e-06 3.5423538e-05 1.1930724e-05 4.123636e-06 3.6965928e-06 4.1172725e-06 6.232723e-06 2.2212058e-07
1.9085246e-06 9.470727e-06 4.6470548e-05 2.9582723e-05 3.5273802e-06 1.6432958e-06 1.8786937e-05 3.6934467e-05
1.7046875e-06 4.0178265e-06 2.9414628e-05 1.2893541e-06 1.9770882e-06 1.0960631e-05 2.8740172e-07 1.1494717e-06
7.342524e-06 9.937419e-07 5.311172e-07 7.126599e-06 2.1065978e-07 4.1099047e-06 4.4002336e-06 2.4135277e-06
1.26754985e-05 2.6960886e-05 6.199601e-07 6.001216e-06 9.268799e-06 4.55725e-07 9.796992e-07 5.8356784e-07
2.1160713e-06 3.53582e-05 7.903755e-06 9.382756e-06 3.3275493e-05 3.431576e-07 4.105921e-06 1.0850012e-05
7.5447286e-07 6.7164336e-07 7.7148805e-08 2.7756802e-05 1.7081251e-05 5.7909406e-06 4.1258987e-05 5.2899936e-06
2.6196878e-06 1.3032338e-05 1.4420907e-05 2.3475286e-05 6.3850284e-06 2.75496e-05 3.2235807e-06 3.204532e-07
1.7562717e-05 3.3351516e-05 6.337796e-06 1.4825689e-05 1.7149958e-05 1.7184685e-06 7.380991e-07 6.979078e-07
