Scenes/ImprovedGridWorld2D/results/test-run/DroneGrid2D/DroneGrid2D-568654.onnx (onnx, 77147 bytes, 6 tensors)

network_body._body_endoder.seq_layers.0.weight f4 [128, 6]
0	0xbebf39e6	-0.3734886
1	0x3ea9e773	0.33184394
2	0xbf3e6a6e	-0.7438115
3	0xbdd34e84	-0.1031771
4	0x3d9d86a2	0.07691695
5	0xbe38af63	-0.18035655
6	0x3e70cba4	0.23515183
7	0xbe5ebc58	-0.21751535
8	0xbe319133	-0.17340545
9	0xbe180d7d	-0.14848895
10	0x3e8684d2	0.2627321
11	0x3f0fa2ad	0.561076
12	0xbe36417b	-0.17798416
13	0x3e3e125e	0.18561694
14	0xbf0681bc	-0.5254171
15	0xbf93c182	-1.1543429
16	0x3e91fdd8	0.2851398
17	0x3e364198	0.1779846
18	0xbce45668	-0.027873233
19	0xbec5e7c0	-0.38653374
20	0x3da38185	0.07983688
21	0x3ec56411	0.38552907
22	0xbe5af87e	-0.21383855
23	0xbe09a7f6	-0.13442978
24	0x3e0d90f6	0.1382483
25	0x3e774441	0.2414713
26	0xbead9d52	-0.33909088
27	0x3ef2d09a	0.47424775
28	0x3dd8bbf5	0.10582725
29	0xbf247d66	-0.6425384
30	0x3ed4f95f	0.41596505
31	0xbe8a15b8	-0.26969695
32	0x3dbb31c5	0.09140352
33	0xbf070742	-0.5274545
34	0xbf1d6268	-0.6147828
35	0x3e1a08a9	0.15042366
36	0x3c222d0f	0.009898438
37	0x3e930301	0.2871323
38	0x3e9cc972	0.3062244
39	0x3d5e83ef	0.05432504
40	0x3db9059e	0.090342745
41	0x3e504ee6	0.20342597
42	0x3eea4018	0.45752025
43	0x3ed7972d	0.42107525
44	0xbe97b8b8	-0.29633117
45	0x3e201512	0.15633038
46	0xbecc0b98	-0.39852595
47	0x3f61a321	0.8813954
48	0xbec31fd5	-0.38110223
49	0x3dcca505	0.099924125
50	0xbe69f2cf	-0.2284653
51	0xbd8b7a2a	-0.0681041
52	0x3a91c10b	0.0011120153
53	0x3f2089d3	0.62710303
54	0xbf24404e	-0.6416062
55	0xbd3c51f5	-0.045976598
56	0x3ea1766f	0.3153567
57	0xbf0103a6	-0.5039619
58	0xbe59d236	-0.21271595
59	0x3f0a6d65	0.5407317
60	0x3ee354ab	0.44400534
61	0x3eae1e33	0.34007415
62	0x3d2296bd	0.039694536
63	0x3d1036f9	0.035208676
64	0x3d825436	0.06363718
65	0xbf2151f6	-0.6301569
66	0x3d86831f	0.06567978
67	0xbf0dafc9	-0.5534635
68	0x3ec06afa	0.37581617
69	0x3f176012	0.59130967
70	0xbcfdef2c	-0.030997835
71	0xbe8eb084	-0.27869046
72	0x3ee2e338	0.4431398
73	0xbeaf9d5a	-0.34299737
74	0xbe2d9d10	-0.16954446
75	0xbf167efe	-0.58787525
76	0x3ee4386c	0.44574296
77	0xbed086bc	-0.40727794
78	0xbdad1eec	-0.084531635
79	0xbeaee59f	-0.34159562
80	0xbdc307f0	-0.09522998
81	0x3e420785	0.18948181
82	0xbf3c11c4	-0.7346461
83	0xbebe8c8c	-0.37216604
84	0xbed2453f	-0.41068456
85	0xbf672b6f	-0.9030065
86	0xbf2bdd7f	-0.6713485
87	0x3e957d2f	0.2919707
88	0x3e209b31	0.15684201
89	0x3bdbdac7	0.00670943
90	0xbcbd0635	-0.023074249
91	0xbf1adfd4	-0.60497785
92	0xbf888d26	-1.0668075
93	0x3e0a992d	0.13534994
94	0x3e38142e	0.17976448
95	0xbf0a7b79	-0.54094654
96	0xbeb9e8d0	-0.36310434
97	0xbebb1d58	-0.36545825
98	0xbe2acbd1	-0.16679312
99	0xbf9f2bc1	-1.2435228
100	0x3c71581f	0.014730482
101	0x3e780212	0.2421954
102	0x3ea63421	0.32461646
103	0xbf21275f	-0.629507
104	0xbe85c9ce	-0.26130527
105	0xbdd18b19	-0.10231609
106	0xbdd9be6f	-0.106320255
107	0xbe533f5a	-0.20629635
108	0xbc8613fa	-0.016366947
109	0x3c94fa68	0.01818581
110	0xbf5db2e8	-0.86601114
111	0xbdb39264	-0.08768156
112	0x3f1a3708	0.6024022
113	0x3e011fe6	0.12609825
114	0xbc032ba8	-0.008006014
115	0xbf21d34e	-0.6321305
116	0xbe718097	-0.2358421
117	0xbe891414	-0.2677313
118	0x3ec336e5	0.3812782
119	0xbd4a04a2	-0.049320824
120	0x3d33b21a	0.043871023
121	0xbe6a1e29	-0.22863068
122	0xbe2e8a3e	-0.17044923
123	0x3f59064e	0.84775245
124	0x3dc4ae5c	0.09603569
125	0x3e436762	0.19082406
126	0xbe51bb8e	-0.20481703
127	0xbe834381	-0.2563744
128	0x3ea360c4	0.31909764
129	0x3ef53430	0.47891378
130	0x3ef5969f	0.47966477
131	0xbf74b2a1	-0.95585066
132	0xbeb68630	-0.35649252
133	0xbe3c0719	-0.18362083
134	0x3d1e8689	0.03870252
135	0xbf41f746	-0.75767934
136	0xbed562af	-0.41676852
137	0xbf44aa77	-0.7682261
138	0x3ec86d6e	0.39145988
139	0xbde954bf	-0.11393117
140	0xbefa9c14	-0.48947203
141	0xbe9667b8	-0.29376006
142	0xbed59a64	-0.41719353
143	0xbe9e44d3	-0.30911884
144	0x3e579aae	0.210551
145	0xbf25cd7a	-0.6476666
146	0x3f402738	0.75059843
147	0x3dafacc7	0.085778765
148	0xbf119225	-0.56863624
149	0x3ec29705	0.38005844
150	0xbc910063	-0.01770038
151	0xbeb3772e	-0.35051864
152	0x3e731671	0.2373903
153	0xbe8c6cec	-0.2742685
154	0xbe75d44c	-0.24006766
155	0xbe840dfa	-0.25791913
156	0xbb86ae34	-0.004110122
157	0xbeb5a193	-0.35474834
158	0x3f3d73ef	0.74005026
159	0x3e4d7639	0.2006463
160	0xbf3c61c8	-0.735867
161	0x3e020a7e	0.12699315
162	0x3e08f6b1	0.13375355
163	0x3e6e6144	0.23279291
164	0xbe57c2ed	-0.21070452
165	0xbf18b84d	-0.5965622
166	0x3f1f8ee5	0.62327415
167	0xbec87d14	-0.39157927
168	0x3e9acb87	0.30233404
169	0x3ed1686e	0.40899986
170	0xbeba6f56	-0.36413068
171	0x3c4cea07	0.012506968
172	0xbe498f38	-0.1968354
173	0x3e868780	0.26275253
174	0xbd4bac43	-0.04972483
175	0x3eddfb6a	0.43355876
176	0x3f0cff53	0.55077094
177	0xbee4b37f	-0.44668195
178	0x3e744664	0.23854977
179	0x3c887218	0.016655967
180	0x3dcfa89f	0.10139584
181	0x3ea859f5	0.32881132
182	0x3e5f49ae	0.2180545
183	0x3f627668	0.88461924
184	0xbe35fd1d	-0.17772336
185	0xbdd854d3	-0.10563054
186	0x3d746f84	0.059676662
187	0xbe467011	-0.19378687
188	0x3e59f225	0.21283777
189	0xbed29824	-0.411317
190	0xbee2192c	-0.4415983
191	0xbde34c6b	-0.1109856
192	0x3d37637e	0.044772618
193	0x3ed29be4	0.4113456
194	0xbf2fb86e	-0.6864079
195	0xbe7d1e85	-0.24718674
196	0x3ea9c48e	0.33157772
197	0xbeb60438	-0.35550094
198	0x3f43d957	0.7650351
199	0xbdfb8267	-0.12280732
200	0x3e901d61	0.28147414
201	0x3d9ec652	0.0775267
202	0xbe1a31a7	-0.15058003
203	0xbdf53753	-0.11973443
204	0xbe8588c2	-0.260809
205	0xbea1f82d	-0.31634656
206	0xbb3dfdcc	-0.0028990386
207	0xbe7b918b	-0.24567239
208	0xbeb40e7f	-0.3516731
209	0x3c295ac6	0.0103365835
210	0xbf3c5420	-0.73565865
211	0xbec44748	-0.38335633
212	0x3e891b99	0.26778868
213	0x3e8a98b9	0.27069643
214	0xbdffb062	-0.12484814
215	0x3f0d6e0b	0.5524604
216	0xbf476ed9	-0.77903515
217	0xbf30df3c	-0.6909063
218	0x3f58101d	0.84399587
219	0xbf1d14cb	-0.6135985
220	0x3d6976be	0.056998007
221	0xbf2cdf81	-0.6752854
222	0xbd9ca037	-0.07647746
223	0x3e8e5b43	0.27804002
224	0xbec3b43f	-0.38223454
225	0x3e9184cf	0.28421637
226	0xbdea5d4c	-0.11443576
227	0xbebefaba	-0.37300664
228	0x3d32cbbb	0.043651324
229	0xbf0c1e8d	-0.54734117
230	0xbf5950e4	-0.84889054
231	0xbf286710	-0.6578226
232	0x3ed598b9	0.4171808
233	0xbdc66048	-0.09686333
234	0x3de2dea1	0.11077619
235	0xbe7246b0	-0.23659778
236	0xbed58822	-0.41705424
237	0x3f5f9280	0.87332916
238	0x3e8b9c81	0.2726784
239	0x3d024970	0.031808317
240	0xbf0943c8	-0.5361905
241	0xbe83ae52	-0.25718933
242	0xbb283220	-0.0025664642
243	0x3f5d0b73	0.86345595
244	0xbe23d372	-0.15998629
245	0x3dbac117	0.0911886
246	0x3f28d4aa	0.659495
247	0x3f0e178d	0.55504686
248	0x3e77083e	0.24124238
249	0x3f0d2d93	0.55147666
250	0x3efbb1e2	0.4915915
251	0xbea5030d	-0.3222889
252	0x3e056098	0.13025129
253	0x3d78deee	0.060759477
254	0xbec08cec	-0.37607515
255	0x3e325b47	0.17417632

network_body._body_endoder.seq_layers.0.bias f4 [128]
0	0x3d5d0696	0.05396136
1	0x3d250ac6	0.040293477
2	0x3cbb228d	0.022843624
3	0xbce45c91	-0.02787617
4	0x3b36b144	0.0027876655
5	0x3bef4486	0.00730187
6	0x3d750ea5	0.05982842
7	0x3cbd6717	0.023120446
8	0x3cfc43e2	0.030794088
9	0x3c356992	0.011072533
10	0x3d69515a	0.05696235
11	0x3c7079f8	0.014677517
12	0xbb728271	-0.0037004019
13	0x3c27b9d6	0.010237178
14	0xbc041a77	-0.00806295
15	0xbbeb5c19	-0.0071826098
16	0x3a8bf9d2	0.0010679311
17	0xbcff16e0	-0.031138837
18	0x3d497682	0.049185283
19	0x3ce55ae7	0.027997447
20	0x3c8ce27c	0.01719784
21	0x3d5d86eb	0.054083746
22	0xbc36bbd5	-0.011153181
23	0x3ca47e22	0.020079676
24	0x3beaeb2f	0.0071691494
25	0x3d1177cd	0.03551464
26	0x3d00ec1f	0.031475183
27	0x3d223979	0.03960559
28	0xbd121073	-0.03566022
29	0x3d4f66e0	0.05063522
30	0x3d44c610	0.04804045
31	0xbd008749	-0.031379018
32	0x3bf6a668	0.0075271614
33	0x3d21e75b	0.03952728
34	0xbbcc64f5	-0.006237621
35	0x3d1236e5	0.035696883
36	0x3cda7f59	0.026672052
37	0x3b7d825c	0.0038682437
38	0x3d2d041a	0.04224024
39	0x3d841ae0	0.064504385
40	0x3c626301	0.01381755
41	0x3d826234	0.06366387
42	0xbb9d7224	-0.0048048664
43	0x3d226929	0.03965107
44	0x3a5777fc	0.0008219478
45	0x3bbbb599	0.0057284352
46	0x3d664f11	0.056227747
47	0x3d70af35	0.05876084
48	0x3d5bd8b3	0.053673457
49	0x3c092bf1	0.008372293
50	0x3d43c7ae	0.04779785
51	0xbca4f927	-0.020138336
52	0x3d86ce0d	0.0658227
53	0x3c235657	0.0099693155
54	0xbb183b1c	-0.0023228591
55	0x3c504705	0.012712245
56	0x3d4b43c1	0.049625162
57	0x3c100b77	0.008791796
58	0x3cdd6081	0.027023556
59	0xbccb736d	-0.024835313
60	0x3c1acd16	0.00944831
61	0x3d8c8f6a	0.068632916
62	0x3d29b2e3	0.041430365
63	0xbc8b8139	-0.017029392
64	0x3d283720	0.041068196
65	0x3cd59cde	0.026075777
66	0xbbe2706e	-0.0069103753
67	0x3cd7cfec	0.026344262
68	0x3d61da03	0.055139553
69	0x3b178ff6	0.002312658
70	0x3cb76bab	0.022390207
71	0xbd370dde	-0.04469096
72	0x3d478187	0.04870751
73	0x3d1cf282	0.03831721
74	0x3d42804e	0.047485642
75	0x3d37f762	0.044913657
76	0x3d52c532	0.05145759
77	0x3d8a2b05	0.067464866
78	0xba6e1885	-0.0009082633
79	0x3bb8c961	0.0056392406
80	0x3bcc0c67	0.0062270644
81	0x3cdc612a	0.0269018
82	0xbb9c7ab5	-0.00477537
83	0x3d5170bf	0.051132914
84	0x3d0167f9	0.031593297
85	0xbd4f8d51	-0.05067188
86	0x3d87c532	0.06629409
87	0x39cb12a7	0.00038733074
88	0x3d3816d6	0.044943653
89	0x3d0f2e1a	0.034956075
90	0x3d7fcc66	0.06245079
91	0x3cf2a9cc	0.029621981
92	0x3d803f81	0.062621124
93	0x3d56fb8d	0.05248599
94	0x3d198590	0.03748089
95	0xbd50a479	-0.050938103
96	0xbcca643d	-0.024706
97	0x3c99853a	0.018740285
98	0xbcadb5a0	-0.02120477
99	0x3d704889	0.058662925
100	0x3d8ec33c	0.06970832
101	0x3b787809	0.0037913343
102	0x3c3299bb	0.01090091
103	0x3d16b206	0.03679087
104	0x3d66a741	0.05631185
105	0x3c10a3ae	0.008828087
106	0x3b7fecc4	0.0039051035
107	0x3d15b877	0.036552873
108	0x3d43fc9e	0.047848336
109	0x3d5e9fe4	0.054351702
110	0x3d7ebbda	0.062190868
111	0x3d8dfb59	0.069327064
112	0x3d612c73	0.05497403
113	0x3ce9489e	0.02847701
114	0x3d4c4918	0.049874395
115	0x3d69ab19	0.057047937
116	0x3d3d4530	0.04620856
117	0x3d4a6425	0.04941191
118	0x3c017ff7	0.007904044
119	0x3d1b03f4	0.037845567
120	0x3ced25f3	0.02894876
121	0x3d6b7119	0.057480905
122	0x3d3ce189	0.046113525
123	0x3d168375	0.03674646
124	0x3cfceb8d	0.030874038
125	0x3cca6b65	0.024709413
126	0x3d655fe6	0.05599966
127	0xbc5b5107	-0.013386018

network_body._body_endoder.seq_layers.2.weight f4 [128, 128]
0	0xbca44bab	-0.020055613
1	0x3d5abc7b	0.053402405
2	0xbd2233c0	-0.039600134
3	0xbdb1b1cb	-0.086764894
4	0xbb8a5b07	-0.004222277
5	0xbda7395d	-0.08165238
6	0x3e2d31ed	0.16913576
7	0xbe0af773	-0.13570957
8	0xbc6d308e	-0.014476908
9	0x3c15b7af	0.009138032
10	0x3e025460	0.12727499
11	0xbcf5ca9a	-0.030003835
12	0x3da8e511	0.08246816
13	0xbe3189f5	-0.17337783
14	0x3d8e66c3	0.06953194
15	0x3ddda169	0.10821802
16	0x3ca1f3bb	0.01976954
17	0xbd1b398b	-0.037896674
18	0xb9d00f59	-0.00039684286
19	0x3da3a7d4	0.07990995
20	0x3e1455bb	0.14485829
21	0x3d8fa020	0.07012963
22	0x3b3da6e8	0.0028938595
23	0xbd3cd15f	-0.04609811
24	0xbd08bc47	-0.03338268
25	0x3e163fbe	0.14672753
26	0xbd3c72a9	-0.046007786
27	0x3dd6614e	0.10467778
28	0xbd8c9cc8	-0.06865841
29	0x3e16043f	0.14650057
30	0xbd8adcff	-0.06780433
31	0x3c795c6d	0.01521979
32	0xbe42898b	-0.18997781
33	0xbd489b00	-0.048975945
34	0xbd733acc	-0.059382245
35	0xbe3c80b8	-0.18408477
36	0xbc921bd8	-0.017835543
37	0x3d0f742e	0.035022907
38	0xba4041f9	-0.00073340494
39	0x3d390499	0.0451704
40	0xbdba904d	-0.091095544
41	0x3da0376b	0.0782307
42	0x3d8e929d	0.06961558
43	0x3e2cfc9b	0.16893236
44	0x3c3ba4bf	0.011452853
45	0x3dd76bca	0.10518606
46	0x3dc55833	0.09635963
47	0x3e00cb43	0.12577538
48	0x3d36cbd2	0.044627972
49	0x3bc4ca92	0.0060055936
50	0x3b42762f	0.0029672494
51	0xbda63ea7	-0.08117419
52	0xbd53aaec	-0.051676676
53	0xbd6d3ed7	-0.057921257
54	0xbe60eec3	-0.2196608
55	0x3cfcd0c1	0.03086126
56	0xbc07d374	-0.00829016
57	0x3d6cff71	0.057860795
58	0xbe9c40a2	-0.3051806
59	0xbe050178	-0.12988842
60	0x3d797109	0.060898814
61	0x3aa3c379	0.0012494168
62	0x3c573703	0.013135674
63	0xbe270cd5	-0.16313489
64	0x3dc88eeb	0.097928844
65	0x3c215f43	0.009849372
66	0xbc8800f7	-0.016602023
67	0xbc928d27	-0.017889572
68	0x3e67bb57	0.22630058
69	0x3da564f6	0.080758974
70	0x3ba52e0e	0.0050408905
71	0xbd958e53	-0.07302537
72	0x3d778549	0.060429845
73	0xbb51ad11	-0.0031994025
74	0xbdf90eec	-0.12161049
75	0x3b9954e4	0.004679309
76	0x3df43372	0.11923875
77	0x3e1c85b6	0.15285382
78	0xbdd64fce	-0.1046444
79	0x3db338e1	0.08751083
80	0xbd2491f9	-0.040178273
81	0x3dd91c57	0.106011085
82	0xbd3a8027	-0.04553237
83	0xbda69d37	-0.08135455
84	0xbcc432db	-0.023950031
85	0x3caa2527	0.020769669
86	0x3c8336e3	0.016017383
87	0xbd199fa1	-0.03750575
88	0x3e280377	0.16407572
89	0xbb9d43e1	-0.0047993516
90	0xbd82e953	-0.06392159
91	0x3d3d32ed	0.046191145
92	0x3ded82c7	0.115972094
93	0x3d2ab1eb	0.041673582
94	0xbe75f6cf	-0.24019931
95	0xbd9b3c34	-0.07579842
96	0xbce124f7	-0.027483447
97	0x3dd59cd5	0.10430304
98	0xbdc8a797	-0.0979759
99	0xbde4b8e8	-0.111680806
100	0xbd4d2c48	-0.050091058
101	0x3ca89d77	0.020582898
102	0x3d808a49	0.06276376
103	0xbd584e9c	-0.052809343
104	0x3e1c04f4	0.15236264
105	0xbe1cf19b	-0.1532654
106	0x3cc42778	0.023944601
107	0x3d2c7bc2	0.042110212
108	0x3e0a7de0	0.1352458
109	0xbc41cf80	-0.011829257
110	0xbe0ef983	-0.13962369
111	0x3d75dd11	0.06002528
112	0x3dd22f8b	0.10262974
113	0xbb8aa9a1	-0.004231647
114	0xbcb66b61	-0.022268
115	0x3c9a4580	0.018831968
116	0x3d711fcf	0.058868226
117	0x3d3dd0aa	0.046341576
118	0xbc60380f	-0.01368524
119	0xbcb38187	-0.02191235
120	0x3e2669aa	0.16251245
121	0x3de110a0	0.10989499
122	0x3d997ec6	0.07494883
123	0xbd616153	-0.055024456
124	0xbccec7e2	-0.025241796
125	0xbe148e9b	-0.14507525
126	0xbd414961	-0.04718912
127	0xbcdddba1	-0.027082266
128	0xbd3c9ec7	-0.04604986
129	0x3d216bf9	0.03940961
130	0x3d85df0a	0.06536682
131	0xbe0d23a5	-0.13783129
132	0xbd47f52c	-0.0488178
133	0x3d40e613	0.047094416
134	0x3db2767a	0.08714004
135	0xbd654100	-0.055970192
136	0x3d5a1c7a	0.053249814
137	0x3d9776de	0.07395719
138	0xbd8a3024	-0.06747463
139	0x3e0dc964	0.13846356
140	0x3d983cd0	0.07433474
141	0xbcc99f52	-0.024612103
142	0xbddd3507	-0.1080113
143	0x3d772832	0.060341068
144	0xbe595f79	-0.21227826
145	0x3d9b9b0c	0.07597932
146	0x3dd136ca	0.10215528
147	0x3d78c809	0.060737643
148	0xbdfd6219	-0.12372226
149	0x3e29bc2e	0.16575691
150	0xbe7f2a31	-0.24918438
151	0xbe0d35f9	-0.1379012
152	0x3df8087a	0.12110992
153	0xbbc10b29	-0.005891223
154	0xbdd30d10	-0.10305226
155	0x3e0f232b	0.1397826
156	0xbdafc3c5	-0.08582262
157	0x3cd76d69	0.026297288
158	0x3e43a5eb	0.19106261
159	0xbcfa1597	-0.030527873
160	0xbd801644	-0.06254247
161	0xbdfdcb2e	-0.12392269
162	0x3db9936e	0.09061323
163	0xbe0b5881	-0.1360798
164	0xbdbf5271	-0.09341896
165	0x3d1ee8ce	0.03879624
166	0x3c605953	0.013693172
167	0xbd1be059	-0.03805575
168	0x3d6d82da	0.057986118
169	0x3d7bc2fd	0.061465252
170	0x3d53c0f5	0.05169769
171	0xbbd368f0	-0.0064517185
172	0x3dc501a6	0.09619455
173	0xbda2a863	-0.079422735
174	0xbc1e658b	-0.009667764
175	0x3d9f924e	0.07791577
176	0xbcc9592a	-0.02457865
177	0xbc4c008c	-0.012451302
178	0x3e17c2a5	0.14820345
179	0xbdec335b	-0.11533233
180	0xbded18b1	-0.11576975
181	0xbd4c8a89	-0.049936805
182	0xbdbae4da	-0.09125681
183	0xbd8c8210	-0.06860745
184	0xbe5b7cac	-0.21434277
185	0x3d2a59ef	0.041589674
186	0x3e033c38	0.1281594
187	0xbd0518bb	-0.032494288
188	0x3ca5122a	0.020150263
189	0x3dce6d99	0.10079498
190	0x3c33f187	0.010982878
191	0xbc2894aa	-0.0102893505
192	0x3d21c760	0.03949678
193	0x3c59a293	0.01328339
194	0xbd41c284	-0.047304645
195	0xbdd51166	-0.10403709
196	0x3db31399	0.08743972
197	0xbdfdaae9	-0.12386114
198	0xbcab17d2	-0.020885382
199	0xbd98be76	-0.074582025
200	0xbde40596	-0.11133878
201	0x3d98e681	0.0746584
202	0xbdce279d	-0.100661494
203	0x3c478d6f	0.0121797165
204	0x3c1b1442	0.009465279
205	0x3e23f90e	0.16012976
206	0xbd13a1f5	-0.036043126
207	0xbd1a0a11	-0.037607256
208	0xbd003863	-0.031303775
209	0xbd27ff1d	-0.04101478
210	0x3c15f426	0.009152448
211	0xbd4a621b	-0.049409967
212	0x3d5094fc	0.050923333
213	0xbd918240	-0.07104921
214	0x3ddcbbf7	0.10778039
215	0xbc5eaa56	-0.013590416
216	0x3da45fb9	0.0802607
217	0xbd143da1	-0.036191586
218	0x3d6ecbf9	0.058299992
219	0xba86312b	-0.0010238042
220	0x3e11f803	0.14254765
221	0xbcf54245	-0.029938826
222	0x3e8dbccc	0.27683103
223	0x3da2b3c1	0.079444416
224	0xbd8654b9	-0.06559128
225	0x3b93a84f	0.004506148
226	0xbc2f6179	-0.010704392
227	0xbe26a1a8	-0.16272604
228	0x3ce7614d	0.028244639
229	0x3df0f0f7	0.117647104
230	0xbc04ef53	-0.0081137
231	0xbcfcc6a1	-0.030856432
232	0xbcabe6d2	-0.020984087
233	0x3e22b545	0.15889461
234	0xbd0e134e	-0.03468638
235	0xbe3acb96	-0.18241724
236	0x3d732b24	0.059367314
237	0x3c8e4ab5	0.017369607
238	0x3e90a8c8	0.2825377
239	0x3cd8bdb1	0.02645764
240	0x3de565b5	0.1120104
241	0x3cb3402d	0.021881187
242	0x3e0f8d61	0.14018776
243	0x3ca40a2d	0.020024383
244	0xbd22f812	-0.03978736
245	0x3d5ab247	0.053392675
246	0x3c459323	0.012059006
247	0x3e45bc44	0.19310099
248	0x3d8f0e31	0.06985129
249	0x3e06a0c3	0.13147263
250	0xbcc17f36	-0.02362023
251	0xbe397e3b	-0.1811456
252	0xbd3eb9b1	-0.046563808
253	0xbc5ba236	-0.013405373
254	0x3cfa602e	0.03056344
255	0xbe0c21e1	-0.13684799

network_body._body_endoder.seq_layers.2.bias f4 [128]
0	0x3d23ae2e	0.039961033
1	0x3d22b63b	0.03972457
2	0x3c899166	0.016792964
3	0x3c5a09de	0.013308017
4	0x3d495233	0.049150657
5	0x3cb7c50a	0.022432823
6	0x3d54afa1	0.051925305
7	0x3d106548	0.03525284
8	0x3b212a2d	0.002459179
9	0x3ca5cba4	0.020238705
10	0x3d30eae1	0.043192748
11	0x3d2f1dab	0.042752903
12	0x3c0c5390	0.008564845
13	0x3d572db6	0.052533828
14	0x3d51edab	0.05125205
15	0x3d6b8c88	0.057507068
16	0x3bfdd3ca	0.0077461945
17	0xbb3de26c	-0.002897407
18	0x3b8a2b4b	0.0042165867
19	0x3d4c8c13	0.049938273
20	0x3d068eaa	0.0328509
21	0x3d68539a	0.056720354
22	0x3cccb773	0.02498982
23	0x3bf77473	0.0075517236
24	0x3c171bd1	0.009222941
25	0x3d86491d	0.06556914
26	0xbb2ed4ba	-0.0026677088
27	0xbc221295	-0.009892126
28	0x3c3fa130	0.011696145
29	0x3ce5ba11	0.028042825
30	0xbd22175a	-0.03957305
31	0x3d186502	0.037205704
32	0xbbbfe899	-0.005856585
33	0x3a72f376	0.0009267846
34	0x3b12e6e7	0.002241546
35	0x3c52fae7	0.012877203
36	0x3d75f09c	0.060043916
37	0x3d136fc6	0.035995267
38	0x39f300ce	0.0004634917
39	0xbbeae75b	-0.007168693
40	0xbcee943b	-0.029123416
41	0x3c143d56	0.009047827
42	0x3d3040e5	0.04303064
43	0x3d81bce4	0.06334856
44	0x3d4a6e4c	0.049421594
45	0x3d6cf8ab	0.057854336
46	0x3d8ab39f	0.06772541
47	0x3ce3053c	0.027712457
48	0x3bb52ef1	0.0055292775
49	0xbb84f64c	-0.004057681
50	0x3d044c37	0.032299247
51	0x3d57f306	0.052722
52	0x3d35f834	0.044426158
53	0x3d79d96f	0.060998376
54	0xbb604b33	-0.003422451
55	0x3c8b2a13	0.016987836
56	0xbbb4d372	-0.0055183703
57	0x36134c82	2.194924e-06
58	0x3d0e77ef	0.034782346
59	0x3cbd4444	0.02310384
60	0x3c084053	0.008316117
61	0xb8cb2efb	-9.688545e-05
62	0x3cbc7494	0.023004808
63	0x3c808f76	0.015693408
64	0x3d80e0df	0.06292891
65	0x3d9798aa	0.07402165
66	0xbc42d622	-0.011891874
67	0xbc2bc555	-0.010484059
68	0x3d10c490	0.035343707
69	0x3c1bd1d9	0.009510481
70	0x3d2ed4f8	0.04268357
71	0x3d1662c8	0.0367153
72	0x3d55bbe0	0.052181125
73	0x3bda996e	0.0066711223
74	0x3d49d786	0.049277805
75	0x3cf0ae24	0.029379912
76	0xbc0d8c0f	-0.00863935
77	0x3d26c4fd	0.040715206
78	0x3d5b0054	0.05346711
79	0x3c24a4eb	0.010049085
80	0x3a879c19	0.0010346203
81	0x3be9ed58	0.0071388893
82	0x3d3c000b	0.04589848
83	0x3cb4bb15	0.022061864
84	0x3c34cba8	0.011034884
85	0x3cac9db5	0.021071294
86	0x3c98c6d5	0.018649498
87	0x3d21a5f9	0.039464924
88	0x3c355322	0.011067184
89	0xbbb2129c	-0.0054343473
90	0x3c288570	0.01028572
91	0x3d428c9a	0.04749737
92	0x3d06b68c	0.032888934
93	0x3cd2dff2	0.025741551
94	0x3a96e004	0.0011510854
95	0x3d468661	0.048467997
96	0x3d749707	0.059714343
97	0x3d083f09	0.03326324
98	0x3d82fe91	0.06396211
99	0x3d11ea1f	0.035623666
100	0x3c45d7e7	0.012075401
101	0xbc99bdd6	-0.018767279
102	0x3d78d786	0.060752414
103	0xbb435370	-0.0029804371
104	0x3d0d3542	0.03447462
105	0x3c9d5637	0.01920615
106	0x3d83b77e	0.06431483
107	0x3c977fd4	0.01849357
108	0x3c999928	0.018749788
109	0xbc08f23c	-0.008358534
110	0x3cfeb37a	0.03109144
111	0x3ceae0ed	0.028671706
112	0xbb6c4641	-0.0036052617
113	0x3d50e8b5	0.051003177
114	0xbc5ff175	-0.013668408
115	0x3d55d026	0.05220046
116	0x3d39ab65	0.04532947
117	0x3d843e1e	0.064571604
118	0x3d253661	0.040335063
119	0x3bf87355	0.007582108
120	0xbc33b1ce	-0.010967685
121	0x3d62b45c	0.055347785
122	0x3d88c6f0	0.06678569
123	0x3d907206	0.07052998
124	0x3d1506c3	0.0363834
125	0xbbdaee7e	-0.0066812625
126	0x3d0eb04c	0.0348361
127	0xbc2695d6	-0.01016756

action_model._discrete_distribution.branches.0.weight f4 [5, 128]
0	0xbceef62d	-0.02917012
1	0xbd2aa8c3	-0.04166485
2	0xbd03336d	-0.032031465
3	0xbd4658cb	-0.048424523
4	0xbd4b0a20	-0.049570203
5	0xbce5178a	-0.027965326
6	0xbd584f11	-0.05280978
7	0xbd3c2e2b	-0.045942467
8	0x3c8f4068	0.017486766
9	0xbd1b8abf	-0.037974115
10	0xbd820129	-0.063478775
11	0xbd6758ef	-0.056481298
12	0xbcb6b7c7	-0.022304429
13	0xbd1300e5	-0.035889525
14	0xbd01c5ae	-0.031682663
15	0xbd45b2bd	-0.04826616
16	0xbd2e2688	-0.042517215
17	0xbc593158	-0.013256393
18	0x3c2b6c7b	0.0104628755
19	0xbd3a0873	-0.045418214
20	0xbd49acab	-0.049236935
21	0xbd473bb0	-0.048640907
22	0xbd0bbc49	-0.03411511
23	0x3c61a2a3	0.013771686
24	0x3a48f794	0.00076662865
25	0xbd2832fc	-0.041064247
26	0xbc512e69	-0.012767413
27	0xbbf09130	-0.0073415264
28	0xbd278a24	-0.040903226
29	0xbd0d9ab9	-0.034571383
30	0x3d786c0c	0.060649917
31	0xbd5e6291	-0.05429322
32	0x3c73a4aa	0.014870802
33	0x3a8d62b3	0.0010786861
34	0x3c839b7c	0.016065352
35	0xbb4b22c9	-0.0030996075
36	0xbd63b353	-0.05559094
37	0xbd375488	-0.04475835
38	0xbca7b0cf	-0.020470051
39	0xbb21c932	-0.0024686572
40	0x3d74dd77	0.059781518
41	0xbc669e8a	-0.014075885
42	0xbd7fd247	-0.062456395
43	0xbd418536	-0.04724618
44	0xbd838a5f	-0.064228766
45	0xbd1f10c1	-0.038834337
46	0xbda03e63	-0.07824399
47	0xbd67d2e2	-0.056597598
48	0xbcba8cac	-0.022772156
49	0xbc581c40	-0.013190329
50	0xbd8ec9dd	-0.06972096
51	0xbd131085	-0.035904426
52	0xbd1fea4f	-0.039041813
53	0xbd1f7082	-0.038925655
54	0xbcd45cf9	-0.025923239
55	0xbc91c474	-0.017793871
56	0x3c8cb19b	0.017174533
57	0xbcff9aa0	-0.03120166
58	0xbd093812	-0.03350074
59	0xbc98cba9	-0.0186518
60	0xbd34dabf	-0.044153925
61	0x3cc4ae21	0.024008812
62	0xbcaa54fe	-0.02079248
63	0xbbdabf28	-0.0066756196
64	0xbd385314	-0.045001104
65	0xbd966ad1	-0.07344592
66	0xbbcafe3e	-0.006194859
67	0x3d08dede	0.033415668
68	0xbcf50e5a	-0.02991407
69	0xbd17768c	-0.03697829
70	0xbd324d7e	-0.043530934
71	0xbd25cc4f	-0.040478047
72	0xbd5a5e04	-0.053312317
73	0xbcbc40dc	-0.022980146
74	0xbd8dbf36	-0.06921236
75	0x3b6527ae	0.0034966278
76	0xbc2004ee	-0.0097668
77	0xbd03d2c1	-0.032183412
78	0xbdaffdc9	-0.085933276
79	0xbcc276fc	-0.023738377
80	0xbc8362fd	-0.016038412
81	0xbc86552a	-0.016398031
82	0xbcb4d14f	-0.022072462
83	0xbc2603f5	-0.010132779
84	0xbb1f7fc9	-0.002433764
85	0xbd1dc7a4	-0.03852047
86	0xbd3acdc6	-0.045606397
87	0xbd88af51	-0.06674064
88	0xbd0611ef	-0.032731947
89	0x3d0499cc	0.032373235
90	0xbd5131c6	-0.05107286
91	0xbd664526	-0.05621829
92	0xbd6b713d	-0.05748104
93	0xbc97be79	-0.018523442
94	0x3bbf7863	0.0058432086
95	0xbcf3b1ac	-0.029747806
96	0xbd60ec0a	-0.054912604
97	0xbc8ea4fb	-0.017412653
98	0xbd99448e	-0.07483779
99	0xbd52ffe2	-0.05151356
100	0x3d3f18b4	0.046654418
101	0x3d012dbc	0.031537756
102	0xbdb29448	-0.08719689
103	0x3bfc87a9	0.0077066016
104	0xbd58e74e	-0.052954964
105	0xbc4f8a8a	-0.012667308
106	0xbd8f8563	-0.070078634
107	0xbd6312be	-0.055437796
108	0xbd79cece	-0.06098824
109	0x3b9c2a34	0.004765773
110	0xbd2567f2	-0.040382333
111	0xbd230735	-0.039801795
112	0x3ccaa573	0.024737095
113	0xbd867973	-0.06566133
114	0x3ca53b13	0.02016977
115	0xbced84d1	-0.028993996
116	0xbd3618e2	-0.044457324
117	0xbcfc0564	-0.03076429
118	0xbd029357	-0.031878795
119	0xbb881b33	-0.004153633
120	0x3b69e24f	0.003568787
121	0xbd8dbbb4	-0.06920567
122	0xbdb22635	-0.08698694
123	0xbd71577b	-0.05892132
124	0xbd84784c	-0.06468257
125	0x3c1a28c4	0.009409133
126	0xbcd97b63	-0.026548093
127	0xbc4397e4	-0.011938069
128	0x3c714208	0.014725216
129	0xbc7c7229	-0.015408077
130	0x3cec09ad	0.028813208
131	0x3c74f2ce	0.014950467
132	0xbc2eebaf	-0.010676309
133	0x3d16aad2	0.036784
134	0xbd0aaf51	-0.0338586
135	0x3d9f4196	0.077761814
136	0x3cdd0540	0.026980042
137	0x3d7fb7bd	0.062431086
138	0x3b2d5017	0.0026445442
139	0x3d1bdbfd	0.038051594
140	0x3d5ed28c	0.054400012
141	0xbd123be2	-0.03570164
142	0xbd2bf403	-0.041980755
143	0xbcf09614	-0.029368438
144	0xbcd1023d	-0.025513763
145	0x370b0143	8.285339e-06
146	0x3d4d86fd	0.050177563
147	0xbce9120f	-0.028450994
148	0x3c5c2c8d	0.013438356
149	0xbceb5603	-0.028727537
150	0x3d8e7b97	0.06957167
151	0x3c960c7e	0.018316504
152	0x3d89a2a7	0.067204766
153	0xbcdb2bd1	-0.026754292
154	0x3d4f1db6	0.050565444
155	0xbccee29a	-0.025254536
156	0x3b18cb20	0.0023314431
157	0xbc8ac190	-0.016938
158	0x3c3f8a85	0.0116907405
159	0x3d0a6d4d	0.033795644
160	0x3d6ba826	0.057533406
161	0x3d1c5ca0	0.03817427
162	0x3d0d06f9	0.034430478
163	0x3c181c24	0.009284053
164	0xbd054a96	-0.032541834
165	0xbc492026	-0.012275731
166	0xbd4c4df4	-0.04987903
167	0xbd2068d7	-0.039162483
168	0xbac12aca	-0.0014737484
169	0x3d54dcf0	0.051968515
170	0x3d4a0caf	0.049328502
171	0xbd000525	-0.031254906
172	0x3c9eff97	0.019408984
173	0xbd35f849	-0.044426236
174	0x3d219106	0.039444946
175	0x3d6a55f4	0.057210878
176	0xb943b787	-0.00018665018
177	0xbd26f428	-0.04076019
178	0x3d11dbac	0.035609886
179	0xbce0bb03	-0.027432924
180	0x3cd69385	0.02619339
181	0xbd661cc4	-0.056179777
182	0x3cda2145	0.026627192
183	0xbcb967bd	-0.022632474
184	0x3d5c1feb	0.053741377
185	0xbc254fe7	-0.010089851
186	0x3d5cefb7	0.053939547
187	0xbc78ac94	-0.015177865
188	0xbcafaccc	-0.0214447
189	0x3c86109a	0.016365338
190	0x3d697bc9	0.057002816
191	0x3d9143cd	0.0709301
192	0xbcfe6657	-0.031054659
193	0x3bce06b5	0.0062874206
194	0x3d59c88e	0.05316978
195	0x3ca51356	0.020150822
196	0x3d07179d	0.032981504
197	0x3bdf1083	0.0068073883
198	0xbd2a89e1	-0.041635398
199	0x3d5de8c5	0.054177064
200	0x3afeec77	0.0019449134
201	0xbc0751d7	-0.008259258
202	0x3d427a01	0.047479633
203	0xbcdee764	-0.027209945
204	0x3bd94d01	0.006631494
205	0xbd4d7750	-0.050162613
206	0x3d8aade9	0.06771452
207	0x3d000d5d	0.031262744
208	0x3d69d2b7	0.05708572
209	0xbd28d989	-0.041223083
210	0xbd4d4ff5	-0.05012508
211	0xbce53a35	-0.027981857
212	0x3d7baaf7	0.06144234
213	0x3d38a757	0.045081463
214	0xbc50617b	-0.012718554
215	0x3cf1c382	0.02951217
216	0xbce79a9e	-0.02827197
217	0xbca3c587	-0.01999165
218	0xbbf60646	-0.007508072
219	0x3cb0a6cf	0.021563916
220	0x3d0f164a	0.034933366
221	0x3d6d1d1e	0.057889096
222	0xbd20a51e	-0.039219968
223	0xbd7d0be2	-0.06177891
224	0xbc81c517	-0.01584105
225	0x3d70ed5e	0.05882012
226	0xbb59c832	-0.0033230898
227	0xbcdd4b2d	-0.027013386
228	0xbd2be5c5	-0.041967172
229	0x3d85b63e	0.065289006
230	0x3d08037b	0.033206444
231	0xbd4dbf33	-0.05023117
232	0x3d59748f	0.053089675
233	0x3d77cceb	0.06049816
234	0xbcec1455	-0.028818289
235	0xbd345bd9	-0.044032905
236	0xbc29b786	-0.010358697
237	0xbca3ae10	-0.01998046
238	0xbc8f3da5	-0.01748545
239	0x3d5f0ec7	0.054457452
240	0x3d0fbc98	0.035091966
241	0x3d130947	0.03589752
242	0xbd285bca	-0.041103162
243	0xbd538400	-0.051639557
244	0x3b117598	0.0022195335
245	0xbd1c570c	-0.038168952
246	0xbbf9f5a9	-0.007628162
247	0x3ccc48d2	0.024937067
248	0x3d5b4c9e	0.053539865
249	0xbcdddf5d	-0.027084047
250	0xbc69007f	-0.01422131
251	0xbd062a76	-0.032755338
252	0x3d3e572d	0.046469856
253	0xbc97449b	-0.01846533
254	0x3d654e8b	0.055983108
255	0xbcc2836e	-0.023744311

action_model._discrete_distribution.branches.0.bias f4 [5]
0	0xbd59b012	-0.05314643
1	0x3c014f88	0.007892497
2	0x3bf52fef	0.007482521
3	0xbbd723d2	-0.0065655494
4	0x3cd20354	0.025636353
