Scenes/ImprovedGridWorld2D/results/test-run/DroneGrid2D/DroneGrid2D-205418.onnx (onnx, 77147 bytes, 6 tensors)

network_body._body_endoder.seq_layers.0.weight f4 [128, 6]
0	0xbe2a6175	-0.1663874
1	0x3e745d1e	0.23863646
2	0xbe3fb1fe	-0.18720242
3	0xbd09a4a7	-0.03360429
4	0xbef15dcc	-0.47141874
5	0x3ef7c8af	0.48395297
6	0x3ea24f57	0.31701156
7	0x3deef39b	0.11667558
8	0xbf1e4154	-0.6181843
9	0xbd122767	-0.03568211
10	0x3e3e5435	0.1858681
11	0xbf157501	-0.5838166
12	0x3f1b881b	0.60754555
13	0x3f236c93	0.63837546
14	0x3e92d87b	0.28680786
15	0x3df8dafe	0.121511444
16	0xbef321da	-0.47486764
17	0x3f0d1ba2	0.5512029
18	0xbe0b7436	-0.1361855
19	0x3e12a03b	0.14318936
20	0x3deb3576	0.11484806
21	0xbd4f54f9	-0.050618146
22	0xbf9bedd8	-1.2181959
23	0x3ce20b4c	0.027593277
24	0xbf2e9709	-0.6819921
25	0x3eb1d47c	0.34732425
26	0xbebb08f9	-0.36530283
27	0x3f36d7b9	0.71422917
28	0xbdc294b0	-0.09501016
29	0xbe2a0513	-0.16603498
30	0xbda9aefb	-0.08285328
31	0xbd65a5e4	-0.05606641
32	0xbf3b11a9	-0.7307382
33	0xbb76e16b	-0.003767098
34	0xbf33283b	-0.6998326
35	0xbf3e1b52	-0.7426044
36	0xbe3107f7	-0.17288195
37	0x3e0c0242	0.13672736
38	0xbf10d1f9	-0.5657039
39	0xbe4ee6c7	-0.20205222
40	0x3f1e3fa2	0.61815846
41	0x3f31601a	0.69287264
42	0xbf162290	-0.5864649
43	0x3eae324d	0.3402275
44	0xbed24d98	-0.41074824
45	0x3e2bed81	0.1678982
46	0xbf95d8ac	-1.1706748
47	0xbec1de78	-0.37865043
48	0x3e2ea9b3	0.17056923
49	0x3eee190c	0.46503484
50	0xbd77f6df	-0.06053817
51	0x3effd6f7	0.49968693
52	0x3f92c738	1.1467047
53	0xbee62c76	-0.44955796
54	0x39b1e850	0.00033933157
55	0x3de82fa5	0.113372125
56	0xbf112525	-0.56697303
57	0xbdaeae9b	-0.08529397
58	0x3ec205c5	0.37895027
59	0x3eab8929	0.33503082
60	0x3eb62a21	0.35579017
61	0x3f6466b5	0.8921922
62	0x3ebadc7b	0.36496338
63	0xbf05f623	-0.523287
64	0x3ecb0223	0.39650068
65	0x3ef97d6e	0.48728508
66	0xbf14c695	-0.5811551
67	0x3eb6f9bf	0.35737416
68	0xbf040df5	-0.51583797
69	0xbf3ef479	-0.74591786
70	0xbe3465df	-0.17616986
71	0x3f7c02c8	0.98441744
72	0x3e49a290	0.19690919
73	0xbf7ee24a	-0.9956404
74	0xbd62bb9e	-0.055354707
75	0x3d531f30	0.051543415
76	0xbf162654	-0.58652234
77	0xbe76fdaf	-0.2412021
78	0x3f2c499c	0.6729982
79	0xbdc81868	-0.0977028
80	0x3ce82754	0.028339066
81	0xbe89fdc5	-0.26951423
82	0xbf1f9d64	-0.62349534
83	0xbf287ba7	-0.6581368
84	0x3e362f3d	0.17791457
85	0x3eadcc81	0.33945087
86	0x3f22a631	0.6353484
87	0xbec2e9bb	-0.38068947
88	0x3e8b4ea7	0.27208444
89	0x3f5cd81a	0.86267245
90	0x3f0010cb	0.50025624
91	0xbe54e54c	-0.20790595
92	0x3dd3fafc	0.10350606
93	0x3eba3731	0.36370233
94	0x3ea0e59d	0.3142518
95	0xbf41dd7d	-0.7572859
96	0xbee99d58	-0.45627856
97	0x3f3b7971	0.7323218
98	0x3e5c052b	0.21486346
99	0x3e684439	0.22682275
100	0xbed99925	-0.42499653
101	0xbe1e8216	-0.15479311
102	0xbe03f7a7	-0.1288744
103	0x3cfadc22	0.030622546
104	0xbeaf0ef6	-0.34191102
105	0x3e8a35a7	0.26994058
106	0x3f056446	0.5210613
107	0x3ea714f0	0.32633162
108	0x3eb46eb1	0.352407
109	0xbe9ab4cd	-0.30216065
110	0xbe713ffd	-0.23559566
111	0xbeb1b9ce	-0.3471207
112	0x3e1656fb	0.14681618
113	0xbf212f92	-0.6296321
114	0xbd959a95	-0.07304875
115	0x3f3f553c	0.7473943
116	0xbf04d956	-0.5189413
117	0x3d9f80b4	0.0778822
118	0xbef7475b	-0.48296627
119	0xbf0921ea	-0.53567374
120	0x3ddb7893	0.10716357
121	0xbe02d6a4	-0.12777191
122	0xbe8ace2e	-0.27110428
123	0x3cade0e2	0.021225397
124	0xbe51444c	-0.2043621
125	0xbefaf31b	-0.490136
126	0xbe2ea6d1	-0.17055823
127	0xbe9cf7c5	-0.30657783
128	0xbd90243b	-0.070381604
129	0xbeeb0cb1	-0.4590812
130	0xbe6de0fd	-0.23230357
131	0x3ea9420f	0.3305821
132	0xbdbb5fd7	-0.091491394
133	0xbdc897c8	-0.09794575
134	0xbecb8444	-0.39749348
135	0xbe2e567b	-0.17025177
136	0x3f4a42d8	0.79008245
137	0xbf24b24d	-0.64334565
138	0x3eca6bef	0.39535472
139	0x3f37d179	0.71804005
140	0xb98bbe82	-0.00026654085
141	0x3e6be0d5	0.23034985
142	0xbf64d358	-0.89384985
143	0xbecde662	-0.4021483
144	0x3f132d8c	0.57491374
145	0x3eb0f887	0.3456461
146	0xbda98fdd	-0.08279393
147	0x3dfca426	0.12335996
148	0x3e14c416	0.14527926
149	0x3f12f301	0.57402045
150	0xbf076d7d	-0.5290144
151	0x3ccac6d8	0.02475302
152	0x3bf6788e	0.0075216955
153	0x3f841ab9	1.0320655
154	0xbeb6586c	-0.35614336
155	0xbde557b2	-0.11198367
156	0x3f3b1598	0.73079824
157	0xbd039a68	-0.032129675
158	0xbe54399c	-0.20725101
159	0xbebe977c	-0.37224948
160	0x3e23f808	0.16012585
161	0xbf1a50b0	-0.6027937
162	0x3e1d86ed	0.15383501
163	0xbf1e5908	-0.618546
164	0x3e75ff5b	0.24023192
165	0xbe82e4d4	-0.25565207
166	0x3c8631c8	0.01638116
167	0xbf57291e	-0.84047115
168	0x3bed6b03	0.007245423
169	0x3ed14ba0	0.4087801
170	0xbee93448	-0.455477
171	0x3f287dfb	0.6581723
172	0xbf1e785b	-0.619024
173	0x3f51fdef	0.82028097
174	0xbd3e4592	-0.046453066
175	0xbe8a447d	-0.27005377
176	0x3ef769d0	0.48322916
177	0x3f9233f4	1.1422105
178	0x3f2c9a30	0.6742277
179	0x3e9ca03e	0.30591005
180	0xbe42cbc3	-0.19023041
181	0xbd8f5600	-0.06998825
182	0xbeede8f6	-0.46466798
183	0x3dc02361	0.09381748
184	0xbf0d5eb9	-0.5522266
185	0x3e8f16de	0.27947134
186	0x3edca920	0.43097782
187	0xbd95a628	-0.073070824
188	0xbef61fed	-0.48071232
189	0x3e9bf8be	0.30463213
190	0x3ebb21c0	0.36549187
191	0x3cebf41f	0.02880293
192	0xbede400f	-0.43408248
193	0x3f4cee3c	0.80051017
194	0x3daeea0a	0.08540733
195	0xbe781c1f	-0.24229477
196	0xbde543e7	-0.11194592
197	0xbea664fa	-0.32498914
198	0x3ec1fa72	0.37886387
199	0xba0d3167	-0.00053860847
200	0xbdeca551	-0.11554969
201	0x3e94c1df	0.29054162
202	0x3e1b3668	0.15157473
203	0xbf131ecd	-0.57468873
204	0xbf54b4ca	-0.8308836
205	0x3db9004f	0.09033262
206	0xbe01eeca	-0.12688747
207	0x3dc9a78c	0.0984641
208	0x3e22f5ae	0.15914032
209	0x3e6cb783	0.23116879
210	0x3e45ccab	0.19316356
211	0xbc39d56e	-0.0113423895
212	0xbd8b1297	-0.06790655
213	0x3d8af0fd	0.06784246
214	0x3eee4e91	0.46544316
215	0xbef6f571	-0.48234132
216	0xbea6c15d	-0.325694
217	0xbe32df3c	-0.1746797
218	0x3e3ed7c9	0.18637003
219	0x3e642ce3	0.22282748
220	0xbf4dfc5f	-0.8046321
221	0xbf029350	-0.5100603
222	0xbe01094f	-0.12601207
223	0xbf1eb779	-0.6199871
224	0x3e250ba4	0.16117722
225	0xbf267bf9	-0.6503292
226	0xbeb7d779	-0.3590658
227	0xbe7f0c5d	-0.2490706
228	0x3e3831bf	0.17987727
229	0x3eff97ad	0.49920407
230	0xbe72cf2a	-0.2371184
231	0x3e965e83	0.29368982
232	0x3f03164d	0.51205903
233	0xbfbb2a41	-1.462227
234	0xbec66fe0	-0.3875723
235	0x3e44eef1	0.19231774
236	0x3e38a482	0.18031505
237	0x3dc1a5ce	0.09455453
238	0xbd13529e	-0.03596746
239	0xbee0f43d	-0.4393634
240	0x3dcc1a93	0.09966006
241	0xbe880e8a	-0.26573592
242	0x3e58114d	0.2110035
243	0xbcadf91b	-0.021236947
244	0x3f022572	0.50838387
245	0xbd6a7ce0	-0.057247996
246	0x3f7fcdb7	0.9992327
247	0x3e15d22f	0.1463096
248	0x3f847c45	1.0350424
249	0x3e0b40e0	0.13598967
250	0x3f313f97	0.69237655
251	0x3eadfb48	0.33980775
252	0x3f8eb12b	1.1147817
253	0xbecb0fcf	-0.39660498
254	0xbe850218	-0.2597816
255	0xbe8e62a8	-0.27809644

network_body._body_endoder.seq_layers.0.bias f4 [128]
0	0x3c8e578c	0.01737573
1	0x3dad61ce	0.084659204
2	0x3d879ed8	0.06622094
3	0x3dcd301a	0.1001894
4	0x3cb5789e	0.022152241
5	0x3db7a7f9	0.08967585
6	0x3c15f7fd	0.009153363
7	0x3d978e13	0.074001454
8	0x3da3bff6	0.07995598
9	0x3d16ff01	0.036864284
10	0x3c6fb5a4	0.014630709
11	0x3df4e429	0.119575806
12	0x3d8aff30	0.067869544
13	0x3d176fbe	0.0369718
14	0x3db6b5dd	0.089214064
15	0x3d7c583e	0.06160759
16	0x3d7ee96a	0.06223432
17	0x3d1099b6	0.03530284
18	0x3d7c0883	0.061531555
19	0x3de5df08	0.112241805
20	0xbd0ecde0	-0.034864306
21	0x3da8f2c8	0.08249432
22	0x3da823c8	0.0820995
23	0x3d5b800d	0.053588916
24	0x3d4f561b	0.050619226
25	0xbd94db8a	-0.07268436
26	0x3d2437c2	0.040092237
27	0x3ddfde32	0.10931052
28	0x3dbb67d5	0.09150664
29	0x3d61aefe	0.055098526
30	0x3dc1fb43	0.094717525
31	0x3d4967dd	0.049171317
32	0xbda4476c	-0.08021435
33	0x3d45b606	0.048269294
34	0xbe2b1b15	-0.1670955
35	0x3de1152f	0.109903686
36	0x3d977257	0.073948555
37	0xbd8c56a6	-0.068524644
38	0x3e0a7855	0.13522466
39	0xbd2b1725	-0.04177012
40	0x3caee55a	0.021349598
41	0x3dc02643	0.09382298
42	0xbd8aa111	-0.06769002
43	0x3dbef5cf	0.09324228
44	0x3db4f0ed	0.088350154
45	0x3dc2829c	0.09497568
46	0x3dc3539c	0.095374316
47	0x3c01dc1b	0.007926012
48	0x3d38924a	0.045061387
49	0x3da08a53	0.07838883
50	0xbd9bcb5d	-0.07607148
51	0x3d8902b5	0.066899695
52	0x3d790e97	0.06080493
53	0x3d06dd3e	0.032925837
54	0x3da50845	0.08058218
55	0x3d847e3b	0.06469389
56	0xbdab274a	-0.08357103
57	0x3de605c5	0.11231569
58	0x3dd9ce9c	0.10635111
59	0x3d263cc2	0.040585287
60	0x3dc36732	0.09541167
61	0x3de613e7	0.11234265
62	0x3d7266bb	0.059180003
63	0x3e1b1d26	0.15147838
64	0x3d6ebd56	0.058286034
65	0x3da7ebd4	0.081992775
66	0x3d83f087	0.06442361
67	0x3d4ea8e6	0.050454043
68	0x3df9a259	0.121891685
69	0x3da5c498	0.08094138
70	0x3d90100a	0.07034309
71	0x3dd5b26e	0.104344234
72	0x3d561946	0.052270196
73	0xbd06f45f	-0.032947894
74	0xbe496148	-0.19666016
75	0x3d832da4	0.0640519
76	0x3d02f68a	0.0319734
77	0x3e346ac5	0.17618854
78	0x3daac31e	0.08337997
79	0x3d1485ac	0.036260292
80	0x3deaf0ed	0.11471734
81	0x3d7033fb	0.058643322
82	0x3d85527d	0.06509874
83	0x3d324ffb	0.043533307
84	0x3d93adbe	0.07210873
85	0xbda61d31	-0.081110366
86	0x3a4ba911	0.00077690283
87	0xbe14d909	-0.14535917
88	0x3db740df	0.0894792
89	0x3ccdabc6	0.025106322
90	0xbdcda01b	-0.10040303
91	0x3d5de808	0.05417636
92	0x3db3e97b	0.08784767
93	0x3d7b4b65	0.0613512
94	0x3de386dd	0.111097075
95	0x3ddbc81f	0.107315294
96	0x3d80bf7a	0.06286521
97	0x3deac81c	0.11463949
98	0x3d4a0c8b	0.04932837
99	0xbc9571b2	-0.01824269
100	0xbdbdeb63	-0.09273412
101	0x3debc8a5	0.11512879
102	0x3e165482	0.14680675
103	0x3da2cc4b	0.07949122
104	0x3d525827	0.0513536
105	0x3d3e5ba9	0.046474133
106	0x3d868e61	0.06570125
107	0xb9a2aca6	-0.0003102768
108	0x3d85e2af	0.06537377
109	0x3d9f27a3	0.07771232
110	0x3b6ac18e	0.0035820934
111	0x3d5ad441	0.053425077
112	0x3d7553d2	0.05989439
113	0x3d21a98e	0.03946834
114	0x3cd04dda	0.025427748
115	0x3d11accc	0.035565183
116	0x3d5341cd	0.051576424
117	0x3d828d6b	0.063746296
118	0xbd4b63f4	-0.04965587
119	0x3df60211	0.12012113
120	0x3dfeae6d	0.12435613
121	0x3d814f45	0.063139476
122	0x3d9a5318	0.0753538
123	0x3db4aa20	0.08821511
124	0x3d8206fc	0.063489884
125	0x3d27f31d	0.041003335
126	0x3d34f67f	0.04418039
127	0x3dbca7bd	0.09211681

network_body._body_endoder.seq_layers.2.weight f4 [128, 128]
0	0xbda49bc4	-0.080375224
1	0xbc49562a	-0.0122886095
2	0xbd5b906e	-0.053604536
3	0x3e2b4ac2	0.16727737
4	0x3d3060fa	0.043061234
5	0x3e5ed662	0.21761468
6	0xbe90bb43	-0.2826787
7	0x3df6394e	0.12022649
8	0xbc6e5dad	-0.014548701
9	0xbe844630	-0.258348
10	0xbe5e2d31	-0.21696927
11	0xbdcc6697	-0.09980505
12	0x3d1a4265	0.037660975
13	0x3e199bbf	0.15000819
14	0xbdf2ab1a	-0.11849041
15	0x3e0ebb50	0.13938642
16	0x3caae141	0.020859363
17	0xbe65c14e	-0.22437021
18	0x3e11819a	0.14209595
19	0xbccb4c49	-0.024816649
20	0x3d71d34e	0.059039406
21	0xbd4ddb54	-0.050257996
22	0x3cdeb047	0.027183665
23	0x3d8a5891	0.06755174
24	0xbced6ccf	-0.028982548
25	0x3dd8c9dd	0.10585377
26	0x3d5c7760	0.053824782
27	0x3dc1e429	0.09467346
28	0xbdc92275	-0.09821025
29	0xbe41a3a8	-0.18910086
30	0x3d1ce864	0.038307562
31	0xbc9fbe99	-0.019500064
32	0x3dab45d5	0.08362929
33	0x3e0887eb	0.13333099
34	0xbe1f4773	-0.155546
35	0x3e66204f	0.22473262
36	0x3dff022a	0.12451585
37	0x3d9b1be0	0.07573676
38	0x3e9bc335	0.3042237
39	0x3e5f7ad8	0.21824205
40	0x3d3e204f	0.04641753
41	0xbbb1d7a6	-0.0054273186
42	0xbe011ae4	-0.12607914
43	0xbd9a4992	-0.07533564
44	0x3d329e59	0.043608043
45	0xbcd2d51a	-0.02573638
46	0x3d857748	0.06516892
47	0x3e04160c	0.12899035
48	0xbe0bc55c	-0.13649505
49	0x3d3f02ed	0.04663365
50	0x3e283d9e	0.16429755
51	0x3e3b7fb7	0.18310438
52	0xbe6ae780	-0.22939873
53	0xbdb1320b	-0.08652123
54	0xbe56a286	-0.20960435
55	0xbd95effb	-0.07321163
56	0xbdbb8349	-0.091559
57	0xbcac5893	-0.02103833
58	0xbe8219de	-0.2541036
59	0x3d322e13	0.04350097
60	0xbe3970b8	-0.18109405
61	0xbe046a70	-0.12931228
62	0xbd99a16f	-0.07501494
63	0x3dcf7e2c	0.10131487
64	0x3de56b10	0.11202061
65	0x3d7c507e	0.0616002
66	0x3e142f52	0.14471176
67	0xbe8a21fc	-0.26979053
68	0x3deb2055	0.11480776
69	0xbbf15b30	-0.0073656067
70	0x3d59476f	0.05304664
71	0x3df2a6a3	0.1184819
72	0xbd0a5215	-0.033769686
73	0x3d592877	0.053017106
74	0x3d4db356	0.050219856
75	0x3e4e9c7d	0.20176883
76	0xbdabf100	-0.083955765
77	0xbc3e621e	-0.011620073
78	0x3d563d1d	0.052304376
79	0x3b5db897	0.0033831948
80	0x3d8ade9a	0.06780739
81	0x3cfad0f4	0.030617215
82	0xbdedb813	-0.11607375
83	0x3e187c50	0.14891171
84	0xbd485e98	-0.048918337
85	0xbdcce959	-0.10005445
86	0x3dbd519f	0.092440836
87	0xbdaa8f59	-0.08328123
88	0x3e18e803	0.14932255
89	0x3e1644a3	0.1467462
90	0x3e2c7c25	0.16844232
91	0xbe73528d	-0.2376196
92	0x3d15320e	0.03642469
93	0xbe4eb353	-0.20185594
94	0x3e77753d	0.24165817
95	0xbe0a07c0	-0.13479519
96	0x3dce8ed4	0.10085836
97	0xbd785f3a	-0.06063769
98	0x3e3138b5	0.17306788
99	0x3d7dddc2	0.061979063
100	0xbc650173	-0.013977396
101	0xbd75ff6b	-0.06005804
102	0xbde6eb35	-0.11275331
103	0xbe37eaca	-0.17960659
104	0xbe285327	-0.1643797
105	0x3db6b5fe	0.08921431
106	0xbd3dc97b	-0.046334725
107	0x3e3911d3	0.18073206
108	0x3e920257	0.2851741
109	0xbdc4105f	-0.09573435
110	0xbe8d4a80	-0.275959
111	0x3e0e13b3	0.13874702
112	0xbdd22ce2	-0.10262467
113	0xbed001bb	-0.4062632
114	0x3e151d26	0.145619
115	0x3dd5f0f5	0.104463495
116	0xbde9c474	-0.114144236
117	0xbcd79f5e	-0.02632111
118	0x3d84b3d1	0.0647961
119	0xbd930fd3	-0.071807526
120	0xbe148e51	-0.14507414
121	0xbe84bdaa	-0.25925952
122	0x3de63998	0.11241454
123	0xbd8cc495	-0.068734325
124	0xbe528b66	-0.20560989
125	0x3dfba2fc	0.12286946
126	0xbda18a77	-0.07887738
127	0xbdf787cb	-0.12086447
128	0x3e7121a7	0.23547994
129	0xbd518439	-0.051151488
130	0x3e5d1ca8	0.21592963
131	0x3e937fd0	0.2880845
132	0x3daf1c14	0.08550277
133	0x3980bc8c	0.0002455454
134	0x3cd69834	0.026195623
135	0x3db5c2ba	0.08875032
136	0xbdd535f2	-0.1041068
137	0xbd880dea	-0.06643279
138	0xbdc90610	-0.098156095
139	0x3e07bbae	0.13255188
140	0x3de6882d	0.11256442
141	0xbd8fac72	-0.07015313
142	0x3e16dd1e	0.14732787
143	0xbd9cc7d3	-0.07655301
144	0x3c60952a	0.0137074385
145	0xbd0fcc42	-0.035106905
146	0xbe34b1db	-0.17645971
147	0xbd77f109	-0.060532603
148	0xbda8315b	-0.08212539
149	0x3e60bee6	0.21947822
150	0xbe5743b1	-0.21021916
151	0x3d349afa	0.04409311
152	0x3d1fc69a	0.03900776
153	0x3d56cfc2	0.052444227
154	0xbd966610	-0.073436856
155	0xbd3c7236	-0.046007358
156	0x3db115fc	0.08646771
157	0xbd493ceb	-0.04913036
158	0x3e3ed648	0.1863643
159	0x3c9af93a	0.018917669
160	0x3cf1e15f	0.02952641
161	0x3b773a5a	0.003772399
162	0xbd9d5bf4	-0.07683554
163	0xbd93b526	-0.07212286
164	0x3e0eb810	0.13937402
165	0x3d00a5f3	0.03140826
166	0xbd5d9cc0	-0.054104567
167	0x3da63398	0.081153095
168	0xbe0e0417	-0.13868748
169	0xbd668626	-0.056280278
170	0xbcf9ca2c	-0.03049191
171	0xbce5604e	-0.028000023
172	0x3e0a1b51	0.13486983
173	0xbe1033b8	-0.14082229
174	0xbd87752f	-0.06614148
175	0xbe16aeb0	-0.14715075
176	0x3e9bca89	0.3042796
177	0x3ea57a3d	0.32319823
178	0x3bc83312	0.0061096037
179	0xbe28ba60	-0.16477346
180	0x3e655401	0.22395326
181	0x3b813bab	0.0039438806
182	0x3e9b2008	0.30297875
183	0xbd6fd5a7	-0.058553364
184	0xbe5b52b0	-0.21418262
185	0xbd67c910	-0.056588233
186	0xbcb9adbb	-0.022665849
187	0xbe15f790	-0.14645219
188	0x3e8c37aa	0.27386218
189	0x3e009348	0.12556183
190	0xbe0b8ed5	-0.13628705
191	0x3e755427	0.23957883
192	0x3e2c07cb	0.16799848
193	0x3eee7d3d	0.46579924
194	0x3e31b2c2	0.17353347
195	0x3da14323	0.078741334
196	0xbd9c2822	-0.07624842
197	0x3e7ed326	0.24885234
198	0x3cfccc56	0.030859154
199	0x3d062d3c	0.032757983
200	0x3d080538	0.033208102
201	0xbd5314ce	-0.051533513
202	0xbe2a7b60	-0.16648626
203	0xbd205449	-0.03914288
204	0xbd8cc15a	-0.068728164
205	0x3cb9bbbf	0.022672532
206	0x3daeeca7	0.085412316
207	0x3cd2cce6	0.025732469
208	0x3e1522ab	0.14564006
209	0xbea23b17	-0.31685707
210	0xbe879cf7	-0.26486942
211	0xbe805f3c	-0.25072658
212	0x3d6e8b04	0.058238044
213	0xbe02a1fe	-0.12757108
214	0xbe199fa5	-0.15002306
215	0xbcbf5638	-0.023356542
216	0x3da26a9a	0.07930489
217	0xbe0dafd4	-0.13836604
218	0x3e0f5c90	0.14000154
219	0xbde59f0e	-0.11211978
220	0x3d6f8e2c	0.058485195
221	0x3e1fee6b	0.15618293
222	0xbabbdbe4	-0.00143325
223	0x3dace2f4	0.084417254
224	0xbe6b7220	-0.22992754
225	0xbe5936f6	-0.21212372
226	0xbd6ca5d3	-0.05777533
227	0xbc500793	-0.012697118
228	0xbe300e17	-0.17192875
229	0x3d64e438	0.05588171
230	0x3df9ce6c	0.12197575
231	0xbc970aac	-0.018437706
232	0xbcf49f02	-0.029860977
233	0x3e1db8c1	0.1540251
234	0xbca491f3	-0.020089125
235	0xbe64bffb	-0.2233886
236	0xbdd8c0f5	-0.10583679
237	0xbd1105b6	-0.035405837
238	0x3cbac404	0.022798546
239	0xbdaea6da	-0.08527918
240	0xbc8b6c0b	-0.017019292
241	0x3d21940f	0.03944784
242	0xbce05db8	-0.027388439
243	0x3d3508ad	0.044197727
244	0x3e26c051	0.162843
245	0x3de44cfc	0.11147496
246	0xbe61843c	-0.220231
247	0xbcf85272	-0.03031275
248	0x3ea736fc	0.32659137
249	0xbba0a6aa	-0.0049026804
250	0x3dd36668	0.10322267
251	0xbde924b9	-0.113839574
252	0x3e89e18d	0.26929894
253	0x3c942efa	0.018088806
254	0x3e63e6a7	0.22255956
255	0x3d7418b0	0.059593856

network_body._body_endoder.seq_layers.2.bias f4 [128]
0	0xbbddf8a4	-0.006774025
1	0x3e059285	0.13044174
2	0x3d9b6cee	0.07589136
3	0x3dc7d6ca	0.09757765
4	0x3d87930a	0.06619842
5	0x3d661b72	0.056178518
6	0x3dd253d9	0.10269899
7	0x3e009ddb	0.12560217
8	0x3da3db71	0.080008395
9	0x3d9c0445	0.07618002
10	0x3dcd2708	0.1001721
11	0x3db62b9e	0.08895038
12	0x3dd0e0f1	0.10199154
13	0x3dbfd66b	0.09367069
14	0x3dd15d3f	0.102228634
15	0x3deba062	0.115052
16	0x3e01c952	0.12674454
17	0x3de831a3	0.113375925
18	0x3dc0b927	0.09410315
19	0x3dfcce9b	0.12344094
20	0x3d664969	0.056222353
21	0x3de1a61b	0.1101801
22	0x3d49cb6e	0.04926627
23	0x3e0e63a6	0.139052
24	0x3dd42117	0.10357874
25	0x3cc5f574	0.024164893
26	0x3dab189f	0.083543055
27	0x3d70e63b	0.058813315
28	0x3d930718	0.071790874
29	0x3da8b986	0.08238511
30	0x3e0287e7	0.12747155
31	0x3db03c71	0.08605278
32	0x3db9d4b3	0.09073772
33	0x3e156d47	0.14592467
34	0x3dcbe0ee	0.09955011
35	0x3dcb58da	0.099290565
36	0x3d4f454f	0.050603207
37	0x3de96f5f	0.113981955
38	0x3d90798a	0.07054432
39	0x3ddc80cb	0.10766753
40	0x3d7464d8	0.059666485
41	0x3dc1210c	0.09430131
42	0x3dd3d8a0	0.10344052
43	0x3e02dc07	0.12779246
44	0x3df83c1c	0.1212084
45	0x3c2fa82e	0.0107212495
46	0xbdb27b9a	-0.087149814
47	0x3daa7fc8	0.083251536
48	0x3dbdcf17	0.09268015
49	0x3ddcbd82	0.10778333
50	0x3ddd8246	0.10815863
51	0x3df05f28	0.117368996
52	0x3db891e1	0.09012199
53	0x3df0cbd2	0.11757626
54	0x3dd9dac4	0.10637429
55	0x3df98ca1	0.12185026
56	0x3d9c5c19	0.07634754
57	0x3dafd0b0	0.08584726
58	0x3dc2d771	0.095137484
59	0x3dcdd0cf	0.10049593
60	0x3dce03c2	0.100593105
61	0xbbb55725	-0.00553407
62	0xbd6705ad	-0.056401897
63	0x3deeceeb	0.1166056
64	0x3dcaa0c1	0.098939426
65	0x3de714fa	0.11283298
66	0x3cdf3bd7	0.027250214
67	0x3dbb7f6b	0.091551624
68	0x3e06bf38	0.13158882
69	0x3db0dfd7	0.08636444
70	0x3daef71f	0.08543228
71	0x3da7f76d	0.082014896
72	0x3dd7a27a	0.10529037
73	0x3da5579f	0.08073353
74	0x3e03205b	0.12805311
75	0x3dcf31d3	0.10116925
76	0x3e0e53eb	0.138992
77	0x3de331d8	0.11093491
78	0x3dd1aa69	0.10237581
79	0x3de06097	0.10955923
80	0x3dfe9ffc	0.12432858
81	0x3d66d67f	0.056356903
82	0x3e10d2c2	0.14142898
83	0x3d762344	0.060092226
84	0x3e17be85	0.14818771
85	0x3de8cad3	0.11366811
86	0x3dc9f84f	0.09861814
87	0x3d7438b5	0.059624393
88	0x3dabc940	0.08387995
89	0x3e0b413c	0.13599104
90	0x3d5c2785	0.053748626
91	0x3d6f31b0	0.058396995
92	0x3dd76505	0.10517315
93	0x3cbee127	0.02330072
94	0x3cd044f7	0.02542351
95	0x3be3da99	0.006953549
96	0x3d5fcde6	0.05463972
97	0x3df369f1	0.11885441
98	0x3db3ee54	0.08785692
99	0x3dd24af3	0.10268202
100	0x3de2c5ed	0.110729076
101	0x3db0ce3e	0.086330876
102	0x3d3b9894	0.045799807
103	0x3d9d262a	0.07673295
104	0x3dd29277	0.10281842
105	0x3dc8e3b1	0.09809054
106	0x3dd543dc	0.10413334
107	0x3d0b6206	0.03402903
108	0x3d49556d	0.049153734
109	0x3dcaa073	0.098938845
110	0x3da7cb37	0.08193057
111	0x3db4019d	0.0878937
112	0x3d90f212	0.07077421
113	0x3dbe3784	0.092879325
114	0x3db1a4de	0.08674024
115	0x3dc8abed	0.09798417
116	0x3de8566e	0.1134461
117	0x3d969a2b	0.07353624
118	0x3df05190	0.11734307
119	0x3dd238ba	0.10264726
120	0x3e15212e	0.14563438
121	0x3df13b07	0.11778837
122	0x3df778b0	0.12083566
123	0x3d6bab25	0.057536263
124	0x3d947a90	0.072499394
125	0x3d51418b	0.051087897
126	0x3dfdd08f	0.12393295
127	0x3ddb0e41	0.10696078

action_model._discrete_distribution.branches.0.weight f4 [5, 128]
0	0x3d741afb	0.059596043
1	0xbdc51e88	-0.09624964
2	0xbc024e29	-0.007953205
3	0xbdacd335	-0.08438722
4	0xba4ed450	-0.00078899134
5	0xbc6aa9ca	-0.014322707
6	0xbd452e46	-0.048139833
7	0xbd805f3d	-0.06268165
8	0xbccb2432	-0.024797533
9	0xbd24e037	-0.04025289
10	0xbd030582	-0.031987675
11	0xbd5a83a6	-0.053348206
12	0xbd7acbff	-0.061229702
13	0xbd46c614	-0.048528746
14	0xbd40714c	-0.04698305
15	0xbd61f7e6	-0.055168055
16	0xbd9c950e	-0.076456174
17	0xbd97d018	-0.074127376
18	0xbd93be1f	-0.07213997
19	0xbd8c3251	-0.068455346
20	0xbcb5d3f3	-0.022195792
21	0xbdd5a2e5	-0.1043146
22	0xbc79e1bb	-0.015251572
23	0xbde1cc54	-0.110253006
24	0xbd982700	-0.07429314
25	0xbc6e2906	-0.014536148
26	0xbd78e8db	-0.060768943
27	0xbcc2ccc4	-0.02377928
28	0xbd000a2a	-0.031259693
29	0xbcab5b21	-0.020917477
30	0xbd804213	-0.06262603
31	0xbd32edb8	-0.043683738
32	0xbd389ab2	-0.045069404
33	0xbdaee776	-0.085402414
34	0xbd6a9dc6	-0.05727937
35	0xbd8d30ef	-0.06894099
36	0x3c4d56da	0.012532914
37	0xbd64705d	-0.05577122
38	0xbd040c3d	-0.032238234
39	0xbd24bffa	-0.040222146
40	0xbcefdf3e	-0.029281255
41	0xbd57cf71	-0.052688066
42	0xbd4708de	-0.04859244
43	0xbdc3f1cc	-0.095676035
44	0xbda1dfbf	-0.07904004
45	0xbb6ee475	-0.003645209
46	0x3d880828	0.06642181
47	0xbd4ca4b6	-0.049961768
48	0xbd5fbee8	-0.05462542
49	0xbcecbc6c	-0.02889844
50	0xbd7773e4	-0.060413256
51	0xbd8b77ce	-0.0680996
52	0xbd464c16	-0.048412405
53	0xbd939248	-0.07205635
54	0xbd1f55ab	-0.03890006
55	0xbd81f642	-0.06345798
56	0xbc84fb01	-0.01623297
57	0xbd9a3b59	-0.07530851
58	0xbd54a582	-0.051915653
59	0xbd93cded	-0.072170116
60	0xbd7fe55b	-0.06247459
61	0x3d8360d8	0.06414956
62	0x3df73bb4	0.12071934
63	0xbd84fcb1	-0.064935096
64	0xbd02b999	-0.03191528
65	0xbd7d683e	-0.06186699
66	0x3d3234b5	0.043507297
67	0xbd782135	-0.060578544
68	0xbdd625ea	-0.1045645
69	0xbd4e47b8	-0.050361365
70	0x3ac3cd3c	0.0014938484
71	0xbd13b63b	-0.03606246
72	0xbd2697cd	-0.040672112
73	0xbc7295c0	-0.014806211
74	0xbd703b48	-0.058650285
75	0xbd32c4f8	-0.043644875
76	0xbd9ced2a	-0.07662423
77	0xbda79516	-0.08182733
78	0xbd35c39c	-0.044376
79	0xbd8b09be	-0.067889675
80	0xbd978270	-0.07397926
81	0xbcdc3a06	-0.026883136
82	0xbdb98911	-0.090593465
83	0xbcc13dfc	-0.023589127
84	0xbdead3e3	-0.114661954
85	0xbd78b53a	-0.060719706
86	0xbd43191e	-0.047631375
87	0x3b43f941	0.0029903206
88	0xbc865acd	-0.016400719
89	0xbdb6f038	-0.08932537
90	0xbb0d78b3	-0.0021586835
91	0xbc069ede	-0.008216588
92	0xbd7b7013	-0.06138618
93	0xbbf81b29	-0.007571597
94	0x3c5a1bf1	0.013312326
95	0x3d2846e4	0.04108323
96	0xb8289c09	-4.019964e-05
97	0xbd77fea7	-0.06054559
98	0xbcfa6821	-0.03056723
99	0xbd384d85	-0.044995803
100	0xbcd85098	-0.026405618
101	0xbbe769c5	-0.0070621693
102	0xbce9ca04	-0.028538711
103	0xbcde6731	-0.027148815
104	0xbda94c0a	-0.082664564
105	0xbd45bcf8	-0.048275918
106	0xbd823cb1	-0.06359232
107	0xbd003a0c	-0.031305358
108	0x3b00a947	0.0019632147
109	0xbcde4b30	-0.027135462
110	0xbcb770ee	-0.022392716
111	0xbd75d5ff	-0.060018536
112	0x3b9510cf	0.004549123
113	0xbd2a8641	-0.04163194
114	0xbcf0b0a6	-0.029381108
115	0xbd70335f	-0.05864274
116	0xbd5500a2	-0.052002557
117	0xbd53f054	-0.051742867
118	0xbd78a32f	-0.0607025
119	0xbd602a86	-0.054728054
120	0xbda015a4	-0.078166276
121	0xbdbc4132	-0.091921225
122	0xbd9096a6	-0.07059984
123	0xbb864de6	-0.0040986417
124	0xbd1e381d	-0.038627733
125	0xbd0fb4ef	-0.03508466
126	0xbdc20f18	-0.09475535
127	0xbd4f5d77	-0.050626244
128	0x3e02234d	0.12708779
129	0xbde9a964	-0.11409262
130	0xbd0ec1e7	-0.03485289
131	0xbcf51852	-0.029918823
132	0xbe2ca726	-0.16860637
133	0x3dbdd508	0.09269148
134	0xbd9e6e20	-0.077358484
135	0xbe37e03d	-0.17956634
136	0x3e0a1417	0.13484226
137	0xbe0c98cc	-0.13730162
138	0x3df229f9	0.11824412
139	0xbdfb3dbb	-0.122676335
140	0x3d6b6f07	0.05747893
141	0xbc43089a	-0.011903906
142	0x3e04ebc7	0.12980567
143	0xbdc36dc6	-0.09542422
144	0xbe1cfa34	-0.1532982
145	0xbe1239fb	-0.1427993
146	0x3e0a836d	0.13526697
147	0xbe3eacff	-0.1862068
148	0x3dc2f4a6	0.09519319
149	0x3dee22b2	0.11627711
150	0x3debe29c	0.11517832
151	0xbdfed3a7	-0.12442713
152	0xbdd74f88	-0.10513216
153	0xbd727e92	-0.059202738
154	0x3d68f976	0.05687853
155	0x3da5a20e	0.0808755
156	0x3d76706c	0.060165808
157	0x3e0b096a	0.1357781
158	0xbe2d2aab	-0.16910808
159	0x3de30b87	0.11086183
160	0x3dc80098	0.09765738
161	0x3ca56a63	0.02019233
162	0xbd69372b	-0.056937378
163	0xbe10486a	-0.14090124
164	0xbdc847ed	-0.09779344
165	0xbd5e85fe	-0.054327004
166	0x3e133944	0.14377314
167	0x3e254644	0.16140085
168	0x3da87b53	0.08226647
169	0xbe19a4ce	-0.15004274
170	0xbdf339c0	-0.11876249
171	0xbe01f701	-0.12691881
172	0xbdcde2f8	-0.100530565
173	0x3d9595e5	0.07303981
174	0x3d352db8	0.044233054
175	0xbbea9395	-0.0071587064
176	0x3dd48a72	0.10377969
177	0xbc340708	-0.0109880045
178	0xbd8cf967	-0.06883507
179	0x3e270e8b	0.16314141
180	0x3e10c968	0.1413933
181	0xbdcfe25a	-0.10150595
182	0x3d113ec3	0.035460245
183	0xbe19b02f	-0.15008615
184	0x3e0f1fbc	0.1397695
185	0x3dd90d23	0.10598209
186	0xbe308c23	-0.17240958
187	0x3dab8932	0.08375777
188	0x3cd60a60	0.026127994
189	0x3c01dfa8	0.007926859
190	0x3c219cdb	0.009864057
191	0x3e16ea5c	0.14737839
192	0xbdd3a7da	-0.103347495
193	0xbe0d0721	-0.1377225
194	0x3d945d3c	0.072443455
195	0xbd2e3c37	-0.042537894
196	0xbe198511	-0.14992167
197	0x3d8a7bae	0.06761871
198	0xbe470548	-0.19435608
199	0x3df1257c	0.11774728
200	0x3e0300fa	0.12793341
201	0xbb4b8188	-0.0031052548
202	0xbdab94da	-0.083780006
203	0xbc99885c	-0.018741779
204	0xbddc4a8c	-0.10756406
205	0xbd53099c	-0.051522836
206	0x3e06e09d	0.1317162
207	0xbc44eeb7	-0.012019805
208	0xbdbc1998	-0.09184569
209	0x3e1e9531	0.154866
210	0xbe1ddcfd	-0.15416332
211	0x3dd4e741	0.10395671
212	0xbd802f64	-0.06259039
213	0x3cfd0088	0.030884042
214	0xbe1220d0	-0.1427033
215	0x3d309102	0.04310704
216	0x3e17beb4	0.14818841
217	0xbe2e1c55	-0.17002995
218	0x3e06191a	0.13095513
219	0x3dc35df3	0.09539404
220	0x3d11a68d	0.035559226
221	0x3dd482c5	0.10376505
222	0x3dae7994	0.08519283
223	0xbe02de70	-0.12780166
224	0x3e04664d	0.1292965
225	0xbe2fecfd	-0.17180248
226	0x3d87152b	0.06595834
227	0x3d7b4aa1	0.06135047
228	0x3dedee49	0.11617715
229	0xbd5697df	-0.05239093
230	0x3db4422a	0.08801682
231	0x3e1a057f	0.15041159
232	0x3db2a94d	0.08723698
233	0x3e2e9595	0.17049249
234	0x3e070ad8	0.1318773
235	0x3da49224	0.080356866
236	0xbc730734	-0.01483326
237	0x3db1cc2d	0.086815216
238	0xbe21d040	-0.15802097
239	0xbcfd4e6b	-0.030921182
240	0xbe0dc8f3	-0.13846187
241	0xbe18f887	-0.14938556
242	0x3de206be	0.11036442
243	0xbdf9b484	-0.12192634
244	0x3db2e36f	0.08734786
245	0xbde2bf01	-0.11071587
246	0x3e022949	0.12711062
247	0x3dfe92a0	0.1243031
248	0xbe01b3df	-0.12666272
249	0xbde171a6	-0.11008005
250	0x3e1c6a45	0.15274914
251	0x3dd52f2a	0.104093865
252	0x3e0f60f5	0.1400183
253	0x3e0ad0a7	0.13556157
254	0x3dffd858	0.12492436
255	0x3e0f3cd8	0.13988054

action_model._discrete_distribution.branches.0.bias f4 [5]
0	0xbdbf441d	-0.093391635
1	0x3ccb6bad	0.024831617
2	0x3ce0fa90	0.027463228
3	0x3d0af659	0.03392634
4	0x3c11edc9	0.00890679
