Scenes/ImprovedGridWorld2D/results/test_run/DroneGrid2D/checkpoint.pt (torch, 446197 bytes, 33 tensors)

network_body._body_endoder.seq_layers.0.weight f4 [128, 6]
000000 55 af 1e 3e da ca 47 be de dd 17 3e d2 c2 00 be
       0.15496571 -0.19510975 0.1483073 -0.12574318
000010 25 dd fb 3c 86 d6 de be 70 f3 aa 3d 78 87 95 be
       0.030745098 -0.43523043 0.08347213 -0.29204917
000020 92 cd 33 3f 06 1a 09 be e9 50 88 be a8 50 f3 3d
       0.7023555 -0.13388833 -0.2662423 0.11880618
000030 b2 cb 7c 3e de 06 d0 3e a8 80 1c bf e3 0b 15 bc
       0.24687079 0.4063024 -0.61133814 -0.009097072
000040 56 6a 17 3c 4e d9 c0 be 1e c6 4d bf f4 0b 7d be
       0.009241661 -0.3766579 -0.8038043 -0.24711591
000050 b6 94 36 3f c8 20 f0 bd f6 96 d9 3e e0 f7 19 3f
       0.71320665 -0.117250025 0.42497987 0.6014385
000060 08 54 66 3f 80 86 4a bf 13 1b 15 bf 7f eb 80 3e
       0.8997197 -0.7911148 -0.58244437 0.2517967
000070 71 44 0f be 94 25 9e be 6c 48 48 3e 83 3b 59 be
       -0.13990952 -0.30888045 0.19558877 -0.21214108
000080 5b 00 14 bf 32 83 88 3e eb b1 84 be c7 c7 c1 3e
       -0.5781304 0.26662594 -0.2591699 0.3784773
000090 12 d7 63 3e 0c 91 87 3d 68 99 8e bd d6 24 7d be
       0.22250012 0.06619462 -0.06962854 -0.24721083
0000a0 40 01 90 3f 7c b1 b9 3e a8 1a 1a be 03 99 05 be
       1.1250381 0.36268222 -0.15049231 -0.1304665
0000b0 2e 37 9b 3e 60 4b 98 be 22 c6 e1 3e cf c3 71 3e
       0.30315536 -0.29745007 0.44096476 0.23609851
0000c0 e6 6b 08 3f 4e 7b d4 3e 14 af e0 3e 43 65 56 3e
       0.5328964 0.41500324 0.43883574 0.20937066
0000d0 18 63 ab 3c 91 80 75 be 53 fd 66 3e 14 1f 1f bf
       0.020921275 -0.23974825 0.22557573 -0.62156796
0000e0 be 5b d9 3e 19 aa 2a bf ee a2 98 3d ea fe 01 bf
       0.42452806 -0.666658 0.07452951 -0.50779593
0000f0 cd 35 8e ba 85 5c 21 3e 92 1c d2 3e d0 30 a6 be
       -0.0010849774 0.1575795 0.41037422 -0.32459116
000100 78 88 6c be e0 33 f3 3d c6 94 95 be 27 3d a8 bd
       -0.23098934 0.11875129 -0.29215068 -0.08214789
000110 9f 78 c8 3e 15 dc 23 be 05 90 e8 bc 79 b2 40 bf
       0.39154527 -0.16001923 -0.028388986 -0.7527233
000120 6a 28 01 bc 02 8f 67 be d0 d1 f3 3e 54 f9 b1 3e
       -0.007883171 -0.22613147 0.47621012 0.34760535
000130 53 4f 16 bf 34 45 18 be 87 2e a0 3e 46 e7 84 3e
       -0.5871479 -0.14870149 0.31285498 0.25957698
000140 a4 5e 85 bf 30 97 46 be 45 37 12 bf 53 e0 dd 3d
       -1.0419507 -0.19393611 -0.57115585 0.10833802
000150 88 1d 29 3f b5 32 c0 be 98 02 42 3d 1e 16 f9 3c
       0.66060686 -0.37538686 0.047365755 0.030406054
000160 d5 c5 85 be de bf c0 3d 9e 9b 05 3e 15 ff 83 be
       -0.26127496 0.09411596 0.13047644 -0.2578055
000170 d9 72 87 be db a0 41 3e 6c ef b7 be 0f bf 0f be
       -0.2645481 0.18909018 -0.35924852 -0.14037727
000180 3c 16 a1 be b6 4c 06 bf b7 6c 47 3f f0 bc b5 be
       -0.31462276 -0.524608 0.7790026 -0.3549571
000190 e2 31 81 bd e2 43 13 be d9 0c 09 bf ac a6 0a be
       -0.063083425 -0.14381364 -0.5353523 -0.13540143
0001a0 70 ea 45 3e e8 f7 3d bd 42 62 90 3e 5c 4f 3a 3d
       0.19327712 -0.046379 0.28199965 0.04548584
0001b0 3b 99 83 3e 65 95 3c bf 5d 16 13 3f 73 fa 86 bf
       0.25702843 -0.7366546 0.57456 -1.0545181
0001c0 56 8b 9d be b5 5f e8 3d eb f1 05 bd f2 81 13 3e
       -0.30770367 0.1134638 -0.032701414 0.14405039
0001d0 9d 82 9a be 48 6b e2 3d ee 2b 44 3e be 88 2a 3f
       -0.30177775 0.110556185 0.19157383 0.666149
0001e0 2b 59 b8 3e 94 6e 38 be be 3f ad 3e 9b 37 d4 bc
       0.3600553 -0.18010932 0.33837694 -0.025905421
0001f0 ea 83 d7 3d f5 e0 4f bf 42 f5 11 bf 46 bb 26 3f
       0.105232075 -0.8120263 -0.5701486 0.65129507
000200 3a 17 c7 3e 69 36 86 3d a4 f2 d3 bd 12 bd 15 3e
       0.38884908 0.06553347 -0.103490144 0.14622906
000210 f1 45 89 be 66 f7 ac be d5 81 92 be 7c 24 a3 3e
       -0.26811174 -0.337825 -0.2861468 0.31863773
000220 6e 42 a8 be 29 dd 9b 3e 1c 8c ec be 68 68 88 bf
       -0.32863182 0.3044217 -0.46200645 -1.0656862
000230 ff 25 c5 be e3 83 83 3e 65 26 5c 3f 4e c2 9d be
       -0.3850555 0.2568656 0.85996085 -0.30812305
000240 96 5a 84 3e e2 6e 15 3e 25 f9 21 bd 51 1c 45 3e
       0.25850362 0.1459308 -0.039544243 0.19249083
000250 ab cb 19 be 16 0e bc bc 9d 93 04 bf db c5 8e 3e
       -0.150191 -0.022955935 -0.5178774 0.27885327
000260 58 c4 67 3e 24 e2 f7 3e 72 6a 0e bf db c8 27 bf
       0.22633493 0.4841472 -0.5563117 -0.65540856
000270 2c 8a 2a be 31 6d ba be 74 8c 54 3f 62 ed aa be
       -0.16654271 -0.3641143 0.83026814 -0.33384234
000280 90 93 72 3d 0d ee d7 3e 4b 45 17 3d 8a 6a b2 be
       0.059222758 0.42173806 0.036931317 -0.34846908
000290 4d 67 d3 3e 66 3b 26 be 2f e1 e3 be 9e 99 58 3f
       0.4128975 -0.16233596 -0.4450774 0.846094
0002a0 f9 d9 b7 be 69 1a 06 3f 09 c9 04 bf b8 f2 cf 3e
       -0.35908487 0.5238405 -0.51869255 0.40614867
0002b0 a6 06 00 bf 68 3e 36 3f 76 af 15 be 56 f3 1a 3e
       -0.50010145 0.71188974 -0.14617714 0.15131888
0002c0 69 98 6b 3c 99 c8 df 3d 20 bd 8c bf 80 b8 04 3f
       0.014379599 0.10926933 -1.0995216 0.51844025
0002d0 fc b7 7b bd f3 61 fc 3e c1 1d 8f 3d 3e 8a 30 3f
       -0.061454758 0.4929348 0.06988097 0.6896094
0002e0 c1 43 8f 3f b9 ea 8d bd c6 77 0e 3f 61 71 94 3e
       1.1192552 -0.069295354 0.5565151 0.2899275
0002f0 e6 7b 03 3f 2c 7b 0d 3f 15 c2 7d 3e 7e 8f a2 3e
       0.5136093 0.5526607 0.24781068 0.317501
000300 4f fa 21 3f d5 60 c1 3b 6f 78 22 bf be 75 b6 ba
       0.63272566 0.005901436 -0.6346502 -0.0013920588
000310 94 3b 8b 3d 46 7c dd bd 7d 16 95 3d a2 a3 32 bf
       0.06798473 -0.10814719 0.0727968 -0.69780934
000320 00 6f 54 3f f0 5a d6 be b0 80 26 3f bf 23 bd be
       0.8298187 -0.41866255 0.6504011 -0.36941335
000330 08 b0 87 be fa 4b 27 3f 21 19 b9 be 13 34 74 be
       -0.2650149 0.65350306 -0.36151984 -0.2384799
000340 57 f7 cc 3e a2 7f e1 be 06 18 d8 3e e6 a3 80 be
       0.40032455 -0.4404269 0.42205828 -0.25125045
000350 f8 56 75 be bc 40 d8 3e b8 e3 50 be 28 0e 9b be
       -0.23958957 0.42236888 -0.20399368 -0.30284238
000360 01 2b c5 bd fc 40 21 3f 65 1c 4c bf 05 28 16 3f
       -0.09627343 0.62989783 -0.79730827 0.58654815
000370 2f 45 11 be a2 3a 80 be 65 1b 77 bd 33 d9 a7 3d
       -0.14186548 -0.25044733 -0.06032886 0.08195724
000380 5b 53 02 3e c4 13 ae 3e a1 06 e8 bd a7 de 45 3f
       0.1272711 0.33999455 -0.11329389 0.77292866
000390 3e 49 29 3f 2b f7 ec 3d 25 bb 18 be 9d dc fc bd
       0.66127384 0.11570581 -0.1491514 -0.12346766
0003a0 d5 21 f8 be 32 6c e4 be c8 41 8e be 93 76 cf 3e
       -0.48463312 -0.44613796 -0.27784562 0.40520152
0003b0 8d 4a bb 3e 83 a4 56 be dc d1 c4 be 66 e4 1f 3f
       0.36580315 -0.20961194 -0.3844136 0.62457883
0003c0 e2 10 54 3e 44 d3 34 be b5 58 d5 bd 6e f3 7e be
       0.20709565 -0.17658716 -0.1041731 -0.24897549
0003d0 aa e0 c2 be 0d 1a 91 be db 80 a1 bd 4c 46 38 3e
       -0.3806203 -0.28340188 -0.07885905 0.17995566
0003e0 a9 44 86 3e 58 55 63 3e 40 8b 4c be 75 70 70 3e
       0.2622426 0.22200525 -0.19974995 0.23480399
0003f0 4e b8 d5 3e ae 4e 87 be ba cc 34 be 92 2c 02 bd
       0.41742176 -0.26427215 -0.17656222 -0.031780787

network_body._body_endoder.seq_layers.0.bias f4 [128]
000000 15 dc 10 3d 79 45 8f 3b 14 8c 77 3d ea 09 db 3b
       0.035366137 0.0043722955 0.060436323 0.0066845315
000010 e7 29 db 3c f2 c8 ba bc 41 66 1f 3d 68 65 97 3c
       0.026753379 -0.022800896 0.038915876 0.018480971
000020 a0 79 0b 3d c0 2e 91 3c 8b 88 a8 3c 6e b6 09 3d
       0.034051538 0.017722487 0.020572921 0.033621244
000030 91 31 13 3d 0a 06 f5 3c a3 56 d8 3b 94 85 b0 3c
       0.035935942 0.029910106 0.006602125 0.02154807
000040 01 9c ae 3b 7d b9 ba bc 98 d4 11 3d ca 70 ed 3c
       0.0053286557 -0.022793526 0.035603136 0.028984446
000050 d4 02 30 3d 41 a4 50 3d 44 e6 9a 3c ae 65 c0 3c
       0.042971447 0.050937895 0.018908627 0.023485985
000060 dd f1 f2 3c af 4c 02 3d e3 78 11 bb b3 f5 66 3c
       0.029656345 0.031811412 -0.0022197298 0.014096665
000070 cf ca bf 3c 51 18 34 3d d9 1e 80 3d d5 8f 2c 3d
       0.023412136 0.043968502 0.06255884 0.042129356
000080 09 11 10 3d f3 69 19 3d e2 4c ff 3c 86 41 1b 3d
       0.035172496 0.037454557 0.03116459 0.037904285
000090 2f e3 6a 3d 50 c9 24 3c f2 98 3e 3d a8 0b 0a 3d
       0.057345565 0.010057762 0.04653258 0.033702523
0000a0 8b 00 1a 3b 2a 3d 37 3c a5 6a 6c 3c f8 ef 12 bd
       0.0023498859 0.011184016 0.014429723 -0.035873383
0000b0 c5 6e 1b 3d fa b0 ce 3c 96 40 03 3d 65 17 e8 bc
       0.037947435 0.025230873 0.032044016 -0.028331468
0000c0 c7 66 e1 bb 70 09 15 3d aa 7d e9 bc 91 e9 96 3c
       -0.006878707 0.036385953 -0.028502304 0.01842192
0000d0 4f 09 af 3c b3 1c ff 3c 80 66 0f 3d dc 7f c4 bb
       0.021366743 0.031141615 0.03500986 -0.0059966873
0000e0 97 f3 46 3c bd 52 13 3d cc 6a 04 3b 42 4a ec ba
       0.012143037 0.035967577 0.0020205257 -0.0018027502
0000f0 de 8f 70 3d eb 34 37 3d a5 68 04 3d b7 8c d9 3c
       0.058730952 0.0447282 0.03232636 0.026556356
000100 a4 77 7d 3c fd 53 55 3d ec 88 1e 3d 33 a9 d7 3c
       0.015470419 0.05208205 0.038704798 0.026325798
000110 05 ee e7 3c cc 29 0d 3d a8 68 c5 3c 0d 68 5b 3d
       0.028311739 0.03446369 0.024097756 0.053566027
000120 d9 e1 c5 3c 30 31 29 3d e3 90 0c bc 9d f4 06 bc
       0.024155544 0.041306674 -0.008579466 -0.008237031
000130 dd 0c 92 3c cc da a5 3c c7 17 d8 3b 8a 88 f4 3c
       0.0178284 0.020245932 0.0065946314 0.029850263
000140 41 c2 32 bc 67 e3 0b 3d ee 35 67 3c 05 56 23 3d
       -0.010910572 0.034152415 0.014111979 0.039876956
000150 06 6d 01 3d 68 d9 4d bb 32 03 2e 3d 6a f2 fc 3c
       0.031598113 -0.0031410102 0.042483516 0.03087731
000160 35 fe 3c 3d e8 38 07 3d 5f 09 18 3d fb b3 45 3d
       0.04614087 0.033013254 0.037118312 0.048267346
000170 50 e7 5a 3c 21 4d ab 3c c0 ca 01 3d 81 fa db 3c
       0.013360813 0.020910801 0.031687498 0.026852848
000180 f9 e7 de 3c 20 e2 0e bd 72 bb 57 bb d1 ec e5 3b
       0.027210223 -0.03488362 -0.0032918123 0.007016756
000190 8d 97 07 3d 12 93 98 3c a6 58 64 3c 7b 80 b3 3c
       0.033103514 0.018624816 0.013937151 0.02191185
0001a0 2c c5 d1 bb c4 19 2a b9 87 51 51 3c 78 9d 4e bd
       -0.0064016785 -0.00016222062 0.012775785 -0.050443143
0001b0 3b c9 b3 3c 06 6d ff 3c 20 c2 33 3d cb 5d a4 3c
       0.02194654 0.031179916 0.043886304 0.020064255
0001c0 21 32 20 3b cd 3d 26 3c 26 0f 80 3c 2d 36 d5 3c
       0.0024443942 0.01014657 0.015632223 0.02602681
0001d0 3f 70 4d 3d 8f 78 ab 3c 87 e3 fb 3c 6f 36 15 3d
       0.050155874 0.02093151 0.030748142 0.036428865
0001e0 96 16 0e 3d 4b f8 19 3d c9 8d 9c bc 3a b2 8a 3d
       0.03468951 0.037590306 -0.019110577 0.06772275
0001f0 2e 99 90 3c e9 97 ce 3c 8c d3 27 3d ae 6f 6f bc
       0.017651167 0.02521892 0.04097323 -0.014614029

network_body._body_endoder.seq_layers.2.weight f4 [128, 128]
000000 cf 03 d3 3d 7d 2f 2e 3d 4c 4c a6 3c a7 eb 05 be
       0.10303461 0.042525757 0.020300053 -0.13078175
000010 e3 73 92 3c 2c b7 8c bd 26 1b b5 bc 79 65 0d be
       0.017877525 -0.06870875 -0.022107672 -0.1380824
000020 5b 47 0e bd 37 18 47 3d 3d fb c6 3d 86 f4 7a bd
       -0.03473602 0.048607077 0.09715889 -0.061268352
000030 64 fb 39 3d e3 29 5e bd 3c d6 88 bd 32 19 b7 3d
       0.04540576 -0.054239165 -0.06681487 0.089403525
000040 65 5c d2 bc dc 5a 64 3d a6 4d 19 3b a2 65 cf bd
       -0.025678823 0.055750713 0.002339223 -0.10126807
000050 4e 1a 82 3e 26 b0 82 3d 56 7f 51 3d bd dd 8f 3d
       0.25410694 0.06381254 0.051146828 0.07024715
000060 e5 b5 25 3e 16 1b c6 3d 13 bb db bd 76 33 28 be
       0.16182669 0.09673135 -0.10729041 -0.16425881
000070 c8 1f 3d bd 42 b4 e3 bd 8e b6 ac bb c2 16 90 bd
       -0.046172887 -0.11118366 -0.0052707857 -0.07035591
000080 9a 1e 28 bc 3f 82 64 ba 1d 0a 24 3e 68 d9 85 3d
       -0.010261202 -0.0008716918 0.16019483 0.065356076
000090 92 11 46 be f1 4c c1 bd 3c 06 97 3d dd cf b0 3c
       -0.1934264 -0.094385035 0.07374236 0.021583492
0000a0 d3 3f 61 bd 16 d6 83 bd 30 c8 83 bd d7 7c 17 3d
       -0.05499251 -0.06437318 -0.06434667 0.03698429
0000b0 90 48 26 be e9 b2 6d bc 27 cc 0b bd a0 15 83 be
       -0.16238618 -0.014507988 -0.03413024 -0.25602436
0000c0 46 76 ba 3c 78 8e 1c 3d bf 9e 54 3e 38 ae 1a 3e
       0.022761475 0.038221806 0.20763682 0.15105522
0000d0 e1 a3 d1 bd db 07 14 3e 77 40 a8 3d 93 18 17 3c
       -0.102363355 0.14456122 0.08215421 0.009222168
0000e0 c8 f1 67 bd fe 76 4a 3c 69 87 b7 bd 7e 91 a5 bd
       -0.056627065 0.0123574715 -0.08961374 -0.08084391
0000f0 40 b9 c0 3b 5a 76 0f 3d dc 9f 3e 3e 5d af 4d 3d
       0.0058814585 0.03502498 0.18615669 0.050216068
000100 7a e5 04 be 08 a2 f4 bd eb e4 86 3d 5a 70 04 be
       -0.12978163 -0.119449675 0.065866314 -0.12933484
000110 af 5f b5 3c 7b c6 c2 3d f7 a9 ee bd 44 14 40 bc
       0.022140352 0.095105134 -0.11653512 -0.011723582
000120 8a 08 b6 bd b6 e5 18 3c c4 73 26 3e b9 20 ca bd
       -0.088883474 0.009332111 0.16255099 -0.098695226
000130 96 b4 24 bd e7 e8 37 bd 1d a9 13 3e 5a 2b d5 3d
       -0.040211283 -0.044899847 0.1441998 0.10408659
000140 38 d5 bf bd c9 8f d5 bd 88 9c 14 be d0 9f a1 bc
       -0.0936684 -0.104278155 -0.14512837 -0.019729525
000150 bc 35 84 bc 38 11 ea bc 4b 32 a4 bd 86 a4 ed bc
       -0.016138904 -0.028572664 -0.08017405 -0.029009115
000160 f1 44 32 be 72 33 04 be 14 ef 9f 3c 1a 22 2f 3e
       -0.17409112 -0.1291025 0.019523181 0.17102852
000170 06 84 18 be 21 c2 a3 bc 54 be c3 bc 60 50 0b bd
       -0.14894113 -0.019990029 -0.023894466 -0.0340122
000180 e9 87 ba 3d 48 96 20 bc 52 1b 7d 3e 99 89 09 bc
       0.09107954 -0.009801455 0.24717453 -0.008394622
000190 26 36 49 bc 18 82 2e be b9 1c 66 3e 9c 55 a3 3d
       -0.012280976 -0.17041814 0.22471894 0.07975313
0001a0 47 94 7e bc 3c 77 bc 3d 18 b7 69 3d ea 5e c8 3d
       -0.015538282 0.0920243 0.057059377 0.097837284
0001b0 11 9b 00 3e f8 a0 82 be 58 c6 ce 3d bb 78 9c 3c
       0.12559153 -0.25513434 0.10096425 0.019100538
0001c0 fc 44 a1 3d ef eb d4 3d 74 a1 00 3d ad 83 bf bd
       0.07874486 0.10396563 0.031403974 -0.09351287
0001d0 41 8b 7b bd fa a3 31 bd 40 2a 71 bc 10 8a 50 3c
       -0.0614121 -0.04336927 -0.014719546 0.012728229
0001e0 bc b2 a2 bd be 83 5a bd 95 ce 17 3d dd 4a fe bd
       -0.07944247 -0.053348295 0.037062246 -0.12416623
0001f0 da 45 1c bd e2 e9 d7 bd 5e 40 67 be fa 8e cc bc
       -0.038152553 -0.105426565 -0.22583148 -0.02497052
000200 3a ba fe 3d eb 22 ff bd 6d 0b 8b bc cb fe 1a be
       0.12437864 -0.12457832 -0.016973222 -0.15136258
000210 73 a6 17 3e ea 28 8e 3c e9 77 84 3d 7f d3 f7 3d
       0.14809589 0.017353494 0.064681835 0.121008866
000220 3f 7d 98 3d b5 c1 a6 bd b2 66 81 3c f7 42 bf 3d
       0.07445764 -0.081424154 0.01579604 0.093389444
000230 3a 7f 78 3d 79 ec b4 bb a6 27 94 bd 38 24 04 3e
       0.060668208 -0.005521354 -0.07234125 0.12904441
000240 cc cd 0f 3d 5b 1d b6 bd 18 f4 02 3d ca ca 4a be
       0.035108373 -0.08892318 0.031971067 -0.1980392
000250 59 6b 6b 3e 9e 59 27 be 82 d6 40 bd 73 ec 12 3b
       0.22990169 -0.1634278 -0.04707957 0.0022418767
000260 bc 39 d3 3c fd 0b 3b 3c f9 03 45 bd bd 51 1d bd
       0.025784366 0.011416432 -0.04809949 -0.03840803
000270 86 c2 ae bd 01 3b 10 be 36 dd 59 3e 7d e3 09 3d
       -0.08533196 -0.14085008 0.21275792 0.033664215
000280 18 ac fb bc 8a e9 8f 3a 48 32 3d bd 47 c5 fa 3d
       -0.03072171 0.0010979634 -0.04619053 0.12244659
000290 1c 41 64 bd 73 58 b7 bd 7e 13 58 bb 2e 8a b3 bd
       -0.055726156 -0.08952417 -0.0032970603 -0.0876659
0002a0 b9 b0 c8 3c 7b e9 eb bd ab b5 1c 3d 67 e9 fb 3c
       0.02449833 -0.11519142 0.03825919 0.030750943
0002b0 77 f8 05 3e 5f 65 4e be 22 65 8a 3a ef 6a 53 3b
       0.13083063 -0.20155858 0.0010558704 0.0032259782
0002c0 55 79 85 be 74 11 23 bd 6c e5 20 be b6 6e 1e bd
       -0.26069131 -0.039811566 -0.15712517 -0.0386798
0002d0 f8 56 df 3d b8 6e 09 bd c3 14 b0 3c 93 04 97 3d
       0.1090526 -0.033552855 0.021494275 0.07373919
0002e0 dd 6d f9 3c 2d 0b ac 3d 34 fa a5 bd 99 a0 c2 3d
       0.030447895 0.08400569 -0.08104363 0.09503288
0002f0 66 57 29 bd 12 cf a7 bd c5 e4 bf bc 30 50 0d be
       -0.041343115 -0.081937924 -0.023424516 -0.1380012
000300 b4 48 8f bc 30 8e 59 3d 0f 9c 97 bc e5 24 0a be
       -0.017490722 0.053114116 -0.018507032 -0.13490637
000310 db 60 75 3e b5 e1 03 bd 18 68 43 bb 22 e0 4c 3d
       0.23962729 -0.032197673 -0.0029816683 0.050018437
000320 66 f2 c4 bd 62 08 a6 3d 8e 2b 94 bd 73 e1 79 bd
       -0.09616546 0.08107068 -0.0723487 -0.06100602
000330 3d 82 aa 3b f1 fa c8 3d ae 30 4f be 3e 8c 0c 3e
       0.005203514 0.09813488 -0.20233414 0.13725373
000340 68 33 75 3d 46 5d 11 be 6b 88 b8 3d f9 28 b5 3c
       0.059863478 -0.14195737 0.09010395 0.022114264
000350 80 bc 76 3d a9 99 2b be 32 74 b5 3d 3b c6 e9 bd
       0.06023836 -0.16757835 0.08860053 -0.114147626
000360 ec c4 5d 3e 5e a8 5a bc 15 09 bd 3b fd 73 46 3d
       0.21657151 -0.013345806 0.005768905 0.04845046
000370 d5 c8 99 bd e8 ae 2f bd 6e a2 2d 3e 12 ed 55 3d
       -0.07509009 -0.042891413 0.16956493 0.05222804
000380 42 f4 a7 3a 45 8c 1c 3e 7a c0 73 3d 15 d9 94 bd
       0.0012813883 0.15287884 0.05950973 -0.072679676
000390 97 b5 e8 bd 65 0a 93 be 50 0d e9 3c 2f c8 65 bd
       -0.113627605 -0.28718868 0.02844873 -0.056099113
0003a0 e4 1a 9f bd ca 22 ca 3b f2 83 2d 3e 84 ec b6 bd
       -0.07768801 0.006168698 0.16944864 -0.089318305
0003b0 bc 75 80 bd 98 b6 fb bd 2c f5 08 be 32 94 10 bb
       -0.06272456 -0.12290686 -0.13374776 -0.0022060988
0003c0 fb 37 96 3e d8 54 fd 3d 28 94 9c 3d dd f7 dd bc
       0.29339585 0.12369698 0.07645446 -0.02709573
0003d0 d0 7a a3 bd 96 bb a0 3d 3e fb 47 be 05 b9 e3 bc
       -0.07982409 0.07848279 -0.19529435 -0.027798185
0003e0 74 a7 08 bc ab 15 0e be b5 88 14 bd 9f 24 e7 3d
       -0.008340705 -0.13875453 -0.036263186 0.11286282
0003f0 63 f3 f9 bb 17 b0 05 bd 6e e3 19 3c 02 3e 22 bd
       -0.007627891 -0.032638635 0.009392602 -0.039609917

network_body._body_endoder.seq_layers.2.bias f4 [128]
000000 fb 8b 17 3c d0 98 f4 3c ea 58 fa 3c 1d 46 0c bc
       0.009249683 0.029858023 0.030559976 -0.008561638
000010 00 c3 03 3d 84 4f 0b 3d 96 82 43 3d 5b fd 00 3d
       0.03216839 0.03401138 0.04773196 0.03149162
000020 bc 90 f6 3b c9 ea 82 3c c9 c5 fc bc e6 59 ad 3c
       0.007524578 0.015981095 -0.03085603 0.021161031
000030 9d 14 21 3d e2 9f 44 3d 4e 57 f1 3c a9 84 c3 3c
       0.0393263 0.04800404 0.029460575 0.023866968
000040 b6 49 ae 3c c2 5c 00 3d f2 fd 05 3d 98 bc 45 3c
       0.021275382 0.03133846 0.032712884 0.01206889
000050 02 00 31 3d fc 0a a1 3c 6f c2 a0 3c ca 25 8a 3c
       0.043212898 0.019658558 0.019623963 0.016863722
000060 19 0f df 3c 64 a4 0c 3d 5f 84 2c 3d b8 09 b7 3c
       0.027228879 0.034336463 0.042118426 0.022343501
000070 44 13 b9 3c 5e fe 22 3d 79 e8 19 3d cc b4 dd 3c
       0.022592194 0.039793365 0.03757522 0.02706375
000080 80 60 bf 3c be bc 29 3c bc 71 5b 3d 91 37 ea 3c
       0.023361444 0.010359941 0.053575262 0.02859095
000090 b6 7e 05 3d 4c 3f 4d 3c 27 99 00 3d 83 b4 fb 3c
       0.032591544 0.012527298 0.031396057 0.030725723
0000a0 10 11 aa 3c 27 d1 12 3d 41 93 15 3d 93 94 96 3c
       0.02076009 0.035843994 0.036517385 0.018381393
0000b0 18 2f 02 3d f9 cc c5 3b 91 3a b8 3c 2f e1 a6 3c
       0.031783193 0.0060363975 0.022488864 0.020371048
0000c0 75 58 a7 3c e4 eb 93 3b 63 90 e2 3c 39 e5 17 3d
       0.020427922 0.0045142043 0.02765674 0.037083838
0000d0 ff 2a 84 3d d6 1c 11 3d a3 ca d6 3c f1 60 9c 3c
       0.06453513 0.03542789 0.026219672 0.019089194
0000e0 49 41 2a 3d c6 0c 43 3c b1 22 1e 3d 66 6c a2 3c
       0.041566167 0.011904901 0.038607303 0.019827079
0000f0 94 87 a2 3c a8 5b ea 3c ec f7 37 3d 69 02 f3 3c
       0.01984004 0.028608158 0.04491417 0.029664235
000100 d1 25 d9 3c 43 72 e6 3c c3 b3 2c 3d 68 7c 77 3c
       0.02650729 0.028130656 0.04216362 0.015105344
000110 51 c9 2b 3d 98 4c fc 3c 1e 0c 26 3d 88 06 28 3d
       0.041940037 0.030798241 0.0405389 0.041021854
000120 0c 99 c3 3c 67 5c 06 3d 93 ea f6 3b 7f c9 8d 3c
       0.02387669 0.032802965 0.0075352876 0.017307995
000130 91 0a b3 3b 48 21 d9 3c 12 d5 bf 3c 4b f5 2e 3d
       0.005463906 0.026505128 0.02341703 0.0427144
000140 38 b3 1e 3d 95 b8 cc 3b bc 9c ee 3c 7f cc a5 3c
       0.038745135 0.00624759 0.029127471 0.020239113
000150 40 ee fe 3c 76 bf 28 3d f1 54 23 3d 70 29 31 3d
       0.031119466 0.041198216 0.03987593 0.04325241
000160 c4 12 3a 3d c0 8c 56 3c 99 76 10 3d 27 f8 08 3d
       0.045428053 0.013095081 0.035269354 0.03343978
000170 d6 a2 a3 bb 33 28 81 3d b9 4a aa 3c 17 62 08 3d
       -0.004993777 0.063064955 0.020787584 0.03329667
000180 d8 84 0b bd 84 5b 74 3c 01 a6 82 3c fb f5 b9 3c
       -0.034062237 0.014914397 0.015948297 0.0227003
000190 34 76 93 3c d8 c0 db 3c e7 a7 ac 3c 69 34 0a bc
       0.0180007 0.026825354 0.021076156 -0.008435347
0001a0 7d 11 b2 3c df bd 3a 3c 29 4d 8f 3c 7f 23 55 bc
       0.021736855 0.011397808 0.017492848 -0.013008951
0001b0 5c 09 06 3c 00 d5 74 3c 81 72 10 3d 64 21 01 3d
       0.008180942 0.014943361 0.03526545 0.031525984
0001c0 91 90 0f 3c 0a 03 e4 3a 75 9a a1 3b 32 b2 7a 3d
       0.008762495 0.0017395925 0.004931743 0.061205097
0001d0 d0 9e a4 3c 7d 27 93 3d 08 57 70 3c 33 66 d2 bc
       0.020095259 0.07185266 0.014669187 -0.025683498
0001e0 e8 92 b8 3c d6 11 e6 3c 75 5d ca 3b 9e ce a7 3c
       0.022530988 0.028084677 0.0061756917 0.020484265
0001f0 a7 f6 ed 3c fc 0b 0d 3d 39 bf 49 3d ba 8e 13 3d
       0.029048277 0.034435257 0.04925463 0.036024787

action_model._discrete_distribution.branches.0.weight f4 [5, 128]
000000 0b cb c3 3c 67 ad 52 bd 8d db 37 bd 95 4e c6 3c
       0.02390053 -0.0514349 -0.044887114 0.024207393
000010 72 de a8 bc c7 93 02 bd 4f 8d 9b bd dc 3f 4b bd
       -0.020613883 -0.031879213 -0.07595312 -0.049621448
000020 53 41 a9 bc 3d 95 cc bc 1f e7 90 3c 14 43 87 bc
       -0.020661032 -0.024973506 0.017688332 -0.016511478
000030 9a d6 3d bd bb de 3c bd 38 35 73 bd 88 9e 05 bd
       -0.046347238 -0.04611085 -0.059376925 -0.03262189
000040 48 18 ab bb 12 52 09 bd 31 c2 b7 bc 4e 79 88 3c
       -0.0052214004 -0.033525534 -0.022431465 0.016659405
000050 0f bc a1 bd 09 f9 0e bd a6 7d ad bc f9 49 b3 39
       -0.078971975 -0.034905467 -0.021178078 0.00034196654
000060 2e ba 8f bc f2 12 fc bc d5 66 69 bd 58 0c 27 bc
       -0.017544832 -0.030770753 -0.056982834 -0.010195814
000070 65 6b aa bc 31 a2 f1 bc 4b d2 be ba cd a1 a4 bc
       -0.020803163 -0.029496284 -0.0014558522 -0.020096684
000080 14 a7 31 bd ad 34 0f 3c d5 d9 81 bd bb 82 21 3c
       -0.04337223 0.008740586 -0.06340376 0.009857829
000090 e6 f5 2e bd 77 fb 29 bd c2 2b f8 bc 82 da e0 bc
       -0.042714976 -0.04149958 -0.030294303 -0.027447943
0000a0 ce f5 33 bc d8 7c b2 bc 55 cd 4e bd e9 82 f7 bc
       -0.010983897 -0.021788046 -0.05048879 -0.03021379
0000b0 84 9f 1e bd 1c 47 98 3b f5 0f 9b bc 63 1e bd bc
       -0.038726345 0.004647149 -0.018928507 -0.023085779
0000c0 d1 f3 a7 bc db d6 84 bb eb 73 14 bd 6e d5 b5 bc
       -0.020502003 -0.004053933 -0.03624336 -0.022196498
0000d0 65 6e 8b bd c2 6b 4e bd b6 75 42 bd 6e 5a 22 bd
       -0.068081655 -0.050395735 -0.04747554 -0.03963702
0000e0 0c 10 4a bd 50 7a b9 3c 68 ef ba bc b3 43 c6 bc
       -0.04933171 0.022641331 -0.022819236 -0.024202203
0000f0 7a d4 dc bc 1e e4 05 bd e6 d6 82 bd 0d 90 b0 bc
       -0.026956785 -0.032688253 -0.06388645 -0.021553064
000100 ba 30 9a bc e8 47 03 bd 47 89 65 bd 3a df 9a bb
       -0.018822063 -0.032050997 -0.05603912 -0.0047263177
000110 4c 4f 80 bd 10 a7 4c bc 86 b8 19 bd 9c 27 86 bd
       -0.06265125 -0.012491003 -0.03752949 -0.06550524
000120 97 0e 00 bc 73 d9 28 bd 83 b7 60 bc ab 4e 01 bc
       -0.0078159785 -0.041223 -0.013715628 -0.007892291
000130 6c 0c 84 bc b2 3a 86 bc 4f e9 0d bd 1d dc 8a bd
       -0.016119204 -0.01638541 -0.03464633 -0.067802645
000140 11 25 d4 bc 93 79 8a 3b 7f fa 4f bc a1 a4 a4 bc
       -0.02589658 0.0042259186 -0.012694 -0.020098032
000150 71 65 c1 bc a9 58 23 bd 02 f3 3b bd 6d f1 ef bc
       -0.023607941 -0.039879475 -0.045886047 -0.029289925
000160 d2 45 95 bd 56 48 3e 39 60 9d 27 bd 88 66 30 bd
       -0.07288708 0.00018146759 -0.04092157 -0.04306653
000170 fc 2c f9 3c af 9c 85 bd dd 72 85 bc 46 26 43 bd
       0.030416958 -0.06524026 -0.016290123 -0.047643922
000180 8d 55 5b 3d 24 b2 e3 3c 14 d4 45 3b b6 b0 23 bd
       0.053548384 0.027794905 0.0030186223 -0.039963447
000190 5d bc a8 bc fe cb 01 bd 89 42 3f bc 67 db c2 3b
       -0.020597631 -0.031688683 -0.011673578 0.005946565
0001a0 50 df a3 bb d3 a4 d9 3c 13 46 1f 3c b0 d3 51 3c
       -0.005000986 0.026567852 0.009721297 0.012806818
0001b0 49 85 1c bc 94 66 0d bb 8f e8 f1 bc c2 0f eb bc
       -0.009553262 -0.0021576034 -0.029529838 -0.028694037
0001c0 06 57 17 3c 63 22 3f 3c aa e1 73 3b db 92 7f bd
       0.009237057 0.011665913 0.0037213364 -0.06239591
0001d0 1d de b4 bc 52 6a aa bd 51 d5 44 3c b0 13 71 3d
       -0.022078568 -0.0832106 0.012013749 0.058856666
0001e0 5c 6f 1c bc 49 fa 8a bc 61 1a 84 bb 82 59 a2 bc
       -0.0095480345 -0.016965048 -0.004031465 -0.019818071
0001f0 c8 70 11 bd 46 63 99 bc 20 c0 37 bd 29 69 6f bc
       -0.035507947 -0.018724095 -0.04486096 -0.0146124745
000200 f2 fc 34 3d 8b a8 69 3d 19 86 1b 3c 60 f7 58 bc
       0.04418654 0.0570455 0.009492421 -0.013242573
000210 a0 fc 94 3c ed df 71 bc cb ae 79 3d 3c 71 02 ba
       0.018186867 -0.014762861 0.06095771 -0.00049759797
000220 2f 14 ef bc 4a 84 ac 3c 51 57 fb bc fc 2c e9 bc
       -0.029184429 0.021059174 -0.030681284 -0.028463833
000230 96 b1 54 3d ec 24 c1 3c 75 61 84 3d db c6 e4 3b
       0.05192717 0.023577176 0.06463901 0.006981713
000240 80 65 43 3d 4c 28 2b bc a1 9b ea bb 1a eb 2a bc
       0.04770422 -0.010446619 -0.0071596657 -0.010432029
000250 78 ba 52 3d 34 58 b0 ba 1a e6 2e bd 70 cd 8b 3d
       0.05144736 -0.0013454021 -0.04269991 0.068262935
000260 44 bf 0a bd 7a 03 33 3c 75 63 f4 3c 67 22 20 bd
       -0.03387381 0.010926122 0.029832581 -0.03909531
000270 4d 3d 5f 3d c7 8f aa 3c fd b1 d8 3c df c2 34 3d
       0.05450182 0.020820512 0.026452059 0.044131156
000280 6f 33 00 bc f8 cc 30 3a b6 ec 20 3d 51 e4 d9 3c
       -0.007824763 0.000674441 0.039288245 0.026598128
000290 5e 8b 24 3d 24 5a 1f 3a 8f 60 d5 3b fa a0 24 3d
       0.040171973 0.00060788007 0.006511755 0.04019258
0002a0 14 75 f0 bb 3b fd 0b 3d 39 25 7e bc 59 5d 89 3b
       -0.0073381756 0.034177046 -0.015511804 0.004192036
0002b0 3e 71 ab bb 15 d5 41 bb 6d d1 8a 3b cc 1f 16 bd
       -0.0052320054 -0.002957647 0.0042363913 -0.036651418
0002c0 20 0b 50 3a 26 67 25 bc 26 69 37 3c 18 e4 4c 3c
       0.0007936228 -0.010095393 0.011194503 0.012505554
0002d0 41 11 8f 3c 70 58 41 3d 0a e3 de bb 9a 36 d3 3b
       0.017464282 0.04720348 -0.0068019675 0.006445718
0002e0 d8 7c 90 bc a5 44 0f bd 5f b4 ca 3c b1 62 68 bc
       -0.017637655 -0.034977574 0.02474421 -0.014183686
0002f0 5e a5 51 3d 60 33 e0 bc 52 b8 2b bc 8c e6 3c 3d
       0.051183097 -0.027368248 -0.010480957 0.046118304
000300 57 af 2e 3d ad 15 88 3b 3b 17 1c 3d 24 07 4c 3d
       0.042647686 0.0041529746 0.03810809 0.049811497
000310 09 93 28 3d 73 ab 08 3d 8f 3f e8 3c bd 91 0d 3c
       0.04115585 0.03336663 0.02835062 0.008640704
000320 9d 10 db bc 34 7a 3e 3d 5c 82 6b 3b c4 9d fb bb
       -0.02674132 0.04650326 0.0035935855 -0.0076787192
000330 db 44 c1 bc 83 14 68 ba de 36 00 bc 7e 15 b7 bc
       -0.023592403 -0.0008853154 -0.007825581 -0.022349115
000340 76 d3 b4 bc b3 a3 05 bb 94 13 0e bc 6a ba a1 bc
       -0.022073489 -0.0020391762 -0.00867166 -0.01974221
000350 bd e7 14 bc b9 ac b6 bc 9e a4 7a 3d 20 21 cf 3c
       -0.009088454 -0.022299157 0.061192147 0.02528435
000360 fd 27 68 3d 8e 38 c9 bc 96 aa 45 3d e0 a7 5a b9
       0.05667876 -0.0245631 0.048258387 -0.00020852638
000370 20 ed a0 bc ac d4 8a 3d 38 36 7c bc 7d 5e 98 3d
       -0.01964432 0.06778845 -0.015393786 0.07439897
000380 ae d9 0c bd 81 2d d3 3c af bd 2b 3d 6a 03 50 3d
       -0.034387283 0.025778534 0.041928943 0.050784506
000390 b9 a2 ea bc 6b 82 ce 3c e9 52 89 3d 75 0b 0c bd
       -0.028642045 0.025208673 0.06705267 -0.034190614
0003a0 cd 5f 68 3d 46 9b 21 3d e1 09 63 3d b4 91 37 bc
       0.056731988 0.03945472 0.055429343 -0.011204172
0003b0 a7 73 46 bc ac b0 1d 3d 62 e7 39 bc dd 5a 7b 3d
       -0.012112535 0.038498566 -0.01134667 0.06136595
0003c0 ae 17 0c bd 13 71 47 bd a7 52 b6 bb 10 30 3d 3d
       -0.03420227 -0.04869182 -0.005564052 0.046188414
0003d0 14 b3 de bc 25 f6 54 3d 50 30 26 3d 2f 4e e0 bc
       -0.027185 0.051992554 0.04057342 -0.02738103
0003e0 f8 b0 e3 bc 3c 52 b6 bc e6 eb 83 bc dd eb c5 3c
       -0.027794346 -0.02225601 -0.016103696 0.02416032
0003f0 d4 43 1e 3c 6b 46 27 3d 28 bb 18 3d da 7d 83 3d
       0.009659726 0.04083864 0.03728786 0.06420489

action_model._discrete_distribution.branches.0.bias f4 [5]
000000 17 ee 34 bd 8b 19 70 3c 61 dd 7f 3c 47 d9 17 3b
       -0.044172373 0.014654527 0.015616746 0.002317028
000010 18 aa a5 3b
       0.005055677

exp_avg f4 [128, 6]
000000 08 df 6a 37 09 32 f6 37 5a 57 dd 38 2e 74 1f 39
       1.3999415e-05 2.9348785e-05 0.00010554372 0.00015206702
000010 51 46 7e 39 db ca 37 b8 b2 47 73 b8 fd ed 89 b8
       0.00024249523 -4.3819524e-05 -5.8002486e-05 -6.576998e-05
000020 62 8c 17 b9 0d c8 86 37 2a 8d b3 b8 6d 70 13 b9
       -0.00014452779 1.60672e-05 -8.561679e-05 -0.00014060894
000030 50 12 78 b7 70 70 5d 38 e6 97 09 38 00 dd 13 39
       -1.4786216e-05 5.279522e-05 3.280481e-05 0.00014101341
000040 91 cb 90 38 13 74 1a 38 2e 7c 85 b7 28 34 5e b8
       6.904372e-05 3.6824564e-05 -1.5912661e-05 -5.29775e-05
000050 07 f9 ac b8 a6 10 6b b9 6b bb 54 b9 5b 05 75 b8
       -8.247984e-05 -0.00022417548 -0.00020287714 -5.841754e-05
000060 a4 0a 08 b8 28 50 8b 37 51 c3 53 38 ac 5d e3 38
       -3.2434837e-05 1.6607417e-05 5.0488223e-05 0.00010841651
000070 1f 7f 3d 38 e9 b0 98 38 07 e4 1b b8 1c e5 e1 38
       4.5179502e-05 7.280877e-05 -3.7167247e-05 0.00010771511
000080 b1 b3 60 36 01 f9 28 38 a3 9c 86 b9 13 1b 2c 39
       3.3483195e-06 4.0286224e-05 -0.00025675175 0.00016413284
000090 22 87 f8 37 75 f3 06 39 49 ce 1a 39 39 54 f7 b8
       2.962683e-05 0.0001286993 0.00014763432 -0.000117935655
0000a0 bf f6 2a b9 cb 4d 0c 39 52 af 36 36 e4 4b fc 38
       -0.00016304383 0.0001338042 2.7222163e-06 0.00012030432
0000b0 ef e8 d6 38 a0 89 40 b9 39 13 67 b9 3a 92 e3 38
       0.000102477024 -0.00018361816 -0.00022037038 0.0001085144
0000c0 c5 69 f2 b7 8c f3 18 b9 b7 0e 17 b7 cc d3 37 39
       -2.88979e-05 -0.00014586578 -9.003727e-06 0.0001753114
0000d0 78 83 b8 39 58 29 68 b9 61 62 64 38 2b e6 9a 37
       0.00035193167 -0.00022140646 5.445106e-05 1.846541e-05
0000e0 dc 41 e8 38 ff 3a 79 38 7f 74 68 39 2a 5d 15 b8
       0.00011074889 5.942117e-05 0.00022168642 -3.5611134e-05
0000f0 10 bf c1 b7 d0 2b 17 b9 c6 1b 72 b9 45 dd bf 38
       -2.3096363e-05 -0.00014416804 -0.00023089265 9.1488044e-05
000100 ca ef 2d b8 f7 57 1e b9 48 ca 50 35 d0 a9 ce 37
       -4.1469735e-05 -0.00015100824 7.7780396e-07 2.4636189e-05
000110 74 ff ad 38 c7 03 58 39 b5 21 df 39 81 15 8b b9
       8.296865e-05 0.00020600772 0.00042558988 -0.00026528168
000120 f8 25 d9 b7 9a 57 02 b8 ff 0c 43 b8 8a 1d 4f 39
       -2.5886096e-05 -3.1076e-05 -4.6503726e-05 0.00019752063
000130 44 73 a1 b8 e5 cc 09 38 36 4b 57 b8 36 d8 cf 38
       -7.698548e-05 3.285417e-05 -5.133004e-05 9.9108016e-05
000140 cd 7b 71 b7 18 06 ba 38 21 7c 66 b9 5f 3a ab 38
       -1.4393544e-05 8.870306e-05 -0.00021980751 8.164788e-05
000150 4e fe 91 b8 11 e0 d1 b7 e5 8f da b8 a7 f4 ae 38
       -6.961507e-05 -2.501908e-05 -0.000104218525 8.3425366e-05
000160 34 05 09 b9 18 c5 5d 38 a9 43 2f b8 8b 85 54 38
       -0.00013067276 5.2874064e-05 -4.1786265e-05 5.066911e-05
000170 10 28 87 b7 de 2b 6f 39 34 f9 3d b8 47 96 1c 39
       -1.611191e-05 0.00022809158 -4.52932e-05 0.00014933302
000180 dc 13 a5 37 ad dd d0 b7 a9 89 58 b8 33 ff d6 37
       1.967878e-05 -2.4898758e-05 -5.162662e-05 2.5629624e-05
000190 6a 4f 56 38 a0 f7 be b5 c8 70 a5 37 22 ca b4 38
       5.1095536e-05 -1.4228171e-06 1.972205e-05 8.620719e-05
0001a0 2d 3c a0 38 fa 92 1d b9 cd 8b 30 b9 ba 8c 08 39
       7.640603e-05 -0.0001502744 -0.00016836748 0.00013022395
0001b0 f0 86 52 b8 18 b5 e7 b7 b2 3a c5 b8 b1 41 ab 37
       -5.0193572e-05 -2.7621674e-05 -9.404625e-05 2.0415378e-05
0001c0 ae a4 dc b7 48 f3 d4 b8 48 b9 7b 36 0c 5f e5 38
       -2.6302729e-05 -0.000101542624 3.7509762e-06 0.00010937275
0001d0 d1 83 17 39 47 61 95 b9 02 d3 14 b9 64 05 90 b8
       0.00014449588 -0.00028491972 -0.00014192986 -6.867459e-05
0001e0 49 aa b6 b7 c5 da 4a 38 49 b3 21 39 2f 3a 93 39
       -2.1775386e-05 4.8364298e-05 0.00015420945 0.00028081375
0001f0 76 00 ed 39 d6 57 79 b9 ac fa 1f b8 6f a0 5b b9
       0.00045204506 -0.00023779212 -3.814201e-05 -0.00020945234
000200 9a aa 3e b9 fd a7 7a 38 0f ed a5 38 40 a4 86 b9
       -0.00018183366 5.9761096e-05 7.911969e-05 -0.00025680847
000210 33 d5 33 b8 75 f5 0f 38 2c ee 70 b8 cf c4 7e 38
       -4.2875483e-05 3.4322456e-05 -5.7442274e-05 6.074161e-05
000220 b8 cb 51 b9 70 98 8d 38 24 1d 24 38 08 1e 2f 38
       -0.00020007684 6.7517976e-05 3.9127786e-05 4.175122e-05
000230 17 da 30 38 63 69 87 38 c8 27 e4 38 76 61 2d b8
       4.2164782e-05 6.4569314e-05 0.00010879297 -4.133718e-05
000240 16 dd 53 b8 1d d7 a4 b8 e6 48 8a b8 81 32 2a 39
       -5.0512223e-05 -7.8601974e-05 -6.593931e-05 0.00016231278
000250 0e 3a fb 37 2f ff 71 b8 86 2e f8 b7 54 a6 40 b8
       2.9948565e-05 -5.7696536e-05 -2.9585568e-05 -4.5931272e-05
000260 40 d5 12 b8 aa 0a 97 39 9e 6d 7a 39 bc 81 d2 b8
       -3.5007717e-05 0.0002880891 0.00023882693 -0.00010037745
000270 d8 ac 32 b8 d7 97 fd 36 17 f0 55 b8 59 be 5b b8
       -4.259948e-05 7.557664e-06 -5.100676e-05 -5.2390944e-05
000280 74 5a e6 b8 79 6a 76 b8 82 37 46 b8 ab 31 a5 38
       -0.00010984103 -5.875013e-05 -4.7258574e-05 7.8770645e-05
000290 35 c9 3e b8 5a 21 fd b7 79 99 3c b9 d0 1a 1a b8
       -4.548692e-05 -3.017548e-05 -0.0001798625 -3.6741432e-05
0002a0 34 f7 fe b7 e6 c3 7d b8 11 ab f4 b7 7d f5 3d b9
       -3.0394272e-05 -6.0502345e-05 -2.9166726e-05 -0.00018115896
0002b0 08 6b 03 b9 df 0f 47 b9 51 c8 fb b7 d9 a0 1e b9
       -0.00012533006 -0.00018984031 -3.0014811e-05 -0.00015127975
0002c0 67 86 87 b9 e9 a5 94 39 7a eb ff b8 7e fa 38 b8
       -0.00025849344 0.00028352372 -0.000122032085 -4.4102308e-05
0002d0 7b 95 e9 37 43 8d c2 38 92 b1 34 39 c3 ba 8d b8
       2.7845372e-05 9.276953e-05 0.00017232288 -6.758191e-05
0002e0 bd c5 f4 38 e9 3b 01 b9 98 b3 e2 b8 dc 32 3e b9
       0.00011671658 -0.00012324717 -0.00010809972 -0.00018138759
0002f0 12 0f a0 36 58 6b a9 b8 6a 9c db 38 85 f1 a4 b9
       4.770126e-06 -8.078542e-05 0.00010471868 -0.00031460464
000300 08 fb 56 b7 97 e4 90 37 71 b2 98 37 6b 6a 58 b7
       -1.2813842e-05 1.7272583e-05 1.8202905e-05 -1.2899381e-05
000310 46 cc 9c b7 b1 78 17 b5 64 61 18 38 b8 01 f8 37
       -1.8691771e-05 -5.642751e-07 3.6330326e-05 2.9564704e-05
000320 de 98 0d 39 5e af 13 38 48 f6 83 b8 6f b4 24 39
       0.00013503755 3.5210855e-05 -6.29244e-05 0.00015707476
000330 a6 be 9e b7 09 af 65 38 d2 07 b1 38 fc 22 41 39
       -1.8923845e-05 5.476087e-05 8.441474e-05 0.00018418947
000340 db 1e a7 39 6b 03 bb b8 5e bb 79 b8 4d bc bb b7
       0.0003187571 -8.9174915e-05 -5.9540725e-05 -2.2379822e-05
000350 e4 56 9c 37 d8 d1 5f 39 b6 9e 7d 38 58 a9 9b 35
       1.863711e-05 0.0002134511 6.046771e-05 1.1597685e-06
000360 63 a5 ae b8 4d 54 ee b8 de 13 1e b8 58 e0 90 38
       -8.327772e-05 -0.000113644266 -3.768864e-05 6.908242e-05
000370 e0 93 9a 37 62 6e 6c b8 99 97 8e b8 cd 0f ee b7
       1.842709e-05 -5.6369587e-05 -6.799325e-05 -2.8379169e-05
000380 35 50 d6 b7 6e 97 5b b9 d6 fc 53 b9 b4 5d 11 b9
       -2.5548137e-05 -0.0002094188 -0.00020216717 -0.00013863185
000390 07 ca 4d b8 35 fa f1 b7 51 c4 12 b8 bd f7 00 39
       -4.906396e-05 -2.884595e-05 -3.4991946e-05 0.00012299321
0003a0 31 8b 9e 37 82 77 ad b8 e8 4a 6f b8 1f 0a 0d b9
       1.8899884e-05 -8.271543e-05 -5.7051802e-05 -0.00013450578
0003b0 b4 51 02 b9 bc bc d8 b7 ab 0e bf b7 be ff 65 b9
       -0.00012428203 -2.5837093e-05 -2.2775805e-05 -0.00021934413
0003c0 70 02 8e 36 ff 5b 27 38 6c 8b 96 b7 05 4a a2 38
       4.2322135e-06 3.990158e-05 -1.7946317e-05 7.738549e-05
0003d0 7f fe bb b7 1e 92 a2 38 dc 08 73 b8 d1 fa 43 b9
       -2.2410646e-05 7.7519784e-05 -5.7943966e-05 -0.00018690086
0003e0 7c f6 52 b9 7e d0 6c 38 bc 65 df b8 f6 fd f0 b8
       -0.00020118983 5.6460958e-05 -0.00010652418 -0.00011491396
0003f0 18 01 14 38 7b f3 a8 38 4b d6 b3 38 0b dc 80 b9
       3.528697e-05 8.056216e-05 8.5753e-05 -0.00024578007

exp_avg_sq f4 [128, 6]
000000 6e c9 7c 33 6b ce 5c 33 df ac 0b 34 4e b4 d7 33
       5.885652e-08 5.1410478e-08 1.3008274e-07 1.0044515e-07
000010 2b d1 3a 34 fb 14 8c 34 af 68 a8 33 14 41 04 33
       1.7398695e-07 2.6092297e-07 7.8421515e-08 3.0792833e-08
000020 16 ab 13 34 1e 0e 48 33 85 83 16 34 10 be 2d 34
       1.3752683e-07 4.657897e-08 1.4017685e-07 1.6181025e-07
000030 5a f4 41 33 8a 10 7c 33 c2 58 a1 32 16 55 52 33
       4.515855e-08 5.8688364e-08 1.878323e-08 4.897182e-08
000040 e0 c2 ce 33 7e 06 02 34 8d b3 23 32 47 c8 dc 32
       9.62807e-08 1.2109555e-07 9.528674e-09 2.5702446e-08
000050 c0 fb a5 33 7d 7c 68 33 fe e7 e6 33 20 05 e9 33
       7.729204e-08 5.412993e-08 1.0752409e-07 1.085084e-07
000060 21 10 d1 33 80 c3 55 32 40 81 83 32 82 83 b1 33
       9.735255e-08 1.2442683e-08 1.5309183e-08 8.266126e-08
000070 99 48 dc 33 ee d3 12 34 f4 53 88 33 07 00 b9 33
       1.0257754e-07 1.3674409e-07 6.3482645e-08 8.614739e-08
000080 50 a8 e9 32 0b 52 f2 33 dc ca 37 34 11 33 3e 34
       2.720131e-08 1.1283927e-07 1.7117003e-07 1.7713707e-07
000090 04 5c 2f 34 0e 84 4a 34 34 1b 14 34 ac 91 85 33
       1.633162e-07 1.8860757e-07 1.379347e-07 6.219793e-08
0000a0 10 a4 ad 34 26 e7 b5 34 da 24 48 33 47 40 9e 33
       3.2343132e-07 3.388206e-07 4.6599645e-08 7.36914e-08
0000b0 ea 92 0b 34 4e 80 aa 33 fd 7f 4f 34 04 d0 7c 34
       1.2998831e-07 7.9395804e-08 1.9324939e-07 2.3545005e-07
0000c0 47 f3 d5 33 d2 87 55 34 6c e7 8e 34 79 79 53 34
       9.962837e-08 1.9886582e-07 2.6617943e-07 1.9695098e-07
0000d0 55 34 af 34 a3 22 d9 34 50 24 66 33 5d 8f 04 33
       3.2634367e-07 4.04446e-07 5.3584074e-08 3.0864033e-08
0000e0 48 1c 10 34 77 81 1c 33 78 d7 2a 34 84 9b 58 34
       1.3421334e-07 3.6439328e-08 1.5910871e-07 2.0173144e-07
0000f0 54 13 1e 34 ef b8 37 34 6f 01 cb 33 3c 7f 73 33
       1.4721928e-07 1.7110482e-07 9.453185e-08 5.6693565e-08
000100 86 58 90 34 dc 39 9e 34 cd 65 54 32 60 2f 75 34
       2.68865e-07 2.9471892e-07 1.2363171e-08 2.2834638e-07
000110 62 62 99 34 ad 73 3e 34 65 e7 cc 34 0f ec 0f 35
       2.8570054e-07 1.7737212e-07 3.8166323e-07 5.361516e-07
000120 54 98 b7 33 ec ea 8b 33 84 44 43 33 a3 cd ec 33
       8.54931e-08 6.515424e-08 4.546429e-08 1.10270115e-07
000130 17 80 6a 34 c3 c6 45 34 0f c2 88 34 2f 18 c9 34
       2.1839547e-07 1.8419364e-07 2.547317e-07 3.7456763e-07
000140 5c 02 bb 32 1d b4 39 34 ec d2 09 35 8a 7e 09 35
       2.1770738e-08 1.7294992e-07 5.134341e-07 5.1220616e-07
000150 99 30 91 34 32 c3 e4 33 e1 b7 4f 33 b7 18 05 34
       2.7043714e-07 1.0652583e-07 4.836318e-08 1.2395581e-07
000160 bd 53 a8 34 1a b0 bd 34 69 be 30 34 80 29 b1 33
       3.1353366e-07 3.5332124e-07 1.6460548e-07 8.2497536e-08
000170 29 89 14 33 75 d2 1b 34 a2 d0 93 34 28 24 9e 34
       3.458368e-08 1.4512064e-07 2.7532684e-07 2.94561e-07
000180 02 93 87 32 6e a5 00 32 fc 35 73 33 78 90 e8 32
       1.578292e-08 7.488195e-09 5.6626945e-08 2.7074051e-08
000190 5e 46 81 33 12 88 a1 33 f5 f3 db 31 b0 d3 2b 33
       6.01983e-08 7.521898e-08 6.4014736e-09 4.000657e-08
0001a0 5f 19 91 33 b4 cc 27 33 cb a6 c8 33 ca 42 d1 33
       6.7567036e-08 3.9068894e-08 9.343565e-08 9.74447e-08
0001b0 37 8d fa 33 9d a3 f1 32 89 0c 9f 33 d4 2c bb 31
       1.1667219e-07 2.8130495e-08 7.4062946e-08 5.4475127e-09
0001c0 72 b8 14 34 04 bd 22 34 be 4c 08 34 37 6c ca 33
       1.3850675e-07 1.5156189e-07 1.2693906e-07 9.426042e-08
0001d0 0e 57 1d 34 2f 7f 5a 34 42 05 a3 34 f6 f0 ea 34
       1.4653435e-07 2.0349101e-07 3.0364941e-07 4.376122e-07
0001e0 1e a5 c9 33 95 04 ac 34 e5 c2 bf 34 42 c1 a4 34
       9.3898265e-08 3.204083e-07 3.5718327e-07 3.0687994e-07
0001f0 df b5 06 35 87 a2 51 35 f5 ab 90 32 17 b1 a6 33
       5.018355e-07 7.8095076e-07 1.6842003e-08 7.76219e-08
000200 71 b5 cd 33 2c d3 9e 33 eb 0e 11 34 07 8b 17 34
       9.5790604e-08 7.39586e-08 1.3509604e-07 1.4113549e-07
000210 a4 e7 65 33 1c d5 ae 33 fc 28 49 33 83 98 08 34
       5.3528893e-08 8.141271e-08 4.6836234e-08 1.272147e-07
000220 7c 8a 65 34 fc fc 63 34 b9 54 a5 32 5f e4 e6 31
       2.1377667e-07 2.1233058e-07 1.9247056e-08 6.719844e-09
000230 5f c1 2b 32 2c ac e4 32 43 f1 78 33 84 77 65 33
       9.9974775e-09 2.6620988e-08 5.7961426e-08 5.3426916e-08
000240 9a 93 8f 33 3e 3f 92 33 9c 28 40 33 a0 75 a8 33
       6.685805e-08 6.8101585e-08 4.4740418e-08 7.8445055e-08
000250 18 88 19 34 73 b5 19 34 f1 b8 b9 33 8e c5 2f 34
       1.4298746e-07 1.4315246e-07 8.6483745e-08 1.6370015e-07
000260 a7 29 b1 34 1d a5 98 34 b0 02 ec 34 eb 3c 12 35
       3.2999125e-07 2.8432342e-07 4.396038e-07 5.4477886e-07
000270 d0 f1 16 33 8d ec 48 32 e9 0c 29 34 a3 a2 83 33
       3.5144524e-08 1.1695318e-08 1.5744048e-07 6.129746e-08
000280 1c 26 07 34 91 2c 35 34 f2 e8 96 33 ca 33 66 33
       1.2586719e-07 1.6873152e-07 7.027292e-08 5.359815e-08
000290 2e 88 39 34 24 0e c0 33 6c d5 4c 34 22 bd 71 34
       1.727901e-07 8.943269e-08 1.9076623e-07 2.251368e-07
0002a0 35 e7 26 33 87 f6 b9 33 96 c8 0b 34 31 8a 4a 34
       3.886017e-08 8.659577e-08 1.3018357e-07 1.886299e-07
0002b0 1e f3 85 34 ef 07 ac 34 33 0b 91 34 48 dd c8 34
       2.4950072e-07 3.204327e-07 2.7016503e-07 3.7413906e-07
0002c0 79 4c 07 34 7d 6d a1 34 cf de 45 35 4e 90 3d 35
       1.2600675e-07 3.006825e-07 7.371245e-07 7.061798e-07
0002d0 e4 8c 9c 34 54 c9 c3 34 b7 31 59 34 5c 5a 99 34
       2.9159776e-07 3.6468066e-07 2.0227786e-07 2.8564216e-07
0002e0 10 36 1a 35 10 f7 26 35 70 0e c8 34 e4 5c 99 34
       5.744814e-07 6.219934e-07 3.7263408e-07 2.8566058e-07
0002f0 89 ea f1 34 98 d2 c3 34 9c e2 1b 35 bc cf 24 35
       4.5060395e-07 3.6474808e-07 5.807176e-07 6.1397054e-07
000300 9b 55 7f 32 ab 3b 2e 32 a6 a5 a5 31 0d 95 03 32
       1.4862418e-08 1.01417e-08 4.820964e-09 7.659094e-09
000310 e4 ca c6 32 6a b7 ad 32 38 54 0a 34 27 cb 80 33
       2.3142498e-08 2.0223258e-08 1.288289e-07 5.997418e-08
000320 f4 ec 25 34 ad 04 5d 32 ca 8d 8a 34 7b 90 57 34
       1.5453026e-07 1.2864956e-08 2.5807668e-07 2.0075997e-07
000330 be d5 85 33 e9 ee 6b 34 22 46 8e 33 d4 f0 0c 34
       6.2321746e-08 2.1972996e-07 6.6251474e-08 1.3126129e-07
000340 c0 2a 88 34 21 6e b3 34 d9 60 20 34 2f d0 8d 33
       2.536308e-07 3.3421477e-07 1.4936394e-07 6.6036925e-08
000350 49 2d 9f 33 33 16 2d 34 54 bd 7c 34 38 49 93 34
       7.412252e-08 1.6119957e-07 2.3538206e-07 2.7434157e-07
000360 af 2b cd 33 d2 ce 24 34 83 df 52 33 61 8c 2a 34
       9.5540024e-08 1.5348931e-07 4.9097718e-08 1.5883553e-07
000370 73 2a 65 34 0b 3b 5b 34 73 f4 66 33 aa 78 08 33
       2.134273e-07 2.0417444e-07 5.3773373e-08 3.177471e-08
000380 6c 2c 5f 34 7a 19 4e 34 68 9b 7f 34 0c ab a3 34
       2.0784654e-07 1.9194513e-07 2.3805262e-07 3.048557e-07
000390 ab f1 92 34 27 2b 5e 34 29 c2 dc 33 8b 8d 00 34
       2.7370456e-07 2.069106e-07 1.0279866e-07 1.1972422e-07
0003a0 e4 b0 cd 34 aa 63 e6 34 2f 03 10 33 9b a2 2a 33
       3.831293e-07 4.2913354e-07 3.3530508e-08 3.97291e-08
0003b0 e7 56 02 34 54 db b2 33 9d 34 11 34 7d bd 31 34
       1.2138808e-07 8.3286665e-08 1.3523318e-07 1.6553345e-07
0003c0 7c 1b 1d 34 8d b3 c8 33 eb b8 2e 33 a3 c5 77 33
       1.4631763e-07 9.345886e-08 4.0680714e-08 5.768892e-08
0003d0 90 35 56 34 21 d5 70 34 a7 6b a1 33 24 c5 ec 33
       1.9949789e-07 2.2429278e-07 7.5167286e-08 1.1025466e-07
0003e0 e2 a2 a6 33 71 b1 03 34 2c dc 62 34 f2 8c 6d 34
       7.7596056e-08 1.2264879e-07 2.1127988e-07 2.212362e-07
0003f0 a4 f5 b5 34 fb ac 0c 34 1f 3c 38 34 0c 18 82 34
       3.3892604e-07 1.3101446e-07 1.7158207e-07 2.4231883e-07

exp_avg f4 [128]
000000 94 be a2 39 ba bf 33 b9 96 c6 49 39 ec b7 bc b9
       0.0003104104 -0.00017142194 0.00019242833 -0.00035995187
000010 bf f2 50 39 4d 3a b9 b7 4a a3 d6 b8 47 a7 2a b9
       0.00019926856 -2.2080867e-05 -0.0001023473 -0.00016274779
000020 84 7f 3d 39 21 19 8e 39 6f 84 2e b9 53 73 c9 39
       0.00018071948 0.00027103073 -0.00016643268 0.0003842363
000030 c7 3e 01 39 a9 e2 27 b7 a2 22 53 b8 e9 c3 6e 39
       0.00012325785 -1.0006749e-05 -5.0338575e-05 0.00022770431
000040 94 7b fb 37 6c be ef b8 b1 1a 0c b9 0d 41 88 b9
       2.9979077e-05 -0.00011431877 -0.00013361384 -0.00025988408
000050 eb fc 01 3a ee dd 30 b9 9e 07 82 b8 9a 0a ec 38
       0.0004958647 -0.00016867343 -6.200302e-05 0.000112553316
000060 b7 3f a0 38 dd d0 8c 39 c4 67 23 b9 9c 36 27 b9
       7.641262e-05 0.00026858496 -0.00015583547 -0.00015946705
000070 55 77 aa b9 ee d3 44 b8 8f 70 09 b8 e3 f1 81 b9
       -0.00032513836 -4.6927416e-05 -3.2768174e-05 -0.00024785017
000080 24 cd ea b7 44 db 53 38 38 72 a0 39 40 ff 76 39
       -2.79905e-05 5.0510527e-05 0.00030602678 0.00023555476
000090 35 c4 8c 36 46 79 b0 b9 17 78 d3 38 a7 86 6b b9
       4.1951666e-06 -0.00033659692 0.000100836325 -0.00022461508
0000a0 a3 f4 ce 38 1a 0d 48 b9 af b8 a2 b9 18 2c 00 39
       9.8684126e-05 -0.00019078367 -0.00031036648 0.00012223457
0000b0 2b c4 c7 b8 01 dd b6 b8 10 66 73 39 89 95 03 b9
       -9.5255986e-05 -8.7196015e-05 0.00023212307 -0.0001254884
0000c0 68 67 63 b9 15 4a 45 39 19 d0 5b b9 11 1e f3 38
       -0.00021686929 0.00018814982 -0.0002096299 0.00011592743
0000d0 79 97 95 b9 fd 25 0e b8 ed 56 c6 39 c9 ad 38 b8
       -0.0002853235 -3.3890818e-05 0.00037830268 -4.403087e-05
0000e0 61 53 6f b9 ea 46 4a 39 ba 04 50 b8 5b f0 fe b7
       -0.00022823877 0.00019290639 -4.9595466e-05 -3.0391084e-05
0000f0 39 9a c0 38 ec 9d 3f 39 b4 f9 b1 39 2a 1d 26 b9
       9.184e-05 0.0001827401 0.00033946114 -0.00015841858
000100 a0 28 9c b9 0a a7 39 b7 06 32 a6 b9 b5 01 08 b7
       -0.00029784907 -1.1065751e-05 -0.00031699258 -8.106629e-06
000110 b4 82 2c b7 6f 32 70 38 f1 73 5c b9 d5 b1 c3 39
       -1.0282431e-05 5.726743e-05 -0.00021024027 0.00037325794
000120 89 53 75 b9 dc 6c c8 39 de 19 1c b9 34 2d 3a b9
       -0.0002339614 0.0003822808 -0.00014886956 -0.00017755182
000130 eb 91 90 b9 1d 0f 59 b9 3a d2 21 b8 cc 00 98 b9
       -0.00027574538 -0.00020700363 -3.858118e-05 -0.00028992293
000140 66 19 4b b9 5c c8 19 39 a2 77 31 b9 12 39 1c 39
       -0.0001936905 0.00014665857 -0.00016924602 0.0001489858
000150 90 94 93 38 72 6b 8d b9 66 f2 b7 37 9a 66 b1 b8
       7.037178e-05 -0.0002697367 2.1928176e-05 -8.459129e-05
000160 9b 3d 06 3a 8b ea 1b b9 19 0d 83 39 84 54 0b 39
       0.0005120874 -0.00014869326 0.00024996026 0.00013287558
000170 e4 98 8c b9 41 0e 06 b9 88 ca 8d 39 ee ce 47 b8
       -0.00026816793 -0.00012784546 0.00027044513 -4.7638016e-05
000180 4e 66 d0 38 cc f1 5a 38 7c 96 87 38 ce 7c f8 b8
       9.9372686e-05 5.220044e-05 6.4653315e-05 -0.00011848808
000190 0f bf c4 b9 f5 ec 44 b9 b7 99 a8 b9 a8 3e 3e b9
       -0.00037526383 -0.0001878029 -0.00032157984 -0.00018143153
0001a0 e0 63 4e b9 02 f4 11 39 84 71 f8 38 b5 f2 f1 b7
       -0.00019682897 0.00013919178 0.000118467055 -2.8842458e-05
0001b0 13 24 f5 38 fe e1 c9 b7 0e 32 10 39 33 a0 b2 38
       0.0001168923 -2.4066303e-05 0.00013751557 8.517541e-05
0001c0 a1 e2 a7 38 91 6e 0e 39 78 df 39 b9 54 a8 83 b9
       8.0053935e-05 0.00013583364 -0.00017726223 -0.0002511168
0001d0 26 8f 7c b9 80 40 a4 b9 fe 4f 81 39 f2 11 84 38
       -0.0002408592 -0.00031328574 0.00024664396 6.297593e-05
0001e0 6e 71 66 b9 14 57 3d 39 be d4 3d b8 da 06 45 b9
       -0.00021976765 0.00018056884 -4.5259243e-05 -0.00018789936
0001f0 cb 32 42 39 82 be 94 b8 90 fd 6e b9 84 b0 56 b9
       0.00018520204 -7.092675e-05 -0.00022791908 -0.00020474388
