Scenes/ImprovedGridWorld2D/results/test_run/DroneGrid2D/DroneGrid2D-41867.onnx (onnx, 77147 bytes, 6 tensors)

network_body._body_endoder.seq_layers.0.weight f4 [128, 6]
000000 40 d9 ec be e4 c0 7d be dc c4 06 3f 7b 79 48 3e
       -0.462595 -0.24780613 0.52644134 0.19577591
000010 c3 3f 5c 3c b1 93 c1 3e 63 32 3f bf f2 0f 04 bf
       0.013442936 0.37807992 -0.7468626 -0.5158683
000020 eb 27 47 bc cf b5 3b be 62 72 d4 be 09 b8 91 3d
       -0.012155513 -0.18331073 -0.41493517 0.0711518
000030 3e 81 cd be 48 aa e9 3e 9e bc 9d be 7e 21 c8 3d
       -0.40137666 0.45637727 -0.30807966 0.09772013
000040 52 0c fd be cf 37 2d 3f 0c 48 8a 3f 84 18 de 3e
       -0.49423462 0.6766328 1.0803237 0.4337808
000050 a1 80 97 3e 47 96 ed be 31 8e c6 be 61 69 c9 bd
       0.29590324 -0.46403715 -0.38780358 -0.098345526
000060 0c 3b 11 3e 35 4f 34 3e 31 99 a4 3e 89 12 a3 3e
       0.14182681 0.1760834 0.32148126 0.3185008
000070 82 61 1d bf 82 11 26 3d 15 fc fd be 9d bb 82 bf
       -0.6147691 0.04054404 -0.49606386 -1.0213505
000080 72 91 52 bf b7 7a c9 be 73 f8 8d 3e 15 4b 7e be
       -0.8225318 -0.39351436 0.27728614 -0.24833329
000090 f6 a6 12 3f b1 91 45 be 1b a0 09 3f dc ae 85 3e
       0.5728601 -0.19293858 0.53759927 0.2610997
0000a0 4b 82 e5 be de 83 4a be 17 0a 24 be c0 e3 06 be
       -0.44825968 -0.19776866 -0.16019474 -0.13172817
0000b0 51 d4 15 3e 2e ae 67 3e 12 73 c6 be cd 33 0b 3f
       0.14631774 0.22625038 -0.38759667 0.54375917
0000c0 10 8d cb bd e7 e3 07 bd 9a 76 b8 3e b2 93 de be
       -0.09939015 -0.03317633 0.36027986 -0.43472058
0000d0 8b 0b 32 3e 06 7e ba 3e 57 fa 51 be b3 b2 b0 3c
       0.17387216 0.36424273 -0.20505653 0.021569585
0000e0 62 7c b9 bd e6 eb 46 3e 89 2b 29 be 0e 3e ab 3e
       -0.09056927 0.19425926 -0.16520514 0.3344578
0000f0 30 9a ae 3e fc 12 c6 be 37 e9 d5 be c7 36 3e 3f
       0.3410201 -0.3868636 -0.4177949 0.74302334
000100 db a9 d7 3e 47 8f 65 bd b7 c6 2d be e5 4f 29 bf
       0.42121777 -0.056044843 -0.16970335 -0.66137534
000110 3a 46 44 be e9 ee e8 3d 0e c9 91 3e 80 20 26 be
       -0.19167414 0.113736935 0.28473705 -0.16223335
000120 aa 0e 82 3e e4 77 21 3f 53 80 bc 3e 44 30 15 3a
       0.25401813 0.63073564 0.36816654 0.0005691091
000130 29 41 d8 be 79 f6 97 3e 0d 11 af 3e d1 99 23 3f
       -0.42237213 0.2968023 0.34192696 0.6390658
000140 60 30 11 be 24 de 3c 3f 09 52 a8 bd 02 5a 08 3f
       -0.1417861 0.7377646 -0.08218772 0.5326234
000150 d5 1f 40 bf 38 8c 3a be 4b f0 02 3c 4c 7e d8 be
       -0.7504857 -0.18217552 0.007991861 -0.42283857
000160 ca 6a a5 bc 14 4f 77 bd 5b f0 f8 be 2a 3d f0 3e
       -0.020192523 -0.06037815 -0.48620877 0.46921664
000170 80 c2 d0 3e 95 73 b0 bc f6 82 2a 3f 46 85 de be
       0.40773392 -0.021539489 0.6660608 -0.43461055
000180 36 af 9b be 15 4f 69 3e f8 42 21 3e 9a 17 1d 3f
       -0.30407113 0.22784074 0.15748203 0.6136414
000190 a4 57 17 bf 12 f9 5e be 09 e2 33 3e b2 ab cc bd
       -0.59118104 -0.217747 0.17566694 -0.09993686
0001a0 4f af fc bd 09 94 fd be 90 13 35 3f a4 48 93 be
       -0.12338125 -0.49527004 0.70732975 -0.28766358
0001b0 a3 1a fa 3e fa 38 58 3f 87 72 7e 3c cd 61 ea be
       0.48848447 0.8446194 0.015530235 -0.4577774
0001c0 a4 1e 63 bd 87 2d 4e be 18 e8 d0 3e 20 cc 3e 3f
       -0.055449143 -0.20134555 0.40802073 0.7453022
0001d0 06 5d c7 bd 3c 76 32 3e 6b ba cd bd 21 84 01 be
       -0.0973454 0.17427915 -0.10045322 -0.1264806
0001e0 d6 f3 5e 3c ca f5 87 3e c2 4a 74 bc af 8d 07 3f
       0.01360794 0.2655471 -0.014910402 0.52950567
0001f0 d0 75 15 be c5 11 18 3e ba 66 a1 bc 18 2f d5 be
       -0.14595723 0.14850529 -0.019702304 -0.41637492
000200 bc bd 29 bd 8e 16 f9 bc f7 2a 33 3d f3 81 e3 3e
       -0.04144071 -0.030406263 0.043742146 0.4443508
000210 e5 88 49 3d 85 58 c4 be d9 e0 d9 3e 60 86 f1 3e
       0.04920282 -0.38348785 0.42554358 0.47172832
000220 b6 5c 7e bb ef 71 a0 3e c8 73 d5 be 16 28 59 bd
       -0.0038812584 0.31336924 -0.41689897 -0.053016745
000230 21 fe e4 bd 63 1b 22 3e 87 b0 73 bf 7f 85 d0 3e
       -0.11181284 0.1583076 -0.95191234 0.4072685
000240 7a f8 ef bd b9 8b 69 bf 6b 18 8c bf 0d c0 0b bd
       -0.11717315 -0.91228825 -1.0944952 -0.0341187
000250 d3 e3 c1 3e b3 6b 12 3f a4 cb ea 3d e9 0e 9f be
       0.3786913 0.57195586 0.114646226 -0.31066063
000260 d4 4a e6 3e f7 3b bd be 8c 7d 40 3e 10 b9 3e 3f
       0.44978964 -0.36959812 0.18797892 0.7450113
000270 fb 08 0a 3f f3 da 20 3c 93 e9 86 bd b9 c3 24 3f
       0.53919953 0.009817827 -0.065875195 0.6436115
000280 06 b6 64 be 95 9f 07 3e 2b 14 ba 3e 00 81 28 3d
       -0.22335061 0.1324447 0.36343512 0.04113865
000290 c0 4c f4 3e 91 2a b7 3d a6 42 40 bf df ab 12 be
       0.47714806 0.08943666 -0.751017 -0.14323376
0002a0 3b a4 3a 3e a5 80 ac 3d cd 05 93 3e 75 c2 c5 bd
       0.18226711 0.084229745 0.28715363 -0.0965623
0002b0 e8 6f 47 3e 48 5c 4e 3e 81 bd 3a be 40 60 35 3f
       0.19476283 0.2015239 -0.18236353 0.7084999
0002c0 61 77 11 3f b2 08 3b be 1c 34 bb bc 1f ca 54 bf
       0.5682278 -0.18265036 -0.022851996 -0.8312091
0002d0 95 3f c7 3d 46 64 79 be 88 22 20 bf 78 d0 21 3d
       0.09728924 -0.24354658 -0.6255269 0.039505452
0002e0 c0 26 33 3d b0 a0 66 3f e1 51 f4 bd e5 3a 18 3f
       0.043738127 0.9008894 -0.1192968 0.59464866
0002f0 49 ca 19 3f ea 82 2e 3e 70 19 03 bf 68 4f 65 bd
       0.6007429 0.17042127 -0.5121069 -0.05598393
000300 9e d0 63 3c 84 5d 45 3f 2b 9c f9 3d ed f6 98 be
       0.013904719 0.7709582 0.1218799 -0.2987589
000310 30 dc 8f 3e a1 9a 16 bf 09 ac 86 3d f1 c1 20 bf
       0.28097677 -0.58829695 0.06575782 -0.6279593
000320 ad b2 a4 3e 77 6b 23 bf 28 72 9d bf c6 95 5e 3f
       0.3216757 -0.63835853 -1.2300463 0.86947286
000330 32 f6 0c 3e 49 f9 2c bf 4a 28 b4 bc 65 d3 9f 3c
       0.13765791 -0.6756788 -0.021991868 0.01950998
000340 b4 fd 67 3e 15 36 f6 3e 78 17 3a 3f 52 00 ea 3e
       0.22655374 0.48088136 0.7269206 0.4570337
000350 a6 0d f3 bd 3a b0 62 be a2 56 1f be d2 2c 90 be
       -0.118678376 -0.22137538 -0.15560392 -0.28159195
000360 b9 97 02 3d a9 e0 ac bd 85 62 c9 3e 60 49 ae be
       0.031882975 -0.08441288 0.39332977 -0.34040356
000370 fa 12 3e bd 37 e1 51 bc b9 7d ee be 80 3c f7 3e
       -0.046404816 -0.012810043 -0.46580294 0.48288345
000380 ed 2b 05 3e ca e1 a9 3d 44 60 7b be 8c 40 38 bf
       0.13005038 0.08295019 -0.24548441 -0.7197349
000390 92 78 6e 3e 06 e2 ad be d7 12 19 bd b7 40 ae 3c
       0.23288181 -0.33961505 -0.037371483 0.021271093
0003a0 c9 d7 b0 be 16 2c 69 3f fd b1 da be 6a ac 6f 3e
       -0.3453963 0.91082895 -0.4271392 0.23405614
0003b0 36 f4 63 bd 10 0e 47 3d bf 22 fa 3e c4 1b 8b 3e
       -0.05565282 0.048597395 0.48854634 0.2716962
0003c0 1a ca 36 3a a8 5d 8d bd 9d 62 0c 3e 4d 7b 54 3e
       0.00069728645 -0.06902629 0.13709493 0.2075016
0003d0 4c a1 3d 3e 2a 7e e0 bc af d3 45 3e 5f 86 03 bc
       0.18518561 -0.02740391 0.19319032 -0.008027642
0003e0 8f 07 49 bf 0c eb 00 be 05 a7 d0 be f4 8f 1e be
       -0.7852716 -0.12589663 -0.40752426 -0.15484601
0003f0 97 a1 9b 3e c4 32 8e be 89 f2 4c be 05 36 00 3f
       0.3039672 -0.27773106 -0.20014395 0.5008243

network_body._body_endoder.seq_layers.0.bias f4 [128]
000000 18 a4 d1 3c e6 34 e1 3c 4c 6d e4 3c 33 e9 d0 3c
       0.025590941 0.027491044 0.027884148 0.025501823
000010 d4 1a e7 bb 1e f7 0a 3d 90 4a 9e 3c bd 36 4d 3c
       -0.0070527587 0.033927076 0.019322664 0.012525258
000020 07 c1 b9 3c 70 48 34 3b ce 4c f7 3c e8 6a 0e 3d
       0.02267505 0.0027508996 0.03018799 0.034769922
000030 b5 88 b5 3b f7 c7 8b bc 0a d4 97 bc 18 5a c9 3c
       0.0055399784 -0.017063124 -0.018533725 0.024579093
000040 43 0b 67 3c 03 b4 01 3d 14 d9 f2 bc 75 f9 ee bc
       0.014101806 0.031665813 -0.029644527 -0.029171685
000050 d7 89 f2 3b 00 ab ba 3c 92 83 cd 3c 6e 7c ac 3c
       0.0074016857 0.022786617 0.025087152 0.021055426
000060 64 7c 13 3d 6d 9b 05 3d eb 8d 01 3d 59 fd a9 3c
       0.0360073 0.03261893 0.031629484 0.020750688
000070 98 16 7f 3c 78 81 11 39 45 ed 24 3c 6c e6 9b bc
       0.015569352 0.00013876508 0.010066335 -0.019030772
000080 c1 69 be bc ad ba de 3c e9 50 23 bb 40 7e de 3c
       -0.023243787 0.027188623 -0.0024920052 0.02715981
000090 b9 3d cb 3c fc 02 25 bb 31 ed ef 3c ff 08 0f 3d
       0.024809705 -0.002517878 0.029287906 0.03492069
0000a0 ef ca eb 3c 3b a2 b9 bc ac 13 39 3b 12 fc 20 3c
       0.02878329 -0.022660365 0.0028240485 0.009825723
0000b0 fc 53 07 bd fc 29 d4 bc 5d 6d 91 3b 9e 00 db 3c
       -0.033039078 -0.025898926 0.004438086 0.026733693
0000c0 4a 54 93 3c 0a 5f b7 3c dd 3b ba 3c 69 9a 77 3c
       0.017984528 0.022384185 0.022733623 0.015112498
0000d0 cb ca 08 bd 9f cd 06 3d ca be 72 bc aa 94 e5 3c
       -0.033396523 0.03291094 -0.0148159955 0.02802499
0000e0 72 f9 ee bc ab 18 cd 3c c8 17 34 3c f9 5a f6 3c
       -0.02917168 0.025036177 0.010991998 0.030072676
0000f0 2e b5 23 3c 5f da 38 3c 16 b6 03 3b e2 72 f9 bb
       0.009991927 0.0112825325 0.0020097545 -0.007612572
000100 a4 91 a1 3c e2 3e e5 3c f0 fb c2 3c 7a 89 0d 3d
       0.019722767 0.027984086 0.023801774 0.034554936
000110 4f 00 d7 3c 17 54 ba bc 15 48 09 bd 41 80 ea 3b
       0.026245264 -0.022745175 -0.03351601 0.0071564023
000120 62 7f 35 bc 10 35 f6 3c df ba e9 3c fa 09 01 3d
       -0.011077734 0.030054599 0.02853149 0.031503655
000130 43 e0 ec 3c a3 83 63 3c 5a 7c bf 3c ed e2 bd bc
       0.02891553 0.013886365 0.023374725 -0.023179496
000140 54 91 a3 3c 9d e6 9d bc f3 39 09 3d b4 26 d1 bc
       0.019966759 -0.019275004 0.03350253 -0.02553115
000150 b7 65 ed ba 06 80 f6 3c 66 e3 57 3a 7d 6b 02 3d
       -0.0018111978 0.030090343 0.0008235484 0.03184079
000160 56 f0 a8 3b 5f 21 c3 3c 59 c4 08 3c 3c 9a 0a 3d
       0.0051556034 0.023819624 0.008347594 0.033838496
000170 34 93 54 bc 40 d9 e0 bc 8d eb b9 bc 26 f4 c3 3c
       -0.012974549 -0.027447343 -0.022695327 0.02392013
000180 eb de 92 bc 7d 71 c9 3c 15 76 35 3b 85 d0 6e 3c
       -0.017928561 0.024590248 0.002768879 0.014576082
000190 2d a0 7c bc 0e 3f fb bb 8b 8b 4b bb b2 ef 01 3d
       -0.015419048 -0.007667429 -0.0031058516 0.031722732
0001a0 a3 1c ec 3b 04 0f f8 3c f8 1c bb 3b 5b 52 08 3d
       0.007205562 0.030280598 0.0057102405 0.033281665
0001b0 9e b3 af 3c 73 29 0a 3d f8 a7 4b bc 28 47 69 39
       0.021447953 0.033730935 -0.012430184 0.0002224712
0001c0 c7 f6 ec 3c a7 94 3c 3c a8 51 eb 3c ab db 35 bc
       0.028926266 0.011510051 0.02872546 -0.011099736
0001d0 09 01 d9 3c da eb cd 3c 64 9e f4 3c 6a 39 0c 3d
       0.026489751 0.025136877 0.029860683 0.03423444
0001e0 1c 37 cf 3b 89 b0 59 3c 28 9c 60 3c 12 5f ab 3c
       0.006323708 0.013286718 0.013709106 0.020919356
0001f0 14 a3 53 3c 2e 98 88 3c 37 4d d2 3c c7 12 e5 3c
       0.012917299 0.016674127 0.025671585 0.027963055

network_body._body_endoder.seq_layers.2.weight f4 [128, 128]
000000 66 75 fe bc 82 ec 03 3d 61 97 2b 3e e6 6c 6d 3d
       -0.03106184 0.032207973 0.16756965 0.05796518
000010 3b 50 85 bd 82 07 1a 3d 32 93 ba bd 1c cc 6b 3d
       -0.06509443 0.037604816 -0.091101065 0.0575677
000020 b2 06 93 bd aa d7 16 3e d6 d8 06 be 5f 9c 1e 3d
       -0.071790114 0.14730707 -0.13168654 0.038723346
000030 70 7d b9 bd b1 5a 0a bc 07 76 42 bd c5 af f6 bc
       -0.090571284 -0.008444474 -0.04747584 -0.03011311
000040 be 47 6d be 43 9b 51 3e b0 9c d1 bd 06 45 6e bd
       -0.23171899 0.20469384 -0.10234964 -0.058171295
000050 ba 08 1f 3d e5 2f 09 3e 63 3c de 3d 28 38 05 3d
       0.03882668 0.13397177 0.108513616 0.032524258
000060 cd 0d 1e be ec 77 30 bd 65 dd 88 3e ac fa 97 3d
       -0.15434952 -0.043083116 0.2673141 0.07420859
000070 43 79 00 bd bf 97 36 bb fb c0 78 bc 25 d3 f8 bc
       -0.031365644 -0.0027861444 -0.015182729 -0.030374119
000080 65 42 c3 bd b8 8b 5d bd cf 42 b8 3c b8 c3 9e 3d
       -0.09534148 -0.054088324 0.022492794 0.07752174
000090 ea dd 74 bd 37 9c f1 bc 93 ba 8d 3d ee 57 04 3e
       -0.059781946 -0.029493434 0.06920352 0.12924168
0000a0 b9 fc 86 3d 29 ff e0 3d f6 32 38 bd 70 e9 66 3d
       0.06591172 0.10986168 -0.044970475 0.056374967
0000b0 2e eb 52 be ad 1b c0 3d 77 16 2f 3e e0 be 8f 3d
       -0.20597526 0.09380279 0.17098413 0.070188284
0000c0 49 3f 29 3d 97 e4 03 3e c3 5c 88 3d b8 7c 8d bd
       0.04132012 0.12880169 0.06658318 -0.06908554
0000d0 f5 4b 96 3d 78 a5 d0 bc 79 0f d4 3d e1 e8 ed 3d
       0.073387064 -0.025469527 0.10354514 0.11616684
0000e0 85 6c 0c be 29 7c f3 3d 41 83 52 3c de 75 40 3d
       -0.13713272 0.11888916 0.012848676 0.046987407
0000f0 1d 0a ac 3c c2 14 96 3d 5b 0f 16 3e 6d 73 85 bd
       0.021000916 0.07328178 0.14654295 -0.06516156
000100 55 90 29 be 41 33 0f 3e 31 0a 0f 3e dd ed 1d 3d
       -0.16558965 0.13984396 0.13968731 0.038556922
000110 c5 86 a6 bd e4 ad 92 3d 53 ee c7 bd f1 3e 13 3e
       -0.08131174 0.07162073 -0.097622536 0.14379479
000120 e5 73 52 be 96 84 bf bd 38 1b d7 bb ee 45 94 bd
       -0.20552023 -0.09351461 -0.006564524 -0.072399005
000130 f8 87 e7 3d 42 60 4a be e1 16 15 3e ff 29 e1 bd
       0.11305231 -0.19763282 0.14559509 -0.10994338
000140 a5 4c e9 bd 23 1b 1e be c1 d9 c4 3d c9 1a 08 be
       -0.11391572 -0.1544004 0.09611846 -0.13291468
000150 09 d2 56 3c eb 1f 4c 3c df 4e 11 3e de c3 13 3c
       0.0131116 0.012458782 0.14190243 0.009018866
000160 94 dd 1e 3d 3b 9d 07 3e e9 15 fa bc b3 c5 2b bd
       0.038785532 0.13243572 -0.030528026 -0.041936588
000170 bf 18 4f be ca be c8 bd c1 06 c9 3d f3 fc a1 3d
       -0.20224284 -0.09802015 0.09815741 0.07909574
000180 60 8c 1f 3d 3c 5d 9a 3c b4 64 f3 bd 3b 0b c1 bc
       0.03895223 0.018843286 -0.11884442 -0.023564925
000190 ea 02 30 3d 73 9b 98 bc a0 e9 b2 bd 43 15 a0 3c
       0.04297153 -0.018628811 -0.08735967 0.019541388
0001a0 7a 54 d5 bd c0 cb a9 bc 1b a2 cf 3d ff 44 02 3e
       -0.10416503 -0.020727038 0.10138341 0.12721632
0001b0 5f f2 35 3d f5 c4 d9 bd 46 9d f9 3c 02 13 f8 3d
       0.044420596 -0.1063327 0.030470502 0.121130005
0001c0 55 8e ae 3d b4 06 8a bd 40 b0 0b 3b 55 ef 8a bd
       0.085232414 -0.0673956 0.002131477 -0.0678393
0001d0 8d e5 35 3d 82 e4 0e bd af a6 68 3e 94 5c 0f 3d
       0.04440837 -0.03488589 0.22719835 0.0350004
0001e0 9c 42 14 3e 07 69 ed bc b0 bd b1 bd b3 c8 18 3d
       0.14478534 -0.028980745 -0.08678758 0.037300777
0001f0 1e 03 12 3e 34 60 20 3e 01 c0 2d 3d 3a 9f 89 bd
       0.14259002 0.15661699 0.042419437 -0.06719823
000200 74 2a a2 3d b2 bb 03 3e 66 63 14 3d 48 ee 97 3c
       0.079182535 0.12864569 0.036227606 0.018546239
000210 94 5e 49 3c 41 df 35 3d e7 44 85 3d a1 be 20 3d
       0.012290616 0.044402365 0.06507283 0.039244298
000220 c4 d0 85 bd c7 02 38 3d 36 8d f5 bc 86 39 07 3d
       -0.065339595 0.044924524 -0.029974561 0.033013843
000230 5a 62 91 bc 1a 76 b3 3d 95 4e 98 3d ee 31 ee bc
       -0.017747093 0.087627605 0.07436863 -0.029076543
000240 70 7b e6 3d 52 ae 2d 3d aa e8 34 3d d7 58 84 bc
       0.112540126 0.042402573 0.0441672 -0.016155643
000250 5f b1 70 be c3 19 dd bd 8d 0e 16 3d 9d fe 4c 3d
       -0.23505162 -0.10795929 0.03663497 0.050047506
000260 3e a0 8e 3d 6f 49 7a bc 1f 4e 97 3d ee 01 b6 3d
       0.069641575 -0.015276297 0.07387947 0.08887087
000270 09 e8 29 3d d7 c2 46 3d 7f 0a be bd c2 23 6d bd
       0.04148105 0.048525658 -0.09279346 -0.05789543
000280 2a 45 d7 bc 59 52 29 3d a5 b2 13 3e 79 ab e3 bc
       -0.026278097 0.0413383 0.14423616 -0.027791725
000290 55 8a 0f be 95 99 5a bd a8 16 77 3c 1d 03 ce bd
       -0.14017613 -0.053369123 0.015081085 -0.100591876
0002a0 6e c9 9d bd e9 ee c9 3d 24 e6 1f 3e 5e c9 f2 3c
       -0.07704435 0.098600216 0.15615135 0.029637035
0002b0 8a e8 30 3e d7 8d 3b 3d 1d 2f 43 bd ca 82 b4 bd
       0.17276207 0.045789566 -0.047652353 -0.088140085
0002c0 56 5c 13 3c 34 cd 64 3d b1 eb ed 3d 4d 54 e7 bd
       0.008994183 0.05585976 0.1161722 -0.11295376
0002d0 e5 b7 e6 3b ba 39 b2 3c f7 05 70 3d bc e8 a2 3d
       0.007040965 0.021756042 0.05859944 0.07954547
0002e0 f5 4a ae bd f8 46 a2 bd 1d d8 b8 bd b4 72 02 3c
       -0.08510391 -0.079236925 -0.09025595 0.007961918
0002f0 97 5f 0b bd e1 70 7d 3d 00 84 f9 3b 58 50 8a 3d
       -0.03402671 0.061875228 0.0076146126 0.067536056
000300 b7 46 9c 3c 74 a9 6a 3e 80 81 b4 3d 74 9b d6 bd
       0.019076688 0.22916204 0.08813763 -0.10478869
000310 94 f6 f4 3d f9 e8 32 bc 61 d5 34 be 69 ad fd bd
       0.119610935 -0.010919803 -0.17659523 -0.12386591
000320 7a 5e 48 bc 3e 2a 46 3d c9 fe 3f 3d 0f f3 ef 3a
       -0.012229556 0.04838013 0.04687384 0.001830669
000330 e6 23 dc 3d aa 80 3a bd c8 32 aa 3c ac 10 13 3d
       0.107490346 -0.04553286 0.020776168 0.03590457
000340 63 65 f4 3d c2 95 f3 bd f9 67 05 be 42 71 59 bd
       0.119334005 -0.118937984 -0.13027944 -0.053086527
000350 c7 7a 9f bd 10 1e 72 3d 29 37 06 bd 30 13 e5 bc
       -0.0778709 0.0591107 -0.03276745 -0.02796325
000360 ef 11 d9 bb c0 c5 aa bd 13 b7 93 3c 66 a4 07 3e
       -0.0066244523 -0.08338499 0.018031633 0.13246307
000370 a9 4e b4 bc 09 d7 f9 bd 83 a1 ce 3c f1 11 00 3e
       -0.022010164 -0.12199218 0.0252235 0.12506844
000380 c2 bd c3 3c 4d 72 a7 3c f0 73 b4 bd 3b d9 04 be
       0.023894195 0.020440245 -0.08811176 -0.12973492
000390 55 7c ca bd 9a cb f7 bd ca b1 b8 bd 2b 12 cf 3d
       -0.09886996 -0.12099381 -0.090182856 0.10110887
0003a0 75 56 69 bd f2 99 5e 3d 2b 66 d6 bc b9 fc a8 3c
       -0.056967217 0.054346032 -0.026171764 0.02062832
0003b0 ec d3 eb 3a 3e a9 09 be ca 47 82 bd 68 6c 5b 3d
       0.0017992235 -0.13443467 -0.06361349 0.05357018
0003c0 37 64 8f bc dc 79 7b bd 8d fb 9f bb 88 b4 67 3d
       -0.01750384 -0.06139551 -0.004882282 0.056568652
0003d0 36 26 41 3d 32 ad 99 3d 04 bf 81 3c 99 3e 5e 3c
       0.04715558 0.075037375 0.015838154 0.013564729
0003e0 e5 f8 9b 3d 52 21 e9 3d af 96 f4 bc a9 97 40 3e
       0.07615832 0.113833085 -0.029857008 0.18807854
0003f0 6c 79 fe bc e1 49 3c 3e 92 aa ca bd ae 3a 00 bd
       -0.031063758 0.18387558 -0.09895815 -0.03130596

network_body._body_endoder.seq_layers.2.bias f4 [128]
000000 a6 3c 67 3c 96 bf a9 3c 0d 5f 0e bc 84 d8 30 bc
       0.014113581 0.020721238 -0.008689654 -0.010793809
000010 00 7f 78 bc 8b 17 56 3c f4 cb b6 bc 1c 5f a0 bb
       -0.015166998 0.0130671365 -0.02231405 -0.0048941504
000020 4c a9 18 3a aa 02 55 3b d2 9c da 3c 1d 8d bc 3b
       0.0005823567 0.0032502809 0.026686106 0.0057541267
000030 c3 08 db 3c 17 41 f4 3c e2 35 c7 3c 19 0d ed bc
       0.026737576 0.029816194 0.024317686 -0.02893691
000040 9b aa db 3c 5f 72 ff 3c b0 7a 95 bb 79 6a 14 3d
       0.02681475 0.031182466 -0.0045617446 0.036234353
000050 cd 12 db bc 64 fa 8c 3c bb 2b 52 3c d5 a9 a5 3c
       -0.026742363 0.01720924 0.012827809 0.020222584
000060 b7 8a b5 bc 37 93 a4 bc 70 8f d5 bc 36 35 ad bc
       -0.022160871 -0.020089729 -0.026069373 -0.021143537
000070 04 ef 2c bc e1 dc 09 3d 68 90 90 bc 65 8b 97 bb
       -0.010555033 0.033657912 -0.017646983 -0.0046247714
000080 cf 1a d3 bc e7 b9 f7 bc 4e 8f e8 3c bf 89 be bc
       -0.02576962 -0.030240012 0.028388645 -0.023259042
000090 ce e2 e2 3c 85 6d 32 3c a7 87 67 bc b3 d2 a6 3c
       0.02769604 0.010890369 -0.014131463 0.020364141
0000a0 d4 b2 10 3d 1c ae b9 3c dd 18 b9 3c c0 5a 8f 3c
       0.035326794 0.02266603 0.022594864 0.017499328
0000b0 9c d0 57 3c f1 38 0c 3d 62 70 cc bc 05 23 6d bc
       0.013172295 0.03423399 -0.024955932 -0.014473681
0000c0 cc de ab bc ff 22 de 3c 1e db e9 bc f3 50 9d 3c
       -0.020980261 0.027116297 -0.028546866 0.019203639
0000d0 3d cf bb bb 52 ee 37 bc ba 7b dd 3c 81 14 60 3c
       -0.005731492 -0.011226254 0.027036536 0.0136767635
0000e0 ee 51 e2 3c ba ec 24 bc f9 6c 64 bb b7 08 86 3c
       0.027626958 -0.010066206 -0.0034854992 0.016361577
0000f0 0e 2f 29 bc 57 27 09 3d 47 1a 2e bc eb bc f1 3c
       -0.01032616 0.033484783 -0.010626382 0.029509028
000100 c0 5a 85 bc e7 5e 01 3d c2 e2 e7 3c db 6b 09 3d
       -0.016278625 0.031584647 0.028306369 0.033550125
000110 7d 56 ab bc 86 68 b9 3a 75 4c a4 bc 2b b1 bf 3c
       -0.020915264 0.001414553 -0.020055989 0.02339991
000120 6b c8 b6 bc 01 cd 6c 3c a2 05 eb 3c 94 57 eb 3c
       -0.022312364 0.014453174 0.02868921 0.028728284
000130 b4 5c b6 bc aa bf e0 3c 7c b9 4d 3c 6f b1 d4 bc
       -0.022261001 0.027435143 0.01255643 -0.025963513
000140 84 3c 69 bc 4e 7d 1a 3c 74 4f a4 3c 4b 30 6f bc
       -0.014235619 0.009429289 0.020057417 -0.014598916
000150 18 94 79 bc e5 f5 f2 3c 0a 16 2e bc 0e 41 e3 3b
       -0.015233062 0.029658267 -0.010625372 0.0069352454
000160 44 0d b0 3c 1c 43 e4 bc 86 16 57 bc f9 d6 04 3d
       0.0214907 -0.027864031 -0.013127929 0.032431576
000170 3f e6 9a bc e7 2d a9 3c 97 96 93 3c f5 b9 e7 bc
       -0.018908618 0.02065177 0.018016143 -0.028286913
000180 9b f3 c8 bc 6d 52 49 bc 89 75 ac 3c e4 f1 a6 3c
       -0.024530223 -0.012287718 0.021052139 0.020379014
000190 4e 5c 80 3c eb 6b a5 bb 20 81 9a 3c c5 38 ed 3c
       0.015669014 -0.005048265 0.0188604 0.028957734
0001a0 77 96 fb bb 7b d8 76 3c 03 52 f2 3c 64 8c 15 bc
       -0.007677849 0.015066261 0.029580122 -0.00912771
0001b0 9f 78 a4 3c 74 ac bb 3b e1 0f cd bc a0 ed 90 3c
       0.020077048 0.005727345 -0.025031986 0.017691433
0001c0 c9 17 e4 bb b6 ba af bc f8 0e 23 3b 75 c0 cc 3c
       -0.006960843 -0.021451335 0.0024880748 0.024994114
0001d0 88 42 c1 3c 6a 84 1b bc 14 93 83 3c 9a 51 b0 3c
       0.023591295 -0.009492019 0.016061343 0.021523286
0001e0 30 be 08 3d 80 0c e4 ba 7c 97 d7 bc 71 21 dd 3c
       0.033384502 -0.0017398745 -0.02631735 0.026993485
0001f0 f1 93 43 bc 43 a5 c6 3c 01 15 82 3b 26 f4 b7 3a
       -0.011937127 0.024248725 0.003969789 0.0014034554

action_model._discrete_distribution.branches.0.weight f4 [5, 128]
000000 34 67 4d bc c4 98 ee 39 91 76 f3 3b 6d ff ec 3c
       -0.012536813 0.00045508717 0.0074299057 0.02893039
000010 4a 2b 73 3c 56 88 35 bc 43 33 e3 3b 2e 94 ac bc
       0.014841864 -0.011079868 0.006933601 -0.021066751
000020 fd e4 8b bc 4b 3a f0 ba ed 1d bb bc 68 16 39 3c
       -0.017076964 -0.001832792 -0.022841418 0.011296846
000030 b2 8e f2 b9 d8 04 de bb 4b df 98 bb f7 23 da 3b
       -0.00046264153 -0.0067754798 -0.0046652905 0.0066571194
000040 ec d0 86 39 10 cc 50 bc ab f2 69 3c d5 cf a4 bb
       0.0002571413 -0.012743965 0.014279048 -0.0050296583
000050 c3 1b 6b 3c e2 a0 e3 bc 16 ca 69 3c 79 d7 8a 3b
       0.014349881 -0.027786676 0.014269372 0.004237112
000060 9d 24 d7 3b 5e 9c 1c 3b 23 40 30 3c 97 9f a9 3c
       0.006565644 0.0023896913 0.010757479 0.020705981
000070 94 e8 31 3b 4c 1f 29 bc 76 e3 2f 3c d2 74 16 bb
       0.0027146684 -0.010322403 0.010735383 -0.0022957814
000080 1b c5 73 ba 5d 84 43 3a 68 e4 56 ba a4 fe a9 bb
       -0.00092990854 0.00074583833 -0.00081974873 -0.005187826
000090 93 43 4b bb 0f cc 3d bc da fe 64 39 c5 d7 03 3c
       -0.003101562 -0.011584296 0.00021838714 0.008047049
0000a0 f4 b9 a1 b9 86 47 5d bc 01 37 c1 3b 13 d5 f4 bb
       -0.0003084686 -0.013505822 0.0058964496 -0.0074716895
0000b0 e0 7e 71 bc 89 9e 62 3c f7 6a 04 3c e1 9e 95 ba
       -0.014739722 0.013831743 0.008082143 -0.0011415147
0000c0 bf 0f a1 3c 47 a4 8f bb bc 6a 65 3b 29 03 ed bb
       0.019660829 -0.004383597 0.0035006246 -0.0072330427
0000d0 ce a7 1c bb 94 3a 86 bc 62 68 f5 bb 47 ec ad 3a
       -0.002390373 -0.016385354 -0.00748925 0.0013269269
0000e0 d6 71 4f 3c d6 84 11 bb b3 76 94 bb f3 ac 25 bc
       0.012661418 -0.002220442 -0.0045307516 -0.010112035
0000f0 95 b0 89 3c 2f 0c 0d bc 6e 56 2b 3c 13 96 17 3a
       0.016807834 -0.008608862 0.010457618 0.00057825557
000100 c6 1a 0c bb 33 4a ab b9 82 d9 27 bc a9 79 2f bb
       -0.0021378263 -0.00032670944 -0.010244729 -0.0026775396
000110 c4 39 3e 3b 5d d2 80 3b 72 40 fc 3b e1 ed 53 bc
       0.002902613 0.0039313273 0.007698112 -0.012935133
000120 bb 29 04 3c ad 1f d3 3a cf 56 ec 3b 53 4e d5 ba
       0.00806659 0.0016107463 0.007212497 -0.0016273953
000130 be c2 e8 ba bb 97 94 bb 91 87 f4 bb f4 e1 9c 3b
       -0.0017758233 -0.0045346892 -0.00746245 0.004787678
000140 d5 76 27 bc 94 17 fe 3b bb 8f b1 bb 3e f6 72 bc
       -0.010221203 0.0077542756 -0.0054187453 -0.0148292165
000150 5d d8 9e 3b ae 5d 84 3b 8a e6 c9 3b ca ae c1 3a
       0.00484757 0.004039488 0.0061615156 0.0014776823
000160 da 5a c8 3b 1b 53 51 3c 1f 67 a3 bb 3d ee b7 ba
       0.006114346 0.012776162 -0.004986658 -0.0014032793
000170 5c b8 47 3c 15 5c 3c bc 8d 33 db bb 10 46 3a bb
       0.012189951 -0.011496563 -0.006689495 -0.0028423108
000180 15 ab 10 3c d1 c4 c2 3b 65 b6 47 3b 1c 8e 52 bc
       0.008829852 0.0059438725 0.0030473706 -0.012851264
000190 2c b7 c4 bb bd 6d dd 3a 64 ad 6d bb d9 05 36 3b
       -0.006003281 0.0016893666 -0.003626668 0.0027774482
0001a0 e7 15 3c 3c 3d bd 0d bc f3 02 57 3b cc a5 83 3b
       0.011479831 -0.008651075 0.0032808154 0.0040175673
0001b0 da fe 58 3c 7a 98 84 bc 7f 98 99 ba e4 c3 ad bb
       0.013244355 -0.016185988 -0.0011718421 -0.005302893
0001c0 df 16 24 3c 8b 3b ee b8 50 a1 2a 3c c6 a3 52 3b
       0.0100152185 -0.00011359815 0.010414436 0.0032141074
0001d0 6d bb 71 bc 1a c4 65 bc 1a 30 38 3c 0b 33 24 3a
       -0.014754158 -0.014023805 0.011241937 0.00062637095
0001e0 f0 2a 1e 3b 24 e6 3d 3c 19 d1 67 bc 5a aa fb 3b
       0.002413448 0.011590514 -0.014148974 0.0076802196
0001f0 0f f3 8f 3c a6 e0 7f bb 78 97 ae 3b c9 bf 88 3c
       0.017571954 -0.0039043813 0.005328115 0.016693013
000200 0a 15 a1 bc b8 51 29 bd eb 6c 84 bc 46 9e 8c 3c
       -0.019663353 -0.0413377 -0.016165217 0.017165314
000210 aa 7f 8c 3c ce 11 19 bc 95 87 a4 3b 38 15 ea 3b
       0.017150719 -0.009342624 0.0050210455 0.0071436428
000220 0d 07 41 bc e8 1e f6 3b 94 53 92 bc 5b ea 48 bc
       -0.011781466 0.0075110085 -0.017862119 -0.012262906
000230 47 9d 03 3c f9 f7 22 bc 78 91 d0 bc 6f 79 05 3d
       0.008033103 -0.009946817 -0.02545999 0.03258651
000240 97 1a e5 ba 1d 85 fa bc c1 42 3e ba 84 d5 ce bc
       -0.0017479238 -0.030581051 -0.0007257872 -0.025248297
000250 50 36 ec 3c 41 12 be bc 77 ff ff ba f5 74 30 bc
       0.028834492 -0.023202064 -0.001953109 -0.010770072
000260 54 f2 62 3c f7 77 7c 3c 40 51 bd 3c 98 01 d6 3c
       0.013851721 0.015409461 0.023110032 0.026123807
000270 9c cc 11 b9 66 99 15 bd e6 70 c6 3c 4a 3c 13 3c
       -0.000139045 -0.036523245 0.024223756 0.008986542
000280 32 1f 40 3c 54 b9 61 3c 28 45 2a bd 39 60 d1 3c
       0.011726188 0.013777096 -0.04156986 0.025558578
000290 3b 10 53 bd be 19 09 bc da c0 1e 3c 99 ba 5c bc
       -0.05152915 -0.008367954 0.009689534 -0.013472223
0002a0 be 92 76 bc 39 50 ec bc d1 42 9e bc 23 5a b6 bc
       -0.0150496345 -0.028846847 -0.01931897 -0.022259777
0002b0 6a 9b 53 bc 27 d5 85 bc e3 16 91 3c aa 32 ab 3c
       -0.012915472 -0.01633699 0.017711109 0.020898182
0002c0 0e 44 f9 39 e9 d4 8e bc 92 83 f7 3b d3 66 58 bc
       0.00047543686 -0.017435508 0.007553526 -0.013208109
0002d0 7f e0 3b 3a 36 ff e6 3b 45 94 c9 bc 8b f7 24 bc
       0.00071669364 0.0070494665 -0.024606833 -0.0100687845
0002e0 32 fd 97 bc aa db 33 bc 1a 19 8d 3c 95 9d d7 ba
       -0.01855335 -0.010977665 0.017223883 -0.0016450161
0002f0 af 8b e2 3b 7f 66 db bc 95 78 21 bc d5 3a c2 bc
       0.0069136242 -0.026782272 -0.009855409 -0.023709694
000300 76 4f 97 3c 23 b1 85 bc 7c c9 fd bc 84 54 e4 bc
       0.018470507 -0.016319817 -0.030979864 -0.027872331
000310 3a 46 ed 3c 66 62 d3 3b b5 4b 01 3d a7 ca 9c bc
       0.02896415 0.006450939 0.03156634 -0.0191396
000320 b9 f2 e3 3c 41 50 80 bc 4a b8 ed bc 70 97 f8 bc
       0.0278257 -0.015663268 -0.02901854 -0.030345649
000330 b8 72 a4 3b ca 3c 4f bc bc a2 fb bb d6 da a0 3c
       0.0050185584 -0.012648771 -0.0076793116 0.0196356
000340 73 be 9d 3a 16 f5 dd bc 4c b4 bf bc 33 29 83 bc
       0.0012034908 -0.027094405 -0.023401402 -0.016010856
000350 ea 66 6e 3c b2 ac 85 bc 63 af e9 3a ca 3e 59 3c
       0.014550904 -0.0163177 0.0017828759 0.013259599
000360 cd 98 b3 bc a7 12 cc 3c ad a5 ad 3c 7b 1d be bc
       -0.021923447 0.024911238 0.021197164 -0.023207417
000370 da f0 8b 3a 7c 00 e7 bc 01 87 a1 bb 55 38 58 3c
       0.0010676638 -0.028198473 -0.004929424 0.013197024
000380 6d 01 87 3c f4 81 8c 3c 4f 25 7f bc 73 d7 fe bc
       0.016480172 0.01715181 -0.01557286 -0.031108594
000390 bd 29 30 bc 71 78 20 3b 4a 04 20 bc 70 50 9b bc
       -0.010752139 0.0024485851 -0.009766648 -0.018959254
0003a0 6a 78 6a 3b fd 8e b1 bb 7b 1d 0d bd 4b a0 c4 ba
       0.0035777339 -0.005418657 -0.034451943 -0.0015001384
0003b0 c5 01 23 bc 50 c8 b3 3c 78 c3 ce 3b af 63 9d bc
       -0.009949152 0.021946102 0.006309923 -0.019212572
0003c0 2e fe 09 bc 50 b3 13 3c ab dd 37 bc 2a 75 f0 bc
       -0.008422418 0.009014919 -0.011222283 -0.029352743
0003d0 b9 9a 07 bd f6 6b 8d 3c bd df 5e bc d2 82 bd bc
       -0.03310654 0.017263394 -0.013603148 -0.023133669
0003e0 98 f3 dc bc 30 30 70 3c 83 f3 28 3d 1d 03 f2 bc
       -0.026971623 0.014659926 0.041247856 -0.0295425
0003f0 73 fb b7 3c 57 b1 4e bc 78 3d 56 bc 56 fd b8 3b
       0.022458768 -0.012615523 -0.013076179 0.0056454344

action_model._discrete_distribution.branches.0.bias f4 [5]
000000 e5 7f 8f bb 17 cb 98 bc 48 46 a7 3c 75 ea b6 bc
       -0.00437926 -0.018651528 0.020419255 -0.022328595
000010 b9 d8 9f 3c
       0.019512521
