Scenes/ImprovedGridWorld2D/results/ppo-memory-32-curriculum/DroneGrid2D/DroneGrid2D-299913.onnx (onnx, 276723 bytes, 9 tensors)

network_body._body_endoder.seq_layers.0.weight f4 [128, 6]
00000000: 9539 663e 2dda f43d 8b9f bf3d cf8b 80bf
00000010: 3aee 0e3e 4b25 0abf 38a2 a2be 5b0d 3a3e
00000020: 3685 083f bbc6 47bf 359b 94bf 22b0 16bf
00000030: 66d0 d9be 8f80 5fbd 70d4 653e 5636 e23e
00000040: 2378 713e b80b bc3e f1e5 2ebf fcea c13e
00000050: 7cb2 fa3e 57af febd 71c3 5c3f 8876 ebbd
00000060: d0fa e3bd cded f63d 38d3 e23e e2f7 81bf
00000070: bdd3 33be 8cc0 e4be 5d5d fabe e2fe 3dbd
00000080: 7fec 0d3f 2c2b 48be 9163 893e a417 a5be
00000090: 7316 023f 2780 c2be e917 b13e 4dc2 073e
000000a0: fee1 03bf 8690 ee3e 5433 44bf 7b1e f2be
000000b0: 58f6 7b3e 4fd2 bc3d cadb cb3e 8252 b03e
000000c0: 3f5a 2d3e 5528 07bf 64a4 46bb 953c d8bd
000000d0: 8f46 1abf edb1 a0be 4486 a4be 504c 64bd
000000e0: 8559 a9be d296 68be eebb f03e d977 e7be
000000f0: 3242 803e c9ca 1fbe 5379 86be e348 1ebd
00000100: 9c3c 15be b522 2dbf 8a2c 06be 80fe 65be
00000110: aacf 1abe fa40 64be 89a8 cf3e a633 8d3e
00000120: fe27 7f3e 3fd2 2fbe 7d88 46be 7399 c9be
00000130: e078 203f 9e52 0f3e 61ae 313e e492 f03d
00000140: f694 e2bd 7784 a7be 2f5b 963d 61ae bdbe
00000150: 08b4 74be b37d 35bf 50e8 19bf 24ff 81be
00000160: faa7 3b3e 4a38 203f e060 4cbe cf43 02bf
00000170: 597c 1a3f d79b 243e 565b bf3e 4d2b 57bf
00000180: 23fb 813e edde ab3e ec8d 253f 8a4d 973e
00000190: 78bb c93e c081 4f3e 7a0d 48bf 854f c2bd
000001a0: 7b20 39bf 56a5 50bd f912 bf3d 7c04 583f
000001b0: f8c2 603f 696a 14bf 522e 4a3f 39d1 85bd
000001c0: a53f 433e bdac 863e 419e 7bbe 6073 6e3f
000001d0: d023 9a3d 8739 653e 54d9 62bf 3b9e 973d
000001e0: 2616 c5be 3827 82bd bd2b 8bbe b934 42be
000001f0: ac1d bd3d 2a89 373e f040 4d3f 133b 0d3e
00000200: 2980 8b3f 9b69 4bbd 4aaa 44be 3134 a7bd
00000210: 114f a2bd d881 713c 01ee de3d 0c24 87be
00000220: 22c8 3c3f 2561 113e f7f7 f53e b6ba 1dbe
00000230: 1371 1ebe 0d69 b1bd 162e 0a3f fec8 31bf
00000240: ea30 e13e c109 033f f0bf 0bbf d255 083f
00000250: c194 22be 400d 88bf 3a63 4bbf 3b3c 64be
00000260: 8b57 453f f5d3 153e fc9f b23c 3034 6fbc
00000270: 1a5f f73e 73b2 acbe 387d 513e 1bf0 82bf
00000280: 1549 1cbe d9a8 303f 1338 953e dec9 3c3e
00000290: 45b6 063e 6c43 a6be 9181 dbbd 1e27 633f
000002a0: 9cac 183f b230 983e c46a f6bd 3fa4 d2be
000002b0: b560 8fbe 1260 303e 2cf4 423e 287a 2f3e
000002c0: bc0c 2fbf 9800 0dbf 302a 1abf e4de d2be
000002d0: 4f1c 23bd e63b e6bd 77a4 17bf 799b c13d
000002e0: dcf7 01bf f126 03bd 4690 9c3e 11f0 cc3c
000002f0: 562e 8b3e 786f cebe 9658 e43e a032 303e
00000300: 1751 b93d 093f 40bf c9e8 3dbd 2a8a 903e
00000310: 183f 0c3e c1c1 e63d 04ef 76be 4933 84be
00000320: 4a18 0a3e bab4 813f e9a7 853f 6d6b 8fbe
00000330: 42ce 223e 644e 013f 87d3 9fbe c4c1 553d
00000340: 7fb0 2b3f c478 fcbe 43d7 2abf 4fdd a3be
00000350: 3b3d 9ebe a0e0 b93d 165e 58be e1d0 5dbf
00000360: d5d9 89bc 63bc 19bf 1d04 fbbd 1042 ae3c
00000370: e7fe 643c 3b51 b43d 62e8 41be 3794 273c
00000380: a0ac f6be b4b3 12bf 5930 893e 941d 0bbf
00000390: 393f 09be e38a 423f 1b99 98bd dbc7 a73e
000003a0: 2746 cebe bd2b bebd a320 ebbd eb05 093f
000003b0: 7735 983c 95dd dd3e 2c52 0fbf 25e5 4f3d
000003c0: 0f87 8a3d 2ec9 d8be 7c7f 4dbe 7c26 983f
000003d0: bb09 113e 44d2 a5be 8124 b9be 927a 163f
000003e0: c018 fdbe b8dd a3be 0143 053f c6cc 293f
000003f0: 7604 dbbc 9825 b03e 5454 64be 42e7 a03e
0.22482903 0.11955676 0.09356602 -1.0042666 0.13958064 -0.53963155 -0.31764388 0.18169157
0.53328264 -0.78037614 -1.1609865 -0.5886251 -0.42541808 -0.054565962 0.2244432 0.4418208
0.23580985 0.3672769 -0.6831961 0.3787459 0.48964298 -0.12435787 0.8623572 -0.114972174
-0.11131823 0.12057076 0.44301772 -1.0153773 -0.1756124 -0.44678152 -0.48899356 -0.046385653
0.5543899 -0.19547719 0.26833776 -0.322446 0.50815505 -0.37988397 0.34588555 0.13257714
-0.5151671 0.46594638 -0.7664082 -0.4728888 0.24605691 0.09219801 0.39816123 0.34437948
0.16928957 -0.52795917 -0.0030310387 -0.1055843 -0.60263914 -0.31385747 -0.32133687 -0.05573684
-0.3307611 -0.22713783 0.4701838 -0.45208624 0.25050503 -0.156047 -0.26264438 -0.03864373
-0.14573902 -0.67631084 -0.13102928 -0.22460365 -0.1511828 -0.22290412 0.4055827 0.27578467
0.249176 -0.17170046 -0.19388004 -0.39374885 0.6268444 0.1399636 0.17351677 0.11746767
-0.11063568 -0.3271825 0.07341611 -0.37047103 -0.23896801 -0.70894927 -0.60120106 -0.2538997
0.18325797 0.6258589 -0.1995883 -0.5088472 0.6034599 0.16075073 0.3737437 -0.84050447
0.25386915 0.33568516 0.6466968 0.29551345 0.3940084 0.2026434 -0.78145564 -0.094878234
-0.72315186 -0.050938927 0.093297906 0.8438184 0.877975 -0.5797487 0.7897693 -0.06534047
0.19067247 0.26303664 -0.24572088 0.931448 0.07526362 0.22385226 -0.88612866 0.07403227
-0.3849346 -0.06355137 -0.27181807 -0.18965425 0.09234175 0.17923418 0.8017721 0.13792066
1.0898486 -0.04966126 -0.19205585 -0.081642516 -0.07925237 0.01474043 0.108852394 -0.2639469
0.7374288 0.14197214 0.48040745 -0.15403256 -0.15472822 -0.08662615 0.5397657 -0.69447315
0.4398263 0.5118676 -0.5458975 0.5325595 -0.15877058 -1.0629044 -0.7944828 -0.22288601
0.77086705 0.14631636 0.021804802 -0.014599845 0.48314744 -0.33729896 0.20457923 -1.0229524
-0.15262254 0.6900764 0.29144344 0.18436381 0.13155468 -0.32473314 -0.10718072 0.88731563
0.5963838 0.29724652 -0.12032083 -0.41140935 -0.2800347 0.17224148 0.19038457 0.17136443
-0.68378806 -0.5507903 -0.60220623 -0.41185677 -0.03982192 -0.112418935 -0.5923533 0.09453482
-0.5076883 -0.03201956 0.30578822 0.025016816 0.2718379 -0.4031942 0.44598836 0.17206812
0.0904867 -0.75096184 -0.04636458 0.2823041 0.13695943 0.112674244 -0.24114615 -0.25820377
0.13485828 1.0133278 1.0441867 -0.28011647 0.15898994 0.5051024 -0.3121607 0.052186742
0.67066187 -0.49310887 -0.66734713 -0.32004783 -0.3090609 0.09076047 -0.21129641 -0.8664685
-0.016827503 -0.6005308 -0.12256644 0.021271735 0.013976789 0.08804556 -0.18936303 0.010228208
-0.48178577 -0.57305455 0.267947 -0.5434201 -0.13403024 0.75993174 -0.074510776 0.32769665
-0.40287897 -0.09285686 -0.11480834 0.53524655 0.018580182 0.43333116 -0.5598476 0.05075564
0.06764042 -0.42340988 -0.20068163 1.1886744 0.14163868 -0.32386982 -0.36160663 0.5878078
-0.49432945 -0.32005095 0.52055365 0.66328084 -0.026735526 0.34403682 -0.22297794 0.31426436

network_body._body_endoder.seq_layers.0.bias f4 [128]
00000000: 9dc2 813c 655f 4fbb 1b1b e2bc 4057 8a3c
00000010: c500 0d3c a633 d9bc 4134 de3b 374e 9b3c
00000020: d3f5 fe3c 92af 893c c4fc b63c 4341 ef3c
00000030: 5817 cd3b 8ecd 773c 3b6f 91bc 975d 033c
00000040: 04cc c3bc 6e97 b239 37af 1e3c 7c83 da3c
00000050: 96ec e6bc ece2 8e3d d81b ebbc 1229 a53c
00000060: 828f 863c 6eee b63c aff6 a0bb eca2 b13c
00000070: 2328 363c b9d6 143d 6861 e53c cb70 1c3a
00000080: bc94 1a3d 0ac2 793b 75bd 123a dade 4c3b
00000090: dfa7 80bc 53d8 8e3c 2ee4 f23b ecfa 143d
000000a0: 2944 053d e5ad c73c 9d3e 733c 1c8c 213d
000000b0: 891e 6fbc 67d4 0d3d b09a 3b3c 9760 ce3c
000000c0: c483 0a3a 33f8 1e3d 89dc 7f3c 744a ee3c
000000d0: e9eb 8a3c 6a5b 74bc c6d9 2f3d f615 213c
000000e0: 2321 d63c 5f4e 9cba e454 483c 7cd9 8b3c
000000f0: da7f 553c 12b0 423c 0265 793c 31bc 9bba
00000100: d4ee 533c 9359 003d f6b3 603d 0deb a43c
00000110: 85bf 8fbc 5b1b ae3c b9fe fcba fc4d 1e3d
00000120: e489 26bb f448 82bb 460b 9f3c 54a4 7a3d
00000130: 01b7 733c e4b7 7a3c b25e 313c ff00 433c
00000140: 3a5c b8bb 1bc7 e53b bdc3 3c3d 6227 0f3d
00000150: 7df2 e13c 06d0 6ebc 96d9 a93c e2ed b13c
00000160: d67b 2c3c f6ea 43b8 61cb 8b3b c55b 2d3c
00000170: e03e 193c 0e46 13bd 50ad efbb a1ce b03b
00000180: 9d0d 7cbd 37fb 473d 3637 a5bb 2d44 9b3c
00000190: 20bd 173d 34ef 183d 3e4b c73c 3144 8b3c
000001a0: 229f 3d3c 0950 8f3c d67c 16bd 107c 133b
000001b0: df7d 033c 7c1b 82bb 7d64 713c d698 983c
000001c0: aa28 1e3c 5b41 2a3c 8129 a53c c794 f83c
000001d0: 8aee 123d 6e25 5c3c ebe9 003c 1a0b a4bc
000001e0: 9a5a 8fbc a9c7 0d3b 7eca aab9 ad8c af3c
000001f0: 091a 55ba bb48 eab9 5de7 ee3c a1dc 993c
0.01583987 -0.0031642553 -0.027600816 0.016887307 0.0086061405 -0.026513886 0.0067811315 0.018958194
0.031123077 0.016807351 0.022337325 0.029205924 0.0062588863 0.015124692 -0.017753234 0.008017919
-0.023900993 0.0003406363 0.009685329 0.026674025 -0.028188985 0.06976876 -0.0286998 0.020161185
0.016425852 0.022330489 -0.0049122195 0.021684133 0.011117968 0.036337588 0.028000548 0.0005967735
0.0377395 0.003811004 0.00055976893 0.003126076 -0.015705047 0.017437136 0.007412455 0.03637211
0.032535706 0.024374912 0.014846471 0.03944026 -0.0145946825 0.03462639 0.011450455 0.025192542
0.0005283917 0.03881092 0.0156165445 0.029088236 0.016958194 -0.014914373 0.042932294 0.009831896
0.026138848 -0.0011925212 0.012227271 0.017071478 0.0130309705 0.011882799 0.015221836 -0.0011881647
0.012935359 0.031335425 0.054859124 0.020131612 -0.017547378 0.021253278 -0.0019301987 0.03864859
-0.002541178 -0.003975982 0.019414555 0.06119187 0.0148751745 0.015302632 0.0108258 0.011902093
-0.0056262286 0.0070122606 0.046085108 0.034949668 0.027581448 -0.014575964 0.020733636 0.021719877
0.010527572 -4.6710447e-05 0.004266188 0.010580962 0.0093533695 -0.03595548 -0.0073143616 0.005395726
-0.06153642 0.04882356 -0.005041982 0.018953407 0.037045598 0.037337497 0.02432787 0.01700029
0.011573585 0.017494218 -0.036740147 0.0022504367 0.0080256155 -0.0039705615 0.014733431 0.018627565
0.00965325 0.0103915585 0.020161392 0.03034438 0.03587202 0.013436658 0.00786827 -0.020024825
-0.017499257 0.00216339 -0.00032575795 0.021429384 -0.0008129185 -0.00044686146 0.029163057 0.018781962

network_body._body_endoder.seq_layers.2.weight f4 [128, 128]
00000000: 018d 913c 4b3d bf3d c20c 8e3b 5231 1a3d
00000010: ddae 79bd 2e63 993d 0782 1c3e 7f6c 3cbe
00000020: 8bb4 85bd 20a3 87bd f99d 0e3d 0b75 71bd
00000030: 0a13 04be 97ec ff3c fb70 373c d910 093d
00000040: e09d 0ebd 5f4c a1be 6d89 b5bc 059a 3f3e
00000050: 3e82 bf3d 3151 933d 4178 1cbe 3239 e1bd
00000060: c50e 073d e616 7dbd 0442 1abe 9167 d1bd
00000070: 1727 923c 4c15 27bc c601 38bc 9f5e 503d
00000080: 189b 063d b46b 59bd 37d5 2c3d f4e1 3a3d
00000090: 7f45 963c 820d b6bc 6ffa 7dbd ce60 e73c
000000a0: 01b0 173c 1813 dfbd 8d90 543e 8e53 083e
000000b0: 40e6 18bd e95b e2bd 1b06 2a3c 1f29 423e
000000c0: 3f01 79bd 693d a7bd 80da c23c bbc0 313e
000000d0: 67c0 07be 0b59 0b3e 6432 bfbd ebd8 dbbc
000000e0: 7f37 4b3d 2c04 3dbd 763e 723e 23f8 c73c
000000f0: b12d 95bd 11f2 4abc c53e 3abd 6083 573d
00000100: f26e 98ba 17e1 a7bd 4bb4 5c3e 38f0 4e3c
00000110: 0694 fc3b 5701 593e 5fd0 2f3e 1440 0abe
00000120: eff7 a33b f432 ddbc b3f2 8f39 335b 8c3d
00000130: f83b f2bd 1e7a 153d 79b1 7a3d 2da8 0dbe
00000140: 813e fa3d 3c1b 0ebe f348 53bd 53c5 7ebe
00000150: 3e95 653e bdf9 dabd 3d02 3d3d be3f 013d
00000160: b3b9 173d d5b4 eb3b a610 193d 4b85 3abe
00000170: b6ef 263e 92b4 2d3c 39aa 0abe fed0 263e
00000180: 1a2a 4ebc d5d7 553d fc71 423d bb74 adbe
00000190: 285f d63c a589 0dbd bf4b 943d cbb8 08be
000001a0: 02ce 763e ce3a 45bd 823b 19be 0dc4 52bd
000001b0: 4106 ae3d b19d b0bd 5035 c23d 1a09 313e
000001c0: eef6 e53a f985 e8bd ab9f 843e 84f4 8bbd
000001d0: f3d9 c83d bf6b e73a 70a3 113d 5781 0bbe
000001e0: 8009 2a3c 34cf 4f3e 7fd0 1e3e e3e4 053e
000001f0: ae1e 3b3c a213 a9bd ec44 5abd b816 58bd
00000200: b4b2 eabd e5a8 193d 3542 a5bd 87dd d63d
00000210: f413 d63d 781f 15be ba5b 16be a14d 9f3d
00000220: 501d e83d 40ef 73bd 887d 7e3e 66c1 dabd
00000230: 9035 73bd cd04 3d3d d78e d1bd 8001 413e
00000240: 73b2 3d3d 2bbd 17be 1c8d e63c fe79 953d
00000250: b3d0 e3bc afa4 ba3b 8c7a 9cbd 7d01 833b
00000260: 9f65 5c3d 77a3 d43d 819d 2abe e7af 9fbd
00000270: bc77 2a3b 57ac 8f3e 4969 8a3c 558f 2cbd
00000280: 44dc 123e fda1 e63c b857 943c b54f ab3c
00000290: d972 febc 6db0 0fbd b643 b63d 6b00 37bd
000002a0: 788f 103e 6267 aebd eba7 eb3d f134 4b3d
000002b0: a603 60bd f366 b7bd c7e8 d83d e1d6 183e
000002c0: d975 453d c615 933e e4bb bbbd 1631 053e
000002d0: da3a 81bd e655 e43d 422c 663d 906a 823c
000002e0: 4b74 903d 36f4 fcbd 3bd6 8fbd a730 443d
000002f0: 8c0e 3a3e c1b6 523e 2252 ec3d 6b97 16bd
00000300: fdf1 af3d 31df e0bb 82d8 683e 3569 003e
00000310: 1d7f aa3c 0424 d03d 146f 4a3e 3d2e d23d
00000320: e8ca ca3c c73e 283e d08c 02bd c4a0 1b3d
00000330: a0fd 4fbd 27f7 d73d 5a30 5d3d cc0c 4cbd
00000340: 20c4 3e3e 81f3 e13d 44af 74bd 2640 52bd
00000350: ca4d 0c3e 0804 05bd 2194 93bd 0527 3ebd
00000360: 8eb0 103e 5057 e5bc 2ef5 0e3e 6bc5 a73d
00000370: be36 fa3d 8d58 8d3b 5e57 3fbc 8ec5 cebb
00000380: 0559 9fbd 796f 58bd bf75 5c3d 33de 00bd
00000390: 1adf 72bc d0c8 2d3e b30e 713e 23b7 34be
000003a0: 89fe 0dbe b989 9f3d 1c73 773c d5cd f53c
000003b0: 40a3 223e 9bae bf3c a0b2 c33d 131e aa3d
000003c0: 384a 8dbd b21e 823d e883 c93c 2aed b7bd
000003d0: c2d8 c53c 7c83 93bd 3718 85bc fed9 c5bd
000003e0: 7b69 13be 214d 15bd 708c 733c c554 4e3e
000003f0: fc2b 9d3d e615 18be 6843 953e 6438 2cbe
0.017767431 0.093378626 0.004335017 0.03764469 -0.06095778 0.0748962 0.15283976 -0.18400763
-0.065285765 -0.066229105 0.034818623 -0.05894951 -0.12897888 0.031240745 0.01119637 0.033463333
-0.03481853 -0.3150358 -0.022160256 0.18711098 0.093510136 0.071932204 -0.15280248 -0.10997237
0.03297307 -0.061789416 -0.15064245 -0.10224832 0.017840905 -0.010197949 -0.011230892 0.050871488
0.032862753 -0.05308123 0.042195525 0.045625642 0.018343685 -0.022223238 -0.06200641 0.028244402
0.009258271 -0.10892314 0.20758267 0.13313124 -0.03732896 -0.11052687 0.010377432 0.18960999
-0.060792204 -0.0816601 0.02378583 0.17358677 -0.1325699 0.13608186 -0.09335783 -0.026836833
0.049613472 -0.046146557 0.2365664 0.024410313 -0.072841056 -0.012386815 -0.045470018 0.052615523
-0.0011629744 -0.08197229 0.21553151 0.012630515 0.0077080755 0.21191917 0.17169331 -0.13501006
0.005003921 -0.027001835 0.0002745591 0.06853332 -0.118278444 0.036493413 0.061204407 -0.13833685
0.12218953 -0.13877577 -0.05158324 -0.2487996 0.22420213 -0.10692165 0.046144713 0.03155493
0.03704233 0.0071931877 0.037369393 -0.1821491 0.1630238 0.010602133 -0.13541497 0.16290662
-0.01258328 0.052207787 0.047471985 -0.3387812 0.02616842 -0.034555096 0.0724101 -0.13351743
0.24102023 -0.048151784 -0.14964107 -0.0514565 0.084972866 -0.08623827 0.09482825 0.17288628
0.0017544904 -0.11353678 0.25903067 -0.06833747 0.098071955 0.0017656012 0.035556257 -0.13623558
0.010378242 0.20293885 0.15509222 0.13075595 0.011420889 -0.08255698 -0.053288385 -0.05275604
-0.11459866 0.037514586 -0.080692686 0.10491472 0.104530245 -0.14562786 -0.14683428 0.077784784
0.11333716 -0.05955434 0.24852574 -0.10681419 -0.059377253 0.046147157 -0.10232323 0.18848228
0.04631276 -0.14818256 0.028143458 0.07298659 -0.027809476 0.0056959013 -0.076405615 0.00399798
0.05380785 0.10382741 -0.16661645 -0.077972226 0.0026011309 0.28061172 0.016895907 -0.04212888
0.14341837 0.028153414 0.018108234 0.02091203 -0.031060623 -0.035080362 0.088996336 -0.044678133
0.14117229 -0.085158125 0.11506637 0.049611036 -0.05469098 -0.08955183 0.10591274 0.1492572
0.04820809 0.2872755 -0.09166697 0.13007006 -0.06310053 0.11149196 0.05619455 0.015919954
0.07053431 -0.12351267 -0.07023283 0.04789796 0.18169612 0.20577528 0.11539103 -0.036765497
0.085910775 -0.006862544 0.22738841 0.12540133 0.020812565 0.101631194 0.19768935 0.102627255
0.024754956 0.16430198 -0.03187257 0.037995115 -0.050778985 0.105451874 0.05400119 -0.04981689
0.18629503 0.11032773 -0.05973746 -0.051330708 0.13701549 -0.032474548 -0.07205988 -0.04642393
0.1412985 -0.027995735 0.13960716 0.08191951 0.122174725 0.0043135346 -0.011678545 -0.0063101714
-0.07780651 -0.052840684 0.05382323 -0.031461906 -0.014823699 0.16971135 0.23540764 -0.17647986
-0.13866629 0.077899404 0.015103128 0.030005375 0.15882587 0.023398688 0.095555544 0.083065175
-0.06898922 0.06353511 0.02459903 -0.08980782 0.02415121 -0.07202813 -0.016246898 -0.09660719
-0.14395706 -0.03645051 0.014865026 0.20149525 0.07674405 -0.14852104 0.2915299 -0.16818386

network_body._body_endoder.seq_layers.2.bias f4 [128]
00000000: 5230 283c c075 1f3d bf22 a63c 19de 913b
00000010: b34a 16bc f47c 173c 3b59 0ebd 08ba d63c
00000020: 2495 573c 1803 a6ba 7cfa 34bc bb0f ab3c
00000030: 6aec 993c 6540 163d 2d49 b93c 517d e73c
00000040: 2229 c13c b888 873a 92f0 173d ae74 133d
00000050: 1d4b 3fbc 8327 993c 262b 9f3c 4bd1 ec3c
00000060: d86b d53c 9979 173d 4c43 18bb a87d a83c
00000070: f95f f3ba e5d8 41bc 293d 183d f60f da3c
00000080: 405f 363c 83a2 6abc b10c 3f3d b4df 93bc
00000090: e240 04bc 9f4a 9f3c 15ba 613c 1e19 023c
000000a0: 45cc 233c 28ff 643c 271d f93b 42cd 663c
000000b0: 0d72 38bc 1ffe 073b c5c9 92bb 6b28 273d
000000c0: 6695 4aba 869c 083d ad33 db3c 7e08 ac3c
000000d0: 0363 69bb b4a4 33bb 3a4f 08bb 59b8 ac3b
000000e0: bd27 c63c ca85 a43c e4eb df3c fa33 563c
000000f0: b53f 52bc 4fc0 e83c 0e51 103d b57d 083d
00000100: 76dc 983b c171 05b9 bf64 493c f51e 103c
00000110: ede8 64bc 2e53 163c 7fdd adbc 587a 633b
00000120: fd9d a83c d448 0639 363a 8fbb 8613 bdbb
00000130: c19a 0cbc 9e50 be3c 8a1d 77bc 5112 bc39
00000140: 8a01 ca3c 4974 1a3d 398e e9bb f58d 873b
00000150: 3d04 c83c ecdf ebbb 80f6 af3a dae5 393c
00000160: 66eb 0f3c 25d3 703c 459e 2b3d df72 df3b
00000170: 250c babc 5fd4 5b3c 6c65 fe3c 509a 163c
00000180: cf59 0e3d 9058 a73c 493f 173d e1f7 04bc
00000190: 2f4d 333b 1f7f 953c cddc 07bd 8172 bc3c
000001a0: 61d0 38bd 7d3b 17bc 76b3 59bb 86af 8cbb
000001b0: 21e4 293d 4f64 02bc 877e 2a3c 8a7b 82bc
000001c0: da13 2dbc 1847 93bc a97a de3c 1093 71bc
000001d0: 642b 063d d2d7 2abc eecf 70bc fb62 ab3c
000001e0: e37f a7ba 16bd 543c 59ac 023d 3eb9 f43b
000001f0: bb7c fe3c 6c69 213c bb44 6e3d c9fe 24bd
0.010265427 0.038930655 0.02028024 0.004451525 -0.009173083 0.0092461 -0.034753066 0.026211753
0.0131581165 -0.0012665717 -0.011046048 0.020881524 0.018789489 0.036682505 0.0226179 0.028257998
0.023579184 0.0010340428 0.03709466 0.035999946 -0.011675623 0.018695598 0.019429754 0.028908392
0.0260524 0.0369812 -0.0023233471 0.02056773 -0.0018568031 -0.011831497 0.037167702 0.026618939
0.011131108 -0.014320972 0.046642963 -0.018051006 -0.00807211 0.019444762 0.013777276 0.007940559
0.009997432 0.01397685 0.007602352 0.014087023 -0.011257661 0.0020750833 -0.004479619 0.04081003
-0.00077279506 0.033352397 0.02675804 0.021000143 -0.0035611994 -0.0027411403 -0.0020799176 0.0052709994
0.02418887 0.020083327 0.027334161 0.013073916 -0.012832572 0.028412012 0.03523355 0.03332301
0.004664953 -0.00012726245 0.012292086 0.008796443 -0.013971549 0.009175105 -0.021223782 0.0034710374
0.020583147 0.00012806366 -0.004370953 -0.0057701496 -0.008581818 0.0232318 -0.015082726 0.000358718
0.024658937 0.037708554 -0.00712755 0.0041367956 0.024416083 -0.0071983244 0.0013424903 0.011346305
0.008784151 0.014698778 0.041898984 0.0068191136 -0.02271087 0.013417332 0.031054221 0.009192064
0.034753617 0.020427972 0.036925588 -0.00811574 0.0027359237 0.018249093 -0.033169556 0.023003818
-0.0451206 -0.009230492 -0.003321854 -0.004293385 0.041477326 -0.007958486 0.010406143 -0.015928049
-0.010563815 -0.017978236 0.027158098 -0.014744535 0.032756224 -0.010427432 -0.014698012 0.020921221
-0.0012779202 0.012984535 0.031902645 0.0074683717 0.031065335 0.009851795 0.058171015 -0.040282045

action_model._discrete_distribution.branches.0.weight f4 [5, 64]
00000000: e044 9a3d 1fb7 c63d 00ef 4c3c 720b 80bc
00000010: 5e9b f5b9 d353 3fbc 53fb 34bc 7b8f 35bd
00000020: 67d6 79bc 225b 7f3d 3cef 983c 0ca3 463d
00000030: c271 4dbc a999 693c f86f dbbc baff 403d
00000040: 4e1d 8e3d 7612 a1bc b2dd 37bd af7c 83bd
00000050: 106d f8bb 444f 4c3d 48a8 7dbc 9b58 a8bd
00000060: c814 6f3d eff6 82bc e677 40bb a652 133d
00000070: 1b2e 15bd 895a efbc c37a 233d df2c 7cbd
00000080: 18ab fb3c 7240 44bd 78f5 f8bc f320 69bd
00000090: 8366 16bd f3fe 93bd 4e7c d4bc d1d3 f23c
000000a0: 6af5 2dbd f63e 81bd 9f1a 92bc 8e38 5a3b
000000b0: 5017 93bd 6df7 113c 23ab 483c b9ff 99bd
000000c0: ee6a ffbc 22a3 a03c df25 b6bc 44e2 b13a
000000d0: bfd9 903d 059f 87bd 76b0 023c e94d 6bbd
000000e0: 09df a43c da6c 773d 4f0a 733d 7efb d2bb
000000f0: 44b4 193d 2087 7abc 4c70 bf3b a296 81bd
00000100: 7bba 313d 42c2 88bc ef47 c93d 2cf3 afbd
00000110: c508 b13b 8214 c7bd 2caf e8bd 531f cb3d
00000120: e9b2 663d a991 17bd ea17 2fbd 51c0 babd
00000130: b8f9 30bd ed13 48bc 9ce5 7abb 983f a0bd
00000140: ba1a 6dbd 975b 8e3c 9d9d 90bc 13f7 0c3d
00000150: 77fa 55bd 9e05 ef3d ab4c bcbd bf07 903d
00000160: 4977 94bd d83b 30bd 658d 84bd bd36 7aba
00000170: 9bd8 833c 8ec6 f33c 5387 f73c 7e25 593d
00000180: ac1d 81bd 6cc7 403d 7bc1 d0bd 6d64 9a3d
00000190: de74 5dbd adc4 44bd ce26 1c3d 328f ae3d
000001a0: f72b 9dbd e300 c5bc 433e c33d 65eb 203d
000001b0: def9 ab3d 03e8 60bd 7540 6b3d b0eb 61bd
000001c0: c4d4 27ba 5a97 93bd ed2e 97bd 58b4 5abd
000001d0: 1782 53bd 6357 d4bc 30d1 ab3d c4ba 0d3d
000001e0: 91fe 06bd bec5 cdbd 10c0 04bd 21ca cd3d
000001f0: 770a 8d3d 3161 ab3d 5611 80bc d23f 86bd
00000200: e853 97bd 5db8 42bc 65ed cabd b829 f23d
00000210: 0b14 7fbd 6489 b23d 7ca2 e13d 139c 84bd
00000220: 3858 c0bd 6902 963c d48e f33c 61d7 693d
00000230: 8a27 773d b900 6a3d 8e05 f83c 4b28 573d
00000240: ad4d 383d f595 90bd 5811 353d 4eeb 66bc
00000250: deb4 603d d859 eebd ffb2 013e c25a 5cbd
00000260: 8daa bd3d 400d 963c 4da4 a43d 169d f3bc
00000270: 1e02 2cbd 0b20 20bd 303a ddbc f55c 66bd
00000280: 6a75 9f3d 0f80 b63b 623a ea3d cd0a 04bd
00000290: ed39 8f3d 256e 853d f529 153d 63b7 01be
000002a0: 7e9d c63d 0c43 6a3d 5a6e a6bd 757f 4cbd
000002b0: 855d 7abd 9de9 983d 92e2 a3bd 0861 bc3d
000002c0: b53a cc3c 3eea 6a3d b68c 8a3d 3f33 fb3c
000002d0: d3d2 aebc 68b8 a03d 9e43 e2bd 47d0 303c
000002e0: 48fe 0c3d 4403 b43d 2d89 8f3c 56ff cebd
000002f0: 5427 65bd e21f 8abd 0c88 e7bc 8dc0 f63d
00000300: daa2 c4bd fc6e 86bd d12d 323d c758 08bd
00000310: 6ec6 1cbd 208a 1d3d 91fc 1fbd ec3e 763d
00000320: a121 a0bd 38a9 c13d 12e3 7bbd e9fa aabd
00000330: 4e9c 8e3d 8f38 eebd 714d c23d 104b 143d
00000340: 3a71 373d db5c 5b3c e0ee 3e3d 4912 0abd
00000350: ac24 79bd ad4f 84bd 0fab 32bd e25a c7bb
00000360: 49c9 a9bd cc61 c5bd 1d28 523c 18de 6cbd
00000370: f108 d63d d424 74bd 626b bb3d baaa 273d
00000380: f0e1 2ebd 439d 9cbd df65 b73c 0037 83bd
00000390: f25e b9bd cdc2 a1bd 5655 cf3d 2ee3 8d3c
000003a0: 2731 fbbc 7cb0 6c3d 4089 1bbd 57be b53d
000003b0: 5c04 6db9 912f b0bd 9e0d 92bb 24d2 a23c
000003c0: 11c2 b23d 9e4e 82bd 29da 1fbd 7165 2ebd
000003d0: 6847 b8bd 012c 8d3d e44f b6bc a860 5f3d
000003e0: c8e3 b73d 6af6 42bd 1e6d a9bd f05f a5bc
000003f0: 250f 97bd 0b18 9ebc 9679 64bd 5d41 5b3d
0.07532668 0.09702896 0.012508154 -0.015630458 -0.000468458 -0.0116777 -0.0110462485 -0.044326287
-0.015248871 0.06234277 0.018668763 0.048495337 -0.012539329 0.014257827 -0.02678679 0.04711888
0.06939183 -0.019662123 -0.04488916 -0.06420266 -0.0075813606 0.04988028 -0.015482016 -0.08220025
0.058369428 -0.015986888 -0.002936834 0.03596749 -0.036420923 -0.029217975 0.039911997 -0.06156623
0.030721232 -0.047913022 -0.030390486 -0.05691619 -0.036718857 -0.07226362 -0.02593818 0.029642018
-0.042470373 -0.06310837 -0.01783496 0.003329787 -0.07182181 0.008909089 0.012247833 -0.07519478
-0.031178918 0.019609038 -0.022234855 0.0013571461 0.07072782 -0.066221274 0.007976642 -0.057447348
0.020125883 0.060406543 0.059336003 -0.0064386716 0.03752543 -0.015291005 0.0058422443 -0.06327559
0.043390732 -0.016694192 0.09828173 -0.08591303 0.0054026567 -0.097207084 -0.113615364 0.09918084
0.056322966 -0.037004147 -0.042747416 -0.09118713 -0.0432069 -0.012211782 -0.003828383 -0.078246295
-0.057886817 0.017377658 -0.01765328 0.034415316 -0.052240815 0.11670993 -0.09194311 0.070327275
-0.07249314 -0.04302582 -0.06472281 -0.00095449 0.016094496 0.029757764 0.030215895 0.05301427
-0.063044876 0.047065184 -0.101931535 0.07538686 -0.05406653 -0.048039127 0.038122945 0.08523406
-0.07674401 -0.024048274 0.0953336 0.03928699 0.08397268 -0.054908764 0.057434518 -0.05515641
-0.0006402249 -0.072066024 -0.07381997 -0.053394645 -0.051637735 -0.025920575 0.08389509 0.03460194
-0.032957617 -0.10047482 -0.032409728 0.10048319 0.06886762 0.08368147 -0.015633266 -0.065551415
-0.07389051 -0.011884776 -0.09908561 0.118243635 -0.062274974 0.087176114 0.110173196 -0.06475081
-0.093918264 0.018311696 0.029731192 0.057090167 0.06034044 0.057129595 0.030276086 0.05252866
0.044995952 -0.07059852 0.044205993 -0.014094187 0.05485999 -0.1163823 0.12665938 -0.05379749
0.092610456 0.018316865 0.080391504 -0.02973799 -0.041994207 -0.03909306 -0.027005285 -0.056240994
0.07786067 0.005569465 0.11436917 -0.032236863 0.0699347 0.06515149 0.036416966 -0.12667613
0.09698008 0.057192847 -0.08126517 -0.04992624 -0.061124343 0.07466433 -0.08002199 0.09198195
0.024930337 0.057352297 0.0676512 0.030664084 -0.021340763 0.07847673 -0.11048053 0.010791845
0.03442219 0.08789685 0.017521465 -0.10107295 -0.05594571 -0.067443624 -0.028263114 0.12048445
-0.09601374 -0.06564137 0.043500725 -0.03328779 -0.038275175 0.038461804 -0.039059225 0.0601186
-0.07818914 0.09456104 -0.061495848 -0.083486386 0.069634065 -0.116318814 0.09487427 0.036204398
0.044785716 0.013388838 0.046614528 -0.033708844 -0.06082599 -0.064605094 -0.043620165 -0.006083832
-0.08290345 -0.09637794 0.012826947 -0.057828993 0.10450924 -0.059605435 0.09151341 0.040934302
-0.04269594 -0.07647183 0.022387443 -0.06406975 -0.090513125 -0.078984834 0.101236984 0.017320242
-0.030663086 0.057785496 -0.03797269 0.08874195 -0.00022603705 -0.086028226 -0.0044571897 0.019875593
0.087284215 -0.06362651 -0.039026413 -0.04257721 -0.08997995 0.06893159 -0.022254892 0.054535538
0.08978993 -0.04759828 -0.082727656 -0.020187348 -0.073759355 -0.019298574 -0.055780016 0.053529132

action_model._discrete_distribution.branches.0.bias f4 [5]
00000000: 2b2d abbd 6c86 b23c c579 083d 0d3b 803c
00000010: 7c7d 7f3c
-0.083582245 0.021792613 0.033319253 0.015653158 0.015593883

onnx::LSTM_98 f4 [1, 256, 128]
00000000: 65cc 20bb d7b8 253d b31e 323e 6afa 89bd
00000010: dd59 12be 2dc7 de3d 0330 fd3c 53e4 283e
00000020: e5d0 303e cea6 1d3e 7ace 1c3b c885 3bbd
00000030: 2df0 27bc 8cef df3d 7fcf 20be ac88 3c3d
00000040: 89d5 29bd d935 5cbd 85e7 aebd 1fac 52ba
00000050: 3132 9d3d 7c3a 06be 35fb ce3d bbbc c73d
00000060: a233 8dbd 3947 2b3d fb5e a0bd 8338 ca3b
00000070: 6aa0 17be 52be 863d ceec fa3d 4381 10be
00000080: 445c 1bbe e281 1dbe 87e6 433e 7ffc 743d
00000090: 1e4d eb3d 2887 b43d 10ac 1fbe 32e6 043e
000000a0: d2a7 2a3e e621 24be 3153 1fbe 2ccc 6ebb
000000b0: 1187 20be dc68 e0bd 9b56 043e 981f be3d
000000c0: e69e 063e 145c fc3d 3c2d 0cbe 2388 26bd
000000d0: 14be 263d f8f2 e4bd 23b9 8f3b dea0 d0bd
000000e0: 8a2d 313e 8259 853c f0a6 9e3d 4520 b2bc
000000f0: 2992 0c3e 6df0 1c3e 57aa f93d d7ac 8b3c
00000100: ac9c 04be 66d5 d73d 182d f43d e7ef 4f3d
00000110: 4155 393e 77fd 043d 8b63 193d 408a da3d
00000120: 44e4 72bc 0e92 093e 5a1c 143e 51c0 1c3e
00000130: 7e69 acbd e22d b73d c217 073e 6a56 063e
00000140: 38e4 ff3d f370 523d 2921 98bb 3ebe 04bd
00000150: 8e3f 173d af4f 073e ff5b 98bd 9f78 f53b
00000160: c682 953c e8bf 9b3c 63db 3e3e f495 933d
00000170: 9b82 62bd 8b21 07be c72d fc3d 2fd5 b43d
00000180: 2702 cbbd 76dd 00be 6170 4ebd ad63 d63d
00000190: 12cf 04be 6d25 e73d c6b6 623d cd06 623d
000001a0: 4389 e6bd 939b 763d 1b04 073e 2976 d1bd
000001b0: 4166 9f3d 7478 0bbe 6f6e 9a3d 0a6b 0ebe
000001c0: 83ef 853d 4938 043e 2c0b 01be 7bcf ce3d
000001d0: b326 c8bd a4af 093d 032b 8d3c ef4c aebd
000001e0: 90f8 1ebd 9092 99bc 5651 183e 9c5a 073e
000001f0: 3158 06bd 9101 58bd d936 d53d 11be 263e
00000200: 48ec f73d 5e52 01be 8680 d03d 36b1 303e
00000210: f717 63bd af21 253e 68fc 2cbb fd90 503d
00000220: b31e 4d3e c7d5 51b9 fd91 1fbe 6f08 68bd
00000230: ae17 ce3c dd03 213e ec4b f53d 7cc0 953d
00000240: 3f21 04bc 6ba7 3dbd 3d2c 8d3d 409d 72bb
00000250: 2c0b 0d3e 69c2 193e 5210 6cbd 7228 b8bc
00000260: 5780 f43d 51ea 7a3c 11da 0dbd b6fc 173e
00000270: bb50 1b3e eb7b f0bd e036 1a3c ae33 09be
00000280: 2e34 123d 5f70 5dbc 6c32 113e 0bcf 253e
00000290: 6ef2 04be 448e ed3c 2006 2a3e 6311 b53d
000002a0: 6879 e9bd 417d 373d f010 14be dc71 a2bd
000002b0: 1857 1ebe 3e5d 013b a4dc 1fbd 0c7a 9d3d
000002c0: c4d0 d3bd d4ce e1bd 34df 663a 8b41 9b3d
000002d0: 7750 053e 37c7 fabc 3bff 343d 417c 2abe
000002e0: 6770 fcbd e7a7 d73d 4d81 2ebc 0c66 90bd
000002f0: 42a1 823d 6582 e5bd 14e1 79bd a42a 6f3d
00000300: 9d72 1bbe 527b fabc a3e8 47be ec7c bbbd
00000310: 04dd d73d c24a 04be c826 fe3d 3f72 343c
00000320: 0e85 4dbd 7730 003e 9f9a 3abd cd21 aabd
00000330: 18ae 0a3d 7764 c2bd 578a 16be fccc 073c
00000340: a8f7 cabd 377e 403e 53c4 193e 8e51 eebd
00000350: 92cc df3b e829 23be 08af c43d 7d46 3b3e
00000360: 2861 ae3d 8924 013a ca50 e83d 12c4 223d
00000370: b0be 63bd 8032 bf3c 3cba f93c 94bc 15be
00000380: dc8c 94bd c532 dc3d 87a2 d3bd 681a 083e
00000390: 6435 80bd cd8b 0dbe 9ea0 05be dc48 90bd
000003a0: 1ecb 11be c734 363e 7769 e3bd c615 38bd
000003b0: 15df 1f3e 7587 663d 0aaf cabb c72d bf3d
000003c0: 8c4f 013d b7fa aa3d 3b4c e9bd 9761 4f3d
000003d0: 59fa 493d 0cab 1c3d 35bc 0d3e 47c3 38bd
000003e0: 4201 f63d d241 b1bd b41d 1dbe 0793 b3bd
000003f0: 3be3 aabd 76b4 003e f45c 2e3d 5ed7 9e3d
-0.002453589 0.04045948 0.17394523 -0.06737216 -0.14292093 0.108778335 0.030906683 0.16493349
0.17267187 0.15395662 0.002392678 -0.04578188 -0.010250133 0.10934362 -0.15704153 0.046028778
-0.04146341 -0.05376229 -0.085402526 -0.00080365123 0.07675589 -0.13108248 0.10106508 0.09752794
-0.06894614 0.04181597 -0.07830616 0.0061712875 -0.14807287 0.065792695 0.12252198 -0.1411181
-0.15171915 -0.15381578 0.19130908 0.05981111 0.11489318 0.088148415 -0.1559298 0.12978438
0.16665581 -0.16028556 -0.15559079 -0.0036437614 -0.15676524 -0.109575 0.12923662 0.0928337
0.13146552 0.1232225 -0.1368913 -0.040657174 0.040708616 -0.11179155 0.0043860837 -0.10186933
0.17302528 0.016278032 0.077466846 -0.021743903 0.1372763 0.1532609 0.12190693 0.01705019
-0.1295039 0.105387494 0.119226635 0.050765898 0.18098928 0.032468285 0.037448447 0.106709
-0.014824931 0.13434622 0.1446394 0.15307738 -0.084185585 0.08944298 0.13192657 0.13118902
0.12494701 0.051377248 -0.004642625 -0.03240799 0.036925845 0.1321399 -0.07439422 0.007491186
0.018250834 0.019012406 0.18638377 0.07206336 -0.055300336 -0.1319639 0.12313419 0.08829724
-0.0991252 -0.1258448 -0.05040014 0.104682304 -0.12969616 0.11286435 0.055350088 0.055182267
-0.11256649 0.06020696 0.1318516 -0.102276154 0.07783175 -0.13620168 0.07540595 -0.1390802
0.06539824 0.12912096 -0.12601918 0.100981675 -0.09773006 0.03361477 0.017232424 -0.08510768
-0.038811266 -0.018746644 0.14874777 0.13218158 -0.03279895 -0.05273587 0.10410852 0.16283442
0.12105614 -0.12629077 0.10180764 0.172551 -0.055442777 0.1612613 -0.0026395563 0.05091952
0.20031242 -0.00020011431 -0.15583034 -0.056648668 0.025157776 0.1572413 0.119773716 0.07312104
-0.008064567 -0.04630224 0.068932034 -0.0037019998 0.13773793 0.15015568 -0.05763275 -0.022480223
0.119385414 0.015314654 -0.034631792 0.14842495 0.15167515 -0.117423855 0.009412497 -0.1339862
0.035694294 -0.013515561 0.1417939 0.16192262 -0.12983105 0.028998502 0.16603899 0.08841207
-0.114001095 0.044797186 -0.14459586 -0.07931873 -0.15462911 0.0019739415 -0.03902878 0.07689294
-0.10342553 -0.110257775 0.00088070636 0.07580861 0.13018976 -0.030612571 0.04418872 -0.16648962
-0.123261265 0.10530072 -0.010650945 -0.07050714 0.06378414 -0.112065114 -0.061005667 0.058390275
-0.1518044 -0.030576382 -0.19522338 -0.09154686 0.10540202 -0.12919143 0.12409741 0.0110135665
-0.05017572 0.12518488 -0.045557614 -0.08307228 0.033857435 -0.094918184 -0.1470121 0.008288618
-0.09910518 0.18798147 0.15016298 -0.11636649 0.0068298066 -0.15933955 0.09603697 0.18288608
0.08514625 0.00049264036 0.11343534 0.03973777 -0.055601776 0.02333951 0.030484311 -0.14622718
-0.07253429 0.10751871 -0.10333734 0.13291323 -0.062601835 -0.13822861 -0.13049552 -0.07045147
-0.1423764 0.1779357 -0.111041 -0.04494264 0.15612443 0.056281526 -0.006185417 0.09334903
0.031570002 0.08348601 -0.11391493 0.05063018 0.049311016 0.03824906 0.13841327 -0.045108106
0.12011959 -0.08655132 -0.15343362 -0.087682776 -0.08344122 0.1256884 0.042569116 0.07755922

onnx::LSTM_99 f4 [1, 256, 64]
00000000: 49d4 003e c63a 8fbd 8403 343e 151d 6fbc
00000010: 2ac7 db3d 722d 01be 7750 25bc 5f51 023d
00000020: 6996 e13d 0e8d d33d 341a 38be d3e7 3abe
00000030: 602f 3d3e 9efb e4bc 86f1 ee3d 71c1 c63d
00000040: ccd9 19be 91cc 363e 7c5d bc3c 5b88 12bc
00000050: 5cfa 2abe e0ab a83d f716 7cbd f1ae 6a3e
00000060: 10ae 6bbd 41f6 f2bd d214 503e 33c4 ef3d
00000070: d89d 063e 69d9 7c3d ece7 293d 050b 51be
00000080: 4045 0d3e e0a7 26be b4f6 5b3e c187 703d
00000090: 0936 b2bd f0db 13bd 0f9c 7b3d c5e5 09be
000000a0: 4131 5d3e 3e70 5d3e 429e d23d 9310 053b
000000b0: 96ed 7a3d d44e a9bc 5ebd 593e 32f1 82bd
000000c0: a7bd 2cbe 547d 3d3e 3544 c4bd be13 ad3d
000000d0: 5a1d 253e 897c 003e 725e 4abe 663c 833d
000000e0: 35e2 60be 8538 083e 3b97 db3d 475d 2b3e
000000f0: 5409 c23d 22fa 5f3e e95d 213e bf56 27be
00000100: ab05 58ba 3bfe ef3d 270f 423d 6060 3a3e
00000110: c347 6bbe c6f8 11be 3b5c 333e 75e0 5f3d
00000120: ac6e 42be 357f 8d3c f868 5fbe a1fa 9a3d
00000130: dd0f ecbd fa5f a63d 5b82 203e ac03 973d
00000140: 7312 0d3e e671 1c3e d018 82bd 46d6 02be
00000150: e30d 5c3c 8b6a 14bd 1cde 2c3e cb72 293d
00000160: 034f b2bc 1299 12bd 0e3f b13d ca62 aa3d
00000170: 1e7c d73d 97a7 f2bd 36df 32be 0945 36be
00000180: edef 533d e5ef 1c3e 212a f0bd 5353 54be
00000190: d9d2 05bd 27e2 d4bc 58a0 2e3e a66d 2dbd
000001a0: df6a 913d ae31 f7bd 8f2f d63d 63f4 323e
000001b0: bf23 45bd 12bd 263d bc37 bf3d e345 e83d
000001c0: a9cd 31bd c9ee 17be cfa8 5b3d 5dc2 183e
000001d0: 4565 1e3e 2155 27be 4533 c93d d9f2 6b3e
000001e0: f8da 84bd 1e6f 203e 1eb2 923d 01c4 b93d
000001f0: 536f a6bc 80d5 cb3d 7214 9bbc 6672 d9bd
00000200: f4f4 2cbe 750d 2dbe 3e32 133e 2967 c03d
00000210: 43d5 4a3e 715e 7cbd b1df 00be ac9a 3a3e
00000220: 383c 143d ba76 463d 71ab dcbd 9378 e4bd
00000230: 2d17 553d b110 943d a461 02be f3e0 2d3d
00000240: 3947 9cbc 4764 5bbd b653 333e 2dd5 c33d
00000250: 51d0 cbbd 3c2b 3a3e 2c7b f3bc 89eb 933e
00000260: 1e33 67bd 8461 543e 7f02 2a3e eb0c 0dbd
00000270: 1815 6bbd 72ab 2ebe 53af d13d bfbb edbd
00000280: 3f0a 883c f69c 863e ccf1 22be ab7f 903e
00000290: b431 633d 2c97 133e 4d46 b13d 7708 eabd
000002a0: f887 1a3e fc66 3e3e 85b8 d23c 8e37 b23c
000002b0: 96d7 373e 66b1 f63d 74cb 38be 615f 593a
000002c0: 2393 1b3e d84e ffbd 9669 cb3d 0ce6 ffbd
000002d0: b89f a33c 8a87 f2bd 7695 70bc 5125 8a3d
000002e0: 165d 69be 50e0 19be 3271 513e ef7c c0bc
000002f0: 5377 81bd cf2a 003e 449c 863c 6d19 3b3d
00000300: a2bd 623d b537 153e 4c4e b23d 06b3 333d
00000310: 5123 87bd 0c75 0abd 963b a23d 614c 10be
00000320: 377a 11be dd47 a1bd 9d6e 24bd 0ed2 5d3d
00000330: 0fe8 82bc 3b52 c2bd fb2b fcbb e52e 1cbe
00000340: 982b 2ebe 15b1 38be ec86 673d 782a e23d
00000350: fcef b73d 0e47 49be 6880 4b3e 9f71 193e
00000360: e25a 08bb 37be 0c3d 66f4 66be 4760 f23c
00000370: f53d e73d 0218 d4bd 680a 2fbe ac25 8b3d
00000380: 068f f13d 2147 813e 9df1 3a3e 5263 1e3e
00000390: b9c9 20be 60f5 b6bd 139c 8d3d c399 1d3c
000003a0: 5516 acbd a8fd 643e 0747 04be 1181 60be
000003b0: b9fc 983d 0108 1abe 26ee 17be e776 22bd
000003c0: 55ec 5e3e fcd6 073e e699 343e 6b6f d6bd
000003d0: 0508 a33d 69d5 563e e803 9b3d f1f5 11be
000003e0: 7079 50be c22b 21bc c396 c63d a3b4 1c3e
000003f0: 2423 573e fb18 76bd c7c7 d23c 05da ee3c
0.1258098 -0.06993632 0.17579466 -0.014594336 0.10731347 -0.12614992 -0.010089985 0.031815883
0.110150166 0.103296384 -0.17978746 -0.18252496 0.18475103 -0.027952012 0.11667161 0.09704865
-0.15024489 0.17851473 0.022993796 -0.0089436425 -0.16697067 0.082359076 -0.06154534 0.22918297
-0.057539046 -0.118633755 0.20320442 0.11707344 0.1314615 0.061730776 0.041480944 -0.2041436
0.13795948 -0.16274977 0.21480829 0.058723215 -0.08701713 -0.03609842 0.061428126 -0.13466556
0.2160082 0.21624848 0.102840915 0.0020304068 0.061261736 -0.020667471 0.21263644 -0.063936606
-0.16869222 0.1850484 -0.09583322 0.08451031 0.16124478 0.12547506 -0.1976259 0.064080045
-0.21961291 0.1330281 0.10722204 0.16734801 0.094744354 0.21872762 0.1575848 -0.16341685
-0.00082405907 0.117184125 0.04737773 0.18200827 -0.22976594 -0.14255056 0.17515652 0.05465742
-0.1898753 0.017272571 -0.21817386 0.07567335 -0.11526463 0.08123775 0.15674727 0.07373747
0.13776569 0.15277824 -0.06352389 -0.12777051 0.013431045 -0.03623442 0.16881603 0.04136924
-0.021766191 -0.03579051 0.08654605 0.08319624 0.1052172 -0.118483715 -0.1746796 -0.17799772
0.051742483 0.15325888 -0.117267855 -0.2073491 -0.032671783 -0.025986744 0.17053354 -0.042340897
0.07100462 -0.120700225 0.1045829 0.17476039 -0.048129793 0.040707655 0.09336802 0.11341455
-0.043409023 -0.14837183 0.053627785 0.14917894 0.15468319 -0.16341068 0.09824232 0.23041858
-0.064870775 0.15667388 0.071628794 0.09070588 -0.020316755 0.09952831 -0.018930648 -0.10617523
-0.16890317 -0.16899665 0.14374635 0.09394676 0.19807915 -0.061613504 -0.12585331 0.18223065
0.03619024 0.04845307 -0.10774887 -0.1115581 0.052024055 0.07229746 -0.1273256 0.042450856
-0.01907693 -0.05356243 0.17512402 0.095621444 -0.099518426 0.18180555 -0.029721819 0.28890637
-0.056445234 0.20740324 0.16602515 -0.034436148 -0.057393163 -0.17057589 0.102385186 -0.11608075
0.016606448 0.26291627 -0.1591255 0.28222403 0.055467322 0.14413136 0.08655987 -0.11427396
0.1509093 0.18593973 0.025722751 0.021755006 0.17953333 0.12045555 -0.18046361 0.00082921056
0.15192847 -0.1246621 0.09932248 -0.1249505 0.01997362 -0.11842258 -0.014684072 0.06745399
-0.22789416 -0.15026975 0.20453337 -0.023497073 -0.063215874 0.1251633 0.016431935 0.045678545
0.05535663 0.14572032 0.0870634 0.043871902 -0.06598533 -0.03380303 0.07921521 -0.14091636
-0.14206778 -0.07875035 -0.04014455 0.054155402 -0.015979795 -0.094883405 -0.0076956726 -0.15252264
-0.17008817 -0.18036301 0.056525156 0.110432565 0.0898132 -0.19656011 0.19873202 0.1498475
-0.0020806124 0.03436109 -0.22554168 0.029586924 0.11291114 -0.103561416 -0.17093813 0.06794295
0.11794858 0.2524958 0.1825623 0.15467575 -0.15701951 -0.0893352 0.069145344 0.009619179
-0.08402697 0.22362387 -0.1291772 -0.21924235 0.07470078 -0.15042116 -0.1483694 -0.039664175
0.21769841 0.13265604 0.17636833 -0.1047047 0.07960514 0.20979847 0.075691044 -0.14253975
-0.20358825 -0.009837093 0.09696724 0.15303282 0.21009499 -0.060082417 0.025730027 0.029156694

onnx::LSTM_100 f4 [1, 512]
00000000: dbc8 853d 7b0b e13b 6096 093e 1ae6 5e3d
00000010: fba1 c13b 0556 9f3d e054 e83d fe0a 553d
00000020: 8a4e c93d 3ce4 763d 5b42 953c 0c9c ca3d
00000030: 7c11 143d 2054 963d fa8d 953d 7d10 913d
00000040: dbdd a83d dfb4 3bbb 9952 903d b8ee 273d
00000050: d109 393d 43f0 123e dde4 b23d 234a 283d
00000060: 92f3 933d 3072 c43d cfcf d23c dd04 8b3b
00000070: 71cc 9e3d 1117 133d 61ba 8f3d 2d7d 283d
00000080: 0a66 233d 420b 3d3d cfd5 8e3d 3885 8f3d
00000090: 8cbb 973d 3692 cb3d 7254 083d 0961 b13d
000000a0: 3338 6c3d 7d82 d73c 193f 163d 9900 4f3d
000000b0: 5c3b 603d fa1e 563d 5d79 3b3d fdd7 083d
000000c0: fb1e b13c f626 573d 35b0 b33c b14b 163d
000000d0: d3c3 9b3c bee5 7d3d 9e35 9f3d 8cc4 eb3c
000000e0: 099f 233d 8e35 af3d 0094 ff3c f5a7 783d
000000f0: f699 8c3d 4929 593d 57a1 033d 7e4f 9b3d
00000100: 591b ca3d fd9a 143c 9fb9 e83d 450d 8a3d
00000110: f775 543b d2cf 7f3d 69a5 f23d 4b06 063d
00000120: 13bd c43d 5c7d 893d bbe8 f43c 81b8 cf3d
00000130: 8dd8 383d b6d1 973d be9d ac3d 44c1 223d
00000140: 87b4 983d 3123 76bc c3e2 973d 5cef 043d
00000150: 77db ad3c 3870 183e f2dd e13d 9dc4 173d
00000160: c807 a63d 612f c23d fff7 103d 7e6a babb
00000170: 6050 683d 69df 933c 0cf1 9f3d 2b77 dc3c
00000180: 6df5 de3c e57a 2e3d c9a7 8c3d 77f3 763d
00000190: 8cad b13d cfc8 d43d e762 253d 5fd1 a73d
000001a0: 3694 8d3d 7f78 203d 6fb4 463d abb3 443d
000001b0: 0c4e 663d cc55 4c3d 4555 7b3d 90cb 513d
000001c0: 253d 3e3d cc08 283d 2b93 783c 442b cb3c
000001d0: c5a8 c23c 19d4 6d3d cec9 c23d 8fc3 983c
000001e0: 9535 423d ae5a 913d 9394 0b3d 1f08 503d
000001f0: 1dde 7f3d dfa5 763d 3fdd 963c 8279 c43d
00000200: 8790 7a3f e635 7d3f 2d34 813f d429 7b3f
00000210: 0f11 793f d16b 7e3f d93b 7a3f 058c 713f
00000220: 5439 7b3f ee94 7e3f e44e 773f 9834 7a3f
00000230: 8924 803f f566 7b3f fd27 7b3f 6ea2 763f
00000240: 7d29 793f 94b6 7b3f 09e3 813f cd7f 7c3f
00000250: b187 803f 4ca9 7f3f dd8a 783f 47f6 7b3f
00000260: a44b 753f 5f97 7c3f fc4b 7b3f 0b9b 733f
00000270: 77db 7a3f 8959 743f 0b0b 7e3f f3c2 7c3f
00000280: 5119 7a3f 574f 733f fbf7 773f e188 7f3f
00000290: 3e25 7b3f adf3 7c3f e8eb 763f 11ab 7c3f
000002a0: 5d35 7c3f b8aa 793f 0cdc 793f 00ea 803f
000002b0: 27fa 7f3f 233a 7d3f 2cad 7f3f 25d1 7a3f
000002c0: afb0 783f 69f5 793f c08e 723f 9454 7f3f
000002d0: 7920 7d3f 3e14 7f3f b6c3 763f ac7a 7d3f
000002e0: 7805 7c3f 46fd 763f c068 7d3f 2199 773f
000002f0: 2123 753f cfdc 7f3f e6bc 7a3f 5d49 783f
00000300: 3932 31bc c7e2 c4bc 7808 9c3c 7500 7f3b
00000310: 0ef3 2cbc 13a5 be3c a80a d73b c38b 973c
00000320: 0e54 9f39 f4e7 b7bb 9d46 d23b cbcc 8abb
00000330: a8ca a53c 47a7 2bbb 92a2 d93b 88db 20bc
00000340: 70b5 433c 48b2 1b3c 4d1d 243d 4eeb 0bba
00000350: f2b9 fa3b 9408 adbc 467f 123c f961 ad3c
00000360: 63f6 993a 3d12 35bc 7f14 1b3b b896 c0bc
00000370: 80b1 05ba baae 59bc 6d6f 163b 9ae3 c53c
00000380: bac5 fb3a 5dfb 023c d627 8b3b ce8a b83c
00000390: e27f b3bb 0dad 463c 39d4 303c 1611 b9b9
000003a0: ef1e 853c 14b4 193a 6ff9 7bbc 7a41 07bc
000003b0: f967 2b3b ccd7 84bb c9ab 2ebc 3fa0 c13c
000003c0: 4764 a23c 5754 353b 434f 883c 9479 9abc
000003d0: fdd7 64bb a7f9 103c 7e32 263c 361e 9a3c
000003e0: 9576 47bc 6983 69bc 1f7d 423c 0d55 24b9
000003f0: 4c0a 87bc 928b 823a a1d9 b23b 4bc4 9c3a
0.06532451 0.0068678237 0.1343627 0.05441866 0.005909202 0.07780079 0.113443136 0.052012436
0.09829433 0.060276255 0.018220117 0.09893045 0.036149487 0.07340264 0.073024705 0.07083223
0.082454406 -0.0028641743 0.07047004 0.040999144 0.045175377 0.14349465 0.087350585 0.041086327
0.07224192 0.09592092 0.025733856 0.004242523 0.07753838 0.03591067 0.07017971 0.041135002
0.039892234 0.046153314 0.069743745 0.07007831 0.074088186 0.09939997 0.03328366 0.08661086
0.057670783 0.026307339 0.03668127 0.05053768 0.05474411 0.052275635 0.045770038 0.033409107
0.021621218 0.05252739 0.021934608 0.03669328 0.019014275 0.061986677 0.077738985 0.028780244
0.03994659 0.085551366 0.031198502 0.06070705 0.06865303 0.05301789 0.032136288 0.07583521
0.098684974 0.009070155 0.113635294 0.06740812 0.0032418945 0.062454052 0.11847956 0.032720845
0.096063755 0.067133635 0.02989613 0.10142613 0.045128394 0.07413046 0.084285244 0.039735094
0.07456308 -0.015023039 0.07416298 0.032454833 0.021222813 0.14886558 0.11028661 0.03705274
0.08106953 0.09481693 0.035392758 -0.0056889644 0.056717277 0.018050866 0.07809648 0.026912292
0.027216638 0.04259767 0.0686794 0.06029078 0.086756796 0.10389864 0.040377524 0.08194231
0.069130346 0.039177414 0.04851192 0.048022907 0.056226775 0.04988651 0.061360616 0.051219523
0.04644503 0.041024014 0.015171806 0.024800904 0.023762116 0.0580636 0.095111474 0.018647937
0.04741438 0.07097374 0.03407724 0.050788995 0.062467683 0.06021678 0.018416045 0.09593488
0.9787678 0.9891037 1.0094048 0.981107 0.97291654 0.99383265 0.9774757 0.9435428
0.9813435 0.99446 0.9660475 0.977365 1.001115 0.98203975 0.9810789 0.963416
0.9732893 0.9832547 1.0147411 0.9863251 1.004141 0.998677 0.9708689 0.98422664
0.95818543 0.98668474 0.9816282 0.9515845 0.97991127 0.9544912 0.992356 0.9873497
0.9769488 0.9504294 0.96862763 0.99818236 0.981037 0.9880932 0.96453714 0.98698527
0.98518926 0.9752612 0.9760139 1.0071411 0.9999108 0.98916835 0.99873614 0.9797538
0.971446 0.9764009 0.9474907 0.9973843 0.98877674 0.9964026 0.9639238 0.9901531
0.98445845 0.96480215 0.9898796 0.9671803 0.9575673 0.999463 0.97944486 0.96986943
-0.010815197 -0.024033917 0.019047007 0.0038910185 -0.010555996 0.023272073 0.0065625496 0.01849926
0.0003038947 -0.0056123678 0.006417109 -0.004235839 0.020238236 -0.0026192234 0.0066416943 -0.009817965
0.011945114 0.009502955 0.040067006 -0.00053374923 0.007651561 -0.021122254 0.008941477 0.021164881
0.0011746403 -0.011051712 0.002366334 -0.023509368 -0.0005099997 -0.013286287 0.0022954599 0.02415638
0.0019208707 0.0079945 0.004246692 0.022527125 -0.0054778913 0.012126219 0.010792785 -0.0003529868
0.016250102 0.00058633205 -0.015379294 -0.008255357 0.0026154502 -0.0040540453 -0.010661074 0.023635982
0.019823207 0.0027668679 0.016639357 -0.018856801 -0.0034918778 0.008848584 0.010143874 0.018813234
-0.012174268 -0.014252522 0.0118706515 -0.00015671943 -0.016484402 0.0009959808 0.0054580723 0.0011960355
