Scenes/ImprovedGridWorld2D/results/ppo-memory-32-curriculum/DroneGrid2D/DroneGrid2D-199991.onnx (onnx, 276723 bytes, 9 tensors)

network_body._body_endoder.seq_layers.0.weight f4 [128, 6]
0.22244279 0.1134243 0.08690394 -1.0059018 0.13052678 -0.5213834 -0.31563833 0.18595599
0.5378865 -0.7860641 -1.1531925 -0.5759005 -0.42333508 -0.05491439 0.2250484 0.44623756
0.2324102 0.35532007 -0.6823237 0.37449405 0.48331937 -0.12081618 0.8448702 -0.116811834
-0.11054806 0.11736052 0.44148883 -1.0174026 -0.17545834 -0.42888942 -0.48667154 -0.049990386
0.55265576 -0.19308823 0.2502273 -0.30726683 0.5085596 -0.3798912 0.34898368 0.13297398
-0.4959129 0.45414025 -0.7657749 -0.46655428 0.24859092 0.095111325 0.3906685 0.3362725
0.16919845 -0.5265469 0.0005933801 -0.10572959 -0.5889599 -0.30456027 -0.3222176 -0.058789894
-0.33807218 -0.22974794 0.45857292 -0.4347919 0.24819161 -0.15404586 -0.26182956 -0.04002267
-0.15355784 -0.64880884 -0.13043249 -0.22395138 -0.15189156 -0.22147839 0.3920084 0.26535594
0.2484987 -0.17589577 -0.20273788 -0.39521444 0.6073642 0.13407637 0.1721916 0.11549134
-0.11407093 -0.32860088 0.06464461 -0.34974694 -0.23485158 -0.71142375 -0.6026831 -0.2517428
0.18358178 0.6039798 -0.20221747 -0.51625806 0.6007132 0.15712655 0.3629083 -0.8236381
0.2518268 0.3349278 0.6448242 0.29829043 0.38532746 0.19547601 -0.7785327 -0.09596043
-0.7171829 -0.05079651 0.09326389 0.82055706 0.87542063 -0.58035505 0.7886149 -0.060581025
0.19896597 0.24686825 -0.2479818 0.93404245 0.07840685 0.2198965 -0.87253803 0.07100845
-0.38235298 -0.06149344 -0.2655404 -0.19037603 0.09202666 0.1690704 0.7920375 0.12887734
1.0863256 -0.060581364 -0.19290142 -0.088071115 -0.07926309 0.010550941 0.1010963 -0.26123652
0.71805 0.14009671 0.47843263 -0.15461111 -0.15943237 -0.090239435 0.5218699 -0.6810977
0.437984 0.51315475 -0.5496004 0.5325684 -0.15949622 -1.0459852 -0.79414946 -0.23211336
0.766891 0.1448761 0.0077742087 -0.0037247862 0.4837122 -0.32925227 0.20904462 -1.0184115
-0.14475188 0.6739904 0.28951487 0.18381913 0.13358559 -0.32447743 -0.1004484 0.8661954
0.59673 0.29843304 -0.115646645 -0.41156802 -0.26911718 0.14880116 0.18649286 0.17289864
-0.6751482 -0.550136 -0.5893334 -0.3998244 -0.041145455 -0.11176329 -0.5883428 0.09349648
-0.48596743 -0.03338474 0.30508357 0.019772932 0.26457155 -0.40175092 0.43030494 0.1630121
0.087055676 -0.7520963 -0.04890679 0.2838889 0.13385306 0.10328528 -0.24130166 -0.25616017
0.13162509 1.0144701 1.0240259 -0.27333638 0.1597838 0.50185835 -0.32435012 0.051311523
0.65677345 -0.48384544 -0.67066056 -0.31995207 -0.30947956 0.09038954 -0.2112236 -0.84387034
-0.018252563 -0.60364145 -0.12510373 0.025963971 0.008294865 0.08395016 -0.18797381 0.009157162
-0.48596358 -0.573363 0.25549787 -0.52441984 -0.13915998 0.7622769 -0.066999264 0.3263
-0.39057687 -0.09250808 -0.11878052 0.5338374 0.018566132 0.43148997 -0.54457206 0.048567884
0.057950925 -0.426736 -0.20349672 1.1844571 0.13600197 -0.3125181 -0.36039096 0.588156
-0.4905184 -0.32009307 0.5044974 0.65423256 -0.029569054 0.3443193 -0.21770686 0.309155
00000000: 0bc8 633e 004b e83d b1fa b13d 64c1 80bf
00000010: d0a8 053e 6279 05bf 599b a1be 3f6b 3e3e
00000020: eeb2 093f 7f3b 49bf d09b 93bf 376e 13bf
00000030: 60bf d8be e9ed 60bd 1673 663e 4079 e43e
00000040: f1fc 6d3e 83ec b53e c4ac 2ebf afbd bf3e
00000050: a375 f73e 796e f7bd 6a49 583f 0b3b efbd
00000060: 0567 e2bd b65a f03d d30a e23e 403a 82bf
00000070: 5aab 33be 6597 dbbe 032d f9be b8c2 4cbd
00000080: d97a 0d3f ecb8 45be cb1d 803e 1452 9dbe
00000090: f630 023f 1981 c2be fdad b23e 552a 083e
000000a0: 4ce8 fdbe 1285 e83e d309 44bf 34e0 eebe
000000b0: 9e8e 7e3e bac9 c23d b405 c83e e92b ac3e
000000c0: 5c42 2d3e c7cb 06bf 108d 1b3a c188 d8bd
000000d0: 13c6 16bf 53ef 9bbe b5f9 a4be accd 70bd
000000e0: cc17 adbe 0b43 6bbe 12ca ea3e 0b9d debe
000000f0: f125 7e3e 33be 1dbe 860e 86be d0ee 23bd
00000100: 443e 1dbe 5618 26bf 1890 05be 8353 65be
00000110: 7689 1bbe 3bcb 62be 53b5 c83e bcdc 873e
00000120: 7176 7e3e 051e 34be 859a 4fbe 8c59 cabe
00000130: 387c 1b3f 514b 093e ff52 303e b986 ec3d
00000140: 059e e9bd 603e a8be 6564 843d 0812 b3be
00000150: ef7c 70be de1f 36bf 7149 1abf 6fe4 80be
00000160: ddfc 3b3e 6c9e 1a3f 1912 4fbe 7d29 04bf
00000170: 57c8 193f c8e5 203e 1ecf b93e f2d9 52bf
00000180: 71ef 803e a87b ab3e 3313 253f 86b9 983e
00000190: a449 c53e dd2a 483e eb4d 47bf e786 c4bd
000001a0: 4c99 37bf 0010 50bd 2301 bf3d 0710 523f
000001b0: 911b 603f 2692 14bf abe2 493f cf23 78bd
000001c0: bcbd 4b3e 08cb 7c3e f1ee 7dbe 681d 6f3f
000001d0: c593 a03d 8c2c 613e a75e 5fbf e16c 913d
000001e0: c5c3 c3be 8ce0 7bbd e9f4 87be eff1 42be
000001f0: 7978 bc3d ca20 2d3e f8c2 4a3f 6cf8 033e
00000200: b80c 8b3f 2a24 78bd f387 45be a15e b4bd
00000210: b054 a2bd dbdd 2c3c 940b cf3d cbc0 85be
00000220: 20d2 373f 8375 0f3e 1ff5 f43e 6052 1ebe
00000230: 3d42 23be 74cf b8bd 4499 053f 6b5c 2ebf
00000240: 703f e03e 1c5e 033f 9db2 0cbf 6756 083f
00000250: fa52 23be d8e2 85bf 614d 4bbf 20af 6dbe
00000260: f852 443f 665a 143e cabe fe3b 8b1b 74bb
00000270: 20a9 f73e c193 a8be cb0f 563e 4f5b 82bf
00000280: d639 14be a38a 2c3f 4b3b 943e 153b 3c3e
00000290: a9ca 083e e821 a6be e4b7 cdbd fbbe 5d3f
000002a0: 4cc3 183f 37cc 983e 26d8 ecbd 0bb9 d2be
000002b0: bac9 89be 555f 183e fcf7 3e3e 570c 313e
000002c0: 83d6 2cbf b7d5 0cbf 8ede 16bf c9b5 ccbe
000002d0: 2388 28bd 27e4 e4bd a29d 16bf 157b bf3d
000002e0: b9d0 f8be 70be 08bd ea33 9c3e d8fa a13c
000002f0: ec75 873e 4cb2 cdbe ee50 dc3e a5ec 263e
00000300: 3f4a b23d 6289 40bf 7c52 48bd e359 913e
00000310: c710 093e 3c87 d33d c817 77be 6d27 83be
00000320: bac8 063e 28da 813f 4813 833f bff2 8bbe
00000330: 5d9e 233e ca79 003f 3811 a6be 082c 523d
00000340: 4e22 283f 97ba f7be 69b0 2bbf c2d0 a3be
00000350: 1b74 9ebe 271e b93d 004b 58be e307 58bf
00000360: 6686 95bc 3f88 1abf 311b 00be 65b2 d43c
00000370: 2fe7 073c 10ee ab3d 357c 40be ec07 163c
00000380: 38d0 f8be ebc7 12bf 9ed0 823e 6140 06bf
00000390: f47f 0ebe 9424 433f e936 89bd cb10 a73e
000003a0: b1f9 c7be e074 bdbd 3443 f3bd 91a9 083f
000003b0: 0018 983c 41ec dc3e 1369 0bbf 1eef 463d
000003c0: f35d 6d3d 247d dabe 7261 50be 4a9c 973f
000003d0: 1a44 0b3e 5f02 a0be 2a85 b8be 6491 163f
000003e0: 3a25 fbbe 3de3 a3be be26 013f c97b 273f
000003f0: cd3a f2bc 9f4a b03e 8cee 5ebe 9049 9e3e

network_body._body_endoder.seq_layers.0.bias f4 [128]
0.015051622 -0.0056120097 -0.023940364 0.01666609 0.006866705 -0.021589484 0.0026001097 0.020788165
0.02637413 0.01914985 0.021535253 0.030906865 0.007876119 0.014408286 -0.016067956 0.007915354
-0.021694671 0.00012704519 0.007083623 0.022727115 -0.021615226 0.053327296 -0.025533423 0.020146504
0.015007317 0.019493962 -0.005355363 0.019402282 0.008935774 0.031513184 0.022660244 0.0023670404
0.03469291 0.007119826 0.0013249416 0.0012652776 -0.011698285 0.02095661 0.004019047 0.031007856
0.02947971 0.025410725 0.01147273 0.033606466 -0.015063976 0.030658152 0.009574413 0.02300652
-0.003196924 0.034849532 0.013451344 0.02443881 0.017558726 -0.012599638 0.042706467 0.0072259777
0.021626322 -0.0023667049 0.0071728593 0.013178105 0.013171315 0.009395375 0.0134978825 0.0012442351
0.014782705 0.028555641 0.048935335 0.015237999 -0.016261226 0.016505012 -0.0016144896 0.035486825
0.00061849947 -0.00502877 0.018458199 0.053699426 0.014583378 0.01675906 0.010478609 0.011835176
-0.008919072 0.010043259 0.040912263 0.032573678 0.024899747 -0.012223032 0.015498035 0.020267738
0.009765707 0.002458032 0.0025113358 0.0128940875 0.008271055 -0.033191804 -0.0061096023 0.0029484446
-0.056797042 0.04406804 -0.003690712 0.019401047 0.029945677 0.035610486 0.025144948 0.014871619
0.010147291 0.013404556 -0.031847954 -0.00085064064 0.007855939 -0.0025063227 0.013810074 0.015500659
0.010019402 0.010487928 0.014871577 0.027033204 0.033135198 0.010198382 0.0062482534 -0.016696252
-0.021670671 -0.00019678609 -0.0032546488 0.021186367 -0.0010382027 -0.0011421749 0.024842087 0.019441204
00000000: 149b 763c f3e4 b7bb 951e c4bc 5387 883c
00000010: 1902 e13b 6edc b0bc 9a66 2a3b f14b aa3c
00000020: 8f0e d83c 25e0 9c3c b36a b03c 6530 fd3c
00000030: d60a 013c bb10 6c3c f2a0 83bc 67af 013c
00000040: 06b9 b1bc 6f37 0539 bd1d e83b 372e ba3c
00000050: 6a12 b1bc b96d 5a3d 782b d1bc 480a a53c
00000060: 40e1 753c cdb1 9f3c 0a7c afbb 89f1 9e3c
00000070: 5a67 123c f813 013d faa1 b93c 5920 1b3b
00000080: 271a 0e3d 6e4d e93b aaa9 ad3a acd7 a53a
00000090: 2aaa 3fbc 32ad ab3c 36b2 833b 3004 fe3c
000000a0: 6f7f f13c 272a d03c 1ef8 3b3c efa6 093d
000000b0: e5ce 76bc ce26 fb3c 00de 1c3c 2b78 bc3c
000000c0: 7c83 51bb 62be 0e3d 0763 5c3c e633 c83c
000000d0: 51d7 8f3c b66e 4ebc faec 2e3d e5c7 ec3b
000000e0: af29 b13c b81a 1bbb 4e0a eb3b fae8 573c
000000f0: 80cc 573c 0fef 193c 3926 5d3c 9a15 a33a
00000100: 2933 723c 85ed e93c 6b70 483d cda8 793c
00000110: 4336 85bc 8535 873c 489d d3ba a25a 113d
00000120: cc22 223a 61c8 a4bb a635 973c eef3 5b3d
00000130: 1fef 6e3c 4c4a 893c 79ae 2b3c 53e8 413c
00000140: 4d21 12bc 7b8c 243c 9e93 273d fa6b 053d
00000150: 8efa cb3c 1d43 48bc 78eb 7d3c 8708 a63c
00000160: 5800 203c ef16 213b 3995 243b b941 533c
00000170: 5283 073c 21f4 07bd 0f33 c8bb b13a 413b
00000180: 04a4 68bd b080 343d dfdf 71bb f2ee 9e3c
00000190: a350 f53c 4ddc 113d c7fc cd3c 17a8 733c
000001a0: d340 263c c89e 5b3c 0073 02bd 87fd 5eba
000001b0: 32b6 003c 1e41 24bb a643 623c 7af6 7d3c
000001c0: 6b28 243c 8fd5 2b3c eaa7 733c bd74 dd3c
000001d0: c6b8 073d 1d17 273c 26be cc3b 94c6 88bc
000001e0: b186 b1bc 5d58 4eb9 f24b 55bb 088f ad3c
000001f0: 4d14 88ba 08b5 95ba a281 cb3c 2943 9f3c

network_body._body_endoder.seq_layers.2.weight f4 [128, 128]
0.014343843 0.08616971 0.004112834 0.038149767 -0.064262904 0.07236507 0.1521052 -0.18187563
-0.07236948 -0.06429328 0.026810745 -0.052642062 -0.122447096 0.027692039 0.016200194 0.028868409
-0.035010967 -0.30776274 -0.02128085 0.18331893 0.09763975 0.07016203 -0.14228551 -0.11107071
0.030061647 -0.0677443 -0.1467914 -0.09926071 0.016544195 -0.018146493 -0.013851417 0.056532882
0.033559848 -0.052480627 0.044124145 0.041890346 0.020514512 -0.02277738 -0.064771846 0.024393583
0.0084998775 -0.10276533 0.20344295 0.13060026 -0.034552988 -0.11088898 0.010384643 0.18782586
-0.06298171 -0.08933996 0.021234855 0.16923739 -0.124876216 0.13446067 -0.091575295 -0.03075379
0.047224045 -0.043226145 0.23562355 0.022229426 -0.072009064 -0.015231793 -0.048339672 0.050352067
-0.00018915311 -0.08495261 0.20792453 0.0098896045 0.0065090344 0.20172454 0.17093669 -0.13645688
0.0060875914 -0.029447978 -0.0055560013 0.06297425 -0.11632308 0.040938698 0.06182975 -0.13911083
0.12180855 -0.13118854 -0.054342996 -0.24478355 0.21838072 -0.10464874 0.0481921 0.03152544
0.035048686 0.013602777 0.03488645 -0.1767296 0.15710434 0.015650839 -0.12833455 0.16233887
-0.009705652 0.055688463 0.05086405 -0.34156504 0.02427586 -0.027996605 0.07038256 -0.13039553
0.2349429 -0.052748404 -0.14591637 -0.051820174 0.081270404 -0.086291805 0.09123058 0.16532187
-0.0009496766 -0.1143253 0.24984899 -0.06926555 0.09639848 -0.0024477197 0.029327093 -0.13452451
0.00977269 0.19517879 0.15566325 0.12255912 0.00382028 -0.07739046 -0.0586074 -0.05188289
-0.11883249 0.038750358 -0.07419984 0.1069599 0.10467762 -0.14285563 -0.14949226 0.0867216
0.1081533 -0.0597456 0.23151842 -0.103039645 -0.06270559 0.03658255 -0.09804356 0.18440679
0.043734573 -0.1389232 0.023255322 0.074787855 -0.022222059 0.0009896962 -0.07340682 -0.012003108
0.045064162 0.107168026 -0.16305293 -0.072651625 -0.002748621 0.27695975 0.018791748 -0.045701932
0.1398474 0.026176346 0.010222143 0.022943962 -0.029098595 -0.036542702 0.08919804 -0.04423972
0.1378901 -0.077185 0.11464495 0.049649876 -0.049967118 -0.09052042 0.0958293 0.14342728
0.040974922 0.28458133 -0.091409944 0.12617648 -0.05374463 0.1124108 0.05579614 0.018547837
0.07131777 -0.12035625 -0.06845869 0.04620406 0.17107216 0.19998884 0.10713092 -0.042410154
0.0790188 -0.010395318 0.22240975 0.12572934 0.019154074 0.10137635 0.19179817 0.095996484
0.020414943 0.16041589 -0.04146524 0.0415524 -0.056153495 0.09856898 0.04705881 -0.054664455
0.1776103 0.11682134 -0.060736798 -0.053888697 0.13058357 -0.0461127 -0.0678705 -0.047740575
0.13828696 -0.029752249 0.13754022 0.07086421 0.118618 0.008012181 0.00072062167 -0.004551967
-0.07387516 -0.048367165 0.05907811 -0.02715458 -0.018753372 0.1705978 0.231527 -0.16822672
-0.13964568 0.07781531 0.019657856 0.035821702 0.14782172 0.013446264 0.09673523 0.08320576
-0.0692648 0.06019974 0.034228805 -0.07903855 0.020301923 -0.06657719 -0.019602494 -0.10340362
-0.13856368 -0.03712352 0.017580656 0.19909897 0.07845649 -0.1439521 0.292852 -0.17835122
00000000: 7002 6b3c bf79 b03d f4c4 863b ee42 1c3d
00000010: 459c 83bd 2334 943d 77c1 1b3e 9b3d 3abe
00000020: 7336 94bd 32ac 83bd 35a2 db3c 349f 57bd
00000030: 8bc5 fabd 6ada e23c 45b6 843c 717d ec3c
00000040: a967 0fbd 1493 9dbe 2d55 aebc f5b7 3b3e
00000050: 59f7 c73d 1cb1 8f3d 4bb3 11be 0a79 e3bd
00000060: d843 f63c 86bd 8abd 7c50 16be 3349 cbbd
00000070: b187 873c f4a7 94bc 0ef1 62bc 068f 673d
00000080: 0d76 093d edf5 56bd 85bb 343d 3695 2b3d
00000090: 0d0e a83c a197 babc 1aa7 84bd 0dd5 c73c
000000a0: 1243 0b3c a176 d2bd 5953 503e 13bc 053e
000000b0: 6f87 0dbd c319 e3bd 5a24 2a3c 6c55 403e
000000c0: 8efc 80bd def7 b6bd b8f4 ad3c 914c 2d3e
000000d0: 1abf ffbd 0fb0 093e d48b bbbd 5fef fbbc
000000e0: 006e 413d e60d 31bd 4d47 713e 7c1a b63c
000000f0: 7d79 93bd c58e 79bc d2ff 45bd f83d 4e3d
00000100: 6757 46b9 a2fb adbd 2bea 543e 0208 223c
00000110: bd49 d53b e190 4e3e 070a 2f3e 5abb 0bbe
00000120: 6b7a c73b e33c f1bc 1e0f b6bb a5f8 803d
00000130: cc3a eebd 56af 273d 3141 7d3d 1273 0ebe
00000140: c376 f93d 4a56 06be c396 5ebd 8aa8 7abe
00000150: 329f 5f3e 1452 d6bd 1465 453d d220 013d
00000160: 368f 0f3d 2fde 5e3c 18e5 0e3d 9bf8 34be
00000170: f6df 203e 3036 803c 226a 03be 293c 263e
00000180: 7404 1fbc 9619 643d d256 503d 9de1 aebe
00000190: 2bde c63c 2359 e5bc bb24 903d 6886 05be
000001a0: df94 703e b60e 58bd 1a6b 15be 6441 54bd
000001b0: 1971 a63d c2b9 b0bd 19d7 ba3d 234a 293e
000001c0: b8f3 78ba 6223 eabd 6ad8 7f3e 19db 8dbd
000001d0: 916c c53d ec69 20bb 5f3f f03c cbc0 09be
000001e0: a21d 203c f3dc 473e 3066 1f3e 4700 fb3d
000001f0: aa5d 7a3b e47e 9ebd 500e 70bd 2783 54bd
00000200: 735e f3bd b2b8 1e3d 16f6 97bd cb0d db3d
00000210: 3861 d63d bf48 12be 8014 19be 189b b13d
00000220: 7a7f dd3d cdb7 74bd 2a13 6d3e 7306 d3bd
00000230: ca6b 80bd 95d7 153d 10cb c8bd 22d5 3c3e
00000240: 0623 333d e241 0ebe f281 be3c 602a 993d
00000250: 090b b6bc b2b8 813a 5156 96bd afa8 44bc
00000260: 3395 383d e97a db3d 59f7 26be 60ca 94bd
00000270: 3522 34bb abcd 8d3e 27f1 993c f331 3bbd
00000280: 2834 0f3e c76f d63c c67a 273c faf4 bb3c
00000290: 2d60 eebc cdad 15bd 76ad b63d b534 35bd
000002a0: 1033 0d3e 2b13 9ebd f9ca ea3d ab5d 4b3d
000002b0: 52aa 4cbd c562 b9bd 2742 c43d 9ade 123e
000002c0: 52d5 273d a5b4 913e 2335 bbbd 6834 013e
000002d0: 5423 5cbd a237 e63d 7e8a 643d a2f1 973c
000002e0: 0d0f 923d 567d f6bd 1234 8cbd 7840 3d3d
000002f0: 8a2d 2f3e e0c9 4c3e 7567 db3d 45b6 2dbd
00000300: 9cd4 a13d 2051 2abc 62bf 633e 31bf 003e
00000310: 01e9 9c3c 679e cf3d bd66 443e ce99 c43d
00000320: 3d3d a73c 1044 243e 75d7 29bd d932 2a3d
00000330: 3501 66bd 89de c93d bdc0 403d d6e7 5fbd
00000340: 79df 353e 0740 ef3d 26c7 78bd 65ba 5cbd
00000350: b3b7 053e ace0 3cbd b0ff 8abd 9f8b 43bd
00000360: 199b 0d3e fdba f3bc 58d7 0c3e 4121 913d
00000370: feed f23d 8645 033c 1ae8 3c3a ab28 95bb
00000380: dc4b 97bd a61c 46bd e3fb 713d 4873 debc
00000390: aca0 99bc 31b1 2e3e 6a15 6d3e a043 2cbe
000003a0: 47ff 0ebe a25d 9f3d 8309 a13c c7b9 123d
000003b0: 945e 173e b84d 5c3c 1f1d c63d c867 aa3d
000003c0: b4da 8dbd 0194 763d 8133 0c3d f7de a1bd
000003d0: 3850 a63c 9f59 88bd 6995 a0bc 47c5 d3bd
000003e0: a3e3 0dbe d50e 18bd 4f05 903c 9ae0 4b3e
000003f0: ccad a03d 2e68 13be b3f0 953e b4a1 36be

network_body._body_endoder.seq_layers.2.bias f4 [128]
0.0058800774 0.034902696 0.016442982 0.0068650483 -0.005753012 0.0039927363 -0.02626348 0.021018876
0.0097125275 0.0017734475 -0.009305886 0.021553783 0.014109332 0.029437382 0.024898777 0.025180012
0.019602804 -0.0019578713 0.035893556 0.036369074 -0.011472461 0.015825389 0.017363377 0.023391414
0.02188817 0.033883464 -0.0017900912 0.016662324 -0.0029946733 -0.006658622 0.03369256 0.023579655
0.0112498915 -0.013925804 0.04154735 -0.016843697 -0.008308687 0.01802104 0.01158327 0.0056692576
0.0075890217 0.011047352 0.0065117143 0.009588463 -0.0050088977 0.00380753 -0.010617668 0.03432517
-0.0001932672 0.028582154 0.02542607 0.0136279855 0.0019120608 -0.00087061094 -0.0025119078 0.0020858555
0.018977568 0.0153285405 0.02247372 0.010609693 -0.009656933 0.026684098 0.02890954 0.027589
0.004525609 0.0010218828 0.010456551 0.0091266865 -0.017276442 0.006721031 -0.01359497 0.003916306
0.01829904 -0.004766222 -0.011179276 -0.009411693 -0.011454805 0.01854528 -0.014513691 -0.0048045632
0.023260832 0.034670148 -0.011055246 0.0033806134 0.021673547 -0.0029194956 0.0014432749 0.013681907
0.008792014 0.016254425 0.03805955 -0.0014036378 -0.020663323 0.013660507 0.025981123 0.0042066975
0.029192323 0.015233106 0.03704295 -0.010984468 0.003144395 0.0134865185 -0.02811399 0.02168522
-0.039403323 -0.009420299 -0.0048608826 -0.006300869 0.036799643 -0.007258194 0.004584395 -0.016549563
-0.012689513 -0.014759118 0.024800437 -0.014714949 0.027926791 -0.011478713 -0.013212549 0.02147365
0.0037664443 0.015408083 0.024923276 0.0069520036 0.028797641 0.009067684 0.043844257 -0.03294231
00000000: aaad c03b 21f6 0e3d 6fb3 863c 33f4 e03b
00000010: c383 bcbb 80d5 823b 8226 d7bc c72f ac3c
00000020: 4b21 1f3c 0673 e83a b777 18bc 8f91 b03c
00000030: d42a 673c aa26 f13c 85f8 cb3c 5046 ce3c
00000040: 0f96 a03c a14f 00bb 1f05 133d bdf7 143d
00000050: fdf6 3bbc 3fa4 813c a43d 8e3c 5a9f bf3c
00000060: d24e b33c 63c9 0a3d 7ea1 eaba 6d7f 883c
00000070: 4842 44bb 9230 dabb 3601 0a3d 1f2a c13c
00000080: 7751 383c 0e29 64bc 8e2d 2a3d cbfb 89bc
00000090: 2921 08bc dca0 933c c1c7 3d3c 2ec5 b93b
000000a0: 54ad f83b f4ff 343c 3860 d53b ee18 1d3c
000000b0: ae21 a4bb c187 793b baf5 2dbc 8d98 0c3d
000000c0: c5a7 4ab9 1f25 ea3c 554a d03c ea47 5f3c
000000d0: 1d9e fa3a b639 64ba d29e 24bb d9b2 083b
000000e0: d876 9b3c 8f24 7b3c cf1a b83c 47d4 2d3c
000000f0: 1d38 1ebc 9c98 da3c b3d3 ec3c 5402 e23c
00000100: 8f4b 943b b2f0 853a f451 2b3c 1988 153c
00000110: 5387 8dbc 183c dc3b 70bd 5ebc 5b54 803b
00000120: dee7 953c f82d 9cbb 4829 37bc 8033 1abc
00000130: efac 3bbc 45ec 973c d5ca 6dbc 996f 9dbb
00000140: 808d be3c 4902 0e3d 1021 35bc 488d 5d3b
00000150: b98c b13c 0255 3fbb 452c bd3a 142a 603c
00000160: 610c 103c 0028 853c 55e4 1b3d 45fa b7ba
00000170: 2146 a9bc 52d0 5f3c 5dd6 d43c 56d8 893b
00000180: bd24 ef3c 4794 793c 59ba 173d 33f8 33bc
00000190: 3212 4e3b 8ff6 5c3c 4f4f e6bc 34a5 b13c
000001a0: 6165 21bd 9957 1abc 0a48 9fbb 8577 cebb
000001b0: 39bb 163d 25d6 edbb b138 963b f392 87bc
000001c0: ade7 4fbc 3ad0 71bc 492a cb3c f816 71bc
000001d0: bac6 e43c 3611 3cbc 7279 58bc 82e9 af3c
000001e0: 73d6 763b 2f72 7c3c e62b cc3c a2cd e33b
000001f0: 08e9 eb3c a090 143c 0996 333d 84ee 06bd

action_model._discrete_distribution.branches.0.weight f4 [5, 64]
0.045883365 0.05417295 -0.019295359 0.008686049 -0.0150186205 0.016863547 0.017902134 -0.024356497
-0.00211511 0.0502471 0.025543282 0.036472023 0.0029977139 0.025260767 -0.017212093 0.031321425
0.04160137 -0.020118145 -0.016516397 -0.04439339 0.002764441 0.015490202 0.016964821 -0.048926353
0.04678249 -0.018802805 0.01153099 0.0096759135 -0.027665937 -0.028517613 0.019727057 -0.044562005
0.029951748 -0.02361154 0.0016869584 -0.03340272 -0.013620935 -0.032509655 -0.008645202 -0.0017447502
-0.0017126177 -0.020086471 -0.031466365 0.0029011432 -0.046231817 0.014406696 -0.004462753 -0.030549852
-0.010582718 0.027180662 0.007947135 -0.0008084363 0.04047203 -0.028638804 -0.007772725 -0.03555224
0.0060196705 0.071456745 0.028796596 -0.015597954 0.0062862653 -0.013774659 0.0014145904 -0.028664403
0.05956949 0.0063654934 0.09646971 -0.09175317 0.0192042 -0.1043395 -0.11537783 0.08661436
0.055140715 -0.036715273 -0.044285674 -0.070828944 -0.052075066 -0.010851325 -0.009233204 -0.06633556
-0.04428816 0.019775335 -0.02748456 0.023200817 -0.05307577 0.12019854 -0.10008627 0.058752563
-0.062141396 -0.034722008 -0.059900746 0.013204392 0.007857946 0.032996822 0.03039043 0.04085608
-0.05134093 0.03725822 -0.108762436 0.06530615 -0.058818944 -0.05700936 0.021953618 0.085542895
-0.09228822 -0.042810965 0.09093732 0.031095134 0.07211561 -0.04995212 0.06114398 -0.07388325
-0.0087932525 -0.06894299 -0.0807985 -0.048172593 -0.03512624 -0.03523221 0.08742482 0.0184179
-0.02388953 -0.09766173 -0.020097042 0.097324 0.07898894 0.07789444 -0.011866187 -0.07460856
-0.05601163 -0.0012232201 -0.085659906 0.105125256 -0.054279197 0.07310414 0.096919954 -0.0712796
-0.090655096 0.02824078 0.025125481 0.05389467 0.047990322 0.044271722 0.023430424 0.052841596
0.03947008 -0.06187654 0.027829297 0.0047388063 0.052675545 -0.09288911 0.1096537 -0.06305455
0.092825346 0.021018418 0.07070736 -0.016735202 -0.03408029 -0.042767506 -0.01673997 -0.06358934
0.07354638 0.0059625036 0.09601611 -0.032634396 0.062063448 0.053904846 0.027514303 -0.11117843
0.08460983 0.042480905 -0.07160329 -0.040736713 -0.07074853 0.0672934 -0.07150534 0.07519103
0.016924111 0.05420324 0.05739571 0.03505036 -0.0068602683 0.067589164 -0.08778658 0.0047842246
0.038056135 0.07881418 0.021075295 -0.09323258 -0.04188895 -0.05615007 -0.027973888 0.09238673
-0.093933016 -0.059181675 0.038267735 -0.027227376 -0.041078825 0.041943792 -0.030529862 0.055807825
-0.072797865 0.09337368 -0.05442224 -0.07374836 0.07246434 -0.11695199 0.09276585 0.040188722
0.045440573 0.007478121 0.03807959 -0.041918766 -0.06458483 -0.05979666 -0.030402195 -0.013091844
-0.07638024 -0.09209624 0.019693032 -0.058736037 0.101807185 -0.059646096 0.09055791 0.040764656
-0.04307324 -0.075440995 0.02341224 -0.06725191 -0.087865174 -0.07561214 0.09767627 0.01133114
-0.03186543 0.054962423 -0.03703368 0.090767115 -0.0036272942 -0.07278953 -0.003631625 0.021077547
0.082176395 -0.07221748 -0.039766572 -0.045688577 -0.08512314 0.053296026 -0.028013933 0.053425025
0.086951494 -0.039052248 -0.0713771 -0.01917263 -0.07310055 -0.023459282 -0.055547148 0.059371695
00000000: 32f0 3b3d 75e4 5d3d 4d11 9ebc ee4f 0e3c
00000010: a910 76bc 6c25 8a3c 7fa7 923c 4787 c7bc
00000020: a89d 0abb e7cf 4d3d 2540 d13c b063 153d
00000030: 4b75 443b abef ce3c 6000 8dbc e54a 003d
00000040: 3366 2a3d cfce a4bc 654d 87bc d8d5 35bd
00000050: a02b 353b 9eca 7d3c cff9 8a3c 0067 48bd
00000060: ff9e 3f3d 5708 9abc 7aec 3c3c b987 1e3c
00000070: ada3 e2bc c59d e9bc a39a a13c a686 36bd
00000080: 5e5d f53c fd6c c1bc ee1c dd3a 4ad1 08bd
00000090: 582a 5fbc d828 05bd 9ba4 0dbc 1ab0 e4ba
000000a0: ea79 e0ba 628c a4bc e0e2 00bd 1b21 3e3b
000000b0: 935d 3dbd 100a 6c3c 493c 92bb af43 fabc
000000c0: 2363 2dbc fba9 de3c b334 023c 3eed 53ba
000000d0: 00c6 253d ed9b eabc 58b2 febb 3a9f 11bd
000000e0: a840 c53b ea57 923d d7e6 eb3c 908e 7fbc
000000f0: 04fd cd3b 1baf 61bc c769 b93a 9cd1 eabc
00000100: 23ff 733d a195 d03b e991 c53d 16e9 bbbd
00000110: 2052 9d3c f3af d5bd 364b ecbd df62 b13d
00000120: 3bdb 613d c162 16bd e564 35bd c40e 91bd
00000130: aa4c 55bd c1c9 31bc dd46 17bc f0da 87bd
00000140: 8067 35bd e2ff a13c 4d27 e1bc a40f be3c
00000150: fb65 59bd a72a f63d 08fa ccbd 87a6 703d
00000160: fa87 7ebd aa38 0ebd 7c5a 75bd 3c57 583c
00000170: 9dbe 003c ad27 073d 5af5 f83c b458 273d
00000180: de4a 52bd 139c 183d d7be debd 3bbf 853d
00000190: 22ec 70bd a682 69bd 13d8 b33c 1d31 af3d
000001a0: 9b01 bdbd 8d5a 2fbd 583d ba3d 39bb fe3c
000001b0: 59b1 933d 989a 4cbd 1c72 7a3d 1a50 97bd
000001c0: 9311 10bc fb31 8dbd af79 a5bd a050 45bd
000001d0: 88e0 0fbd a64f 10bd c90b b33d 23e1 963c
000001e0: fab3 c3bc e002 c8bd 8da2 a4bc ce51 c73d
000001f0: f4c4 a13d 1f87 9f3d 656a 42bc 5fcc 98bd
00000200: 736c 65bd 7554 a0ba 766e afbd e94b d73d
00000210: dd53 5ebd a0b7 953d f87d c63d 0afb 91bd
00000220: 61a9 b9bd 3559 e73c f4d3 cd3c a8c0 5c3d
00000230: 8091 443d 4456 353d 29f1 bf3c 6e70 583d
00000240: 61ab 213d 4172 7dbd 44fa e33c fd47 9b3b
00000250: 50c2 573d a53c bebd 1e92 e03d be22 81bd
00000260: 371b be3d d12e ac3c 05cf 903d 4318 89bc
00000270: c697 0bbd fb2c 2fbd 4322 89bc 213b 82bd
00000280: 7c9f 963d 1b61 c33b 18a4 c43d a5ab 05bd
00000290: 3e36 7e3d 54cb 5c3d ad65 e13c 84b1 e3bd
000002a0: eb47 ad3d 7500 2e3d bfa4 92bd 8adb 26bd
000002b0: 9be4 90bd 1fd1 893d 6471 92bd c1fd 993d
000002c0: 6fa4 8a3c 3704 5e3d c417 6b3d f790 0f3d
000002d0: 1acc e0bb 306c 8a3d 73c9 b3bd fcc4 9c3b
000002e0: c0e0 1b3d 5469 a13d 19a6 ac3c b9f0 bebd
000002f0: bf93 2bbd 9efd 65bd 7f29 e5bc 4135 bd3d
00000300: f45f c0bd 7c68 72bd a1be 1c3d f20b dfbc
00000310: 4542 28bd 41cd 2b3d c319 fabc bf96 643d
00000320: 0c17 95bd b33a bf3d dbe9 5ebd 6109 97bd
00000330: 2f68 943d 8684 efbd 06fc bd3d ee9c 243d
00000340: e51f 3a3d 070b f53b 58f9 1b3d 03b3 2bbd
00000350: 0d45 84bd 58ed 74bd 060e f9bc 2c7f 56bc
00000360: 3e6d 9cbd f49c bcbd 4853 a13c 3395 70bd
00000370: 4980 d03d 774f 74bd 6d76 b93d d7f8 263d
00000380: 916d 30bd cf80 9abd 07cb bf3c 5fbb 89bd
00000390: a8f2 b3bd 8ada 9abd 7f0a c83d 3fa6 393c
000003a0: 5385 02bd 4720 613d a1b0 17bd 1ce4 b93d
000003b0: e6b7 6dbb ad12 95bd 8f00 6ebb d2aa ac3c
000003c0: 194c a83d c2e6 93bd 46e2 22bd f223 3bbd
000003d0: 0a55 aebd ef4c 5a3d 7a7d e5bc 33d4 5a3d
000003e0: a013 b23d 40f5 1fbd 282e 92bd eb0f 9dbc
000003f0: beb5 95bd ae2d c0bc 6885 63bd bc2f 733d

action_model._discrete_distribution.branches.0.bias f4 [5]
-0.05244039 0.006488349 0.022906307 0.013746186 0.008227841
00000000: bccb 56bd 379c d43b 02a6 bb3c af37 613c
00000010: 11ce 063c

onnx::LSTM_98 f4 [1, 256, 128]
-0.011246347 0.03429193 0.17311218 -0.06262661 -0.13826919 0.10667313 0.038268283 0.16219118
0.16942164 0.15519957 0.0005530102 -0.043576397 -0.010544685 0.10290417 -0.15491004 0.044855107
-0.047997773 -0.06026514 -0.08532214 0.00018864113 0.07004094 -0.13322057 0.10367089 0.087027475
-0.07801696 0.042182617 -0.078927636 0.005679566 -0.14848788 0.06431417 0.11925528 -0.13724731
-0.14642449 -0.15629327 0.19056235 0.066352494 0.11796332 0.08528364 -0.16357853 0.1224339
0.16182886 -0.16439976 -0.15958054 -0.009075289 -0.15412349 -0.11002246 0.1270074 0.084653236
0.13442662 0.12377026 -0.13760126 -0.045737125 0.050291564 -0.110600136 -0.0022252954 -0.09707181
0.1661786 0.01971686 0.074982025 -0.02276664 0.14282778 0.1444201 0.11898341 0.015194329
-0.12871811 0.10997037 0.11522138 0.045112155 0.1753569 0.023610702 0.036860596 0.10722099
-0.017276002 0.12828282 0.13984378 0.14870308 -0.08839061 0.08546731 0.12919375 0.12441287
0.1263396 0.048774466 -0.008358582 -0.038215708 0.03229175 0.13716105 -0.072924234 0.012632426
0.020929607 0.023308815 0.18749131 0.071499206 -0.05382997 -0.1395097 0.11965862 0.08002424
-0.09759596 -0.13433199 -0.051270816 0.10057127 -0.12332957 0.11327769 0.064500205 0.053529408
-0.11035456 0.06566405 0.125915 -0.106654204 0.07450511 -0.13060546 0.06905418 -0.13525255
0.059585616 0.1254919 -0.13159977 0.09974464 -0.102545075 0.03582159 0.014801397 -0.08565332
-0.03555198 -0.013225708 0.1406711 0.13637467 -0.033594705 -0.04756893 0.09944329 0.16466871
0.12212679 -0.13337737 0.09447068 0.17035306 -0.06071437 0.16240005 0.0042728535 0.048763268
0.18875156 -0.009947334 -0.16194306 -0.07498124 0.015569787 0.14539951 0.103016116 0.05668045
-0.0056576636 -0.05245836 0.069598794 -0.024083994 0.14261085 0.1471783 -0.074265786 -0.031266607
0.11102393 0.0043042377 -0.0366466 0.1331884 0.14495137 -0.102758706 -0.005026026 -0.15716718
0.033889573 -0.0022969672 0.1250041 0.14612868 -0.15104379 0.02633208 0.16372094 0.07875424
-0.118403405 0.037790135 -0.15346971 -0.07259376 -0.1407903 0.008357282 -0.052469797 0.06754602
-0.114096366 -0.12642543 0.011659496 0.065326005 0.12494418 -0.04004513 0.047164936 -0.18004721
-0.13420723 0.08438005 -0.022341939 -0.08448838 0.0497645 -0.11443713 -0.06449995 0.049043294
-0.1425255 -0.02090829 -0.17799482 -0.07918696 0.107191466 -0.13032953 0.12812808 0.017684119
-0.06301008 0.12024785 -0.04658737 -0.081922375 0.025691781 -0.104979254 -0.15548545 0.019415943
-0.113882266 0.17973398 0.16288593 -0.10827863 -0.005960805 -0.17154902 0.078361474 0.16344334
0.05921774 -0.0074169245 0.09472972 0.0279779 -0.041152563 0.034113657 0.020591633 -0.14828347
-0.08774159 0.10452181 -0.112843245 0.1442625 -0.06303511 -0.15153389 -0.12855174 -0.08205009
-0.12764153 0.16046648 -0.09819373 -0.053541474 0.14386658 0.040368948 -0.0067929835 0.104105376
0.019320423 0.09699871 -0.11712032 0.05909054 0.044338368 0.045550607 0.14067298 -0.05832846
0.109350994 -0.0762775 -0.15842289 -0.11223143 -0.09895714 0.11215202 0.03684897 0.07018129
00000000: 9942 38bc b275 0c3d 5244 313e 6142 80bd
00000010: 7096 0dbe 7177 da3d 34bf 1c3d 7215 263e
00000020: de7c 2d3e a3ec 1e3e e3f7 103a 2a7d 32bd
00000030: 9dc3 2cbc 6cbf d23d bda0 1ebe fdb9 373d
00000040: 5099 44bd 94d8 76bd 60bd aebd f8cd 4539
00000050: a071 8f3d f96a 08be 6751 d43d 763b b23d
00000060: 5bc7 9fbd aec7 2c3d d0a4 a1bd a71b ba3b
00000070: 350d 18be 26b7 833d 1d3c f43d 8f8a 0cbe
00000080: 4df0 15be 580b 20be c722 433e d1e3 873d
00000090: c196 f13d 30a9 ae3d 2181 27be a0be fa3d
000000a0: 77b6 253e 6958 28be 1569 23be 85b0 14bc
000000b0: 8cd2 1dbe 7553 e1bd 3a0e 023e ad5e ad3d
000000c0: 22a7 093e 437b fd3d 58e7 0cbe da56 3bbd
000000d0: 87fe 4d3d 5382 e2bd 43d6 11bb 96cd c6bd
000000e0: b92a 2a3e 4185 a13c 2d90 993d 1b81 babc
000000f0: 7241 123e dde2 133e 93ad f33d a3f1 783c
00000100: aece 03be 2538 e13d 30f9 eb3d 86c7 383d
00000110: c290 333e 3b6b c13c 23fb 163d ae96 db3d
00000120: 6786 8dbc 925c 033e 3533 0f3e 9f45 183e
00000130: 2306 b5bd 7c09 af3d 5e4b 043e 2dcc fe3d
00000140: 2b5f 013e bcc7 473d 6ff2 08bc 1388 1cbd
00000150: 5b44 043d f273 0c3e 4d59 95bd 3cf8 4e3c
00000160: 9174 ab3c 21f2 be3c b9fd 3f3e 2d6e 923d
00000170: d17c 5cbd a1db 0ebe 940f f53d c0e3 a33d
00000180: 64e0 c7bd 538e 09be 5901 52bd 4ff8 cd3d
00000190: 3794 fcbd 22fe e73d af18 843d a741 5b3d
000001a0: 9201 e2bd e07a 863d ddef 003e 856d dabd
000001b0: 2396 983d 70bd 05be 476c 8d3d a57f 0abe
000001c0: 0c10 743d f380 003e 17c2 06be eb46 cc3d
000001d0: 2703 d2bd a9b9 123d 8f81 723c 026b afbd
000001e0: f49e 11bd a4b0 58bc 160c 103e cda5 0b3e
000001f0: 9a9a 09bd a3d7 42bd eca8 cb3d ea9e 283e
00000200: 9c1d fa3d 1494 08be d879 c13d 0871 2e3e
00000210: a2af 78bd 334c 263e 4b03 8c3b febb 473d
00000220: 1748 413e 25fa 22bc 67d4 25be c48f 99bd
00000230: 6b18 7f3c 9ce3 143e 1dfa d23d c229 683d
00000240: ec63 b9bb 94de 56bd d089 8e3d cc4b c5bc
00000250: 9408 123e e9b5 163e a918 98bd 6a11 00bd
00000260: 8460 e33d 900a 8d3b bf1a 16bd 8a62 083e
00000270: 226e 143e 2873 d2bd 5db1 a4bb 6ff0 20be
00000280: cbcf 0a3d b788 16bb 1301 003e c2a2 153e
00000290: 39ab 1abe 60b6 d73c 76a6 273e e749 a13d
000002a0: 7c7d f2bd d4c9 1a3d 2a27 1dbe 0aac 94bd
000002b0: 552b 10be fbec 083c 92ea 56bd 9155 8a3d
000002c0: 5bab e9bd ab75 01be 7907 3f3c a4c9 853d
000002d0: bce2 ff3d 5d06 24bd 0530 413d 4c5e 38be
000002e0: 9f6d 09be 73cf ac3d 7106 b7bc 3e08 adbd
000002f0: dcd5 4b3d 045e eabd 8d18 84bd 9fe1 483d
00000300: 34f2 11be dd47 abbc 4644 36be c62c a2bd
00000310: 3387 db3d 1b75 05be 0234 033e 49de 903c
00000320: 6e0b 81bd 8144 f63d 66d2 3ebd ebc6 a7bd
00000330: 9277 d23c 5dff d6bd 9437 1fbe 2f0e 9f3c
00000340: 1b3b e9bd 2f0c 383e 92cb 263e 30c1 ddbd
00000350: db52 c3bb 8caa 2fbe fb7b a03d b15d 273e
00000360: 4d8e 723d ac09 f3bb a801 c23d e931 e53c
00000370: 978f 28bd c3ba 0b3d c9af a83c 9fd7 17be
00000380: ddb1 b3bd 880f d63d 5c1a e7bd 8cb9 133e
00000390: 8d18 81bd b32b 1bbe 11a3 03be e109 a8bd
000003a0: 76b4 02be 5351 243e cb19 c9bd 4e4e 5bbd
000003b0: c351 133e e959 253d ad97 debb 3335 d53d
000003c0: dd45 9e3c 42a7 c63d c7dc efbd ec08 723d
000003d0: 269c 353d 4693 3a3d 940c 103e d3e9 6ebd
000003e0: 6af3 df3d 6137 9cbd 9c39 22be 98d9 e5bd
000003f0: 0baa cabd f5af e53d f2ee 163d 35bb 8f3d

onnx::LSTM_99 f4 [1, 256, 64]
0.13255829 -0.05972977 0.17118295 -0.014205353 0.107135445 -0.1284415 -0.0071380204 0.02043862
0.113352194 0.109669656 -0.18608586 -0.18182454 0.1767115 -0.032528177 0.11650054 0.09826038
-0.14257947 0.17623278 0.019720072 -0.0029432026 -0.16700228 0.078617804 -0.06191004 0.22192907
-0.042190198 -0.11031197 0.20361727 0.11691526 0.12960325 0.0507629 0.049673777 -0.2113201
0.14153345 -0.15931678 0.2105948 0.052683264 -0.091095425 -0.039130554 0.045059964 -0.14241216
0.2105379 0.21001962 0.09561381 0.009204168 0.048544277 -0.015841573 0.2121397 -0.069472395
-0.16771902 0.1810125 -0.097117536 0.09025611 0.168255 0.13065162 -0.20238157 0.058688957
-0.21703565 0.13706928 0.105557635 0.16060446 0.093317255 0.21389268 0.15460089 -0.16186626
0.0008753325 0.11847971 0.048764914 0.18079953 -0.22800675 -0.14399448 0.17602603 0.05408772
-0.19589947 0.024892595 -0.22134182 0.07161024 -0.11212455 0.07545903 0.16121314 0.0778087
0.1483667 0.14853165 -0.06407257 -0.12966639 0.010480587 -0.037855953 0.16775629 0.04014584
-0.019171251 -0.038177237 0.08416751 0.08210364 0.11251723 -0.13060966 -0.16929774 -0.18098286
0.044288408 0.15650575 -0.12418436 -0.21405631 -0.039892994 -0.029627291 0.16946529 -0.041294567
0.07074726 -0.1221861 0.10065717 0.18290101 -0.055328958 0.04318216 0.0954969 0.107882366
-0.041557323 -0.15859841 0.048505597 0.14570825 0.15515168 -0.16773412 0.10072549 0.23124106
-0.06100768 0.15302752 0.07318964 0.08839372 -0.019775914 0.09869754 -0.020129953 -0.10294804
-0.15268998 -0.14328109 0.14198701 0.09042783 0.20780462 -0.060961556 -0.13346256 0.16589451
0.029169796 0.06916453 -0.11575126 -0.10894758 0.039340895 0.06608197 -0.13118008 0.053443193
0.00340839 -0.061426062 0.15845451 0.091730386 -0.111966945 0.18514675 -0.032384634 0.2577308
-0.028788297 0.20964517 0.17047082 -0.02671765 -0.05310829 -0.18897682 0.11047021 -0.13333932
0.017709835 0.24775457 -0.16749017 0.2579433 0.0500646 0.1361987 0.06649387 -0.10924487
0.1268794 0.15607288 0.01641906 0.035066463 0.14962421 0.12278522 -0.19366048 -0.020707132
0.14616165 -0.12002074 0.08747661 -0.1257046 0.044110086 -0.12442512 -0.0074226446 0.047218632
-0.2151991 -0.14627182 0.199214 -0.035186306 -0.05197725 0.11570675 0.01988046 0.041000262
0.054418813 0.14978158 0.10431263 0.04033273 -0.06497806 -0.033868473 0.063624986 -0.1351065
-0.1355943 -0.07624155 -0.049469966 0.044211112 -0.01116582 -0.103942566 -0.011140781 -0.16243532
-0.16901055 -0.17576921 0.053335316 0.10788855 0.085072994 -0.18836479 0.1842821 0.14997277
-0.0045035062 0.03816221 -0.22511384 0.033117414 0.114496306 -0.11162852 -0.163309 0.072487205
0.107885346 0.2457782 0.17926782 0.14497356 -0.1617102 -0.09819188 0.07378208 0.016953057
-0.09455037 0.21609898 -0.12470655 -0.21731801 0.07522955 -0.15881045 -0.14812957 -0.0482768
0.21487619 0.12779321 0.17735246 -0.11909079 0.080706194 0.1913219 0.08181191 -0.14068536
-0.20649603 -0.011892431 0.08937178 0.15780738 0.21085101 -0.058827624 0.027025776 0.020271283
00000000: 5cbd 073e 34a7 74bd 954a 2f3e 92bd 68bc
00000010: d469 db3d 2b86 03be 0ee6 e9bb e56e a73c
00000020: 3225 e83d 7c9a e03d 4b8d 3ebe 3630 3abe
00000030: dcf3 343e 443c 05bd d697 ee3d bd3c c93d
00000040: 5a00 12be 5e76 343e fd8b a13c bfe2 40bb
00000050: a502 2bbe 5f02 a13d 6295 7dbd 6041 633e
00000060: a1cf 2cbd 3eeb e1bd 0c81 503e 4571 ef3d
00000070: b7b6 043e c2ec 4f3d bb76 4b3d 4c64 58be
00000080: 25ee 103e f023 23be 2aa6 573e 68ca 573d
00000090: 3d90 babd 5c47 20bd cc90 383d 7ed4 11be
000000a0: 3f97 573e 620f 573e 2cd1 c33d 14cd 163c
000000b0: 5dd6 463d 30c6 81bc 263b 593e 8b47 8ebd
000000c0: 89be 2bbe 575b 393e 8fe5 c6bd 32d8 b83d
000000d0: 0a4b 2c3e 8ac9 053e 1d3d 4fbe d563 703d
000000e0: 983e 5ebe e45b 0c3e 9a2e d83d 7f75 243e
000000f0: 1e1d bf3d af06 5b3e b24f 1e3e 45c0 25be
00000100: 9276 653a 7da5 f23d b8bd 473d 8323 393e
00000110: 9a7a 69be 4a73 13be 2b40 343e 168b 5d3d
00000120: df99 48be 8eeb cb3c 6ea7 62be 64a8 923d
00000130: 8ea1 e5bd 448a 9a3d 0f15 253e 2b5a 9f3d
00000140: 71ed 173e ae18 183e 7b38 83bd 44c7 04be
00000150: c5b6 2b3c d80e 1bbd 4ec8 2b3e f76f 243d
00000160: 070d 9dbc bc5f 1cbd 0460 ac3d f425 a83d
00000170: 6f6f e63d 8abe 05be 635c 2dbe 9253 39be
00000180: c367 353d 0b43 203e 5f54 febd 9431 5bbe
00000190: d666 23bd efb4 f2bc 4f88 2d3e 7e24 29bd
000001a0: f0e3 903d b53c fabd 5925 ce3d 674a 3b3e
000001b0: 9ea0 62bd c7df 303d e193 c33d 6ef1 dc3d
000001c0: 0338 2abd 9f67 22be cead 463d 8b34 153e
000001d0: 15e0 1e3e 7ec2 2bbe 2a49 ce3d 75ca 6c3e
000001e0: 30e3 79bd 3fb3 1c3e 73e4 953d c407 b53d
000001f0: 1901 a2bc f021 ca3d 92e7 a4bc 6cd6 d2bd
00000200: c35a 1cbe 47b8 12be 0b65 113e 3a32 b93d
00000210: bcca 543e d3b2 79bd 69aa 08be 40e0 293e
00000220: 7ff5 ee3c 22a6 8d3d ff0e edbd e91f dfbd
00000230: eb23 213d fc55 873d 1254 06be 40e7 5a3d
00000240: 4c5f 5f3b e599 7bbd e641 223e 24dd bb3d
00000250: ed4e e5bd 1c97 3d3e c0a5 04bd 4bf5 833e
00000260: 6fd5 ebbc 39ad 563e e78f 2e3e f9de dabc
00000270: 1488 59bd 2483 41be 353e e23d 1a8a 08be
00000280: 3714 913c 60b3 7d3e 8b82 2bbe 2511 843e
00000290: 8a10 4d3d ac77 0b3e f02d 883d c6bb dfbd
000002a0: acec 013e 92d1 1f3e 4481 863c daa1 0f3d
000002b0: 1737 193e d176 fb3d ef4e 46be 01a2 a9bc
000002c0: 66ab 153e 6fcd f5bd f026 b33d b5b8 00be
000002d0: c7ac 343d 99d2 febd a839 f3bb 5368 413d
000002e0: 275d 5cbe 48c8 15be c1fe 4b3e 841f 10bd
000002f0: 19e6 54bd a9f7 ec3d 59dc a23c e4ef 273d
00000300: 43e6 5e3d 5860 193e dca1 d53d ef33 253d
00000310: 3813 85bd abb9 0abd d14d 823d 5c59 0abe
00000320: 3bd9 0abe 8824 9cbd 05a1 4abd b616 353d
00000330: d8f0 36bc d7df d4bd d387 36bc 7255 26be
00000340: 1a11 2dbe d8fc 33be 2276 5a3d acf4 dc3d
00000350: c03a ae3d b3e2 40be 72b4 3c3e 7692 193e
00000360: 2692 93bb fa4f 1c3d 3e84 66be 20a6 073d
00000370: 0a7d ea3d 7e9d e4bd 793a 27be 2c74 943d
00000380: fef2 dc3d 48ad 7b3e fc91 373e f373 143e
00000390: 5c97 25be d318 c9bd 0f1b 973d 23e1 8a3c
000003a0: a0a3 c1bd 0d49 5d3e 2666 ffbd 9d88 5ebe
000003b0: f311 9a3d 359f 22be 47af 17be e5bd 45bd
000003c0: 8108 5c3e 39dc 023e e29b 353e dfe5 f3bd
000003d0: 4a49 a53d e3e9 433e 018d a73d d30f 10be
000003e0: b273 53be 79d8 42bc 8d08 b73d 4298 213e
000003f0: 54e9 573e 3cf5 70bd 2965 dd3c f60f a63c

onnx::LSTM_100 f4 [1, 512]
0.059397716 0.0025177775 0.114142105 0.050854776 0.0076029208 0.07103554 0.09907164 0.05446589
0.09126631 0.05160124 0.016460022 0.08730171 0.039225705 0.06586436 0.06567352 0.059371054
0.076025225 -0.0078000072 0.05904962 0.029568283 0.047328614 0.12315009 0.07329152 0.03592951
0.070992135 0.08575433 0.022548687 -0.0012342691 0.080121964 0.04052582 0.064113855 0.036442798
0.041016415 0.038338896 0.06404755 0.06358331 0.07069397 0.08335195 0.031615894 0.07415592
0.055487044 0.021014621 0.027829183 0.051708404 0.05359341 0.03867625 0.040506124 0.032309316
0.016388306 0.05629574 0.028329559 0.034835882 0.019619891 0.0493303 0.07289161 0.030694613
0.045905124 0.081710644 0.02612105 0.057658095 0.06518042 0.05359409 0.026434736 0.0636284
0.07609317 0.001481945 0.098613515 0.05682946 0.0030527646 0.06467687 0.10980919 0.041032627
0.09455998 0.06456975 0.030093918 0.08242638 0.044093087 0.07289329 0.07606465 0.03357664
0.0702735 -0.01681067 0.06349487 0.019251231 0.030657759 0.12545323 0.09771053 0.03434839
0.077425346 0.082554065 0.032260705 -0.009975701 0.060091827 0.026354969 0.074595645 0.028048607
0.02553418 0.04093783 0.0700249 0.054218907 0.08703412 0.09203429 0.036416553 0.07029916
0.06190052 0.03249692 0.0431702 0.046026725 0.04452209 0.03423797 0.059777576 0.039636523
0.041974954 0.047798805 0.023215346 0.018498456 0.01220489 0.05182989 0.08968688 0.012167632
0.053740952 0.06748673 0.03306071 0.05207387 0.058883484 0.05483259 0.02000412 0.076466024
0.9876281 0.99187267 0.9955176 0.9895752 0.9829667 0.9897667 0.988682 0.9585869
0.9972834 0.9968277 0.9719046 0.9857031 1.0037823 0.99262244 0.98547775 0.965234
0.98892903 0.98327744 1.0050952 0.9898077 1.0089827 0.9945791 0.97802407 0.98251957
0.96853435 0.9977316 0.9828869 0.9500389 0.9865489 0.96754974 0.996175 0.99045557
0.9832711 0.9650888 0.98672587 1.0038766 0.9912289 0.9993161 0.9691694 0.9995399
0.99303764 0.98653156 0.9870055 1.0098437 0.99244267 0.98185545 1.0071539 0.9793168
0.9843417 0.97603774 0.96394134 1.0006827 0.9950978 1.000802 0.97975826 0.99408674
0.9985562 0.9716083 0.99519515 0.97769696 0.9652874 1.0062397 0.98483735 0.9729148
-0.0058759116 -0.020652244 0.017575108 -0.0018182639 -0.006144291 0.0196694 0.0015326878 0.012596271
0.0018639899 -0.005429482 0.0037808097 -0.0034419242 0.018265123 -0.002857068 0.00019755618 -0.012100847
0.0075652692 0.007734196 0.032284595 0.0031935512 0.003151146 -0.013374777 0.0052558337 0.0093339635
-0.00010476582 -0.0056255152 0.0015212799 -0.020489158 -0.0019840084 -0.012973057 0.0051504713 0.014981067
0.0031091026 0.008631077 0.0054754335 0.01996119 -0.008156539 0.0126810195 0.011260547 -0.00242808
0.018049503 0.00067547435 -0.009897794 -0.009460036 -0.0053800223 -0.0036550716 -0.008465055 0.02045716
0.011448707 0.008601635 0.0155534055 -0.013607837 -0.0049749054 0.00841538 0.0076744384 0.012204076
-0.008641521 -0.01062839 0.009916713 -0.002520268 -0.014047298 0.0018744741 0.003281077 0.0008196911
00000000: 054b 733d 4c01 253b 56c3 e93d 194d 503d
00000010: ec21 f93b 157b 913d 12e6 ca3d a017 5f3d
00000020: d5e9 ba3d d25b 533d 2bd7 863c 3dcb b23d
00000030: 22ab 203d e5e3 863d d77f 863d 102f 733d
00000040: 1db3 9b3d 3497 ffbb 04de 713d 2f39 f23c
00000050: a6db 413d 1d36 fc3d dd19 963d d22a 133d
00000060: 5364 913d f79f af3d 06b8 b83c 33c7 a1ba
00000070: fc16 a43d 67fe 253d 204e 833d 0b45 153d
00000080: d400 283d 3f09 1d3d 5d2b 833d f737 823d
00000090: 00c8 903d 6db4 aa3d ab7f 013d 0fdf 973d
000000a0: 6246 633d db26 ac3c 07fa e33c 31cc 533d
000000b0: c384 5b3d fd6a 1e3d c0e9 253d c656 043d
000000c0: c540 863c 5d96 663d 6413 e83c 12b0 0e3d
000000d0: e5b9 a03c 920e 4a3d 3248 953d 4573 fb3c
000000e0: 0307 3c3d e957 a73d d0fb d53c e52a 6c3d
000000f0: 507d 853d 7a85 5b3d a98d d83c 9b4f 823d
00000100: bcd6 9b3d d33d c23a e2f5 c93d 02c6 683d
00000110: e410 483b 4f75 843d a4e3 e03d d411 283d
00000120: aaa8 c13d 253d 843d 8587 f63c 29cf a83d
00000130: f49a 343d 1449 953d c9c7 9b3d a987 093d
00000140: 8eeb 8f3d 88b6 89bc 9909 823d c2b4 9d3c
00000150: fb25 fb3c d076 003e 751c c83d e6b0 0c3d
00000160: 2e91 9e3d 1b12 a93d cd23 043d 1f71 23bc
00000170: d922 763d 60e6 d73c 9ac5 983d 31c6 e53c
00000180: 0f2d d13c 6dae 273d 3769 8f3d a514 5e3d
00000190: f23e b23d 797c bc3d 8629 153d 02f9 8f3d
000001a0: 668b 7d3d 7e1b 053d 3cd3 303d 8586 3c3d
000001b0: cc5c 363d 1d3d 0c3d 55d9 743d e859 223d
000001c0: eeed 2b3d aec8 433d 1c2e be3c 138a 973c
000001d0: 05f7 473c 944b 543d c1ad b73d bf5a 473c
000001e0: 791f 5c3d 7c36 8a3d ab6a 073d 694b 553d
000001f0: cf2f 713d 2398 603d aedf a33c 389a 9c3d
00000200: 32d5 7c3f 5eeb 7d3f 3eda 7e3f cd54 7d3f
00000210: b5a3 7b3f 5a61 7d3f 431a 7d3f f365 753f
00000220: f74d 7f3f 1a30 7f3f bdce 783f 0a57 7c3f
00000230: f07b 803f 811c 7e3f 4548 7c3f 9319 773f
00000240: 742a 7d3f 12b8 7b3f f6a6 803f 0a64 7d3f
00000250: 5826 813f bc9c 7e3f c95f 7a3f 6786 7b3f
00000260: def1 773f 576b 7f3f 7a9e 7b3f c035 733f
00000270: 788e 7c3f 57b1 773f 5305 7f3f 7f8e 7d3f
00000280: a8b7 7b3f 0f10 773f 119a 7c3f 077f 803f
00000290: 2dc1 7d3f 2ed3 7f3f 7c1b 783f d9e1 7f3f
000002a0: b737 7e3f 558d 7c3f 64ac 7c3f 8f42 813f
000002b0: b910 7e3f e15a 7b3f 6bea 803f 81b4 7a3f
000002c0: d1fd 7b3f 9cdd 793f dcc4 763f 5f16 803f
000002d0: bbbe 7e3f 481a 803f 70d1 7a3f 787c 7e3f
000002e0: 61a1 7f3f 52bb 783f 1cc5 7e3f 594a 7a3f
000002f0: 131d 773f 76cc 803f 4d1e 7c3f f210 793f
00000300: b88a c0bb e52e a9bc acf9 8f3c d052 eeba
00000310: 0c56 c9bb b921 a13c 78e4 c83a 9760 4e3c
00000320: 1f51 f43a cce9 b1bb 76c7 773b e891 61bb
00000330: bda0 953c a63d 3bbb 1527 4f39 a242 46bc
00000340: 14e6 f73b 236f fd3b da3c 043d e64a 513b
00000350: 7583 4e3b e121 5bbc 2139 ac3b 7bed 183c
00000360: b9b5 dbb8 3e56 b8bb af65 c73a e1d8 a7bc
00000370: 2306 02bb f28c 54bc 49c5 a83b 2673 753c
00000380: 16c2 4b3b 5c69 0d3c 446b b33b a685 a33c
00000390: 01a3 05bc 0dc4 4f3c 287e 383c 6c20 1fbb
000003a0: 8ddc 933c 5112 313a 5b2a 22bc 44fe 1abc
000003b0: e64a b0bb ed89 6fbb 04b1 0abc c695 a73c
000003c0: 5c93 3b3c dfed 0c3c b6d3 7e3c 68f3 5ebc
000003d0: 8804 a3bb a9e0 093c db79 fb3b 9bf3 473c
000003e0: 2b95 0dbc b322 2ebc b679 223c 152b 25bb
000003f0: a326 66bc eab0 f53a 5607 573b 8ae0 563a
