Scenes/ImprovedGridWorld2D/results/ppo-memory-32-curriculum/DroneGrid2D/DroneGrid2D-699941.onnx (onnx, 276723 bytes, 9 tensors)

network_body._body_endoder.seq_layers.0.weight f4 [128, 6]
000000 76 1a 75 3e b4 44 04 3e 64 60 c6 3d 50 de 83 bf
       0.23935875 0.12916833 0.09686354 -1.0302219
000010 c0 21 1b 3e 7d 98 13 bf 79 b2 a6 be 3a 09 2e 3e
       0.15149593 -0.57654554 -0.3255804 0.16995707
000020 b3 f6 09 3f 53 d7 46 bf ab d7 97 bf 5a e1 18 bf
       0.5389206 -0.7767231 -1.1862692 -0.5971886
000030 49 ea d4 be ec c5 72 bd 8b d9 59 3e 0c e0 e2 3e
       -0.41584995 -0.059270784 0.21274392 0.4431156
000040 35 f4 88 3e 16 0f c2 3e 1b ee 2f bf 3f 21 c6 3e
       0.26748815 0.37902135 -0.68722695 0.3869724
000050 a6 43 f9 3e c5 f3 fe bd 65 b9 66 3f e3 5a 00 be
       0.48684424 -0.12448839 0.9012664 -0.1253467
000060 ee f8 d5 bd 79 c0 f5 3d a8 d4 e6 3e ee 26 83 bf
       -0.1044787 0.11999602 0.4508412 -1.0246255
000070 96 34 3e be 40 c8 f4 be 45 52 00 bf 23 84 20 bd
       -0.18574747 -0.4780903 -0.50125533 -0.039188515
000080 77 5f 0d 3f e4 e1 4c be ee 95 95 3e 92 06 b0 be
       0.5522379 -0.20008045 0.2921595 -0.34380013
000090 fe ae 03 3f 9b fe c3 be a5 c4 b8 3e 7a 1f 17 3e
       0.5143889 -0.38280186 0.36087528 0.14758101
0000a0 ce ad 09 bf 02 c4 f6 3e 59 dd 3f bf 6c 4a f8 be
       -0.5378083 0.48196417 -0.74947125 -0.4849428
0000b0 88 23 71 3e 82 98 bf 3d 82 77 d7 3e aa 43 b6 3e
       0.2354871 0.093552604 0.42083365 0.355985
0000c0 6c 38 2c 3e eb 20 08 bf 64 1f 75 3b ae 5d eb bd
       0.16818398 -0.5317523 0.0037402743 -0.11492477
0000d0 b2 8c 24 bf 7e ce a3 be ea dc 9e be 60 26 50 bd
       -0.64277184 -0.3199348 -0.3102792 -0.050817847
0000e0 74 d7 a8 be 7b a1 5c be 3f 29 fe 3e 6d 4c f6 be
       -0.32976878 -0.21545975 0.49640843 -0.48105183
0000f0 ca e7 80 3e 2b 65 1e be 8c 1f 8b be 6d b3 41 bd
       0.2517684 -0.1546828 -0.27172506 -0.047290254
000100 ae 6a 13 be f9 38 36 bf 9b 96 0a be e4 06 69 be
       -0.14396164 -0.71180683 -0.13534014 -0.22756535
000110 b0 2a 28 be cd 0d 61 be 27 68 df 3e 8c a0 93 3e
       -0.16422534 -0.21977921 0.4363415 0.28833425
000120 b5 35 7f 3e ed ce 2b be 31 3d 49 be 70 d9 c7 be
       0.24922831 -0.16778155 -0.19652249 -0.3903308
000130 45 bc 2a 3f 53 0e 10 3e 9a 2c 36 3e 50 66 f7 3d
       0.66693527 0.14067964 0.17790452 0.120800614
000140 22 4a e0 bd 10 f7 aa be 92 6d a0 3d dc 6e cf be
       -0.1095164 -0.3339162 0.07833399 -0.40514266
000150 dc 13 82 be 7c cf 32 bf 38 45 1b bf 53 5a 7e be
       -0.25405777 -0.69847846 -0.60652494 -0.24839143
000160 c7 d2 49 3e a5 61 2a 3f 78 66 57 be 4f 8e fa be
       0.19709311 0.66555244 -0.21035182 -0.48936698
000170 ed 64 1a 3f 25 6f 20 3e 3d 4f c3 3e c9 11 5d bf
       0.6031025 0.15667398 0.38146392 -0.86355263
000180 50 f7 88 3e a3 fd aa 3e 82 82 26 3f a7 86 9b 3e
       0.26751184 0.33396634 0.6504289 0.3037617
000190 07 7f d5 3e 45 ad 4c 3e 6b 7b 4e bf 0f 53 c3 bd
       0.41698477 0.19987972 -0.8065707 -0.095373265
0001a0 a1 2d 40 bf b4 88 78 bd aa f7 cb 3d 6a 93 62 3f
       -0.75069624 -0.060677245 0.099593475 0.88506186
0001b0 57 fa 62 3f 4d db 14 bf af f8 4b 3f 82 3b 34 bd
       0.8866324 -0.58147126 0.79676336 -0.044002064
0001c0 53 c8 41 3e 7d 76 8c 3e 11 d6 74 be e6 19 6f 3f
       0.18924074 0.2743415 -0.23909785 0.9339889
0001d0 16 06 a9 3d 33 6a 70 3e d7 1b 68 bf c0 70 b0 3d
       0.08253114 0.23478012 -0.9066748 0.08615255
0001e0 e0 1d cd be 05 9b 9a bd ed 82 93 be 31 13 48 be
       -0.40061855 -0.07549099 -0.28810826 -0.19538571
0001f0 14 0b c9 3d 45 8a 44 3e 48 a4 55 3f 84 86 3d 3e
       0.09816566 0.1919337 0.834538 0.18508345
000200 1e 13 90 3f a0 d0 cb 3b e6 88 3f be 8d 8c c0 bd
       1.1255834 0.0062199384 -0.18704566 -0.09401808
000210 b1 aa 9f bd 56 11 95 3c cf bf d6 3d 02 4c 8a be
       -0.07796229 0.018196743 0.10485803 -0.27011114
000220 7a e7 45 3f 4c c1 0d 3e be 80 f6 3e e6 38 1b be
       0.7730633 0.13843268 0.48145097 -0.15158424
000230 fe 44 26 be a9 6f c3 bd 3b b9 10 3f cf 00 37 bf
       -0.16237256 -0.09542782 0.5653264 -0.7148561
000240 a9 36 e3 3e 47 e7 05 3f a3 e9 0a bf 3f b2 08 3f
       0.4437764 0.52306026 -0.5426275 0.5339698
000250 0d b5 26 be 87 bc 8a bf 13 44 52 bf 11 3b 4d be
       -0.16280003 -1.0838784 -0.82135123 -0.20042063
000260 2d cb 47 3f 9e bc 1f 3e eb 9d f2 3c 8b 45 16 bd
       0.78044397 0.15599295 0.029616317 -0.036687415
000270 e9 13 f1 3e 79 76 ac be 9b 1a 4e 3e c5 e3 7e bf
       0.47085503 -0.33684137 0.20127337 -0.995663
000280 e2 b9 20 be 18 00 39 3f d0 f8 95 3e 1c 17 3e 3e
       -0.15695909 0.7226577 0.2929139 0.18563503
000290 c3 99 08 3e e6 2d a3 be a3 8c e5 bd 9b e3 6a 3f
       0.13339905 -0.31870955 -0.11208465 0.9175355
0002a0 e7 58 18 3f 2f 6d 99 3e 8a 5e f0 bd 7c de cb be
       0.59510654 0.29966113 -0.11736782 -0.3981818
0002b0 f3 df 94 be 91 45 4f 3e b0 7b 48 3e 43 9d 28 3e
       -0.2907711 0.20241381 0.19578433 0.1646624
0002c0 37 c0 31 bf b0 7f 0d bf 3d f8 21 bf eb 00 d8 be
       -0.6943392 -0.5527296 -0.63269407 -0.421882
0002d0 1b 75 1d bd 1d b5 e2 bd 62 73 17 bf 8c 19 b9 3d
       -0.03844176 -0.11069701 -0.59160435 0.09038076
0002e0 86 b6 0d bf 01 29 ae bc c6 ad 9e 3e 52 3a 08 3d
       -0.55356634 -0.021259787 0.30991954 0.033258744
0002f0 22 76 8b 3e 98 ef cd be 98 da f3 3e 28 34 33 3e
       0.27238566 -0.40221858 0.4762771 0.17500365
000300 5a b4 cb 3d ea 1a 42 bf 8f 87 3d bd 81 fb 99 3e
       0.09946509 -0.7582232 -0.046271857 0.30074695
000310 0d 07 1f 3e 4d 36 03 3e 94 37 82 be 66 a0 86 be
       0.15530033 0.12813683 -0.25433028 -0.2629425
000320 8a 75 04 3e ed de 81 3f 33 6a 8a 3f 93 f8 94 be
       0.12935463 1.0146157 1.081366 -0.29095897
000330 cf 11 27 3e 5b cf 03 3f 14 6e 9a be e1 bd 70 3d
       0.16315387 0.51488274 -0.30162108 0.058774833
000340 ee d1 32 3f 2b 65 04 bf 24 fe 2a bf 62 88 a3 be
       0.6985158 -0.5171687 -0.6679404 -0.3193999
000350 05 bc 98 be 21 b8 b7 3d 1e c2 69 be 4b 17 65 bf
       -0.29830948 0.08970667 -0.22827956 -0.8948867
000360 e3 44 9f bc 1b 26 1a bf 47 25 07 be 21 12 f1 3c
       -0.019442027 -0.60214394 -0.13197814 0.02942759
000370 db 16 17 3d c6 bc db 3d b7 ae 2f be ac fa 46 3c
       0.03688703 0.10729365 -0.17156492 0.012144726
000380 e0 55 f4 be 47 66 10 bf 71 20 93 3e 4f 4d 14 bf
       -0.47721767 -0.5640606 0.28735688 -0.57930464
000390 dd bf f3 bd c5 bc 44 3f 12 81 89 bd 48 a8 ac 3e
       -0.119018294 0.7685054 -0.06714071 0.33722138
0003a0 bd 9c d8 be c2 ba aa bd 43 30 cc bd 68 1c 0b 3f
       -0.42307082 -0.083364025 -0.09970143 0.5434022
0003b0 20 57 02 3d 59 5c e2 3e 4d c2 14 bf f9 ed 83 3d
       0.03182137 0.4421108 -0.5810898 0.06441874
0003c0 42 a6 9e 3d 5c c7 c7 be 1a 4d 44 be 70 a8 9a 3f
       0.07746555 -0.39019287 -0.19170037 1.2082653
0003d0 e7 c7 24 3e 7e 17 ac be 10 25 c0 be e4 9e 16 3f
       0.16091882 -0.33611673 -0.37528276 0.588362
0003e0 5e fd 01 bf 51 40 a9 be e7 15 0c 3f 18 ce 2c 3f
       -0.5077723 -0.33056882 0.5472092 0.67501974
0003f0 aa 82 bc bc 67 85 b0 3e 30 54 64 be 72 1a a4 3e
       -0.023011524 0.34476778 -0.2229774 0.32051426

network_body._body_endoder.seq_layers.0.bias f4 [128]
000000 af ff aa 3c 7a f7 f6 39 95 15 00 bd 1a 10 b2 3c
       0.020873873 0.0004710516 -0.031270582 0.021736193
000010 1d df 55 3c e6 ba ea bc 31 20 13 3c a5 d6 a7 3c
       0.013053683 -0.028653573 0.008979843 0.020488093
000020 f1 2a 13 3d 8a b3 a9 3c a1 2b d2 3c 98 17 ea 3c
       0.035929624 0.020715494 0.02565557 0.028575704
000030 e3 c5 f8 3b 41 a7 a1 3c 26 7a ba bc 6a 23 3f 3c
       0.0075919493 0.019733073 -0.022763323 0.011666158
000040 3c 2e d3 bc d3 22 d5 ba 36 6a 1d 3c ca 2e 07 3d
       -0.025778882 -0.0016260989 0.009607842 0.033003606
000050 66 b9 1d bd ab ed d7 3d be e1 fe bc 81 d7 be 3c
       -0.038506888 0.105433784 -0.031113502 0.02329612
000060 b9 e7 a7 3c b1 f8 04 3d 36 43 31 bc fa f7 bf 3c
       0.020496236 0.032463733 -0.010819247 0.023433674
000070 0b 15 47 3c 0b d8 20 3d 95 c3 ff 3c 31 bb fc 3a
       0.012151013 0.039268535 0.03122119 0.0019281862
000080 09 b7 41 3d 94 13 95 3b 2a 7e ef 3b 17 cc 7b 3b
       0.047293697 0.004549453 0.007308741 0.0038421208
000090 ab bb e4 bc f2 ec a2 3c 4a a8 3a 3c 57 96 2f 3d
       -0.027921518 0.019888375 0.011392662 0.042867985
0000a0 1d 4f 4f 3d f8 d2 db 3c d3 a2 9c 3c c5 c8 4d 3d
       0.050612558 0.026833996 0.01912061 0.050240297
0000b0 0c 76 93 bc c2 3f 16 3d 75 fc 98 3c f0 db df 3c
       -0.018000625 0.036681898 0.018675068 0.027326554
0000c0 c2 da f7 3a be c1 35 3d 67 9d b7 3c 8f 45 09 3d
       0.0018909799 0.04437422 0.022413922 0.033513602
0000d0 8e 0e 94 3c 8f 1b 98 bc e5 77 5a 3d e0 1f 78 3c
       0.018073346 -0.018567828 0.053336997 0.015144318
0000e0 ae e4 02 3d 7e 3b 4a bb e9 bf 53 3c a2 3b d8 3c
       0.031956367 -0.0030858214 0.012924173 0.026395623
0000f0 b0 53 a2 3c d7 55 9d 3c 34 60 ac 3c 12 eb f5 ba
       0.019815296 0.01920597 0.021041967 -0.0018762073
000100 f6 c1 84 3c 05 d8 1f 3d 8a f2 7d 3d 25 67 bd 3c
       0.016205769 0.03902437 0.06199888 0.023120472
000110 4c 06 d0 bc 25 e4 cc 3c 73 4d c5 ba e4 c5 5f 3d
       -0.025393628 0.025011132 -0.0015052989 0.054632083
000120 3e 49 73 bb f0 cc 5c 3a 7a d4 c6 3c bd 3a 97 3d
       -0.0037122513 0.0008422872 0.024271239 0.0738425
000130 4f 4d 9d 3c 9c 21 a0 3c 88 f8 96 3c b6 7a 84 3c
       0.019201903 0.019547276 0.018429056 0.016171794
000140 f2 4a 27 bb fb 14 1e 3c df de 6b 3d 0e 4e 14 3d
       -0.0025526849 0.009648557 0.057585593 0.03620725
000150 ae 32 0e 3d ec 1d 5d bc 59 93 9f 3c 54 7a d2 3c
       0.0347163 -0.013495903 0.01947944 0.025693096
000160 e6 f2 b5 3c 5d 50 39 ba d6 1e 18 3c 78 c8 5a 3c
       0.02221055 -0.0007069165 0.009284696 0.01335346
000170 09 82 3b 3c dc 22 2a bd 56 29 11 bc 35 3c bc 3b
       0.011444577 -0.04153715 -0.008859953 0.005744482
000180 b9 79 aa bd ed 34 5a 3d 15 f7 57 bb 4c 55 aa 3c
       -0.08323998 0.05327313 -0.003295367 0.020792626
000190 12 2f 44 3d 9e 91 17 3d e0 24 e3 3c ee 7c 80 3c
       0.047896452 0.037004106 0.027727544 0.015684571
0001a0 15 72 84 3c e4 d0 c1 3c d9 6f 40 bd 29 e0 db 3a
       0.01616768 0.023659177 -0.046981666 0.0016775179
0001b0 aa 29 3c 3c a4 a5 06 bb c1 bc 94 3c 13 13 b3 3c
       0.011484543 -0.0020545507 0.018156411 0.021859681
0001c0 3a df 55 3c 82 22 68 3c ee da b9 3c 44 49 03 3d
       0.01305371 0.014168384 0.022687402 0.032052293
0001d0 75 75 7d 3d f7 09 82 3c cf 3d 12 3c c4 85 9c bc
       0.061879594 0.015873892 0.008925869 -0.019106753
0001e0 ce 87 af bc c0 51 aa 3b 26 82 2a b9 41 fc c8 3c
       -0.021427061 0.0051977336 -0.00016260947 0.024534347
0001f0 f8 78 ad 3a 37 d2 32 bb a5 0f 0b 3d fb bb b9 3c
       0.0013234904 -0.0027285942 0.033950467 0.022672644

network_body._body_endoder.seq_layers.2.weight f4 [128, 128]
000000 61 58 c7 3c 0b 63 e6 3d 44 f7 4a 3b bc e1 2a 3d
       0.024334135 0.1124936 0.0030970136 0.041719183
000010 56 1e 43 bd 27 51 b9 3d ab 56 1e 3e 26 f9 3b be
       -0.047636352 0.09048682 0.15462749 -0.18356761
000020 f1 1a 37 bd 2e b4 92 bd be 0d 32 3d 4d 64 8b bd
       -0.044703428 -0.07163273 0.043470137 -0.0680624
000030 7a d4 0e be 50 e3 0a 3d 0c 0c 85 3b d3 e6 32 3d
       -0.13948241 0.03390819 0.004060274 0.043677162
000040 f5 da 07 bd 76 15 a9 be b5 8c b0 bc a7 be 44 3e
       -0.033167798 -0.33024186 -0.02155147 0.19213353
000050 12 67 b2 3d 70 b0 9c 3d 4d 9a 2b be 98 35 e7 bd
       0.08711065 0.0765084 -0.1675808 -0.11289519
000060 7f d8 02 3d 9a 36 37 bd d5 03 14 be 2c 63 d8 bd
       0.031944748 -0.044729806 -0.14454587 -0.105657905
000070 22 0c 74 3c fe 11 18 bb f8 9c 3e bc 1d 02 42 3d
       0.014895471 -0.0023204084 -0.011634104 0.047365297
000080 32 08 bc 3c 04 dd 80 bd 11 8d 01 3d 89 db 55 3d
       0.022953127 -0.062921554 0.031628672 0.05221132
000090 aa 10 6f 3c 0f 62 bd bc 68 c8 73 bd 60 90 06 3d
       0.014591375 -0.023118047 -0.059517294 0.03285253
0000a0 f0 af 3a 3a 1e bd 03 be 6e be 56 3e 4e 05 0c 3e
       0.00071215536 -0.12865111 0.2097108 0.13673899
0000b0 3f d9 c4 bc 7e 90 df bd 8c c9 10 3b 0a de 3b 3e
       -0.024029372 -0.109162316 0.0022092788 0.1834642
0000c0 8a 6b 78 bd 02 b1 93 bd 89 f2 eb 3c 53 5a 3b 3e
       -0.060649432 -0.07211496 0.028802173 0.18296175
0000d0 3a 55 12 be 78 19 18 3e 0b 2d cb bd 41 95 78 bc
       -0.14290324 0.14853466 -0.09920701 -0.015172304
0000e0 ee 67 4c 3d 55 75 17 bd 04 65 78 3e 40 59 d6 3c
       0.049903803 -0.03697713 0.24257284 0.026165605
0000f0 d0 4b 9f bd 53 34 fa bb 61 33 34 bd 06 a1 5d 3d
       -0.07778132 -0.007635632 -0.04399431 0.054108642
000100 14 7e 0f bb 3a cc 8b bd 1f 87 6c 3e e6 b5 45 3c
       -0.0021895217 -0.068260625 0.2309842 0.012067294
000110 4a b7 b7 ba 55 e7 68 3e be 1b 35 3e b3 9c 0c be
       -0.0014016416 0.22744496 0.17686364 -0.13731651
000120 a2 8f 13 3c d1 d6 e3 bc c6 05 c2 3b e3 32 a4 3d
       0.009006413 -0.027812393 0.0059210984 0.08017518
000130 0e d5 03 be c4 7e 04 3d 90 3f 64 3d 28 01 15 be
       -0.12874243 0.032347456 0.05572468 -0.14551222
000140 50 2a f4 3d d9 94 24 be 6a 67 35 bd f7 d2 87 be
       0.11922133 -0.16072406 -0.044288076 -0.2652814
000150 f4 b7 6a 3e a6 57 f0 bd eb 18 35 3d 01 9d f5 3c
       0.22921735 -0.117354676 0.044213217 0.029982092
000160 c2 17 1f 3d e9 a6 26 3a 9c cc fc 3c c4 39 49 be
       0.038841017 0.0006357269 0.030859284 -0.19650942
000170 13 1f 3d 3e 85 61 b6 bb 32 a6 14 be 53 67 35 3e
       0.18468885 -0.0055658245 -0.14516523 0.17715196
000180 4f ea 81 bc 32 75 0e 3d 99 2e 44 3d 37 29 a9 be
       -0.015858797 0.034779735 0.047896 -0.33039257
000190 b8 59 ca 3c cd 50 45 bd 87 ae 90 3d f1 23 10 be
       0.024700984 -0.04817276 0.070645384 -0.1407621
0001a0 de e5 80 3e 40 76 1a bd f5 6b 16 be 4b 37 73 bd
       0.25175375 -0.03771043 -0.1468962 -0.059378903
0001b0 02 08 bc 3d 6d 6b b4 bd cb 88 c3 3d 9d 45 39 3e
       0.09181215 -0.08809552 0.095475756 0.18092962
0001c0 f0 d1 99 3b 66 43 dd bd ac 76 8e 3e 81 6f 85 bd
       0.004694216 -0.10803871 0.27824914 -0.06515408
0001d0 f1 54 ce 3d f4 36 4b 3c c6 2a 4d 3d 72 bb 15 be
       0.10074795 0.012403239 0.05008962 -0.14622286
0001e0 7e 84 a4 3b 67 0a 6d 3e 91 24 1b 3e b1 37 16 3e
       0.005020677 0.231485 0.15150668 0.14669682
0001f0 6d a7 07 3d 90 25 ac bd 60 ca 15 bd 75 16 67 bd
       0.033118654 -0.08405602 -0.036569953 -0.0564179
000200 e1 6e c5 bd bc 4d 46 3d f9 69 b8 bd 2b ac f7 3d
       -0.09640289 0.048413977 -0.09004588 0.12093385
000210 ec c3 ef 3d c8 06 0e be c3 d0 22 be db b7 87 3d
       0.11707291 -0.13869774 -0.15899949 0.066268645
000220 5c b1 ed 3d a1 c1 66 bd ff e0 89 3e 39 d7 ea bd
       0.11606094 -0.056337003 0.2692947 -0.11466832
000230 35 36 66 bd d7 ca 90 3d e2 17 ec bd d0 d9 44 3e
       -0.05620404 0.07069939 -0.11527993 0.19223714
000240 96 3e 47 3d a9 a0 2a be 93 32 b8 3c a8 e6 ad 3d
       0.04864367 -0.1666285 0.022485053 0.0849126
000250 27 9c 1e bd 6d 1b 10 3c e2 f4 a5 bd 09 e5 ab 3c
       -0.038723137 0.008795601 -0.08103348 0.020983236
000260 11 2c 92 3d e1 1f e1 3d d3 15 2b be ad 32 ac bd
       0.07137311 0.109924085 -0.16707544 -0.08408103
000270 c6 d1 3b 3c b4 ac 96 3e e0 b8 85 3c 9f ab 14 bd
       0.011463588 0.29428637 0.016323507 -0.036296483
000280 da bc 01 3e 45 ca da 3c 7f 55 2c 3d a7 b0 ba 3c
       0.12669697 0.026707778 0.042073723 0.022789313
000290 02 d3 41 bd 38 f5 fe bc 84 1a d2 3d 40 5f 0f bd
       -0.047320373 -0.031122789 0.10258964 -0.035002947
0002a0 04 07 0e 3e ee cc b9 bd 69 2c 01 3e 94 06 50 3d
       0.13869864 -0.0907229 0.12614597 0.050787523
0002b0 0b 20 75 bd 24 6f b7 bd 64 33 e4 3d d5 ba 29 3e
       -0.05984501 -0.08956745 0.111426145 0.16575177
0002c0 6b ee 36 3d 19 e8 99 3e ec d1 d0 bd da 9f 00 3e
       0.044660967 0.3005989 -0.101962894 0.12560979
0002d0 de f5 86 bd ec b5 e3 3d 90 47 8f 3d ed 46 34 3c
       -0.06589864 0.11118683 0.06996071 0.011003238
0002e0 c6 b0 a7 3d 49 34 00 be d7 d0 95 bd b7 50 5b 3d
       0.08188014 -0.12519945 -0.07315224 0.053543773
0002f0 ae 97 3f 3e 8b 2d 57 3e 99 96 01 3e fb 1a f3 bc
       0.18710205 0.21013467 0.12655105 -0.029675951
000300 b5 6b ca 3d 6b de d6 3b b3 26 68 3e 5e 8c ec 3d
       0.09883825 0.006557276 0.22671013 0.115502104
000310 a2 df dd 3c ed 24 e9 3d ff b3 4a 3e 16 6d e3 3d
       0.027084175 0.11383996 0.19795226 0.11104791
000320 cd e0 b7 3c db 37 37 3e 72 88 9d bc cf 64 43 3d
       0.02244606 0.17892401 -0.019230101 0.04770356
000330 f8 0e 14 bd 89 b5 f5 3d 7b 51 6b 3d 6c 61 15 bd
       -0.036147088 0.11997516 0.057450753 -0.036469862
000340 8c 7f 38 3e 48 95 d4 3d 6a f8 62 bd 53 f2 8b bd
       0.18017405 0.10380036 -0.055412687 -0.06833329
000350 6d d9 10 3e 91 94 eb bb 65 9e a2 bd 23 ed 5e bd
       0.14145441 -0.0071893414 -0.079403676 -0.05442537
000360 15 d4 16 3e 61 1a a2 bc b7 61 1d 3e 8c 2d c6 3d
       0.1472934 -0.019787969 0.15369307 0.09676656
000370 47 04 0a 3e 93 e0 85 bc ef df 98 bc 39 e0 e0 bb
       0.13478194 -0.016342437 -0.018661467 -0.006862667
000380 ad c6 b6 bd c7 ec 95 bd 2a 33 67 3d f0 b6 1d bd
       -0.08924613 -0.07320552 0.05644528 -0.03850454
000390 65 9d 3e bc 2a 83 1d 3e 20 70 7f 3e fe c0 47 be
       -0.0116342055 0.15382066 0.24945116 -0.19507214
0003a0 4f 57 04 be 14 d8 9b 3d ae 57 f1 3b 78 7c 89 3c
       -0.1292393 0.07609573 0.0073651886 0.016782984
0003b0 cd f8 21 3e 61 c0 ec 3c 4e 6e c0 3d e9 02 c0 3d
       0.15817566 0.028900327 0.09396039 0.09375555
0003c0 05 bf 9c bd fc 98 a6 3d 74 c5 eb 3c 4f 8c c0 bd
       -0.076536216 0.08134648 0.028780676 -0.09401762
0003d0 65 1b 03 3d 20 10 aa bd 5f 56 cb bb f4 2c bd bd
       0.032008547 -0.08303857 -0.0062053646 -0.0923709
0003e0 9e bf 1c be cf d3 cb bc c1 48 be 3b cf 1c 64 3e
       -0.15307471 -0.024881272 0.005807013 0.22276615
0003f0 56 45 b5 3d cb 00 1e be 07 a7 8f 3e 63 0a 23 be
       0.088511154 -0.1542999 0.2805712 -0.15921931

network_body._body_endoder.seq_layers.2.bias f4 [128]
000000 d5 b4 84 3c c8 01 5e 3d 14 42 ea 3c d5 13 b2 3b
       0.016199509 0.054200917 0.028595962 0.005434493
000010 cd 4f 97 bb 4a 1f 9c 3c 9f 9b 2d bd 08 30 1c 3d
       -0.0046176673 0.019057889 -0.04238474 0.038131744
000020 44 84 61 3c 4d 57 da bb ec d0 34 bc 61 a4 cb 3c
       0.013764445 -0.006663239 -0.011036139 0.024858655
000030 c8 00 db 3c ed 92 37 3d 03 3c d1 3c 4a 31 0b 3d
       0.026733771 0.044817854 0.025541311 0.033982553
000040 5d bd 0d 3d 85 2c 36 3b 00 a4 2f 3d a2 04 60 3d
       0.03460442 0.0027797532 0.042881012 0.05469192
000050 1d d0 b0 bb 2a 36 05 3d 7b 88 12 3d 2f 20 08 3d
       -0.005395903 0.032522358 0.03577469 0.033233818
000060 44 7c 06 3d 3d ad 48 3d 25 42 64 ba 25 bd cc 3c
       0.032833353 0.048993338 -0.0008707366 0.024992535
000070 07 ce de 39 4f cc 35 bc 70 89 34 3d ac c6 08 3d
       0.00042496642 -0.011096074 0.044076383 0.033392593
000080 d1 3e 4f 3c 76 58 8f bc 90 77 6e 3d 05 45 b3 bc
       0.012649254 -0.017498236 0.058219492 -0.021883497
000090 6e e0 d2 bb 27 32 f1 3c 86 95 83 3c a5 19 47 3c
       -0.0064354455 0.02944286 0.01606251 0.01215211
0000a0 22 3a 8e 3c 38 f5 88 3c 24 e7 75 3c af 60 b4 3c
       0.017361704 0.016718492 0.0150087215 0.022018759
0000b0 94 2d 14 bc 95 e0 1d 3c b2 f3 65 bb 6a a7 42 3d
       -0.00904407 0.009636064 -0.003508788 0.04752294
0000c0 8e f1 10 3c 07 26 20 3d 4c da 03 3d af 04 06 3d
       0.008846654 0.039098766 0.032190606 0.03271931
0000d0 ff 32 c1 3a 71 e5 c6 bb ff b5 98 bb db 1e 10 3c
       0.001473993 -0.006069832 -0.0046603675 0.008796419
0000e0 9c 07 ff 3c e1 b9 11 3d fd 03 d3 3c 22 ec 31 3c
       0.031131558 0.03557766 0.025758738 0.010859521
0000f0 0b 30 52 bc d9 63 13 3d d5 dd 34 3d 38 a5 2d 3d
       -0.012828837 0.035983894 0.044156868 0.042393893
000100 b7 5a 35 3c 63 6a 3b 3b 7f b3 7f 3c 27 e3 6d 3c
       0.011068991 0.0028597347 0.01560676 0.014519489
000110 8e a9 38 bc 24 17 87 3c 3e 1f 0c bd f7 bf d3 3b
       -0.011270894 0.016490526 -0.034209482 0.006462093
000120 c2 d7 a5 3c d1 ad c3 3a e5 6b 33 3a 29 fe 1d bc
       0.020244483 0.0014929121 0.00068443856 -0.009643116
000130 5f 97 cc b8 70 a0 ed 3c 95 cb 38 bc 13 7d a4 3a
       -9.755673e-05 0.029007167 -0.0112790065 0.0012549482
000140 82 68 ca 3c 04 0d 64 3d fd ce 30 bc 30 46 0a 3c
       0.024708036 0.055676475 -0.010791537 0.008439586
000150 45 2b ee 3c 5d 13 e9 bb 03 1b 87 3b 60 cf 5c 3c
       0.029073367 -0.007112904 0.004123093 0.013477176
000160 b7 8a 57 3c 3d bb a8 3c b9 61 4e 3d 61 1c 88 3c
       0.013155631 0.020597095 0.050386164 0.016615095
000170 83 96 04 bd c1 a2 8c 3c 3e ee 14 3d 26 67 2e 3c
       -0.0323701 0.01716745 0.036360018 0.01064471
000180 dd 08 10 3d c7 dc cd 3c 33 d0 53 3d a9 9a 70 bc
       0.035164703 0.025129689 0.051712226 -0.014685311
000190 ec 2e cb 3b 29 31 d3 3c b9 90 1e bd 87 8a ed 3c
       0.006200662 0.025780277 -0.038712237 0.028996719
0001a0 f5 5d 37 bd 48 a0 69 3b b6 3e 3f bb 08 19 29 bb
       -0.04476734 0.0035648514 -0.0029181666 -0.0025802273
0001b0 43 ca 49 3d e1 c9 c8 bb 9f ec 63 3c c6 c0 0d bd
       0.049265157 -0.0061275815 0.013911395 -0.03460767
0001c0 a0 39 35 ba ba 8f b3 bc 0c b6 05 3d bc c8 ca bc
       -0.0006913189 -0.02191912 0.032644317 -0.02475392
0001d0 7d 9b 29 3d 89 26 34 bc 44 58 88 bc 88 a4 f4 3c
       0.04140805 -0.010995516 -0.01664365 0.02986361
0001e0 25 82 9c 3b bf 17 27 3c 74 e4 35 3d d7 dd 53 3c
       0.0047762566 0.010198533 0.044407323 0.012931309
0001f0 7f 96 10 3d 47 fd 34 3c 32 47 a4 3d f0 b1 1e bd
       0.035299774 0.011046714 0.08021392 -0.038743913

action_model._discrete_distribution.branches.0.weight f4 [5, 64]
000000 cc 94 08 3e 29 79 34 3e 69 eb 5b 3b d2 55 a6 bc
       0.13338012 0.17624344 0.0033557063 -0.020304594
000010 38 12 59 3c 7d ea fc bc 0e 58 69 bc 55 fb cc bd
       0.013248973 -0.030873531 -0.014242185 -0.10008875
000020 fc 95 30 bd 56 88 9a 3d b0 33 4a 3d 42 f4 d1 3d
       -0.043111786 0.07545535 0.0493657 0.102516666
000030 bf 8a 4d bd 05 45 1d 3c 9b 4d 45 bd 97 df d2 3d
       -0.050181147 0.009598975 -0.048169713 0.10296553
000040 cb da f1 3d ca e5 cb bc 5c ef cb bd 22 48 04 be
       0.118093096 -0.024889845 -0.099577636 -0.12918141
000050 66 fa 51 bc d7 9f 68 3d 3e e8 14 bd 2e b4 1d be
       -0.012816047 0.05679306 -0.036354296 -0.15400764
000060 43 e0 cd 3d 77 1e d4 bb fc 13 b1 39 5d c5 8a 3d
       0.1005254 -0.0064733583 0.0003377496 0.06775925
000070 dd 7c 6e bd 2e 95 64 bd 80 1c 4c 3d ba b9 ef bd
       -0.058224548 -0.05580633 0.049831867 -0.117053464
000080 82 a2 81 3d 0d 4b ae bd d6 2e d4 bc ff df e7 bd
       0.06329824 -0.085104086 -0.02590124 -0.11322021
000090 18 d1 8b bd 00 6b d9 bd 30 c8 9f bd 51 02 26 3d
       -0.06826991 -0.10616112 -0.078018546 0.040529553
0000a0 d8 91 ad bd 3e 85 01 be a6 2c f3 bc 3f 2a 29 3b
       -0.08475083 -0.12648484 -0.029684376 0.0025812534
0000b0 28 55 13 be 20 7d d0 3c ec 49 d4 3c dc 65 0f be
       -0.14387953 0.02545029 0.025914155 -0.140037
0000c0 63 02 a3 bd 46 a8 d8 3c 6b b8 28 bd 2c dc d2 3c
       -0.079594396 0.026447427 -0.0411915 0.025739752
0000d0 2c 17 0f 3e a0 30 d6 bd d9 ef 6f 3b c0 e1 f6 bd
       0.13973683 -0.10458493 0.0036611466 -0.12054777
0000e0 87 27 8d 3d d0 e0 da 3d 73 4d 00 3e a1 b7 f8 bc
       0.06892305 0.10687411 0.12529545 -0.030360999
0000f0 8c fb 9a 3d 05 d5 44 bd d7 4c c8 bc 1b 46 be bd
       0.0756751 -0.048054714 -0.024450703 -0.09290715
000100 83 3c 4d 3d b0 5d 01 bd 94 9e e6 3d 75 f0 cb bd
       0.050106537 -0.031583488 0.11260715 -0.09957973
000110 ec 29 43 3c ea 88 f0 bd 45 45 03 be b0 d2 e9 3d
       0.01191185 -0.11744864 -0.12819393 0.114171386
000120 3a 81 81 3d 38 40 3b bd 7b 0d 52 bd d3 1e eb bd
       0.06323476 -0.04571554 -0.051282387 -0.11480489
000130 3e dd 8b bd 39 ae f9 3b a3 72 3a bc 1a 6b bb bd
       -0.06829308 0.007619646 -0.011379871 -0.091512874
000140 00 0e ae bd 20 0d 5a 3c e7 c1 dd bc ee 96 b3 3d
       -0.08498764 0.013308793 -0.027069999 0.08769022
000150 66 36 4f bd e7 a6 10 3e ee a9 d8 bd 21 72 b5 3d
       -0.050588988 0.14126168 -0.105792865 0.08859659
000160 fb 80 a7 bd c6 b8 27 bd 82 77 eb bd 76 8c 42 ba
       -0.08178898 -0.040947698 -0.11497404 -0.0007421443
000170 bf 4b 9c 3a b1 ec 43 3d 42 5a c6 3c b2 a6 61 3d
       0.001192443 0.04783315 0.02421296 0.055090614
000180 aa ca b0 bd 4d 87 92 3d c2 02 d9 bd 7a 50 cb 3d
       -0.08632405 0.07154713 -0.10596229 0.09927459
000190 be b7 60 bd f9 d8 3a bd fc d9 1c 3d ab 03 af 3d
       -0.05486273 -0.045617077 0.038293824 0.085456215
0001a0 c6 3a 92 bd ff ca 8f bc 04 de f4 3d e9 b7 cd 3c
       -0.071401164 -0.01755285 0.119564086 0.02511211
0001b0 72 02 cf 3d 4e f7 89 bd 04 d9 79 3d 61 48 4e bd
       0.10107888 -0.06736623 0.060997978 -0.050361995
0001c0 f3 16 1c 3b 3a 33 79 bd 6c 48 b7 bd ed 05 67 bd
       0.002381739 -0.06083987 -0.0894936 -0.056402136
0001d0 3d e1 81 bd b9 28 6a bc 48 c3 d9 3d ef 54 3d 3d
       -0.06341789 -0.014291936 0.1063295 0.046223577
0001e0 82 98 58 bd cc 98 f1 bd 3f f8 2b bd ec 5f e9 3d
       -0.052879818 -0.11796722 -0.041984793 0.11395249
0001f0 95 fe 95 3d 22 db d9 3d dc 2b 1e 3b f6 20 a6 bd
       0.07323948 0.106374994 0.002413503 -0.081117555
000200 cf a6 d6 bd 01 c9 18 bd 32 83 d5 bd 40 3b 0c 3e
       -0.10481035 -0.037301067 -0.10425414 0.13694477
000210 7b 95 a1 bd 9a 61 d4 3d a7 dc f3 3d 3b 91 6f bd
       -0.07889839 0.103701785 0.119073205 -0.058488112
000220 f7 ad e1 bd 75 9b 12 3c d1 c3 9a 3c 22 77 30 3d
       -0.11019509 0.008948197 0.0188922 0.043082364
000230 be 03 bc 3d 35 c3 88 3d c3 12 6c 3d ed 28 fd 3c
       0.09180401 0.06677858 0.05763508 0.030903304
000240 c7 a4 31 3d 35 d0 9a bd c6 20 a4 3d 70 be d8 bc
       0.043370035 -0.075592436 0.080140635 -0.026457995
000250 3d f6 85 3d e5 2e 0e be 95 ca 23 3e d9 5e 16 bd
       0.06541107 -0.13885076 0.15995248 -0.036711548
000260 dc 7c c7 3d ff ef 8d 3c f8 50 e0 3d 3a 3c 0b bd
       0.09740612 0.017326353 0.109529436 -0.033992983
000270 df a3 0c bd 33 26 14 bd 56 25 a0 bc b7 10 1b bd
       -0.034335967 -0.036169242 -0.019549053 -0.037857737
000280 e6 26 9f 3d 42 b1 84 3c 4a 6e 00 3e 27 b9 99 bc
       0.07771091 0.016197804 0.12542072 -0.018765045
000290 fc de b3 3d 9c 1d ae 3d ae bd 62 3d 25 1d 04 be
       0.08782765 0.08501741 0.055356674 -0.12901743
0002a0 a7 ac e1 3d 2f 62 a7 3d de 29 ca bd 91 a3 60 bd
       0.11019259 0.08173024 -0.09871267 -0.05484349
0002b0 82 31 2d bd f5 18 a5 3d 75 9b dd bd 8d e1 f3 3d
       -0.042283542 0.08061401 -0.10820667 0.11908255
0002c0 f3 dd 4d 3d 4a d4 71 3d ae 88 ad 3d d1 6b cb 3c
       0.050260495 0.059040345 0.08473335 0.024831684
0002d0 13 c9 2f bd 15 70 ce 3d 33 92 0b be b4 24 e2 3c
       -0.04291637 0.10079972 -0.1362999 0.027605392
0002e0 ef 07 4b 3c f8 15 b4 3d dd 6a cf bb 15 45 e2 bd
       0.012392028 0.08793253 -0.006329878 -0.110483326
0002f0 21 75 90 bd 83 6c 89 bd 7e f6 bc bc 0f ec 1b 3e
       -0.070535906 -0.0671015 -0.023066755 0.15226768
000300 6c 5a e6 bd ec 1f 9b bd f0 53 35 3d 0a 0d 16 bd
       -0.11247715 -0.07574448 0.044269502 -0.03663353
000310 97 da 27 bd 01 49 69 3d 2e e6 29 bd f3 1f 98 3d
       -0.040979948 0.056954388 -0.041479282 0.07427969
000320 b7 5f e0 bd e2 5b 02 3e 12 d6 a1 bd f1 7c e6 bd
       -0.10955756 0.12730363 -0.07902159 -0.112542994
000330 8a 29 ca 3d 84 82 18 be 26 67 f7 3d 67 59 29 3d
       0.09871204 -0.14893538 0.12080221 0.041345026
000340 0c 8b 85 3d 25 00 6a bb 3b 4d 7a 3d 7e 04 84 bd
       0.06520662 -0.0035705653 0.06110881 -0.06446169
000350 02 8d 8d bd fa 3e bd bd f3 97 86 bd 64 02 a2 bb
       -0.06911661 -0.092405275 -0.06571951 -0.0049441326
000360 ca b0 d8 bd e9 8c 0b be 1e 25 8d 3c ca be 9e bd
       -0.10580595 -0.13627972 0.017229613 -0.07751234
000370 b9 80 08 3e b4 17 97 bd ec c2 f5 3d 9e 01 4f 3d
       0.13330354 -0.07377568 0.12000069 0.05053865
000380 02 42 4a bd dd 1b d3 bd 16 40 dc 3c 39 63 9c bd
       -0.049379356 -0.10308049 0.026886027 -0.07636113
000390 a1 e8 f1 bd c8 4f da bd 5b bc f9 3d c2 b8 8a 3c
       -0.118119486 -0.10659748 0.12194129 0.016933803
0003a0 9c f1 02 bd 76 c6 90 3d 80 9d 5c bd d5 35 e7 3d
       -0.031968698 0.070691034 -0.05386114 0.112895645
0003b0 33 1f f9 3b ac f2 f2 bd 62 4f b1 bb 1d 36 b2 3c
       0.007602596 -0.11862692 -0.0054110745 0.021754319
0003c0 8d ef d9 3d 00 df a7 bd f4 50 0c bd d3 ed 72 bd
       0.10641394 -0.08196831 -0.03425689 -0.059308838
0003d0 aa a3 d5 bd 7f 2e 98 3d 51 81 15 bd b9 c9 84 3d
       -0.10431607 0.074307434 -0.03650028 0.06483788
0003e0 5f e1 ee 3d 67 ee 65 bd 68 fd ce bd d9 a8 c8 bc
       0.1166408 -0.05613556 -0.10106927 -0.024494575
0003f0 d4 0c c8 bd e7 08 18 bd 2e 94 a4 bd ca 4a 82 3d
       -0.09768072 -0.037117865 -0.080360755 0.06361921

action_model._discrete_distribution.branches.0.bias f4 [5]
000000 c0 cb 0a be fa db 0b 3d ce 00 34 3d 23 db bc 3c
       -0.13554287 0.034145333 0.04394608 0.023053711
000010 cb 4f 0c 3d
       0.034255784

onnx::LSTM_98 f4 [1, 256, 128]
000000 d7 4b 88 3b 95 58 3a 3d 3d 90 39 3e 9f 96 a3 bd
       0.0041594314 0.045494635 0.18121429 -0.07987713
000010 08 13 13 be 41 bc d1 3d c8 c9 20 3c 9b 84 2b 3e
       -0.14362729 0.10240985 0.009813733 0.16749804
000020 39 29 3e 3e a3 c1 20 3e a5 39 a6 3b 7d ce 60 bd
       0.18570413 0.15698867 0.0050727897 -0.054884423
000030 9d 4c 35 bc 30 f9 f9 3d b2 1e 29 be 2a e6 62 3d
       -0.011065629 0.12205732 -0.16515616 0.055395283
000040 68 98 1a bd 6d 2a 19 bd 92 92 cb bd 7d 1b 00 ba
       -0.037743002 -0.037393976 -0.099400654 -0.00048869086
000050 58 df b1 3d 15 78 04 be 1b 1c cf 3d 50 b7 e5 3d
       0.086851776 -0.12936433 0.101127826 0.11216605
000060 78 27 5f bd 40 92 23 3d 89 74 ab bd 43 cc 6d 3c
       -0.054481 0.039934397 -0.08371837 0.014514032
000070 49 7d 19 be e4 a3 4b 3d 23 af 0a 3e 8f 6f 0b be
       -0.14989199 0.049716845 0.13543372 -0.13616775
000080 21 11 32 be 06 78 21 be 56 cb 4e 3e dc 80 70 3d
       -0.17389347 -0.15768442 0.20194754 0.05871664
000090 48 21 e5 3d 76 94 ba 3d 1d 31 1a be 81 8c 18 3e
       0.111879885 0.09110348 -0.15057798 0.14897348
0000a0 28 e1 30 3e 0c 7b 14 be cd 55 0d be 04 3b 09 bc
       0.1727339 -0.14500064 -0.13802262 -0.008375887
0000b0 d9 5a 25 be bc ac fa bd ec cf 14 3e d1 16 da 3d
       -0.16147937 -0.12239978 0.14532441 0.10648883
0000c0 3e 30 04 3e 5b 2b 07 3e 44 b9 1b be 50 15 b3 bc
       0.12909028 0.13200133 -0.15207392 -0.021860749
0000d0 94 9b a0 3c cd 5f d4 bd 6c ee 05 3c 5f 4e d1 bd
       0.019605435 -0.10369835 0.00817452 -0.10220026
0000e0 b4 a1 43 3e 05 ac a9 3c 24 67 ad 3d 02 c1 1d bc
       0.19104654 0.020711908 0.08466938 -0.009628536
0000f0 07 bb 00 3e f0 74 26 3e bf f2 02 3e 34 62 b7 3c
       0.12571345 0.16255546 0.12787913 0.022385694
000100 4c 98 15 be 43 3d a5 3d 9b cd e4 3d 34 a3 3f 3d
       -0.14608878 0.08068325 0.11172029 0.046786502
000110 95 a0 3e 3e 19 6a 25 3d 9f 33 33 3d ac 53 c7 3d
       0.18615945 0.040384386 0.0437504 0.09732756
000120 3a c0 36 bb 8e 54 12 3e 53 a0 20 3e e7 32 20 3e
       -0.0027885572 0.14290068 0.15686159 0.15644418
000130 63 84 9f bd 69 b4 cb 3d c1 66 0e 3e 2c 65 0a 3e
       -0.07788923 0.0994652 0.13906385 0.13515157
000140 1c 0b 00 3e 56 fe 78 3d cf 1b 13 bc 24 a0 06 bd
       0.12504238 0.06078943 -0.008978798 -0.032867566
000150 26 5e 59 3d b3 44 fb 3d f5 4e 9d bd d0 32 26 3b
       0.053068303 0.12268963 -0.076810755 0.0025359876
000160 2d 81 46 3c 1b 84 88 3b e9 70 42 3e 64 1a a8 3d
       0.012115759 0.004166139 0.18988384 0.082081586
000170 f4 87 7f bd 46 94 03 be 02 cc 08 3e 38 b9 d1 3d
       -0.062385514 -0.1284953 0.13359073 0.10240406
000180 f0 ee d6 bd f0 9d e4 bd e1 64 42 bd af 74 d5 3d
       -0.104947925 -0.11162937 -0.047459487 0.10422646
000190 40 76 1a be 8e 1f f0 3d 3d 86 19 3d ad 7b 91 3d
       -0.15084171 0.117247686 0.037481535 0.071036674
0001a0 11 ec ee bd 00 4b 71 3d d7 6e 09 3e f4 4a ab bd
       -0.1166612 0.058909416 0.13421188 -0.083639055
0001b0 b5 e9 b5 3d 77 44 10 be 2d d7 b9 3d 69 49 1c be
       0.08882467 -0.14088617 0.09074245 -0.15262379
0001c0 f6 1f ae 3d 30 b9 02 3e 32 4b 00 be fd 8b be 3d
       0.0850219 0.12765956 -0.12528685 0.093040444
0001d0 24 b1 b8 bd 87 2a f4 3c d3 8c 93 3c e5 40 97 bd
       -0.09018162 0.029805435 0.018011486 -0.073854245
0001e0 94 eb 42 bd 28 94 2e bd c1 de 23 3e 3a 3d 08 3e
       -0.047587946 -0.04262176 0.16002943 0.13304606
0001f0 86 1e e5 bc 15 b3 87 bd 3a 87 e5 3d be 9f 28 3e
       -0.027968656 -0.06625954 0.11207433 0.16467187
000200 67 6a 14 3e 64 5a c4 bd 52 9b 0c 3e 13 a8 29 3e
       0.14493714 -0.09587553 0.13731125 0.16568021
000210 71 e1 83 bd 50 23 3f 3e f8 24 9b bc 18 07 9f 3d
       -0.06439484 0.18665814 -0.018938527 0.07765025
000220 5d ec 4b 3e 76 01 1e bc 17 dc 04 be 58 ba 6f bd
       0.19914384 -0.009643903 -0.12974583 -0.05852732
000230 0a 32 37 3d 7f 8d 35 3e 5f b6 f0 3d 59 77 a3 3d
       0.044725455 0.17729758 0.117535345 0.07981748
000240 a2 cd c5 3c a5 f2 c3 bc af 25 aa 3d c7 69 ce 3c
       0.024145905 -0.023919413 0.08307969 0.025196923
000250 47 e9 08 3e ae a6 3d 3e 98 0a fa bc cf 2b 85 3b
       0.13370238 0.18520615 -0.03052263 0.0040640603
000260 ca 51 15 3e 55 86 28 3d 82 e7 cf bc 7e f1 16 3e
       0.14581981 0.041143734 -0.025378946 0.1474056
000270 01 2a 1c 3e ee 4d ed bd 75 c1 9b 3c 0e d2 fd bd
       0.15250398 -0.115871295 0.019013146 -0.123935804
000280 0c fe c9 3c da a8 a3 bc a4 b8 29 3e f6 81 13 3e
       0.024657272 -0.019977976 0.16574341 0.14405045
000290 a5 69 00 be f4 24 7d 3d ff fb 48 3e b4 f5 c5 3d
       -0.125403 0.06180282 0.19627379 0.09666005
0002a0 af 5f a6 bd 12 70 39 3d 08 85 13 be b5 60 7d bd
       -0.08123719 0.045272894 -0.14406216 -0.061859805
0002b0 8c f9 2b be 36 11 62 3c 2a c4 cd bc e5 3e c2 3d
       -0.16794413 0.013798049 -0.025117952 0.094846524
0002c0 a3 aa 95 bd d7 3d d5 bd ca b0 9b 3c 2e 96 c3 3d
       -0.07307937 -0.10412186 0.019005198 0.09550129
0002d0 2d 05 fe 3d fb fb 22 bd 6f 0e 58 3d d1 3d 3a be
       0.12403331 -0.03979109 0.05274814 -0.18187644
0002e0 1c 10 eb bd 05 35 06 3e b0 19 3d bc 15 7b 92 bd
       -0.11477682 0.13106163 -0.011541769 -0.07152382
0002f0 4b 0a 54 3d 9f 3e c4 bd 89 b7 2e bd cb 43 af 3d
       0.05176763 -0.095822565 -0.0426555 0.08557852
000300 6a e5 0b be 0b b4 f4 bc 63 a7 36 be 2e 28 a0 bd
       -0.13661733 -0.029871007 -0.1783729 -0.07820164
000310 e3 8d db 3d c3 ae e0 bd c1 8f 05 3e 52 c2 c5 3c
       0.10720422 -0.10970833 0.13043119 0.02414051
000320 5c 12 3f bd 3a 9b 1d 3e 11 24 08 bd 89 5b 8f bd
       -0.04664837 0.15391245 -0.03323752 -0.06999881
000330 31 d1 86 3d 04 e7 84 bd 39 3d ec bd 44 34 e2 3c
       0.06582869 -0.06489375 -0.11535115 0.027612813
000340 39 e6 ad bd 52 26 60 3e ca c5 24 3e f1 74 d5 bd
       -0.08491177 0.21889618 0.16091076 -0.104226954
000350 fa e6 6f 3c ce 49 14 be b0 43 c2 3d 74 b8 30 3e
       0.014642471 -0.14481279 0.094855666 0.17257863
000360 b9 48 b3 3d 36 78 16 3a 68 4c f2 3d 48 77 79 3d
       0.08754105 0.0005739959 0.118309796 0.06090477
000370 bc 96 75 bd ac ed d2 3c c2 25 2f 3d b8 a7 0e be
       -0.059958205 0.025748096 0.042760618 -0.13931167
000380 c9 a8 97 bd 96 54 09 3e 6b 5b af bd 45 18 03 3e
       -0.0740524 0.13411173 -0.085623585 0.12802227
000390 d3 59 5d bd 37 de f9 bd 37 fa 17 be 89 f6 80 bd
       -0.05404074 -0.12200587 -0.14841543 -0.06297023
0003a0 36 7b 25 be 52 aa 57 3e 64 e9 ee bd 2d 21 c8 bc
       -0.16160282 0.21061066 -0.116656095 -0.024429882
0003b0 e7 ff 23 3e 6a f0 23 3d 02 11 d3 bb f1 72 9d 3d
       0.16015588 0.0400242 -0.0064412365 0.07687939
0003c0 2a df 4d 3d 9f 7c 9f 3d df 64 a7 bd dd 07 02 3d
       0.050261654 0.077874415 -0.081735365 0.03174578
0003d0 3e c0 aa 3d 35 ce 5b 3c 3d 72 1d 3e 33 4a be bc
       0.083374485 0.013415863 0.1537561 -0.02322874
0003e0 0e 9c e8 3d 36 07 b1 bd 77 21 f1 bd 2e c1 af bd
       0.1135789 -0.086439535 -0.11773961 -0.08581768
0003f0 b5 02 a7 bd 53 d8 14 3e 67 87 82 3d 62 81 8e 3d
       -0.08154813 0.14535646 0.06373482 0.069582716

onnx::LSTM_99 f4 [1, 256, 64]
000000 e0 89 eb 3d 95 4d 9b bd be 8a 34 3e 73 c6 6f bc
       0.11500907 -0.07583157 0.17631051 -0.014634716
000010 8f d8 d0 3d 3d 14 e6 bd a2 a0 0a bb 85 04 33 3d
       0.10197555 -0.11234329 -0.0021152874 0.043705482
000020 09 25 d0 3d b5 42 be 3d 92 d4 2b be b5 4c 2e be
       0.10163314 0.09290067 -0.16780308 -0.17021449
000030 90 b8 3a 3e d4 a1 9a bc 71 71 f3 3d 33 dc b1 3d
       0.18234468 -0.018875994 0.118868716 0.08684578
000040 67 cf 24 be 57 8b 37 3e 0b 66 f1 3c dd 4e b5 bc
       -0.16094743 0.17924248 0.029467603 -0.022132332
000050 5b c6 1d be 8a 7d a0 3d 31 d5 5d bd b0 05 74 3e
       -0.15407698 0.07836445 -0.054158393 0.23830295
000060 41 6d 78 bd 32 1e f4 bd f4 d7 63 3e c8 64 de 3d
       -0.060651068 -0.11919822 0.22250348 0.10859066
000070 dc ff 05 3e fb 53 8f 3d 15 6c 06 3d 02 04 4f be
       0.13085884 0.0699844 0.03281792 -0.20216373
000080 f0 c3 18 3e db bb 24 be e6 08 63 3e 9b ed 88 3d
       0.14918494 -0.16087286 0.22171363 0.06685945
000090 28 26 a1 bd 6f e2 ec bc 00 63 9a 3d f3 5d 0f be
       -0.07868606 -0.028916566 0.07538414 -0.14000683
0000a0 52 5f 68 3e 4d 71 68 3e 04 d3 d8 3d 0e dd 21 bc
       0.22692612 0.22699471 0.10587123 -0.009879364
0000b0 b7 8e 91 3d 43 2d 86 bc ed 09 4c 3e 91 6b 5e bd
       0.07107299 -0.016379004 0.19925661 -0.054301802
0000c0 f2 01 2d be 9c 30 46 3e 84 cb af bd fe 6b c2 3d
       -0.16895273 0.1935448 -0.085837394 0.09493254
0000d0 13 3c 1d 3e 33 72 e5 3d ef 84 42 be e5 23 81 3d
       0.15354948 0.112034224 -0.18996023 0.063056745
0000e0 fd 30 61 be 63 47 1a 3e fe b5 e6 3d 7a 2d 29 3e
       -0.21991344 0.15066294 0.11265181 0.16521254
0000f0 bd 5e b9 3d 40 46 62 3e 53 de 24 3e f3 2a 19 be
       0.09051273 0.22097111 0.16100435 -0.1495779
000100 5e 5a 8c bc 3b 0c c7 3d bc d8 67 3d e3 37 42 3e
       -0.017132934 0.0971913 0.05660318 0.18966632
000110 f7 e0 76 be f9 52 0a be b9 f2 30 3e d4 c6 93 3d
       -0.24109255 -0.13508214 0.17280091 0.07215658
000120 f1 56 3c be 5e d3 4c 3c f3 db 6c be 18 4f 86 3d
       -0.1839254 0.012501566 -0.23130779 0.06558055
000130 33 8e cd bd 05 a3 a7 3d 41 c7 2e 3e 1e 2c 48 3d
       -0.10036888 0.081853904 0.17068197 0.0488702
000140 46 5d 02 3e 94 d2 16 3e 9b c6 4a bd 7c df 0e be
       0.12730893 0.14728767 -0.04950581 -0.1395244
000150 0f 7b 26 3c ac 7f 1e bd 0a 88 32 3e 38 c2 81 3d
       0.010161175 -0.038695976 0.17434707 0.063358724
000160 70 73 f2 bc 25 5d 29 bd 67 66 c0 3d 71 cf 8b 3d
       -0.02959606 -0.041348595 0.09394532 0.06826676
000170 ad fe ee 3d 43 44 f7 bd 90 6f 30 be 94 ea 22 be
       0.11669669 -0.12073567 -0.17230058 -0.15909797
000180 d6 68 17 3d e4 fe 20 3e 87 05 ee bd 67 68 43 be
       0.036965214 0.15722233 -0.11622148 -0.19082795
000190 ca 66 f0 bc a2 13 9f bc 83 df 41 3e ad 48 46 bd
       -0.029345889 -0.019418541 0.18932919 -0.048409153
0001a0 c5 c3 a1 3d 7b e5 d9 bd 9a 3a da 3d b7 61 3d 3e
       0.07898668 -0.10639473 0.106557086 0.18494307
0001b0 e0 c4 d6 bc a5 8d 06 3d 0b b4 ba 3d 11 fe 03 3e
       -0.026216924 0.032849927 0.09116372 0.12889887
0001c0 3e ee d1 bc 3a 29 22 be 65 43 82 3d cd a9 08 3e
       -0.025626298 -0.15836039 0.06360511 0.13346024
0001d0 c7 7e 0b 3e 28 8b 24 be 1b 0c c7 3d 80 02 80 3e
       0.1362258 -0.16068709 0.09719106 0.25001907
0001e0 88 a7 96 bd e7 a5 12 3e de b6 57 3d 39 cb cb 3d
       -0.07356173 0.14321099 0.05266463 0.09950871
0001f0 36 cb fe bc df 15 d1 3d 4f 99 b6 bc 63 08 c1 bd
       -0.031102758 0.1020925 -0.0222899 -0.09425428
000200 69 e5 3a be c4 da 49 be a4 7f 22 3e c6 6c ad 3d
       -0.18251576 -0.19712359 0.15869004 0.084680125
000210 94 59 3a 3e 8b 41 63 bd f3 7f dc bd 01 e3 52 3e
       0.18198234 -0.05548243 -0.10766592 0.20594408
000220 af 0a 22 3d 5e 85 c5 3c 43 d0 c8 bd 2f ee f2 bd
       0.03956097 0.024111446 -0.09805348 -0.11861836
000230 81 8e 6f 3d ab b8 b1 3d e1 da 07 be 29 74 9f 3c
       0.05848551 0.08677801 -0.1326709 0.01946457
000240 e8 d8 4b bd 6a 35 30 bd 38 e2 42 3e c9 ec b9 3d
       -0.049767405 -0.04301969 0.19031608 0.09078366
000250 6c 4d a6 bd 8f 11 47 3e 5d ca 3a bd 26 44 a3 3e
       -0.08120236 0.19440292 -0.045603145 0.3188793
000260 95 af ab bd bc 04 57 3e 7c e8 1f 3e 51 35 1e bd
       -0.08383099 0.209979 0.1561603 -0.038625065
000270 58 76 92 bd cd f9 12 be 88 76 9f 3d 1d 27 c1 bd
       -0.071514785 -0.14353104 0.0778628 -0.094312884
000280 82 f7 b4 3b 13 8f 90 3e a3 ac 22 be 19 89 9f 3e
       0.0055226693 0.28234157 -0.15886168 0.31159285
000290 7d 9f 82 3d b7 5f 1a 3e 05 56 cd 3d 60 d0 ec bd
       0.06378076 0.15075575 0.100261725 -0.11563182
0002a0 52 b5 32 3e a8 3e 56 3e a6 a4 55 3d 1d 2f a3 3b
       0.1745198 0.20922339 0.052158974 0.0049799816
0002b0 4b 3f 57 3e 9c 3f b7 3d ea 2f 20 be 52 60 b0 3c
       0.21020238 0.089476794 -0.15643278 0.021530304
0002c0 03 08 20 3e 7a 17 f0 bd 98 79 d3 3d d7 ef fb bd
       0.15628056 -0.11723228 0.103259265 -0.12301605
0002d0 53 69 2e bb a7 e9 f9 bd c9 f0 e9 bb a9 5f c0 3d
       -0.002661307 -0.12202769 -0.0071392995 0.09393246
0002e0 e9 e6 72 be 02 29 2b be d3 47 4a 3e 52 b2 a5 bb
       -0.23720898 -0.16714862 0.19753961 -0.005056658
0002f0 ee 48 8e bd ba 02 0b 3e 47 d0 a6 3c fb fb 00 3d
       -0.06947504 0.13575259 0.020362986 0.031490307
000300 0e 11 6d 3d b7 d2 1e 3e 2b f6 b3 3d b2 04 37 3d
       0.057877593 0.15510069 0.08787187 0.044682212
000310 10 b0 a1 bd cf 80 bd bc dd e4 dc 3d fd 65 15 be
       -0.078949094 -0.02313271 0.1078584 -0.14589687
000320 64 19 1f be ff 28 bc bd 81 04 50 bc f1 13 99 3d
       -0.1553703 -0.09187507 -0.012696386 0.07474507
000330 a9 37 0f bd 39 77 7c bd 45 88 8a bc 1b a4 11 be
       -0.03496519 -0.061637137 -0.016910682 -0.14222758
000340 78 c5 2f be 89 05 36 be d3 6c 56 3d 97 cf b0 3d
       -0.17165172 -0.17775549 0.052349877 0.086333446
000350 95 2a dc 3d 4c d7 4f be 3a 3e 4c 3e 9a 24 11 3e
       0.107503094 -0.20296973 0.19945613 0.14174119
000360 e8 ed 26 3c da 83 2c 3d 3c 92 5f be 84 a4 e0 3c
       0.010188557 0.04211793 -0.21833128 0.027422197
000370 15 73 c5 3d 9f 35 ce bd cc fc 41 be a5 04 6d 3d
       0.09641091 -0.10068821 -0.1894409 0.057865757
000380 8d 1b 03 3e e4 1a 81 3e 3b d0 46 3e 07 31 1f 3e
       0.12803479 0.25215828 0.19415371 0.15546046
000390 c7 ea 1b be 5e e7 b7 bd 7c ce 72 3d 26 a3 4e 3b
       -0.15226279 -0.08979677 0.05927895 0.003153035
0003a0 4b ae a7 bd c8 0c 61 3e 6f 60 03 be d1 e9 73 be
       -0.081875406 0.21977532 -0.12829755 -0.23819663
0003b0 11 e4 88 3d 60 a8 11 be cd c4 19 be d5 94 33 bd
       0.06684125 -0.14224386 -0.1501648 -0.04384311
0003c0 10 33 54 3e 00 e7 1b 3e 83 e7 36 3e 14 ae bf bd
       0.20722604 0.15224838 0.17861752 -0.09359375
0003d0 93 6c ad 3d 55 50 4a 3e e3 ed a6 3d a8 19 1d be
       0.084679745 0.19757207 0.08150842 -0.15341818
0003e0 d6 86 40 be b4 7c 94 ba 51 b9 e8 3d 33 5c 18 3e
       -0.18801436 -0.0011328668 0.11363471 0.14878921
0003f0 57 a4 56 3e a7 60 95 bd 9f 55 6f 3c e3 29 ef 3c
       0.20961128 -0.072938256 0.014607816 0.029194778

onnx::LSTM_100 f4 [1, 512]
000000 85 a1 91 3d 96 af e0 3c 19 d7 25 3e 5e 23 60 3d
       0.071108855 0.027427476 0.16195334 0.05472123
000010 43 c5 38 3c fa 49 ba 3d f6 8e 0b 3e 49 07 86 3d
       0.0112775 0.09096141 0.13628754 0.06544358
000020 2d 66 f8 3d b5 b8 93 3d 83 8e de 3c 8f 8b f8 3d
       0.121288635 0.072129644 0.027167564 0.12135994
000030 3b 78 14 3d b9 aa ae 3d 97 e1 ca 3d 19 5f a4 3d
       0.036247473 0.085286565 0.09906309 0.08025951
000040 1b 5f d7 3d 05 59 5e bc e7 4f a2 3d ad c8 67 3d
       0.10516187 -0.013571029 0.079253964 0.056587864
000050 54 64 67 3d 15 9f 33 3e 27 9d c0 3d c6 fb 57 3d
       0.056492165 0.17541154 0.094049744 0.052730344
000060 fc a2 be 3d 48 9f f2 3d d2 54 1e 3d 7d df ab bb
       0.093084306 0.11846787 0.03865511 -0.0052451477
000070 08 bc d9 3d ae 0e 20 3d ed 42 b6 3d a3 ef 0f 3d
       0.10631567 0.0390765 0.08899484 0.035140645
000080 99 39 29 3d b0 ed 81 3d 8d e5 bd 3d 9c 0a 9f 3d
       0.041314695 0.063441634 0.09272299 0.077656955
000090 94 e8 df 3d 51 ca e5 3d ed dd 19 3d 9b 2a d8 3d
       0.10933033 0.112202294 0.03756516 0.10555001
0000a0 b6 27 7c 3d f5 22 2b 3d 56 8e 3e 3d ea 00 8d 3d
       0.06156131 0.041781384 0.04652246 0.0688494
0000b0 32 50 8a 3d 6f 24 9d 3d 00 bb 6b 3d d9 df 57 3d
       0.06753577 0.07672965 0.057551384 0.052703712
0000c0 c8 75 12 3d f2 ca 87 3d 97 32 a3 3c 8f 6c 35 3d
       0.035756856 0.066305056 0.019921584 0.044292983
0000d0 11 63 01 3d 35 50 94 3d 62 7f bf 3d 4b 18 22 3d
       0.031588618 0.07241861 0.09350468 0.03957395
0000e0 e4 aa 69 3d d7 5f cb 3d 56 9e fc 3c 71 c9 a5 3d
       0.05704774 0.099303894 0.03083722 0.080950625
0000f0 67 cb 81 3d 19 9d 98 3d db c1 a4 3c a0 25 da 3d
       0.06337624 0.07451839 0.020111969 0.10651708
000100 0d 90 e4 3d b1 a9 26 3d 8e 9b f3 3d a2 c2 94 3d
       0.11160288 0.040689174 0.11894904 0.07263686
000110 cc e0 55 3c d2 4d 96 3d 70 7c 17 3e 6f 3b 20 3d
       0.013054084 0.07339062 0.14793563 0.03911918
000120 df 8d e5 3d e2 df 91 3d e9 93 1a 3d 9a d6 05 3e
       0.112087004 0.071227804 0.037738714 0.13070145
000130 c0 09 3d 3d fd 0f a8 3d 45 e5 e0 3d dc 4c 51 3d
       0.046151876 0.082061745 0.1098123 0.05109869
000140 fe 34 b6 3d 2a 59 40 bc fc 58 d4 3d 41 d8 54 3d
       0.08896826 -0.011740008 0.10368535 0.05196405
000150 ee 86 9a 3c db c2 45 3e f3 be 09 3e cc ae 40 3d
       0.018863168 0.19312613 0.13451748 0.0470417
000160 fc 96 b5 3d 3d 15 f3 3d f9 6c 61 3d 34 6b 5d bc
       0.088666886 0.11869285 0.055035565 -0.013514329
000170 b8 26 8e 3d 7e b8 b9 3c 18 39 b6 3d 4e 7e 04 3d
       0.06940979 0.02267098 0.088976085 0.032347016
000180 1a 8e f6 3c 50 0f 7f 3d 1e 53 9f 3d 47 82 a5 3d
       0.030097056 0.062270463 0.07779525 0.08081489
000190 df 90 e5 3d 5b fb e7 3d 2c 6e 59 3d 86 ad 93 3d
       0.112092726 0.11327239 0.053083584 0.07210831
0001a0 de c9 b0 3d 12 b6 63 3d cb eb 8c 3d 9e d4 40 3d
       0.08632253 0.055593558 0.068809114 0.047077768
0001b0 10 fc 8e 3d 26 9c 9f 3d 71 7c 9d 3d ce ed ad 3d
       0.06981671 0.07793455 0.07689751 0.08492623
0001c0 60 66 5c 3d 0b e2 41 3d 56 9c a8 3c 57 7d 14 3d
       0.05380857 0.047334712 0.02058236 0.036252346
0001d0 9c 8b 14 3d 99 ae 72 3d f3 b2 fe 3d a8 5e 15 3d
       0.036265954 0.05924854 0.124364756 0.036467224
0001e0 42 ca 6e 3d 3d 57 a1 3d 16 fd 04 3d dd 15 72 3d
       0.058298357 0.078779675 0.032467924 0.05910288
0001f0 c1 2c 95 3d 92 7b a2 3d f7 e5 83 3c 2a e5 04 3e
       0.07283927 0.079337254 0.016100867 0.12978044
000200 8a 0c 79 3f 1e a9 80 3f ad e5 7d 3f 36 8f 74 3f
       0.9728476 1.005161 0.9917858 0.9553102
000210 3d ac 76 3f 33 5d 79 3f c5 a1 74 3f d1 08 71 3f
       0.96356565 0.97407836 0.9555934 0.9415408
000220 e2 ee 78 3f 88 f8 78 3f 59 be 75 3f e9 40 7a 3f
       0.97239506 0.9725423 0.9599357 0.97755295
000230 01 03 79 3f d3 36 78 3f 2d 46 75 3f 95 0a 73 3f
       0.9727021 0.96958655 0.95810205 0.9493802
000240 32 c5 78 3f ee 37 76 3f 7b ba 83 3f 76 9f 7a 3f
       0.97175896 0.9617909 1.0291284 0.9789957
000250 9b 8a 7c 3f 76 56 7b 3f 92 70 76 3f e2 06 7d 3f
       0.98648995 0.98178804 0.9626552 0.9883863
000260 57 69 74 3f df fd 7b 3f 8b 45 79 3f 10 3d 71 3f
       0.95473236 0.9843425 0.9737174 0.942338
000270 40 2e 78 3f 98 fd 72 3f 4b f8 77 3f 57 2d 7a 3f
       0.9694557 0.94918203 0.9686324 0.97725433
000280 56 b0 79 3f 87 94 71 3f 6b ef 73 3f 11 86 80 3f
       0.9753469 0.9436726 0.952872 1.0040914
000290 99 1e 78 3f b8 60 76 3f 46 ae 74 3f de 27 7a 3f
       0.9692169 0.9624133 0.9557842 0.9771708
0002a0 4c bf 7d 3f ef 60 7c 3f 03 89 7a 3f bf 24 7a 3f
       0.9912002 0.9858541 0.97865313 0.9771232
0002b0 9c 19 80 3f 40 8e 81 3f a9 9b 7d 3f 10 4f 7d 3f
       1.0007815 1.0121536 0.99065644 0.98948765
0002c0 2f 47 76 3f 46 1c 73 3f 00 08 73 3f e3 c7 7b 3f
       0.9620237 0.94965017 0.9493408 0.9835188
0002d0 e9 06 7f 3f de a9 78 3f c1 99 73 3f e6 b2 7d 3f
       0.9961992 0.97134197 0.95156485 0.991011
0002e0 68 cd 76 3f 6f cd 70 3f 82 51 7a 3f 88 a8 74 3f
       0.96407175 0.94063467 0.9778062 0.9556966
0002f0 93 2e 6f 3f 6e c7 7d 3f a1 62 79 3f 11 94 77 3f
       0.9343044 0.9913243 0.9741612 0.96710306
000300 3a 40 7e bc f4 56 1a bd b7 e3 ba 3c 64 1f 59 ba
       -0.0155182425 -0.03768058 0.022813661 -0.00082825706
000310 e6 86 83 bc 30 07 d5 3c 24 fe bf 3b 42 63 c8 3c
       -0.016055536 0.026004404 0.0058591533 0.024461392
000320 e8 0d 63 bb c8 a3 8f bb d4 d1 25 3b 64 2e 1a bc
       -0.003464574 -0.004383538 0.002530207 -0.009410474
000330 06 64 8f 3c f2 7f 48 39 34 fe be 3b e6 56 74 bc
       0.01750375 0.0001912115 0.005828643 -0.014913296
000340 57 94 87 3b d6 c5 97 3c 97 77 35 3d be 8d 7b 3b
       0.0041375565 0.018526953 0.044303503 0.0038384045
000350 85 11 41 3c 1c 77 7a bc 72 83 31 3b c1 8d dd 3c
       0.011783962 -0.015287187 0.0027086404 0.027045133
000360 b8 a9 17 3c 60 5a 41 bc 96 7b d3 3b e9 6f 10 bd
       0.009256773 -0.011801332 0.0064539416 -0.035262976
000370 7a 38 2a 3a 54 af 22 bc 16 1b 26 3b 35 2d e6 3c
       0.0006493401 -0.009929497 0.0025345734 0.028097728
000380 66 88 3b 3a 4f 7d 78 3c d5 14 b7 3b 7e 88 f6 3c
       0.0007153809 0.015166595 0.0055872 0.030094381
000390 05 1f 73 bc f2 0b 34 3b a0 c2 47 3c 5b e7 e7 3a
       -0.014838939 0.002747294 0.012192398 0.0017692851
0003a0 47 e5 78 3c 5d b8 81 3c fc a8 8b bc a8 c2 d8 bb
       0.015191383 0.015834982 -0.017048351 -0.0066150017
0003b0 85 33 19 3c f8 64 ee ba bb 15 2e bc 50 fa 03 3d
       0.009350662 -0.001818805 -0.010625298 0.03222114
0003c0 6b db c6 3c a8 5f a2 3b ea 07 cb 3b bd 16 a6 bc
       0.024274549 0.004955251 0.006196012 -0.020274514
0003d0 a9 7e 97 bc d8 38 49 3c 81 21 2f 3c 7b 4a e9 3c
       -0.018493013 0.012281619 0.01068914 0.028477898
0003e0 8b 1e 86 bb ee ea 83 bc 32 13 ef 3b 38 aa 77 bb
       -0.0040929965 -0.016103234 0.0072959894 -0.0037790667
0003f0 91 a5 6e bc 1c 0f e8 3b 88 25 4d b9 e4 b2 94 3a
       -0.014565841 0.0070818793 -0.00019564305 0.0011344817
