Scenes/ImprovedGridWorld2D/results/ppo-memory-32-curriculum/DroneGrid2D/DroneGrid2D-999995.onnx (onnx, 276723 bytes, 9 tensors)

network_body._body_endoder.seq_layers.0.weight f4 [128, 6]
0.2441377 0.12977621 0.09623399 -1.0364156 0.15137115 -0.58351576 -0.32866383 0.16642664
0.5383872 -0.7763484 -1.188584 -0.5966878 -0.4158369 -0.057493515 0.21162671 0.44349593
0.27293968 0.3804416 -0.6870071 0.3892395 0.48611602 -0.124064066 0.9021102 -0.12759164
-0.10083933 0.11924465 0.45024967 -1.0258161 -0.18813735 -0.48255745 -0.50077814 -0.036971785
0.5529377 -0.19971797 0.291911 -0.3471371 0.51301944 -0.3824506 0.3624054 0.14963315
-0.537484 0.48393774 -0.7490704 -0.48652098 0.23408213 0.09405169 0.4209587 0.35890213
0.16858694 -0.5329577 0.0024698756 -0.115561694 -0.6453552 -0.3206728 -0.30812445 -0.049786933
-0.3303036 -0.21547285 0.49759135 -0.48562965 0.25555456 -0.15494056 -0.27476457 -0.048886042
-0.14484996 -0.71660584 -0.13848232 -0.22792526 -0.16366953 -0.21971068 0.4366861 0.29028052
0.24809662 -0.16800053 -0.19411044 -0.39223886 0.6668486 0.13984893 0.18095018 0.1201408
-0.110693276 -0.33583584 0.07609079 -0.41148466 -0.26177686 -0.6981798 -0.60702074 -0.24697189
0.19742118 0.6757229 -0.20950331 -0.48677808 0.6020758 0.1552171 0.3806844 -0.8672515
0.27057138 0.33564705 0.654268 0.30466005 0.42014286 0.19609113 -0.8164473 -0.095951445
-0.7554252 -0.061922327 0.10009698 0.89288306 0.88709515 -0.58188486 0.8004677 -0.04195495
0.18915941 0.27085167 -0.23760028 0.935618 0.08145387 0.24087986 -0.9021078 0.09149428
-0.40734223 -0.07634222 -0.28654405 -0.19712286 0.09953239 0.19745855 0.84100485 0.19230595
1.127774 0.016169043 -0.17591533 -0.099741705 -0.07812254 0.018655937 0.10611163 -0.2734759
0.7735528 0.13595559 0.4839437 -0.15196604 -0.16112584 -0.09790394 0.56466526 -0.7198742
0.44922975 0.52636415 -0.5470132 0.536202 -0.16134591 -1.0850015 -0.82298243 -0.19761112
0.78072435 0.15746911 0.029279074 -0.040359452 0.46693856 -0.33596507 0.20421246 -0.9933342
-0.15855661 0.7300146 0.29038402 0.18619472 0.13523312 -0.3177476 -0.11210041 0.9212412
0.5937515 0.3011515 -0.11558116 -0.39509302 -0.2890085 0.20749654 0.2011515 0.16349685
-0.6997845 -0.5502643 -0.63332343 -0.42310998 -0.03525857 -0.111268505 -0.593291 0.09072804
-0.55630493 -0.020584472 0.30973026 0.03465427 0.27581912 -0.4028654 0.47783095 0.17312075
0.10105397 -0.758756 -0.04301651 0.30400497 0.15765132 0.12889351 -0.25568083 -0.26306146
0.13030028 1.0138934 1.0818739 -0.29189098 0.16396071 0.5159289 -0.29888225 0.059668522
0.70068014 -0.5197236 -0.66381085 -0.31913528 -0.2971377 0.089494996 -0.2304181 -0.89904785
-0.022049053 -0.60458803 -0.13040568 0.030398775 0.040177654 0.11138382 -0.16809449 0.01178172
-0.47816566 -0.5651108 0.28681147 -0.58515865 -0.11299242 0.77087545 -0.06888996 0.34298834
-0.4167293 -0.079126455 -0.09613475 0.5450245 0.029021641 0.44650248 -0.57623756 0.06741574
0.08259663 -0.38142478 -0.19361417 1.2128488 0.16715837 -0.33498555 -0.38172236 0.58873284
-0.50939405 -0.33163676 0.549398 0.6774281 -0.020434605 0.34578174 -0.22578192 0.32431775
00000000: 3cff 793e 0ee4 043e 5316 c53d 44a9 84bf
00000010: 0a01 1b3e 4a61 15bf a046 a8be bf6b 2a3e
00000020: bed3 093f c5be 46bf 8523 98bf 88c0 18bf
00000030: 93e8 d4be 527e 6bbd acb4 583e e611 e33e
00000040: c0be 8b3e 3ec9 c23e b3df 2fbf 664a c73e
00000050: 33e4 f83e 4d15 febd b2f0 663f 62a7 02be
00000060: da84 cebd 8a36 f43d 2087 e63e f14d 83bf
00000070: 14a7 40be c511 f7be ff32 00bf ba6f 17bd
00000080: 538d 0d3f de82 4cbe 5c75 953e f4bb b1be
00000090: 3e55 033f 91d0 c3be 338d b93e 6f39 193e
000000a0: 8d98 09bf b0c6 f73e 14c3 3fbf 4719 f9be
000000b0: 3ab3 6f3e 2c9e c03d e687 d73e 05c2 b73e
000000c0: 0ea2 2c3e ea6f 08bf a3dd 213b 9cab ecbd
000000d0: 0036 25bf 3a2f a4be 7dc2 9dbe 62ed 4bbd
000000e0: 8e1d a9be eaa4 5cbe 4bc4 fe3e 73a4 f8be
000000f0: 0cd8 823e bda8 1ebe f1ad 8cbe bb3c 48bd
00000100: 8c53 14be 7b73 37bf 4fce 0dbe 3d65 69be
00000110: fc98 27be d6fb 60be 5295 df3e a69f 943e
00000120: 0a0d 7e3e 5508 2cbe e3c4 46be 88d3 c8be
00000130: 97b6 2a3f 8f34 0f3e 014b 393e 610c f63d
00000140: 28b3 e2bd adf2 abbe 7dd5 9b3d 1eae d2be
00000150: 9e07 86be e9bb 32bf b665 1bbf 33e6 7cbe
00000160: c728 4a3e 2dfc 2c3f 0988 56be fa3a f9be
00000170: a421 1a3f 3bf1 1e3e 11e9 c23e 3204 5ebf
00000180: 5588 8a3e eed9 ab3e 1c7e 273f 67fc 9b3e
00000190: f71c d73e 1dcc 483e b102 51bf 3182 c4bd
000001a0: 8c63 41bf 44a2 7dbd a5ff cc3d fc93 643f
000001b0: ab18 633f 68f6 14bf 74eb 4c3f f4d8 2bbd
000001c0: 01b3 413e 12ad 8a3e 7d4d 73be a984 6f3f
000001d0: 49d1 a63d 36a9 763e 89f0 66bf 5a61 bb3d
000001e0: 298f d0be 4f59 9cbd e7b5 92be 93da 49be
000001f0: a3d7 cb3d 9332 4a3e 184c 573f daeb 443e
00000200: e65a 903f f174 843c 2623 34be 6145 ccbd
00000210: b6fe 9fbd 56d4 983c 0e51 d93d 0805 8cbe
00000220: 8e07 463f f137 0b3e 78c7 f73e fc9c 1bbe
00000230: 2cfe 24be dc81 c8bd e78d 103f ad49 38bf
00000240: 7101 e63e cdbf 063f 0f09 0cbf 8944 093f
00000250: dd37 25be 54e1 8abf faae 52bf 925a 4abe
00000260: 8ddd 473f 953f 213e abda ef3c f44f 25bd
00000270: 9212 ef3e 9d03 acbe 121d 513e 264b 7ebf
00000280: aa5c 22be 3de2 3a3f 37ad 943e d4a9 3e3e
00000290: 8d7a 0a3e d0af a2be e694 e5bd 77d6 6b3f
000002a0: 1900 183f 8830 9a3e d1b5 ecbd a249 cabe
000002b0: ecf8 93be f979 543e a9fa 4d3e b86b 273e
000002c0: 1425 33bf 1fde 0cbf 7c21 22bf dfa1 d8be
000002d0: 4a6b 10bd bee0 e3bd ebe1 17bf 9fcf b93d
000002e0: 006a 0ebf c4a0 a8bc f794 9e3e a3f1 0d3d
000002f0: 2a38 8d3e 6044 cebe 42a6 f43e 9146 313e
00000300: 62f5 ce3d d53d 42bf 1432 30bd 8aa6 9b3e
00000310: 596f 213e a9fc 033e 99e8 82be feaf 86be
00000320: 706d 053e 42c7 813f d87a 8a3f bc72 95be
00000330: 51e5 273e eb13 043f 1807 99be fb66 743d
00000340: c65f 333f 9b0c 05bf 82ef 29bf b365 a3be
00000350: 6f22 98be 2749 b73d b9f2 6bbe 0028 66bf
00000360: 37a0 b4bc 48c6 1abf 1189 05be da06 f93c
00000370: 5391 243d 331d e43d f620 2cbe 1e08 413c
00000380: 21d2 f4be 1aab 10bf f4d8 923e f5cc 15bf
00000390: 9268 e7bd 1858 453f 2e16 8dbd 2b9c af3e
000003a0: 8b5d d5be 0d0d a2bd 4ce2 c4bd ba86 0b3f
000003b0: cbbe ed3c f99b e43e 4e84 13bf 4311 8a3d
000003c0: 6c28 a93d 1c4a c3be cb42 46be a13e 9b3f
000003d0: 902b 2b3e 3a83 abbe 1d71 c3be 32b7 163f
000003e0: a667 02bf 4bcc a9be 59a5 0c3f ee6b 2d3f
000003f0: 7966 a7bc 4e0a b13e 6033 67be fa0c a63e

network_body._body_endoder.seq_layers.0.bias f4 [128]
0.020663567 -0.0010164503 -0.030569978 0.022435987 0.012473671 -0.028681787 0.00955989 0.023727216
0.03566514 0.020584248 0.024991963 0.030585367 0.008313005 0.019033711 -0.020782761 0.010852628
-0.024770275 0.00075861113 0.01033662 0.03317351 -0.03536568 0.10360232 -0.030656962 0.023702342
0.019979853 0.031516634 -0.009036053 0.02463953 0.013081776 0.03881955 0.031316698 0.0029581017
0.050431266 0.004745988 0.0072867097 0.002325576 -0.027910393 0.01927833 0.01034627 0.042542882
0.051889077 0.028744444 0.019017236 0.051476505 -0.015870918 0.0372932 0.019808 0.026014207
0.0012909517 0.043756563 0.024444336 0.03391964 0.019832006 -0.019296264 0.055074118 0.015653448
0.032208636 -0.0014602337 0.0121075325 0.026297236 0.020401454 0.018130556 0.020167347 -0.0027785979
0.016960336 0.039236378 0.06169795 0.023638612 -0.024640413 0.024424786 -0.00217128 0.05622573
-0.0035513854 0.0005230345 0.023383208 0.07357754 0.02009509 0.020275485 0.019561939 0.015187712
-0.0030674054 0.010951879 0.0595727 0.038140707 0.033388026 -0.013777095 0.021294538 0.026766552
0.023030207 0.0001942768 0.008326698 0.013941963 0.010269307 -0.040783193 -0.007522086 0.005636818
-0.08377065 0.055592008 -0.001462333 0.02283767 0.04792884 0.03908804 0.027382132 0.01754579
0.01462811 0.0229424 -0.045432556 0.003413881 0.010325253 -0.0027004702 0.017256346 0.021075135
0.012987446 0.013374491 0.02160118 0.03348621 0.0645233 0.016325397 0.008273249 -0.01843843
-0.022601917 0.0040904162 -0.002057674 0.022996422 -0.00059169205 -0.0012892565 0.034385666 0.022879083
00000000: a446 a93c 6a3a 85ba e46d fabc adcb b73c
00000010: 5e5e 4c3c 11f6 eabc 16a1 1c3c 945f c23c
00000020: 9c15 123d 4ca0 a83c f2bb cc3c 2a8e fa3c
00000030: 4533 083c 96ec 9b3c 9c40 aabc 39cf 313c
00000040: 08eb cabc 88dd 463a ed5a 293c f2e0 073d
00000050: 9adb 10bd 742d d43d 4f24 fbbc 6a2b c23c
00000060: caac a33c 9617 013d f40b 14bc d7d8 c93c
00000070: f254 563c 4001 1f3d f045 003d b6dc 413b
00000080: 0491 4e3d 3c84 9b3b 5ac5 ee3b b168 183b
00000090: 56a4 e4bc 97ed 9d3c 6783 293c 7241 2e3d
000000a0: a489 543d 7879 eb3c 09ca 9b3c 07d9 523d
000000b0: ba03 82bc c1c0 183d 6344 a23c bf1b d53c
000000c0: 2735 a93a 153a 333d 7d3f c83c 52ef 0a3d
000000d0: bb76 a23c 3313 9ebc 6695 613d a93b 803c
000000e0: 34ed 033d 5065 bfba ac5e 463c 4d6d d73c
000000f0: f320 a73c 8886 943c fe35 a53c 2319 36bb
00000100: 67f0 8a3c 53b6 203d fdb6 7c3d c3a5 c13c
00000110: b1da c9bc 7d16 c83c 094c 0ebb f34c 663d
00000120: 5cbe 68bb 401c 093a 248e bf3c d2af 963d
00000130: 759e a43c c618 a63c 5c40 a03c e2d5 783c
00000140: 8606 49bb 836f 333c 8102 743d 6e39 1c3d
00000150: e2c1 083d 53b9 61bc e271 ae3c 8745 db3c
00000160: d8a9 bc3c c8b6 4b39 b46c 083c d56c 643c
00000170: 9840 283c 470c 27bd d57b f6bb 0eb5 b83b
00000180: f28f abbd 72b4 633d c1ab bfba 1116 bb3c
00000190: 0851 443d c81a 203d 7e50 e03c 30bc 8f3c
000001a0: beaa 6f3c b3f1 bb3c 7d17 3abd 6bbb 5f3b
000001b0: 402b 293c 5ffa 30bb 2e5d 8d3c c3a5 ac3c
000001c0: 4cc9 543c ae20 5b3c f5f4 b03c d628 093d
000001d0: cb24 843d d7bc 853c 858c 073c 310c 97bc
000001e0: a827 b9bc e608 863b 0bda 06bb fe62 bc3c
000001f0: c81b 1bba 45fc a8ba fcd7 0c3d ea6c bb3c

network_body._body_endoder.seq_layers.2.weight f4 [128, 128]
0.020602366 0.11151147 0.006291257 0.042030007 -0.04992505 0.09282023 0.15197954 -0.17958994
-0.043776922 -0.0708659 0.0440517 -0.06784432 -0.14019854 0.031100666 0.00413686 0.04432529
-0.03498097 -0.33245653 -0.02490255 0.19108847 0.08776729 0.0736356 -0.16856623 -0.11435813
0.032054827 -0.041468687 -0.14686105 -0.10990431 0.011121696 -0.0018916907 -0.01012446 0.04279039
0.02293476 -0.062054522 0.03017468 0.05514121 0.016354214 -0.022598987 -0.06022328 0.032555655
0.0012205745 -0.13231964 0.20986333 0.13603602 -0.02261713 -0.112927206 0.0017698602 0.18531127
-0.0628467 -0.07238132 0.028357605 0.18069091 -0.14555013 0.15163696 -0.09954983 -0.0143970875
0.050004862 -0.039565142 0.24407041 0.025358537 -0.08074962 -0.010125635 -0.0478275 0.056261003
-0.006122723 -0.07112493 0.23022503 0.012267676 -0.0029375225 0.22765641 0.17834178 -0.13877887
0.007626661 -0.031641617 0.0043588527 0.079981446 -0.12936462 0.027826017 0.053883363 -0.1441114
0.11660058 -0.15997614 -0.046598166 -0.26693624 0.2293007 -0.11973289 0.04331102 0.02885316
0.0382545 -0.001957465 0.028813308 -0.198861 0.18382671 -0.0031948392 -0.14649224 0.17779009
-0.014898053 0.033982318 0.046266314 -0.32898813 0.024111029 -0.04987193 0.0708571 -0.13917838
0.25299573 -0.037700593 -0.14483298 -0.056851055 0.09074539 -0.09158846 0.09922019 0.18252265
0.0056566275 -0.11153287 0.2808963 -0.06700226 0.09846684 0.012859979 0.051298037 -0.14675637
0.0036284456 0.23289518 0.15088753 0.14808103 0.035242684 -0.085889466 -0.03669662 -0.06017585
-0.09589377 0.04002521 -0.09201662 0.11808087 0.10996828 -0.14734407 -0.15858854 0.057377387
0.11447539 -0.058427855 0.27850562 -0.119324714 -0.052486986 0.076915964 -0.12005531 0.18962371
0.05176708 -0.17325397 0.024043635 0.08773243 -0.04408423 0.010635536 -0.08471027 0.030858172
0.08213312 0.10413744 -0.16852811 -0.08388225 0.018214915 0.29825392 0.017295964 -0.03447933
0.12622395 0.03071749 0.053511024 0.018621247 -0.051448062 -0.032638963 0.10797426 -0.030658996
0.1435139 -0.09267329 0.13270897 0.053440534 -0.06802787 -0.08770441 0.120861486 0.1732784
0.04988961 0.30455136 -0.10419296 0.12619217 -0.06979896 0.10527815 0.07811956 0.0063760593
0.08886873 -0.13032693 -0.07634212 0.05888659 0.19418254 0.21264088 0.13212886 -0.027838122
0.103071295 0.0059719044 0.22598268 0.11715383 0.032391563 0.115464695 0.2002022 0.11887889
0.02076299 0.18292862 -0.013537064 0.045625743 -0.023722047 0.12399892 0.06396677 -0.028622232
0.1850278 0.10597496 -0.05607319 -0.06620028 0.14429413 0.0038302138 -0.08549951 -0.053050313
0.15205598 -0.01958387 0.15887924 0.10544509 0.13156202 -0.016314711 -0.021971194 -0.012542452
-0.093577236 -0.07651202 0.049630914 -0.043198492 -0.0051360154 0.15509465 0.25608817 -0.20175238
-0.12959577 0.073510624 -6.621745e-05 0.01443409 0.16068465 0.035184603 0.09075995 0.095790446
-0.0789178 0.07822523 0.02251826 -0.09947623 0.036020454 -0.08822045 -0.0055719865 -0.082675144
-0.157853 -0.030340562 0.0006451156 0.2212191 0.08085566 -0.16177014 0.2745493 -0.15180407
00000000: 4bc6 a83c 2060 e43d e426 ce3b a827 2c3d
00000010: 367e 4cbd 8818 be3d 86a0 1b3e 6de6 37be
00000020: 6e4f 33bd 2422 91bd 8e6f 343d f6f1 8abd
00000030: 3590 0fbe d3c6 fe3c 7f8e 873b 6f8e 353d
00000040: 3548 0fbd be37 aabe 6f00 ccbc b2ac 433e
00000050: 56bf b33d 43ce 963d a09c 2cbe 9834 eabd
00000060: ec4b 033d 12db 29bd be62 16be 8315 e1bd
00000070: c637 363c 9bf2 f7ba 10e1 25bc fa44 2f3d
00000080: aee1 bb3c e22c 7ebd e430 f73c c0db 613d
00000090: 46f9 853c 8321 b9bc b0ac 76bd 1459 053d
000000a0: affb 9f3a cd7e 07be 6ae6 563e 074d 0b3e
000000b0: 8f47 b9bc 6146 e7bd a7fa e73a 3dc2 3d3e
000000c0: c5b5 80bd a83c 94bd 354e e83c 0a07 393e
000000d0: 180b 15be b846 1b3e c8e0 cbbd c3e1 6bbc
000000e0: e6d1 4c3d 0f0f 22bd 98ed 793e b5bc cf3c
000000f0: 0f60 a5bd fee5 25bc c5e6 43bd f071 663d
00000100: 20a1 c8bb f3a9 91bd 1cc0 6b3e 5dfe 483c
00000110: 7383 40bb c31e 693e 3a9f 363e 0c1c 0ebe
00000120: 12e9 f93b a49a 01bd b5d4 8e3b 50cd a33d
00000130: 2978 04be 63f3 e33c cdb4 5c3d f091 13be
00000140: 49cc ee3d c9d0 23be b8dd 3ebd deab 88be
00000150: cdcd 6a3e 8436 f5bd e566 313d 765d ec3c
00000160: c0b0 1c3d d048 00bb e309 ec3c 38a2 4bbe
00000170: 123d 3c3e 8260 51bb 1002 16be 9b0e 363e
00000180: f716 74bc 0b31 0b3d bf81 3d3d 2271 a8be
00000190: 7e84 c53c 8246 4cbd 871d 913d c784 0ebe
000001a0: a888 813e f06b 1abd 194f 14be a7dc 68bd
000001b0: b8d8 b93d bb92 bbbd f433 cb3d 38e7 3a3e
000001c0: 3b5b b93b 586b e4bd a4d1 8f3e 7b38 89bd
000001d0: fca8 c93d a9b2 523c e41d 523d 4d47 16be
000001e0: 37cb 6d3b 137c 6e3e 4382 1a3e 8ea2 173e
000001f0: a25a 103d d1e6 afbd 324f 16bd f47a 76bd
00000200: f463 c4bd 79f1 233d 3673 bcbd 62d4 f13d
00000210: 0d37 e13d 5de1 16be 0965 22be 8d04 6b3d
00000220: 1372 ea3d 0c52 6fbd 4a98 8e3e 8460 f4bd
00000230: 98fc 56bd 1e86 9d3d 8fdf f5bd b82c 423e
00000240: b809 543d 7d69 31be 28f7 c43c 0fad b33d
00000250: aa91 34bd ac40 2e3c 947c adbd 47ca fc3c
00000260: 6935 a83d 0346 d53d a292 2cbe 75ca abbd
00000270: 7237 953c bdb4 983e 44b0 8d3c 333a 0dbd
00000280: da40 013e 3fa3 fb3c 602e 5b3d 968b 983c
00000290: 34bb 52bd 6fb0 05bd 9c21 dd3d 9328 fbbc
000002a0: 4ff5 123e 7ecb bdbd dce4 073e 76e4 5a3d
000002b0: 3252 8bbd 5f9e b3bd 3a86 f73d e56f 313e
000002c0: 0c59 4c3d 28ee 9b3e 1e63 d5bd 8538 013e
000002d0: c2f2 8ebd 129c d73d 26fd 9f3d 43ee d03b
000002e0: cf00 b63d 6c74 05be 4259 9cbd 1133 713d
000002f0: cad7 463e 88be 593e ca4c 073e c60c e4bc
00000300: 0b17 d33d f7af c33b 0168 673e 59ee ef3d
00000310: 04ad 043d c178 ec3d ce01 4d3e c776 f33d
00000320: 2517 aa3c a451 3b3e 90ca 5dbc 0fe2 3a3d
00000330: bd54 c2bc 25f3 fd3d 0301 833d 2c79 eabc
00000340: ed77 3d3e 6609 d93d 00ad 65bd 0394 87bd
00000350: d7c1 133e 5304 7b3b 5e1a afbd 494b 59bd
00000360: 90b4 1b3e 5a6e a0bc 3db1 223e 98f3 d73d
00000370: 32b8 063e 6ea6 85bc effc b3bc db7e 4dbc
00000380: 6ca5 bfbd 55b2 9cbd c949 4b3d e7f0 30bd
00000390: 054c a8bb 22d1 1e3e fd1d 833e 2d98 4ebe
000003a0: c1b4 04be bd8c 963d 39de 8ab8 f67c 6c3c
000003b0: 848a 243e bb1d 103d 5ae0 b93d c82d c43d
000003c0: a89f a1bd 8d34 a03d 3778 b83c 32ba cbbd
000003d0: 2f8a 133d ecac b4bd 3695 b6bb 9651 a9bd
000003e0: 38a4 21be c58c f8bc fa1c 293a 4287 623e
000003f0: a797 a53d 12a7 25be ba91 8c3e 8772 1bbe

network_body._body_endoder.seq_layers.2.bias f4 [128]
0.014856878 0.056731194 0.02720152 0.005507045 -0.0015182624 0.01984755 -0.044044193 0.03646071
0.014691827 -0.0047542267 -0.01156803 0.026303098 0.0247554 0.045512788 0.026611209 0.03502573
0.03464782 0.0022126564 0.043630697 0.057337474 -0.0038107447 0.033118002 0.037164148 0.03277784
0.0319944 0.04853548 -0.00043049155 0.027332954 0.001361737 -0.01251134 0.046118893 0.033931214
0.012966024 -0.018838579 0.05794727 -0.02084584 -0.0054472997 0.029842302 0.015668366 0.0115442285
0.017818814 0.01657476 0.018258626 0.022302862 -0.006696428 0.009062571 -0.00486503 0.048251208
0.009414342 0.040096045 0.031230068 0.032221884 0.0017864258 -0.0041185278 -0.0065893726 0.011487739
0.03182312 0.035292074 0.02717477 0.012490747 -0.011594443 0.035986003 0.04424058 0.039917286
0.010957321 0.003675191 0.015133561 0.014300702 -0.009579142 0.014702111 -0.038742352 0.007047618
0.020674305 -0.001198747 2.3474483e-06 -0.01231095 0.00075753266 0.026824199 -0.013141775 0.00080756145
0.02934796 0.055994816 -0.013491372 0.0074336724 0.029448973 -0.009638561 0.0056406697 0.015877195
0.015277077 0.020806495 0.053607848 0.015970793 -0.034940816 0.018699931 0.037095454 0.010506922
0.038455516 0.022027051 0.05176221 -0.017323498 0.0059783305 0.02474588 -0.038921613 0.030760068
-0.04216717 0.0032057224 -0.0033412776 -0.0049366704 0.05083269 -0.0050483 0.014365356 -0.03654226
3.6640145e-06 -0.025329087 0.03247945 -0.026595628 0.041280735 -0.008924211 -0.01831846 0.02841323
0.0058131837 0.009131138 0.042487185 0.0135043105 0.037796322 0.010585744 0.080958694 -0.03636326
00000000: 436a 733c f85e 683d b9d5 de3c 7174 b43b
00000010: 6f00 c7ba 5497 a23c af67 34bd d357 153d
00000020: fdb5 703c 58c9 9bbb d687 3dbc 9879 d73c
00000030: d6cb ca3c 9e6b 3a3d c0ff d93c 2477 0f3d
00000040: dfea 0d3d 3702 113b 1ab6 323d b3da 6a3d
00000050: b0bd 79bb bea6 073d 6f39 183d 0e42 063d
00000060: 8f0c 033d 24cd 463d 99b3 e1b9 5ce9 df3c
00000070: 507c b23a 5dfc 4cbc 2ae7 3c3d 75fb 0a3d
00000080: 726f 543c 5d53 9abc 1e5a 6d3d e5c4 aabc
00000090: 437f b2bb d877 f43c f25a 803c 0124 3d3c
000000a0: c3f8 913c cbc7 873c 1d93 953c 7eb4 b63c
000000b0: b66d dbbb 2e7b 143c d46a 9fbb 0fa3 453d
000000c0: 9d3e 1a3c c03b 243d 33d6 ff3c 18fb 033d
000000d0: 8126 ea3a b7f4 86bb aaeb d7bb 1237 3c3c
000000e0: f658 023d 6c8e 103d a09d de3c fda5 4c3c
000000f0: 9ef6 3dbc 0f66 133d 9c35 353d 4f80 233d
00000100: 5686 333c 79db 703b c1f2 773c 7e4d 6a3c
00000110: d5f1 1cbc 1fe1 703c 4db0 1ebd b4ef e63b
00000120: 295d a93c 461f 9dba db88 1d36 deb3 49bc
00000130: 2895 463a 6cbe db3c 9950 57bc 88b2 533a
00000140: 226b f03c d25a 653d ea0a 5dbc 2a96 f33b
00000150: f93e f13c 0eeb 1dbc 5ed5 b83b e410 823c
00000160: b54c 7a3c 6272 aa3c e793 5b3d 2ed5 823c
00000170: 1a1e 0fbd 9930 993c 67f1 173d 3a25 2c3c
00000180: 8883 1d3d 1372 b43c 9c04 543d 02ea 8dbc
00000190: dfe5 c33b dfb7 ca3c 456c 1fbd 8afc fb3c
000001a0: 7cb7 2cbd 1917 523b 56f9 5abb cbc3 a1bb
000001b0: f035 503d 366c a5bb ac5c 6b3c 56ad 15bd
000001c0: 4ae3 7536 f27e cfbc 2c09 053d 13df d9bc
000001d0: fd15 293d db36 12bc 9810 96bc ddc2 e83c
000001e0: 857c be3b c59a 153c 0b07 2e3d 2f41 5d3c
000001f0: 51d0 1a3d d46f 2d3c accd a53d a4f1 14bd

action_model._discrete_distribution.branches.0.weight f4 [5, 64]
0.14095595 0.18701614 0.0074057165 -0.024705045 0.011595703 -0.031946912 -0.016969535 -0.10618816
-0.049446303 0.08142698 0.05381896 0.10971455 -0.05333511 0.0032511458 -0.049299818 0.11221764
0.12683497 -0.027244087 -0.108502604 -0.14130418 -0.013325513 0.058224 -0.03863671 -0.16423897
0.10289361 -0.010252774 0.0053652725 0.070690915 -0.055690713 -0.062873274 0.04919187 -0.122399375
0.066523686 -0.09519183 -0.02530584 -0.12306951 -0.07676884 -0.11478862 -0.08378514 0.045144074
-0.0928129 -0.13663623 -0.028504213 0.005027056 -0.15419607 0.018845104 0.02819593 -0.1501572
-0.08589315 0.025951358 -0.04621469 0.023263844 0.14924628 -0.11299268 0.0014606024 -0.1281203
0.078994535 0.11420487 0.13580096 -0.030916382 0.07771279 -0.055609267 -0.029377315 -0.09791141
0.046753667 -0.036015037 0.108264394 -0.09733893 0.013310745 -0.12243859 -0.12454488 0.11513238
0.066865966 -0.04761876 -0.051923435 -0.12174176 -0.06833415 0.012950206 -0.012816573 -0.09467526
-0.0903976 0.011833153 -0.024275292 0.099139236 -0.047493238 0.13932297 -0.104746535 0.09320731
-0.07867929 -0.036827806 -0.13968092 0.00020428225 -0.0015427925 0.05237629 0.022152022 0.056203067
-0.09688807 0.075825274 -0.10061365 0.10412238 -0.05431367 -0.04199091 0.03920989 0.07897275
-0.06893979 -0.014296879 0.1203562 0.018979361 0.10559235 -0.065565 0.06320313 -0.047956467
0.0060788724 -0.05334218 -0.09477216 -0.058504038 -0.068169974 -0.0067795673 0.10978492 0.049329992
-0.057519186 -0.11916586 -0.048658993 0.11046168 0.07644552 0.11447374 0.010129055 -0.078765966
-0.104534484 -0.037370063 -0.10747987 0.14224802 -0.081117615 0.1072538 0.12122719 -0.06060767
-0.11730757 0.009344332 0.020692619 0.04858077 0.092664585 0.06627061 0.058237106 0.0321184
0.04797504 -0.07819602 0.08246261 -0.037340395 0.06680711 -0.1395707 0.16849129 -0.038640585
0.098733276 0.017577183 0.12483863 -0.036755692 -0.038931333 -0.041414704 -0.018126618 -0.040714595
0.08778323 0.014436338 0.12941144 -0.021826489 0.08881942 0.084771276 0.05591974 -0.13307314
0.1097174 0.08264678 -0.103554256 -0.052764814 -0.044738207 0.0855986 -0.112240195 0.11984858
0.050219633 0.05798352 0.09475467 0.025378143 -0.041848928 0.1000728 -0.14329006 0.025490182
0.01816026 0.09268563 -0.004249114 -0.112704515 -0.07258268 -0.07217808 -0.031016203 0.15398014
-0.115170166 -0.07846644 0.050464038 -0.040010102 -0.04154864 0.057281796 -0.046430353 0.07896341
-0.11113442 0.12656856 -0.086484075 -0.11975598 0.10673841 -0.15202215 0.12359218 0.039378487
0.065371074 -0.0065086302 0.064884156 -0.06537594 -0.07278799 -0.09408641 -0.07472078 -0.0028809707
-0.111797355 -0.14258163 0.011786822 -0.0799126 0.13783818 -0.0725529 0.13003851 0.055030786
-0.053598385 -0.10271473 0.021911303 -0.07521628 -0.12125765 -0.1069802 0.1258592 0.023489444
-0.029901072 0.073821835 -0.056229953 0.118278466 0.010432112 -0.12552574 -0.0060301074 0.02398134
0.110826895 -0.08588167 -0.036329888 -0.06635079 -0.10735709 0.07932976 -0.037803035 0.06965363
0.11693169 -0.061502144 -0.103902 -0.023789255 -0.10066768 -0.03891602 -0.08761458 0.06365261
00000000: c256 103e 2981 3f3e a7ab f23b 3c62 cabc
00000010: e7fb 3d3c c4da 02bd b203 8bbc 2e79 d9bd
00000020: 3588 4abd 30c3 a63d 4571 5c3d 06b2 e03d
00000030: eb75 5abd 2d11 553b 9bee 49bd 5dd2 e53d
00000040: 07e1 013e fe2e dfbc 9d36 debd 0bb2 10be
00000050: 4153 5abc 4a7c 6e3d 8741 1ebd 432e 28be
00000060: e3b9 d23d 40fb 27bc 2bcf af3b 66c6 903d
00000070: f21b 64bd b4c3 80bd 6a7d 493d 86ac fabd
00000080: 923d 883d eff3 c2bd 314e cfbc de0b fcbd
00000090: fb38 9dbd 4c16 ebbd 8b97 abbd fee8 383d
000000a0: b114 bebd 5eea 0bbe ab81 e9bc 01ba a43b
000000b0: 93e5 1dbe 0c61 9a3c 27fb e63c cfc2 19be
000000c0: bfe8 afbd f197 d43c 9d4b 3dbd d193 be3c
000000d0: 04d4 183e b568 e7bd af71 bf3a f831 03be
000000e0: e3c7 a13d 3ee4 e93d 680f 0b3e 5a44 fdbc
000000f0: e227 9f3d 8bc6 63bd b2a8 f0bc c785 c8bd
00000100: c680 3f3d 8184 13bd b9b9 dd3d a259 c7bd
00000110: 5015 5a3c 15c1 fabd 6311 ffbd 86ca eb3d
00000120: 06f1 883d e40b 43bd abad 54bd be53 f9bd
00000130: c6f2 8bbd 1a2d 543c 9afc 51bc 1ae5 c1bd
00000140: 6022 b9bd d7df 413c fadc c6bc 8309 cb3d
00000150: 4588 42bd aeaa 0e3e 5a85 d6bd 79e3 be3d
00000160: 9c22 a1bd c1d8 16bd 8408 0fbe 9934 5639
00000170: 8737 caba 8588 563d 2878 b53c 3035 663d
00000180: 416d c6bd 484a 9b3d 880e cebd 1d3e d53d
00000190: 0378 5ebd a9fe 2bbd 8d9a 203d 77bc a13d
000001a0: 4e30 8dbd 753d 6abc 507d f63d 9b7a 9b3c
000001b0: cd40 d83d f146 86bd a570 813d 006e 44bd
000001c0: 4731 c73b 547d 5abd e817 c2bd eea1 6fbd
000001d0: b39c 8bbd 2227 debb ebd6 e03d 3f0e 4a3d
000001e0: 3d99 6bbd 3b0d f4bd a74e 47bd bc39 e23d
000001f0: 788f 9c3d 3571 ea3d 56f4 253c 0d50 a1bd
00000200: 2d16 d6bd 5a11 19bd 681e dcbd 77a9 113e
00000210: fe20 a6bd e1a7 db3d f645 f83d c03f 78bd
00000220: f43e f0bd f818 193c 9183 a93c a1fc 463d
00000230: eec6 bd3d e3b8 873d 088a 6e3d 958e 033d
00000240: 7a81 443d 3c25 a0bd 28e2 a83d 3ef2 18bd
00000250: 2bd2 883d 9feb 0ebe fb88 2c3e 9745 1ebd
00000260: ac34 ca3d 06fe 8f3c 65ab ff3d 238d 16bd
00000270: 7676 1fbd 77a2 29bd 467e 94bc 59c4 26bd
00000280: b2c7 b33d 6486 6c3c 6f84 043e 77cd b2bc
00000290: f5e6 b53d 909c ad3d 190c 653d 5344 08be
000002a0: 84b3 e03d b742 a93d 4114 d4bd eb1f 58bd
000002b0: 693f 37bd 524e af3d 30de e5bd 2c73 f53d
000002c0: 1ab3 4d3d 2180 6d3d bd0e c23d d3e5 cf3c
000002d0: c869 2bbd f8f2 cc3d a1ba 12be c9d0 d03c
000002e0: d3c4 943c f7d1 bd3d 273c 8bbb a0d1 e6bd
000002f0: 3aa6 94bd 1ad2 93bd b115 febc f8ac 1d3e
00000300: 56de ebbd 03b3 a0bd 61b3 4e3d a2e1 23bd
00000310: e82e 2abd 51a0 6a3d c12d 3ebd 91b7 a13d
00000320: 719a e3bd 309b 013e 901e b1bd a042 f5bd
00000330: ab99 da3d b2ab 1bbe e61d fd3d 564b 213d
00000340: 45e1 853d 5946 d5bb fce1 843d d2e3 85bd
00000350: df11 95bd 60b0 c0bd 3507 99bd abce 3cbb
00000360: 03f6 e4bd eb00 12be 841d 413c 38a9 a3bd
00000370: 7425 0d3e 9d96 94bd d128 053e f667 613d
00000380: fb89 5bbd 1a5c d2bd 557f b33c fe0a 9abd
00000390: ee55 f8bd 6f18 dbbd 3ce1 003e ef6c c03c
000003a0: 18f3 f4bc e72f 973d 6151 66bd fb3b f23d
000003b0: 73eb 2a3c d289 00be 3598 c5bb 8474 c43c
000003c0: 36f9 e23d bbe2 afbd a6ce 14bd ece2 87bd
000003d0: 09de dbbd a477 a23d 5bd7 1abd 90a6 8e3d
000003e0: e279 ef3d ace9 7bbd 92ca d4bd afe1 c2bc
000003f0: db2a cebd 6866 1fbd 466f b3bd 4d5c 823d

action_model._discrete_distribution.branches.0.bias f4 [5]
-0.14258566 0.036193095 0.043781493 0.026250137 0.03383999
00000000: fa01 12be 363f 143d 3954 333d 870a d73c
00000010: cd9b 0a3d

onnx::LSTM_98 f4 [1, 256, 128]
0.006225445 0.044444066 0.1803166 -0.08392942 -0.14399529 0.097348355 0.0028226473 0.16382954
0.18947461 0.15789697 0.0030176619 -0.055294152 -0.014150587 0.12513116 -0.1676185 0.058759235
-0.038774367 -0.034632355 -0.10437393 0.00046658324 0.09096945 -0.13042647 0.10052696 0.115980744
-0.05104212 0.037588302 -0.08885423 0.01960166 -0.15085258 0.04229375 0.1394761 -0.13333505
-0.1798323 -0.15711282 0.20398457 0.06102373 0.114030875 0.08996449 -0.14990038 0.15495436
0.175778 -0.14017443 -0.13276392 -0.01147526 -0.16420415 -0.12909307 0.14742117 0.11066569
0.12688744 0.13563061 -0.15769395 -0.019002233 0.017181983 -0.10138098 0.010790268 -0.10014227
0.19775708 0.023334792 0.08701827 -0.005088824 0.12570733 0.16534252 0.12622307 0.020033475
-0.15301307 0.07265273 0.108719654 0.044670187 0.1866468 0.044182 0.042718578 0.092079565
0.00061717886 0.1408592 0.15641527 0.15881738 -0.077132076 0.099291146 0.14110492 0.13664857
0.12662323 0.060635347 -0.010092534 -0.030823225 0.059174556 0.1179767 -0.0760667 0.004492823
0.012823117 0.00035345287 0.193337 0.08220971 -0.06984255 -0.12739372 0.13614073 0.10676524
-0.10598816 -0.111140504 -0.049416192 0.105842195 -0.15748937 0.118835494 0.0327082 0.0746582
-0.11693798 0.057930563 0.1364329 -0.08124728 0.09292774 -0.13895735 0.09507759 -0.15538684
0.09096862 0.12895893 -0.12617095 0.09106401 -0.0894537 0.027740665 0.019202033 -0.07299699
-0.049268443 -0.050134383 0.16154526 0.13608757 -0.025513867 -0.07000408 0.111984804 0.16382329
0.14557907 -0.093554005 0.14308932 0.1684554 -0.05847593 0.19129962 -0.019006032 0.08279205
0.19808197 -0.00822313 -0.12577637 -0.056545395 0.049608372 0.17812005 0.12097829 0.08109209
0.028274748 -0.022071935 0.08746508 0.028362887 0.13228533 0.18667448 -0.026997946 0.0042089284
0.14731878 0.0447318 -0.018877946 0.14520708 0.15630554 -0.11373199 0.019043474 -0.12070451
0.025935097 -0.02216638 0.16986313 0.14376287 -0.123765886 0.064791 0.19769567 0.09439273
-0.08216881 0.044319298 -0.14600572 -0.0620717 -0.16562663 0.018154455 -0.023446823 0.092401154
-0.06951868 -0.101809494 0.020456634 0.0990253 0.124932 -0.03718563 0.052129645 -0.1820448
-0.11671195 0.13642845 -0.012600421 -0.07484574 0.051218286 -0.09687326 -0.03642467 0.09069909
-0.13417076 -0.029124316 -0.17668377 -0.07643724 0.1064122 -0.11167961 0.1311038 0.028209787
-0.04612966 0.15804946 -0.030248065 -0.073150106 0.06547664 -0.060966726 -0.11298538 0.02589316
-0.085527934 0.22258739 0.15864477 -0.10590496 0.012517551 -0.14081007 0.09738772 0.17307785
0.08905943 0.0035115087 0.11960973 0.0652598 -0.052928388 0.024250206 0.04314592 -0.14102966
-0.07395762 0.13662507 -0.079403296 0.12571903 -0.051332794 -0.117522776 -0.14863518 -0.061011117
-0.16333276 0.2156019 -0.11856434 -0.022085356 0.16048194 0.03993667 -0.008243343 0.07376411
0.05043599 0.07624851 -0.0796591 0.024175053 0.08498235 0.013094637 0.15202063 -0.018215444
0.11520559 -0.08486951 -0.11568756 -0.08526122 -0.08032644 0.14952897 0.068383925 0.07171803
00000000: d1fe cb3b fb0a 363d eaa4 383e 30e3 abbd
00000010: 8073 13be 935e c73d 2afc 383b eec2 273e
00000020: a205 423e beaf 213e f7c3 453b 1f7c 62bd
00000030: ddd7 67bc 6222 003e 2fa4 2bbe 86ad 703d
00000040: dfd1 1ebd a8da 0dbd 00c2 d5bd be9f f439
00000050: 314e ba3d 848e 05be 14e1 cd3d 5087 ed3d
00000060: 8b11 51bd 31f6 193d 35f9 b5bd a993 a03c
00000070: 1979 1abe 363c 2d3d d3d2 0e3e fc88 08be
00000080: f525 38be 2fe2 20be 55e1 503e 05f4 793d
00000090: 0589 e93d 4d3f b83d 7c7f 19be 5bac 1e3e
000000a0: 26ff 333e e389 0fbe 44f3 07be bb02 3cbc
000000b0: 2225 28be f930 04be 93f5 163e b1a4 e23d
000000c0: c8ee 013e c0e2 0a3e 867a 21be 92aa 9bbc
000000d0: 3bc1 8c3c d5a0 cfbd aac9 303c 6417 cdbd
000000e0: d580 4a3e 9b28 bf3c a236 b23d 26c0 a6bb
000000f0: 6cb9 003e 8d4f 293e 9f40 013e 3e1d a43c
00000100: 75af 1cbe f4ca 943d 69a8 de3d 16f8 363d
00000110: 5720 3f3e 2ff8 343d adf9 2e3d 3694 bc3d
00000120: 2cca 213a 653d 103e 532b 203e 06a1 223e
00000130: 6cf7 9dbd 2859 cb3d cf7d 103e 9aed 0b3e
00000140: 85a9 013e c55c 783d 285b 25bc fd80 fcbc
00000150: 0561 723d c59d f13d dcc8 9bbd 8838 933b
00000160: 0d18 523c a44f b939 22fa 453e 905d a83d
00000170: 9c09 8fbd 8073 02be 7a68 0b3e bca7 da3d
00000180: 5210 d9bd a29d e3bd a268 4abd cbc3 d83d
00000190: e544 21be 0660 f33d 09f9 053d 66e6 983d
000001a0: 2e7d efbd 9948 6d3d 11b5 0b3e f964 a6bd
000001b0: e650 be3d d64a 0ebe 0ab8 c23d ba1d 1fbe
000001c0: c14d ba3d cf0d 043e f532 01be c57f ba3d
000001d0: 8033 b7bd 6440 e33c 954d 9d3c 727f 95bd
000001e0: b5cd 49bd b659 4dbd 1f6c 253e 8a5a 0b3e
000001f0: 7502 d1bc 4d5e 8fbd 4a58 e53d 4bc1 273e
00000200: ae12 153e 3e99 bfbd 0286 123e 937f 2c3e
00000210: 7584 6fbd 0ce4 433e 8ab2 9bbc e18e a93d
00000220: 00d6 4a3e 4fba 06bc 85cb 00be 259c 67bd
00000230: 2632 4b3d 1a65 363e 77c3 f73d 9c13 a63d
00000240: 72a0 e73c 34d0 b4bc e420 b33d 4959 e83c
00000250: ce75 073e 9827 3f3e cc2a ddbc 0deb 893b
00000260: bcda 163e b138 373d eca5 9abc 2ab1 143e
00000270: 8f0e 203e 51ec e8bd 0f01 9c3c ed33 f7bd
00000280: d775 d43c 4596 b5bc 9af0 2d3e 9336 133e
00000290: f878 fdbd 25b1 843d bc70 4a3e fa50 c13d
000002a0: 1f48 a8bd 2788 353d 8682 15be e53e 7ebd
000002b0: 079a 29be a7b8 943c 8d13 c0bc d13c bd3d
000002c0: cf5f 8ebd 7f81 d0bd ac94 a73c c7cd ca3d
000002d0: 59dc ff3d f64f 18bd e585 553d f469 3abe
000002e0: ad06 efbd e6b3 0b3e ff71 4ebc b948 99bd
000002f0: 44ca 513d 7d65 c6bd 0932 15bd 72c0 b93d
00000300: 0f64 09be 1e96 eebc 97ec 34be 218b 9cbd
00000310: a4ee d93d 48b8 e4bd 1340 063e 3618 e73c
00000320: 74f2 3cbd b8d7 213e caca f7bc b9cf 95bd
00000330: 9e18 863d 3fb8 79bd e164 e7bd e41d d43c
00000340: 4529 afbd f3ed 633e c673 223e b3e4 d8bd
00000350: 6a16 4d3c 8430 10be 3773 c73d 523b 313e
00000360: ca64 b63d 5721 663b f2f5 f43d eea6 853d
00000370: 70cb 58bd 5ea8 c63c c7b9 303d 146a 10be
00000380: 1877 97bd 71e7 0b3e 329e a2bd 7dbc 003e
00000390: 5642 52bd c8af f0bd d233 18be cbe6 79bd
000003a0: b440 27be bfc6 5c3e dcd1 f2bd 59ec b4bc
000003b0: 6155 243e a294 233d 160f 07bc a311 973d
000003c0: f895 4e3d 2e28 9c3d 4f24 a3bd c30a c63c
000003d0: 3a0b ae3d e38a 563c 4cab 1b3e 8e38 95bc
000003e0: e9f0 eb3d 11d0 adbd 99ed ecbd 6f9d aebd
000003f0: 3082 a4bd 1f1e 193e df0c 8c3d e7e0 923d

onnx::LSTM_99 f4 [1, 256, 64]
0.11108935 -0.07923425 0.17326352 -0.009659192 0.09872629 -0.10780683 0.0015534139 0.04260773
0.10005945 0.089918405 -0.16530232 -0.16544256 0.18409814 -0.01590246 0.11827972 0.08519992
-0.16329397 0.17891695 0.0312764 -0.023014858 -0.1500578 0.073337525 -0.04974598 0.24128658
-0.05801415 -0.11804457 0.2281488 0.103607506 0.13018268 0.07252184 0.028525831 -0.20333947
0.1564014 -0.15944912 0.22490813 0.06955053 -0.07659542 -0.027041148 0.075283125 -0.14407289
0.23037231 0.23058535 0.10192246 -0.0136746345 0.07359398 -0.014781629 0.1940552 -0.05086394
-0.16677395 0.19560641 -0.081705846 0.09925539 0.15041704 0.111641556 -0.19442698 0.063124344
-0.22081085 0.15400198 0.109777756 0.1613021 0.08810631 0.21768235 0.16099437 -0.14276922
-0.017192572 0.09501529 0.05465279 0.19103177 -0.24006422 -0.13503963 0.17420903 0.07266069
-0.18069595 0.010146273 -0.23063587 0.06700113 -0.10037574 0.0829511 0.16975223 0.04615108
0.1241384 0.14928056 -0.04836347 -0.13671859 0.011360036 -0.037821606 0.17521425 0.06596965
-0.029608184 -0.04004216 0.09557436 0.06854561 0.11627058 -0.11771818 -0.17436954 -0.15892093
0.03832137 0.15985753 -0.11713868 -0.1876271 -0.026597684 -0.016513435 0.18950458 -0.049608663
0.08110293 -0.104466274 0.10602304 0.18364337 -0.024008688 0.034356624 0.09205572 0.13124587
-0.025510104 -0.15743302 0.06594506 0.13392894 0.13537915 -0.15974832 0.097591564 0.250729
-0.076170065 0.14300048 0.052433264 0.09991036 -0.030367153 0.10381826 -0.020425797 -0.094373584
-0.18573444 -0.20176563 0.16358474 0.086304665 0.17658187 -0.054797158 -0.10623519 0.20808303
0.038294245 0.019430554 -0.09845762 -0.11731524 0.057709694 0.08967966 -0.13253424 0.015080275
-0.051836118 -0.041552242 0.19370827 0.08400194 -0.079122745 0.19459489 -0.04687553 0.32314092
-0.08847689 0.20910762 0.15937904 -0.04255558 -0.07094351 -0.14142089 0.07633268 -0.090952344
0.0034351114 0.28451884 -0.15712006 0.3153364 0.064153425 0.14843462 0.101206265 -0.11770821
0.1784414 0.21333869 0.05323557 0.0015760717 0.2139954 0.07776373 -0.15007126 0.025496475
0.1579248 -0.11554225 0.10561751 -0.12493566 -0.0064784577 -0.12280527 -0.009516494 0.09827214
-0.23390412 -0.17020455 0.19612691 -0.0017771261 -0.07333213 0.13393553 0.0144419605 0.029976865
0.053980038 0.15148187 0.09364672 0.0430289 -0.08969245 -0.025378913 0.10605713 -0.1416293
-0.15634754 -0.094499245 -0.016434602 0.07400141 -0.037075073 -0.06424668 -0.013972282 -0.14557515
-0.172738 -0.1763575 0.05511093 0.08219996 0.105874285 -0.20131175 0.19361739 0.14496888
0.005136569 0.037621215 -0.2194374 0.02051086 0.103118815 -0.09984481 -0.18879107 0.06315261
0.12430258 0.25241727 0.19221596 0.15770322 -0.15762681 -0.09536502 0.06185814 0.005093045
-0.080364205 0.22281547 -0.12241703 -0.23892246 0.06991477 -0.1550837 -0.14386036 -0.042012293
0.21047933 0.14759652 0.17552376 -0.09628428 0.08093032 0.19757394 0.08102575 -0.14879245
-0.18334612 -0.0044129305 0.11273072 0.15412529 0.20787485 -0.07319382 0.0026615225 0.029649304
00000000: d082 e33d 9145 a2bd fe6b 313e 9641 1ebc
00000010: 0231 ca3d d4c9 dcbd ec9b cb3a 7185 2e3d
00000020: f8eb cc3d 2427 b83d 0345 29be c669 29be
00000030: 3984 3c3e e045 82bc a33c f23d 4c7d ae3d
00000040: 8936 27be 0136 373e af1b 003d a889 bcbc
00000050: c0a8 19be fc31 963d 71c2 4bbd d413 773e
00000060: 3fa0 6dbd 5ac1 f1bd d79f 693e 2c30 d43d
00000070: 9c4e 053e 5586 943d 01af e93c 3938 50be
00000080: b027 203e a146 23be 514e 663e 8270 8e3d
00000090: 0fde 9cbd 6685 ddbc 0a2e 9a3d d887 13be
000000a0: b8e6 6b3e 911e 6c3e b9bc d03d 930b 60bc
000000b0: 71b8 963d a52e 72bc 68b6 463e b556 50bd
000000c0: cac6 2abe 0c4d 483e 6555 a7bd 6946 cb3d
000000d0: ed06 1a3e 54a4 e43d de17 47be 5647 813d
000000e0: 3d1c 62be b2b2 1d3e 29d3 e03d 612c 253e
000000f0: 1571 b43d 1fe8 5e3e b5db 243e 1832 12be
00000100: 70d7 8cbc 6097 c23d 9bdb 5f3d d59d 433e
00000110: 65d3 75be d447 0abe da63 323e 21cf 943d
00000120: 5c08 39be 8e3c 263c cf2b 6cbe e337 893d
00000130: cc91 cdbd 44e2 a93d 87d3 2d3e ea08 3d3d
00000140: 463c fe3d 01dd 183e c618 46bd f5ff 0bbe
00000150: 721f 3a3c d4ea 1abd 5d6b 333e 191b 873d
00000160: dd8c f2bc 3f03 24bd 7dbc c33d a461 8c3d
00000170: 451f ee3d 3b16 f1bd ee8d 32be 2bbc 22be
00000180: def6 1c3d b1b1 233e 67e6 efbd 5221 40be
00000190: 63e3 d9bc 2f47 87bc 7d0d 423e 7432 4bbd
000001a0: 4b19 a63d 6af2 d5bd 9c22 d93d 020d 3c3e
000001b0: dead c4bc 88b9 0c3d b687 bc3d 5165 063e
000001c0: 91fa d0bc 1f36 21be 340e 873d ab24 093e
000001d0: d5a0 0a3e 1095 23be 16de c73d 8d5f 803e
000001e0: 0dff 9bbd b86e 123e 43c4 563d ce9d cc3d
000001f0: 89c4 f8bc ab9e d43d 0054 a7bc f046 c1bd
00000200: 2b31 3ebe a69b 4ebe c282 273e 80c0 b03d
00000210: e1d1 343e fc72 60bd d691 d9bd b813 553e
00000220: 6dda 1c3d d32c 9f3c 26a4 c9bd f942 f0bd
00000230: 0061 6c3d f8a9 b73d 0eb7 07be 4213 773c
00000240: 1c52 54bd af32 2abd 765b 463e 3609 ac3d
00000250: 1b0b a2bd e243 473e 8e00 40bd ba72 a53e
00000260: 5f33 b5bd 4f20 563e 4234 233e c34e 2ebd
00000270: d54a 91bd a3d0 10be 4f54 9c3d 3945 babd
00000280: 9b1f 613b 74ac 913e 15e4 20be c673 a13e
00000290: df62 833d 3fff 173e 3b45 cf3d 0111 f1bd
000002a0: 58b9 363e 7575 5a3e 8b0d 5a3d 3194 ce3a
000002b0: 9c21 5b3e 9742 9f3d 48ac 19be fcdd d03c
000002c0: 0ab7 213e 6aa1 ecbd fe4d d83d 44de ffbd
000002d0: 3e49 d4bb 5481 fbbd 12eb 1bbc e742 c93d
000002e0: 9084 6fbe 1a4a 2ebe 7ed5 483e 75ee e8ba
000002f0: 282f 96bd 6526 093e f99d 6c3c 0b92 f53c
00000300: 2c1a 5d3d 101e 1b3e dac9 bf3d 123f 303d
00000310: adb0 b7bd 70e7 cfbc 7b34 d93d 4507 11be
00000320: 9219 20be d288 c1bd dca1 86bc 0d8e 973d
00000330: 08dc 17bd c393 83bd 00ec 64bc a711 15be
00000340: 3be2 30be 0f97 34be 00bc 613d 7458 a83d
00000350: 9ed4 d83d ab24 4ebe a343 463e b972 143e
00000360: aa50 a83b b418 1a3d 33b4 60be 6406 a83c
00000370: f52f d33d 707b ccbd 7252 41be 2856 813d
00000380: 5a92 fe3d d63c 813e 43d4 443e f47c 213e
00000390: ec68 21be bc4e c3bd f65e 7d3d 8fe3 a63b
000003a0: fd95 a4bd bd29 643e c8b5 fabd 17a8 74be
000003b0: 7a2f 8f3d 43ce 1ebe 2150 13be 1515 2cbd
000003c0: e587 573e 8b23 173e 80bc 333e b130 c5bd
000003d0: ccbe a53d d350 4a3e d4f0 a53d 0c5d 18be
000003e0: 16bf 3bbe 589a 90bb 5ddf e63d 05d3 1d3e
000003f0: 25dd 543e a4e6 95bd f06c 2e3b 19e3 f23c

onnx::LSTM_100 f4 [1, 512]
0.07406375 0.028009588 0.16616966 0.059713535 0.017032577 0.08496366 0.14313628 0.064226955
0.12916727 0.068198375 0.027111404 0.1193907 0.034812156 0.08652893 0.10723628 0.07765602
0.110608414 -0.01762028 0.082128055 0.058460817 0.059774563 0.18023786 0.09607567 0.051522464
0.091066256 0.12051343 0.0470425 -0.003678466 0.11374326 0.03864221 0.088289596 0.03504471
0.04545549 0.06564622 0.09022094 0.080348864 0.11726018 0.113406055 0.037769694 0.11032785
0.063882865 0.042231433 0.043845277 0.0725488 0.07037984 0.081254564 0.06326223 0.054725613
0.036077466 0.071144275 0.023771316 0.045832343 0.030554138 0.07157523 0.0952938 0.03725857
0.062231872 0.103992954 0.033203434 0.08124811 0.056377083 0.08065047 0.025067778 0.109975144
0.11431499 0.047324833 0.11889368 0.0772884 0.022040952 0.07861318 0.14957643 0.039802838
0.11604623 0.073170505 0.041028377 0.13862653 0.047084466 0.08288275 0.10845523 0.051718175
0.09365827 -0.010189362 0.1082969 0.05475466 0.019849591 0.19840539 0.14274119 0.046913587
0.08807222 0.12323564 0.06182354 -0.0077834493 0.06867185 0.026104813 0.096298434 0.030914083
0.037553426 0.06525946 0.07801867 0.08580027 0.12109759 0.113280684 0.05301352 0.07651675
0.09113044 0.058822654 0.07392202 0.04816918 0.07146977 0.0805792 0.07946355 0.08910447
0.056246847 0.04856305 0.02485448 0.035176296 0.038930554 0.061553467 0.13329412 0.04446377
0.0624614 0.08089923 0.038196582 0.057597585 0.07343159 0.08389774 0.023098627 0.13187142
0.97770274 1.0055567 0.9909185 0.9551878 0.9695212 0.9692431 0.9519649 0.9393545
0.97291625 0.969912 0.96242 0.9759109 0.96831644 0.967034 0.95644766 0.94838834
0.97211784 0.9641649 1.0303931 0.97571665 0.9869202 0.98146343 0.9662442 0.9832019
0.95333546 0.98066753 0.97951573 0.94390476 0.968039 0.9484389 0.96570593 0.9744998
0.98065937 0.9406545 0.9537326 1.0050595 0.96638143 0.95793635 0.9542194 0.97229314
0.9917301 0.9871505 0.97977453 0.97497 1.0016518 1.0091866 0.9893516 0.990783
0.9623249 0.9491708 0.95659983 0.9819942 0.9972844 0.9685572 0.95515865 0.99125373
0.960999 0.937788 0.9781913 0.9501865 0.93099403 0.992282 0.9737529 0.9655941
-0.016838871 -0.03699474 0.022428531 -9.630807e-05 -0.015942577 0.027481914 0.008589389 0.02018651
-0.0048599546 -0.0044460855 -0.0022483151 -0.005520312 0.017484842 0.0016331401 0.004583928 -0.0148839
0.0038210093 0.018999146 0.046327952 0.0031757597 0.014371056 -0.01563541 0.002758191 0.02465049
0.011984495 -0.011165581 0.0061015706 -0.038932573 0.0014590974 -0.010734113 0.0031661582 0.028003622
0.005650995 0.015261395 0.005411561 0.029720318 -0.015730556 0.0018677429 0.011307028 0.0017004603
0.017104791 0.015822709 -0.014974121 -0.007811112 0.009671167 -0.0037568137 -0.009331769 0.032268193
0.023412032 0.00688811 0.0050708996 -0.020387106 -0.01739849 0.011427264 0.007616458 0.028887883
0.00023992524 -0.014044032 0.0061540324 -0.00486527 -0.016005524 0.0061053834 -0.0021412093 0.00015417604
00000000: bcae 973d 5d74 e53c 6128 2a3e 2e96 743d
00000010: e787 8b3c 6d01 ae3d 5192 123e 6c89 833d
00000020: 6d44 043e 97ab 8b3d bc18 de3c 1c83 f43d
00000030: 3197 0e3d 1436 b13d b29e db3d 1f0a 9f3d
00000040: aa86 e23d 6858 90bc c132 a83d 9c74 6f3d
00000050: 2cd6 743d 4690 383e 52c3 c43d 3809 533d
00000060: f280 ba3d bfcf f63d a3af 403d 6b12 71bb
00000070: 3af2 e83d 4b47 1e3d 2dd1 b43d 0b8b 0f3d
00000080: 892f 3a3d 8771 863d c2c5 b83d f28d a43d
00000090: 1b26 f03d 6f41 e83d 65b4 1a3d 91f3 e13d
000000a0: 05d5 823d defa 2c3d 1b97 333d 7794 943d
000000b0: 4e23 903d cb68 a63d a18f 813d f727 603d
000000c0: f7c5 133d 17b4 913d 10bc c23c b2ba 3b3d
000000d0: ac4c fa3c 0996 923d 6529 c33d 719c 183d
000000e0: d9e6 7e3d 42fa d43d 5300 083d 6965 a63d
000000f0: a8eb 663d 132c a53d f15a cd3c a63a e13d
00000100: fa1d ea3d afd7 413d 887e f33d 6149 9e3d
00000110: 3a8f b43c f2ff a03d 902a 193e 4d08 233d
00000120: a5a9 ed3d 6bda 953d 5f0d 283d 1df4 0d3e
00000130: a4db 403d 6ebe a93d c71d de3d 70d6 533d
00000140: e8cf bf3d 48f1 26bc c4ca dd3d 6c46 603d
00000150: 9c9b a23c c82a 4b3e bf2a 123e 7628 403d
00000160: 355f b43d f862 fc3d ae3a 7d3d 4e0c ffbb
00000170: d4a3 8c3d c3d9 d53c 1d38 c53d 883f fd3c
00000180: 9fd1 193d c0a6 853d 41c8 9f3d 0db8 af3d
00000190: 0302 f83d b4ff e73d b424 593d d0b4 9c3d
000001a0: 99a2 ba3d 06f0 703d 6e64 973d 0c4d 453d
000001b0: be5e 923d b506 a53d c9bd a23d 687c b63d
000001c0: 1863 663d 0cea 463d 9f9b cb3c 0515 103d
000001d0: a575 1f3d 7d1f 7c3d 417e 083e a41f 363d
000001e0: 86d7 7f3d 7fae a53d 0574 1c3d 72eb 6b3d
000001f0: 4d63 963d 94d2 ab3d 5539 bd3c 4d09 073e
00000200: ba4a 7a3f 15b6 803f d6ac 7d3f 3087 743f
00000210: 8b32 783f 5120 783f f9b3 733f 8979 703f
00000220: 0a11 793f 274c 783f 2861 763f 4cd5 793f
00000230: 96e3 773f 8a8f 773f c1d9 743f 94c9 723f
00000240: b7dc 783f 83d3 763f ece3 833f 91c8 793f
00000250: cda6 7c3f 3041 7b3f c85b 773f 1fb3 7b3f
00000260: cb0d 743f 070d 7b3f 8bc1 7a3f bea3 713f
00000270: 67d1 773f e4cc 723f 8138 773f d278 793f
00000280: 7e0c 7b3f bcce 703f d227 743f caa5 803f
00000290: c664 773f 513b 753f b947 743f 34e8 783f
000002a0: 06e2 7d3f e5b5 7c3f 81d2 7a3f a297 793f
000002b0: 2036 803f 072d 813f 2546 7d3f f4a3 7d3f
000002c0: ed5a 763f dcfc 723f bae3 743f f963 7b3f
000002d0: 084e 7f3f 5df3 773f 4785 743f cec2 7d3f
000002e0: 0804 763f e012 703f bf6a 7a3f 6c3f 733f
000002f0: a055 6e3f 3106 7e3f df47 793f 2d31 773f
00000300: acf1 89bc cc87 17bd 0abc b73c 00f9 c9b8
00000310: 029a 82bc c021 e13c 82ba 0c3c 2e5e a53c
00000320: 4140 9fbb 78b0 91bb 7858 13bb bce3 b4bb
00000330: 5f3c 8f3c 170f d63a c634 963b 9adb 73bc
00000340: e669 7a3b 19a4 9b3c 61c2 3d3d 6820 503b
00000350: 9474 6b3c d515 80bc c4c2 343b d3ef c93c
00000360: 9e5a 443c d7ef 36bc afef c73b c377 1fbd
00000370: 2f3f bf3a 22de 2fbc 527f 4f3b da67 e53c
00000380: fb2b b93b ee0a 7a3c 7753 b13b 0678 f33c
00000390: 5edd 80bc 0dcf f43a 1d41 393c fbe1 de3a
000003a0: 591f 8c3c a09e 813c 0456 75bc 5bf4 ffbb
000003b0: d073 1e3c e034 76bb 47e4 18bc a72b 043d
000003c0: 97ca bf3c a8b5 e13b ca29 a63b dc02 a7bc
000003d0: 4787 8ebc 6b39 3b3c 7b93 f93b 48a6 ec3c
000003e0: 7194 7b39 f118 66bc c4a7 c93b d86c 9fbb
000003f0: 041e 83bc ab0f c83b 8853 0cbb 51aa 2139
