Scenes/ImprovedGridWorld2D/results/ppo-no-memory-curriculum/DroneGrid2D/DroneGrid2D-499965.pt (torch, 446685 bytes, 33 tensors)

network_body._body_endoder.seq_layers.0.weight f4 [128, 6]
0	0xbe6dc315	-0.23218949
1	0x3ee95277	0.45570728
2	0xbf1906bd	-0.59775907
3	0xbeadbec0	-0.33934593
4	0xbf01d170	-0.507102
5	0x3e47c662	0.19509271
6	0xbdf47d00	-0.11937904
7	0x3c90e7b0	0.017688602
8	0x3d1cfa30	0.038324535
9	0xbe91e518	-0.28495097
10	0xbee04815	-0.43804994
11	0xbeb36fa9	-0.35046127
12	0xbe6df6b8	-0.23238647
13	0x3f1c57f6	0.6107172
14	0xbdbbb37a	-0.09165092
15	0xbf2d8e02	-0.6779481
16	0xbfaaa8a8	-1.333272
17	0x3e63f09a	0.22259751
18	0x3e9d269f	0.30693528
19	0xbdde10c6	-0.10843043
20	0x3eae9b09	0.34102657
21	0xbef62747	-0.4807684
22	0xbe7e30c7	-0.24823295
23	0xbf45242a	-0.77008307
24	0xbeaaf840	-0.33392525
25	0x3efb329c	0.4906205
26	0xbecbabc1	-0.39779475
27	0xbea27b11	-0.31734517
28	0x3e9dfe8a	0.3085826
29	0x3e262674	0.16225606
30	0xbf0b32fa	-0.5437466
31	0xbd807268	-0.06271821
32	0x3ea08cda	0.3135746
33	0xbc802d8e	-0.015646722
34	0xbdb4b65b	-0.08823844
35	0x3e474e1a	0.19463387
36	0x3df5b973	0.11998262
37	0x3fa8bd49	1.3182765
38	0xbe14a93e	-0.14517686
39	0x3f161085	0.58618957
40	0xbf5e0b52	-0.86736023
41	0x3c815d92	0.015791688
42	0x3e144852	0.14480713
43	0xbed3cde1	-0.4136801
44	0xbea09975	-0.31367078
45	0xbe9b6cd2	-0.3035646
46	0x3eb424b6	0.35184258
47	0x3f5d321a	0.86404574
48	0x3e8cf426	0.2753002
49	0x3db3bf02	0.08776666
50	0xbe476806	-0.19473276
51	0xbe4228ff	-0.18960951
52	0xbe83ca42	-0.25740248
53	0x3ee4cb99	0.44686583
54	0x3e255387	0.16145144
55	0xbe1a016e	-0.15039608
56	0xbdfa95df	-0.12235617
57	0x3d36165f	0.04445493
58	0xbecc05f6	-0.39848298
59	0x3ec270c2	0.37976652
60	0x3decc926	0.115618035
61	0x3f4593ef	0.77178854
62	0x3e8a06d5	0.26958337
63	0x3e45d547	0.1931964
64	0xbe6decae	-0.23234817
65	0xbf74b83c	-0.9559362
66	0xbde75a1b	-0.11296483
67	0xbe67a86b	-0.2262284
68	0xbebd19a0	-0.36933613
69	0x3ef6b386	0.4818384
70	0x3f18468f	0.59482664
71	0x3efb1957	0.4904277
72	0xbe3f5372	-0.18684176
73	0xbe95b16d	-0.29236928
74	0xbda3928d	-0.07986937
75	0x3e2a497a	0.16629592
76	0x3e7d3861	0.24728538
77	0xbf58860a	-0.8457953
78	0xbc7caa12	-0.015421407
79	0x3f1d6420	0.61480904
80	0xbe48b48a	-0.1960012
81	0x3ebf94fb	0.3741835
82	0x3f1f2075	0.621589
83	0x3df9b33d	0.1219239
84	0xbcca9c10	-0.02473262
85	0x3eaaf358	0.33388782
86	0x3e0503d0	0.12989736
87	0xbf6fa629	-0.93612915
88	0x3d874b9b	0.066062175
89	0x3eaf31dc	0.34217727
90	0x3f85a1e3	1.0440029
91	0xbddda76b	-0.10822948
92	0xbda67104	-0.08127025
93	0xbdb08671	-0.08619393
94	0xbf060cbd	-0.5236319
95	0x3ce1a926	0.027546477
96	0x3f54f759	0.8318992
97	0x3f1670ad	0.5876568
98	0x3ea9a181	0.3313103
99	0x3e3ecc62	0.18632653
100	0x3f29eb69	0.6637483
101	0xbe96b4f4	-0.2943493
102	0xbc6c3973	-0.014417994
103	0x3f0910b6	0.53541124
104	0x3eff435f	0.49856088
105	0x3f47d6d7	0.78062195
106	0x3ebc32b8	0.36757445
107	0x3f2e398d	0.68056566
108	0xbe002cda	-0.1251711
109	0x3eec78c8	0.461859
110	0x3e56c43d	0.20973296
111	0x3d98ad09	0.07454879
112	0xbe62d904	-0.22153097
113	0xbf8b5e39	-1.088813
114	0xbe65144e	-0.22371027
115	0x3e9b8db4	0.30381548
116	0x3f13ff5a	0.5781151
117	0x3f7a1282	0.9768449
118	0x3df0c7a2	0.11756827
119	0x3ef2f077	0.47449085
120	0xbf24b52c	-0.64338946
121	0xbdbe0f0c	-0.09280214
122	0xbf02b889	-0.5106283
123	0x3e4e3e43	0.20140938
124	0xbf021960	-0.5081997
125	0x3f80cba7	1.006215
126	0x3ed442b3	0.41457137
127	0xbe4d1dff	-0.20030974
128	0x3ec72a0d	0.3889927
129	0xbf0bcfc5	-0.54613906
130	0x3f432e63	0.76242656
131	0x3e5c8930	0.21536708
132	0xbf11fa5d	-0.5702265
133	0x3e95865d	0.29204074
134	0x3e6fc52e	0.23415062
135	0x3e820205	0.25392166
136	0x3e799b7e	0.24375722
137	0xbd136d12	-0.03599269
138	0xbdb6462e	-0.089001045
139	0x3ee98025	0.4560558
140	0xbf0c81f6	-0.54885805
141	0x3f395a42	0.7240335
142	0xbef0b2d1	-0.47011426
143	0x3e8b41de	0.2719869
144	0xbf0bb0a0	-0.54566383
145	0xbdd5af17	-0.10433786
146	0x3e996c34	0.29965365
147	0xbef49a5e	-0.47774023
148	0x3ebcdf85	0.36889282
149	0xbd0fce18	-0.035108656
150	0xbdc11507	-0.09427839
151	0x3eaa2888	0.33234048
152	0x3da788af	0.08180367
153	0xbded4ee5	-0.115873136
154	0xbeaec6a5	-0.3413593
155	0xbec4e62a	-0.3845685
156	0xbe748ac8	-0.23881066
157	0xbedda309	-0.43288448
158	0xbf075824	-0.52868867
159	0xbe8ac7e4	-0.2710563
160	0x3e703815	0.23458894
161	0x3f906c80	1.1283112
162	0xbedb6203	-0.42848215
163	0xbf08103d	-0.5314978
164	0x3ec5884d	0.38580552
165	0xbd1643b0	-0.036685646
166	0x3eea13b0	0.45718145
167	0x3f1237aa	0.57116187
168	0x3e75eb4f	0.24015544
169	0x3be74295	0.0070574977
170	0xb9e17ce6	-0.000430084
171	0xbdae33f8	-0.08506006
172	0x3f158a6d	0.58414346
173	0xbe4e415b	-0.20142119
174	0xbe84cd88	-0.25938058
175	0x3f7488b9	0.9552112
176	0x3ee43db9	0.4457834
177	0xbea7bfa2	-0.32763392
178	0xbe3e0c84	-0.18559462
179	0x3e73b4fd	0.2379951
180	0x3b965abe	0.004588454
181	0x3c9688a1	0.018375697
182	0x3e8bd3b0	0.27309942
183	0xbe8346e6	-0.2564003
184	0x3e79ee82	0.2440739
185	0x3efbe6d0	0.49199533
186	0x3e43a42b	0.19105594
187	0xbeed1b86	-0.4631006
188	0xbf697687	-0.91196483
189	0xbecd6327	-0.4011471
190	0xbe7ce842	-0.24697974
191	0xbf01d9b9	-0.50722843
192	0x3f823656	1.0172832
193	0xbd671b70	-0.05642265
194	0xbe4c33f6	-0.19941697
195	0xbd9737c8	-0.07383686
196	0x3e2f5084	0.17120558
197	0x3f997dbc	1.1991496
198	0x3f17e6ff	0.5933685
199	0xbf10cad4	-0.5655949
200	0x3f220927	0.63295215
201	0xbe95e4f8	-0.29276252
202	0xbf1b777e	-0.60729206
203	0xbf6458dd	-0.89198095
204	0xbef3211b	-0.47486195
205	0xbe7a6276	-0.24451622
206	0x3dee0124	0.11621311
207	0x3b01c3bb	0.0019800502
208	0x3e702280	0.2345066
209	0xbf36712a	-0.71266425
210	0xbc707443	-0.014676156
211	0x3e2555ac	0.16145962
212	0x3e2b54c8	0.1673156
213	0x3cd434ac	0.025904022
214	0x3ea6eb4f	0.326014
215	0x3f726d40	0.9469795
216	0x3cb8ca1a	0.022557307
217	0x3f798123	0.9746267
218	0xbe76418c	-0.24048442
219	0xbd0a584d	-0.033775616
220	0x3ed346ee	0.41265053
221	0xbe0f4ab2	-0.13993338
222	0x3ca4b3d9	0.02010529
223	0x3e11d38f	0.1424086
224	0x3f07e701	0.5308686
225	0x3e20c899	0.15701522
226	0x3f306f0d	0.6891945
227	0x3e501818	0.20321691
228	0x3efda00d	0.49536172
229	0x3e881670	0.26579618
230	0x3f34ec2f	0.7067289
231	0xbf03fff6	-0.5156244
232	0x3d761f37	0.060088363
233	0x3f22091b	0.63295144
234	0xbec207ce	-0.3789658
235	0x3e534092	0.206301
236	0xbe78e910	-0.24307656
237	0x3eaf69e1	0.34260467
238	0xbf0f5f19	-0.5600448
239	0xbee60345	-0.4492437
240	0xbe37f7f7	-0.17965685
241	0x3f040aff	0.5157928
242	0x3ef14c71	0.47128633
243	0x3e930645	0.2871572
244	0xbea2709b	-0.31726536
245	0xbdcad775	-0.099043764
246	0xbec02a0e	-0.37532085
247	0x3ac2e69d	0.0014869754
248	0x3eaa011c	0.3320397
249	0x3ed08afa	0.4073103
250	0xbf9817f1	-1.1882306
251	0xbed0c1f2	-0.4077297
252	0x3db144ed	0.08655725
253	0x3dfe4c51	0.124169
254	0x3e8c4750	0.27398157
255	0x3e9f6e09	0.31138638

network_body._body_endoder.seq_layers.0.bias f4 [128]
0	0x3d307b53	0.04308636
1	0xbaba6af5	-0.001422255
2	0x3d97a797	0.07405012
3	0x3d86d6fe	0.06583975
4	0x3ce88cb6	0.028387409
5	0xbd932b0b	-0.07185944
6	0x3cf36998	0.029713437
7	0xbbf54630	-0.0074851736
8	0x3d00e0b4	0.031464294
9	0x395324a6	0.0002013618
10	0x3d5df985	0.05419304
11	0x3cf6e80c	0.030139945
12	0x3cd219ce	0.02564707
13	0x3cff718d	0.031182075
14	0x3d224809	0.03961948
15	0x3d1348cb	0.035958093
16	0x3da114d4	0.07865301
17	0x3d304c17	0.043041315
18	0x3d2f3458	0.04277453
19	0x3c5136c5	0.012769406
20	0x3d826ba7	0.06368189
21	0x3d051edb	0.03250013
22	0x3c1aa2d4	0.009438235
23	0x3cf35206	0.029702198
24	0x3c9ec12e	0.019379225
25	0x3d626a47	0.055277135
26	0x3d27b887	0.040947463
27	0x3d21c704	0.039496437
28	0x3d405ec0	0.04696536
29	0x3e123eec	0.14281815
30	0xbc614542	-0.0137494225
31	0x3cb4fcf6	0.022093277
32	0x3d2a384e	0.041557603
33	0x3d640328	0.055667073
34	0x3d0606d2	0.032721348
35	0x3d8d38ea	0.06895621
36	0x3dc124d1	0.0943085
37	0x3c784879	0.015153998
38	0x3d1417b6	0.036155425
39	0x3cb5aca4	0.022177048
40	0x3924fc12	0.00015734162
41	0x3d950322	0.07275988
42	0x3dad8ab1	0.08473719
43	0x3cbf9b26	0.02338941
44	0x3d876110	0.0661031
45	0xbb936eda	-0.0044992985
46	0xbb5c9d2e	-0.0033663022
47	0xbd2ad499	-0.041706655
48	0x3d43cd7f	0.0478034
49	0x3c699644	0.0142570175
50	0xbc803b4a	-0.015653271
51	0xbc0b8276	-0.008514991
52	0x3d7fcf5f	0.062453624
53	0x3d06237b	0.03274868
54	0x3d8574ae	0.065163955
55	0x3cc68c81	0.02423692
56	0x3c0c8920	0.008577615
57	0x3aea01fe	0.0017853377
58	0x3cfd3b10	0.030911952
59	0x3cb934db	0.022608211
60	0x3d558b53	0.052134823
61	0x3d5f0950	0.05445224
62	0x3d890a83	0.06691458
63	0x3d93188b	0.071824156
64	0x3d4d5f1a	0.050139524
65	0xbab69be6	-0.0013931959
66	0xbd8555a2	-0.06510474
67	0x3d115b89	0.035487685
68	0x3c835cc9	0.016035454
69	0x3cb6b8a9	0.02230485
70	0x3d5b2e14	0.05351074
71	0x3d2b71d1	0.04185659
72	0x3d30dc5f	0.043178912
73	0x3da151e5	0.07876948
74	0xbe025c97	-0.12730633
75	0xbc2a561c	-0.010396507
76	0xbd2e274e	-0.042517953
77	0x3d438eff	0.047743794
78	0x3d4ccb47	0.049998548
79	0xbd8c58e6	-0.068528935
80	0x3d1c9f82	0.038238056
81	0x3d9468a5	0.07246522
82	0x3c31df08	0.010856397
83	0x3d449abf	0.04799914
84	0x3d0e865b	0.0347961
85	0x3d6b52f9	0.057452176
86	0x3cc3808a	0.023865003
87	0x3c89ae6b	0.016806802
88	0x3b706243	0.0036679662
89	0x3d1d98a9	0.038475666
90	0x3d078478	0.033085316
91	0x3d5c5bb7	0.053798404
92	0x3d453f75	0.04815622
93	0x3d6fc67c	0.0585389
94	0x3e0ab165	0.13544233
95	0x3c6cf39c	0.014462378
96	0x3d8402b4	0.06445828
97	0x3d25a016	0.040435873
98	0x3d2cf2d7	0.042223778
99	0xbc04f372	-0.0081146825
100	0x3d06ffc9	0.03295878
101	0x3cd69a48	0.026196614
102	0x3d423446	0.047413133
103	0x3c44beab	0.012008349
104	0x3c968d05	0.01837779
105	0x3d27642a	0.04086701
106	0x3cd351dc	0.02579587
107	0x3cfbf4aa	0.030756313
108	0x3d123d8f	0.035703238
109	0x3d89969e	0.06718181
110	0x3d55ddfb	0.05221365
111	0x3cfbaa0b	0.030720731
112	0x3d65a439	0.056064818
113	0x3c905b15	0.017621556
114	0xbd8dc89e	-0.0692303
115	0x3cfdd281	0.030984165
116	0xbcc9b3cb	-0.024621865
117	0x3d13778c	0.03600268
118	0xbccfd2bc	-0.02536904
119	0xbddeaaf4	-0.108724505
120	0x3d100cc8	0.03516844
121	0x3d34558b	0.044026893
122	0x3cf69553	0.0301005
123	0xbcc8859e	-0.024477776
124	0x3d3bac87	0.04581883
125	0x3de21d3e	0.11040734
126	0x3c4a077a	0.012330884
127	0x3c489c93	0.012244361

network_body._body_endoder.seq_layers.2.weight f4 [128, 128]
0	0x3e40c3cf	0.18824695
1	0x3d6d970f	0.05800539
2	0x39e73158	0.00044096517
3	0x3e1497f9	0.14511098
4	0xbe69225c	-0.22767013
5	0xbe3a8195	-0.18213494
6	0x3d2a3687	0.041555908
7	0xbe315ca0	-0.1732049
8	0x3cf4ee31	0.029898735
9	0xbd710459	-0.058842037
10	0x3d017fab	0.031615894
11	0xbd8f48b5	-0.0699629
12	0x3de04487	0.109505706
13	0x3c0f9ca0	0.00876537
14	0xbcb29a23	-0.021802014
15	0x3bd8dc88	0.0066180862
16	0xbccdf06f	-0.025139062
17	0xbcd2d030	-0.025734037
18	0x3e07c5b3	0.1325901
19	0xbd304fc2	-0.043044813
20	0xbc74ec2d	-0.014948887
21	0xbe3839c2	-0.17990783
22	0xbdde3e28	-0.10851699
23	0xbdd493e2	-0.10379769
24	0x3d312c82	0.043255337
25	0x3d87182c	0.06596407
26	0xbe29080f	-0.1650698
27	0xbdd91bd8	-0.10601014
28	0xbdd3f3f2	-0.10349263
29	0x3cb52903	0.022114282
30	0xbe72efeb	-0.23724334
31	0x3db6777e	0.0890951
32	0xbe3153b2	-0.17317083
33	0xbd7f28ac	-0.062294647
34	0x3e3299b1	0.17441441
35	0xbe7c55ac	-0.24642056
36	0xbde19539	-0.1101479
37	0xbe87515e	-0.26429266
38	0xbdf66ebf	-0.12032842
39	0x3e56f1ff	0.20990752
40	0x3dea3616	0.11436097
41	0x3d377112	0.044785567
42	0x3cfc0629	0.030764656
43	0xbe5abb94	-0.21360618
44	0xbc80199d	-0.015637213
45	0xbd245dd3	-0.04012854
46	0xbcf0ce78	-0.029395327
47	0xbd54c915	-0.05194958
48	0x3e9d7eec	0.30760896
49	0xbdbfaeb9	-0.093594976
50	0xbde8c2b2	-0.1136526
51	0xbded38d6	-0.11583106
52	0x3dd1f950	0.10252631
53	0xbe0c13fb	-0.13679497
54	0x3da3b927	0.079942994
55	0xbd82dce5	-0.063897885
56	0xbd343b51	-0.04400188
57	0x3e6c96be	0.23104379
58	0xbe7b0e83	-0.24517255
59	0xbc8f0764	-0.017459579
60	0x3dd875a9	0.10569317
61	0x3e3dd078	0.18536556
62	0xbd35b505	-0.044362087
63	0x3d039544	0.032124773
64	0xbe124303	-0.14283375
65	0xbdcf8b94	-0.10134044
66	0x3e09554f	0.13411449
67	0x3ebee438	0.37283492
68	0x3dad964b	0.08475932
69	0xbe2e276c	-0.17007226
70	0xbe302ca6	-0.17204532
71	0x3e045de1	0.12926437
72	0xbe3f6323	-0.18690161
73	0xbd5a3e37	-0.05328199
74	0xbd2c4c29	-0.04206482
75	0x3e035eb1	0.1282909
76	0xbe562c46	-0.20915326
77	0x3d044bc5	0.032298822
78	0x3e3b23d5	0.18275388
79	0xbda73f72	-0.08166398
80	0x3d0eabc8	0.034831792
81	0x3d816b26	0.06319265
82	0x3e35aeb9	0.17742433
83	0x3d959ee7	0.07305699
84	0xbd6db66d	-0.058035303
85	0x3e6afe4d	0.2294857
86	0xbe2fd1ac	-0.17169827
87	0xbdb63ca3	-0.08898284
88	0x3bf5cfe3	0.0075015887
89	0x3e94e550	0.29081202
90	0xbe7c3659	-0.24630107
91	0xbe06f234	-0.1317833
92	0x3d10214a	0.035187997
93	0x3e858375	0.26076856
94	0xbd3a8927	-0.045540955
95	0x3d826c1f	0.06368279
96	0xbe31c573	-0.17360477
97	0xbd53d8c4	-0.051720396
98	0xbdb8dda6	-0.09026651
99	0xbd52b466	-0.051441573
100	0xbd850c56	-0.064964935
101	0xbdc68680	-0.096936226
102	0x3d876f11	0.06612981
103	0x3e27cf04	0.16387564
104	0xbe360868	-0.17776644
105	0xbba97095	-0.0051708915
106	0xbe09ac00	-0.13444519
107	0xbe65f264	-0.22455746
108	0xbc432b6c	-0.011912208
109	0xbe2530ec	-0.16131943
110	0xbbc72806	-0.006077769
111	0xbdea2a1c	-0.11433813
112	0xbe3cf98f	-0.18454574
113	0xbcb7de1d	-0.022444779
114	0xbe1c7292	-0.1527808
115	0x3e08a208	0.1334306
116	0xbe6d41c5	-0.2316962
117	0xbdcef080	-0.101044655
118	0x3d342373	0.04397912
119	0xbbc758b0	-0.0060835704
120	0xbd7fd6ee	-0.062460832
121	0x3e88feda	0.26756936
122	0xbdc98bb4	-0.098410994
123	0x3d981dd8	0.07427567
124	0x3db831ed	0.089938976
125	0x3d16d736	0.036826335
126	0xbba304c8	-0.004974935
127	0x3e01f9ec	0.12692994
128	0xbb884982	-0.0041591534
129	0x3d0e4121	0.03473008
130	0xbe464201	-0.19361116
131	0xbb6db2b1	-0.0036269838
132	0x3df0de31	0.1176113
133	0x3d1364bd	0.035984743
134	0x3e0e47cd	0.13894577
135	0x3db15e8b	0.08660611
136	0x3de7a7ff	0.113113396
137	0x3d288bbc	0.041148886
138	0xbdf1f526	-0.118143365
139	0x3d95d349	0.0731569
140	0x3c0856fd	0.008321521
141	0x3db0f525	0.086405076
142	0x3e65c7c1	0.22439481
143	0xbc48065f	-0.01220855
144	0x3dd71276	0.10501568
145	0x3e261f70	0.1622293
146	0xbe0d45e6	-0.13796195
147	0xbde4ba7d	-0.11168382
148	0x3dc39c4f	0.09551298
149	0x3e935b32	0.28780514
150	0x3e1bfefc	0.15233988
151	0xbd47e38e	-0.048800997
152	0xbd0a0b38	-0.033702105
153	0xbd478940	-0.048714876
154	0x3e051a04	0.12998205
155	0x3e1f79b3	0.15573768
156	0x3d95f5ab	0.07322248
157	0xbdd322c6	-0.10309367
158	0x3e32abf0	0.17448401
159	0xbe0cc8f8	-0.13748538
160	0x3d9da8eb	0.07698234
161	0xbbf26b9a	-0.007398081
162	0xbe723844	-0.23654276
163	0x3dfaa362	0.12238194
164	0x3cd0fb41	0.025510432
165	0x3e6a2874	0.22866994
166	0x3dad3fba	0.084594205
167	0x3e38b430	0.18037486
168	0xbd1903a1	-0.037356976
169	0x3b51e08a	0.0032024705
170	0x3d9fcf89	0.07803256
171	0x3e0fc75b	0.14040892
172	0xbcf2a3a9	-0.029619055
173	0x3b009cc7	0.0019624697
174	0xbe53d8eb	-0.20688216
175	0xbd9832a9	-0.07431538
176	0xbd97158a	-0.07377155
177	0x3d1f104d	0.038833905
178	0x3db71e06	0.089412734
179	0xbd58bb0e	-0.052912764
180	0xbe54e4f8	-0.2079047
181	0xbc2c72a1	-0.010525377
182	0xbd385e9b	-0.045012098
183	0x3d3a620a	0.045503654
184	0x3e0d2dc1	0.13786985
185	0xbe668b7e	-0.2251415
186	0x3ad94633	0.0016576707
187	0xbd5303bf	-0.051517244
188	0x3e3bb69a	0.18331376
189	0x3d2967cf	0.041358765
190	0x3e047757	0.1293615
191	0x3c59c0f6	0.013290634
192	0x3e6455df	0.22298382
193	0xbd031454	-0.03200181
194	0xbd00717a	-0.03135822
195	0xbd9ce984	-0.07661727
196	0xbe10fd65	-0.14159162
197	0x3df9d14a	0.12198122
198	0x3e347e9b	0.17626421
199	0xbe0d62da	-0.1380724
200	0x3c979c35	0.018507103
201	0x3e64c72d	0.22341605
202	0xbdaaad53	-0.0833384
203	0xbdc4aefe	-0.096036896
204	0xbe7684fa	-0.24074164
205	0xbde8ce60	-0.11367488
206	0xbdc7be47	-0.097530894
207	0xbd33151a	-0.043721296
208	0x3e1da41f	0.15394638
209	0xbd104d8f	-0.035230216
210	0xbc523430	-0.012829825
211	0x3e22f411	0.15913416
212	0x3d66dae9	0.056361113
213	0xbe00b712	-0.12569836
214	0x3e103f47	0.14086638
215	0x3d9a76b9	0.07542176
216	0x3d4b4d4c	0.049634263
217	0xbd439537	-0.047749724
218	0x3de18a74	0.11012736
219	0x3d89e1e0	0.06732535
220	0xbcf9bf62	-0.030486766
221	0xbd04baef	-0.032404836
222	0x3cad193c	0.021130197
223	0x3dadc217	0.08484285
224	0x3b1155d2	0.0022176397
225	0x3d8facf2	0.070154086
226	0x3e07ff0d	0.13280888
227	0x3deb8e05	0.115016975
228	0xbe7b1fe5	-0.24523886
229	0x3dbc6bc2	0.09200241
230	0x3df8f309	0.1215573
231	0xbdb28030	-0.08715856
232	0x3daf8d83	0.08571913
233	0x3dbcbd90	0.09215844
234	0x3dd60a51	0.104511864
235	0x3ddb1309	0.1069699
236	0x3c1e648d	0.009667528
237	0x3e46f9ce	0.1943123
238	0xbd5539c7	-0.052057054
239	0x3dc63c5e	0.09679483
240	0x3dbe4759	0.09290952
241	0xbdc3863d	-0.09547088
242	0xbd96cab8	-0.07362884
243	0x3c9c8faa	0.019111473
244	0x3dfafad4	0.12254873
245	0x3e4906c2	0.19631484
246	0xbdde47fe	-0.10853575
247	0xbdd5bd16	-0.10436456
248	0xbdb557cb	-0.08854636
249	0xbe1818f8	-0.14853275
250	0xbdb4941f	-0.08817314
251	0xbd08e623	-0.0334226
252	0xbe61f7ef	-0.22067235
253	0xbcbcd2e5	-0.023049781
254	0x3da60875	0.08107082
255	0xbdf90db5	-0.121608175

network_body._body_endoder.seq_layers.2.bias f4 [128]
0	0x3d987675	0.07444469
1	0x3d103376	0.035205327
2	0x3da42093	0.080140255
3	0x3d947788	0.07249361
4	0x3d584434	0.05279942
5	0x3d8bceb8	0.06826538
6	0x3e08e4bd	0.13368507
7	0x3da2dedf	0.079526655
8	0x3d74b074	0.05973859
9	0xbc2355ec	-0.009969216
10	0x3d4bda96	0.049769007
11	0x3dd0d149	0.10196168
12	0x3d2f5528	0.04280582
13	0x3d5fe10a	0.054657973
14	0x3d1f0217	0.038820352
15	0x3db15978	0.08659643
16	0x3dac922d	0.08426318
17	0x3d9a8b09	0.0754605
18	0x3daf07e9	0.085464306
19	0x3d8fbcc0	0.07018423
20	0x3d913cad	0.07091651
21	0x3da3c2ce	0.079961404
22	0x3d9b2a92	0.07576479
23	0x3d60ad52	0.05485279
24	0x3db4f7bf	0.08836316
25	0x3db430be	0.08798359
26	0x3d9f2fe3	0.077728055
27	0x3da43fa9	0.08019955
28	0x3d25b38e	0.04045444
29	0x3d868a21	0.06569315
30	0x3d2d9ff9	0.04238889
31	0x3c8e206f	0.01734945
32	0x3d927069	0.07150347
33	0x3d6146ab	0.054999035
34	0x3d9772f5	0.07394973
35	0x3da0b36c	0.07846722
36	0x3d9a7bc6	0.07543139
37	0x3db27532	0.087137595
38	0x3d528130	0.051392734
39	0x3daa43af	0.08313691
40	0x3d012f55	0.03153928
41	0x3d75b6f1	0.05998892
42	0x3ca18ab2	0.019719455
43	0x3c99fe2e	0.01879796
44	0x3d9af3a4	0.07566002
45	0x3d1ef363	0.03880633
46	0x3d7a540b	0.061115306
47	0x3d913d5a	0.0709178
48	0x3da55236	0.08072321
49	0x3d912ecc	0.07089004
50	0x3d89468a	0.067029074
51	0x3d531bce	0.05154019
52	0x3d694052	0.056946106
53	0x3dee30bd	0.1163039
54	0x3da9d97d	0.08293436
55	0xbd14e5ce	-0.03635197
56	0x3d9b9a86	0.075978324
57	0x3d570b23	0.052500855
58	0x3d9b2d2b	0.075769745
59	0x3d9c19ef	0.07622134
60	0x3d856f8b	0.06515416
61	0x3db7635a	0.08954497
62	0x3d8c8665	0.06861571
63	0x3dcfa034	0.10137978
64	0x3da76b91	0.081748135
65	0x3d8b7f60	0.06811404
66	0x3c4c8e71	0.012485133
67	0x3d82212d	0.06353984
68	0x3d8e15c2	0.06937744
69	0x3cd66a3b	0.026173702
70	0x3d88a1f1	0.06671513
71	0x3dbc3f6f	0.091917865
72	0x3d41b6d2	0.04729349
73	0x3d94f992	0.07274164
74	0x3db5ea10	0.088825345
75	0x3d34ed36	0.044171534
76	0x3d83ba33	0.06431999
77	0x3d8fe600	0.07026291
78	0x3d719f55	0.05898984
79	0x3da9a09a	0.082825854
80	0x3d2cdbb3	0.04220171
81	0x3d5e1cec	0.0542268
82	0x3dab7f65	0.08373908
83	0xba7575dc	-0.0009363571
84	0x3cc82be6	0.024434995
85	0x3d7adf4d	0.061248112
86	0x3d763969	0.060113344
87	0x3d1cac9c	0.03825055
88	0x3da2d92b	0.07951578
89	0x3d6a740f	0.05723959
90	0x3e104da3	0.14092116
91	0x3da6b7ee	0.081405506
92	0x3d89143d	0.06693313
93	0x3d999196	0.074984714
94	0x3d806d69	0.06270868
95	0x3d7d3bf3	0.06182475
96	0x3daa681b	0.08320638
97	0x3d59a197	0.05313262
98	0x3d838c86	0.06423287
99	0x3d998e9a	0.07497902
100	0x3d9d3ad1	0.07677234
101	0x3d4a9a46	0.049463533
102	0x3d951507	0.07279401
103	0x3da9daff	0.08293723
104	0x3d50c1bd	0.050966013
105	0x3d2f2f4b	0.04276971
106	0xbc8516d7	-0.016246242
107	0x3d3f1816	0.04665383
108	0x3dabbb0d	0.083852865
109	0x3d3451bd	0.044023264
110	0xb9f467c7	-0.00046616627
111	0x3da2df65	0.079527654
112	0x3d76479c	0.060126886
113	0x3d8b85af	0.068126075
114	0x3d5f2e3e	0.05448746
115	0x3d95c326	0.07312612
116	0xbd029038	-0.03187582
117	0x3d6a3ba6	0.05718579
118	0x3cf67d2b	0.030088982
119	0x3d1a5931	0.037682716
120	0x3ce0c067	0.027435495
121	0x3da258fc	0.07927129
122	0x3d8704ed	0.065927364
123	0x3db06041	0.08612109
124	0x3da6dd7b	0.08147713
125	0x3d37de9b	0.044890027
126	0x3d8147aa	0.06312497
127	0x3cccd16c	0.025002204

action_model._discrete_distribution.branches.0.weight f4 [5, 128]
0	0xbb959fed	-0.004566184
1	0xbd8ea717	-0.069654636
2	0xbd06f6db	-0.032950263
3	0xbdc5e1a7	-0.096621804
4	0xbd27674e	-0.040870003
5	0xbd65d51d	-0.056111444
6	0xbddb0a0f	-0.10695278
7	0xbd992009	-0.07476813
8	0xbd0b66f5	-0.034033734
9	0x3d54c931	0.051949684
10	0xbd4de3cb	-0.05026607
11	0xbdeb6888	-0.11494547
12	0xbd26bb6b	-0.04070608
13	0xbd71cd9d	-0.05903398
14	0xb9c423ee	-0.00037410803
15	0xbd46ce97	-0.048536863
16	0xbdecf72c	-0.11570582
17	0xbdad1044	-0.08450368
18	0xbd6fec42	-0.058574922
19	0xbd0243d4	-0.031802967
20	0xbdd9599a	-0.10612793
21	0xbd59f09b	-0.053207975
22	0xbc5163d7	-0.012780151
23	0xbc702232	-0.01465659
24	0xbde058de	-0.1095445
25	0xbdc64a4a	-0.09682138
26	0xbd994464	-0.074837476
27	0xbd42f435	-0.047596175
28	0xbc3dcabf	-0.011583983
29	0xbd0673b8	-0.0328252
30	0xba7a78f3	-0.0009554766
31	0x3d846e3b	0.06466337
32	0xbd741b21	-0.059596185
33	0x3bb5f415	0.0055527785
34	0xbd607bb8	-0.054805487
35	0xbddc9e26	-0.10772352
36	0xbdaf0e7a	-0.08547683
37	0xbd92b45f	-0.07163309
38	0xbd263f85	-0.04058792
39	0xbdb6001b	-0.08886739
40	0xbd47c3bb	-0.048770647
41	0xbd075688	-0.033041507
42	0xbc61d3a9	-0.013783374
43	0x3b31a5c1	0.0027106854
44	0xbce87e6f	-0.0283806
45	0xbd68f101	-0.056870464
46	0x3ccf241c	0.025285773
47	0xbdcbe085	-0.09954933
48	0xbce07933	-0.027401542
49	0xbd811f94	-0.06304851
50	0xbd86d888	-0.06584269
51	0xbd113db6	-0.035459243
52	0x3b8a4076	0.00421911
53	0xbdf044e5	-0.117318906
54	0xbdea7c86	-0.11449532
55	0x3d76a5a9	0.06021658
56	0xbc9d5ab2	-0.019208286
57	0xbceb27cb	-0.028705498
58	0xbd77e517	-0.06052121
59	0xbdc296f5	-0.09501449
60	0xbd2a8ddd	-0.041639198
61	0xbdc7041e	-0.09717582
62	0xbd851064	-0.06497267
63	0xbdc2d0d8	-0.0951249
64	0xbd9f68a5	-0.07783631
65	0xbd9b5d2f	-0.07586133
66	0xba4484b6	-0.0007496582
67	0xbda18206	-0.07886128
68	0xbcee80b7	-0.02911411
69	0x3b7fea49	0.0039049557
70	0xbd7ec9ac	-0.062204048
71	0xbdae6eb3	-0.08517208
72	0xbdb060e9	-0.08612234
73	0xbcd62988	-0.02614285
74	0xbdac6214	-0.084171444
75	0xbd20e670	-0.039282262
76	0xbd749d58	-0.059720367
77	0xbd5bae1d	-0.053632844
78	0xbdc2f971	-0.095202334
79	0xbdb948b9	-0.09047074
80	0x3d2e4ac5	0.042551775
81	0xbd990a0a	-0.07472618
82	0xbda9a52f	-0.082834594
83	0x3d355621	0.044271592
84	0xbd0d3b41	-0.034480337
85	0xbd6ac060	-0.05731237
86	0xbc891c35	-0.016737083
87	0xbc46b828	-0.012128867
88	0xbd9a843e	-0.075447544
89	0xbd662186	-0.056184314
90	0xbe09d05c	-0.13458389
91	0xbde52c6d	-0.11190114
92	0xbd96cf51	-0.07363761
93	0xbd89bda8	-0.06725627
94	0xbd32d55b	-0.043660503
95	0xbd5ecd4c	-0.054395005
96	0xbded3bf9	-0.115837045
97	0xbcb6ec41	-0.022329452
98	0xbd9a1569	-0.07523615
99	0xbd88a9f5	-0.06673042
100	0xbdee45af	-0.11634385
101	0x3d498224	0.049196377
102	0xbd86c67b	-0.06580826
103	0xbd8a3876	-0.0674905
104	0x3c4c3f48	0.012466259
105	0xbd26fbdc	-0.040767536
106	0x3caa8d12	0.02081922
107	0xbd14102f	-0.036148246
108	0xbdbb2f09	-0.091398306
109	0xbd033455	-0.03203233
110	0x3c5a0aff	0.013308286
111	0xbde1fc67	-0.1103447
112	0xbd471e89	-0.048613105
113	0xbd640d02	-0.055676468
114	0x3cab8b73	0.020940518
115	0xbd9d6886	-0.07685952
116	0x3d7f7c85	0.06237461
117	0xbd870730	-0.06593168
118	0xbd72083a	-0.059089877
119	0xbd6ecc32	-0.058300205
120	0x3d67ac79	0.056560967
121	0xbd04a126	-0.032380246
122	0xbd4a1c0a	-0.049343146
123	0xbd2564e7	-0.04037943
124	0xbd7f96a3	-0.062399518
125	0xbd5fbd66	-0.054623984
126	0xbbd15a1c	-0.0063889157
127	0x3ce8c85f	0.028415857
128	0x3e144a0e	0.14481375
129	0xbd395514	-0.045247152
130	0x3e1259f3	0.14292125
131	0x3ddb2d6d	0.10702024
132	0xbd2af13e	-0.041733973
133	0xbe03673d	-0.12832351
134	0xbd806ad1	-0.062703736
135	0xbd4295e1	-0.047506217
136	0xbe0955f5	-0.13411696
137	0xbbc744fb	-0.006081221
138	0x3e144398	0.1447891
139	0x3d89db55	0.067312874
140	0xbd58886a	-0.05286447
141	0x3dceda88	0.10100275
142	0x3e206f30	0.15667415
143	0xbddfe686	-0.10932641
144	0x3de6281d	0.1123812
145	0x3dc2ffd3	0.09521451
146	0xbe02aa1a	-0.12760201
147	0xbe086b7e	-0.13322255
148	0x3dc8a60c	0.09797296
149	0xbe006a91	-0.12540652
150	0xbe11a7e3	-0.142242
151	0xbd90e3b2	-0.070746794
152	0x3e049c13	0.12950163
153	0x3dfb8134	0.12280503
154	0x3e14683e	0.1449289
155	0xbdb3f9ce	-0.08787881
156	0xbdd75ee0	-0.10516143
157	0xbdff3bb1	-0.12462557
158	0x3deb9924	0.11503819
159	0xbdad77b5	-0.08470098
160	0xbd9e7084	-0.077363044
161	0xbd131508	-0.03590873
162	0x3d6709ec	0.056405947
163	0x3dad6f51	0.084684975
164	0xbdaa209c	-0.08307001
165	0xbdc008c4	-0.09376672
166	0x3e193aff	0.14963911
167	0xbc69cd2a	-0.014270106
168	0x3e101cb2	0.14073446
169	0x3c9e4a79	0.01932262
170	0xbda7153f	-0.08158349
171	0xbe18f7de	-0.14938304
172	0x3e1df6dc	0.154262
173	0x3d67e02b	0.056610268
174	0x3c3e1aca	0.011603067
175	0x3da0964f	0.07841169
176	0xbdc0ee42	-0.09420444
177	0xbd62eafd	-0.055399884
178	0x3d6704aa	0.056400932
179	0x3dbb0896	0.09132497
180	0xbde3206f	-0.110901706
181	0x3d77b12a	0.06047169
182	0x3daec614	0.08533874
183	0x3d75def1	0.060027067
184	0xbe100326	-0.14063701
185	0xbe04c27e	-0.12964818
186	0x3e0bf590	0.13667893
187	0x3df7dec9	0.1210304
188	0x3cd00eff	0.025397776
189	0xbd8f9522	-0.07010867
190	0x3e0a7382	0.13520625
191	0x3e02706c	0.12738198
192	0xbdb8703e	-0.090057835
193	0x3e0bfbde	0.13670298
194	0xbdd8e2a1	-0.10590101
195	0x3e10841e	0.14112899
196	0x3e0a97dc	0.13534492
197	0xbdf6340c	-0.12021646
198	0x3e0a9ea9	0.13537087
199	0x3db8e368	0.09027749
200	0x3d647bbf	0.055782076
201	0x3e195784	0.14974791
202	0xbda6470a	-0.081190184
203	0xbdd0bd4c	-0.101923555
204	0x3e144415	0.14479096
205	0x3e1569a1	0.14591075
206	0x3d8e9126	0.069612786
207	0x3c1f8e0d	0.009738457
208	0xbdf338e9	-0.11876089
209	0x3dc3ba0d	0.09556971
210	0xbd367f24	-0.044554844
211	0xbe02696b	-0.12735526
212	0xbd61415f	-0.054993983
213	0xbe0482b6	-0.12940487
214	0x3d695918	0.056969732
215	0xbe08ecc7	-0.13371573
216	0x3e1cee48	0.15325272
217	0xbde48d70	-0.111597896
218	0x3d6cfc1c	0.057857618
219	0x3e02e2aa	0.12781778
220	0x3e0a2b1a	0.13493004
221	0x3da91d56	0.082575485
222	0x3e0c5e49	0.13707842
223	0x3dfdffc2	0.124022976
224	0x3d9d5bf8	0.07683557
225	0xbb213b41	-0.0024601968
226	0x3e02c34e	0.12769815
227	0xbdb22a98	-0.0869953
228	0x3e143bd1	0.14475943
229	0xbe0379fb	-0.128395
230	0xbe0587ac	-0.13040036
231	0xbd8cf77c	-0.068831414
232	0xbdfba2c0	-0.122869015
233	0xbd8d69fe	-0.06904982
234	0xbd9a338f	-0.07529365
235	0x3cb57e78	0.022155032
236	0x3e046078	0.12927425
237	0xbe0547a0	-0.13015604
238	0xbdda89d1	-0.10670818
239	0x3d0c1faf	0.034209903
240	0xbdbfe44b	-0.09369715
241	0xbdb3c173	-0.08777132
242	0x3c580241	0.013184131
243	0xbdaefa59	-0.08543844
244	0xbd76c935	-0.06025048
245	0x3dbef957	0.093249016
246	0x3e0530e6	0.13006935
247	0x3de50076	0.111817285
248	0xbe065280	-0.13117409
249	0xbdd2e699	-0.10297889
250	0xbdf0e0c9	-0.11761624
251	0xbe0de706	-0.1385766
252	0xbdc0365a	-0.09385367
253	0x3dff29d0	0.12459147
254	0xbdf408b3	-0.11915722
255	0x3e138548	0.14406312

action_model._discrete_distribution.branches.0.bias f4 [5]
0	0xbdc98574	-0.09839907
1	0x3c799773	0.015233862
2	0x3ca582d5	0.020203987
3	0x3d13cd20	0.036084294
4	0x3d056a00	0.032571793

exp_avg f4 [128, 6]
0	0xb9212b9b	-0.00015370401
1	0xb946e59f	-0.00018968292
2	0x3866c6ff	5.5021603e-05
3	0xb9636dcd	-0.00021689311
4	0xb6fbe3e5	-7.5069133e-06
5	0xb93ac04f	-0.00017809983
6	0xb971fc4d	-0.0002307754
7	0xb8e70ec1	-0.000110176865
8	0x396f43fa	0.0002281814
9	0x39222e81	0.00015466848
10	0x393f5da4	0.00018250063
11	0xb891af32	-6.9467715e-05
12	0xb9b0f6c6	-0.00033753196
13	0xb9c2a9d1	-0.00037129087
14	0x3980b5ab	0.00024549416
15	0xb95573ec	-0.00020356447
16	0x37b4f6cd	2.1572598e-05
17	0xb96bfd3a	-0.0002250568
18	0xb940c34b	-0.00018383299
19	0xb9081fbb	-0.00012981791
20	0x3979ea83	0.00023833853
21	0x38dc4995	0.00010504123
22	0x39513d8c	0.00019954721
23	0x383a5e14	4.4433473e-05
24	0x38dc8bd3	0.00010516462
25	0x38f8bf1f	0.000118611606
26	0xb8ef9fa8	-0.000114261464
27	0xb8be7d7b	-9.0832786e-05
28	0xb8927261	-6.983127e-05
29	0x38b4f098	8.627883e-05
30	0x343baec6	1.7479314e-07
31	0x36be77b2	5.6763756e-06
32	0x380ca3fd	3.3531327e-05
33	0xb91a02ec	-0.00014687673
34	0xb7feec69	-3.0389247e-05
35	0xb7966dbd	-1.7932494e-05
36	0xba0b6c42	-0.0005318561
37	0xb9bd01ea	-0.00036050315
38	0x38dc746a	0.00010512101
39	0xb9b55b05	-0.00034590825
40	0x382cf2b1	4.123402e-05
41	0xb89ef7d8	-7.5801916e-05
42	0x3954c521	0.00020291332
43	0x3756dd39	1.2806901e-05
44	0xb8d6a363	-0.00010234748
45	0xb9a9c479	-0.00032380575
46	0xb9457947	-0.00018832563
47	0xb8d1c4fe	-0.00010002589
48	0xb96cad03	-0.00022571166
49	0xb910f9b1	-0.00013825927
50	0x38c79716	9.5172014e-05
51	0xba14014c	-0.0005645945
52	0xb90ccdb1	-0.00013428066
53	0xb9879f2e	-0.00025867805
54	0xb9c9c74e	-0.000384862
55	0xb91c2ca4	-0.00014893949
56	0x39846e13	0.00025259014
57	0xba410721	-0.0007363428
58	0xb8935bbf	-7.026595e-05
59	0xb99f171e	-0.00030344067
60	0xb981303f	-0.00024640744
61	0xb88089cb	-6.1291816e-05
62	0xb802a27f	-3.114575e-05
63	0x3a26b971	0.00063600304
64	0x39318a3f	0.00016931536
65	0x38661581	5.48563e-05
66	0x39fd9316	0.00048365508
67	0x38c242cd	9.2630835e-05
68	0xb902f562	-0.00012489178
69	0xb97c2add	-0.0002404856
70	0xb8f3916e	-0.00011614231
71	0x391bb947	0.00014850973
72	0x36e583e3	6.8400855e-06
73	0x38e5f7f7	0.00010965758
74	0xb8f69879	-0.00011758594
75	0x3a90190a	0.001099379
76	0x39288e20	0.00016074674
77	0x392e0d65	0.00016598923
78	0x39cb1692	0.00038735993
79	0x39594801	0.00020721556
80	0xb9587317	-0.0002064224
81	0x38f83f8b	0.00011837397
82	0xb8ba56b0	-8.885318e-05
83	0x3912613f	0.00013959872
84	0xb83c12c4	-4.484017e-05
85	0xb5286aeb	-6.2740463e-07
86	0xb956032c	-0.00020409812
87	0xb87cbf4f	-6.0259652e-05
88	0xb924bbe8	-0.0001571026
89	0xb8d31423	-0.00010065015
90	0xba0abc49	-0.0005292339
91	0xb9160ca5	-0.00014309825
92	0x38b613ba	8.682111e-05
93	0xb9b04ec5	-0.00033628024
94	0x383621a0	4.3423497e-05
95	0xb9056d65	-0.00012724621
96	0x398b2b83	0.00026544565
97	0x38d854d2	0.000103154816
98	0xb98eb31a	-0.00027217792
99	0x39a45c7c	0.00031349424
100	0xb7d9c353	-2.595937e-05
101	0x390818a3	0.00012979149
102	0x381a36e2	3.6767575e-05
103	0xb8bd058e	-9.013257e-05
104	0x384739df	4.7499194e-05
105	0xba041bcf	-0.0005039544
106	0xb8cd616d	-9.793309e-05
107	0xb77f42aa	-1.5214706e-05
108	0xb8eb26bd	-0.00011212889
109	0xb5a345e7	-1.2164791e-06
110	0x3804f3c7	3.1698288e-05
111	0x3a324b23	0.00068013574
112	0x39401448	0.00018318102
113	0x386387d3	5.4247514e-05
114	0xb8dda7c8	-0.00010569353
115	0xb92c209f	-0.0001641535
116	0x391cc648	0.00014951185
117	0xba0184b8	-0.0004940736
118	0x348c40e6	2.6124252e-07
119	0xb805ddc0	-3.191619e-05
120	0xb7e4ea0f	-2.728871e-05
121	0xb92036ae	-0.00015279159
122	0x39b9711f	0.00035370231
123	0xbaa1c3d6	-0.0012341689
124	0xb982ac33	-0.0002492383
125	0xb9c01e6e	-0.00036643766
126	0x3a01c763	0.00049506704
127	0x391d533c	0.00015003694
128	0xba02a7b3	-0.00049840956
129	0x392abfaa	0.00016283864
130	0xb9192eb0	-0.0001460861
131	0x391e82bf	0.00015116761
132	0x3831798b	4.2313284e-05
133	0x3882f36a	6.2442225e-05
134	0xb8cdf37a	-9.820513e-05
135	0x38a384ca	7.7971796e-05
136	0xb800742b	-3.0625768e-05
137	0x3845e8b9	4.71852e-05
138	0xb9a2683b	-0.00030976706
139	0xb95966dd	-0.00020733052
140	0x38d89610	0.00010327634
141	0xb9f1c866	-0.0004611641
142	0xb5022792	-4.8486356e-07
143	0xb91fec8d	-0.00015251544
144	0x38978b33	7.226169e-05
145	0x38d5f45c	0.00010202147
146	0xb93d4f51	-0.00018053992
147	0xb72f93aa	-1.0465194e-05
148	0xb8782060	-5.915796e-05
149	0x389dc22b	7.52251e-05
150	0xb96507c5	-0.00021842036
151	0xb91410ac	-0.0001412059
152	0x38e4bace	0.00010906682
153	0x396ad80d	0.00022396464
154	0x390f1bba	0.00013647872
155	0xb7ba82da	-2.223386e-05
156	0x3915c940	0.00014284719
157	0xb7d26917	-2.5082887e-05
158	0xb8413ed3	-4.6073295e-05
159	0xba4497cb	-0.00074994256
160	0xb994461e	-0.00028281
161	0xb950c435	-0.00019909519
162	0x394ccf62	0.00019532212
163	0x37f3abfd	2.9047946e-05
164	0xb980f5f0	-0.000245973
165	0xb9c50b7c	-0.00037583325
166	0xb958220a	-0.00020612046
167	0x3843e7c7	4.6707482e-05
168	0x3a23ddc1	0.00062510004
169	0x398ddefa	0.00027059746
170	0xb9bd9d0a	-0.00036165892
171	0x39f6bf64	0.00047063373
172	0xb883a7eb	-6.277844e-05
173	0x39998ac4	0.00029285823
174	0xb88e7ec8	-6.7947025e-05
175	0xb92ea2af	-0.00016654537
176	0xb845a8a0	-4.7125504e-05
177	0xb8fda09d	-0.00012093897
178	0xb846bc78	-4.7382404e-05
179	0xb7db3c3f	-2.6134889e-05
180	0x3948480f	0.0001910033
181	0x386d5a7c	5.6589473e-05
182	0xb95dbce1	-0.00021146565
183	0xb993802d	-0.00028133523
184	0xb9686881	-0.00022164175
185	0xb84afe95	-4.839765e-05
186	0xb8f244b2	-0.00011552255
187	0xb75634ef	-1.27677185e-05
188	0x38b403fd	8.583812e-05
189	0x39d91a7b	0.00041409195
190	0x39411a3d	0.00018415689
191	0x3894cc9c	7.0953014e-05
192	0x37c33580	2.3270724e-05
193	0xb889ca1b	-6.570314e-05
194	0xb5122736	-5.44463e-07
195	0xb9dee5ef	-0.00042514454
196	0xb919e8b8	-0.00014677912
197	0xb9409ae5	-0.0001836825
198	0xba1d124b	-0.00059918006
199	0xb9220ca2	-0.0001545423
200	0x39c5c438	0.00037720962
201	0xb8f8fadb	-0.00011872287
202	0x398cd4a9	0.00026861325
203	0xb868f3c4	-5.5540135e-05
204	0x38951f51	7.110707e-05
205	0x38d89be8	0.000103287224
206	0xb8fede9c	-0.00012153128
207	0x3a481105	0.00076319306
208	0x3910d26d	0.000138113
209	0x391d61df	0.00015009147
210	0x393f58a5	0.00018248202
211	0xb89b2752	-7.3983e-05
212	0x37aa0fef	2.0272999e-05
213	0xba3ba141	-0.00071575126
214	0xb993cef6	-0.00028192223
215	0xb9229534	-0.00015505106
216	0x38f047f5	0.00011457495
217	0x37d92c13	2.588894e-05
218	0xb8c5c358	-9.4300776e-05
219	0x3913ed2a	0.00014107363
220	0x36f57aab	7.3158494e-06
221	0x38e83ea6	0.00011074291
222	0x39e49982	0.0004360192
223	0x3943ce8f	0.00018673598
224	0xb9c73916	-0.0003799877
225	0x38fbd104	0.00012007545
226	0xb8e725b7	-0.00011021963
227	0x39074d67	0.00012903438
228	0xb8d89fcd	-0.00010329448
229	0xb8c0cc63	-9.1933434e-05
230	0xb844ad9f	-4.689174e-05
231	0xb8611f18	-5.367314e-05
232	0xb908b119	-0.00013035945
233	0xb8a7c9de	-8.000781e-05
234	0xb9a94e2c	-0.00032292434
235	0xb92c17ab	-0.00016412015
236	0x38996f9e	7.316399e-05
237	0x39d45d30	0.0004050522
238	0x393dc267	0.00018096865
239	0xb8bb9de6	-8.946266e-05
240	0xb97f4ebb	-0.00024348024
241	0xb92195b7	-0.0001540993
242	0x3902cafb	0.00012473382
243	0xb8baf97e	-8.915643e-05
244	0x3831c21c	4.2380867e-05
245	0xb867943a	-5.521274e-05
246	0xba0a0626	-0.00052651984
247	0xb9857ae9	-0.00025459312
248	0x3983bbad	0.00025126096
249	0x39691b14	0.00022230699
250	0x39872478	0.00025776378
251	0xb8fda5db	-0.00012094873
252	0x39a50403	0.0003147424
253	0x393000a1	0.00016784902
254	0xb9b8eebb	-0.00035273083
255	0x39f06318	0.00045850198

exp_avg_sq f4 [128, 6]
0	0x351d55ad	5.861173e-07
1	0x3619508f	2.2845668e-06
2	0x33d7fcb4	1.0057684e-07
3	0x34c1595b	3.6014066e-07
4	0x3382866b	6.078047e-08
5	0x33694158	5.430897e-08
6	0x358ef5ed	1.0651398e-06
7	0x35cc334d	1.5214115e-06
8	0x35ad2fce	1.2903417e-06
9	0x351341c9	5.48575e-07
10	0x33cca049	9.528646e-08
11	0x33b0849b	8.2197595e-08
12	0x364d8241	3.0623198e-06
13	0x373e51b8	1.1343909e-05
14	0x35e4404a	1.7006034e-06
15	0x352f9ab3	6.54177e-07
16	0x34b15bc5	3.303559e-07
17	0x34918351	2.71039e-07
18	0x35892af3	1.0219795e-06
19	0x358730b1	1.0072455e-06
20	0x3683f22f	3.932298e-06
21	0x3598b0e9	1.137637e-06
22	0x3401bfdf	1.2083864e-07
23	0x33ebbbb4	1.0977183e-07
24	0x3499c08c	2.8638567e-07
25	0x35af3e15	1.3056584e-06
26	0x34634630	2.1166557e-07
27	0x34144ea0	1.3812178e-07
28	0x33117a7f	3.3871853e-08
29	0x32f7ddd8	2.8855467e-08
30	0x327cb502	1.4709487e-08
31	0x33ee0ce4	1.10850834e-07
32	0x34baf12c	3.4820675e-07
33	0x3489bc6d	2.5655336e-07
34	0x323d9da4	1.1037091e-08
35	0x324d6283	1.19549695e-08
36	0x360054b5	1.9122792e-06
37	0x36bc05bc	5.603504e-06
38	0x34d8fb51	4.0415992e-07
39	0x3601893f	1.9302386e-06
40	0x3459e1f9	2.0291908e-07
41	0x3428645f	1.5682734e-07
42	0x35682dbe	8.64933e-07
43	0x34dc6896	4.105429e-07
44	0x358b0272	1.0357019e-06
45	0x35c07069	1.433783e-06
46	0x33fe288e	1.18351736e-07
47	0x3405894e	1.2436541e-07
48	0x35b9f3fc	1.3854583e-06
49	0x360e034e	2.1161572e-06
50	0x35a34f09	1.2167449e-06
51	0x35da0323	1.6243179e-06
52	0x34062ee7	1.2496785e-07
53	0x34076d67	1.2612655e-07
54	0x362b34e1	2.5511765e-06
55	0x36319b54	2.6465468e-06
56	0x35fc59cc	1.8801597e-06
57	0x363c6459	2.8072593e-06
58	0x344fbd11	1.9347159e-07
59	0x34423bcd	1.8089413e-07
60	0x35a5414a	1.231246e-06
61	0x3697dc65	4.525808e-06
62	0x36d14744	6.236982e-06
63	0x36deba6b	6.6378175e-06
64	0x3491ddab	2.716964e-07
65	0x34889983	2.5443669e-07
66	0x35b446ba	1.3431629e-06
67	0x3599dbe3	1.1463384e-06
68	0x351688dc	5.607851e-07
69	0x3629288d	2.5206566e-06
70	0x341c4f38	1.4557452e-07
71	0x3401b8b5	1.2081257e-07
72	0x3575c882	9.156139e-07
73	0x35cc468e	1.5219719e-06
74	0x3681c9d0	3.8679937e-06
75	0x36f56c60	7.3141855e-06
76	0x348d871e	2.6361607e-07
77	0x3487d135	2.5297928e-07
78	0x35f15979	1.7981939e-06
79	0x369290f4	4.368014e-06
80	0x354322bc	7.2693706e-07
81	0x359579be	1.1136797e-06
82	0x34093457	1.277816e-07
83	0x33e0712e	1.04514e-07
84	0x347e421f	2.3679648e-07
85	0x3583aaf3	9.810013e-07
86	0x35d873b4	1.6126928e-06
87	0x33e8dffe	1.0844086e-07
88	0x336a6469	5.4573693e-08
89	0x33846712	6.1654774e-08
90	0x36297c84	2.525544e-06
91	0x35874531	1.0078421e-06
92	0x34c14d96	3.6005503e-07
93	0x34e1da35	4.2068282e-07
94	0x33a782dc	7.800347e-08
95	0x3380c942	5.997073e-08
96	0x3649d609	3.0075919e-06
97	0x365ba6e7	3.2730693e-06
98	0x35f9d1b4	1.8612977e-06
99	0x35cfbe61	1.5478109e-06
100	0x344c399e	1.9019942e-07
101	0x34261fbd	1.5471501e-07
102	0x34c83366	3.72903e-07
103	0x3581c151	9.667511e-07
104	0x35f52e97	1.8267482e-06
105	0x36284606	2.507471e-06
106	0x33c8cc16	9.350349e-08
107	0x33e2fdc8	1.05701076e-07
108	0x3522a189	6.058477e-07
109	0x363fe14a	2.8592353e-06
110	0x3695c7f8	4.4638255e-06
111	0x3694a139	4.4295125e-06
112	0x3451a37d	1.9524118e-07
113	0x343df109	1.7689685e-07
114	0x346eb0f3	2.2229851e-07
115	0x353bea27	7.0003665e-07
116	0x3586be1b	1.0039106e-06
117	0x360e396d	2.1193075e-06
118	0x33929863	6.826374e-08
119	0x338cf789	6.5642844e-08
120	0x348f45fc	2.6686746e-07
121	0x364e173e	3.070992e-06
122	0x35bc285b	1.4018837e-06
123	0x36cf9680	6.1866012e-06
124	0x34766fc5	2.2951197e-07
125	0x3498ce4a	2.84623e-07
126	0x36832700	3.9086444e-06
127	0x3606c88e	2.0084294e-06
128	0x361a2149	2.2967163e-06
129	0x35000153	4.768564e-07
130	0x3449475b	1.8745543e-07
131	0x3422ef05	1.517438e-07
132	0x33751290	5.706039e-08
133	0x34d4d290	3.9641282e-07
134	0x342f7b7f	1.6343073e-07
135	0x343e73cd	1.7737257e-07
136	0x32a7037c	1.9442943e-08
137	0x3297b9c7	1.7663195e-08
138	0x355040eb	7.7580506e-07
139	0x361f1dd1	2.3710202e-06
140	0x34240c2c	1.5278118e-07
141	0x35a4e6ad	1.2286088e-06
142	0x33ae77ae	8.124276e-08
143	0x33a83726	7.833141e-08
144	0x33d9f744	1.0149827e-07
145	0x34d1a424	3.9048712e-07
146	0x34742287	2.2736832e-07
147	0x33329c70	4.1586134e-08
148	0x32965e91	1.7505302e-08
149	0x32958811	1.7407759e-08
150	0x35027a83	4.860705e-07
151	0x35afcfcb	1.3098992e-06
152	0x35cf5909	1.5448614e-06
153	0x3590e2c8	1.0794838e-06
154	0x33976d77	7.051397e-08
155	0x338d566e	6.5815456e-08
156	0x353cfc48	7.0402575e-07
157	0x35453372	7.346308e-07
158	0x35979b29	1.1295534e-06
159	0x36448dbe	2.928878e-06
160	0x34684a94	2.1633815e-07
161	0x34895068	2.5576742e-07
162	0x3502673b	4.8578994e-07
163	0x3521637d	6.012195e-07
164	0x36a72985	4.9818213e-06
165	0x365d9d8b	3.3023268e-06
166	0x34334654	1.669626e-07
167	0x342daa9c	1.6173948e-07
168	0x36bc2a62	5.6077706e-06
169	0x36b16038	5.2862124e-06
170	0x3601a932	1.9320983e-06
171	0x35e05bc0	1.6716003e-06
172	0x34913a3e	2.7050731e-07
173	0x347957f8	2.3221935e-07
174	0x33ba23e7	8.6678305e-08
175	0x34f299d3	4.5187934e-07
176	0x347930c2	2.320767e-07
177	0x34380bfc	1.7140695e-07
178	0x331480d5	3.4576107e-08
179	0x32f6a9a3	2.8715311e-08
180	0x357ac3ab	9.341699e-07
181	0x35e967bc	1.7390043e-06
182	0x36a0b16c	4.789026e-06
183	0x361f2eb3	2.3720029e-06
184	0x3431443e	1.6509236e-07
185	0x3440c1e3	1.7951929e-07
186	0x350746d4	5.039449e-07
187	0x344b2ef5	1.8922931e-07
188	0x338225a5	6.060444e-08
189	0x35244a16	6.120257e-07
190	0x334e65c2	4.805566e-08
191	0x337b4047	5.849895e-08
192	0x35d0a9b6	1.55466e-06
193	0x358c3d7a	1.0448705e-06
194	0x35da5c11	1.626906e-06
195	0x361fcd86	2.3812477e-06
196	0x34043d8e	1.2315851e-07
197	0x34224d9e	1.5115663e-07
198	0x36723f34	3.60976e-06
199	0x356ac8f5	8.7464224e-07
200	0x369a8e84	4.6061487e-06
201	0x35cd7d0a	1.5310081e-06
202	0x34347040	1.6804643e-07
203	0x342ad9a4	1.5911661e-07
204	0x34b4931b	3.3634646e-07
205	0x359dac0f	1.1747487e-06
206	0x366610a6	3.4282361e-06
207	0x367efad7	3.7994957e-06
208	0x34337af9	1.6715411e-07
209	0x343daa34	1.7663916e-07
210	0x35b20576	1.3263623e-06
211	0x367b1351	3.7413158e-06
212	0x36f9428e	7.4285263e-06
213	0x36f17d01	7.196912e-06
214	0x34a4e05a	3.0710618e-07
215	0x34c31135	3.63341e-07
216	0x3532efa4	6.665889e-07
217	0x35e82e1c	1.7298767e-06
218	0x349f6b12	2.9693962e-07
219	0x3491d38d	2.7162278e-07
220	0x3397c5c8	7.0674616e-08
221	0x334d5b3f	4.781327e-08
222	0x35f9f874	1.8624255e-06
223	0x36317fad	2.6449372e-06
224	0x35d83cff	1.6111006e-06
225	0x35859a16	9.954117e-07
226	0x3418a4c2	1.4216042e-07
227	0x340bf1e0	1.3033377e-07
228	0x354d4faa	7.648438e-07
229	0x359eab97	1.1821857e-06
230	0x3669f546	3.4862474e-06
231	0x35879df5	1.0104255e-06
232	0x33f0d731	1.1215014e-07
233	0x340c6148	1.3073907e-07
234	0x352e68d1	6.497258e-07
235	0x3603d12c	1.9642275e-06
236	0x3572e555	9.048575e-07
237	0x35fb632c	1.872982e-06
238	0x33d4c90f	9.9085916e-08
239	0x33c47f20	9.150085e-08
240	0x34d7b32e	4.017724e-07
241	0x35a68e72	1.2409421e-06
242	0x34b87979	3.4361054e-07
243	0x34e42a4c	4.2499084e-07
244	0x335194de	4.8797e-08
245	0x333b89d3	4.366468e-08
246	0x35d2e2b7	1.5712202e-06
247	0x365fc9d5	3.3347071e-06
248	0x36752a71	3.653255e-06
249	0x36681e06	3.458817e-06
250	0x3482895e	2.4314335e-07
251	0x348116a3	2.4044593e-07
252	0x36167b1f	2.2423408e-06
253	0x3662a738	3.3773958e-06
254	0x361755f0	2.2550776e-06
255	0x36331f83	2.669142e-06

exp_avg f4 [128]
0	0xba569b0f	-0.00081865577
1	0x3964623c	0.0002178037
2	0xba916d38	-0.0011095172
3	0x3a65b98b	0.0008763305
4	0x3878dbaa	5.9332386e-05
5	0xb9b60132	-0.00034714636
6	0xba3c2835	-0.0007177622
7	0xba9e1151	-0.0012059604
8	0xbad87ba6	-0.0016516342
9	0xbb01c926	-0.0019803732
10	0x3ac73cc7	0.0015200608
11	0xb98f33a2	-0.00027313555
12	0x3b0e6a6f	0.002173092
13	0x39e0a83f	0.00042849962
14	0xba43dc1a	-0.00074714574
15	0xba447116	-0.0007493658
16	0x3a833450	0.0010010097
17	0xba6fe8f0	-0.0009151837
18	0x3ac39a23	0.0014923256
19	0xba5f02c8	-0.00085071893
20	0xbb22b7d6	-0.0024828813
21	0x38933d8a	7.020969e-05
22	0x39a0b702	0.0003065393
23	0xba816725	-0.0009872658
24	0x3898909f	7.2748626e-05
25	0x3a049cd5	0.000505877
26	0xbafe85a0	-0.0019418485
27	0xbaa7fa23	-0.0012815635
28	0x3aabb42c	0.001309996
29	0xb9890cef	-0.00026140313
30	0xba9c427c	-0.0011921669
31	0x3a3c8b95	0.000719243
32	0xbacc0c8c	-0.0015567704
33	0x39c2b0b6	0.00037134223
34	0x3ad81095	0.0016484434
35	0xbb0a01ec	-0.0021058274
36	0x3a0de233	0.00054124295
37	0x39bbe317	0.00035836615
38	0xba5f233a	-0.0008512024
39	0x39ca8c24	0.00038632855
40	0xb9450e51	-0.00018792717
41	0x39943834	0.00028270634
42	0x3aab12a2	0.0013051818
43	0x3a03b10b	0.0005023635
44	0x39ce58a7	0.00039357433
45	0x39ac578a	0.00032871618
46	0x3a9c6ad5	0.0011933694
47	0x3a1709e7	0.00057616684
48	0x3ac632c5	0.0015121332
49	0xb9e750a5	-0.00044119838
50	0xba778835	-0.00094425987
51	0xb94097ab	-0.00018367048
52	0x3abb38c5	0.0014283886
53	0xba39fcd5	-0.0007094865
54	0xbaf231cc	-0.0018477975
55	0xb9db9336	-0.00041880616
56	0x393442f1	0.00017191075
57	0x38689ba8	5.5458077e-05
58	0x3a5546ae	0.0008135837
59	0x3a9287cc	0.0011179387
60	0xb838f6b3	-4.4098775e-05
61	0xb9d7d183	-0.00041164094
62	0xbb451f6f	-0.003007855
63	0xba07b3ea	-0.00051766506
64	0x3a6e018f	0.0009079212
65	0xba908978	-0.0011027297
66	0x3988482a	0.00025993708
67	0x3904f710	0.00012680539
68	0x3aee13e4	0.0018163887
69	0xb962d563	-0.00021632532
70	0xba8c86c3	-0.0010721314
71	0xb8fe6477	-0.00012130377
72	0xbb18fe24	-0.002334484
73	0xbaab2b05	-0.0013059085
74	0x3948e7fc	0.00019159907
75	0xba36626c	-0.0006957415
76	0xb900cb84	-0.00012282847
77	0x3af9726f	0.0019031296
78	0x3ad56241	0.0016279892
79	0x36f5e71e	7.3284746e-06
80	0x3a9af0bb	0.0011821011
81	0x38d7b844	0.00010286321
82	0x3a51dd9f	0.00080057414
83	0x3af3c0b4	0.0018596859
84	0x3a9fa89c	0.0012180987
85	0x396bd992	0.00022492398
86	0xb9f986fc	-0.00047593552
87	0xbaa9ed26	-0.0012964352
88	0xb94b752d	-0.0001940324
89	0x3adef4e4	0.0017010239
90	0xba96a452	-0.0011493063
91	0xba8c8390	-0.0010720361
92	0xb5b0c86a	-1.317135e-06
93	0xbab1ac1b	-0.001355532
94	0xba496e80	-0.0007684007
95	0x3aa09556	0.0012251537
96	0xbaac684b	-0.001315364
97	0xbae6f618	-0.0017620949
98	0xb992b75f	-0.00027983912
99	0xb9b88769	-0.00035196103
100	0xbae4631a	-0.0017424554
101	0x3a83155f	0.0010000876
102	0x3ade5433	0.0016962349
103	0x39faf1d2	0.00047863886
104	0xba9a4be9	-0.001177189
105	0x3abe8623	0.0014535825
106	0xbb03f8d8	-0.0020137336
107	0x3a36a6ad	0.00069675857
108	0x3a974b54	0.0011542835
109	0x3a30b091	0.00067401776
110	0xbab64674	-0.0013906495
111	0x39dde7d5	0.00042325133
112	0x3a102932	0.00054993026
113	0xbac60e7b	-0.0015110517
114	0x39fee985	0.0004862064
115	0x3b0ee549	0.0021804145
116	0xb8bce899	-9.007863e-05
117	0xba5fc090	-0.0008535469
118	0xba884511	-0.001039656
119	0x3a12393d	0.0005577987
120	0x3a0a434f	0.0005274312
121	0xb91df492	-0.00015063796
122	0xbaf564e5	-0.0018722086
123	0xba940023	-0.0011291545
124	0xb94ea76a	-0.00019708058
125	0xba1230ab	-0.000557671
126	0x3934d968	0.00017247128
127	0x390cca83	0.00013426882

exp_avg_sq f4 [128]
0	0x36ddc33b	6.609041e-06
1	0x372966ef	1.0097151e-05
2	0x37f8e6e7	2.9671426e-05
3	0x3761a21f	1.3448792e-05
4	0x368df990	4.2311804e-06
5	0x35a9f70f	1.2663385e-06
6	0x37439524	1.165763e-05
7	0x3740cf52	1.1492362e-05
8	0x375d45b3	1.3188855e-05
9	0x37a2e07a	1.9416435e-05
10	0x37cbe3ef	2.4305626e-05
11	0x374af4e8	1.209716e-05
12	0x37dadb48	2.6089736e-05
13	0x3755b274	1.2737339e-05
14	0x36df12d8	6.6481116e-06
15	0x36e62413	6.8587337e-06
16	0x3753d9ab	1.262726e-05
17	0x36e739e2	6.891075e-06
18	0x37a0c4b1	1.9165078e-05
19	0x369e8927	4.7247336e-06
20	0x37c603e5	2.3605253e-05
21	0x378aef5f	1.6562348e-05
22	0x35a5c262	1.2350031e-06
23	0x36e5c731	6.8479208e-06
24	0x361c8fb3	2.3329455e-06
25	0x3703a858	7.847404e-06
26	0x37b22be2	2.1239688e-05
27	0x37a04f1f	1.911033e-05
28	0x37e7f094	2.7649374e-05
29	0x35cc3080	1.52133e-06
30	0x379b72d8	1.8530918e-05
31	0x36c6ab40	5.920796e-06
32	0x374b3051	1.2110992e-05
33	0x379c9eb7	1.8670557e-05
34	0x37960d75	1.788766e-05
35	0x3809f5b3	3.289217e-05
36	0x3691b508	4.3424116e-06
37	0x3744834a	1.17130785e-05
38	0x372786cd	9.985361e-06
39	0x373fc1b8	1.1429591e-05
40	0x3680286a	3.819402e-06
41	0x37c3aa82	2.332521e-05
42	0x378e3798	1.6953607e-05
43	0x373e4e48	1.1343109e-05
44	0x36272ded	2.4911672e-06
45	0x367ecf7c	3.7969721e-06
46	0x3738a4e6	1.1005648e-05
47	0x36e2d939	6.760613e-06
48	0x378e64de	1.6974689e-05
49	0x36a12d9c	4.8034835e-06
50	0x373ae826	1.1140515e-05
51	0x362df849	2.592353e-06
52	0x37871562	1.6103211e-05
53	0x373fe313	1.1437357e-05
54	0x37b20087	2.12195e-05
55	0x36cdabae	6.1294622e-06
56	0x367c4319	3.7589982e-06
57	0x353c54e0	7.0158967e-07
58	0x380551ed	3.178597e-05
59	0x3771dd15	1.4416194e-05
60	0x379133cb	1.7309465e-05
61	0x37d4b4d3	2.5356572e-05
62	0x3803172b	3.125441e-05
63	0x366ccd00	3.5286066e-06
64	0x37a75dc3	1.9951613e-05
65	0x3720fe8f	9.596012e-06
66	0x35c6a0df	1.4798969e-06
67	0x3750715f	1.2424162e-05
68	0x3795e4d9	1.786875e-05
69	0x37b4dcea	2.1560543e-05
70	0x374da1e6	1.2256647e-05
71	0x3718da7b	9.110775e-06
72	0x37c6220f	2.36193e-05
73	0x379e21d5	1.8850822e-05
74	0x3581deac	9.676055e-07
75	0x366188c4	3.360722e-06
76	0x369e112a	4.710765e-06
77	0x37db4ad4	2.6141679e-05
78	0x379a9143	1.8425873e-05
79	0x36996002	4.570932e-06
80	0x37941655	1.7653374e-05
81	0x3602960a	1.9458844e-06
82	0x3751d7eb	1.2507643e-05
83	0x37b6232d	2.171247e-05
84	0x37e09685	2.6772972e-05
85	0x3778b2e1	1.48236e-05
86	0x37881651	1.6222855e-05
87	0x37204c2f	9.554481e-06
88	0x35977371	1.1283975e-06
89	0x37b42efb	2.147955e-05
90	0x379d90f1	1.8783352e-05
91	0x378426a0	1.5753612e-05
92	0x371b6b2f	9.263676e-06
93	0x37e75b88	2.7579968e-05
94	0x3695e891	4.4676203e-06
95	0x37131ea5	8.769018e-06
96	0x36f85a7e	7.4015106e-06
97	0x378b930d	1.6638567e-05
98	0x35f46823	1.8209724e-06
99	0x36d16f27	6.241625e-06
100	0x37b587c8	2.164011e-05
101	0x377c26cc	1.5029404e-05
102	0x37d350c3	2.5190768e-05
103	0x363ddb3d	2.8290808e-06
104	0x376d2d7c	1.4136891e-05
105	0x37a38e8a	1.949749e-05
106	0x37a989ce	2.021054e-05
107	0x37d1766c	2.4969886e-05
108	0x371e60c1	9.440061e-06
109	0x372051de	9.555804e-06
110	0x37759326	1.4637399e-05
111	0x375b9e52	1.3090279e-05
112	0x37e2ac2d	2.7021475e-05
113	0x374715c2	1.186639e-05
114	0x36c58ce4	5.8874593e-06
115	0x37c557c2	2.3525095e-05
116	0x3693b742	4.4022754e-06
117	0x368656bd	4.003609e-06
118	0x36a03277	4.7742465e-06
119	0x35fc020f	1.8776062e-06
120	0x3733766f	1.0696806e-05
121	0x374ef743	1.2336127e-05
122	0x379a7ade	1.8415445e-05
123	0x36c04a33	5.730684e-06
124	0x3799894b	1.8302953e-05
125	0x360da523	2.110676e-06
126	0x3720cf4b	9.585007e-06
127	0x3693e5ef	4.407709e-06
