Scenes/ImprovedGridWorld2D/results/ppo-no-memory-curriculum/DroneGrid2D/DroneGrid2D-599953.pt (torch, 446685 bytes, 33 tensors)

network_body._body_endoder.seq_layers.0.weight f4 [128, 6]
00000000: b4ce 68be 7f5a e83e ed50 18bf ce45 aebe
00000010: 9abe 03bf ebfc 4a3e 18e5 e1bd fe3e 503c
00000020: 8f87 153d 7541 90be fc81 e3be 7ae3 b8be
00000030: 2120 6abe fec5 1b3f 843c b9bd 0853 2dbf
00000040: ecf7 aabf 1aa8 663e a92e a43e 9e8c e4bd
00000050: 4f93 ad3e f3a2 f4be 4628 83be 01cb 49bf
00000060: bf55 afbe 2915 fe3e 8f3d ccbe 2831 a4be
00000070: 19a9 a33e 998a 2f3e e09e 0dbf 5f3d 7dbd
00000080: fe86 a23e d1e6 98bc 8518 b5bd 03b4 583e
00000090: 7739 013e 8673 a83f 0896 12be 2fcc 163f
000000a0: 358e 5fbf 8fed 853c 5558 083e bee0 d0be
000000b0: 8512 9ebe 5fe7 9dbe acc2 b43e 8dc0 613f
000000c0: 8b3a 8c3e c7aa b53d 89ea 43be 4d67 44be
000000d0: 5c32 86be 8f7a ec3e 0e8a 263e 6405 1bbe
000000e0: 8d54 f3bd 33a7 303d 24cd cebe d3bc c83e
000000f0: 7ef3 023e 77cf 443f 4d9e 883e 8409 493e
00000100: 4ebc 74be aba1 78bf 400d f9bd e8ed 61be
00000110: 18c6 bbbe 4083 f43e f3ab 1a3f f53e ff3e
00000120: 60c8 36be 22be 96be 2aea abbd de5f 2d3e
00000130: 21bf 7c3e 8088 5cbf e665 b6bc c284 1e3f
00000140: 1542 4bbe bbf6 be3e 54c1 213f fb99 fd3d
00000150: 3954 19bd a89a ad3e b9fe 063e 8c04 70bf
00000160: 3762 8d3d 6bf6 b83e 8f5a 863f 2e0d e1bd
00000170: 2376 a7bd f986 a9bd d9d7 07bf 28fb f23c
00000180: 8473 543f abfc 163f 7108 a83e 0215 413e
00000190: 6cc2 2a3f b71b 9bbe bb2e c5bc f26e 0a3f
000001a0: a584 003f 6c7f 473f aa33 bc3e cc6c 313f
000001b0: 4851 e6bd 95cc ea3e d8ef 533e 5e37 9f3d
000001c0: aadb 68be cb83 8dbf 44f2 68be 997a 9c3e
000001d0: a341 153f 8ab6 793f 5867 e53d 0272 f93e
000001e0: d86a 25bf f56b bbbd 00fe 00bf 4e7d 4b3e
000001f0: 1d46 04bf 3cbb 823f 5c8b d03e 463f 4abe
00000200: b765 c73e 8699 0cbf fddc 453f 1d3b 613e
00000210: c539 13bf 5a3a 973e c33f 6b3e 2dfa 823e
00000220: cc16 7e3e b2fe 1ebd 8f5e aabd 9789 e83e
00000230: acac 0bbf 3c9b 393f fc88 f3be 1920 8d3e
00000240: 5455 0dbf 95a1 cfbd 986b 983e 457a f5be
00000250: ebb3 c23e 12ed fabc cf6b a8bd da0a a83e
00000260: 62a0 a23d 0884 e4bd a817 b2be b380 ccbe
00000270: d3bb 7fbe 5639 dabe 37d1 05bf 353a 8dbe
00000280: d303 6d3e 0bb5 923f 2935 e1be f2f3 06bf
00000290: 13a8 c73e b58a 1ebd ae4a ec3e 3d75 163f
000002a0: 1479 713e ad5b 1d3c d33b 49bb aa07 aebd
000002b0: 3230 183f 84c8 53be a6c7 86be 4d15 763f
000002c0: a6db e43e bbbf a6be 612b 3ebe 5a39 7d3e
000002d0: eafa 0bbc 0092 bd3c fd8f 8d3e 289c 84be
000002e0: 36c9 7d3e b572 023f dd26 523e 656a f1be
000002f0: 97a2 69bf a237 cabe 39e8 80be 4070 06bf
00000300: bb05 813f c1b0 57bd f077 48be 41d9 9cbd
00000310: b455 2f3e c39a 9b3f 5780 1a3f 2807 11bf
00000320: b28d 213f 5118 94be 57c4 1dbf 70d6 66bf
00000330: 2883 efbe d1f6 7bbe 6e9a e53d 8894 8d3b
00000340: a8f3 713e 1f51 3abf 104e debc 6bb4 2a3e
00000350: d97d 2f3e eb20 c23c 7c30 a73e cadc 763f
00000360: 2bec 943c 2684 7a3f 6807 79be 98e4 febc
00000370: c7b5 d53e e6b2 11be 5a1f 613c 83e2 143e
00000380: 5b9f 073f 706c 1e3e ac77 323f ab51 503e
00000390: 40f0 f73e 3559 8a3e e0df 353f f4fe 03bf
000003a0: dbcb 763d 1e81 263f 42a6 bcbe 2787 4d3e
000003b0: 411b 7bbe 26e8 b13e 5b1c 11bf dcbf ebbe
000003c0: 43ad 32be 6c5c 033f f361 f13e 449b 943e
000003d0: 02cf a4be 00ad c9bd 0083 bbbe 3877 f5ba
000003e0: 4bd3 a83e 9bc0 d23e 2575 98bf 3d0d d5be
000003f0: e800 ad3d 640a 013e bc0e 8a3e b372 a03e
-0.22735101 0.45381543 -0.5949848 -0.34037632 -0.5146271 0.19823043 -0.11030024 0.012710331
0.036506232 -0.2817494 -0.44435108 -0.3611105 -0.22863819 0.6084899 -0.090447456 -0.6770482
-1.335691 0.22525063 0.3206685 -0.11159633 0.3390145 -0.4778057 -0.25616664 -0.78825384
-0.34245107 0.4962552 -0.39890715 -0.32068753 0.3196495 0.17142715 -0.5532055 -0.061826106
0.31743616 -0.01866475 -0.08842567 0.21162419 0.12619577 1.3160255 -0.14315045 0.5890531
-0.87326366 0.016348628 0.13314946 -0.40796465 -0.30873504 -0.30840585 0.35304773 0.88184434
0.27388415 0.08870464 -0.19132437 -0.19180031 -0.26210296 0.46187255 0.16263601 -0.15138775
-0.11881361 0.043128204 -0.40390885 0.3920656 0.12788197 0.76879066 0.26683274 0.19632536
-0.23899958 -0.97121686 -0.1216073 -0.2206341 -0.3667457 0.47756386 0.60418624 0.4985272
-0.17849874 -0.29441935 -0.083942726 0.16931102 0.24682285 -0.8614578 -0.022265386 0.6192132
-0.19849427 0.37297615 0.6318562 0.12382885 -0.037433837 0.33907056 0.13183106 -0.9375694
0.069034986 0.36125502 1.0496386 -0.10988842 -0.0817683 -0.08277697 -0.5306373 0.029660776
0.8298876 0.5897929 0.3281894 0.1885567 0.66702914 -0.30294582 -0.024070134 0.5407554
0.502024 0.77928805 0.36758167 0.69306636 -0.11245972 0.4585921 0.20696962 0.07774232
-0.22740045 -1.1055845 -0.22748667 0.30562285 0.5830328 0.9754416 0.11201352 0.48719794
-0.64616156 -0.091514505 -0.50387573 0.19872019 -0.51669484 1.0213389 0.40731323 -0.197507
0.3894479 -0.5492176 0.77290326 0.21995206 -0.57510024 0.29536706 0.22973542 0.25581494
0.24813384 -0.038817115 -0.08318817 0.45417473 -0.5456035 0.72502494 -0.47565448 0.2756355
-0.55208325 -0.10138241 0.29769588 -0.47944847 0.38027892 -0.030630622 -0.08223688 0.3282078
0.07940747 -0.111579955 -0.34783673 -0.3994194 -0.24973993 -0.4262187 -0.5227236 -0.2758347
0.2314599 1.14615 -0.4398587 -0.5271598 0.38995418 -0.0387065 0.46150726 0.5877264
0.23581344 0.009604377 -0.0030705824 -0.084975556 0.5944854 -0.2068196 -0.26324195 0.9612625
0.44698828 -0.32568154 -0.18571235 0.24728909 -0.008543709 0.023140907 0.27648917 -0.25900388
0.24783787 0.5095628 0.20522638 -0.47151485 -0.9126372 -0.3949557 -0.25177172 -0.5251503
1.0079874 -0.0526588 -0.19577003 -0.076586254 0.17122537 1.2156605 0.6035208 -0.56651545
0.63106835 -0.28924802 -0.61627716 -0.90170956 -0.46779752 -0.24605872 0.11211096 0.004320685
0.23628104 -0.7278003 -0.027136832 0.16670386 0.17137851 0.023697337 0.32654178 0.9643065
0.01817902 0.9785789 -0.24319232 -0.031114861 0.41740248 -0.142284 0.013740385 0.14539532
0.5297753 0.15471053 0.69713855 0.20343654 0.48425484 0.27021185 0.7104473 -0.515609
0.060253005 0.6504077 -0.36845595 0.20071088 -0.24522115 0.34747428 -0.5668389 -0.46044815
-0.17448907 0.513129 0.47145042 0.29024708 -0.32189184 -0.0984745 -0.36623383 -0.0018727547
0.32973704 0.4116257 -1.191075 -0.41611663 0.084474385 0.1260162 0.26964366 0.3133751

network_body._body_endoder.seq_layers.0.bias f4 [128]
00000000: b0f6 323d 799b 5ebb 2b74 993d 12e3 8c3d
00000010: 28dc 003d 8fb8 9bbd a1a3 ff3c 4027 04bc
00000020: 6c29 083d 6beb 4e3a 0acf 643d f7c6 fc3c
00000030: 4845 d83c 16fa 0c3d f5eb 313d 389a 233d
00000040: 6b57 a93d 4ecb 453d 9f85 333d a19a 813c
00000050: e35a 873d 78b2 083d 3c40 563c e7a3 023d
00000060: 7f1f a23c 233f 6c3d a18c 2c3d 55e8 2d3d
00000070: 76e2 463d 818b 1f3e 903f 4ebc 0b3b c53c
00000080: bed2 2f3d be2b 763d 4aba 053d 1466 953d
00000090: 25d0 cc3d dda3 873c 89d7 233d 6256 b93c
000000a0: c4e2 9b3a 6fc2 983d 353d b53d dc7b bb3c
000000b0: 243f 8a3d 96ea 51bb 7805 7dbb e9a7 33bd
000000c0: 3fee 433d ae10 873c f66f 7cbc cd77 b1bb
000000d0: e8c1 843d fb4f 153d 97fb 8a3d 6b10 ca3c
000000e0: 909d 163c fbd0 85bb 8a6e 003d 3653 bd3c
000000f0: e879 653d 5ebc 673d a415 8d3d 6fa6 a03d
00000100: c1b1 593d 0e5e b4ba 1050 97bd dced 0b3d
00000110: 1125 8f3c 9e80 b83c 5c46 6c3d e1ec 2d3d
00000120: c036 383d 4633 ab3d eb76 09be 8f45 1cbc
00000130: 35cd 38bd 83f1 4b3d 2098 4e3d 9a4e 90bd
00000140: 1412 243d a549 a33d c5bd 423c 49a6 4f3d
00000150: 0c1e 0e3d a9f6 7d3d e4e2 d83c 3a0a 923c
00000160: 0e38 f73b d61b 263d c300 113d 77f0 653d
00000170: a962 473d ab5e 763d ae89 143e b6e7 903c
00000180: 854f 893d 1226 303d 210e 473d cbb5 07bc
00000190: 2519 0c3d a9f7 de3c 02f2 473d 21ac 323c
000001a0: d4a5 9a3c 5674 2a3d b2dc dd3c dd0e 043d
000001b0: 327a 1b3d b347 903d 29c9 5c3d e276 073d
000001c0: 5124 6c3d b9cb 873c 1ed1 96bd 7928 053d
000001d0: dfe6 cdbc f2a6 213d 719a e0bc 4b15 e9bd
000001e0: 4498 153d ec67 2e3d adac fc3c aa7a d3bc
000001f0: 9a34 3e3d 7a45 f13d eba9 6b3c c3a1 163c
0.04369229 -0.003396718 0.074928604 0.06879248 0.031459957 -0.07603561 0.031205954 -0.008065999
0.033242628 0.00078933564 0.05586151 0.030856593 0.026400223 0.034418188 0.043437917 0.039941996
0.08268627 0.04828959 0.043828603 0.015820803 0.06609132 0.033373326 0.013076838 0.03189459
0.01979041 0.0576774 0.0421263 0.042457897 0.048555814 0.1558056 -0.012588397 0.024076005
0.04292559 0.06010031 0.032648362 0.072948605 0.10000638 0.016557628 0.040000472 0.022624198
0.0011893143 0.0745896 0.08849565 0.02288621 0.06750324 -0.0032030693 -0.0038607996 -0.043861303
0.04783463 0.016487446 -0.015407553 -0.0054158927 0.06482297 0.03645323 0.06786268 0.024666032
0.009192839 -0.0040837503 0.03135542 0.023110967 0.056024462 0.056576125 0.06888893 0.07844245
0.053148035 -0.0013760941 -0.073883176 0.034162387 0.01747373 0.022522267 0.057684287 0.042462233
0.04497409 0.08359389 -0.1342427 -0.009538068 -0.045117576 0.04979087 0.050438046 -0.07046242
0.040056303 0.07973031 0.011886065 0.05069569 0.034696624 0.06200281 0.026475377 0.017827142
0.007544524 0.04055389 0.035401117 0.05613753 0.048678074 0.060148876 0.14505646 0.017688613
0.0670462 0.043005057 0.04859746 -0.008283089 0.034203667 0.027217703 0.04881478 0.010905297
0.018877901 0.041614853 0.027082775 0.032240737 0.03795833 0.070449255 0.05390278 0.03307236
0.05765182 0.016576635 -0.07364105 0.0325093 -0.025134502 0.039465852 -0.027417393 -0.113810144
0.036522165 0.042579576 0.030844057 -0.025815327 0.046436884 0.1178083 0.014383773 0.00919384

network_body._body_endoder.seq_layers.2.weight f4 [128, 128]
00000000: fd05 3b3e 3832 713d 68bb 96bb a202 1b3e
00000010: 522c 73be 5c23 45be 541b 293d 93e6 35be
00000020: 9a6a fd3c 0392 59bd 4f2f 093d 4f52 8dbd
00000030: 2400 ef3d db4c b93b 9548 f5bc 86c9 a53c
00000040: 288a b1bc 5497 debc ed7f 0a3e b4a7 30bd
00000050: dfc1 a9bc 84c1 39be c65f ebbd 3b98 cebd
00000060: 0cc5 0d3d 0b63 883d 9ff1 30be 0278 e9bd
00000070: 9999 cebd 334d 853c 1235 7ebe e461 c63d
00000080: 471d 2abe 9c33 63bd 5b85 333e db06 84be
00000090: 6b47 eabd 8d87 89be 1f2e fbbd 8a10 5c3e
000000a0: 21d3 e53d 95da 463d 2638 033d 2731 5abe
000000b0: 7edf 6ebc 2166 1dbd 702f f8bc 5838 75bd
000000c0: 031a a03e 31e4 d6bd 3705 e9bd 4e9d fbbd
000000d0: 8b63 db3d 2d0d 13be c253 9e3d 020b 8dbd
000000e0: fdc1 2dbd 95d0 683e 61e9 7fbe 2341 8abc
000000f0: 6061 e03d 1750 413e b09c 2abd 808a 213d
00000100: 8047 13be 040f e9bd 68f6 063e cc0f c03e
00000110: ce69 b53d f6ec 30be 02b4 31be 8328 0c3e
00000120: f9d3 45be 0f21 6ebd 87d6 26bd 08c0 003e
00000130: bdc3 5bbe dfe5 143d 1fb0 373e 4251 c0bd
00000140: 3a54 1a3d 9eb2 7b3d 42ea 3a3e b088 9e3d
00000150: d8ce 6bbd 9bd4 793e 2009 3dbe 4e38 c9bd
00000160: 3d97 f43b a7a7 983e 14b3 81be 46e7 05be
00000170: 196e 023d 5698 893e b6eb 2abd 9d8e 8b3d
00000180: 603d 2ebe 9c76 5fbd 9588 bebd afb8 57bd
00000190: 3930 95bd dd15 d2bd c733 943d bf69 243e
000001a0: ea7d 34be 0268 a0bb 8fd2 08be dd0d 6cbe
000001b0: 9c77 62bb ebab 28be cb96 8ebb 18bd eebd
000001c0: 0453 3ebe 4759 bfbc 53ec 21be 96be 0b3e
000001d0: 270b 6cbe d0ff c3bd 7df4 323d 07eb 2bba
000001e0: b07e 6ebd 17fc 873e abee cabd d282 9e3d
000001f0: fcbe b43d d225 203d 6c90 93bc 1910 003e
00000200: e6d1 693b ac27 123d daab 3ebe 7161 09bc
00000210: aafd 023e 5f0b 343d 0420 113e 89db af3d
00000220: 655e e23d 94df 0c3d c7b0 efbd 4fd2 943d
00000230: dc21 a53b fb19 ba3d 2b0c 6d3e c7f4 b7bc
00000240: 655a d03d 5733 293e ee2b 0bbe 0799 dfbd
00000250: 3ef8 d73d 0159 923e 65c0 253e 55bd 44bd
00000260: cdbf d2bc 98dc 31bd 70f1 0a3e 88fa 273e
00000270: 2694 8d3d 2c8f c2bd a372 3a3e f65b 15be
00000280: 8dca 8d3d ff1a 4fbc 5e1d 6ebe 0ffb 073e
00000290: 4628 023d 3e00 6e3e acf5 af3d ceba 3b3e
000002a0: 464b 06bd 0610 d43b e0d5 a13d d1b8 0b3e
000002b0: 3042 01bd 415e 293b e183 54be 0dd5 88bd
000002c0: 494a 96bd 914a 463d e37d ad3d 59fc 37bd
000002d0: eebf 59be 52d6 fdba c623 24bd 5191 493d
000002e0: e207 0b3e 0e2d 62be a511 6b3b 1158 4cbd
000002f0: d5c9 393e d9e5 3c3d a6a8 043e c310 073c
00000300: f80e 683e bbfd adbc bc3b ffbc bf61 9dbd
00000310: a713 11be 62b4 f23d f262 363e 815a 10be
00000320: 0521 c73c 60f8 6b3e 9947 b5bd 6c5b b8bd
00000330: 1cef 75be 7768 f0bd f897 b6bd b0d4 0ebd
00000340: 20cb 1a3e 2552 f8bc 9c49 84bc a7e5 213e
00000350: 2c0c 5e3d 18ac 0bbe e08d 1d3e 7b80 ab3d
00000360: 2818 4d3d 109f 4dbd 01dd f13d 3fc7 853d
00000370: cb39 c5bc 8368 1cbd 532f a83c 56b9 a83d
00000380: 9ba6 f3ba 9949 9a3d d651 0a3e 9250 e43d
00000390: d33e 6fbe 239a c83d e7fa ec3d 53ee acbd
000003a0: 1dee a43d 3d74 c03d 335d d93d 0d29 e73d
000003b0: b7b3 c0b9 ed3b 493e 86a0 5fbd b990 c93d
000003c0: e399 c33d c204 bfbd 4e7c 95bd 0a4b 923c
000003d0: b266 ee3d 3c33 443e 289e d8bd d7ba edbd
000003e0: 6a65 c4bd 03f9 13be cfec b6bd 6b10 12bd
000003f0: ead5 58be 430d c5bc c512 c03d 9394 f2bd
0.18264003 0.058885783 -0.0045999773 0.15137723 -0.23747376 -0.1925177 0.041285828 -0.17763738
0.03093462 -0.053117763 0.033492383 -0.06900465 0.11669949 0.005654914 -0.029941836 0.020237695
-0.021672323 -0.027171768 0.13525362 -0.043128684 -0.020722328 -0.18140227 -0.11492877 -0.100876294
0.034611747 0.06659516 -0.17279671 -0.11399843 -0.1008789 0.016272163 -0.24824932 0.0968664
-0.16612731 -0.05546914 0.1753134 -0.2578648 -0.11439403 -0.2686123 -0.12264656 0.21490684
0.1122191 0.0485483 0.03203597 -0.21307813 -0.014579652 -0.038427476 -0.030296057 -0.059868187
0.31269845 -0.10492743 -0.11377948 -0.12285863 0.10712346 -0.14360495 0.07730819 -0.06886865
-0.04242133 0.22735818 -0.2499137 -0.016876763 0.10956073 0.18878208 -0.041653335 0.039438725
-0.14382744 -0.11379817 0.13179934 0.37512052 0.08858071 -0.17277893 -0.17353824 0.13687329
-0.19319142 -0.058136996 -0.040731933 0.12573254 -0.21461387 0.036352035 0.17938279 -0.09390499
0.03767798 0.06144964 0.18253425 0.07740915 -0.05757031 0.24397509 -0.18460512 -0.098251924
0.007464318 0.2981541 -0.25331938 -0.13076505 0.03184328 0.26874036 -0.041728698 0.06814311
-0.170156 -0.054556474 -0.09303395 -0.052666362 -0.07284588 -0.10258076 0.07236438 0.16055964
-0.17626157 -0.004895211 -0.13361572 -0.23052163 -0.0034556156 -0.16471832 -0.004351472 -0.116571605
-0.18586355 -0.023358 -0.15812807 0.13646922 -0.2305113 -0.09570277 0.043690193 -0.0006558154
-0.058226287 0.26559517 -0.099088036 0.07739796 0.0882549 0.03909857 -0.018013202 0.12506141
0.0035678088 0.035682365 -0.18620244 -0.008385048 0.12792078 0.043956157 0.14172369 0.08586795
0.110531606 0.03439291 -0.117036395 0.07266676 0.0050394367 0.09086987 0.23149173 -0.022455586
0.101734914 0.16523491 -0.13590977 -0.109178595 0.10545395 0.2858353 0.16186674 -0.048032124
-0.025726223 -0.043423265 0.13568664 0.16404164 0.06913023 -0.09499964 0.18207793 -0.14585862
0.06923399 -0.012640714 -0.2325339 0.13279365 0.03177669 0.2324228 0.0859178 0.18332979
-0.03278663 0.0064716367 0.079021215 0.1364472 -0.031557262 0.0025843533 -0.20753433 -0.06681261
-0.073383875 0.048410956 0.084712766 -0.04491839 -0.21264622 -0.0019366241 -0.04007318 0.04921085
0.13577226 -0.220875 0.0035868671 -0.049888674 0.18143399 0.046117637 0.1295496 0.008243742
0.2266196 -0.021239152 -0.031156413 -0.07684659 -0.14167653 0.118508115 0.17811182 -0.14097025
0.024307737 0.23043966 -0.08851547 -0.09001812 -0.24016994 -0.11738675 -0.089157045 -0.034870803
0.15116549 -0.030312607 -0.016148381 0.15810262 0.054210827 -0.13639867 0.15386152 0.08374115
0.050071865 -0.050200522 0.11809731 0.06532144 -0.02407541 -0.038185608 0.020530378 0.08238475
-0.0018589081 0.07533569 0.1350778 0.1114818 -0.2336381 0.09795024 0.11571293 -0.08443894
0.08053229 0.09397171 0.106134795 0.11287127 -0.00036754992 0.19651766 -0.054596446 0.09842057
0.09550836 -0.09327079 -0.072991 0.017858047 0.11640681 0.1916017 -0.10577041 -0.116079025
-0.09589656 -0.14450459 -0.089318864 -0.03566019 -0.21175352 -0.024054175 0.0937858 -0.118447445

network_body._body_endoder.seq_layers.2.bias f4 [128]
00000000: 1c79 9f3d 9188 213d 9910 ac3d 8334 9d3d
00000010: d555 663d 81b8 963d 6bfb 103e be3c ac3d
00000020: 8fa0 873d f55f 1abc b114 5d3d 7203 dc3d
00000030: 85f0 3e3d 31ee 6d3d ff8b 283d 206c bd3d
00000040: 924e b83d d948 a13d ca6f bb3d f855 9d3d
00000050: f1f4 983d 535f af3d f274 a43d f8b7 713d
00000060: 8f61 be3d 7a81 bd3d b740 a73d 46e4 ae3d
00000070: f1ce 363d f4f7 8f3d fcdc 393d 2012 973c
00000080: 5379 9d3d bd07 6b3d 5927 a13d af88 a73d
00000090: 48ef a63d 9379 bc3d 0622 5e3d 9802 b43d
000000a0: a7e1 0f3d e32a 813d ee6c c03c 06ba b63c
000000b0: a11e a23d 6e88 303d 86a6 7e3d 6a8e 9c3d
000000c0: 4048 af3d f3f3 9a3d 2aec 913d 105b 643d
000000d0: 2033 793d eaf9 fb3d 083e b63d 4314 26bd
000000e0: c733 a73d 0b46 683d 88bd a33d 10fa a73d
000000f0: 9ed8 8c3d 1c64 c33d 12d3 973d 13ff d93d
00000100: acc1 b23d 1aa1 923d a243 783c 9459 8a3d
00000110: a60e 963d a045 f23c adbf 913d c3bf c63d
00000120: 1ac6 5b3d 4903 9d3d ece8 c13d 12e4 433d
00000130: fbab 8d3d 69c3 983d f50c 863d cbc9 b13d
00000140: 5660 393d d91c 703d 38cc b73d 91bf bb3a
00000150: 2b1c e83c 7d3c 893d ecb0 833d 95b7 2f3d
00000160: 9a4a ac3d da8a 7a3d e173 183e f92f af3d
00000170: 228c 903d 735c a43d 622b 863d 579e 873d
00000180: 0a4b b23d 7efc 623d 4d31 8c3d 5d02 a53d
00000190: aad2 a53d 9107 583d 5928 a13d d8e0 b43d
000001a0: b8d5 643d b523 3c3d 4bd3 72bc e207 4e3d
000001b0: 6c48 b43d 6a4a 453d 4251 603b 75d9 ac3d
000001c0: 2e2d 863d 157c 953d 6107 653d 3af9 a03d
000001d0: 7eba 01bd 84ac 7e3d 180a 073d 8e2a 243d
000001e0: a410 f43c b888 ad3d 86e6 8f3d 207b bc3d
000001f0: 2ab3 b33d e420 4d3d a4fd 8a3d d06b e33c
0.07786772 0.03943688 0.08401603 0.076760314 0.0562342 0.0735941 0.14158408 0.08410023
0.06622421 -0.009422292 0.05397481 0.10742845 0.046616096 0.058088485 0.041149136 0.09249139
0.08999361 0.07875223 0.091521814 0.07682413 0.07468594 0.085631035 0.08030118 0.059013337
0.092959516 0.09253211 0.0816664 0.085396335 0.04463095 0.07029715 0.045376763 0.01844126
0.076891564 0.057380427 0.07868833 0.08180367 0.08151108 0.09202876 0.054231666 0.08789557
0.03512731 0.06307008 0.023489442 0.0223055 0.07915998 0.04309886 0.062170528 0.07644351
0.085587025 0.07566061 0.07125123 0.055750906 0.060839772 0.12303527 0.0889855 -0.040546667
0.081641726 0.056707423 0.079951346 0.082019925 0.06877254 0.09540579 0.07413305 0.10644355
0.08728346 0.07159634 0.015152844 0.06755367 0.07327013 0.029574215 0.071166374 0.097045444
0.05365572 0.07666642 0.094682544 0.047824927 0.06917568 0.074591465 0.0654544 0.08681067
0.04525789 0.05862126 0.089744985 0.0014324059 0.028333744 0.0670099 0.064302295 0.042899687
0.084126666 0.061167575 0.14887954 0.08554072 0.07057978 0.08025446 0.06551243 0.06621998
0.08705719 0.055416577 0.06845341 0.080570914 0.080968216 0.05274159 0.07869024 0.08831948
0.05586788 0.04593249 -0.014820884 0.050300486 0.08802876 0.04816667 0.003422812 0.08439914
0.06551586 0.072990574 0.05591524 0.07860036 -0.031671993 0.062176242 0.03296861 0.040079646
0.029793091 0.08473343 0.07026391 0.09203172 0.08774407 0.050080195 0.06786659 0.02776137

action_model._discrete_distribution.branches.0.weight f4 [5, 128]
00000000: cb72 ffbb 7349 8fbd 543a 09bd d39e c7bd
00000010: ca6b 25bd 8491 6cbd a4ec e4bd fc42 99bd
00000020: e26a 18bd 6798 683d a700 4cbd 0e7a f5bd
00000030: 76e7 27bd bb4d 6fbd 088d 2339 2840 5bbd
00000040: 1469 eebd 09fc acbd a9e8 7dbd 1aea 11bd
00000050: 4fec d9bd f4c0 63bd d012 a9bc 14eb 83bc
00000060: 976a e9bd 6f42 c6bd 842e 9abd b11b 5ebd
00000070: 755c 4cbc fab9 23bd 0daf c13a 1b17 7a3d
00000080: 1662 78bd 410d 4836 99fa 6cbd af58 dcbd
00000090: 7699 b7bd 6c9d 93bd ad02 23bd 6160 b6bd
000000a0: dfdd 4abd 7756 17bd f6da 98bc ac50 5ebb
000000b0: 9097 f9bc f14d 6abd f549 c23c 1e2e cdbd
000000c0: 5a87 08bd be2b 82bd 39f2 92bd a9a0 1dbd
000000d0: 446d 70ba 3c75 f5bd 7f66 f0bd 7c25 833d
000000e0: 5b9d d4bc 8ea5 10bd aafe 7ebd 13c7 c3bd
000000f0: ce30 29bd 675e cfbd 321c 89bd 6a56 cbbd
00000100: d918 adbd 994b 9abd c1cf 873a d043 a3bd
00000110: 9f2a f9bc 9124 433b f042 86bd 7cd6 b7bd
00000120: f148 b3bd 9d4e cdbc 6d40 b7bd dfa5 1fbd
00000130: de2f 81bd 7e74 5abd cdb9 cabd 975d b9bd
00000140: 4f2e 1c3d 0e92 a1bd c9dd b1bd 5ecf 343d
00000150: 45b1 11bd b051 78bd f2a9 9abc 4e6f 52bc
00000160: 748e 9bbd ae47 64bd 9d38 0cbe fbf7 e5bd
00000170: 2037 94bd 470e 90bd 838f 41bd efd3 6abd
00000180: dcac edbd f7ed 9fbc 3636 9abd 89a5 93bd
00000190: 4248 efbd b892 2f3d a2e6 8ebd c6bb 8cbd
000001a0: b0a7 1d3c 2ba8 1ebd 3399 8f3c c33e 12bd
000001b0: 0283 c2bd 4efd 01bd 3677 3d3c 3522 e5bd
000001c0: 853c 57bd a8ca 68bd aede 783c bcf6 9fbd
000001d0: 1fe4 883d fdab 8cbd 3e72 71bd f414 6dbd
000001e0: cfd6 673d 29f2 1cbd 8484 49bd ab5d 2dbd
000001f0: bbd0 89bd 21e2 64bd ff12 1abc 45f9 013d
00000200: 0063 1b3e ad00 4bbd 76b6 163e 65ee db3d
00000210: da97 38bd 0a20 0cbe 0a17 8bbd d4e2 53bd
00000220: e79f 11be 347a 6ebb 3327 1b3e be93 883d
00000230: 635d 64bd a1da d53d ffb6 243e 375a f0bd
00000240: c7d6 e53d 0d7a c33d 2adf 0abe 89bd 0fbe
00000250: d3d2 c53d e968 08be 8700 1abe 834e 92bd
00000260: 9132 083e 9fb0 f93d 4b08 173e 8ffc bebd
00000270: 2a7b e4bd 452f 06be ff1f f33d 3def aebd
00000280: 19d5 a8bd 135d 10bd 253a 683d 1c67 aa3d
00000290: 1f5e b4bd 03a8 ccbd 0852 1d3e 58e2 95bc
000002a0: b591 163e 8f83 a33c c5bf b2bd ad07 22be
000002b0: df43 253e a149 6a3d ab50 653c 227c 9d3d
000002c0: 795c cfbd 7a3e 70bd 477d 6d3d cb2b c23d
000002d0: 54b9 ecbd b912 723d 8d38 af3d 1eef 863d
000002e0: 89d8 19be dabf 0bbe 7011 113e 1698 f93d
000002f0: 00e3 c73c a93a 9abd 140e 0f3e 6a2e 063e
00000300: 9ed6 c2bd 062a 0d3e 3798 e5bd 2bd4 123e
00000310: 09fd 103e 36fc fdbd dc8b 0f3e 12b5 bc3d
00000320: acd7 5f3d 7542 1d3e f815 b1bd 0c40 ddbd
00000330: f551 1b3e 9edf 163e 8828 8f3d 5d72 cc3b
00000340: 48db fcbd 41f6 c73d fc19 46bd e198 06be
00000350: b595 72bd b993 0dbe 3a58 783d 8198 12be
00000360: c450 1f3e e89b f2bd 84e9 613d 6bca 033e
00000370: 2569 0d3e 692f ae3d 3ffe 103e ea57 043e
00000380: 277c 9b3d 4665 44bb c4f4 043e 9a09 bcbd
00000390: df98 163e 5441 09be b844 0cbe 9987 9cbd
000003a0: 1e54 02be 8135 99bd e030 a3bd 0867 bb3c
000003b0: a2c3 073e d481 0dbe 55b8 e6bd bac8 043d
000003c0: f9d4 c9bd c447 bdbd 5b11 8c3c d96f bbbd
000003d0: b97c 75bd 45e2 c63d f566 083e 4b1f e73d
000003e0: f4f2 0abe ff7c e1bd c330 febd 01e5 18be
000003f0: 018d cdbd c569 053e d4ef 00be e39d 1a3e
-0.007795667 -0.06996431 -0.03350289 -0.0974709 -0.040386 -0.057755962 -0.11177948 -0.074834794
-0.037211306 0.056785967 -0.04980531 -0.11986171 -0.040992223 -0.05842374 0.0001559743 -0.05352798
-0.11641136 -0.084465094 -0.06198946 -0.035623647 -0.106407754 -0.055603936 -0.020638853 -0.016103305
-0.113972835 -0.0968064 -0.075284034 -0.054225627 -0.012473215 -0.039972283 0.0014776901 0.06105719
-0.060640417 2.9810037e-06 -0.057856176 -0.107591026 -0.08964817 -0.0720776 -0.039797474 -0.089051016
-0.049528 -0.036947694 -0.018659096 -0.0033922596 -0.030467778 -0.057203237 0.023716906 -0.10018562
-0.033332206 -0.063559994 -0.071751066 -0.038483296 -0.0009171555 -0.11985251 -0.117382996 0.06403634
-0.02595394 -0.035314135 -0.062254585 -0.09559455 -0.04130631 -0.10125428 -0.06694831 -0.099285915
-0.08452005 -0.0753395 0.0010361598 -0.079719186 -0.030415831 0.0029776434 -0.06555736 -0.089764565
-0.08754147 -0.0250619 -0.08947835 -0.038976546 -0.06307958 -0.05333375 -0.0989872 -0.09051054
0.0381301 -0.07889186 -0.0868488 0.044143073 -0.035569448 -0.06062478 -0.018879864 -0.01284392
-0.0759553 -0.05573242 -0.13693471 -0.11228939 -0.07237077 -0.07033973 -0.047256004 -0.057331022
-0.11605236 -0.01952265 -0.07529871 -0.07209308 -0.11683704 0.04286453 -0.069775835 -0.068717524
0.009622499 -0.038734596 0.017529106 -0.035704385 -0.09497644 -0.03173571 0.011564067 -0.11188165
-0.05254795 -0.056833893 0.01518981 -0.07810733 0.06684136 -0.06868742 -0.05894684 -0.05788131
0.05660134 -0.03831688 -0.049198642 -0.042325657 -0.06729265 -0.055879716 -0.009403943 0.031731863
0.15174484 -0.04956119 0.14718041 0.107388295 -0.045066692 -0.13684097 -0.06791504 -0.051729992
-0.14221154 -0.0036388757 0.15151672 0.066688046 -0.055753123 0.10442091 0.16085432 -0.11735957
0.11222606 0.09544764 -0.13561693 -0.14037146 0.09659352 -0.1332127 -0.15039264 -0.07143881
0.1330054 0.12191891 0.14749257 -0.093255155 -0.11156304 -0.1310397 0.11871337 -0.08541725
-0.0824377 -0.035245012 0.056696076 0.08320448 -0.08807015 -0.09992983 0.15363324 -0.018296406
0.1470402 0.019960193 -0.087279834 -0.1582324 0.16139172 0.057199124 0.0139962835 0.07689692
-0.1012506 -0.058653332 0.057980802 0.09481009 -0.11558786 0.059099887 0.08555708 0.06588577
-0.15024008 -0.13647404 0.14166808 0.12187211 0.024400234 -0.0753072 0.13970214 0.13103643
-0.09513591 0.13785562 -0.11210673 0.14338748 0.14159025 -0.12401621 0.14018196 0.09214224
0.05464904 0.15357383 -0.08646768 -0.108032316 0.15167983 0.1473374 0.069901526 0.006239219
-0.12346512 0.09763766 -0.048364624 -0.13144256 -0.059224803 -0.13825883 0.060631014 -0.14315988
0.15558153 -0.11846143 0.05515434 0.12870185 0.1380964 0.085051365 0.14159487 0.12924162
0.075920396 -0.002996759 0.12983996 -0.09181519 0.14706753 -0.13403827 -0.13698089 -0.07643051
-0.127274 -0.07480908 -0.079683065 0.022876278 0.13258222 -0.13819057 -0.11265627 0.03241799
-0.098550744 -0.09242204 0.01709812 -0.091521926 -0.059933398 0.09711126 0.13320525 0.112852655
-0.13569242 -0.11010169 -0.12411644 -0.14931108 -0.1003666 0.13028629 -0.12591487 0.15099292

action_model._discrete_distribution.branches.0.bias f4 [5]
00000000: 463e d6bd 7ba4 673c 3f38 a83c a650 203d
00000010: 3f0a 113d
-0.104610965 0.014138336 0.020534633 0.039139412 0.035410162

exp_avg f4 [128, 6]
00000000: 9cac e7b8 6a5d 253a 9c62 11b8 f72e f4b8
00000010: 0933 ad38 39bc 50b8 4784 58b9 2ae7 e639
00000020: 29fe fcb8 d9aa d2b8 75b3 0139 a7ca 0839
00000030: 8487 e9b8 3481 ae3a 149b f3b8 e3b2 a1b8
00000040: e932 9638 591e 17b9 ca2d 95b8 39d8 8b38
00000050: f78f 91b8 c385 6538 2fb5 4b39 ea92 b139
00000060: 7a6c b738 0762 20ba 62ce 0039 49da d338
00000070: 0b85 1cb9 8f01 e9b8 dfe0 1db7 f1e3 c438
00000080: 75d6 1eb8 0b03 7bb8 4981 51b8 1b36 a3b8
00000090: 2703 45b6 a311 853a fb92 eab8 bcfe eeb9
000000a0: 4e43 a638 4e59 8338 3b93 02b9 4304 09b9
000000b0: 6de5 71b8 e2f0 ddb7 85b1 d338 5c14 8fb9
000000c0: 4024 00b9 9af6 013a 3c98 a138 006a 8fb9
000000d0: b253 2e39 cb66 45b9 5d50 6ab9 76df 3b3a
000000e0: 0171 6737 7a4a 0dba d8b3 2d39 9efb 3eb9
000000f0: 0e67 2bb8 c943 85b9 ea36 37b9 51e9 39b7
00000100: a4b9 6b39 b08c bb39 a8b2 0b38 87ad 0dba
00000110: e880 feb7 dab5 aa39 2f03 6bb9 d782 49b9
00000120: d265 be37 e246 c2b9 10f9 9b38 1e8c 1e3a
00000130: 2a15 5439 c10a b239 f825 4339 701e 85ba
00000140: b1c7 5b39 079b 9039 de98 91b9 80d1 c0b8
00000150: cc0c b338 70d7 87b8 1dbb 3039 3047 9637
00000160: 0a91 a0b4 b9f9 75b9 ca52 b2b8 0944 d039
00000170: 1099 9538 669e 9eb9 5f23 9838 2d1f 5b38
00000180: b7b8 bd39 ebbb 43ba 60b5 fc38 b2bf be38
00000190: f13f 5fb9 4d4c b038 102d 1f39 99f5 9638
000001a0: e147 2a39 2f7b 72b9 76b1 1fb7 70e0 90b8
000001b0: 1c23 abb8 beee 80b9 f5e0 dab8 9f0e a138
000001c0: 0045 8839 81f5 b239 ba07 7538 6838 9f39
000001d0: de84 f136 c611 d5b9 efda 8538 abee a0b7
000001e0: 6e1b 40b9 6057 163a 05fb c9b8 dba5 c3b9
000001f0: 0f14 ad39 2baf 95b9 2be7 5939 0ffe e8b9
00000200: 2858 7838 9434 eb38 99e0 b9b9 f3fb 4eb9
00000210: 070c 3a38 b4d5 a6b9 03ce b638 23b2 a638
00000220: 9c76 5cb8 c107 c037 fccf d2b8 8398 313a
00000230: 50c5 8ab8 1d19 cfb9 89a2 2238 6098 54b8
00000240: bb86 c137 84a2 96b9 ed9a d937 fc60 f238
00000250: a3bc d9b8 59dd 20b8 1383 43b8 e1f2 4c39
00000260: 2d1c a5b8 aedd eeb8 246f f438 d660 3a39
00000270: 34f1 5bb9 0447 3cb9 0511 ddb8 2a24 73b8
00000280: 5ee7 7939 a490 bfb9 d2ee 7638 b9f0 d9b8
00000290: d8d8 acb8 e3e5 e737 e1ff 0ab9 7dfb 79b9
000002a0: b241 9c39 774f 88ba a34c 9b38 19f5 e939
000002b0: 1a50 bbb9 683f 4436 7e73 3739 1df9 ef36
000002c0: 3d42 3339 8640 f8b8 c783 51b8 d388 99b8
000002d0: b5a4 c638 d79b 02b9 4faa df38 c485 1cb8
000002e0: def0 90b8 0325 9cb9 fc81 8fb7 23ac 3739
000002f0: 5fbc 7bb7 15d7 9d38 9872 8738 11dd 9639
00000300: 4e24 8f37 4edd 5739 bfa0 4139 1dd5 76b9
00000310: 5ba0 4239 0d53 3db9 1f1b 71b9 7958 7338
00000320: a610 3738 7071 b6b8 6df2 a239 a382 5b39
00000330: 13b7 b7b7 542f bdb9 caa1 af38 47d7 023a
00000340: 690c 0839 5c32 8939 0b8c 0739 55ef 6a38
00000350: 0c80 8439 c298 1fb9 6356 0839 84ba adb9
00000360: 7b40 6a39 192e 20ba 52bf 3339 6e0b 2c37
00000370: 1375 17b9 cd3c f937 58ba 1e39 3d98 28ba
00000380: 302f 0f39 d376 8639 762b 9eb9 941d b5b8
00000390: 72d4 7539 5a31 5939 36af 7a39 b8c5 2bb9
000003a0: d2cf c038 7344 37b9 9ab2 abb8 f7a5 133a
000003b0: 1ee1 99b8 1531 64b9 9110 3039 762d 1639
000003c0: 77a5 7b37 6c05 e539 d2d2 5cb7 3c27 70b9
000003d0: 8dfb 3b38 ad1c 45b7 6881 dab8 b41a 183a
000003e0: b20a acb8 82cf fdb9 f808 dd38 adbd ca38
000003f0: b32d 7339 b3fc 5cba ac93 0139 2bbf b039
-0.00011047089 0.000630817 -3.466253e-05 -0.000116435745 8.258789e-05 -4.976636e-05 -0.00020648642 0.0004404125
-0.000120636374 -0.00010045403 0.00012369252 0.00013045465 -0.000111355475 0.0013313652 -0.000116160285 -7.7103985e-05
7.16204e-05 -0.00014411788 -7.1134025e-05 6.668311e-05 -6.940954e-05 5.472243e-05 0.00019427085 0.0003386953
8.746325e-05 -0.0006118123 0.00012283915 0.00010101923 -0.00014926882 -0.00011110596 -9.410286e-06 9.388466e-05
-3.7869864e-05 -5.9845897e-05 -4.994989e-05 -7.7825236e-05 -2.9357122e-06 0.0010152351 -0.00011185367 -0.0004558469
7.928033e-05 6.263201e-05 -0.00012452614 -0.00013066926 -5.7672547e-05 -2.6457423e-05 0.000100943296 -0.00027290254
-0.00012220535 0.0004957706 7.705434e-05 -0.00027354062 0.00016625112 -0.00018825677 -0.00022345917 0.0007166782
1.3794984e-05 -0.0005389821 0.00016565563 -0.00018213547 -4.0865554e-05 -0.0002541824 -0.00017472697 -1.10811825e-05
0.00022480503 0.0003577224 3.330657e-05 -0.0005404581 -3.0339186e-05 0.00032560417 -0.00022412532 -0.00019217595
2.2697179e-05 -0.00037055375 7.4373675e-05 0.0006048101 0.0002022578 0.00033958818 0.00018610794 -0.0010156166
0.00020959858 0.00027581325 -0.0002777045 -9.194296e-05 8.537769e-05 -6.47743e-05 0.00016854373 1.7914543e-05
-2.9907852e-07 -0.0002345805 -8.503122e-05 0.00039723542 7.133384e-05 -0.00030254124 7.254513e-05 5.2242704e-05
0.00036186512 -0.00074666616 0.0001205008 9.095612e-05 -0.00021290757 8.406546e-05 0.00015180209 7.1983035e-05
0.0001623924 -0.00023124808 -9.518457e-06 -6.90826e-05 -8.160455e-05 -0.0002459194 -0.000104369516 7.679802e-05
0.0002599135 0.0003413372 5.8419748e-05 0.0003036887 7.1978275e-06 -0.00040639768 6.382714e-05 -1.9184625e-05
-0.00018320765 0.0005735066 -9.631183e-05 -0.0003731687 0.00033012076 -0.00028550005 0.0002078085 -0.00044439777
5.920991e-05 0.00011215467 -0.00035453288 -0.0001973955 4.4357057e-05 -0.00031821209 8.716809e-05 7.9486774e-05
-5.256255e-05 2.2891794e-05 -0.000100523204 0.000677474 -6.617105e-05 -0.00039500828 3.8775182e-05 -5.068665e-05
2.3070132e-05 -0.00028731313 2.5940559e-05 0.00011557524 -0.00010382503 -3.835312e-05 -4.6613695e-05 0.00019545435
-7.873061e-05 -0.000113900154 0.00011655528 0.00017774416 -0.00020975323 -0.00017955533 -0.00010541271 -5.7969395e-05
0.00023832681 -0.00036538125 5.887339e-05 -0.000103922044 -8.2419894e-05 2.7644395e-05 -0.00013256028 -0.00023840177
0.00029803585 -0.0010399659 7.405251e-05 0.00044623835 -0.000357271 2.9243183e-06 0.00017495264 7.1517557e-06
0.00017095446 -0.0001183758 -4.995221e-05 -7.321094e-05 9.472055e-05 -0.00012455821 0.00010665191 -3.7317877e-05
-6.91132e-05 -0.00029782215 -1.7107457e-05 0.00017516366 -1.5004624e-05 7.5264055e-05 6.4586464e-05 0.00028774937
1.7063834e-05 0.0002058644 0.00018465797 -0.00023539779 0.00018561019 -0.00018055383 -0.00022993654 5.801811e-05
4.3646105e-05 -8.699566e-05 0.0003107967 0.00020934133 -2.190055e-05 -0.0003608415 8.374786e-05 0.0004991185
0.00012974594 0.00026168197 0.00012926773 5.6012843e-05 0.00025272404 -0.00015220328 0.00013002152 -0.00033136096
0.0002234 -0.0006110385 0.00017142043 1.025466e-05 -0.00014444096 2.9711426e-05 0.00015137473 -0.00064313767
0.00013655121 0.00025647003 -0.0003016849 -8.636262e-05 0.00023444163 0.00020713118 0.00023907129 -0.00016381487
9.193983e-05 -0.0001747774 -8.1871825e-05 0.00056323357 -7.33754e-05 -0.00021762059 0.0001679084 0.0001432205
1.4999291e-05 0.00043682323 -1.3162107e-05 -0.000229028 4.481855e-05 -1.1748792e-05 -0.00010419154 0.0005802319
-8.203591e-05 -0.00048410526 0.00010539772 9.6674405e-05 0.0002319131 -0.0008429989 0.00012357411 0.00033711767

exp_avg_sq f4 [128, 6]
00000000: ce10 4935 e933 4a36 6605 1f34 22e3 d634
00000010: 5cf1 bb33 7eea 9c33 ca8d c135 1536 1336
00000020: 8aba f035 d715 3235 46be 4c34 7263 3f34
00000030: a4a5 7d36 e9fb 8037 00b8 2736 cf99 3835
00000040: 8157 0f35 5aad ed34 227d d335 9b8d a635
00000050: 0988 a136 841a c435 f11f 7c34 f1b5 6534
00000060: f53c da34 c226 0236 a126 c634 1c71 3a34
00000070: ef16 ad33 89c1 a033 2c6e a232 66af 0c34
00000080: 0f22 fb34 9017 b834 e512 9d32 766b 9332
00000090: 71c0 2036 2e7f f136 cb26 2235 08c3 0936
000000a0: 523d 8234 739e 5a34 0a0a af35 43e5 fd34
000000b0: eb57 ae35 3ba5 f035 e021 4734 e971 5334
000000c0: 058b f635 627c 3636 3788 c935 dcc3 0136
000000d0: bf58 4234 c97c 3534 aeb9 6c36 8844 7036
000000e0: 1e45 2036 7e92 6236 8733 9934 892c 8334
000000f0: e614 e235 c754 ac36 a60b 0137 0f88 0637
00000100: 6c1a f934 4c94 db34 4192 f635 f0b3 c235
00000110: fd6e 3635 5f33 4636 8a3f 7134 9971 4a34
00000120: d0cb a835 4a4b f635 9941 a736 30fb 1d37
00000130: 1944 f234 63bb cc34 62f2 1b36 98ab ca36
00000140: e03f 9935 8872 a635 5404 7c34 052e 6334
00000150: 48f1 bc34 2532 b035 e3ee 1136 e43c 0c34
00000160: 4bd3 0534 a265 0e34 61f9 7a36 5ec0 b435
00000170: 6397 fd34 b13e 0735 88f0 0334 dda5 cb33
00000180: a00f 7236 6e11 8b36 f80d 1a36 d6c5 ef35
00000190: a760 7234 8afc 5834 4635 ec34 2129 b135
000001a0: 9c79 2336 bf0d 4336 2f44 3334 e4e4 3b34
000001b0: af22 5f35 f35c 5f36 6b04 bc36 b325 b836
000001c0: 0fc1 bc34 211a a134 adb9 8034 b454 6335
000001d0: 2b43 a435 1b27 2136 d07e c333 32ff a933
000001e0: 7fed b634 9ec5 7e36 156b f735 08b3 fe36
000001f0: 095b b634 cc90 c634 bd0f b436 ed4c 3736
00000200: 33dd 4536 ac45 2135 bd65 b834 122f a434
00000210: d77b 9a33 72cf 2735 d461 8e34 d85c 5534
00000220: 2519 1533 c59e 0933 64b5 8c35 d02d 5436
00000230: d31d 8034 4aed b835 5877 0534 85de e433
00000240: 31ab 2934 175e 2935 10af ba34 94ed 6f33
00000250: cf6a 2f33 1fe8 1e33 2f12 3e35 8863 de35
00000260: 7116 0636 2949 b435 5fb7 1a34 f203 1134
00000270: 35f3 8e35 0aa4 6735 c338 c235 ca28 7636
00000280: 708f b234 d26a c934 9fa1 4b35 3398 8535
00000290: 9250 da36 b7fc 8d36 a001 ae34 9e1b a734
000002a0: 96a4 f836 1ab8 ee36 18d4 2436 d920 0236
000002b0: 0310 d234 b29e b634 a2cd d233 ddea 2435
000002c0: 684f e734 bf79 4234 3872 8d33 ecf4 8433
000002d0: 5c6c c535 9c26 2836 b5ef d836 e6b6 4c36
000002e0: 2ac6 c334 7044 cc34 450a 5435 f6b7 7134
000002f0: aec0 a633 51db 5835 9cd9 d533 1294 e733
00000300: 31f7 0436 4f3d a935 49d4 0336 e488 3c36
00000310: 8c3b 4b34 8a14 6334 1590 b336 90a4 a435
00000320: 07de bc36 d168 0336 8205 bb34 2e29 ac34
00000330: 7370 ed34 d099 c435 74b9 9036 aeca 9f36
00000340: 5831 9334 c8c0 8234 d9ca 0136 51e2 ac36
00000350: 5121 2a37 024a 1637 11f5 2935 ccca 3735
00000360: 1b1a 5d35 b510 2736 9284 1635 06f7 9d34
00000370: 8d90 f733 5b89 d933 ffd3 2636 c076 8136
00000380: 6058 1936 95e3 9e35 5488 9434 4cc9 8c34
00000390: a974 8335 50b0 e535 bd77 9b36 19db a235
000003a0: 3da4 5f34 9aff 7d34 5f1d 7435 702f 3936
000003b0: c6d7 b035 2d7a 2136 0e5d 6434 cf6d 4d34
000003c0: d03c 0335 5911 d735 af85 eb34 71f9 f634
000003d0: 1a1c 9a33 d997 8633 e455 0d36 4e76 a936
000003e0: 9d83 aa36 52a2 8c36 da9e 0235 eb90 f334
000003f0: a7d0 3d36 e3d4 9336 ee1d 3d36 d711 5236
7.490279e-07 3.0130561e-06 1.4809993e-07 4.0025867e-07 8.751769e-08 7.30697e-08 1.4420887e-06 2.1936187e-06
1.7935683e-06 6.634195e-07 1.9068202e-07 1.7824439e-07 3.7796353e-06 1.5376094e-05 2.4992041e-06 6.876916e-07
5.3398986e-07 4.427082e-07 1.5757144e-06 1.2409176e-06 4.8140105e-06 1.4610855e-06 2.3480949e-07 2.1393477e-07
4.0650016e-07 1.939407e-06 3.690848e-07 1.7363749e-07 8.060112e-08 7.4857844e-08 1.8909383e-08 1.3102326e-07
4.6777174e-07 3.4289815e-07 1.8285798e-08 1.716192e-08 2.3953874e-06 7.1971654e-06 6.0406154e-07 2.0528114e-06
2.4259003e-07 2.0360476e-07 1.3041438e-06 4.7291732e-07 1.2989598e-06 1.7929482e-06 1.8545643e-07 1.9692347e-07
1.8368888e-06 2.7192514e-06 1.5015311e-06 1.9336503e-06 1.8099944e-07 1.6902335e-07 3.527482e-06 3.5802677e-06
2.388209e-06 3.3761894e-06 2.8535962e-07 2.4433055e-07 1.6844394e-06 5.135869e-06 7.691711e-06 8.018701e-06
4.639909e-07 4.089983e-07 1.8370994e-06 1.4506495e-06 6.796179e-07 2.95342e-06 2.246799e-07 1.8854043e-07
1.2576293e-06 1.835034e-06 4.9846244e-06 9.416413e-06 4.512556e-07 3.8134303e-07 2.3237885e-06 6.0400453e-06
1.1417978e-06 1.2401297e-06 2.3470903e-07 2.1157764e-07 3.5193284e-07 1.3127616e-06 2.1745734e-06 1.3060668e-07
1.2463458e-07 1.3261754e-07 3.739806e-06 1.3467031e-06 4.723507e-07 5.0382647e-07 1.228783e-07 9.4830945e-08
3.6069905e-06 4.144552e-06 2.295592e-06 1.7864465e-06 2.2573168e-07 2.0208441e-07 4.3997187e-07 1.3199498e-06
2.4359679e-06 2.9065266e-06 1.6695479e-07 1.7499002e-07 8.3124445e-07 3.3283693e-06 5.603351e-06 5.488016e-06
3.5158197e-07 3.0007598e-07 2.3976955e-07 8.468735e-07 1.2238501e-06 2.4013632e-06 9.103462e-08 7.9160955e-08
3.4072943e-07 3.7963978e-06 1.8434099e-06 7.590632e-06 3.3966379e-07 3.6985728e-07 5.36625e-06 2.7313902e-06
2.9484042e-06 6.007856e-07 3.4346695e-07 3.058163e-07 7.19371e-08 6.251422e-07 2.652074e-07 1.9870947e-07
3.4714635e-08 3.20422e-08 1.0483604e-06 3.1617128e-06 2.3863558e-07 1.3778129e-06 1.2430007e-07 1.06575534e-07
1.580163e-07 6.3094325e-07 3.4772575e-07 5.58626e-08 4.0842504e-08 3.6998355e-08 7.0806976e-07 1.6569256e-06
1.9980619e-06 1.3432337e-06 1.4409078e-07 1.3505613e-07 1.0650607e-06 8.6292914e-07 1.4470646e-06 3.66806e-06
3.3259448e-07 3.751689e-07 7.585858e-07 9.953568e-07 6.506286e-06 4.2315473e-06 3.2411208e-07 3.1126268e-07
7.4101363e-06 7.114385e-06 2.456136e-06 1.939063e-06 3.9127198e-07 3.4015608e-07 9.8162914e-08 6.143653e-07
4.308488e-07 1.8111949e-07 6.5866004e-08 6.19128e-08 1.470918e-06 2.5056424e-06 6.465207e-06 3.050483e-06
3.6465764e-07 3.8047756e-07 7.89911e-07 2.2511799e-07 7.7650256e-08 8.078542e-07 9.958168e-08 1.07837096e-07
1.9813417e-06 1.2609324e-06 1.9644087e-06 2.8093864e-06 1.8927511e-07 2.1148495e-07 5.351389e-06 1.2266846e-06
5.628684e-06 1.9581532e-06 3.4835472e-07 3.206746e-07 4.4226508e-07 1.4647903e-06 4.313124e-06 4.7621643e-06
2.7416786e-07 2.4354654e-07 1.934057e-06 5.152346e-06 1.0140547e-05 8.957928e-06 6.3314025e-07 6.846792e-07
8.2366904e-07 2.4894664e-06 5.607227e-07 2.9423262e-07 1.15281274e-07 1.0129835e-07 2.4859326e-06 3.858324e-06
2.2850218e-06 1.1838152e-06 2.766634e-07 2.6223495e-07 9.794213e-07 1.7113143e-06 4.6332993e-06 1.2133706e-06
2.0828243e-07 2.3655448e-07 9.0939824e-07 2.759476e-06 1.317582e-06 2.4061985e-06 2.1268008e-07 1.9132061e-07
4.8889797e-07 1.6023797e-06 4.386943e-07 4.6002563e-07 7.1762955e-08 6.267482e-08 2.1060632e-06 5.050365e-06
5.0817166e-06 4.1912217e-06 4.8659933e-07 4.536772e-07 2.8284646e-06 4.4057247e-06 2.8180616e-06 3.1302823e-06

exp_avg f4 [128]
00000000: e8f7 7fba cdaa 4c39 a102 dbba 7738 193a
00000010: 7e47 1cb9 371e 6ab9 56ed 42ba 5bb4 9fba
00000020: aadf 12bb 9c5c 2abb 1aaa 843a eba9 4c38
00000030: 2e1e 393b 8f31 0139 f03e a5ba 0197 a2ba
00000040: 97e2 003a 3728 aeba f577 973a 991a a6ba
00000050: fb76 5cbb 031f 8339 5f27 0c39 6d0b acba
00000060: c2e3 003a 7737 92b8 7cbc 15bb 4997 90ba
00000070: 4f76 c93a 955c 93ba 0d9a abba 9e68 973a
00000080: 64c8 00bb 24cd 55ba cc91 1a3b 3251 43bb
00000090: 465c 82b8 093a eb39 07bc cbba 6fce b2b7
000000a0: 60ce 0bba 9507 97ba 335d 703a e432 973a
000000b0: db89 353a 4b64 033a 582d fd3a 079b be3a
000000c0: 0c2f 003b 82de 65b9 550c a6ba bdb1 f6b8
000000d0: 03db e93a a106 8cba efbc 62bb 2d92 a0b7
000000e0: 11fd c538 1c9f 2339 37e5 e83a da30 833a
000000f0: 753d b4ba 01ac ebba 4aa4 64bb 3828 7bba
00000100: 3ebe 893a 7305 b0ba 243f 893a b14a b7b9
00000110: 48ce e83a 0048 11b8 38fb ddba 533f 4eba
00000120: cfa4 4abb 8b6c fdba ef50 4f3a 036c 65ba
00000130: a1fc c339 ec0d 0b3b 8f52 c03a 3d26 1b3a
00000140: b92e 9b3a e423 1fba d15a 633a 1ca2 d93a
00000150: 7a99 053b f2a8 e5b8 796e 18ba 2b1d c6ba
00000160: f621 37ba 7119 a83a ba3c a6ba dc8f bdba
00000170: f463 c6ba f8b8 34bb 7b11 d7ba 040a 873a
00000180: 6f7d fcba db15 28bb 4b4e 2eba e225 35b9
00000190: abc1 36bb 248f d53a dc92 0a3b 1567 983a
000001a0: 2206 b8ba 581b 043b 55ed 15bb e85d 993a
000001b0: 09eb fe3a 3420 f838 c203 feba 7426 ee35
000001c0: dac6 db3a c1b9 b4ba c0cc d13a 3495 2d3b
000001d0: 56e5 05b9 4d51 b6ba 1526 71ba a47a 943a
000001e0: b93d 2f3a 15c5 2cba 21fd 16bb 566d 85ba
000001f0: d0d5 95ba a6db 78ba 9733 a739 8b00 94b9
-0.0009764419 0.00019518584 -0.0016709157 0.0005844901 -0.00014903952 -0.00022327235 -0.00074358785 -0.0012184487
-0.0022411146 -0.002599514 0.0010121495 4.879564e-05 0.0028246748 0.0001232086 -0.0012607258 -0.0012404622
0.0004916577 -0.0013287131 0.0011556136 -0.0012672722 -0.0033640254 0.00025009373 0.00013366107 -0.0013125964
0.0004916751 -6.972154e-05 -0.002284794 -0.0011031415 0.0015370342 -0.0011242802 -0.0013092175 0.0011551564
-0.0019650692 -0.00081558735 0.0023585437 -0.0029803035 -6.21607e-05 0.00044865932 -0.0015543707 -2.1315382e-05
-0.00053331815 -0.0011522645 0.0009169161 0.0011535552 0.0006925144 0.0005012198 0.0019315882 0.0014542051
0.0019559292 -0.00021922032 -0.001266847 -0.000117633004 0.001784176 -0.0010683128 -0.0034597476 -1.9141555e-05
9.440829e-05 0.00015604164 0.0017768507 0.0010009066 -0.0013751226 -0.0017980338 -0.0034887963 -0.0009580883
0.0010508967 -0.0013429358 0.0010471088 -0.0003496013 0.0017761672 -3.463775e-05 -0.0016935831 -0.00078677124
-0.0030920987 -0.0019334716 0.00079084834 -0.0008751752 0.00037381522 0.0021218015 0.0014673042 0.0005918479
0.0011839486 -0.0006070717 0.00086728955 0.0016604098 0.0020385669 -0.000109510394 -0.00058148016 -0.0015114894
-0.00069859566 0.0012824965 -0.0012682893 -0.0014462429 -0.001513599 -0.002757607 -0.0016408408 0.0010302668
-0.0019263456 -0.0025647792 -0.000664924 -0.00017275618 -0.0027886431 0.001629327 0.0021144664 0.00116274
-0.0014039914 0.00201579 -0.0022877057 0.001170096 0.0019448708 0.0001183156 -0.0019379782 1.7743573e-06
0.0016767636 -0.0013788269 0.0016006455 0.0026486637 -0.00012769303 -0.0013909728 -0.0009199095 0.0011328054
0.00066849176 -0.0006590647 -0.002303906 -0.0010179679 -0.0011431519 -0.00094931794 0.0003189116 -0.00028229164

exp_avg_sq f4 [128]
00000000: 44f5 0937 2b7b 5837 691c 1f38 b642 8f37
00000010: c532 c236 b975 e335 9653 7837 6361 7437
00000020: 775b 8a37 a947 d137 1487 f737 a136 7637
00000030: cd2b 0c38 22f6 8837 4cf4 1037 bd04 1d37
00000040: f6e6 8037 9469 0c37 6d88 c737 8fa5 b736
00000050: 79ff f437 5e16 b337 ab28 e835 a592 1237
00000060: 4450 6036 58b8 2537 c8ff df37 ed3a cd37
00000070: baaf 1238 49c9 0836 bc16 cd37 651d 0337
00000080: a445 7437 4a4d cc37 4a22 bd37 9345 3038
00000090: 9ecb c136 114b 8137 4267 5437 8fe7 7d37
000000a0: 18b6 9d36 6455 fe37 fa11 b037 383a 6e37
000000b0: ca52 5036 f669 9736 83fb 6437 38c2 0e37
000000c0: 1f7c b537 6c9a e536 869c 6d37 c21c 7236
000000d0: 0171 a937 6ff7 7937 e18b e337 7c13 0637
000000e0: 6244 9d36 7bb1 5635 bc5d 2d38 6efd 9337
000000f0: d05d bd37 a99c 0938 d1df 1d38 cdf5 9f36
00000100: 78fb d137 9e71 4b37 c009 f735 4207 8337
00000110: 8b13 b837 cea0 e537 7807 7e37 2588 4237
00000120: 40af fb37 f696 c737 cc9f b035 2e0d 8a36
00000130: b699 d236 24ff 0a38 3842 bc37 0963 cd36
00000140: a932 b537 1f15 1e36 2155 8737 7a0c e037
00000150: af82 0a38 3ef5 a937 04c8 b337 c7a0 4937
00000160: 32dc bf35 2468 e837 eb8b c337 ca6a a137
00000170: 7aed 3837 9102 1538 6280 be36 08ee 3237
00000180: 29f7 1b37 01e1 ab37 226a 2436 c0fc 0737
00000190: 3c38 e837 83ee 9f37 9e93 0038 b7fa 7836
000001a0: b819 9437 d8cd c737 42ae c637 ae3c 0538
000001b0: cc3e 4937 cd05 5337 ca14 9c37 0690 8b37
000001c0: 5c0c 0d38 75e4 7637 7208 fa36 15d5 f737
000001d0: 55ba b636 66a0 a536 fb82 be36 ddb4 1936
000001e0: 2211 6037 c7bc 8137 df3e c237 7479 dc36
000001f0: c62e c437 8a95 3836 890b 5b37 870a ad36
8.222942e-06 1.2903281e-05 3.7935013e-05 1.7077993e-05 5.787561e-06 1.694708e-06 1.4801413e-05 1.4566208e-05
1.6493474e-05 2.494811e-05 2.9507595e-05 1.4675462e-05 3.3419394e-05 1.6327078e-05 8.639949e-06 9.359032e-06
1.5366339e-05 8.369232e-06 2.3786177e-05 5.4730986e-06 2.920603e-05 2.1348878e-05 1.7297183e-06 8.7364215e-06
3.3425322e-06 9.877687e-06 2.6702779e-05 2.4465344e-05 3.497277e-05 2.0382743e-06 2.444849e-05 7.815052e-06
1.4559748e-05 2.4354686e-05 2.2546523e-05 4.2026466e-05 5.7755524e-06 1.5412954e-05 1.2660226e-05 1.5133889e-05
4.700163e-06 3.0318923e-05 2.0989206e-05 1.4199461e-05 3.1042605e-06 4.512486e-06 1.3648419e-05 8.50908e-06
2.163468e-05 6.842709e-06 1.4162744e-05 3.607755e-06 2.0198991e-05 1.4899167e-05 2.7125645e-05 7.991559e-06
4.6869254e-06 7.997948e-07 4.133371e-05 1.7641778e-05 2.257424e-05 3.2809246e-05 3.7640162e-05 4.7671842e-06
2.503184e-05 1.2126196e-05 1.8405772e-06 1.5619797e-05 2.194361e-05 2.7373808e-05 1.5141319e-05 1.1595e-05
3.0003139e-05 2.3792945e-05 1.3159529e-06 4.114255e-06 6.276382e-06 3.3139382e-05 2.2442182e-05 6.1210053e-06
2.1600472e-05 2.3556129e-06 1.6132895e-05 2.670869e-05 3.3023472e-05 2.026057e-05 2.1431602e-05 1.20179675e-05
1.4294694e-06 2.770505e-05 2.3310966e-05 1.9242423e-05 1.10225465e-05 3.552676e-05 5.677387e-06 1.0665048e-05
9.296266e-06 2.0489564e-05 2.4499682e-06 8.105475e-06 2.7682741e-05 1.9065343e-05 3.0655057e-05 3.7100815e-06
1.7654951e-05 2.3818502e-05 2.3684584e-05 3.1766183e-05 1.1995155e-05 1.2577931e-05 1.860633e-05 1.6637157e-05
3.362853e-05 1.4715934e-05 7.4515638e-06 2.9543919e-05 5.4457146e-06 4.936056e-06 5.6776894e-06 2.2904053e-06
1.33554295e-05 1.5465905e-05 2.3155879e-05 6.57065e-06 2.3386801e-05 2.750518e-06 1.3056103e-05 5.1570273e-06
