Scenes/ImprovedGridWorld2D/results/ppo-no-memory-curriculum/DroneGrid2D/DroneGrid2D-899799.onnx (onnx, 77147 bytes, 6 tensors)

network_body._body_endoder.seq_layers.0.weight f4 [128, 6]
0	0xbe6c4d8b	-0.23076455
1	0x3ee70dc9	0.45127705
2	0xbf17a7f6	-0.59240663
3	0xbead498f	-0.33845183
4	0xbf075b99	-0.5287414
5	0x3e4d718e	0.20062849
6	0xbde3588b	-0.111008726
7	0x3c27b291	0.010235445
8	0x3d193ba0	0.03741038
9	0xbe8eec36	-0.2791459
10	0xbee7f1a8	-0.45301557
11	0xbebd58b2	-0.36981732
12	0xbe6de6ce	-0.23232576
13	0x3f1b101d	0.6057146
14	0xbdb0fa3b	-0.08641478
15	0xbf2c9d03	-0.6742708
16	0xbfac8e26	-1.348088
17	0x3e6694fc	0.2251777
18	0x3ea60f9f	0.32433793
19	0xbde1c030	-0.11022985
20	0x3eacf448	0.33780122
21	0xbef20955	-0.47272745
22	0xbe8529bf	-0.26008412
23	0xbf4d3eb7	-0.8017382
24	0xbeada066	-0.33911437
25	0x3eff103d	0.49817076
26	0xbeccbd4c	-0.39988172
27	0xbea5c93c	-0.32380092
28	0x3ea9f0e7	0.33191606
29	0x3e36085c	0.17776626
30	0xbf0eb7c3	-0.5574915
31	0xbd8757d1	-0.066085465
32	0x3ea326c8	0.31865525
33	0xbcba986d	-0.02277776
34	0xbdb66cb9	-0.08907456
35	0x3e6698bc	0.22519201
36	0x3e014219	0.1262287
37	0x3fa86083	1.3154453
38	0xbe0c2d74	-0.13689214
39	0x3f1842d4	0.5947697
40	0xbf61dcf4	-0.8822777
41	0x3c7fdbca	0.015616367
42	0x3e04dfbc	0.12975973
43	0xbed25cb9	-0.41086367
44	0xbe9ca788	-0.30596566
45	0xbe9f504d	-0.31115952
46	0x3eb6e0ef	0.35718486
47	0x3f64e595	0.89412814
48	0x3e8b0559	0.27152517
49	0x3dad2a53	0.08455338
50	0xbe3fafd6	-0.1871942
51	0xbe44f026	-0.19232234
52	0xbe8a2815	-0.26983705
53	0x3ef14c3b	0.47128472
54	0x3e247e09	0.16063704
55	0xbe1f9bd2	-0.15586784
56	0xbdead1cb	-0.11465796
57	0x3d2d5b60	0.04232347
58	0xbed4089e	-0.41412824
59	0x3ecc2885	0.39874664
60	0x3e07e799	0.13271941
61	0x3f45bbdb	0.7723977
62	0x3e887dd2	0.26658493
63	0x3e4d4b89	0.20048346
64	0xbe757d10	-0.23973489
65	0xbf7aef19	-0.98021084
66	0xbdfc0d6a	-0.12307246
67	0xbe6169a2	-0.22012952
68	0xbebd90c8	-0.37024522
69	0x3ef31474	0.47476542
70	0x3f1d24ad	0.6138409
71	0x3f014570	0.5049658
72	0xbe33c25b	-0.1755461
73	0xbe95ce4b	-0.29258952
74	0xbdb10653	-0.086437844
75	0x3e2f1943	0.1709948
76	0x3e8041a3	0.25050077
77	0xbf60169b	-0.87534493
78	0xbc9d1205	-0.019173631
79	0x3f1f5bd0	0.6224947
80	0xbe4d5f1a	-0.2005581
81	0x3ebe49f2	0.3716579
82	0x3f24677a	0.6422039
83	0x3e033dff	0.12816618
84	0xbd1a47e4	-0.037666216
85	0x3ead0256	0.33790845
86	0x3e0a2322	0.13489965
87	0xbf70df53	-0.94090766
88	0x3d8ed78f	0.06974708
89	0x3ebf20a4	0.3732959
90	0x3f867027	1.0502976
91	0xbde8d967	-0.11369591
92	0xbd9a8491	-0.07544816
93	0xbd9b9040	-0.07595873
94	0xbf0a53bc	-0.5403402
95	0x3cdad359	0.026712107
96	0x3f5598b5	0.8343614
97	0x3f18b6bf	0.5965385
98	0x3ea6e569	0.325969
99	0x3e45695f	0.19278477
100	0x3f2c375c	0.6727197
101	0xbe9bc753	-0.3042551
102	0xbca45aa0	-0.020062745
103	0x3f0b5b94	0.5443661
104	0x3f016262	0.50540745
105	0x3f47abb4	0.77996373
106	0x3ebc04f7	0.36722538
107	0x3f346b26	0.70475996
108	0xbddc9c86	-0.10772042
109	0x3eec552c	0.4615873
110	0x3e52e1c6	0.20593938
111	0x3da5ce40	0.0809598
112	0xbe68d4c8	-0.2273742
113	0xbf8ef815	-1.1169459
114	0xbe63b941	-0.22238638
115	0x3e9de57c	0.30839145
116	0x3f16ca39	0.5890232
117	0x3f7a2d81	0.97725683
118	0x3ddcb4c5	0.107766666
119	0x3effac05	0.49935928
120	0xbf265393	-0.64971274
121	0xbdbfee06	-0.09371571
122	0xbf008bc6	-0.5021328
123	0x3e4a465e	0.19753405
124	0xbf05dc2e	-0.5228909
125	0x3f83f9b6	1.0310581
126	0x3ed07db8	0.40720916
127	0xbe45dd1b	-0.19322626
128	0x3ec598a7	0.38593027
129	0xbf0db8b5	-0.55359966
130	0x3f47f71f	0.7811145
131	0x3e67968b	0.22616021
132	0xbf11db4f	-0.56975263
133	0x3e994d62	0.2994185
134	0x3e69c828	0.2283026
135	0x3e84157a	0.25797635
136	0x3e83b18a	0.2572139
137	0xbd0fb648	-0.035085946
138	0xbdadb7de	-0.084823355
139	0x3ee7ca54	0.45271552
140	0xbf0aff30	-0.54295635
141	0x3f3a6404	0.7280886
142	0xbef92199	-0.48658445
143	0x3e8d903f	0.27649114
144	0xbf0d6cbb	-0.55244035
145	0xbdcd6477	-0.10028928
146	0x3e95cd37	0.2925813
147	0xbef771a9	-0.48328903
148	0x3eca6583	0.39530572
149	0xbcde6ce1	-0.027151527
150	0xbda2d4e8	-0.07950765
151	0x3ea8a340	0.3293705
152	0x3da3294f	0.07966863
153	0xbdd9d8fd	-0.1063709
154	0xbeb55f99	-0.35424498
155	0xbed19e51	-0.40941098
156	0xbe817476	-0.25284165
157	0xbedbc196	-0.42921132
158	0xbf050565	-0.51961356
159	0xbe8e0228	-0.2773602
160	0x3e704c2d	0.23466559
161	0x3f943e39	1.1581489
162	0xbee2380c	-0.44183385
163	0xbf073e58	-0.52829504
164	0x3ec7d330	0.3902831
165	0xbd290f1a	-0.041274168
166	0x3eef7527	0.46769068
167	0x3f195c81	0.59906775
168	0x3e730273	0.23731403
169	0x3c61c600	0.013780117
170	0xbc0fae76	-0.008769622
171	0xbdaf351d	-0.085550524
172	0x3f1b23d0	0.6060152
173	0xbe555a40	-0.20835209
174	0xbe817471	-0.2528415
175	0x3f77c2a9	0.967814
176	0x3ee7e86f	0.4529452
177	0xbea2b947	-0.3178198
178	0xbe43ee0f	-0.19133781
179	0x3e83ee4d	0.25767747
180	0xbc1dd54c	-0.0096333735
181	0x3cb7cdd4	0.022437014
182	0x3e8e3876	0.2777745
183	0xbe8667d8	-0.26251101
184	0x3e80e0b6	0.2517144
185	0x3f05643a	0.5210606
186	0x3e55ec9c	0.2089104
187	0xbef13664	-0.4711181
188	0xbf6a871d	-0.91612417
189	0xbec98a67	-0.39363405
190	0xbe82ee8c	-0.25572622
191	0xbf09fa20	-0.53897285
192	0x3f80b0da	1.0053971
193	0xbd66daf7	-0.056361165
194	0xbe4474bd	-0.19185157
195	0xbd9fd323	-0.07803943
196	0x3e2d918b	0.16950051
197	0x3f9d0cdd	1.226955
198	0x3f1b1a28	0.60586786
199	0xbf11ed78	-0.57002974
200	0x3f223268	0.63358164
201	0xbe914a6b	-0.2837709
202	0xbf1fbbaf	-0.6239576
203	0xbf6975fd	-0.9119566
204	0xbeeebdf7	-0.46629307
205	0xbe7a548f	-0.24446319
206	0x3ddf6daf	0.10909592
207	0x3bc2f7fa	0.0059499713
208	0x3e777036	0.24163899
209	0xbf3dc752	-0.74132264
210	0xbcde3e5c	-0.027129345
211	0x3e2a32fe	0.16621014
212	0x3e31b1cd	0.17352982
213	0x3cb36b2c	0.02190169
214	0x3ea8041c	0.32815635
215	0x3f79b5c2	0.97542965
216	0x3ccf7d4c	0.0253283
217	0x3f7c1187	0.98464245
218	0xbe78295c	-0.24234527
219	0xbcd66617	-0.026171727
220	0x3ed98890	0.42487
221	0xbe0f4cd9	-0.13994159
222	0x3c6e2121	0.014534266
223	0x3e188bc9	0.14897074
224	0x3f06bc58	0.5263114
225	0x3e1c0224	0.15235192
226	0x3f3467f9	0.7047115
227	0x3e55e337	0.20887457
228	0x3ef83b93	0.48482952
229	0x3e8a1c48	0.26974702
230	0x3f3705f9	0.7149349
231	0xbf044ef0	-0.5168295
232	0x3d6c3b08	0.057673484
233	0x3f298d2b	0.6623103
234	0xbebc323d	-0.3675708
235	0x3e4d8017	0.20068394
236	0xbe792210	-0.243294
237	0x3eb3bd47	0.35105345
238	0xbf13938d	-0.5764702
239	0xbef0553b	-0.46940026
240	0xbe326af7	-0.17423616
241	0x3f0332f6	0.51249635
242	0x3ef47ab9	0.4774988
243	0x3e974bc7	0.2955
244	0xbeaa2d40	-0.33237648
245	0xbdcd0545	-0.10010771
246	0xbebac011	-0.3647466
247	0xbae42d3d	-0.0017408502
248	0x3eaa602f	0.33276507
249	0x3ed4f24c	0.41591108
250	0xbf99bb04	-1.2010198
251	0xbed823d2	-0.4221483
252	0x3db38a49	0.0876661
253	0x3e0693b0	0.13142276
254	0x3e8856a7	0.2662861
255	0x3ea1e6d2	0.31621414

network_body._body_endoder.seq_layers.0.bias f4 [128]
0	0x3d36dd2b	0.044644516
1	0xbba1206d	-0.0049171955
2	0x3d9ec184	0.07751754
3	0x3d95d258	0.073155105
4	0x3d08e081	0.03341723
5	0xbdaac4ca	-0.08338316
6	0x3d0bedfa	0.0341625
7	0xbc15d0fa	-0.009144062
8	0x3d0e29f9	0.034707997
9	0x3a8672c8	0.0010257596
10	0x3d754e9c	0.05988942
11	0x3d02dc3a	0.031948306
12	0x3cdac2f3	0.026704287
13	0x3d1dd310	0.038531363
14	0x3d3bd59e	0.045858018
15	0x3d33dddb	0.04391275
16	0x3db93648	0.090435565
17	0x3d62c916	0.05536755
18	0x3d3fee6c	0.046858236
19	0x3cb3e5a9	0.021960096
20	0x3d8c6004	0.06854251
21	0x3d0f49f6	0.034982644
22	0x3c8e6767	0.01738329
23	0x3d10ced4	0.035353497
24	0x3c91e92f	0.017811386
25	0x3d82146c	0.063515514
26	0x3d2ea802	0.042640693
27	0x3d35eba8	0.044414192
28	0x3d526b09	0.051371608
29	0x3e31bd7d	0.1735744
30	0xbc527c1b	-0.012846972
31	0x3cc48fef	0.023994414
32	0x3d391b13	0.045191836
33	0x3d84905a	0.064728454
34	0x3d05774f	0.032584485
35	0x3d9d279c	0.076735705
36	0x3ddf924e	0.10916577
37	0x3c950215	0.01818947
38	0x3d356e17	0.044294443
39	0x3ccf8fc3	0.025337106
40	0x3baa060c	0.005188709
41	0x3da2d05f	0.079499
42	0x3dc266de	0.094922766
43	0x3cb92326	0.022599768
44	0x3d8eefdb	0.069793426
45	0xbb075f7c	-0.0020656278
46	0xbb9d6fac	-0.004804572
47	0xbd46930e	-0.048480086
48	0x3d450660	0.048101783
49	0x3c7e174a	0.015508482
50	0xbc743af0	-0.01490663
51	0xbb8e6b16	-0.0043462617
52	0x3d8b2753	0.0679461
53	0x3d25337b	0.0403323
54	0x3d922c91	0.071374066
55	0x3cc64f50	0.024207741
56	0x3c50cc84	0.012744073
57	0xbc2967b3	-0.010339665
58	0x3d0238f2	0.03179259
59	0x3cd335dc	0.025782518
60	0x3d794c1c	0.0608636
61	0x3d7b7ce5	0.061398406
62	0x3d91fe79	0.07128615
63	0x3db4d2a4	0.08829239
64	0x3d686f40	0.05674672
65	0xbb3209ba	-0.0027166442
66	0xbdaf4757	-0.08558529
67	0x3d0cb526	0.034352444
68	0x3ca0dcc9	0.019636529
69	0x3cbffe4b	0.023436686
70	0x3d831854	0.064011246
71	0x3d33b440	0.04387307
72	0x3d3d6316	0.046237074
73	0x3db63c17	0.0889818
74	0xbe14cf50	-0.14532208
75	0xbc0c9b9d	-0.008582023
76	0xbd4e01dc	-0.050294742
77	0x3d593282	0.053026684
78	0x3d580a83	0.0527444
79	0xbd9b164c	-0.07572612
80	0x3d320ee0	0.043471217
81	0x3dc12b05	0.094320334
82	0x3c5faf4e	0.013652636
83	0x3d5e8420	0.054325223
84	0x3d0fd82c	0.035118267
85	0x3d87b448	0.06626183
86	0x3ce83717	0.028346581
87	0x3c8d7420	0.017267287
88	0x3c7abab4	0.015303303
89	0x3d33d631	0.04390544
90	0x3d16894b	0.036752027
91	0x3d74c41d	0.05975734
92	0x3d586859	0.05283389
93	0x3d7d9148	0.06190613
94	0x3e22b8e5	0.15890844
95	0x3cb85d23	0.022505349
96	0x3d8f052e	0.0698341
97	0x3d3e3f51	0.046447102
98	0x3d6e19a5	0.058129925
99	0xbc0f57b1	-0.008748935
100	0x3d13a876	0.03604933
101	0x3ce1b492	0.027551923
102	0x3d5191ea	0.051164545
103	0x3c04a8c5	0.008096878
104	0x3ca48fbf	0.020088075
105	0x3d2e621d	0.042574037
106	0x3ceb4c23	0.028722828
107	0x3d09cb2f	0.033641037
108	0x3d1f0ec4	0.03883244
109	0x3d9b8533	0.07593765
110	0x3d60cbc4	0.054881826
111	0x3d1678ff	0.036736485
112	0x3d71ad02	0.059002884
113	0x3c7a775d	0.0152872475
114	0xbda6a508	-0.08136946
115	0x3d0bcb8e	0.03412967
116	0xbccffaaf	-0.02538809
117	0x3d3896e0	0.04506576
118	0xbcf7b0d9	-0.030235695
119	0xbdfad996	-0.122485325
120	0x3d2126d6	0.039343677
121	0x3d3164cb	0.043309014
122	0x3cf907af	0.030399172
123	0xbce44778	-0.02786611
124	0x3d4cccfe	0.050000183
125	0x3e0397e9	0.12850918
126	0x3c70313b	0.014660175
127	0x3bf056ad	0.0073345513

network_body._body_endoder.seq_layers.2.weight f4 [128, 128]
0	0x3e3bfb2e	0.18357536
1	0x3d82b061	0.06381298
2	0xbb286ab2	-0.002569836
3	0x3e21999f	0.15781258
4	0xbe770837	-0.24124227
5	0xbe4a9bc9	-0.1978599
6	0x3d3697b5	0.044578273
7	0xbe3fe1a4	-0.18738419
8	0x3ce7ad9e	0.02828103
9	0xbd5d1cbe	-0.05398249
10	0x3d262718	0.040564626
11	0xbd94dc4a	-0.07268579
12	0x3dfdebf2	0.123985186
13	0x3ba55215	0.0050451853
14	0xbd0cee52	-0.034406967
15	0x3cccfedb	0.025023868
16	0xbc9454f9	-0.018106924
17	0xbcdb4fc2	-0.02677143
18	0x3e140ba4	0.14457566
19	0xbd2980ce	-0.041382603
20	0xbcc14cf7	-0.02359627
21	0xbe3ebf3f	-0.18627642
22	0xbdeaee6e	-0.11471258
23	0xbdc89c69	-0.09795458
24	0x3cf2d439	0.029642211
25	0x3d98ebb2	0.0746683
26	0xbe3abf14	-0.18236953
27	0xbdf7167b	-0.12064835
28	0xbdcd7483	-0.100319885
29	0x3c8b1d4f	0.016981749
30	0xbe844b4e	-0.25838703
31	0x3dcca09d	0.09991572
32	0xbe2e1616	-0.17000613
33	0xbd475720	-0.048667073
34	0x3e38071d	0.17971464
35	0xbe88b554	-0.26700842
36	0xbde807b9	-0.11329598
37	0xbe8a66f2	-0.27031666
38	0xbe011d77	-0.12608896
39	0x3e654c92	0.2239249
40	0x3dec4ec7	0.11538463
41	0x3d681d06	0.056668304
42	0x3d11df17	0.035613146
43	0xbe5dccf7	-0.21660219
44	0xbc88bbac	-0.016691051
45	0xbd1b7690	-0.037954867
46	0xbd01daa1	-0.03170264
47	0xbd835055	-0.064118065
48	0x3ea3798b	0.31928667
49	0xbde5429a	-0.11194344
50	0xbdf90fff	-0.12161254
51	0xbe003108	-0.12518704
52	0x3de17731	0.11009062
53	0xbe175c0d	-0.14781208
54	0x3d99ec12	0.0751573
55	0xbd9e78d4	-0.0773789
56	0xbd283ae2	-0.04107178
57	0x3e678902	0.22610858
58	0xbe82c31c	-0.25539482
59	0xbc32e018	-0.010917686
60	0x3deb9219	0.11502475
61	0x3e49b14c	0.1969654
62	0xbd280767	-0.041022684
63	0x3d34ee26	0.04417243
64	0xbe123340	-0.14277363
65	0xbdf30c22	-0.118675485
66	0x3e042733	0.12905578
67	0x3ec234c0	0.3793087
68	0x3dbf37f3	0.09336843
69	0xbe3cb605	-0.1842881
70	0xbe31df80	-0.17370415
71	0x3e12eccf	0.14348148
72	0xbe4bdb5f	-0.19907902
73	0xbd795c53	-0.060879063
74	0xbd27e2a7	-0.040987637
75	0x3e00e4f2	0.12587336
76	0xbe633f4c	-0.22192115
77	0x3d1e5c75	0.038662393
78	0x3e3beee4	0.18352848
79	0xbdcf746d	-0.10129628
80	0x3d19e326	0.03757014
81	0x3d85598e	0.06511222
82	0x3e43de62	0.19127801
83	0x3dacaff9	0.084320016
84	0xbd6c8a23	-0.057748925
85	0x3e82510b	0.25452456
86	0xbe47d96f	-0.19516538
87	0xbdd463d9	-0.10370607
88	0x3c12c9ce	0.008959247
89	0x3e9e2396	0.30886525
90	0xbe85572c	-0.2604307
91	0xbe09a7b3	-0.13442878
92	0x3d0825a2	0.033239014
93	0x3e8c2b61	0.27376845
94	0xbd22ab27	-0.039714005
95	0x3d94fc87	0.07274728
96	0xbe2fbaa5	-0.17161043
97	0xbd68ce06	-0.056837104
98	0xbdbf9b9c	-0.09355852
99	0xbd705b6d	-0.05868094
100	0xbd9841f1	-0.07434452
101	0xbddbe5b5	-0.107371725
102	0x3d9f25c2	0.077708736
103	0x3e206b2a	0.1566588
104	0xbe3b6ec7	-0.18303977
105	0xba8ff1cf	-0.0010982099
106	0xbe099c12	-0.13438442
107	0xbe71e4f5	-0.23622496
108	0xbac8feed	-0.0015334763
109	0xbe296cee	-0.1654546
110	0xbb7c5dda	-0.0038508088
111	0xbdf45dbd	-0.11931942
112	0xbe40eeee	-0.18841144
113	0xbcb60e51	-0.022223623
114	0xbe2945c7	-0.16530524
115	0x3e0e383d	0.1388864
116	0xbe70e4d0	-0.23524785
117	0xbdbfec25	-0.09371213
118	0x3d2bef1b	0.041976076
119	0xba7e136b	-0.00096922246
120	0xbd7637be	-0.060111754
121	0x3e891f8e	0.26781887
122	0xbdcdeaf1	-0.10054577
123	0x3d9ce220	0.076603174
124	0x3dbff14b	0.09372195
125	0x3d2fec28	0.042949826
126	0xbcc23a51	-0.023709448
127	0x3e0048ac	0.12527722
128	0x3b9e3e3a	0.0048291953
129	0x3cf594ed	0.02997824
130	0xbe39ee92	-0.18157414
131	0xbc1795ee	-0.009252055
132	0x3e05a7cf	0.13052295
133	0x3d2a28f4	0.041542962
134	0x3e175478	0.14778316
135	0x3db08b82	0.08620359
136	0x3def5690	0.11686432
137	0x3d144f81	0.036208633
138	0xbde990bc	-0.11404559
139	0x3d99f873	0.07518091
140	0xbb1192b3	-0.0022212684
141	0x3dc8d7c2	0.098067775
142	0x3e72a0c4	0.2369414
143	0xbca2eb1a	-0.019887496
144	0x3ddc0ed6	0.10745017
145	0x3e2fb869	0.1716019
146	0xbe0c8749	-0.13723482
147	0xbdd7f9c7	-0.10545688
148	0x3ddbb79e	0.107283816
149	0x3e94481a	0.2896126
150	0x3e277253	0.16352205
151	0xbd38d989	-0.045129333
152	0xbcdafe59	-0.02673261
153	0xbd252a24	-0.04032339
154	0x3e0c6553	0.13710527
155	0x3e29f120	0.16595888
156	0x3d94cb6f	0.072653644
157	0xbdb47d49	-0.08812959
158	0x3e409d3c	0.1880998
159	0xbe1a4d14	-0.15068465
160	0x3d9a1264	0.07523039
161	0xbc6a2d22	-0.014292987
162	0xbe750c53	-0.23930483
163	0x3e13ec79	0.14445676
164	0x3d1fd3b0	0.03902024
165	0x3e72fd61	0.23729469
166	0x3dbe8f71	0.09304703
167	0x3e370b55	0.17875417
168	0xbcecd3d7	-0.028909607
169	0x3bc79c9f	0.0060916687
170	0x3da9548d	0.0826808
171	0x3e0b37ed	0.13595553
172	0xbd08dbd2	-0.033412762
173	0x3b8167b8	0.003949132
174	0xbe571473	-0.21003895
175	0xbd901bbd	-0.07036541
176	0xbda75df8	-0.0817222
177	0x3d495225	0.049150605
178	0x3db90506	0.09034161
179	0xbd30958c	-0.04311137
180	0xbe5cfb0a	-0.21580139
181	0x3c00f4fc	0.007870909
182	0xbd17f33c	-0.0370972
183	0x3d459731	0.04823989
184	0x3e0fc25b	0.14038984
185	0xbe6763c9	-0.22596659
186	0x3b8e1651	0.0043361564
187	0xbd463df7	-0.048398938
188	0x3e3b020d	0.18262501
189	0x3d4715b3	0.04860468
190	0x3e08da82	0.13364604
191	0x3c68de41	0.014213146
192	0x3e6a21a4	0.22864395
193	0xbca15737	-0.019694908
194	0xbd18f581	-0.037343506
195	0xbda9bdbe	-0.082881436
196	0xbe13446c	-0.1438157
197	0x3dfdf72a	0.124006584
198	0x3e3c8903	0.18411641
199	0xbe17f793	-0.14840536
200	0x3cf7b556	0.030237835
201	0x3e72ca65	0.2371002
202	0xbdbeded1	-0.093198426
203	0xbdb1fcbd	-0.08690784
204	0xbe780fd2	-0.24224785
205	0xbdee2fa8	-0.116301835
206	0xbdb90975	-0.09035007
207	0xbd11ff47	-0.035643842
208	0x3e1dcc2d	0.15409918
209	0xbccf6f8a	-0.02532174
210	0xbc82041d	-0.015871102
211	0x3e2011a7	0.15631734
212	0x3d5f01cc	0.054445073
213	0xbe0bb12e	-0.13641807
214	0x3e255567	0.1614586
215	0x3dad71c9	0.084689684
216	0x3d599b43	0.053126585
217	0xbd5c7b45	-0.053828496
218	0x3df75fde	0.12078832
219	0x3d977d87	0.07396989
220	0xbcd1d887	-0.025615944
221	0xbd2d772e	-0.042349987
222	0x3cfcc101	0.03085375
223	0x3daa0354	0.08301416
224	0x3b2b8253	0.0026170209
225	0x3da56465	0.08075789
226	0x3e12606a	0.14294592
227	0x3de9473f	0.11390542
228	0xbe6acb5f	-0.22929142
229	0x3dc6f125	0.097139634
230	0x3ded227f	0.11578845
231	0xbdb62869	-0.088944264
232	0x3dac1e34	0.08404198
233	0x3dbd7136	0.09250109
234	0x3de198e5	0.110154904
235	0x3debaa05	0.11507038
236	0xbb85b017	-0.0040798294
237	0x3e50eb52	0.20402268
238	0xbd5d3fb7	-0.05401584
239	0x3dd69fe4	0.104797155
240	0x3dc72c04	0.09725192
241	0xbdc1c605	-0.09461597
242	0xbda30e40	-0.07961702
243	0x3c7e7872	0.015531646
244	0x3dfb9e1e	0.12286018
245	0x3e4704f8	0.19435489
246	0xbddf42e3	-0.109014295
247	0xbdf39874	-0.118943125
248	0xbdbf6c95	-0.09346882
249	0xbe16a15e	-0.14709994
250	0xbdb51550	-0.08841956
251	0xbd129237	-0.035783973
252	0xbe565aa4	-0.20933014
253	0xbc970ccf	-0.018438725
254	0x3dc42dae	0.09579025
255	0xbdfc0d67	-0.12307244

network_body._body_endoder.seq_layers.2.bias f4 [128]
0	0x3da9f430	0.08298528
1	0x3d4401f0	0.04785341
2	0x3db62f52	0.088957444
3	0x3daad34a	0.083410814
4	0x3d7e43d3	0.0620764
5	0x3da67258	0.08127278
6	0x3e1d3234	0.15351182
7	0x3dbb06e2	0.09132172
8	0x3d94fee4	0.07275179
9	0xbc1bf2f4	-0.009518374
10	0x3d6f4a51	0.058420483
11	0x3df21ffe	0.11822508
12	0x3d543ea5	0.051817555
13	0x3d8140ef	0.06311213
14	0x3d3481f3	0.04406924
15	0x3dcd7933	0.100328825
16	0x3dca45bd	0.09876583
17	0x3dae6700	0.085157394
18	0x3dccb300	0.09995079
19	0x3daab7ae	0.08335815
20	0x3da74a53	0.08168473
21	0x3dbeb0d1	0.09311069
22	0x3db1ab47	0.08675247
23	0x3d83a63b	0.0642819
24	0x3dd1d031	0.102447875
25	0x3dcb7c60	0.09935832
26	0x3db52947	0.08845764
27	0x3dbee6b2	0.093213454
28	0x3d4a8067	0.04943886
29	0x3d9cafd7	0.07650726
30	0x3d454d8e	0.048169665
31	0x3ca206c1	0.019778611
32	0x3dab9c92	0.08379473
33	0x3d7a8ecb	0.061171334
34	0x3db1943a	0.0867085
35	0x3db59e88	0.08868128
36	0x3db9074e	0.090345964
37	0x3dcb1df9	0.09917826
38	0x3d6e654e	0.05820208
39	0x3dc1b5cc	0.09458503
40	0x3d283801	0.041069034
41	0x3d8c0176	0.06836216
42	0x3cefd423	0.02927596
43	0x3cdaa720	0.02669102
44	0x3dad2fdb	0.08456393
45	0x3d468734	0.048468783
46	0x3d844a70	0.0645951
47	0x3dad9e1c	0.084774226
48	0x3dbd0f89	0.09231479
49	0x3da81b45	0.08208326
50	0x3d9e9e98	0.07745093
51	0x3d80f3ba	0.06296487
52	0x3d858493	0.06519427
53	0x3e0b7cd7	0.13621841
54	0x3dcb7d5a	0.09936018
55	0xbd38793d	-0.045037497
56	0x3db48517	0.088144474
57	0x3d806b33	0.06270447
58	0x3db0ed2f	0.08638989
59	0x3db855b8	0.090007246
60	0x3d96d569	0.073649235
61	0x3dd84e65	0.105618276
62	0x3da8c85a	0.08241339
63	0x3dec70f1	0.11544979
64	0x3dc340d7	0.095338516
65	0x3d9ef8e8	0.07762319
66	0x3c945b83	0.018110042
67	0x3d956fb1	0.07296694
68	0x3da0288b	0.07820233
69	0x3d093673	0.033499192
70	0x3d9f4937	0.077776365
71	0x3dd88c1f	0.10573601
72	0x3d79454b	0.0608571
73	0x3da6940c	0.081337065
74	0x3dd3699b	0.10322877
75	0x3d56ec1f	0.052471276
76	0x3d9aa7f1	0.075515635
77	0x3da46d19	0.08028621
78	0x3d972e91	0.07381929
79	0x3dbfc7ba	0.09364267
80	0x3d482547	0.048863675
81	0x3d88d7d1	0.06681789
82	0x3dc9bcc5	0.09850458
83	0x3a4d5dd5	0.00078341115
84	0x3d107bb5	0.035274226
85	0x3d996387	0.074896865
86	0x3d8c231b	0.06842633
87	0x3d43441d	0.04767238
88	0x3dba4128	0.09094459
89	0x3d88ead8	0.06685418
90	0x3e28e432	0.164933
91	0x3dbde7f5	0.09272758
92	0x3d9b21b2	0.07574786
93	0x3db47c4e	0.08812772
94	0x3d940009	0.07226569
95	0x3d94ba26	0.072620675
96	0x3dc282f9	0.09497637
97	0x3d720d2a	0.059094585
98	0x3d972d6c	0.073817104
99	0x3db69650	0.089153886
100	0x3db33bb9	0.087516256
101	0x3d677d6b	0.056516092
102	0x3db18490	0.086678624
103	0x3dc324fa	0.09528537
104	0x3d7b3742	0.061331995
105	0x3d524203	0.051332485
106	0xbc4d032e	-0.012512965
107	0x3d6053f5	0.054767568
108	0x3dc557fa	0.09635921
109	0x3d58ea1a	0.05295763
110	0x3bce0868	0.006287623
111	0x3dbea4bd	0.09308765
112	0x3d943cde	0.07238172
113	0x3da30f86	0.07961945
114	0x3d7255bc	0.059163794
115	0x3dafcb3a	0.08583684
116	0xbd0625c7	-0.03275087
117	0x3d8dd590	0.069254994
118	0x3d178493	0.036991667
119	0x3d380950	0.044930756
120	0x3d06f193	0.032945227
121	0x3dbc79be	0.09202908
122	0x3d9cca1f	0.07655739
123	0x3dc98a05	0.09840778
124	0x3dc7237e	0.097235665
125	0x3d682bf4	0.056682542
126	0x3d96a8d2	0.07356419
127	0x3cf1a0ac	0.02949556

action_model._discrete_distribution.branches.0.weight f4 [5, 128]
0	0xbbdaa745	-0.006672772
1	0xbda614c7	-0.08109432
2	0xbd1089c9	-0.035287652
3	0xbdd77edb	-0.10522243
4	0xbd420b10	-0.04737383
5	0xbd8df08d	-0.06930647
6	0xbe01918a	-0.12653175
7	0xbdad71fe	-0.08469008
8	0xbd365e9d	-0.044523824
9	0x3d8624c5	0.06549982
10	0xbd4f1ca3	-0.05056442
11	0xbe0697d2	-0.13143852
12	0xbd44599f	-0.04793703
13	0xbd81bc3d	-0.06334732
14	0x3a752fdd	0.00093531405
15	0xbd856726	-0.06513815
16	0xbe0115e6	-0.1260601
17	0xbdba1cdf	-0.09087538
18	0xbd972dda	-0.07381792
19	0xbd31d740	-0.04341817
20	0xbdeb878f	-0.11500465
21	0xbd876ef1	-0.06612957
22	0xbcfa2b72	-0.030538294
23	0xbc9af751	-0.018916758
24	0xbdf991ff	-0.1218605
25	0xbdd6863e	-0.104748234
26	0xbda1a68f	-0.07893097
27	0xbd888cb1	-0.0666746
28	0xbc8076f6	-0.015681725
29	0xbd55461e	-0.052068822
30	0xbb18fd1a	-0.002334422
31	0x3d6d1bcd	0.05788784
32	0xbd8d3bb3	-0.06896152
33	0xbc0ee22b	-0.008720915
34	0xbd86aba7	-0.06575709
35	0xbdeb67d6	-0.114944145
36	0xbdd356e0	-0.103193045
37	0xbda79e15	-0.08184449
38	0xbd213db8	-0.0393655
39	0xbdc8e6a4	-0.09809616
40	0xbd517651	-0.051138226
41	0xbd2f095d	-0.04273354
42	0xbcf28330	-0.02960357
43	0xbc412215	-0.011787911
44	0xbce983ec	-0.028505288
45	0xbd8631a4	-0.06552437
46	0x3cb1ca3b	0.021702876
47	0xbde00e5d	-0.109402396
48	0xbd34eb4b	-0.044169705
49	0xbd91f231	-0.071262725
50	0xbda5c327	-0.08093863
51	0xbd316945	-0.043313283
52	0xbc3abdda	-0.011397803
53	0xbe07614b	-0.13220708
54	0xbe038770	-0.12844634
55	0x3d9bbbd7	0.07604187
56	0xbd15865c	-0.03650509
57	0xbd3d81f2	-0.046266504
58	0xbd84587e	-0.06462191
59	0xbdd48e8b	-0.103787504
60	0xbd414c5c	-0.047191963
61	0xbdea3d29	-0.114374466
62	0xbd987810	-0.07444775
63	0xbddab235	-0.106785215
64	0xbdc9ce15	-0.0985376
65	0xbda44fa1	-0.080230005
66	0xbb4cdb02	-0.0031258469
67	0xbdab829d	-0.08374522
68	0xbcf57884	-0.029964693
69	0x3a873d44	0.0010317941
70	0xbd90f338	-0.0707764
71	0xbdc9fcb9	-0.09862656
72	0xbdc85263	-0.09781339
73	0xbcd29c32	-0.025709245
74	0xbdd10e30	-0.10207784
75	0xbd3b494a	-0.04572419
76	0xbd8aa9be	-0.06770657
77	0xbd699616	-0.0570279
78	0xbde08fda	-0.109649375
79	0xbdcc0e73	-0.099636935
80	0x3d055962	0.032555945
81	0xbdb3abfb	-0.08773037
82	0xbdcadaec	-0.09905037
83	0x3d291344	0.04127814
84	0xbd341632	-0.04396648
85	0xbd962305	-0.07330898
86	0xbcbbd9f6	-0.02293108
87	0xbc9e88ca	-0.019352335
88	0xbda39e9d	-0.079892375
89	0xbd85475f	-0.065077536
90	0xbe18e914	-0.14932662
91	0xbdf478a0	-0.1193707
92	0xbd9d7f4c	-0.076902956
93	0xbda08af7	-0.078390054
94	0xbd4b546b	-0.049641054
95	0xbd796ac2	-0.060892828
96	0xbdfee67a	-0.12446304
97	0xbccc6fb1	-0.024955602
98	0xbda9117c	-0.08255288
99	0xbdad5e43	-0.084652446
100	0xbdfa8ab1	-0.122334845
101	0x3d1a10c0	0.03761363
102	0xbda92586	-0.0825911
103	0xbd9ff2e9	-0.07810003
104	0x3bec11a6	0.0072042523
105	0xbd362bab	-0.04447524
106	0x3c7ec6f4	0.015550364
107	0xbd295eeb	-0.041350286
108	0xbdcf6f8f	-0.101287
109	0xbd22636f	-0.03964561
110	0x3bedc59f	0.0072562243
111	0xbdfb051b	-0.12256833
112	0xbd8841c7	-0.06653171
113	0xbd87b501	-0.06626321
114	0x3c3c0326	0.01147536
115	0xbdb60eba	-0.088895276
116	0x3d9f9975	0.077929415
117	0xbd9aa3e2	-0.075507894
118	0xbd755443	-0.05989481
119	0xbd7a4130	-0.061097324
120	0x3d740e88	0.05958417
121	0xbd495a71	-0.049158517
122	0xbd666ef1	-0.056258146
123	0xbd4e532a	-0.05037228
124	0xbda0f97f	-0.078600876
125	0xbd7b345d	-0.061329234
126	0xbca2fa28	-0.019894674
127	0x3d1df931	0.038567726
128	0x3e1ddb22	0.15415624
129	0xbd437794	-0.04772146
130	0x3e196b13	0.14982252
131	0x3de18a10	0.110126615
132	0xbd3cd922	-0.04610551
133	0xbe0d7f82	-0.13818172
134	0xbd85e10b	-0.06537064
135	0xbd51d8a3	-0.05123199
136	0xbe15a772	-0.14614657
137	0xbc03796d	-0.008024556
138	0x3e1dcc2f	0.15409921
139	0x3d9049bf	0.07045316
140	0xbd6d30a6	-0.057907723
141	0x3dd845e5	0.10560206
142	0x3e26bc35	0.16282733
143	0xbdf3083e	-0.118668064
144	0x3deddb2e	0.11614071
145	0x3dc76a5f	0.097370856
146	0xbe0bd832	-0.1365669
147	0xbe1388df	-0.14407681
148	0x3dcb48c2	0.09925987
149	0xbe09cd26	-0.13457164
150	0xbe20ac30	-0.15690684
151	0xbd9bf9d8	-0.07616013
152	0x3e0c89ff	0.13724516
153	0x3dffd3bb	0.12491556
154	0x3e1a9f63	0.15099864
155	0xbdc1a57c	-0.09455392
156	0xbdf3bb07	-0.11900907
157	0xbe08868f	-0.1333258
158	0x3df41307	0.11917692
159	0xbdbb362c	-0.09141192
160	0xbdaa4d56	-0.08315532
161	0xbd1e4113	-0.03863628
162	0x3d6cf0ff	0.05784702
163	0x3dafc521	0.08582521
164	0xbdb09c2c	-0.086235374
165	0xbdcdbe00	-0.10046005
166	0x3e20490f	0.1565287
167	0xbc8faef0	-0.017539471
168	0x3e19cb1c	0.15018886
169	0x3ca0f7c7	0.0196494
170	0xbdb9aa53	-0.0906569
171	0xbe29648c	-0.16542262
172	0x3e284eab	0.1643626
173	0x3d6eceae	0.058302574
174	0x3c536c05	0.012904172
175	0x3da52719	0.08064098
176	0xbdd581eb	-0.104251705
177	0xbd747d60	-0.05968988
178	0x3d7869c3	0.060647737
179	0x3dc486da	0.095960334
180	0xbdf94d3d	-0.12172935
181	0x3d81bf44	0.06335309
182	0x3db80be7	0.08986645
183	0x3d876e49	0.06612832
184	0xbe1e2164	-0.15442425
185	0xbe0f53f4	-0.1399687
186	0x3e13ddb4	0.14440042
187	0x3e00bafa	0.12571326
188	0x3cbb9cd9	0.02290194
189	0xbd97501f	-0.07388329
190	0x3e12b3a5	0.14326341
191	0x3e0a0802	0.13479617
192	0xbdc1404f	-0.09436094
193	0x3e106363	0.14100413
194	0xbdf505f5	-0.11964027
195	0x3e15e132	0.14636686
196	0x3e134c0c	0.14384478
197	0xbe0790e0	-0.13238859
198	0x3e127790	0.14303422
199	0x3dc1fee9	0.094724484
200	0x3d6e3411	0.058155123
201	0x3e1f989c	0.1558556
202	0xbdaf7c6a	-0.08568652
203	0xbde39b1f	-0.111135714
204	0x3e1e985f	0.15487812
205	0x3e1a3010	0.15057397
206	0x3d976f23	0.073942445
207	0x3be39b84	0.006946029
208	0xbe076ed8	-0.13225877
209	0x3dcef397	0.10105055
210	0xbd3edaf2	-0.04659552
211	0xbe0d6c09	-0.13810743
212	0xbd75f603	-0.06004907
213	0xbe0e91a8	-0.13922751
214	0x3d79d76c	0.060996458
215	0xbe18e8cc	-0.14932555
216	0x3e2350d7	0.15948807
217	0xbdf7cb54	-0.12099329
218	0x3d71931a	0.058978178
219	0x3e077fdd	0.1323237
220	0x3e0f0613	0.13967161
221	0x3db1f4f4	0.08689299
222	0x3e137ede	0.14403865
223	0x3e06837b	0.13136093
224	0x3da09e41	0.078426845
225	0xbbc56d23	-0.006024973
226	0x3e074934	0.13211519
227	0xbdb89cc3	-0.09014275
228	0x3e19d22b	0.15021579
229	0xbe11c310	-0.14234567
230	0xbe0bcd6f	-0.13652585
231	0xbd9d1319	-0.07669658
232	0xbe0c5a34	-0.13706285
233	0xbd9dbba3	-0.077018045
234	0xbdafb254	-0.08578935
235	0x3cb174f0	0.021662205
236	0x3e0b124e	0.13581201
237	0xbe1286fa	-0.14309302
238	0xbdf08afc	-0.11745259
239	0x3d0fff5d	0.035155643
240	0xbdc82897	-0.09773367
241	0xbdbdc5a2	-0.09266211
242	0x3c79e200	0.0152516365
243	0xbdb9361d	-0.090435244
244	0xbd8965f7	-0.067089014
245	0x3dcb03e0	0.099128485
246	0x3e0b4a83	0.13602643
247	0x3dec7d5f	0.1154735
248	0xbe16e3e9	-0.14735378
249	0xbde52818	-0.11189288
250	0xbe039939	-0.12851419
251	0xbe1efaad	-0.15525313
252	0xbdcc66cc	-0.099805444
253	0x3e08aa96	0.13346323
254	0xbe081a4b	-0.1329128
255	0x3e1c9d29	0.15294327

action_model._discrete_distribution.branches.0.bias f4 [5]
0	0xbdf12bfc	-0.117759675
1	0x3c87ad80	0.016562223
2	0x3cccd39a	0.025003243
3	0x3d28b1fe	0.04118537
4	0x3d147b9b	0.03625069
