Scenes/ImprovedGridWorld2D/results/ppo-no-memory-curriculum/DroneGrid2D/DroneGrid2D-699914.pt (torch, 446685 bytes, 33 tensors)

network_body._body_endoder.seq_layers.0.weight f4 [128, 6]
00000000: 252b 6bbe 9137 e83e 1782 18bf 38c8 acbe
00000010: f9a4 05bf 5bf0 4a3e d734 e6bd 9ae5 673c
00000020: cafc 073d d13a 8fbe c513 e5be cc2a bcbe
00000030: 03f9 6cbe 36ca 1b3f 31f3 bbbd 7b74 2cbf
00000040: b0bf abbf c8f8 643e 19ef a33e e1cb debd
00000050: e610 ac3e 12f0 f3be 0a35 83be 0221 4cbf
00000060: 5fab adbe fa56 fd3e 6dd2 cabe 81af a5be
00000070: 07fc a53e c98d 353e 7cf7 0dbf aa1f 85bd
00000080: 3ed7 a33e ac44 96bc 0b3e b6bd 4e36 613e
00000090: 5f6c fe3d e57d a83f 02d8 13be b1b0 173f
000000a0: dacc 60bf 3da3 623c 0c7c 093e 478d d2be
000000b0: e756 9cbe fb37 9ebe cfe1 b53e 84ca 633f
000000c0: d2be 8b3e dc38 b13d 93f6 41be 4be6 42be
000000d0: df16 88be c3f6 ee3e 5918 253e 6667 1cbe
000000e0: 6a3b f1bd 1d9c 383d 821d d1be 7026 ca3e
000000f0: 2046 033e 5c8d 453f 0266 873e a84f 493e
00000100: 2089 74be 9b5d 7abf cdfa f6bd bc47 63be
00000110: 9744 babe a782 f33e ead6 1b3f b704 013f
00000120: af24 36be 4aac 95be 0e6b b1bd 0a82 2c3e
00000130: 4927 7e3e 17bb 5ebf 21c9 a1bc fb67 1e3f
00000140: 721f 49be 8b52 bd3e 48cd 223f 6ffa 023e
00000150: bdaa 0ebd cc05 ac3e b11e 0a3e 84e2 6fbf
00000160: 80b5 8a3d 9704 bd3e 8f34 863f 5d17 e3bd
00000170: 19b5 a9bd 659b 9ebd b6e6 08bf 7d8f d83c
00000180: 9b12 553f 355c 173f e8ef a73e 971a 403e
00000190: 2747 2b3f 1d9c 9bbe 7903 b1bc f31a 0a3f
000001a0: 8984 013f 97bf 473f a641 bc3e 5322 333f
000001b0: a3e3 e4bd 2053 ec3e d13f 513e c4e4 9e3d
000001c0: e320 68be c08a 8ebf bdff 66be 7380 9c3e
000001d0: 7340 163f 9d5e 7a3f d2fc e33d 5f93 fc3e
000001e0: c284 25bf 5121 bebd fd81 00bf 2540 4c3e
000001f0: 0aea 04bf b24e 833f f67a d13e 31c0 49be
00000200: 75ab c83e 801f 0dbf 457c 463f f4be 663e
00000210: 4983 12bf 2720 973e e629 6d3e 8b92 813e
00000220: f992 803e ae81 12bd 15bc adbd fda6 e83e
00000230: d4d4 0bbf 7585 3a3f feaf f6be ca97 8c3e
00000240: dfe1 0cbf 5513 d2bd 2d7d 993e 245f f7be
00000250: 5791 c53e fab2 d7bc 9df3 a9bd 025d a93e
00000260: b49a 9c3d c357 e1bd 9545 b3be f273 d0be
00000270: ed43 7ebe 4414 dcbe 78ee 04bf ab5b 8dbe
00000280: a808 6f3e dda2 933f e95e e0be 647a 07bf
00000290: 3b81 c93e 70dc 1ebd ce9f ed3e bf5c 183f
000002a0: a564 733e 0db2 293c e23e 42bb 8afc b3bd
000002b0: 5152 193f 5a41 53be f558 85be e111 763f
000002c0: f31b e73e df2e a5be 941a 42be af8a 813e
000002d0: 1037 d5bb c5e8 a83c d94c 8f3e 41b3 84be
000002e0: ca40 7f3e ed78 043f 8752 513e 668e efbe
000002f0: 5e4e 6abf 0373 c9be 445d 81be 2cbe 08bf
00000300: 5e14 813f 6163 64bd 8757 45be 7820 9cbd
00000310: 2bf4 2e3e f975 9c3f 9e57 1a3f 39f3 10bf
00000320: a3dd 203f 8e85 92be 0134 1ebf 51ce 68bf
00000330: 4d28 efbe 7d0b 7abe 786b e03d be28 513b
00000340: cf6c 743e 585a 3cbf c930 cabc 5b35 283e
00000350: 4318 333e 0082 c53c 1da4 a73e 1598 783f
00000360: 60d3 b13c 63bb 7a3f 2400 77be abae 02bd
00000370: d746 d73e cd67 0fbe 1efd 7e3c ccda 143e
00000380: 9a41 083f 8a9c 1b3e f62e 333f 0843 553e
00000390: a4c6 f83e fc25 893e a5cc 363f 10ab 03bf
000003a0: b9ca 713d 895e 283f 3132 bdbe 862c 503e
000003b0: 8036 7ebe b106 b33e 9b2b 12bf a55b efbe
000003c0: 373f 34be 1b86 033f 42b5 f03e 0b82 963e
000003d0: 715c a7be f941 d0bd d0e0 bbbe 3afc 6b39
000003e0: 8953 a73e 7a46 d43e ff06 99bf e794 d7be
000003f0: 5e75 b13d 6860 023e 2cc9 893e b9a4 9f3e
-0.22965677 0.45354894 -0.595735 -0.33746505 -0.52204853 0.19818251 -0.11240547 0.014153862
0.033200063 -0.2797456 -0.44741645 -0.367514 -0.23141865 0.60855424 -0.091772445 -0.67365235
-1.3417873 0.22360528 0.32018355 -0.108787306 0.33606642 -0.47644097 -0.25626403 -0.79737866
-0.33919808 0.4948042 -0.39613667 -0.3236046 0.32418844 0.17729868 -0.55455756 -0.0650018
0.32000154 -0.018343292 -0.088985525 0.21993372 0.12423014 1.316342 -0.14437869 0.59253985
-0.8781258 0.013832864 0.13426226 -0.4112341 -0.3053505 -0.30902085 0.3552384 0.8898089
0.27294022 0.08653423 -0.18941717 -0.19033162 -0.2657995 0.4667264 0.16122569 -0.15273818
-0.117789105 0.045070756 -0.40842825 0.3948245 0.1281972 0.7716882 0.26445013 0.19659293
-0.23880434 -0.9779908 -0.12059555 -0.22195333 -0.36380455 0.47560617 0.6087481 0.5039782
-0.17787431 -0.2923301 -0.08662997 0.16846481 0.24819674 -0.87004226 -0.019749226 0.6187741
-0.19640902 0.36977038 0.63594484 0.12790845 -0.034830797 0.33598173 0.1348827 -0.9370501
0.067729 0.36917564 1.048479 -0.110884406 -0.08286495 -0.07744483 -0.53477037 0.026435608
0.83231515 0.5912507 0.3280022 0.18760143 0.66905445 -0.30392542 -0.021608101 0.5394737
0.5059286 0.7802672 0.36768836 0.6997425 -0.11176231 0.4615717 0.204345 0.07758477
-0.22668795 -1.1136093 -0.22558494 0.3056675 0.5869209 0.9780062 0.11132206 0.49331185
-0.646557 -0.09283698 -0.50198346 0.19946344 -0.51919615 1.0258391 0.40914124 -0.19702221
0.3919331 -0.5512619 0.7753337 0.2253378 -0.57231575 0.29516718 0.23160514 0.25307116
0.2511213 -0.035768203 -0.084831394 0.45439902 -0.54621625 0.7285989 -0.48181146 0.27459556
-0.5503215 -0.102575935 0.29978314 -0.48314774 0.38587448 -0.02633046 -0.08298419 0.33078772
0.07646695 -0.11003067 -0.35014024 -0.4071346 -0.24830599 -0.4298421 -0.51926374 -0.27609
0.23343146 1.1534077 -0.4382241 -0.5292113 0.39356408 -0.038784444 0.46410984 0.5951652
0.23768862 0.010357392 -0.0029639532 -0.087884024 0.5989123 -0.20630398 -0.2604443 0.9612103
0.4513851 -0.32262322 -0.18955451 0.2530112 -0.006506808 0.020618806 0.27988318 -0.2591801
0.24927059 0.5174702 0.20441638 -0.4678833 -0.9152583 -0.3934556 -0.2526647 -0.5341518
1.008434 -0.055758838 -0.1927167 -0.076233804 0.1708533 1.2223502 0.60289943 -0.5662113
0.6283819 -0.2861752 -0.617981 -0.90939814 -0.46710435 -0.24418445 0.10957998 0.0031915153
0.23869632 -0.73575354 -0.024681466 0.16426603 0.17489724 0.02410984 0.32742396 0.9710706
0.021707237 0.9794218 -0.24121147 -0.031904858 0.42046234 -0.1400444 0.0155632775 0.1453659
0.532251 0.15196434 0.6999353 0.20826352 0.4858905 0.26786792 0.7140601 -0.51432896
0.059031222 0.6576925 -0.36952356 0.20329484 -0.24825478 0.34966043 -0.57097787 -0.46749607
-0.1760224 0.51376504 0.4701329 0.2939609 -0.32687715 -0.10168833 -0.36694956 0.00022505308
0.3268092 0.4146002 -1.195526 -0.4210579 0.08664964 0.12732089 0.26911294 0.3118036

network_body._body_endoder.seq_layers.0.bias f4 [128]
00000000: c412 2e3d 788a a1bb 5f64 983d 1934 923d
00000010: 763c 053d 5d3d a6bd c6df 013d 8a40 19bc
00000020: f388 013d 7d7d b2ba 8c3f 703d 5497 023d
00000030: bdd9 e63c 0269 173d f089 303d 663f 233d
00000040: f20b b43d 5fd4 513d a4ba 3e3d 9d7f 933c
00000050: efa1 853d 644d 143d cdd7 863c 4a32 053d
00000060: 171f aa3c 059a 783d 02bd 273d d7bc 343d
00000070: 48c2 543d ab27 273e 2f7d 52bc 163c d13c
00000080: 96ed 2e3d 1b09 793d 35a7 0d3d 32e5 973d
00000090: 66a7 d83d ea6c 9c3c bc2f 293d 5df3 c63c
000000a0: beab db3a 7b97 9b3d 0826 bf3d 28a9 ce3c
000000b0: 60e7 913d eb1b 09bb 5ef7 16bb 7e03 37bd
000000c0: 1121 4b3d 78e9 863c edf7 79bc 24e5 83bb
000000d0: afcb 8c3d 6846 1d3d 1b27 893d bc7a cc3c
000000e0: 39da 4c3c f4d2 0bbc 7344 0a3d 0d2a d13c
000000f0: a4fe 663d e69b 6b3d e45a 8c3d 2bf7 a63d
00000100: bdd1 673d 3ab6 92bb c39d a0bd 30a8 063d
00000110: e23b a23c ac41 c53c 37f2 773d b906 2b3d
00000120: e770 323d c1d2 b03d 712f 0ebe 501a 32bc
00000130: 836b 3fbd c349 5a3d a542 5b3d 335b 94bd
00000140: 64ca 303d 54e3 af3d fb75 613c adf5 5b3d
00000150: e03a 193d 35b1 833d 6fe6 e23c 9f86 7d3c
00000160: 0fba 183c f0bf 303d a66c 0f3d 1faa 6c3d
00000170: 7024 443d 6230 713d 91ef 1a3e a1ad ad3c
00000180: 8139 873d 4d01 323d 8c54 583d 422f f8bb
00000190: b3b5 063d 66a7 ec3c a1c2 543d b6d1 443c
000001a0: dcdc 9f3c 6af1 343d b35a df3c fdb5 0b3d
000001b0: aa89 263d 6fdf 983d ea49 553d 61fa 0f3d
000001c0: 42c0 753d 88f4 6c3c 3254 9bbd 6722 113d
000001d0: c906 cebc 363f 273d 63a0 fcbc a2cc eebd
000001e0: 26ec 213d 1df6 273d 6bd3 e53c 3b8f e4bc
000001f0: 2268 413d f042 f93d d28c 7a3c 9f9e d83b
0.042498365 -0.004929837 0.07441019 0.07138843 0.032528363 -0.08117173 0.031707548 -0.009353766
0.031624746 -0.0013617721 0.058654353 0.0318826 0.028179998 0.036965378 0.043100297 0.039855383
0.08791341 0.051227923 0.046564713 0.018005187 0.06525027 0.036206618 0.016460324 0.032518663
0.020766778 0.06069376 0.040951736 0.044125404 0.051943094 0.16323726 -0.012847229 0.025541347
0.04270705 0.0607997 0.03458329 0.074167624 0.10578804 0.019094903 0.04130529 0.024285967
0.0016759557 0.07597252 0.09333426 0.025227144 0.071242094 -0.0020921181 -0.0023035626 -0.044681065
0.04959208 0.016468748 -0.015256864 -0.0040251184 0.06874787 0.038397223 0.06696912 0.024960868
0.0125032 -0.008534182 0.033756685 0.025532747 0.056395188 0.057521723 0.068532735 0.08152612
0.056596506 -0.0044772895 -0.07842591 0.03287524 0.019803945 0.024079166 0.06053373 0.041754458
0.043564703 0.08633948 -0.13885285 -0.010870531 -0.04673339 0.053293 0.053530354 -0.07243957
0.043161765 0.08588281 0.013761039 0.05370109 0.037409663 0.06430284 0.02769777 0.015473991
0.009321704 0.043151796 0.035015725 0.057779428 0.047886312 0.058884032 0.1513045 0.021200957
0.06602765 0.04345827 0.052815005 -0.007573993 0.032888126 0.028888416 0.051943425 0.01201289
0.019514494 0.044175543 0.027264928 0.034109104 0.04065863 0.074644916 0.052072443 0.03515089
0.059997804 0.014462598 -0.07584418 0.0354332 -0.02514972 0.040831767 -0.030838197 -0.11660124
0.03953185 0.041006196 0.028054914 -0.027900329 0.04721845 0.121709704 0.015292363 0.006610706

network_body._body_endoder.seq_layers.2.weight f4 [128, 128]
00000000: 5998 3e3e 6ad3 763d d5a2 0abb df3c 1d3e
00000010: 48c5 70be c173 4bbe 5b0a 403d 5492 3cbe
00000020: 8cc4 ef3c 63c0 65bd a758 263d 50b3 8dbd
00000030: f377 fb3d eca5 213c 6cec 01bd 2ef4 b23c
00000040: 2fc9 90bc f70d d8bc 6ade 123e b3b3 2dbd
00000050: 466c acbc eff3 3ebe 7eb5 e8bd fda5 c5bd
00000060: 8db4 fa3c db8f 963d 300a 36be 257f f8bd
00000070: c9a5 c9bd 0eb6 973c 8d54 83be 6e39 c93d
00000080: 79bd 2dbe 21f8 5dbd ca78 363e 059f 86be
00000090: 5e2f dfbd 8c76 8abe 889e 01be ae1e 643e
000000a0: bd74 ea3d 480b 553d c445 103d c242 5ebe
000000b0: 7a52 83bc e497 15bd fdaa e0bc c723 76bd
000000c0: 04f7 a13e 6842 e1bd 468f fabd add4 00be
000000d0: 7831 de3d cb93 12be 7f20 943d 59e7 95bd
000000e0: b44d 31bd ece8 643e 8426 81be 5eb1 3dbc
000000f0: 0f96 e23d d416 453e cc0a 21bd 7ddb 303d
00000100: 4227 12be db2c efbd 4f7c 053e b0e3 bf3e
00000110: 80d2 be3d 1227 37be 48bf 33be 6c70 0d3e
00000120: 2f51 49be 57d1 78bd 0bab 1bbd 33bc 033e
00000130: e2ef 60be fa22 293d c76a 3e3e f82f c2bd
00000140: 920a 293d 119c 823d cab6 433e 31b5 a83d
00000150: 49c3 6ebd 8039 813e 3baf 3ebe ddc6 cbbd
00000160: 51b2 b33b 79aa 9c3e 9c8a 81be 191d 06be
00000170: b3ad e63c 86c7 893e 4e80 26bd fb11 953d
00000180: d947 30be 7667 70bd 2be3 bcbd a690 77bd
00000190: 5e3f 9bbd 95df cdbd 1d50 9c3d 5095 223e
000001a0: f59d 3dbe 88bb 7dbb aa69 09be 1523 6abe
000001b0: e817 29bb 6a05 25be d609 9cbb 529f e7bd
000001c0: b9ec 3ebe f4de a1bc 054e 25be d320 123e
000001d0: acc4 6cbe b76f c9bd 8fc0 2a3d 8b7c 7b3a
000001e0: 7c5b 6fbd 785e 873e 4bac cdbd 254f 9f3d
000001f0: c922 be3d beb0 383d 59a1 89bc 1c45 fa3d
00000200: f103 4a3a ac1f 023d aa12 3ebe 3cb2 f4bb
00000210: 9e85 003e 73d2 343d a9ee 103e a1cf b23d
00000220: e5cc e83d 4264 153d f5a9 f1bd 613b 963d
00000230: f7dc 553a 3a52 bb3d 6769 6f3e 2185 a4bc
00000240: 931b d63d 32d2 2c3e 28b9 0ebe 0139 dabd
00000250: b7e1 d53d 633c 953e b403 263e de91 4bbd
00000260: e45f cebc 2093 36bd d32a 0b3e 3ba2 2c3e
00000270: f009 933d 75bd bdbd c250 403e a809 18be
00000280: 5e94 973d ea86 36bc 8a87 71be 0c51 0f3e
00000290: 2c04 023d 8ac0 723e aeb0 ba3d e7f2 343e
000002a0: 4456 00bd e072 cd3b 8040 a73d e102 0f3e
000002b0: a57a 03bd 985d 1a3b 0eb8 58be 9f03 90bd
000002c0: 17ea 9fbd 79e4 4b3d aa74 bb3d e25a 2dbd
000002d0: 1b6b 59be 427d fd3a b3d8 12bd be9d 473d
000002e0: 949b 0f3e bdff 63be 17df bf3b 92f6 50bd
000002f0: 0732 3c3e 4b08 413d c07e 043e 768c 363c
00000300: a72f 6a3e 3fba abbc dce5 11bd 6fbe a2bd
00000310: 2d39 13be 7383 fd3d 4672 3b3e cbe8 13be
00000320: da24 de3c 316c 713e 95f3 c0bd 55ea bbbd
00000330: 4720 76be fe59 f1bd b116 c0bd 0ece 1cbd
00000340: 59e6 1a3e 3060 e3bc 4907 a3bc 353b 213e
00000350: e774 673d b734 0dbe 0205 1f3e e646 a83d
00000360: 68bd 5d3d a1e1 58bd 38c0 ed3d c809 8f3d
00000370: 7941 b4bc 324a 24bd 2fa8 e13c edd8 a73d
00000380: 5279 b83a 845d a53d 3f0e 0e3e 8962 f13d
00000390: 156d 6cbe 48e1 c03d 8a39 ef3d a25f b2bd
000003a0: 41ac b33d f0b8 c33d e0a0 de3d 65cb e23d
000003b0: 8981 b6ba b3cd 4a3e a35e 5fbd b53c ca3d
000003c0: 3a3d c83d 6981 c7bd 1ee4 9dbd b88e 563c
000003d0: 8f07 f53d e1a7 493e fd9f dcbd 683e f2bd
000003e0: 9e49 bfbd c7cb 14be b698 b6bd fdf4 15bd
000003f0: 57bf 59be a157 c4bc 05c9 bb3d b9a4 f6bd
0.18612804 0.060260214 -0.0021154184 0.15355252 -0.23512757 -0.19868375 0.046884876 -0.18415195
0.029268526 -0.056091677 0.04061189 -0.06918967 0.12278738 0.009866219 -0.03171961 0.02184495
-0.017674057 -0.026373846 0.14342657 -0.042407703 -0.021047723 -0.18647741 -0.11362742 -0.096508004
0.030603671 0.07351657 -0.17777324 -0.12133626 -0.09846074 0.018519428 -0.25650445 0.09825407
-0.1696681 -0.054191712 0.17819515 -0.26293197 -0.108977064 -0.2704357 -0.12658131 0.22277328
0.11448047 0.05201271 0.035222784 -0.21705154 -0.016030539 -0.036521807 -0.027425284 -0.060092714
0.3163377 -0.10998994 -0.122343585 -0.1258113 0.10849279 -0.14314191 0.07232761 -0.07319517
-0.043286994 0.22354478 -0.25224698 -0.011577932 0.11063778 0.1924699 -0.039316937 0.04317807
-0.14272788 -0.116784774 0.13035701 0.374784 0.093174934 -0.17885998 -0.17553437 0.13812417
-0.19659875 -0.060746517 -0.038004916 0.12864761 -0.21966508 0.041293122 0.1859542 -0.094818056
0.041269846 0.063774236 0.19112697 0.082376845 -0.058291707 0.25239182 -0.18621533 -0.099500395
0.0054839035 0.3059881 -0.25301063 -0.13097037 0.028158998 0.26910037 -0.040649705 0.0727882
-0.17214908 -0.058692418 -0.09223016 -0.060440682 -0.07580446 -0.100524105 0.07632468 0.1587727
-0.18517287 -0.0038716514 -0.13419214 -0.22864945 -0.0025801603 -0.16115347 -0.0047619147 -0.11309685
-0.1864499 -0.019759633 -0.16143043 0.14270334 -0.231219 -0.09835761 0.041687544 0.00095934485
-0.058436856 0.2643926 -0.10042628 0.077787675 0.092839785 0.04509043 -0.01680057 0.12220213
0.0007706276 0.031768486 -0.18561807 -0.0074675363 0.12550971 0.044146013 0.14153542 0.08731008
0.113672055 0.036472566 -0.11799995 0.073355444 0.00081582315 0.09146543 0.23380052 -0.020083012
0.10454478 0.16877058 -0.13937819 -0.10655404 0.10443442 0.29147634 0.1621235 -0.049699657
-0.025192209 -0.044573903 0.13590555 0.16858761 0.0717963 -0.09264652 0.18780807 -0.14847434
0.07401346 -0.011140564 -0.2358686 0.1399576 0.03174226 0.2370626 0.0911573 0.17670785
-0.03133227 0.0062697977 0.08166599 0.13965942 -0.032099385 0.0023554321 -0.21163961 -0.07031941
-0.07808321 0.049778435 0.09153111 -0.042323 -0.21232264 0.0019339698 -0.03585119 0.04873442
0.14024192 -0.22265525 0.005855452 -0.051016398 0.18378459 0.04712705 0.12938976 0.011141887
0.2286974 -0.020962832 -0.0356196 -0.079464786 -0.1437728 0.123785876 0.1830531 -0.14444272
0.027117182 0.23576428 -0.094214596 -0.09175555 -0.2403575 -0.11784743 -0.09379328 -0.038282447
0.15126933 -0.027755827 -0.019900935 0.15745242 0.05650797 -0.1378964 0.15529254 0.08216648
0.05413571 -0.05294955 0.116089284 0.069842875 -0.022003876 -0.04010982 0.027546016 0.08195672
0.0014074242 0.08074477 0.13872622 0.11786372 -0.23088486 0.09417969 0.116808966 -0.08709647
0.08773089 0.095567584 0.10870528 0.11073951 -0.0013924103 0.1980503 -0.054533612 0.0987486
0.09777303 -0.0974148 -0.077095255 0.01309555 0.11964332 0.19692947 -0.10772703 -0.11828309
-0.09340213 -0.1453086 -0.08915846 -0.036610592 -0.21264397 -0.023967566 0.09169201 -0.12043137

network_body._body_endoder.seq_layers.2.bias f4 [128]
00000000: ffba a63d c706 363d 507d b53d 9bcf a63d
00000010: 10df 773d 3bd4 9e3d 2c8c 163e 09e0 b53d
00000020: ac9d 8e3d dab5 09bc 32f4 6d3d bbf3 e43d
00000030: 71dd 4c3d 6df3 7e3d a31f 373d f505 c13d
00000040: 463f c33d 8daf ab3d f00a c23d 045b a33d
00000050: 6526 a33d e84b b63d 35d1 a53d 8614 7f3d
00000060: a6b4 c83d fb57 c73d e014 b23d cb8d b23d
00000070: d43d 443d ae6b 923d 8ecb 463d 6ac1 853c
00000080: 80e3 a53d 8b9e 693d 26d0 a53d c0d1 b13d
00000090: d34a ac3d db87 c53d 3b18 6e3d f7c2 bc3d
000000a0: 085b 1d3d fddd 833d f340 c43c efc3 b83c
000000b0: bcc8 a93d d712 3f3d f882 7c3d 060a a73d
000000c0: e34a b13d 7f98 a33d cd6f 983d 4768 6e3d
000000d0: 2c04 783d 86fd 033e b0e9 c03d 04cf 2fbd
000000e0: b097 a93d 223e 6b3d 18be aa3d 8d22 b23d
000000f0: 166f 943d 856f ca3d d07f a03d 56e8 e33d
00000100: 68d3 b63d f55d 9c3d c445 8f3c 2a3e 933d
00000110: 6b30 9c3d f9be 023d 21b7 983d 8183 ce3d
00000120: 5d1b 6d3d 2074 a63d d888 c63d 5634 503d
00000130: 4e76 953d 948a a23d 075b 903d 098c bb3d
00000140: 36cd 343d 7402 7f3d e1bc bc3d fd70 e4ba
00000150: edcc 053d f5e3 8e3d 38ec 863d ce36 3b3d
00000160: 18f0 b63d 54cb 843d cd53 213e 7b5b b93d
00000170: 1392 993d 949f aa3d f549 8c3d afe8 8d3d
00000180: 2849 bd3d ce40 713d cfc5 943d 8180 aa3d
00000190: 85c6 af3d 5d99 543d fbb6 a63d 8a14 be3d
000001a0: 4550 703d d68f 4d3d 5428 82bc ef54 5b3d
000001b0: 6db0 bc3d 0e26 4f3d 799f 913b 7629 b83d
000001c0: 9b8e 893d 8ebf 9c3d 3697 653d 4c81 a93d
000001d0: 81e8 00bd e9b5 853d 76d0 163d 190e 363d
000001e0: 1296 f33c ad76 b03d a48f 983d 75ef c33d
000001f0: 047b ba3d 9cdd 5c3d 328a 8b3d bbc3 f93c
0.081411354 0.044440057 0.08861792 0.08145066 0.060515463 0.077553235 0.14701909 0.08880622
0.06963667 -0.008405173 0.05809421 0.111793004 0.05001587 0.062243868 0.044707906 0.09424964
0.09533553 0.08383093 0.094747424 0.07976344 0.079663076 0.08901197 0.08096544 0.062275432
0.09800081 0.09733578 0.08695388 0.08718451 0.047910526 0.071494445 0.04853397 0.016327579
0.08100033 0.057035964 0.08096342 0.08682585 0.08412709 0.09645053 0.058128577 0.09216874
0.038416892 0.06438825 0.023956751 0.022554366 0.0829024 0.046648826 0.06164834 0.08156209
0.08656862 0.07988071 0.07443199 0.058204915 0.060550854 0.1288968 0.09419572 -0.042922035
0.08280885 0.0574323 0.08337039 0.08697996 0.072477505 0.09884552 0.07836878 0.11128299
0.08927041 0.076351084 0.017489322 0.07189591 0.076264225 0.031920407 0.07456804 0.10083676
0.057887424 0.08127618 0.096940696 0.05083116 0.072979555 0.07936588 0.07048612 0.09157569
0.044141017 0.0622582 0.09215713 -0.0017428693 0.032666136 0.06977073 0.06588024 0.045706563
0.08932513 0.06484094 0.15754624 0.09050652 0.074985646 0.08331218 0.06850044 0.069291465
0.09242469 0.058899693 0.072642915 0.083252914 0.085827865 0.05190407 0.081403695 0.09281261
0.0586703 0.050186 -0.01588837 0.053547796 0.09213338 0.0505734 0.0044440595 0.08992283
0.06716653 0.07653724 0.05605241 0.082766145 -0.031471733 0.06528837 0.036819898 0.04444704
0.029734645 0.086163856 0.07449272 0.09567157 0.091054946 0.05392228 0.06813468 0.03048884

action_model._discrete_distribution.branches.0.weight f4 [5, 128]
00000000: 0600 c0bb a678 97bd f39f 0cbd 4f4b cdbd
00000010: f4a5 2ebd 59a9 7fbd eb48 f0bd e272 a0bd
00000020: bb2f 23bd 6b57 7b3d 2348 4ebd 629f fdbd
00000030: e778 30bd 2fec 77bd 07e8 ad39 ec51 6fbd
00000040: 9094 f4bd 33bb b2bd 8619 88bd 5753 1bbd
00000050: b029 e0bd dec9 71bd bba3 d3bc 97e3 81bc
00000060: 009a edbd ef0c ccbd efe1 9cbd ef5f 73bd
00000070: 4113 56bc 885c 37bd 2930 98ba 3624 6e3d
00000080: 53f3 80bd fc5a 8abb 3813 78bd 39d6 e1bd
00000090: d398 c1bd c786 9abd 31b8 22bd 6cea bcbd
000000a0: 3282 49bd 340a 1dbd c033 c1bc 1bd0 f0bb
000000b0: 642c e8bc 8589 76bd b673 b63c b955 d2bd
000000c0: 6b02 1dbd 5107 87bd 4fa3 97bd e96c 20bd
000000d0: 397a bbbb 83e3 fdbd 5dff f6bd c0ca 8e3d
000000e0: b934 fbbc 6472 25bd f6ca 7dbd 3bbe c8bd
000000f0: 4ab8 31bd 9899 d9bd 1d38 8dbd c15d cfbd
00000100: 903f b9bd 7281 9ebd 4eaf 08ba 5f23 a6bd
00000110: 2d05 ecbc 8a9f 603b 5f8d 88bd 81d1 bdbd
00000120: 96e9 b8bd d0b0 d0bc ac7f c1bd 84c0 27bd
00000130: 9d2e 82bd 1300 60bd 2879 cfbd 194f c0bd
00000140: 3e31 0c3d b087 a6bd 9851 bbbd 7875 2c3d
00000150: 6cfa 1ebd 09e3 86bd 0637 9bbc 667b 78bc
00000160: 115c 9ebd ce6d 73bd e669 10be 6b4d ebbd
00000170: d1f7 98bd 41da 94bd 2910 41bd 3be3 6bbd
00000180: aac7 f3bd 834d b6bc 274f a0bd a0bd 9cbd
00000190: 4056 f3bd 07dc 213d b641 98bd b236 93bd
000001a0: d10d 1c3c 7ddf 25bd 9bc8 8b3c a3dc 1abd
000001b0: 72b8 c5bd cb02 0cbd ae01 323c e2a8 ecbd
000001c0: 5c96 6bbd ed6a 74bd 424b 5c3c 7c52 a7bd
000001d0: 6368 943d ffaf 8fbd a51b 72bd 20cb 72bd
000001e0: 1578 6b3d 2887 2fbd 427e 53bd bdf0 39bd
000001f0: c206 93bd e463 68bd 2525 6ebc b3ba 0f3d
00000200: 3848 1c3e 1b9f 51bd a1b5 1a3e f06d e03d
00000210: 667c 42bd 2ef2 0ebe 5f7c 89bd 202e 58bd
00000220: 3869 15be 3cdd 94bb 7635 1e3e 2c33 883d
00000230: 2a90 67bd 716b d73d 693c 283e 1ab9 f2bd
00000240: cddd ea3d 3d4a c63d 522c 0dbe 8568 12be
00000250: ec3d c93d 03ee 08be e39c 1dbe 7bde 98bd
00000260: 8d36 093e 84dc 003e 3300 1b3e ba88 c3bd
00000270: 10d8 ebbd bff1 07be cb22 f83d 8a47 b5bd
00000280: f5f6 aabd 5e7c 17bd 6084 613d 8943 ad3d
00000290: 5380 b3bd ca03 d0bd 718a 203e 7dfc 89bc
000002a0: 2d3b 173e c03d 9c3c f808 bcbd b9a6 26be
000002b0: a3b1 263e e70f 753d 395a 543c 3287 a13d
000002c0: b1ec d2bd 186b 77bd 9baa 743d 949f be3d
000002d0: 6c85 f3bd 7611 743d 60f8 b13d 5c62 853d
000002e0: 22f0 1bbe 9bf8 0ebe cf26 123e cf55 003e
000002f0: ed7d d33c 4d73 9dbd 37c0 103e 6fbd 073e
00000300: 8ae0 c4bd 4d67 103e cc19 f0bd e837 163e
00000310: 7ace 113e 8e60 02be 05c3 103e dac2 bc3d
00000320: 31fc 6b3d a145 213e f38d b3bd cc07 e1bd
00000330: c2fc 1c3e 8e89 1b3e 2034 943d 2abf ef3b
00000340: 828f 02be d2e1 c83d 22dc 4abd ee5a 09be
00000350: b1d4 80bd 66c9 0fbe 1a4f 793d 7b2f 17be
00000360: 8bc1 233e 93c5 f7bd f0de 643d 7976 063e
00000370: effb 0f3e 2448 ad3d e63d 103e 5e8b 043e
00000380: 306d 9d3d 1b05 2ebb 8b9e 073e f071 bbbd
00000390: 6ddd 193e 42af 0dbe 3733 0dbe d4fe 9cbd
000003a0: 4e89 07be 8d4c a0bd 172c adbd cb48 c43c
000003b0: 1f65 083e b933 11be d086 ebbd 412b 053d
000003c0: a257 cbbd 0633 bebd dde6 7e3c c08c bbbd
000003d0: 6d2b 81bd ca2d c73d 6baa 0b3e 853b eb3d
000003e0: 1af7 10be b96a e2bd 1a66 03be c911 1cbe
000003f0: bc8d d0bd eca7 073e 3c5d 05be 8a35 1d3e
-0.005859378 -0.07396059 -0.034332227 -0.100241296 -0.042638734 -0.062417362 -0.11732658 -0.07834412
-0.03984044 0.061362665 -0.050361764 -0.123839155 -0.04308405 -0.060527977 0.00033170005 -0.058427736
-0.119423985 -0.08727112 -0.06645493 -0.037921276 -0.10945451 -0.059030406 -0.025834909 -0.015855594
-0.11601639 -0.099634044 -0.07660281 -0.05941766 -0.013066114 -0.04476598 -0.0011611033 0.058140002
-0.062964104 -0.004222272 -0.060565203 -0.11027188 -0.09452977 -0.07545238 -0.03972644 -0.092244
-0.04919643 -0.03833981 -0.023584247 -0.007349027 -0.02834148 -0.060189743 0.022271972 -0.102702565
-0.038332384 -0.06593192 -0.074041955 -0.039166365 -0.005721357 -0.1239691 -0.120604254 0.06972265
-0.030664789 -0.040392295 -0.061961137 -0.098019086 -0.043388642 -0.10624999 -0.068954684 -0.10125304
-0.09045327 -0.077395335 -0.0005214111 -0.08112215 -0.028811062 0.003427478 -0.066675894 -0.09268475
-0.09028928 -0.025474936 -0.094481796 -0.04095508 -0.06356547 -0.05468757 -0.101305306 -0.09390087
0.03422665 -0.08131349 -0.09146422 0.042104214 -0.03881304 -0.06586272 -0.018947136 -0.015166139
-0.07732404 -0.05943089 -0.14102897 -0.11489376 -0.07469142 -0.07268191 -0.047134552 -0.05758975
-0.11903317 -0.022253757 -0.07827597 -0.076533556 -0.11881685 0.039516475 -0.07434408 -0.07188167
0.009524778 -0.04049634 0.01706343 -0.03780807 -0.09654321 -0.03418235 0.010864658 -0.11555649
-0.05751644 -0.059672285 0.013445677 -0.081700295 0.07246473 -0.070159905 -0.059108395 -0.059275746
0.057487566 -0.042853504 -0.05163408 -0.0453956 -0.07179023 -0.056735888 -0.014535223 0.03509016
0.15261924 -0.051177125 0.15108348 0.10958469 -0.047481917 -0.13959572 -0.06713175 -0.052778363
-0.14590919 -0.0045429748 0.15450081 0.06650385 -0.05653397 0.1051854 0.16429295 -0.118517116
0.114680864 0.096821286 -0.13786438 -0.14297684 0.09826264 -0.13372044 -0.15391879 -0.0746431
0.13399716 0.1258412 0.15136795 -0.09547563 -0.1151582 -0.13275813 0.12116011 -0.088515356
-0.083478846 -0.03698384 0.055057883 0.08460147 -0.0876471 -0.10156973 0.15677811 -0.016844029
0.14768668 0.019072413 -0.09181398 -0.16274537 0.162787 0.05982962 0.012960964 0.078871146
-0.102990516 -0.060404867 0.059733015 0.09307781 -0.118906826 0.059586965 0.08689952 0.06512901
-0.15228322 -0.13962023 0.14272617 0.12532733 0.025816882 -0.076880075 0.14135824 0.13255857
-0.0961314 0.14101906 -0.1172367 0.14669764 0.14238921 -0.12732145 0.14136894 0.092168525
0.057613555 0.15749218 -0.08767309 -0.10987815 0.15330794 0.15189192 0.072365046 0.0073164897
-0.12750056 0.09808697 -0.04952634 -0.13413593 -0.06290568 -0.14041671 0.060866453 -0.14764206
0.159918 -0.12098231 0.055876672 0.13131131 0.14060949 0.08461025 0.14086112 0.1294379
0.076868415 -0.0026553336 0.13244073 -0.09152591 0.15025873 -0.13836387 -0.13789068 -0.07665792
-0.13235971 -0.07827101 -0.08455675 0.023960492 0.13319825 -0.14179887 -0.11500323 0.032511953
-0.09928824 -0.09287076 0.015557972 -0.09157705 -0.06307111 0.097255304 0.13639228 0.11485962
-0.14156762 -0.11055512 -0.12831917 -0.1524116 -0.10183284 0.13247651 -0.13023847 0.15352455

action_model._discrete_distribution.branches.0.bias f4 [5]
00000000: e859 e4bd 453a 873c f82c b63c a15c 1f3d
00000010: eb28 173d
-0.11149961 0.016507277 0.02223824 0.038906697 0.036904257

exp_avg f4 [128, 6]
00000000: defb b4b9 1c79 4cb7 1695 9d38 ca5c 3139
00000010: 50e3 b538 c09b 4239 0f76 4bb9 0044 1c39
00000020: 9923 a239 2bfc 9bb9 3fc4 45b9 ba87 8839
00000030: 43b2 e5b9 a5eb cd38 c622 fb39 8d8a 4a39
00000040: d5d4 3538 35d5 c939 72d1 04b6 1150 8139
00000050: de79 7539 3ef8 f9b9 708f 89b9 8ee8 4739
00000060: a168 4039 d34b 50b7 3014 5bb9 77fc c538
00000070: 8c69 7038 71d1 45b9 6969 6237 70eb 00b8
00000080: fa4a f5b8 80ad 7e39 bbb6 c038 c6ae cab7
00000090: 2852 f8b9 5495 6439 6307 d139 7969 cab7
000000a0: ccb2 9ab8 2d3b 4739 c00b eeb8 5787 9eb6
000000b0: c58b 89b8 76e8 283a 518b 9939 f8a8 16b9
000000c0: 648c 38ba 5f6f 7837 6eef dc37 e3f6 0c3a
000000d0: 97ce 7739 2c8c b038 cc87 6eba 8577 ce38
000000e0: bdc0 1d39 5c0c 1b3a c39f 4a39 e3a6 5439
000000f0: bc86 de32 cb37 2639 a16c ff39 5191 99ba
00000100: c199 d6b9 0d59 3439 d8bc 133a ad15 a036
00000110: 8748 b2b8 9c6e 1e3a 63a3 2339 4be7 88b9
00000120: db12 9439 1578 b2b8 21eb bc37 5774 acba
00000130: 8036 e2b9 5dfc c138 7a38 0e3a 2a8e 29b9
00000140: 2bdc b8b9 ca71 8e38 d722 8b38 adf0 97b9
00000150: 6cdd 3eb9 4cdc 66b9 e607 8fb9 2846 1439
00000160: ae77 6539 8159 ddb8 4616 4eba 24e6 d938
00000170: 091c 9339 b33f f7b8 bb44 a6b8 af8f 0e39
00000180: bfc1 153a e2d6 1bb9 c97b 33b9 6ac3 dab9
00000190: 0f42 1db8 902a 26b9 2293 6cb7 9735 05b9
000001a0: 5223 85b9 b489 2c3a c642 6f39 6cfc 5eb9
000001b0: 01a7 9d37 e7cd ef38 2f33 b339 10d0 81ba
000001c0: 9e4a c0b9 4b2b 3239 a103 cfb8 0406 f637
000001d0: 3212 95b8 41fa 0e3a 0003 2039 8975 90b8
000001e0: d23e dfb9 518c d938 1c94 86b9 03e6 8f3a
000001f0: 41b0 f539 240b 2939 0739 343a fd44 8ab9
00000200: 6266 93b9 cdf0 9639 c777 4e39 6fd3 94b9
00000210: f481 6c38 601c adb8 af3d 53b8 4760 a5b8
00000220: bfb9 3cb7 e751 feb8 abe8 e8b9 8a5d cb38
00000230: 4505 4539 1ee4 4839 5ebc 4338 7507 3939
00000240: 0087 e838 5267 6bb8 9650 a7b8 fec4 9e37
00000250: f98c 1837 5299 19b9 3c5d 15b9 186d 1839
00000260: 71fb b539 f43b fab9 ed42 52b9 15e6 4e39
00000270: 517c 93b9 142a 7138 c760 ebb8 0641 603a
00000280: d433 da39 08f5 0ab9 5410 2539 e3d4 8db9
00000290: 38cc 80b9 3466 383a ff8e a239 5fc6 89b9
000002a0: 7b7b 8c3a f039 26b9 9904 98b9 cbd6 78b9
000002b0: 0fff 10b8 27d9 92b9 9841 a4b8 78a4 9db8
000002c0: b840 9eb8 75f6 d038 bdd9 eb38 f4d6 62b8
000002d0: a2fd b737 2ed4 a1b9 ebda f1b9 a696 3f3a
000002e0: 3310 cd39 cabd 97b9 7128 4639 ef0c 0eb9
000002f0: 1b18 cab8 7649 ffb9 4bf7 71b9 5416 da38
00000300: 85ff 1cba d23e 96b7 cbd1 5eb8 fb64 453a
00000310: 21c0 9f39 fd2d a9b8 b2ee 32ba 129d bb39
00000320: bb75 8539 7547 22ba d618 84b9 8a74 a539
00000330: 0d96 1539 0fe9 4337 8fac c838 d2e0 5cba
00000340: 70ed a7b9 babd 1238 90a0 61b9 6b02 a1b9
00000350: e945 2fba 07a4 9e3a 807d 183a 5c0c 83b9
00000360: 8d3c 9f39 a7cc d9b8 3709 51b9 b394 27b9
00000370: e6ee 46b7 73a6 28b9 15df ff39 bcfb a4b9
00000380: 2318 aab9 ad8e 5839 1208 1639 254c a6b9
00000390: beaf bab9 a510 86b9 c8d0 8db9 03b5 d239
000003a0: fb76 9039 a4ec 3fb9 df6f 91b9 db39 1638
000003b0: 2bfd a239 ba34 25ba 6acf 5bb9 32dc 9e39
000003c0: eb38 37b9 d813 d238 4b8c 4c39 435f d9b7
000003d0: 15d8 04b8 0b10 f438 77b8 a8b9 0ce4 b839
000003e0: e71d 1c3a 7b53 0dba a5a0 83b9 71c5 cb39
000003f0: 9fd6 163a 560a 3eb9 fccd 6bb8 3e7a 0eba
-0.0003451993 -1.21875455e-05 7.514113e-05 0.00016914602 8.673093e-05 0.00018559303 -0.00019403569 0.00014902651
0.0003092557 -0.00029751784 -0.00018860491 0.00026041066 -0.000438111 9.819054e-05 0.0004790036 0.00019315835
4.3351978e-05 0.0003849656 -1.9791446e-06 0.00024664451 0.0002341042 -0.00047677936 -0.00026237546 0.00019064752
0.00018349524 -1.241542e-05 -0.00020892988 9.440717e-05 5.7318757e-05 -0.00018865407 1.3495192e-05 -3.0736846e-05
-0.00011696476 0.00024287961 9.18931e-05 -2.4161662e-05 -0.00047363457 0.00021799403 0.0003986909 -2.4129391e-05
-7.376596e-05 0.00019000164 -0.00011350913 -4.7245226e-06 -6.558703e-05 0.0006443331 0.00029286233 -0.0001436806
-0.0007039963 1.48078825e-05 2.6337537e-05 0.0005377365 0.00023632716 8.418443e-05 -0.0009099215 9.845108e-05
0.00015044487 0.00059146225 0.00019323737 0.00020280066 2.5905472e-08 0.00015851778 0.00048718325 -0.0011716281
-0.00040931816 0.00017199312 0.0005635745 4.770895e-06 -8.501211e-05 0.0006043704 0.00015605758 -0.00026112268
0.00028242808 -8.5100684e-05 2.2520837e-05 -0.001315723 -0.00043146685 9.2499635e-05 0.0005425286 -0.00016170056
-0.00035259253 6.7922825e-05 6.634526e-05 -0.00028980282 -0.00018202298 -0.00022016576 -0.0002728097 0.00014140515
0.00021883726 -0.000105547726 -0.00078615954 0.000103902334 0.00028058913 -0.00011789743 -7.928299e-05 0.00013595702
0.00057127693 -0.00014862002 -0.00017116884 -0.00041725795 -3.749324e-05 -0.0001584685 -1.4100953e-05 -0.00012703832
-0.00025394052 0.00065817987 0.00022817691 -0.00021265604 1.8793626e-05 0.000114347604 0.00034179675 -0.0009903926
-0.00036676688 0.0001699153 -9.871205e-05 2.9328286e-05 -7.108263e-05 0.0005454161 0.00015259907 -6.888348e-05
-0.0004258068 0.00010373502 -0.00025668822 0.0010978583 0.0004686136 0.00016121246 0.0006874953 -0.0002637281
-0.00028114306 0.0002878964 0.00019690311 -0.0002838629 5.6387813e-05 -8.254568e-05 -5.0363768e-05 -7.885746e-05
-1.1248921e-05 -0.00012126919 -0.0004442384 9.697217e-05 0.00018789347 0.00019158467 4.6667054e-05 0.00017645753
0.00011087768 -5.612459e-05 -7.978191e-05 1.89268e-05 9.092729e-06 -0.00014648333 -0.0001424448 0.0001453649
0.0003471035 -0.00047728384 -0.00020052092 0.00019731403 -0.00028130648 5.7498066e-05 -0.000112236994 0.0008554611
0.00041618815 -0.00013251987 0.00015741709 -0.0002705223 -0.00024566217 0.00070342724 0.00031005588 -0.00026278474
0.0010717952 -0.00015852577 -0.00028995125 -0.0002373114 -3.4569817e-05 -0.0002800908 -7.832347e-05 -7.516978e-05
-7.546082e-05 9.964119e-05 0.0001124623 -5.408279e-05 2.1933407e-05 -0.000308664 -0.0004613021 0.000730852
0.00039112716 -0.00028942368 0.00018897817 -0.00013546993 -9.6366006e-05 -0.00048692123 -0.00023075675 0.00010399209
-0.0005989003 -1.7910646e-05 -5.312431e-05 0.0007530001 0.0003046999 -8.067114e-05 -0.00068257295 0.00035784446
0.00025455453 -0.00061904575 -0.00025195506 0.0003155808 0.00014265646 1.1677169e-05 9.568885e-05 -0.0008425835
-0.00032029627 3.498581e-05 -0.00021517486 -0.00030710115 -0.00066861376 0.0012103327 0.0005817041 -0.00024995476
0.00030371957 -0.00010385486 -0.00019935226 -0.00015981756 -1.18573425e-05 -0.00016083736 0.000488036 -0.00031468074
-0.0003244291 0.00020652516 0.00014308121 -0.0003171872 -0.00035607623 -0.00025570873 -0.0002704917 0.00040189186
0.00027554468 -0.00018303335 -0.00027739906 3.581667e-05 0.00031087673 -0.00063021074 -0.00020962735 0.00030300167
-0.00017473444 0.000100172765 0.00019507219 -2.5912776e-05 -3.1672495e-05 0.00011637815 -0.00032180894 0.00035265123
0.00059553835 -0.00053911627 -0.00025105957 0.00038866283 0.0005754027 -0.00018123662 -5.6220204e-05 -0.00054350856

exp_avg_sq f4 [128, 6]
00000000: be75 7b35 ec56 3f36 8afa 2334 e2d7 dd34
00000010: bb73 dc33 558e bd33 97fa fc35 8fbf 1536
00000020: dc25 0236 198c 3f35 5836 9134 616e 7e34
00000030: b83c a136 cdc8 7737 f21e 3236 99e3 3c35
00000040: 8a89 2835 9bf7 0f35 55cc 1b36 4042 af35
00000050: 6418 b336 b1f0 d235 7ff5 ad34 8e18 9634
00000060: 9591 1c35 b25d 0936 f298 da34 6267 4f34
00000070: e5a0 f733 a28d db33 111f e732 8e16 0e34
00000080: 1b00 1735 00ad d434 630e e832 d4b6 bd32
00000090: 5ff1 4736 cdcb ec36 085d 3335 8ae3 0936
000000a0: 1006 8e34 fa92 7e34 9881 f435 5a9b fa34
000000b0: c89c bf35 fb54 fc35 fec5 a334 a3c3 9334
000000c0: c501 2736 d4bc 2f36 b2a7 e835 0659 0936
000000d0: 96e3 6834 c5ed 4d34 99bc a436 ee73 6e36
000000e0: 705d 3d36 3b12 7436 c72f ba34 e0d4 9b34
000000f0: 4452 1836 82f1 a736 fc0f 1037 2595 0d37
00000100: 3d51 1635 9284 f834 67e5 1936 1f66 c335
00000110: 7d7c 4535 68d5 4b36 a59f a734 b994 8334
00000120: ae13 e835 542a f035 ef61 c436 52d1 2b37
00000130: e7b7 2935 54c5 fd34 d34d 4a36 9c78 cc36
00000140: 3375 a435 6201 b135 2a24 9934 d771 8734
00000150: cd9d 0c35 dcd1 b735 fdb6 2236 a407 1734
00000160: 7a99 3d34 978a 3334 e445 ad36 d45a bd35
00000170: 3cd7 1935 7fab 1035 c8b7 3734 155f 1734
00000180: b290 9636 4ecc 8536 13a0 2e36 ca88 ff35
00000190: 4a7a 8434 f89f 6b34 5925 1135 02a6 b435
000001a0: 36fb 3536 d2bc 5136 971e 6634 cc88 6134
000001b0: 22a6 9c35 e123 5e36 f780 d736 1933 c636
000001c0: 0cc2 f534 b7b7 c134 9166 a134 6ffc 6335
000001d0: 5d9c ba35 0739 2a36 2b21 0334 1808 c533
000001e0: 6b3a f134 3ce4 7336 8dd7 0736 d0d6 0737
000001f0: d79c e534 0542 da34 6887 ea36 3b39 3c36
00000200: 5aa9 5736 8769 2835 0c64 f034 d68d c734
00000210: d28c cd33 4eb3 2835 e4d9 9934 1957 6334
00000220: dcf9 2933 0423 1e33 1b97 b835 736b 4f36
00000230: e0ae 8634 b2a7 be35 62f2 2534 ad7e 1134
00000240: 4fe3 7034 ebef 2c35 3642 d334 030b 8833
00000250: c4ea 7933 3f8e 5933 e95b 8035 282e e035
00000260: 97e4 1236 d83c bf35 ab16 5334 884e 3a34
00000270: 2165 c635 1fe4 6335 5cf0 d135 69a7 8236
00000280: 2c4e 1735 5432 0c35 2009 8935 349b 8d35
00000290: 6b50 f636 548a 9d36 d8e7 0a35 5585 e234
000002a0: 472f 2237 ffea ec36 5687 4036 1b4b 0c36
000002b0: 61a2 fd34 4cb3 d634 889b ef33 50ed 2735
000002c0: fe64 0535 f2b0 5634 0971 ab33 0cef 9f33
000002d0: fae3 0d36 aa64 3136 9bbd f436 168b 6036
000002e0: 86f3 1235 43f7 0535 1b45 9d35 ab30 7834
000002f0: 6edf bf33 ded8 6935 f0e9 3234 aff0 1f34
00000300: a9c7 3336 e936 a135 be48 1436 9021 4336
00000310: 7416 8334 e7b2 8234 9835 f536 7f11 b235
00000320: 1f40 c936 f0c0 0b36 bea3 0535 90a4 e634
00000330: 3fbf 2435 4ddb be35 06cf a436 236f ac36
00000340: 0abe c734 64a9 9e34 fe11 3336 9f79 b036
00000350: f9b4 3f37 a982 2337 fc94 7235 fa1a 6135
00000360: 128d 9235 3d9f 2836 0c9d 2435 e7f5 ae34
00000370: 0fd5 0e34 5340 fb33 7ac4 5636 85ca 8236
00000380: 121b 2936 ca8c aa35 fc11 b534 34b0 a334
00000390: 7dc9 b435 5d86 e735 4678 af36 97e6 b335
000003a0: c42b 9034 c497 9734 3a40 9f35 0938 3e36
000003b0: dec5 c435 169c 2f36 2e9b a834 13a1 8d34
000003c0: ada0 2235 f061 d035 801f f734 6680 f734
000003d0: a0bd b233 7160 9d33 2cb7 3336 c0e2 ab36
000003e0: 3989 b536 87c0 9336 f1a1 3635 b5d7 2335
000003f0: 5150 7236 273a 8f36 979a 5436 19c2 5f36
9.3676124e-07 2.8511813e-06 1.5271704e-07 4.1321533e-07 1.02655996e-07 8.8268884e-08 1.8848394e-06 2.2314232e-06
1.9393547e-06 7.1356914e-07 2.7047895e-07 2.3695749e-07 4.8052425e-06 1.47691e-05 2.654208e-06 7.0366656e-07
6.278502e-07 5.3631965e-07 2.3215737e-06 1.3057797e-06 5.337455e-06 1.571627e-06 3.2402383e-07 2.7957543e-07
5.832638e-07 2.0469129e-06 4.0716947e-07 1.9315988e-07 1.15311e-07 1.0223745e-07 2.6906067e-08 1.3232986e-07
5.6252037e-07 3.961395e-07 2.7014897e-08 2.2085636e-08 2.9793807e-06 7.0570736e-06 6.6818075e-07 2.0547036e-06
2.6453972e-07 2.3709063e-07 1.8217133e-06 4.6679162e-07 1.4276238e-06 1.8800196e-06 3.0505174e-07 2.7523228e-07
2.488597e-06 2.6186945e-06 1.7334153e-06 2.046641e-06 2.1689479e-07 1.9178613e-07 4.9095365e-06 3.5532244e-06
2.8217582e-06 3.6369445e-06 3.4679962e-07 2.9025887e-07 2.269765e-06 5.005103e-06 8.5867905e-06 8.43898e-06
5.599757e-07 4.6290057e-07 2.2932306e-06 1.4558353e-06 7.3569373e-07 3.0373576e-06 3.122233e-07 2.4508861e-07
1.7291075e-06 1.7893713e-06 5.852656e-06 1.024113e-05 6.322502e-07 4.7268497e-07 3.0145645e-06 6.0937145e-06
1.2253062e-06 1.318793e-06 2.8524784e-07 2.522854e-07 5.2383695e-07 1.369564e-06 2.4246394e-06 1.406575e-07
1.7657831e-07 1.6721093e-07 5.163938e-06 1.4108032e-06 5.731015e-07 5.389374e-07 1.7110062e-07 1.4097562e-07
4.487193e-06 3.987493e-06 2.6021196e-06 1.9038791e-06 2.4675893e-07 2.1944277e-07 5.407106e-07 1.345936e-06
2.7117326e-06 3.1253335e-06 2.1431548e-07 2.1004524e-07 1.1671257e-06 3.3101462e-06 6.422513e-06 5.9068084e-06
4.5775994e-07 3.6082722e-07 3.0063214e-07 8.493143e-07 1.3903588e-06 2.5365168e-06 1.2212392e-07 9.1749996e-08
4.4932253e-07 3.6342672e-06 2.0242035e-06 8.096642e-06 4.276869e-07 4.06537e-07 6.989507e-06 2.8047496e-06
3.2136072e-06 6.273844e-07 4.4776277e-07 3.7169838e-07 9.5716715e-08 6.28458e-07 2.8657007e-07 2.1172708e-07
3.9575625e-08 3.6819088e-08 1.3753046e-06 3.0907947e-06 2.5086683e-07 1.4204909e-06 1.5455001e-07 1.3550262e-07
2.2434436e-07 6.442412e-07 3.9349987e-07 6.3349965e-08 5.818835e-08 5.065362e-08 9.563493e-07 1.6702734e-06
2.1888752e-06 1.4248317e-06 1.9659153e-07 1.735117e-07 1.4781582e-06 8.489605e-07 1.5641667e-06 3.893791e-06
5.636564e-07 5.22273e-07 1.0209951e-06 1.0550489e-06 7.340733e-06 4.695068e-06 5.1746383e-07 4.2192792e-07
9.66696e-06 7.0607052e-06 2.8689005e-06 2.0905343e-06 4.7243068e-07 3.9991062e-07 1.1157596e-07 6.2557683e-07
4.9693324e-07 1.9994675e-07 7.983369e-08 7.447497e-08 2.1143337e-06 2.643365e-06 7.2938396e-06 3.345956e-06
5.474361e-07 4.9906174e-07 1.1717524e-06 2.3114505e-07 8.934772e-08 8.711485e-07 1.6662648e-07 1.4895589e-07
2.6789296e-06 1.2011416e-06 2.209606e-06 2.90768e-06 2.4416988e-07 2.4344556e-07 7.307808e-06 1.3267125e-06
5.9977315e-06 2.0824918e-06 4.978464e-07 4.2960573e-07 6.137306e-07 1.4219928e-06 4.9116816e-06 5.1389375e-06
3.720491e-07 2.955304e-07 2.6683551e-06 5.2593673e-06 1.1426623e-05 9.745979e-06 9.0368826e-07 8.385829e-07
1.0918905e-06 2.512664e-06 6.1323294e-07 3.2588943e-07 1.3302291e-07 1.1699799e-07 3.200285e-06 3.8978783e-06
2.519872e-06 1.2706962e-06 3.3726963e-07 3.048932e-07 1.3469686e-06 1.7249946e-06 5.229408e-06 1.340365e-06
2.6853934e-07 2.8236366e-07 1.1865116e-06 2.8344823e-06 1.4660725e-06 2.6167886e-06 3.1405347e-07 2.6380494e-07
6.0583517e-07 1.5525711e-06 4.6030254e-07 4.6100757e-07 8.3232635e-08 7.328425e-08 2.6779699e-06 5.1225943e-06
5.410195e-06 4.4033545e-06 6.803594e-07 6.1036127e-07 3.610756e-06 4.268502e-06 3.1680445e-06 3.334257e-06

exp_avg f4 [128]
00000000: b483 86b9 1ab5 fe39 f0a8 ebb9 9d25 e239
00000010: 34cb 7fb9 812d 7e38 2ff8 b8b9 5acd b1b9
00000020: 3c3b 5aba d1b6 1aba 74e5 c438 35e7 dd38
00000030: dc36 b139 7a15 62b9 626d 7aba 2745 3cba
00000040: ace0 06b9 d2d4 ecb9 f475 9839 4c01 1fb9
00000050: 9f28 b6b9 8311 bfb8 c761 6db9 a7b7 bcb9
00000060: a471 26b8 0999 77b7 7578 1aba b9ce 20ba
00000070: bd41 ac39 be34 45ba 0534 39ba 1300 213a
00000080: 083b 59ba 10f8 49b9 7277 bc39 19c7 9cba
00000090: c63c 96b9 596b 21b9 71ea 9aba 6964 ef37
000000a0: 4d6d 36b9 483b 8337 468d a7b9 a0a6 c739
000000b0: 8700 ae39 92ad 9ab8 44cf 393a ae2a 8439
000000c0: d4c2 203a 5422 cbb9 dc31 4bba 6c80 5ab9
000000d0: 0a98 233a 718c 09ba a912 87ba 7ab9 41b8
000000e0: e74e d0b8 1c1b 9939 3e7f 083a 7c9c e939
000000f0: 1e2e 0eba 5ebd e9b9 e13d 2eba 1a65 3aba
00000100: 921b efb9 93f2 a0b9 d339 2a3a f400 243a
00000110: b853 9ab9 020a f336 b3af 61ba 97f1 7638
00000120: 5861 7cba e49e 4cba 652e a039 18ee 43b9
00000130: d1e6 ff38 8206 8239 05d1 4539 a09d 4939
00000140: 2209 d538 5718 e6b9 b5cd ec39 7bce 84b9
00000150: 3530 833a c16c 05ba 95bd b8b9 7da3 0bba
00000160: e019 b0b9 a97e da37 d44b 67b9 0ebf b4b9
00000170: a81a 4a39 4dbb 07ba 8892 83ba 1115 94b9
00000180: bd5f 4bba 7596 02ba 75a9 17ba b3a0 5bb9
00000190: a24b 09ba 2399 6c39 5587 643a fb90 a239
000001a0: c7e0 f0b9 804b 0e39 1a74 c737 6018 4b39
000001b0: 0851 713a 9ba1 ffb8 759b 48ba 104b cdb7
000001c0: 9b94 85b8 e280 90b9 3ecf 0b3a da7c c039
000001d0: b592 d437 d9a9 16ba 40f5 8c39 d334 023a
000001e0: 6bbc 0d39 0539 e639 2c95 83ba 5eeb 1139
000001f0: a744 d1b8 496c 10ba 4c75 02b9 c645 ec39
-0.00025656598 0.00048581586 -0.0004494856 0.00043134103 -0.00024394394 6.0600698e-05 -0.00035280126 -0.0003391307
-0.00083248666 -0.00059018756 9.388747e-05 0.00010581167 0.00033800944 -0.0002156104 -0.00095530425 -0.00071819354
-0.00012862933 -0.0004517199 0.0002907958 -0.00015163905 -0.0003474401 -9.1108515e-05 -0.00022638506 -0.00035994986
-3.968332e-05 -1.47579785e-05 -0.0005892583 -0.00061343197 0.00032855375 -0.0007522813 -0.00070649415 0.00061416737
-0.00082866894 -0.00019261264 0.00035947148 -0.0011961191 -0.0002865551 -0.00015394147 -0.0011819137 2.8537777e-05
-0.0001739759 1.5644022e-05 -0.0003195798 0.00038080383 0.0003318826 -7.375622e-05 0.0007088075 0.000252088
0.0006132547 -0.00038744754 -0.0007751265 -0.00020837941 0.0006240612 -0.00052470627 -0.0010305244 -4.6187524e-05
-9.9329096e-05 0.00029202632 0.0005206949 0.00044557813 -0.0005423742 -0.00044582313 -0.0006646794 -0.0007110402
-0.00045606174 -0.0003069831 0.0006493602 0.00062562455 -0.00029435544 7.2431294e-06 -0.000860925 5.887597e-05
-0.00096275425 -0.0007805659 0.00030552145 -0.00018685346 0.000122023404 0.0002480038 0.0001886525 0.00019227574
0.000101583326 -0.00043887153 0.0004516669 -0.00025330842 0.0010008874 -0.0005089753 -0.00035236464 -0.0005326791
-0.00033588614 2.6046606e-05 -0.00022058125 -0.00034474622 0.00019274151 -0.00051777513 -0.0010038177 -0.00028244455
-0.00077581016 -0.0004981526 -0.0005785444 -0.00020945333 -0.00052374054 0.00022563762 0.0008717676 0.00031007067
-0.0004594384 0.00013570301 2.3776713e-05 0.00019368669 0.0009205495 -0.00012189449 -0.00076525594 -2.4472858e-05
-6.369614e-05 -0.00027561845 0.00053333107 0.00036714115 2.5340685e-05 -0.0005747355 0.00026885606 0.0004966978
0.00013516999 0.000439115 -0.0010038964 0.00013915959 -9.978684e-05 -0.00055093 -0.00012441463 0.00045065413

exp_avg_sq f4 [128]
00000000: d7ea 1437 ad9c 7c37 c18c 2d38 0ad3 a337
00000010: 7587 e836 87aa 0536 f408 8837 95a6 8c37
00000020: 9b7f 9d37 7224 fa37 9c3c 0738 28f8 8c37
00000030: 1617 2138 41d7 9c37 1d96 2537 a6f3 4937
00000040: 3acc 9237 3ad7 1c37 b44a e037 6805 ca36
00000050: 5b20 0938 951b d837 d950 0836 b795 2537
00000060: bc45 8936 b0a0 3837 0594 ff37 0487 ed37
00000070: 9653 2e38 ecca 1d36 23c4 ee37 478c 1f37
00000080: 6091 8837 02d2 f337 864a d737 3e7d 4938
00000090: ee68 e136 a14d 9837 d942 7037 4a72 9237
000000a0: 0924 ac36 d59d 1038 947a c937 dc6c 8e37
000000b0: 2ea3 7236 0dba a636 51e8 8337 c9f6 2137
000000c0: 4670 cf37 cce1 0a37 7dee 8737 dcfa 9036
000000d0: 4b5d c337 5146 9237 1daf 0538 0bb3 1f37
000000e0: a3c7 b536 121f 6c35 607b 5238 c963 a437
000000f0: 3f0e e337 494b 2038 fafb 2e38 d0dc c236
00000100: 48fa f137 6626 6037 de69 0e36 6587 9937
00000110: 59be ca37 6660 0938 46e2 8e37 6161 6c37
00000120: ef58 0f38 bbdb e337 658f d935 365d 9836
00000130: 2812 fb36 b7d9 2338 6e0b d237 8247 f036
00000140: f913 d337 1167 2536 f266 9e37 1b2a f937
00000150: 1449 2138 6ef7 d037 0cd5 d637 6b84 6337
00000160: 82d7 eb35 2bb7 0438 302a df37 b621 b737
00000170: a3ba 5037 cc09 3738 5e77 dc36 5201 4737
00000180: 0dd0 3137 d991 c337 d504 4036 55ce 1f37
00000190: 0db1 0638 3371 b837 93d0 1438 a889 9436
000001a0: 276c a837 4d90 e137 f2a7 d637 c181 1c38
000001b0: c6a0 6737 d154 7a37 eb7f b537 8e09 a337
000001c0: 3cb7 2638 7dfc 8837 5b5d 0f37 7533 0f38
000001d0: e7c6 d236 fc9c c036 ad1d d136 69d1 3136
000001e0: 89fe 8437 717e 9337 46fd de37 a9c4 ea36
000001f0: 5c69 d837 149f 4e36 4ac0 7f37 ea69 c436
8.876165e-06 1.5056849e-05 4.13775e-05 1.9529387e-05 6.929908e-06 1.9917804e-06 1.6216633e-05 1.6766871e-05
1.877528e-05 2.9819294e-05 3.2242955e-05 1.6804857e-05 3.840689e-05 1.8696885e-05 9.869717e-06 1.2037262e-05
1.7499657e-05 9.348436e-06 2.6737667e-05 6.0206985e-06 3.269348e-05 2.576205e-05 2.0312639e-06 9.869625e-06
4.0910363e-06 1.1004668e-05 3.0467296e-05 2.8315473e-05 4.156268e-05 2.351294e-06 2.8463144e-05 9.509799e-06
1.6280159e-05 2.906565e-05 2.56647e-05 4.8038775e-05 6.717738e-06 1.815596e-05 1.4320679e-05 1.7457776e-05
5.1301945e-06 3.4479268e-05 2.4018147e-05 1.697841e-05 3.6155793e-06 4.9688447e-06 1.5724598e-05 9.653807e-06
2.4728604e-05 8.278013e-06 1.6204309e-05 4.3207383e-06 2.3289254e-05 1.74373e-05 3.1872758e-05 9.518825e-06
5.417461e-06 8.7962064e-07 5.0182804e-05 1.959679e-05 2.7067143e-05 3.8217087e-05 4.1719504e-05 5.8073565e-06
2.8845985e-05 1.3360381e-05 2.1221272e-06 1.830207e-05 2.4168914e-05 3.2753123e-05 1.7033086e-05 1.4089369e-05
3.4176683e-05 2.7162829e-05 1.6209493e-06 4.540804e-06 7.4824966e-06 3.906499e-05 2.5039273e-05 7.160882e-06
2.516246e-05 2.4646909e-06 1.8883005e-05 2.970272e-05 3.845345e-05 2.491075e-05 2.5609996e-05 1.3561085e-05
1.7571585e-06 3.164184e-05 2.6603317e-05 2.1830998e-05 1.2441221e-05 4.3639724e-05 6.570407e-06 1.1861632e-05
1.0598463e-05 2.3313727e-05 2.8613042e-06 9.525179e-06 3.211298e-05 2.1987222e-05 3.54802e-05 4.426769e-06
2.0077523e-05 2.6889285e-05 2.5588994e-05 3.731414e-05 1.3806106e-05 1.4920909e-05 2.1636448e-05 1.9435563e-05
3.9748134e-05 1.6330037e-05 8.5452e-06 3.414178e-05 6.281643e-06 5.7403213e-06 6.23214e-06 2.6496948e-06
1.5854153e-05 1.7582644e-05 2.6582402e-05 6.9966377e-06 2.5798268e-05 3.0788988e-06 1.5243955e-05 5.853585e-06
