Scenes/ImprovedGridWorld2D/results/ppo-no-memory-curriculum/DroneGrid2D/DroneGrid2D-799778.onnx (onnx, 77147 bytes, 6 tensors)

network_body._body_endoder.seq_layers.0.weight f4 [128, 6]
-0.23080371 0.45172235 -0.5920976 -0.33834234 -0.52632517 0.19973445 -0.11095768 0.011077074
0.036866378 -0.27895474 -0.4511399 -0.36872837 -0.23228297 0.60618615 -0.08695063 -0.67426753
-1.3458211 0.22409013 0.32370415 -0.110604495 0.33679765 -0.47272965 -0.25821927 -0.79977113
-0.33908543 0.49757713 -0.39874038 -0.32388628 0.32880726 0.17755115 -0.5574393 -0.06560072
0.3195656 -0.022139769 -0.08937433 0.2236566 0.12562507 1.3154297 -0.13931334 0.59476876
-0.87882 0.015510452 0.1299466 -0.4111081 -0.30553716 -0.31135172 0.35567623 0.89252734
0.2713383 0.08500979 -0.18689828 -0.1923585 -0.26894528 0.4702775 0.16054676 -0.15502502
-0.114479534 0.04242105 -0.41239366 0.39787534 0.13235523 0.77186483 0.26541114 0.20019944
-0.23825142 -0.9790588 -0.12315584 -0.22065789 -0.36915812 0.47454125 0.610927 0.50408477
-0.1745816 -0.2925203 -0.08671883 0.1709991 0.24959005 -0.8738385 -0.019580279 0.62173945
-0.20008132 0.3709031 0.640033 0.12782957 -0.037444327 0.3376642 0.13553017 -0.9405489
0.068552844 0.37196484 1.0498222 -0.11318842 -0.07643247 -0.07571634 -0.5377252 0.028027656
0.8338406 0.59501094 0.32496035 0.19181229 0.67305875 -0.30456105 -0.022696191 0.5434094
0.50522107 0.7796304 0.36766222 0.70418775 -0.10770057 0.4613163 0.20498218 0.08066744
-0.22644351 -1.1156948 -0.22485995 0.30795795 0.5883634 0.9770789 0.10929868 0.49883223
-0.6497394 -0.09357988 -0.5018209 0.19762598 -0.52215135 1.0292573 0.4074988 -0.19374728
0.38682237 -0.55427796 0.7792207 0.22452419 -0.57128334 0.29861614 0.22827034 0.25728178
0.2556318 -0.034374855 -0.08471538 0.45318085 -0.54314303 0.7280601 -0.4842192 0.27591738
-0.55168355 -0.10043288 0.29404894 -0.482736 0.3917256 -0.0274712 -0.07986654 0.32937685
0.078418344 -0.10676031 -0.35187933 -0.4084443 -0.2527311 -0.42970532 -0.51932293 -0.2774127
0.23339376 1.1567026 -0.4420555 -0.52796596 0.39104047 -0.04110131 0.46577218 0.59759945
0.23757213 0.013051446 -0.008398001 -0.086160034 0.6037907 -0.20904827 -0.25758636 0.9660195
0.4516416 -0.31870717 -0.18924768 0.25732976 -0.009816299 0.022327548 0.27850983 -0.26240525
0.25025666 0.5198601 0.20855385 -0.46977034 -0.9157653 -0.3929585 -0.25478533 -0.53671306
1.005064 -0.0561847 -0.19171266 -0.07847916 0.1691293 1.2255921 0.6054765 -0.5697753
0.63257277 -0.28342277 -0.62214565 -0.9098878 -0.46512443 -0.24439478 0.10889939 0.005852556
0.24040404 -0.7398457 -0.027860034 0.1660555 0.174046 0.021863347 0.32714 0.9742867
0.024134623 0.9834891 -0.24329048 -0.027325742 0.42453843 -0.13950469 0.014143379 0.14823866
0.5269341 0.1517723 0.7030766 0.20834789 0.48355436 0.269179 0.714816 -0.51700556
0.058210753 0.66138697 -0.36729085 0.2012916 -0.24439788 0.35094988 -0.5739137 -0.4688277
-0.17452483 0.51274115 0.4760459 0.29533812 -0.3295747 -0.1000767 -0.3645348 -0.0013912935
0.3316148 0.4156996 -1.1983038 -0.42197844 0.08755635 0.13042912 0.26591915 0.31548795
00000000: cf57 6cbe 2748 e73e b593 17bf 353b adbe
00000010: 3fbd 06bf 3087 4c3e c83d e3bd 9e7c 353c
00000020: 3301 173d 28d3 8ebe cffb e6be f7c9 bcbe
00000030: 96db 6dbe 042f 1b3f 2c13 b2bd cc9c 2cbf
00000040: de43 acbf e277 653e 8dbc a53e 9c84 e2bd
00000050: be70 ac3e 9f09 f2be 5135 84be cdbd 4cbf
00000060: 9b9c adbe 6ec2 fe3e b327 ccbe 6cd4 a5be
00000070: 6d59 a83e f8cf 353e 58b4 0ebf ac59 86bd
00000080: 1a9e a33e 765e b5bc e409 b7bd 3c06 653e
00000090: dca3 003e 0060 a83f 28a8 0ebe c442 183f
000000a0: 59fa 60bf 8d1f 7e3c b910 053e c37c d2be
000000b0: 5e6f 9cbe 7e69 9fbe 321b b63e ac7c 643f
000000c0: dbec 8a3e 9d19 ae3d 4362 3fbe a0f9 44be
000000d0: 32b3 89be 36c8 f03e 5f66 243e e1be 1ebe
000000e0: 3f74 eabd b2c1 2d3d 4325 d3be 51b6 cb3e
000000f0: 2188 073e ef98 453f f8e3 873e 1501 4d3e
00000100: 2ef8 73be 99a3 7abf 2139 fcbd 24f4 61be
00000110: 4b02 bdbe 12f7 f23e b665 1c3f b30b 013f
00000120: 85c5 32be 39c5 95be a499 b1bd 631a 2f3e
00000130: 8994 7f3e e1b3 5fbf d266 a0bc 512a 1f3f
00000140: 1ee2 4cbe 03e7 bd3e 34d9 233f c1e5 023e
00000150: 395f 19bd 52e2 ac3e 6cc8 0a3e d0c7 70bf
00000160: 6f65 8c3d 2d72 be3e 9360 863f 55cf e7bd
00000170: a088 9cbd 2b11 9bbd 5ca8 09bf 419a e53c
00000180: 9476 553f a352 183f 3461 a63e 716a 443e
00000190: 944d 2c3f 6def 9bbe 5ded b9bc e11c 0b3f
000001a0: 2b56 013f dc95 473f 393e bc3e a645 343f
000001b0: 1e92 dcbd a631 ec3e d9e6 513e f934 a53d
000001c0: cfe0 67be 16cf 8ebf b041 66be aaac 9d3e
000001d0: fc9e 163f d821 7a3f fdd7 df3d f066 ff3e
000001e0: 5255 26bf cfa6 bfbd 5677 00bf 775e 4a3e
000001f0: b6ab 05bf b4be 833f afa3 d03e b065 46be
00000200: 950d c63e 29e5 0dbf 027b 473f abe9 653e
00000210: a03f 12bf 37e4 983e b3bf 693e 70ba 833e
00000220: 2ce2 823e a6cc 0cbd 427f adbd 5207 e83e
00000230: 6c0b 0bbf 2662 3a3f 94eb f7be 0b45 8d3e
00000240: 223b 0dbf c1af cdbd 958d 963e 2c29 f7be
00000250: 4290 c83e 480b e1bc 1291 a3bd 15a4 a83e
00000260: cc99 a03d 26a5 dabd 8729 b4be 9c1f d1be
00000270: f965 81be 5602 dcbe 59f2 04bf 0a09 8ebe
00000280: c6fe 6e3e d50e 943f 1955 e2be c728 07bf
00000290: 7536 c83e d959 28bd b179 ee3e 47fc 183f
000002a0: 1c46 733e bbd5 553c c597 09bc ac74 b0bd
000002b0: 0792 1a3f c010 56be 5ce2 83be 0e4d 773f
000002c0: 913d e73e 962d a3be 25ca 41be bac0 833e
000002d0: 8bd4 20bc 43e8 b63c d798 8e3e fb59 86be
000002e0: a421 803e 8d15 053f 248f 553e bd85 f0be
000002f0: 986f 6abf db31 c9be 3973 82be 0766 09bf
00000300: f0a5 803f ee21 66bd 5350 44be afb9 a0bd
00000310: 3b30 2d3e 34e0 9c3f 8200 1b3f cbdc 11bf
00000320: 4af0 213f ca1c 91be f044 1fbf 68ee 68bf
00000330: ca24 eebe a042 7abe a506 df3d ccc6 bf3b
00000340: 7a2c 763e 8766 3dbf ba3a e4bc 740a 2a3e
00000350: 1d39 323e c31a b33c e57e a73e da6a 793f
00000360: f9b5 c53c f1c5 7b3f 2421 79be 3cda dfbc
00000370: 1a5d d93e 51da 0ebe a2b9 673c e0cb 173e
00000380: 27e5 063f 336a 1b3e d4fc 333f 2659 553e
00000390: 7094 f73e d4d1 893e 2efe 363f 7a5a 04bf
000003a0: 666e 6e3d a850 293f 8c0d bcbe 631f 4e3e
000003b0: 7043 7abe b4af b33e 02ec 12bf 2f0a f0be
000003c0: a3b6 32be 0143 033f 4abc f33e 8f36 973e
000003d0: 04be a8be 03f5 ccbd 4ea4 babe 105c b6ba
000003e0: 6ac9 a93e 94d6 d43e 0562 99bf 8f0d d8be
000003f0: be50 b33d 368f 053e 8e26 883e a387 a13e

network_body._body_endoder.seq_layers.0.bias f4 [128]
0.044081256 -0.0046836096 0.0767678 0.072444715 0.03307292 -0.082168385 0.03343262 -0.009303621
0.033935107 0.00055081496 0.05948232 0.03152695 0.02710566 0.037819374 0.04527969 0.042928096
0.089294516 0.053813837 0.046648778 0.02073978 0.0677346 0.03483869 0.016782125 0.034462374
0.018347215 0.06257447 0.042197887 0.044134524 0.051138602 0.17003332 -0.012883706 0.024510702
0.044206075 0.06381961 0.03291308 0.07586096 0.107916005 0.017921474 0.043327548 0.025099456
0.004362455 0.07859617 0.094060585 0.022881279 0.06982132 -0.0023196612 -0.0041649225 -0.04760041
0.04834661 0.015762227 -0.0151650505 -0.004433482 0.067851424 0.039454248 0.070462525 0.02419922
0.012066027 -0.009217624 0.03187847 0.025533786 0.059700098 0.060434703 0.07035992 0.086262286
0.05623253 -0.0027156658 -0.08333178 0.034160104 0.019724328 0.023214133 0.062693775 0.043493893
0.04555066 0.08795038 -0.14305535 -0.009113197 -0.049311858 0.0528997 0.05273924 -0.07486871
0.04311165 0.09171897 0.013671676 0.05401935 0.035333496 0.06588714 0.02789005 0.016973991
0.0136896465 0.04369249 0.036107805 0.058769226 0.051846154 0.0612552 0.15606494 0.022142543
0.068822496 0.04566263 0.056106124 -0.008719544 0.035458904 0.027673436 0.05114865 0.008875112
0.019663433 0.04262781 0.028200367 0.03348842 0.039395675 0.07522247 0.054247536 0.0360687
0.058713008 0.015023877 -0.07991991 0.034512777 -0.025640437 0.043760747 -0.030166255 -0.120436214
0.039011646 0.042957537 0.029862653 -0.028018657 0.049315818 0.12633127 0.014633644 0.0074322335
00000000: 8c8e 343d f778 99bb 7038 9d3d e55d 943d
00000010: 7877 073d e647 a8bd a5f0 083d 376e 18bc
00000020: 8aff 0a3d 9164 103a bca3 733d 6722 013d
00000030: b00c de3c 7de8 1a3d 3277 393d 5fd5 2f3d
00000040: 0be0 b63d e66b 5c3d ca12 3f3d 79e6 a93c
00000050: 70b8 8a3d 04b3 0e3d ab7a 893c 6b28 0d3d
00000060: e64c 963c 0b27 803d b1d7 2c3d 67c6 343d
00000070: b676 513d 371d 2e3e 2e16 53bc abca c83c
00000080: 6e11 353d dbb3 823d decf 063d fe5c 9b3d
00000090: 1103 dd3d 0ed0 923c 3a78 313d 609d cd3c
000000a0: edf2 8e3b 07f7 a03d d6a2 c03d 8571 bb3c
000000b0: 7bfe 8e3d 7505 18bb e779 88bb a6f8 42bd
000000c0: 1807 463d c91f 813c d576 78bc be46 91bb
000000d0: b0f5 8a3d c79a 213d a84e 903d 713d c63c
000000e0: 96b0 453c 8405 17bc 0093 023d 3b2c d13c
000000f0: 1788 743d 618a 773d dd18 903d 48aa b03d
00000100: 1554 663d 50f9 31bb daa9 aabd 77eb 0b3d
00000110: ea94 a13c 912b be3c 9865 803d a726 323d
00000120: 5493 3a3d 541f b43d 1a7d 12be 854f 15bc
00000130: 3bfb 49bd 5bad 583d 1a05 583d c454 99bd
00000140: d795 303d 28d7 bb3d 2aff 5f3c 6543 5d3d
00000150: dbb9 103d d6ef 863d ad79 e43c 0a0d 8b3c
00000160: 8a4a 603c e5f6 323d c7e5 133d 00b8 703d
00000170: a25c 543d bce6 7a3d 7dcf 1f3e 4764 b53c
00000180: cff2 8c3d bd08 3b3d 89cf 653d 6bdc 0ebc
00000190: 5b3d 113d 67b3 e23c 3f81 513d eb68 113c
000001a0: 3515 a13c 809a 2e3d 7504 e73c 272b 093d
000001b0: 5c5d 213d 3d0e 9a3d aa32 5e3d c6bc 133d
000001c0: 0d7d 703d b526 763c 0dad a3bd 455d 0d3d
000001d0: e50b d2bc 783e 333d 391f f7bc 43a7 f6bd
000001e0: adca 1f3d 3ef4 2f3d 86a2 f43c 6287 e5bc
000001f0: 62ff 493d fc5c 013e f4c1 6f3c 188a f33b

network_body._body_endoder.seq_layers.2.weight f4 [128, 128]
0.1841337 0.06267772 -0.0020777606 0.15644781 -0.23973389 -0.19815941 0.04588322 -0.18652959
0.028924908 -0.054286767 0.041067734 -0.071829155 0.12258186 0.0064117517 -0.033444207 0.024851168
-0.017447304 -0.0261534 0.14432363 -0.041303728 -0.023860807 -0.18652575 -0.11464781 -0.09753806
0.029648447 0.0746729 -0.18133566 -0.12089235 -0.10045002 0.017815037 -0.2574552 0.098323464
-0.16909945 -0.049986027 0.17832097 -0.26553938 -0.11209115 -0.27000603 -0.12537402 0.22334377
0.11583414 0.05571301 0.03553206 -0.21741153 -0.017403353 -0.03766273 -0.03134057 -0.063598216
0.31734377 -0.111530505 -0.1210561 -0.12548436 0.108469725 -0.14635235 0.07409507 -0.076887935
-0.04073199 0.22499731 -0.25540614 -0.010801794 0.11466797 0.19612475 -0.040751513 0.04505927
-0.14286788 -0.11826352 0.12901968 0.37750202 0.093039945 -0.18286055 -0.17329402 0.14105105
-0.19855474 -0.060735494 -0.040361796 0.12665482 -0.22154728 0.0385904 0.18368033 -0.09963709
0.038257252 0.06531468 0.1914226 0.08367593 -0.05867625 0.25380307 -0.1929919 -0.10281289
0.008800069 0.30783314 -0.25872952 -0.13292868 0.031702556 0.2718053 -0.03964128 0.07282525
-0.17181502 -0.057138044 -0.09227365 -0.058870446 -0.074803516 -0.106140934 0.07677003 0.156382
-0.18307443 -0.0020460512 -0.13433473 -0.23477812 -0.0031483534 -0.16442424 -0.004424002 -0.11772611
-0.18813619 -0.02197351 -0.16465738 0.13887587 -0.2335987 -0.09421813 0.04134279 -0.00053329626
-0.06029127 0.26670304 -0.10076373 0.07681401 0.09355376 0.043668326 -0.02223519 0.12402967
0.0046509225 0.03070726 -0.18299548 -0.010137168 0.13043551 0.043292835 0.1454557 0.08703103
0.115450114 0.03565427 -0.11628639 0.074868016 -0.0010448033 0.09651641 0.2362685 -0.0215977
0.105159394 0.17025042 -0.13860461 -0.10624902 0.10813394 0.28938732 0.16400324 -0.04617971
-0.025449874 -0.04206739 0.13764726 0.16682142 0.071861945 -0.089571446 0.18804091 -0.14908403
0.07380665 -0.015216854 -0.23760042 0.14327294 0.037283346 0.23653416 0.0913052 0.17894062
-0.030231658 0.0053924457 0.08146355 0.1367495 -0.032143455 0.0036016887 -0.2093001 -0.068939954
-0.07969004 0.050283995 0.08935735 -0.042335942 -0.21481444 0.0066517917 -0.036592547 0.049578037
0.13857287 -0.22410126 0.0051127365 -0.050087124 0.18093362 0.04731602 0.13283135 0.011485406
0.22840819 -0.018889248 -0.035793945 -0.08114684 -0.14382893 0.12375744 0.18250056 -0.14642978
0.03009443 0.23672561 -0.092642576 -0.08736309 -0.24091575 -0.11678678 -0.09045478 -0.034842893
0.15330374 -0.026804576 -0.018028777 0.15585408 0.05455112 -0.1377149 0.16139817 0.08539195
0.051821813 -0.054529052 0.12071569 0.072266966 -0.024243947 -0.041383293 0.02872731 0.082057625
0.001983823 0.08038714 0.14070737 0.11387713 -0.22924586 0.097489156 0.11502927 -0.08725688
0.08378758 0.09263616 0.10974818 0.11516585 -0.0025736594 0.20232238 -0.05393703 0.1034774
0.09705187 -0.094290726 -0.07777032 0.015856609 0.12128234 0.19323722 -0.10759171 -0.11902104
-0.0936878 -0.14605764 -0.088281564 -0.035659652 -0.20983034 -0.020183297 0.09622736 -0.121458925
00000000: 8b8d 3c3e 2d5d 803d 0a2b 08bb db33 203e
00000010: cd7c 75be 4dea 4abe 0bf0 3b3d 9d01 3fbe
00000020: eef3 ec3c cd5b 5ebd a436 283d 2a1b 93bd
00000030: 330c fb3d ac19 d23b cbfc 08bd ad94 cb3c
00000040: a6ed 8ebc a83f d6bc 93c9 133e 192e 29bd
00000050: bd77 c3bc 9b00 3fbe 79cc eabd 09c2 c7bd
00000060: 4de1 f23c 1bee 983d 0eb0 39be 6996 f7bd
00000070: bdb8 cdbd d7f0 913c 2bd1 83be d05d c93d
00000080: 6828 2dbe 26be 4cbd c699 363e c7f4 87be
00000090: 0b90 e5bd 3b3e 8abe 0c62 00be 3bb4 643e
000000a0: 733a ed3d 5333 643d 118a 113d 21a1 5ebe
000000b0: 7a91 8ebc 3c44 1abd f85e 00bd c83f 82bd
000000c0: e27a a23e 1b6a e4bd 43ec f7bd f97e 00be
000000d0: 6025 de3d 64dd 15be 28bf 973d 6c77 9dbd
000000e0: 96d6 26bd b265 663e 98c4 82be 02fa 30bc
000000f0: 0ad7 ea3d edd4 483e 0feb 26bd 1290 383d
00000100: f54b 12be 2534 f2bd bc1d 043e f247 c13e
00000110: ba8b be3d cc3f 3bbe fd73 31be b06f 103e
00000120: ef51 4bbe c8c5 78bd 6952 25bd cdb1 013e
00000130: 4add 62be f810 1e3d b216 3c3e 880e ccbd
00000140: a3b3 1c3d b4c3 853d 4904 443e 495e ab3d
00000150: 8256 70bd 7af2 813e ab9f 45be 918f d2bd
00000160: 2a2e 103c 4e9c 9d3e 3278 84be 751e 08be
00000170: 8ada 013d 102a 8b3e e55e 22bd 6825 953d
00000180: 47f0 2fbe 9509 6abd f8f9 bcbd 2322 71bd
00000190: 9632 99bd 6b60 d9bd 9b39 9d3d 9a22 203e
000001a0: dd77 3bbe 0b17 06bb 0b8f 09be ad69 70be
000001b0: 9b54 4ebb d45e 28be 38f7 90bb 631a f1bd
000001c0: c6a6 40be ca01 b4bc f29b 28be 7a35 0e3e
000001d0: 7f34 6fbe 6ff5 c0bd 0f57 293d e8cc 0bba
000001e0: fbf3 76bd 4d8d 883e 375d cebd aa50 9d3d
000001f0: 1d99 bf3d 8fdd 323d 9326 b6bc 4503 fe3d
00000200: c466 983b cb8d fb3c 2b63 3bbe 5d16 26bc
00000210: e390 053e d453 313d 57f2 143e 533d b23d
00000220: 1c71 ec3d 360a 123d 8f27 eebd 6754 993d
00000230: c8f1 88ba 65aa c53d 5ff0 713e a9ed b0bc
00000240: cf5d d73d 2056 2e3e 5eee 0dbe 1699 d9bd
00000250: 5475 dd3d 932a 943e 77f0 273e f026 3dbd
00000260: 417c d0bc db4e 2cbd 67f3 0c3e 3cd3 2a3e
00000270: 5b2c 933d 3c71 b7bd cc8d 403e 7ca9 18be
00000280: f127 973d 1d50 79bc 864d 73be 24b6 123e
00000290: 6cb6 183d 0336 723e 38fe ba3d 363c 373e
000002a0: 62a8 f7bc 1db3 b03b 5dd6 a63d 1008 0c3e
000002b0: dba8 03bd 4f0a 6c3b c452 56be 6430 8dbd
000002c0: 8834 a3bd 97f6 4d3d fc00 b73d 7468 2dbd
000002d0: 51f8 5bbe 46f7 d93b 11e2 15bd 5712 4b3d
000002e0: 0ce6 0d3e cd7a 65be be88 a73b 2828 4dbd
000002f0: aa46 393e 71ce 413d f104 083e 492d 3c3c
00000300: d6e3 693e a0bd 9abc ac9c 12bd 5030 a6bd
00000310: e447 13be 8a74 fd3d 6de1 3a3e b0f1 15be
00000320: 9888 f63c 3368 723e 64bb bdbd 6beb b2bd
00000330: 9eb2 76be e82d efbd 5b40 b9bd 6cb7 0ebd
00000340: a8fb 1c3e 4595 dbbc 16b1 93bc 3698 1f3e
00000350: ff70 5f3d 2205 0dbe 9045 253e fae1 ae3d
00000360: 1c43 543d db59 5fbd ca39 f73d b400 943d
00000370: 3e9b c6bc 8781 29bd 8955 eb3c d40d a83d
00000380: 0703 023b 03a2 a43d 9815 103e 6a38 e93d
00000390: 6dbf 6abe 65a8 c73d 7794 eb3d bcb3 b2bd
000003a0: d398 ab3d 07b8 bd3d a7c3 e03d 13dc eb3d
000003b0: d7aa 28bb 992d 4f3e 13ed 5cbd f6eb d33d
000003c0: 21c3 c63d 7f1b c1bd 0c46 9fbd b8e5 813c
000003d0: e062 f83d fadf 453e 0b59 dcbd 4ec1 f3bd
000003e0: 64df bfbd 2290 15be f7cc b4bd db0f 12bd
000003f0: c4dd 56be 7157 a5bc da12 c53d 75bf f8bd

network_body._body_endoder.seq_layers.2.bias f4 [128]
0.08241884 0.046244454 0.08862574 0.08255894 0.061055403 0.079794966 0.1511447 0.09009583
0.07170753 -0.009865866 0.05823187 0.11631439 0.05077715 0.062483754 0.044097926 0.09866677
0.09742872 0.08438344 0.098285995 0.08207912 0.08074305 0.091504864 0.08537845 0.063130885
0.10108244 0.09834567 0.087687865 0.091575 0.04861656 0.07512101 0.047830094 0.019125702
0.08261332 0.06017352 0.08505959 0.087772995 0.088438205 0.09782844 0.058007877 0.09346563
0.04036071 0.06718179 0.028070468 0.02562519 0.08399201 0.04771903 0.06388001 0.08339898
0.0908416 0.08093681 0.076325685 0.06168248 0.06394047 0.13401306 0.097697094 -0.043931995
0.086666614 0.06140845 0.08551069 0.088830814 0.072790414 0.10370478 0.08124676 0.11403637
0.093625285 0.076916404 0.017354919 0.07241096 0.07759879 0.03250575 0.07676714 0.10416724
0.059614256 0.081137724 0.10144489 0.05141237 0.07471049 0.07972924 0.07252219 0.09266413
0.047847126 0.06545872 0.09665164 9.730391e-05 0.0342539 0.07325253 0.06762641 0.046656456
0.0901702 0.065745756 0.16232085 0.09173074 0.07523134 0.086643085 0.07126574 0.07157561
0.09381154 0.058362134 0.07316532 0.087387085 0.08676453 0.055367894 0.08495808 0.09417677
0.060260568 0.050470997 -0.013153372 0.053906534 0.09500057 0.051727515 0.005257362 0.09166252
0.07072739 0.07822571 0.058462117 0.084401876 -0.033078916 0.06801187 0.03673869 0.04450225
0.03198783 0.09045283 0.07549649 0.09730583 0.09560162 0.055851206 0.07214832 0.029758584
00000000: 35cb a83d d36a 3d3d 6981 b53d a914 a93d
00000010: 3b15 7a3d 8b6b a33d adc5 1a3e 2a84 b83d
00000020: 66db 923d 71a4 21bc 8b84 6e3d 3d36 ee3d
00000030: b3fb 4f3d f7ee 7f3d 07a0 343d ce11 ca3d
00000040: b588 c73d 3ad1 ac3d 2b4a c93d 1919 a83d
00000050: 9d5c a53d e766 bb3d e6da ae3d c44a 813d
00000060: 4f04 cf3d 7469 c93d b295 b33d ac8b bb3d
00000070: 2822 473d 0bd9 993d 7de9 433d 81ad 9c3c
00000080: 2c31 a93d 8278 763d b933 ae3d 54c2 b33d
00000090: 171f b53d 475a c83d ab99 6d3d e96a bf3d
000000a0: 4651 253d 9b96 893d 0af4 e53c ebeb d13c
000000b0: 0104 ac3d 0875 433d 86d3 823d 16cd aa3d
000000c0: 290b ba3d 33c2 a53d a450 9c3d c5a6 7c3d
000000d0: 39f3 823d b83a 093e 6a15 c83d 09f2 33bd
000000e0: 447e b13d 6d87 7b3d 3b20 af3d eeec b53d
000000f0: 2413 953d 2c63 d43d b464 a63d e68b e93d
00000100: 9dbe bf3d 5986 9d3d e72b 8e3c 334c 943d
00000110: 1dec 9e3d c024 053d 1738 9d3d a255 d53d
00000120: 142e 743d 892b a63d 57c2 cf3d c795 523d
00000130: d001 993d 1549 a33d 8486 943d b1c6 bd3d
00000140: 59fb 433d 390f 863d 4cf1 c53d a40f cc38
00000150: d14d 0c3d 6c05 963d b77f 8a3d d71a 3f3d
00000160: 27ab b83d b6a5 863d 7037 263e 54dd bb3d
00000170: e412 9a3d ee71 b13d c6f3 913d 3c96 923d
00000180: 4420 c03d 220d 6f3d b3d7 953d 00f8 b23d
00000190: 9ab1 b13d 72c9 623d 80fe ad3d c0df c03d
000001a0: c9d3 763d adba 4e3d 3e81 57bc 19cd 5c3d
000001b0: a98f c23d 3be0 533d f345 ac3b 8fb9 bb3d
000001c0: 86d9 903d cd34 a03d f975 6f3d e4da ac3d
000001d0: c27d 07bd cf49 8b3d 4f7b 163d fe47 363d
000001e0: ac05 033d 553f b93d e79d 9a3d 4748 c73d
000001f0: c8ca c33d 3cc4 643d 80c2 933d 46c8 f33c

action_model._discrete_distribution.branches.0.weight f4 [5, 128]
-0.004980715 -0.07907638 -0.034587532 -0.10383863 -0.04704823 -0.067813165 -0.123711646 -0.08400697
-0.04473596 0.06333754 -0.050073475 -0.12711172 -0.047920957 -0.0625457 0.0011432794 -0.06253389
-0.12330647 -0.0896286 -0.071827225 -0.04355496 -0.11357505 -0.065366484 -0.028495442 -0.019276997
-0.11806341 -0.102925256 -0.07702053 -0.06335218 -0.016364282 -0.04999152 -0.002119791 0.058868237
-0.06869535 -0.005039054 -0.061590433 -0.113512866 -0.099511795 -0.08107765 -0.038890045 -0.09729327
-0.048587043 -0.038742084 -0.027405258 -0.011138691 -0.027215375 -0.06480195 0.023615247 -0.106912635
-0.041451808 -0.07095275 -0.07631111 -0.03940882 -0.00816011 -0.1280351 -0.124171816 0.07406975
-0.034942735 -0.043844756 -0.0616104 -0.10125321 -0.046995796 -0.111185096 -0.07051368 -0.10271021
-0.095176406 -0.07873863 -0.0035891042 -0.08264639 -0.027960574 0.00020433687 -0.06712283 -0.094328895
-0.09572796 -0.02533426 -0.09871946 -0.045724884 -0.06401035 -0.055866834 -0.10640164 -0.098969586
0.033417143 -0.08338313 -0.095203795 0.04264561 -0.043651786 -0.070888914 -0.018861663 -0.0195315
-0.07823717 -0.06460429 -0.14610122 -0.1173207 -0.076154664 -0.07397833 -0.04662792 -0.05760385
-0.122846514 -0.024897749 -0.081510395 -0.08199857 -0.12088506 0.037709966 -0.08035271 -0.07787773
0.0064956797 -0.044519253 0.015270267 -0.041059215 -0.0972908 -0.03955898 0.0064703496 -0.12101545
-0.06325707 -0.06566898 0.014072174 -0.08792033 0.07497817 -0.07116928 -0.05920044 -0.05990293
0.05782763 -0.046678808 -0.05622696 -0.050463747 -0.07688003 -0.057607215 -0.016844695 0.03765358
0.1540528 -0.048110288 0.1499169 0.10988242 -0.045805465 -0.1378547 -0.06551147 -0.051099896
-0.14521503 -0.0075696125 0.15373348 0.069497004 -0.05698541 0.105222404 0.16269092 -0.118552275
0.115732424 0.09702879 -0.13641721 -0.14279585 0.09895541 -0.13352306 -0.1562782 -0.07496055
0.13659443 0.124890864 0.15072489 -0.0946467 -0.11736363 -0.1326979 0.119159915 -0.09103769
-0.082421094 -0.038239088 0.05703465 0.08533053 -0.08656839 -0.10000204 0.15607554 -0.017071154
0.14941697 0.019383863 -0.09045447 -0.1642763 0.16411854 0.05863315 0.012846645 0.08019471
-0.10414422 -0.059234668 0.060566384 0.095371105 -0.12104392 0.06254805 0.08917105 0.06566398
-0.15347855 -0.1397872 0.14415467 0.12544657 0.023622163 -0.074446745 0.14297618 0.13434124
-0.094673485 0.14059949 -0.11835023 0.14616197 0.14365342 -0.13025601 0.14285831 0.09416723
0.058105752 0.15583687 -0.08617685 -0.109811515 0.15470813 0.15067057 0.073637806 0.0072444296
-0.13139613 0.10046615 -0.047341656 -0.13756865 -0.06000888 -0.13912146 0.061141845 -0.14809275
0.15938275 -0.120224915 0.058372844 0.13184376 0.13948262 0.08630791 0.14333649 0.13105373
0.07804535 -0.005502687 0.13192914 -0.090271525 0.149953 -0.14135198 -0.13641772 -0.07603003
-0.13489823 -0.07671801 -0.08524213 0.022145253 0.13515453 -0.14178729 -0.11584379 0.034774326
-0.09774422 -0.091885395 0.015532496 -0.090084694 -0.06609977 0.098783515 0.13565485 0.11490602
-0.14569649 -0.1115311 -0.12761435 -0.15373982 -0.09994274 0.13330306 -0.13243292 0.1527432
00000000: 4435 a3bb ccf2 a1bd a8ab 0dbd 59a9 d4bd
00000010: a5b5 40bd a1e1 8abd 885c fdbd d90b acbd
00000020: 0e3d 37bd 1db7 813d d819 4dbd 9329 02be
00000030: c448 44bd f617 80bd 17da 953a c511 80bd
00000040: 1a88 fcbd 338f b7bd 271a 93bd b066 32bd
00000050: 099a e8bd ddde 85bd 466f e9bc cbea 9dbc
00000060: 3bcb f1bd 7aca d2bd f1bc 9dbd cabe 81bd
00000070: 630e 86bc e8c3 4cbd 31ec 0abb d21f 713d
00000080: 26b0 8cbd a61e a5bb 4046 7cbd 6f79 e8bd
00000090: d7cc cbbd 0a0c a6bd 2b4b 1fbd b241 c7bd
000000a0: 3503 47bd 05b0 1ebd fe80 e0bc 0e7f 36bc
000000b0: c7f2 debc e2b6 84bd c374 c13c 03f5 dabd
000000c0: 5fc9 29bd ad4f 91bd 0049 9cbd 256b 21bd
000000d0: fbb1 05bc a21b 03be cb4d febd e2b1 973d
000000e0: 1d20 0fbd 8f96 33bd 305b 7cbd d85d cfbd
000000f0: aa7e 40bd 03b5 e3bd 7a69 90bd bb59 d2bd
00000100: d9eb c2bd b841 a1bd 2d37 6bbb 8342 a9bd
00000110: 930d e5bc 4343 5639 b277 89bd 822f c1bd
00000120: 050d c4bd cb89 cfbc 6e2d cabd 044a 3bbd
00000130: dc17 83bd 9fd4 64bd 1ae9 d9bd 91b0 cabd
00000140: 6ae0 083d c6c4 aabd 35fa c2bd 2aad 2e3d
00000150: 37cc 32bd 352e 91bd c683 9abc 8600 a0bc
00000160: cf3a a0bd 414f 84bd 8f9b 15be d645 f0bd
00000170: faf6 9bbd f381 97bd ebfc 3ebd 04f2 6bbd
00000180: f496 fbbd 5df6 cbbc ecee a6bd deee a7bd
00000190: 9692 f7bd c475 1a3d f68f a4bd 5c7e 9fbd
000001a0: b6d9 d43b d259 36bd 2430 7a3c b52d 28bd
000001b0: 6640 c7bd 9908 22bd 3a05 d43b f3d6 f7bd
000001c0: ec8c 81bd 757d 86bd fa8e 663c 930f b4bd
000001d0: 288e 993d 33c1 91bd 297c 72bd c65c 75bd
000001e0: aadc 6c3d 4732 3fbd 3e4e 66bd 13b3 4ebd
000001f0: 4773 9dbd 8bf5 6bbd e3fd 89bc a43a 1a3d
00000200: 04c0 1d3e 4b0f 45bd d183 193e 090a e13d
00000210: 839e 3bbd c829 0dbe e12a 86bd 204e 51bd
00000220: 40b3 14be 830a f8bb 4f6c 1d3e 7254 8e3d
00000230: 8969 69bd d87e d73d 7398 263e 89cb f2bd
00000240: 1f05 ed3d 08b7 c63d f4b0 0bbe 1339 12be
00000250: 22a9 ca3d 45ba 08be 6407 20be eb84 99bd
00000260: 69df 0b3e c8c6 ff3d a057 1a3e 21d6 c1bd
00000270: 585c f0bd f5e1 07be 1d0a f43d f871 babd
00000280: 64cc a8bd 97a0 1cbd 2a9d 693d c6c1 ae3d
00000290: c54a b1bd dfcd ccbd 44d2 1f3e ced8 8bbc
000002a0: c300 193e e8ca 9e3c 3140 b9bd 0c38 28be
000002b0: b10e 283e 5029 703d bc7a 523c 203d a43d
000002c0: 9149 d5bd 0da0 72bd 7514 783d ed51 c33d
000002d0: e0e5 f7bd 3119 803d 509f b63d d67a 863d
000002e0: 7b29 1dbe 6024 0fbe 489d 133e 1175 003e
000002f0: 4483 c13c 8977 98bd 5968 123e c090 093e
00000300: 2ce4 c1bd 50f9 0f3e 9b61 f2bd 7cab 153e
00000310: e219 133e d561 05be 7349 123e c0da c03d
00000320: 4c00 6e3d b393 1f3e 7d7d b0bd dce4 e0bd
00000330: cf6b 1e3e 6349 1a3e 6bcf 963d ae62 ed3b
00000340: b58c 06be 32c1 cd3d 53e9 41bd ccde 0cbe
00000350: dfcb 75bd db75 0ebe df6f 7a3d a0a5 17be
00000360: 3b35 233e 7b38 f6bd 5d18 6f3d 0d02 073e
00000370: 88d4 0e3e 34c2 b03d cdc6 123e f332 063e
00000380: 3ed6 9f3d e24f b4bb 6f18 073e 47e0 b8bd
00000390: 478d 193e 93be 10be 16b1 0bbe a2b5 9bbd
000003a0: c322 0abe 551e 9dbd 6d93 aebd f669 b53c
000003b0: f365 0a3e b030 11be 823f edbd 866f 0e3d
000003c0: 1f2e c8bd 692e bcbd 037c 7e3c 537e b8bd
000003d0: 515f 87bd 034f ca3d 1be9 0a3e d953 eb3d
000003e0: 7631 15be 6b6a e4bd 56ad 02be f96d 1dbe
000003f0: c7ae ccbd 9980 083e 7f9c 07be b768 1c3e

action_model._discrete_distribution.branches.0.bias f4 [5]
-0.11566561 0.016892899 0.024556411 0.04039795 0.035740215
00000000: 17e2 ecbd fa62 8a3c 872a c93c 5278 253d
00000010: 5564 123d
